results/CurveRoad1.0/CarAgent/checkpoint.pt (torch, 490283 bytes, 36 tensors)

network_body._body_endoder.seq_layers.0.weight f4 [128, 22]
0	0xbe220410	-0.15821862
1	0x3d526c81	0.05137301
2	0xbebdc473	-0.3706394
3	0x3e7595e6	0.23982963
4	0x3e55d613	0.20882444
5	0xbeb58874	-0.35455668
6	0xbd30ffbf	-0.04321265
7	0xbe5abcd3	-0.21361093
8	0xbe61cf32	-0.22051695
9	0xbd84c033	-0.064819716
10	0x3d1eb59e	0.038747422
11	0xbe194acf	-0.14969943
12	0xbea8b29a	-0.32948762
13	0x3dd3c685	0.10340599
14	0xbd9e1c0b	-0.077201925
15	0x3cc0ac3f	0.023519633
16	0x3ea7d4b6	0.32779473
17	0xbeaf0e49	-0.34190586
18	0x3e28b63d	0.16475768
19	0xbef6b54b	-0.4818519
20	0xbe81b040	-0.2532978
21	0x3c86c634	0.016451932
22	0xbe828ef2	-0.25499684
23	0x3dcbcd8f	0.099513166
24	0xbedba1a3	-0.42896757
25	0x3e6e479f	0.23269509
26	0x3d80bcf3	0.06286039
27	0x3efaf8c7	0.49017927
28	0xbd5a3ffe	-0.053283684
29	0xbdaf2890	-0.085526586
30	0x3e185b03	0.14878468
31	0x3e9e2dbb	0.30894265
32	0xbd141e89	-0.036161933
33	0xbdbdffdf	-0.09277319
34	0x3e115c75	0.14195426
35	0x3e83acc4	0.25717747
36	0x3c6ab192	0.014324563
37	0x3db3839f	0.08765339
38	0xbe84f99e	-0.25971693
39	0x3ec9bed2	0.39403397
40	0x3cb7d89b	0.022442153
41	0x3e565623	0.20931296
42	0x3cf6b20e	0.0301142
43	0xbdefcbfc	-0.11708829
44	0x3da3aa81	0.079915054
45	0x3e753cf7	0.23949037
46	0xbdca1b8a	-0.09868534
47	0xbed7c663	-0.42143545
48	0xbe9ec18a	-0.31007034
49	0xbdafb5ca	-0.085795954
50	0x3daa3e0b	0.08312615
51	0x3ece287e	0.40265268
52	0x3c76fe5e	0.015075294
53	0x3e5666b5	0.20937617
54	0x3eacd042	0.33752638
55	0xbe1e0dba	-0.15434924
56	0x3dcb12d0	0.099156976
57	0x3d22c797	0.039741125
58	0xbe929182	-0.2862664
59	0x3b9926ab	0.004673799
60	0x3e54e027	0.20788632
61	0xbecaaea3	-0.39586362
62	0xbe07e54f	-0.13271068
63	0xbe21308d	-0.15741177
64	0x3bdb3437	0.006689574
65	0x3e5feda2	0.21867993
66	0xbe152f64	-0.1456886
67	0xbe014dd0	-0.1262734
68	0xbc6660d7	-0.014061174
69	0xbe9c348c	-0.3050884
70	0xbe87e60e	-0.26542705
71	0xbe1465f6	-0.1449202
72	0xbee48405	-0.44631973
73	0xbed9461a	-0.42436296
74	0x3d7c4787	0.06159165
75	0x3df85091	0.12124742
76	0xbe727dba	-0.23680773
77	0xbc959568	-0.018259719
78	0x3e6aad83	0.22917752
79	0xbe4ed7b5	-0.20199473
80	0xbe423bc3	-0.1896811
81	0xbce36203	-0.027756697
82	0x3e247a7e	0.16062352
83	0xbbe446c2	-0.006966443
84	0x3e8dafb0	0.276731
85	0x3d39f090	0.045395434
86	0xbe45a29b	-0.1930031
87	0xbd42a4fa	-0.047520615
88	0xbdefca5f	-0.11708521
89	0x3c297538	0.0103428885
90	0xbd87b8f2	-0.066270724
91	0x3eb16ae8	0.34651875
92	0xbd125de9	-0.03573409
93	0x3e0cf9f8	0.1376723
94	0x3d105b04	0.03524305
95	0xbee8d8ff	-0.45478055
96	0xbd80862d	-0.06275592
97	0x3cc1898c	0.023625158
98	0x3e658c78	0.22416866
99	0xbddad614	-0.106853634
100	0x3ce3d195	0.027809897
101	0x3e88b6d8	0.26702
102	0xba6cbf73	-0.00090312137
103	0x3d6e7640	0.05821824
104	0xbe317f3d	-0.17333694
105	0x3ddfd246	0.10928778
106	0x3e19edc3	0.15032105
107	0x3c639393	0.013890165
108	0xbeccdc3d	-0.40011778
109	0xbe14efeb	-0.14544646
110	0xbdf70228	-0.12060958
111	0xbea62ebc	-0.3245753
112	0x3dc7f6c4	0.09763864
113	0x3d66033d	0.056155432
114	0x3e09dfef	0.1346433
115	0x3d9d987f	0.07695102
116	0xbf030a74	-0.51187825
117	0xbe9ae0cf	-0.3024964
118	0xbea8c405	-0.3296205
119	0xbe6d2627	-0.23159085
120	0x3d88fa3d	0.06688354
121	0xbe019478	-0.12654293
122	0x3e2cc664	0.16872555
123	0x3db864f0	0.09003627
124	0x3eaedb1d	0.34151545
125	0x3ea422cf	0.32057807
126	0xbdee4e48	-0.11636025
127	0xbdbf5ae1	-0.09343506
128	0xbe0e0ba5	-0.1387163
129	0x3e9c857a	0.30570585
130	0x3ef32c53	0.47494754
131	0x3b71e521	0.0036910253
132	0xbd540b2e	-0.051768474
133	0x3e4e1b9d	0.20127721
134	0x3ec4c7a1	0.38433555
135	0x3dab2164	0.08355978
136	0x3e2ca0a3	0.16858153
137	0x3b97460a	0.0046165036
138	0x3e13fe23	0.14452414
139	0x3d89cdba	0.06728692
140	0xbd49bcf4	-0.049252465
141	0x3ea1a493	0.31570873
142	0x3d9904a6	0.0747159
143	0x3d66ddcb	0.056363862
144	0xbd712e15	-0.058881838
145	0x3ca167db	0.019702842
146	0x3e99d419	0.3004463
147	0xbdc7edd6	-0.097621605
148	0xbba279f9	-0.004958388
149	0x3dd32b7e	0.1031103
150	0x3c39b9bc	0.011335786
151	0x3d0a5ac3	0.033777963
152	0xbda7b367	-0.08188515
153	0x3e36a9d0	0.17838216
154	0x3e79c666	0.24392089
155	0xbee53add	-0.44771472
156	0xbe6a5fd2	-0.22888115
157	0xbe9488f2	-0.2901073
158	0xbc86e0fa	-0.016464699
159	0xbd3ac0be	-0.04559397
160	0x3e6e932a	0.23298326
161	0x3e5b15f0	0.21395087
162	0xbe372175	-0.17883857
163	0xbe30226f	-0.17200635
164	0x3e982458	0.29715228
165	0x3e1134b9	0.14180268
166	0x3ece7aab	0.40327963
167	0xbd0fb49b	-0.03508435
168	0xba8c5c7d	-0.0010708716
169	0x3e004884	0.12527663
170	0x3df3f96e	0.11912809
171	0x3e931ae6	0.2873146
172	0x3d5c4c7d	0.053783882
173	0xbd9beb89	-0.07613284
174	0xbe819e67	-0.25316164
175	0xbe146209	-0.14490522
176	0xbdfb490a	-0.122697905
177	0x3ed12314	0.40847075
178	0x3f05f12e	0.52321136
179	0x3e9a3a0d	0.30122414
180	0xbe6442dc	-0.2229113
181	0xbdb5a745	-0.08869795
182	0xbdbd021f	-0.0922892
183	0xbe41d88b	-0.18930261
184	0x3c25c19a	0.010116959
185	0xbc03b5a8	-0.008038916
186	0x3e89dfcb	0.26928553
187	0xbc394a7a	-0.0113092605
188	0xbe1ef136	-0.15521702
189	0x3f09e862	0.53870213
190	0x3d25e884	0.040504947
191	0xbe62c826	-0.22146663
192	0xbe0196a9	-0.12655129
193	0x3d2c44cd	0.0420578
194	0xbe927d13	-0.2861105
195	0xbea66850	-0.3250146
196	0x3b3a0e49	0.0028389862
197	0xbe68b63e	-0.2272577
198	0x3d8115e2	0.06303002
199	0xbdca9619	-0.0989191
200	0xbe92be06	-0.286606
201	0x3e402acd	0.18766327
202	0x3cb66c21	0.022268357
203	0x3e36e630	0.17861247
204	0xbdde8131	-0.10864485
205	0xbd5035bd	-0.0508325
206	0x3ed5efff	0.41784665
207	0x3df1d5cd	0.118083574
208	0x3df01859	0.11723394
209	0xbc8584d1	-0.016298683
210	0x3d1e14cd	0.038594056
211	0xbe58f3b4	-0.21186715
212	0xbeaf1df6	-0.34202546
213	0xbe581369	-0.21101154
214	0xbdee799a	-0.116442874
215	0x3e94dfb4	0.29076922
216	0x3df1f8c7	0.11815029
217	0xbdbfedac	-0.09371504
218	0xbba57138	-0.005048897
219	0x3e296b5d	0.16544862
220	0x3ed40787	0.41411993
221	0xbe3f49f5	-0.18680556
222	0x3e0bf6d8	0.13668382
223	0xbd9f8685	-0.077893294
224	0xbe9a2fc6	-0.30114573
225	0xbe6f4224	-0.23365074
226	0x3e177763	0.14791636
227	0xbe8a9079	-0.2706335
228	0xbdd398f5	-0.103319086
229	0xbeea2b6d	-0.45736256
230	0xbf138d9e	-0.57637966
231	0x3d8f5b5c	0.06999847
232	0xbd2dc846	-0.042427324
233	0xbe1391a1	-0.14411022
234	0x3d9d602d	0.0768436
235	0x3e20c635	0.1570061
236	0x3e1c30e5	0.15253027
237	0xbce3fff5	-0.02783201
238	0xbe2e4667	-0.17019044
239	0x3df47a07	0.11937337
240	0x3ed9dde1	0.42552093
241	0x3cf1b091	0.029503139
242	0x3c50d1d9	0.012745344
243	0xbd2fa8fd	-0.04288577
244	0x3e10796e	0.14108822
245	0xbcc09c2e	-0.023511972
246	0xbeb19eff	-0.34691617
247	0xbea1e978	-0.31623435
248	0x3e9fcf18	0.31212687
249	0xbe3720ad	-0.17883559
250	0x3e20bdca	0.15697399
251	0xbe174d04	-0.14775473
252	0xbdaf8489	-0.08570201
253	0xbed4aba1	-0.41537192
254	0xbe03b907	-0.12863551
255	0x3eace39a	0.33767396

network_body._body_endoder.seq_layers.0.bias f4 [128]
0	0xbd1f3585	-0.0388694
1	0x3dd8fdcc	0.10595283
2	0xbc85e2bb	-0.016343465
3	0xbd91fb0b	-0.07127961
4	0x3d183707	0.037161853
5	0xbd84beca	-0.064817026
6	0xbd6c4100	-0.057679176
7	0xbca27401	-0.019830706
8	0xbc215490	-0.009846821
9	0xbb036607	-0.0020049827
10	0xbdcd57d8	-0.100265205
11	0xbd3cdfa3	-0.046111714
12	0xbd6f165e	-0.05837094
13	0xbd9b10da	-0.075715736
14	0xbd2c9caf	-0.042141613
15	0xbdc0340c	-0.09384927
16	0xbd34fc86	-0.044186138
17	0x3d920d7b	0.071314774
18	0xbdc08c59	-0.09401769
19	0xbe1280f2	-0.14307001
20	0xbd72ce25	-0.059278626
21	0x3ca91f16	0.020644706
22	0xbdc77459	-0.097389884
23	0x3c7fe81c	0.015619304
24	0xbd1fa5eb	-0.03897659
25	0x3ca78bde	0.020452436
26	0xbaa93c63	-0.0012911673
27	0x3b120225	0.002227911
28	0xbdf5bb96	-0.1199867
29	0xbdb01fda	-0.08599825
30	0xbcdbdff9	-0.026840197
31	0x3a79077f	0.0009499713
32	0xbdcba29d	-0.099431254
33	0xbd51a811	-0.05118567
34	0x3daf2ce7	0.08553486
35	0xbda568b0	-0.08076608
36	0xbdcc3c96	-0.09972493
37	0xbdf62e0c	-0.120205015
38	0xbd6861df	-0.056733962
39	0xbc9d8705	-0.019229421
40	0xbce6436b	-0.02810832
41	0xbd0bad5b	-0.03410087
42	0xbd85812b	-0.065187775
43	0x3c448cf7	0.011996499
44	0xbc61c4b0	-0.013779804
45	0xbc0dead2	-0.008661943
46	0xbbc60fca	-0.0060443627
47	0x3a05a1de	0.00050976675
48	0xbd126fe7	-0.03575125
49	0xbe0d5ae5	-0.13804205
50	0xbc7bc2c2	-0.015366258
51	0x3c0661d0	0.008202031
52	0x3ca63de2	0.02029318
53	0xbd08cc92	-0.03339822
54	0x3d203a48	0.03911808
55	0x3cadb989	0.021206634
56	0xbdca2595	-0.098704495
57	0x3d75264c	0.059850976
58	0x3d3a7287	0.045519378
59	0xbce12378	-0.027482733
60	0x3d1e40c7	0.038635995
61	0x3cee45b3	0.02908597
62	0xbd2e00c3	-0.042481195
63	0x3d3b7f1d	0.04577552
64	0x3bb96fab	0.005659064
65	0xbd9fa176	-0.07794468
66	0x3c6ccb7c	0.014452811
67	0xbd275bb8	-0.040858954
68	0xbda2f46e	-0.079567775
69	0x3d1162f7	0.03549477
70	0xbdb0dcde	-0.08635877
71	0x395f568c	0.00021299178
72	0xbdb324fb	-0.08747288
73	0xbd51287a	-0.051063992
74	0xbd15ae9b	-0.03654347
75	0xbcabbbc1	-0.020963551
76	0xbd67589b	-0.056480985
77	0xbd1dfb23	-0.03856958
78	0xbcac833a	-0.021058667
79	0xbd69deda	-0.057097293
80	0xbd54a803	-0.05191804
81	0x3bfb9a58	0.0076783113
82	0xbd7d301c	-0.06181346
83	0x3d39889d	0.0452963
84	0xbd4ca887	-0.049965408
85	0xbcaa8063	-0.020813173
86	0xbd27f11e	-0.04100143
87	0xbe003a57	-0.12522255
88	0xbd466451	-0.048435513
89	0x3d2da7b0	0.042396247
90	0xbd412bc1	-0.047160868
91	0xbd735aaa	-0.059412636
92	0x3c0d26a3	0.008615169
93	0x3c00cc2f	0.007861181
94	0xbbea33e7	-0.0071473005
95	0xbddc0f39	-0.10745091
96	0xbd224db1	-0.039624874
97	0xbd1ab9ef	-0.037774976
98	0xbd9d521e	-0.07681678
99	0xbd112985	-0.035439987
100	0xbcc0e6f4	-0.023547627
101	0x3c40c2de	0.01176521
102	0xbcfe615b	-0.031052282
103	0x3df939d6	0.121692345
104	0xbcce4c3c	-0.025182836
105	0xbcabebde	-0.020986494
106	0x3d0eecac	0.034893677
107	0x3da6998d	0.08134756
108	0x3d107264	0.03526534
109	0xbd5d2544	-0.053990617
110	0xbe084d86	-0.13310823
111	0x3d2595e1	0.04042614
112	0x3b96a818	0.004597675
113	0xbdaec14d	-0.08532963
114	0xbd55f92a	-0.052239574
115	0xbdb570a7	-0.08859377
116	0xbd72e84e	-0.059303574
117	0x3bfa3669	0.0076358807
118	0x3bfcf03e	0.007719069
119	0x3d1de2af	0.03854626
120	0xbe1ba10b	-0.15198152
121	0xbb6a1e07	-0.0035723464
122	0xbd82a905	-0.06379894
123	0xbd2e6de1	-0.042585257
124	0xbdb16407	-0.08661657
125	0x3b9c79bf	0.0047752555
126	0xbdb4184b	-0.08793696
127	0xbd37814d	-0.044801045

network_body._body_endoder.seq_layers.2.weight f4 [128, 128]
0	0x3ded0cb1	0.11574686
1	0x3d25c425	0.04047026
2	0x3d6e35b8	0.0581567
3	0xbe128e7d	-0.14312167
4	0x3d84de6e	0.064877376
5	0xbe2a50f4	-0.16632444
6	0x3d8d1dd2	0.068904534
7	0xbde7f78b	-0.11326512
8	0x3cf2bc6e	0.029630866
9	0xbc9e2bac	-0.019307934
10	0x3d71c3c9	0.059024606
11	0xbb646218	-0.0034848507
12	0xbb67a266	-0.00353446
13	0x3dacd5db	0.08439227
14	0xbe33cd59	-0.17558803
15	0xbdc24f76	-0.09487812
16	0xbe01bd04	-0.1266976
17	0xbd02484d	-0.031807233
18	0x3dc2a3a8	0.09503871
19	0xbd8b24bc	-0.06794116
20	0xbd0192ec	-0.031634256
21	0x3e2b1866	0.16708526
22	0xbe4c0ac8	-0.19925988
23	0xbdc9502a	-0.09829743
24	0xbdb605ed	-0.08887849
25	0x3cb74aa6	0.022374462
26	0xbd3f691c	-0.0467311
27	0x3d3113a7	0.043231633
28	0xbd300b23	-0.04297937
29	0xbdd80a75	-0.105488695
30	0xbc8a571c	-0.01688724
31	0xbd75f61b	-0.060049158
32	0xbc96b445	-0.018396506
33	0x3d7658f8	0.06014344
34	0xbd852a32	-0.06502189
35	0xbcacaa4f	-0.021077303
36	0x3d501de4	0.050809756
37	0xbda9f8ae	-0.08299385
38	0x3ddc2084	0.10748389
39	0xbc9cf615	-0.01916031
40	0x3c31a1c6	0.010841792
41	0xbe21f6ee	-0.15816852
42	0xbda9f108	-0.08297926
43	0xbcfb39e8	-0.03066726
44	0xbb970ebe	-0.0046099117
45	0x3d8429a6	0.06453256
46	0x3c75f53c	0.015012082
47	0xbdfd72b2	-0.12375392
48	0xbdb3a650	-0.08771956
49	0x3e111023	0.14166312
50	0x3dd84681	0.105603226
51	0xbda5ea09	-0.08101279
52	0x3d9a292a	0.07527383
53	0xbde505f3	-0.11182775
54	0xbd71a9dc	-0.05899988
55	0xbdb5dabf	-0.08879613
56	0x3d69ca37	0.057077613
57	0xbceb632c	-0.028733812
58	0x3de05778	0.10954183
59	0xbe203b8b	-0.15647714
60	0xbd9a6136	-0.07538073
61	0xbd969d92	-0.07354273
62	0xbc8409d3	-0.016117966
63	0xbd8c5ed3	-0.06854024
64	0xbd0432b9	-0.032274935
65	0x3d3d5421	0.04622281
66	0xbcbc346c	-0.022974215
67	0x3d8e53d2	0.06949581
68	0xbd4f79df	-0.050653335
69	0x3e25e3e1	0.1620021
70	0x3db021dd	0.08600209
71	0x3c51aa65	0.012796973
72	0xbd3d8ec4	-0.04627873
73	0xbcd3f21f	-0.025872288
74	0x3bd943e3	0.006630407
75	0xbdfaca15	-0.12245575
76	0x3d0aa3c6	0.033847593
77	0xbd2d182d	-0.042259384
78	0xbd36aae9	-0.044596586
79	0x3e16c459	0.14723338
80	0x3d32ab60	0.043620467
81	0x3dc14ee5	0.09438876
82	0x3d4515ae	0.04811638
83	0xbdef678e	-0.11689673
84	0xbd84c8da	-0.06483622
85	0x3b8010fd	0.003908275
86	0xbda1cc31	-0.079002745
87	0x3bcd67e1	0.006268487
88	0xbdba8c53	-0.09108796
89	0xbc526092	-0.012840407
90	0x3c3dc9f7	0.011583797
91	0xbdb4280b	-0.087967
92	0x3daf84bb	0.08570238
93	0x3e19598c	0.14975566
94	0xbda9deba	-0.08294435
95	0xbda1d473	-0.079018496
96	0xbdb16bf8	-0.086631715
97	0xbce450bc	-0.027870528
98	0x3d7dbc3f	0.061947104
99	0x3a958a09	0.0011408936
100	0x3d1f9011	0.03895575
101	0xbe2403a9	-0.16017021
102	0x3d3780c3	0.04480053
103	0xbce7a8ab	-0.02827867
104	0x3d2716fc	0.040793404
105	0x3cbb0988	0.022831693
106	0xbd3b899b	-0.045785528
107	0xbc15dd34	-0.009146977
108	0x3dd63a19	0.104603
109	0xbdcc5799	-0.099776454
110	0xbccd0efc	-0.02503156
111	0x3d1c4e3e	0.038160555
112	0xbcef01a5	-0.029175589
113	0xbc6b46ac	-0.014360111
114	0xbd3ade23	-0.045622002
115	0xbc8ee63b	-0.017443767
116	0xb8d8f15c	-0.00010344639
117	0xbcb902f9	-0.022584425
118	0xbc88d476	-0.016702872
119	0xbe323217	-0.1740192
120	0x3e080ed1	0.13286902
121	0x3d7224e6	0.05911722
122	0x3dcb0f70	0.09915054
123	0x3dcc9a3d	0.09990356
124	0x3ca106b8	0.019656524
125	0xbd9fbd2c	-0.077997535
126	0xbd2e5e54	-0.042570427
127	0xbd8f6eee	-0.0700358
128	0xbd9e7e4b	-0.07738932
129	0x3cdf8cfb	0.027288904
130	0xbe354782	-0.1770306
131	0xbd524838	-0.051338404
132	0xbd7d77ce	-0.061881833
133	0x3db2f843	0.087387584
134	0xbe24043a	-0.16017237
135	0x3da4566c	0.08024296
136	0xbcf2b159	-0.029625582
137	0xbe0f240b	-0.13978593
138	0xbcbf7790	-0.023372442
139	0x3cf868b1	0.030323358
140	0x3e96705b	0.29382595
141	0xbd25dcf6	-0.040493928
142	0xbd9874ce	-0.07444154
143	0x3c0defe8	0.008663155
144	0xbd54fdc1	-0.05199981
145	0x3e1febdf	0.15617321
146	0xbe60329b	-0.21894304
147	0xbd104522	-0.03522218
148	0xbb662dc1	-0.0035122486
149	0xbe390c52	-0.18071106
150	0xbd342041	-0.043976072
151	0xbda651c6	-0.08121066
152	0x3da7f033	0.08200111
153	0x3c9490ac	0.018135391
154	0x3b1b3578	0.0023682993
155	0x3dacb72a	0.08433373
156	0xbd0a8289	-0.033815894
157	0xbe177e70	-0.14794326
158	0x3ced34df	0.028955875
159	0xbe1b76b6	-0.15182003
160	0xbe2d7b10	-0.16941476
161	0xbb09ca6c	-0.0021025194
162	0x3d8be3c4	0.06830552
163	0x3d83ed3f	0.064417355
164	0xbe3a4c11	-0.1819308
165	0xbe06915d	-0.13141389
166	0xbe47a051	-0.1949475
167	0x3ca2e3b6	0.019883972
168	0x3e38d7b1	0.1805103
169	0xbe8db293	-0.27675304
170	0xbd289fd3	-0.041168045
171	0xbca33ad8	-0.01992552
172	0xbde8d0fc	-0.113679856
173	0xbd768318	-0.060183614
174	0x3cdd047b	0.026979676
175	0x3cb9b073	0.022667145
176	0xbda0fede	-0.07861112
177	0x3e0afb92	0.13572529
178	0xbda55fdb	-0.080749236
179	0xbe7cd0bd	-0.24689002
180	0xbcc89cd4	-0.024488844
181	0xbc12117b	-0.0089153005
182	0xbcf1314e	-0.029442456
183	0xbd4667a9	-0.0484387
184	0x3d51ec1b	0.05125056
185	0xbe130f1e	-0.14361235
186	0x3e444df3	0.1917036
187	0xbdfa182e	-0.12211643
188	0x394dd6d4	0.00019630353
189	0xbc2e9b85	-0.010657196
190	0xbd4d06da	-0.050055362
191	0x3cc566ad	0.024096811
192	0x3e43126a	0.19049993
193	0xbd6bdc67	-0.05758324
194	0xbd9e5087	-0.07730203
195	0xbd8c64f4	-0.06855193
196	0x3d7986d7	0.06091961
197	0x3dd82105	0.10553173
198	0x3ce5478f	0.027988223
199	0xbdd7bc05	-0.10533909
200	0xbcd6de03	-0.02622891
201	0xbd765f44	-0.060149446
202	0xbd6a7ecc	-0.05724983
203	0xbcb6e594	-0.022326268
204	0x3e0ae734	0.1356476
205	0xbd71ac1f	-0.059002038
206	0x3d54c6d6	0.051947437
207	0xbe25198e	-0.1612303
208	0xbddc7eb3	-0.107663535
209	0x3d2b7934	0.041863635
210	0x3e111f2d	0.14172049
211	0x3c9ba8a7	0.019001318
212	0x3d612314	0.054965094
213	0x3e0a518b	0.13507669
214	0xbda6a19a	-0.08136292
215	0xbe26bbee	-0.16282627
216	0xbe209dfd	-0.15685268
217	0xbd99e037	-0.07513469
218	0x3b1a4e79	0.0023545309
219	0x3c878652	0.016543541
220	0xbd86505f	-0.06558298
221	0x3de4c3ea	0.1117018
222	0xbe0dc945	-0.1384631
223	0xbd89a087	-0.06720071
224	0x3e562058	0.20910776
225	0xbd91b0bf	-0.0711379
226	0x3d627f70	0.055297315
227	0xbdb5dd2e	-0.08880077
228	0x3ccc3e3b	0.024932018
229	0xbd56e0e8	-0.05246058
230	0xbc406990	-0.011743918
231	0xbc30950d	-0.010777724
232	0xbd9bc23b	-0.07605406
233	0xbd96d00d	-0.07363901
234	0xbdcdea08	-0.100544035
235	0x3c256ec4	0.010097209
236	0xbc17bece	-0.0092618
237	0xbea94a7d	-0.33064643
238	0xbc332947	-0.010935134
239	0x3c5cb8a7	0.013471759
240	0xbd03917c	-0.032121167
241	0xbde0cbe2	-0.109763876
242	0xbdffa6d3	-0.12482991
243	0xbdcd2fd1	-0.10018886
244	0x3b65aaad	0.0035044358
245	0xbd86ff57	-0.06591671
246	0x3d9f652b	0.07782968
247	0xbc05d090	-0.008167401
248	0x3dee54cc	0.116372675
249	0x3c6dc863	0.014513108
250	0x3d49df04	0.04928495
251	0x3d4c6310	0.04989916
252	0xbd3aa48c	-0.04556708
253	0xbcd5e69d	-0.026110942
254	0x3d87d432	0.0663227
255	0x3d2752a4	0.040850297

network_body._body_endoder.seq_layers.2.bias f4 [128]
0	0xbcd28d4f	-0.025702147
1	0xbc3b6f72	-0.011440145
2	0x3c9d0a45	0.019169936
3	0x3c91d15c	0.017800026
4	0xbdc461f0	-0.095889926
5	0xbd748663	-0.059698474
6	0xbc94ff42	-0.018188123
7	0x3daaf505	0.08347515
8	0xbbc3d8be	-0.0059767654
9	0xbc98820c	-0.018616699
10	0xbd70400a	-0.058654822
11	0xbbaa02b9	-0.005188313
12	0x3d079930	0.033105075
13	0xbdd06f41	-0.1017747
14	0xbd64cbb4	-0.05585833
15	0xbc8f2347	-0.017472876
16	0xbc008946	-0.007845229
17	0xbd6cfe7b	-0.05785988
18	0xbcb8eb65	-0.022573182
19	0xbd381320	-0.044940114
20	0xbd0879f8	-0.033319443
21	0xbd35c3f5	-0.044376332
22	0x3cff74b1	0.031183572
23	0xbb2c3553	-0.00262769
24	0xbd5cd7f4	-0.053916886
25	0xbcd58495	-0.026064197
26	0x3d25d869	0.040489588
27	0xbcff5abc	-0.031171195
28	0xbc3084bd	-0.010773835
29	0xbcff1d04	-0.031141765
30	0xbda374c7	-0.07981258
31	0xbc787ea4	-0.015166912
32	0x3caf4532	0.0213953
33	0xbce162d8	-0.027512953
34	0xbd15e62c	-0.036596462
35	0xbc89ed8c	-0.016836904
36	0xbd104522	-0.03522218
37	0xbc72246d	-0.014779192
38	0xbd8f97ab	-0.0701135
39	0x3ac593d5	0.0015073965
40	0x3cb1b9fd	0.021695131
41	0xbd7770a1	-0.060410146
42	0xbdd0b031	-0.10189856
43	0xbcf3bf3e	-0.029754277
44	0xbb29758e	-0.0025857422
45	0xbc2e5cbf	-0.01064223
46	0xbc2a8fa3	-0.010410222
47	0xbd425b0a	-0.047450103
48	0xbda21a03	-0.079151176
49	0x3aead177	0.0017915209
50	0x3d920f04	0.0713177
51	0x3d4aacd4	0.049481228
52	0xbd3f9cf3	-0.046780538
53	0xbd9d3b35	-0.076773085
54	0xbd0eb6f5	-0.03484245
55	0xbd3b5ffe	-0.045745842
56	0xbbdef8fd	-0.006804584
57	0xbdd127e8	-0.1021269
58	0xbd84618b	-0.06463917
59	0xbd912f4f	-0.070891015
60	0xbd9c11a9	-0.07620556
61	0x3bf904c1	0.0075994437
62	0xbd31eb1e	-0.043437116
63	0x3ce96d97	0.02849464
64	0xbc77a607	-0.015115268
65	0xbd4f959e	-0.050679795
66	0xbcff8be4	-0.031194635
67	0xbd00e6f1	-0.031470243
68	0xbabed130	-0.0014558192
69	0xbd3ab784	-0.04558517
70	0xbcf4da21	-0.029889168
71	0x3b36a7cc	0.002787101
72	0xbd2f2ce5	-0.042767424
73	0xbd4ae473	-0.049534272
74	0xbd047a64	-0.032343283
75	0xbd93d111	-0.072176106
76	0x3ddf511f	0.109041445
77	0xbd4ac3e1	-0.04950321
78	0xbdd8dfd1	-0.105895646
79	0xbcfa31ca	-0.03054132
80	0x3d5e2cd6	0.054241978
81	0x3c0ca0ce	0.008583261
82	0x3b7fd090	0.0039034225
83	0xbbe884f0	-0.0070959255
84	0xbb9e2e0a	-0.0048272656
85	0x3d13a6fb	0.036047917
86	0x3cab913e	0.02094328
87	0xbcb4080a	-0.02197649
88	0xbd2390d2	-0.039933033
89	0x3aaf4c6f	0.0013374219
90	0x3cb6ef3d	0.022330875
91	0xb7f4befc	-2.9176e-05
92	0xbda8d979	-0.082446046
93	0xbd369e8e	-0.044584803
94	0x3c4a5e2f	0.012351557
95	0xbceb4490	-0.028719217
96	0x3c8a547e	0.016885992
97	0xbdd64b49	-0.10463578
98	0xbd4626b3	-0.04837675
99	0x3d3f656a	0.046727575
100	0xbdad3a17	-0.084583454
101	0xbcf800c5	-0.030273804
102	0xbd733692	-0.059378214
103	0xbdcdbaa7	-0.10045367
104	0xbc986f84	-0.018607862
105	0xbdb8f152	-0.09030403
106	0xbd20d9b1	-0.039270107
107	0x3df8c6b4	0.121472746
108	0xbd469bf4	-0.048488572
109	0xbd43c442	-0.047794588
110	0xbd3e8e40	-0.04652238
111	0xbd268e74	-0.040663198
112	0xbd9dada1	-0.07699133
113	0xbca106e4	-0.019656606
114	0xbd7d35f9	-0.06181905
115	0xbcee6e54	-0.029105343
116	0xbd17c69e	-0.03705465
117	0x3cac5d32	0.021040533
118	0xbd87e288	-0.06635004
119	0xbd89c72a	-0.06727441
120	0xbb89c4ff	-0.004204392
121	0xbc337ee9	-0.010955551
122	0xbc9fe820	-0.019519866
123	0xbd84178a	-0.06449802
124	0xbd3c83d4	-0.04602416
125	0x3c7fa074	0.01560222
126	0xbd3514e8	-0.04420939
127	0xbdba21ef	-0.090885036

action_model._continuous_distribution.log_sigma f4 [1, 2]
0	0xbe88121f	-0.26576325
1	0xbea2771b	-0.31731495

action_model._continuous_distribution.mu.weight f4 [2, 128]
0	0x3bee390f	0.0072699855
1	0x3bdabf72	0.006675654
2	0x3c0fe509	0.008782634
3	0xbc388fd6	-0.011264762
4	0x3ca295db	0.019846847
5	0x3c0e3047	0.008678502
6	0xb8bed450	-9.099452e-05
7	0x3bc5bc87	0.006034437
8	0x3ccfde69	0.025374608
9	0x3c02ac14	0.007975597
10	0x3bff034e	0.0077823764
11	0x3d18f127	0.037339356
12	0xbd917520	-0.07102418
13	0x3c10bb6e	0.008833749
14	0xbc550089	-0.013000616
15	0x3d307adb	0.043085914
16	0x3ccfbd89	0.025358932
17	0x3d217144	0.03941466
18	0xbc1b5026	-0.009479558
19	0x3d19dbfe	0.037563317
20	0x3cab81f7	0.020935996
21	0xbc53c21d	-0.012924698
22	0xbcca50c1	-0.02469671
23	0x3c0734f6	0.008252373
24	0x3d5be91c	0.053689107
25	0xbd37d588	-0.044881374
26	0xbd293bee	-0.04131692
27	0xbaa59f39	-0.0012635953
28	0x3cdf2334	0.027238466
29	0x3ca829c0	0.02052772
30	0xbd1b437a	-0.037906148
31	0x3ccd70df	0.025078235
32	0xb993ddd5	-0.00028203303
33	0xbbeb86c1	-0.007187695
34	0xbcdf1a26	-0.027234148
35	0xbb3dfb14	-0.0028988766
36	0xbc08b209	-0.008343228
37	0xbca9a2bc	-0.02070748
38	0x3be98dff	0.007127523
39	0x3d100009	0.035156284
40	0xbc3d54d2	-0.011555867
41	0x3a211874	0.00061453064
42	0xbba19323	-0.00493087
43	0x3cf8efec	0.030387841
44	0x3cb06cf2	0.021536324
45	0xbc5bc1de	-0.013412921
46	0x3cb1c5dd	0.021700794
47	0x3aac7f0e	0.0013160424
48	0xbb9d1c22	-0.0047946135
49	0x3adffef1	0.0017089528
50	0xbc45c692	-0.012071269
51	0x3b7fc311	0.003902618
52	0x3aee4073	0.0018177166
53	0x3c58ab12	0.01322438
54	0x3bf6cdd0	0.007531859
55	0x3d259b48	0.04043129
56	0x3cd7142f	0.026254741
57	0x3c5ad4e6	0.013356423
58	0x3bff47ea	0.0077905552
59	0x3ac582b0	0.0015068855
60	0xb93c149a	-0.00017936752
61	0x3ceaedb6	0.028677803
62	0x3c99e528	0.018786028
63	0x3cfe3117	0.031029267
64	0x3cf651fd	0.030068392
65	0x3b5e9f5c	0.0033969497
66	0x3ca8e67a	0.020617712
67	0x3c620249	0.01379449
68	0x3d22756a	0.039662756
69	0x3c7665f5	0.015038957
70	0x3d71daa1	0.05904639
71	0x3c81d5f2	0.015849087
72	0x3d484cf7	0.048901524
73	0x3cd917f9	0.026500689
74	0x3cd6c682	0.026217703
75	0x3c7f6b38	0.015589528
76	0xbcf80b93	-0.030278957
77	0x3b65dce6	0.0035074293
78	0x3cb7914c	0.02240815
79	0x3cc1e3c5	0.02366818
80	0xbc4f33b7	-0.012646607
81	0xbc37849e	-0.011201052
82	0x3bb92f9c	0.0056514274
83	0x3cb2cdc1	0.021826627
84	0xbc057541	-0.008145631
85	0x3bffbe1a	0.0078046443
86	0xbc0fd5e4	-0.008779023
87	0x3d484846	0.04889705
88	0x3c18efce	0.009334518
89	0x3c705b93	0.0146702705
90	0xbd37802d	-0.044799972
91	0x3c6fb9db	0.014631714
92	0xbc02a09c	-0.007972863
93	0x3c7ca521	0.015420229
94	0x3d68d9b2	0.056848235
95	0x3cacb22b	0.02108105
96	0x3d3d3d6c	0.046201155
97	0x3c0f30c5	0.008739655
98	0x3cac9bbc	0.021070354
99	0x3c366b24	0.011133943
100	0x3b77edf9	0.0037831052
101	0x3a4b148d	0.0007746898
102	0x3b706bd9	0.0036685376
103	0x3ba4d4fe	0.0050302735
104	0xba07e6be	-0.00051842246
105	0xbc8cf43b	-0.017206302
106	0x3d10d680	0.035360813
107	0x3bc588f7	0.0060282904
108	0x3b99eb0d	0.0046972097
109	0x3c1a172d	0.00940494
110	0x3cbf4848	0.023349896
111	0x3bee0129	0.007263322
112	0x3ccf697b	0.025318852
113	0x3c9c5673	0.019084191
114	0x3d2c9ae5	0.042139906
115	0x3ba0814a	0.004898225
116	0xbc2a2e39	-0.010386997
117	0x3ca18af5	0.01971958
118	0xbc3ad123	-0.011402401
119	0x3bd7e70a	0.0065888213
120	0x3d57521b	0.052568536
121	0x3c29ee37	0.010371736
122	0xbc345aa1	-0.011007936
123	0xbc42d5ca	-0.011891792
124	0x3c1500f2	0.009094464
125	0x3c094e82	0.008380534
126	0xbbb332a1	-0.005468682
127	0xbbae9622	-0.005327956
128	0xbdce6872	-0.10078515
129	0xbcf45f73	-0.02983067
130	0x3d283b6e	0.0410723
131	0x3cdb744c	0.026788853
132	0xbd8f9c32	-0.07012214
133	0xbd2d5c49	-0.042324338
134	0xbdaeded3	-0.08538594
135	0x3d7d31e9	0.061815176
136	0xbdea8fcb	-0.114532076
137	0xbd8e62ab	-0.06952413
138	0xbc9c4b86	-0.019078981
139	0xbdffce48	-0.12490517
140	0x3c916119	0.017746495
141	0xbc979dd0	-0.018507868
142	0xbd4a49ae	-0.049386673
143	0x3d51cc87	0.051220443
144	0xbdc7fc45	-0.097649135
145	0xbd4927aa	-0.049110092
146	0xbdbd9af2	-0.09258069
147	0xbdc6377e	-0.09678553
148	0xbdb7c41c	-0.08972952
149	0xbda337eb	-0.0796965
150	0x3cdfc726	0.027316641
151	0xbdfe0be4	-0.12404612
152	0xbdb2f15e	-0.087374434
153	0xbd81392c	-0.06309733
154	0x3c8992c5	0.016793618
155	0xbd9a93b4	-0.075477034
156	0xbdb27c8e	-0.08715163
157	0xbd8d0de5	-0.06887416
158	0xbd0b5ebb	-0.03402589
159	0xbda7c207	-0.08191305
160	0xbdfc7d1d	-0.12328551
161	0xbe13f4c2	-0.14448836
162	0xbda55c9d	-0.08074305
163	0xbd9c9be8	-0.07646924
164	0xbdda783d	-0.10667465
165	0xbbbf05a4	-0.00582953
166	0xbd9de8a0	-0.07710385
167	0xbded8d06	-0.11599164
168	0x3ce80d5b	0.02832668
169	0x3c41914c	0.011814427
170	0xbcb1d42e	-0.02170762
171	0xbdf45d21	-0.119318254
172	0xbdb350b9	-0.08755631
173	0xbd9c3ce1	-0.07628799
174	0xbe04bf54	-0.12963611
175	0xbc6d16e1	-0.014470787
176	0xbd372ce2	-0.044720538
177	0xbda626f8	-0.081129014
178	0x3d7d06c5	0.061774034
179	0x3d65e26a	0.05612413
180	0xbd8f6a5c	-0.07002708
181	0xbdbfe71c	-0.093702525
182	0xbd55065b	-0.052008014
183	0x3d45502d	0.048172165
184	0xbdcea71b	-0.100904666
185	0xbc04b0cb	-0.008098791
186	0xbd73acd9	-0.059491012
187	0xbbb13a19	-0.005408537
188	0xbaf45f04	-0.001864404
189	0xbe0eb8e2	-0.13937715
190	0xbdd2f686	-0.10300927
191	0x3d1039d6	0.035211407
192	0xbde9e5f8	-0.11420816
193	0xbd4e317d	-0.050340164
194	0x3cd64e19	0.026160287
195	0xbdccc1fd	-0.09997938
196	0xbdc54354	-0.096319824
197	0xbdce5736	-0.10075228
198	0xbe0986a0	-0.13430262
199	0xbdac72d3	-0.084203385
200	0xbdcb77e2	-0.09934975
201	0xbd8b79d8	-0.06810349
202	0xbd997a10	-0.07493985
203	0xbd15dca0	-0.036587358
204	0x3d75b3d0	0.059985936
205	0xbd482fd0	-0.048873723
206	0xbd281e7d	-0.0410447
207	0xbd57fc60	-0.052730918
208	0xbdcf1227	-0.10110884
209	0xbd93e233	-0.072208785
210	0xbde70b05	-0.11281399
211	0xbdb46c0d	-0.088096716
212	0xbde148b9	-0.11000199
213	0x3d3faf34	0.046797946
214	0x3cc5da48	0.024151936
215	0xbdcb0c69	-0.099144764
216	0xbdce7bb3	-0.100821875
217	0xbdd9d580	-0.10636425
218	0x3c8ea409	0.017412202
219	0xbc8fdd8b	-0.017561695
220	0xbd4e99dd	-0.050439704
221	0xbdb27370	-0.08713424
222	0xbdfdc54b	-0.12391146
223	0xbd922a39	-0.071369596
224	0xbdf89b5b	-0.12139007
225	0xbd31f310	-0.043444693
226	0xbd3c59ff	-0.045984264
227	0x3da06aba	0.078328565
228	0xbd34ea4e	-0.044168763
229	0xbde7a400	-0.113105774
230	0x3cb1b7c3	0.02169407
231	0xbd2722f0	-0.040804803
232	0xbcb725c9	-0.022356885
233	0xbcea2b09	-0.028584974
234	0xbd9a486c	-0.075333446
235	0x3db10c41	0.08644915
236	0xbc42a845	-0.011880939
237	0xbd86bee4	-0.06579378
238	0xbd3582d2	-0.044314213
239	0xbd63bddc	-0.055600986
240	0x3cb54fa0	0.022132695
241	0xbdd0c05e	-0.10192941
242	0xbd9f3218	-0.077732265
243	0xbd231125	-0.039811272
244	0xbd8e5b02	-0.06950952
245	0xbe013a38	-0.12619865
246	0xbdc03987	-0.093859725
247	0xbd89d391	-0.06729806
248	0xbdb216e1	-0.0869577
249	0xbdb439ba	-0.08800073
250	0xbaa777a2	-0.0012776742
251	0xbcc9d72f	-0.02463874
252	0xbdc6391a	-0.0967886
253	0x3d164f7a	0.03669689
254	0xbcf6727c	-0.030083887
255	0xbd80a773	-0.062819384

action_model._continuous_distribution.mu.bias f4 [2]
0	0xbcdff04d	-0.027336264
1	0x3e1aabb9	0.1510457

exp_avg f4 [128, 22]
0	0xb010c42a	-5.266566e-10
1	0xb90d1cbf	-0.00013457517
2	0xb7e52af8	-2.7318936e-05
3	0xb927ce05	-0.0001600311
4	0xb5d2bb0c	-1.5700657e-06
5	0xb91aa262	-0.00014747077
6	0xb8ec3c9e	-0.00011264648
7	0xb9833702	-0.0002502725
8	0x80000004	-6e-45
9	0xb917196f	-0.00014409957
10	0xb89723cf	-7.206911e-05
11	0xb98bb9ba	-0.00026650523
12	0x80000004	-6e-45
13	0xb9219c63	-0.00015412415
14	0x3a1c3317	0.0005958541
15	0xb50c45f9	-5.225589e-07
16	0x3c22ee08	0.009944446
17	0x3832ff08	4.2676023e-05
18	0xb9bfd4f3	-0.00036589018
19	0x3be20bba	0.0068983706
20	0x3b843d02	0.004035593
21	0xbbe706ba	-0.0070503624
22	0x317f9455	3.71917e-09
23	0x38b1deb7	8.4815016e-05
24	0xb9a3aa84	-0.00031216827
25	0xb88ba817	-6.659346e-05
26	0xb79827da	-1.813837e-05
27	0x38b02b31	8.400379e-05
28	0x397326a1	0.00023188676
29	0x39af3ad1	0.00033422423
30	0x80000004	-6e-45
31	0x38ebdd18	0.00011246855
32	0x39475f9a	0.00019013733
33	0x39a05cba	0.00030586665
34	0x80000004	-6e-45
35	0x38dc1b8a	0.00010495547
36	0xba328f5d	-0.0006811524
37	0x3539215b	6.896641e-07
38	0xbb8ee35d	-0.0043606
39	0xb6658295	-3.4199668e-06
40	0x3991433b	0.00027706646
41	0xbb184d5a	-0.0023239464
42	0xbaf4c180	-0.001867339
43	0x3b889aac	0.004168829
44	0xb22f7e15	-1.0215008e-08
45	0xb80259f6	-3.1078198e-05
46	0x385ff465	5.3394953e-05
47	0xb675e714	-3.664235e-06
48	0xb60d899f	-2.1090743e-06
49	0xb810847c	-3.445566e-05
50	0xb80f97fd	-3.4235407e-05
51	0xb8b1f255	-8.4851556e-05
52	0x80000004	-6e-45
53	0xb85e9d06	-5.3075164e-05
54	0xb6c6eb2c	-5.9282374e-06
55	0xb85ac7b9	-5.2161256e-05
56	0x00000004	6e-45
57	0xb8492098	-4.795249e-05
58	0x377772e2	1.47490955e-05
59	0xb44c82c8	-1.9046558e-07
60	0xba35b460	-0.000693148
61	0x39577974	0.00020549243
62	0xb8c74050	-9.5010386e-05
63	0xba9c2906	-0.0011914081
64	0xba0101a8	-0.0004921206
65	0xbadc4f30	-0.0016808268
66	0xb1416926	-2.8144966e-09
67	0xb8d53e7a	-0.00010168269
68	0xb8492260	-4.795415e-05
69	0xb90cd3a0	-0.00013430277
70	0xb6abfded	-5.125758e-06
71	0xb8e6d418	-0.0001100676
72	0x37a2a395	1.9388079e-05
73	0xb8d69c74	-0.00010233457
74	0x80000004	-6e-45
75	0xb8a43e76	-7.831764e-05
76	0x379f5c89	1.8997367e-05
77	0xb8894f1a	-6.547403e-05
78	0x80000004	-6e-45
79	0xb88f4df7	-6.8332934e-05
80	0x370b522e	8.30418e-06
81	0xb436ea44	-1.7035296e-07
82	0xbc133e14	-0.008986969
83	0x3aa2afb3	0.0012411982
84	0xb9257fdc	-0.00015783258
85	0xbc20307d	-0.0097771855
86	0xb860dddc	-5.3612384e-05
87	0xbb60578e	-0.0034231874
88	0xb0a7c58f	-1.2206999e-09
89	0xb82aa7d7	-4.068747e-05
90	0xba31ff68	-0.00067900727
91	0xb9c71f0b	-0.00037979367
92	0xb8762b7b	-5.8691465e-05
93	0xb899076f	-7.296993e-05
94	0x39c45d05	0.00037453338
95	0x39c113d7	0.0003682661
96	0x80000004	-6e-45
97	0x369ec728	4.731952e-06
98	0x39ff7c27	0.0004872989
99	0x39efc2da	0.00045730808
100	0x80000004	-6e-45
101	0x373c4cf0	1.1223587e-05
102	0xba87e9a1	-0.001036931
103	0x3574fd99	9.1266116e-07
104	0x3a7b36e4	0.00095830695
105	0xb77d4024	-1.5094909e-05
106	0x390bcb75	0.00013331867
107	0x39c28f64	0.00037109398
108	0xb9e3fe9e	-0.0004348652
109	0x38da3b60	0.000104061095
110	0xb01e9b8b	-5.7701105e-10
111	0xb96652b4	-0.00021965319
112	0xb7d80c1d	-2.5754847e-05
113	0xb985aad1	-0.00025495005
114	0x371c9720	9.333511e-06
115	0xb96e8efa	-0.00022750712
116	0x36b3b543	5.3557173e-06
117	0xb97fc082	-0.0002439041
118	0x00000004	6e-45
119	0xb90e0d28	-0.00013547076
120	0x3785c39c	1.5945923e-05
121	0xb90b7574	-0.00013299828
122	0x80000004	-6e-45
123	0xb8ea10e0	-0.00011161133
124	0x3926a8a5	0.00015893819
125	0xb499802a	-2.8591722e-07
126	0xbca2e520	-0.019884646
127	0x3b277014	0.0025548982
128	0xb99092cf	-0.000275752
129	0xbcb18e53	-0.02167431
130	0xbaa9409a	-0.001291293
131	0xbbb98848	-0.005661998
132	0x3314b1d3	3.4620665e-08
133	0xb78cfc34	-1.6806742e-05
134	0x39c452a5	0.00037445608
135	0x3928fed9	0.00016116667
136	0x385ac11d	5.21551e-05
137	0x3695da29	4.465943e-06
138	0xb9dd8892	-0.00042254158
139	0xb9c39dfd	-0.0003731101
140	0x00000004	6e-45
141	0x3800374d	3.056908e-05
142	0xba3d6f2a	-0.00072263426
143	0xba10ff98	-0.00055312505
144	0x00000004	6e-45
145	0x38841556	6.2982246e-05
146	0x3a94c8e1	0.001135137
147	0xb57dcc31	-9.454698e-07
148	0x3b99d17c	0.004694162
149	0xba5b7488	-0.00083715515
150	0x376e2fa4	1.4196998e-05
151	0x3b5cc092	0.0033684117
152	0x3b2ab76e	0.0026049274
153	0x3af69c44	0.0018814881
154	0xb0c6eba8	-1.4473374e-09
155	0xb88cc698	-6.712711e-05
156	0xb707f385	-8.103326e-06
157	0xb8a12411	-7.683796e-05
158	0x34b3c730	3.3486276e-07
159	0xb8992cb2	-7.303934e-05
160	0xb928345c	-0.00016041234
161	0xb9438720	-0.00018646987
162	0x80000004	-6e-45
163	0xb862538d	-5.396041e-05
164	0xb799deb8	-1.8342733e-05
165	0xb8b3a939	-8.566905e-05
166	0x80000004	-6e-45
167	0xb8280df8	-4.006733e-05
168	0x398ee1d2	0.000272526
169	0xb499c2ab	-2.864011e-07
170	0x3a0036d4	0.00048909825
171	0x38e62d42	0.000109756846
172	0xb8e997eb	-0.00011138603
173	0xba5f0c84	-0.000850864
174	0x3acf1e68	0.0015801908
175	0xbaf70a5b	-0.0018847691
176	0x30d62b96	1.5582937e-09
177	0xb92efdd6	-0.00016688494
178	0xb9bfa3d9	-0.00036552435
179	0xb9b945fa	-0.00035338086
180	0xb85dcdf1	-5.2882304e-05
181	0xb95a9f7e	-0.00020849516
182	0x3983bb73	0.00025125928
183	0x37ce3d00	2.4585519e-05
184	0x80000004	-6e-45
185	0xb94dd030	-0.0001962788
186	0x3916c83d	0.0001437971
187	0xb875683d	-5.850963e-05
188	0x00000004	6e-45
189	0xb9633515	-0.00021668182
190	0xb9d30950	-0.00040251995
191	0x3407b68d	1.2639266e-07
192	0x3c374880	0.011186719
193	0x2f5f86b0	2.0329582e-10
194	0xb9c68e10	-0.00037871348
195	0x3bf54c68	0.007485915
196	0xbb02cc74	-0.001995829
197	0xbc12945c	-0.008946504
198	0xb2a9577b	-1.9713971e-08
199	0x36848250	3.949077e-06
200	0xb9396c04	-0.00017683214
201	0xb8a26554	-7.743636e-05
202	0xb800714e	-3.06231e-05
203	0xb73842d6	-1.0982816e-05
204	0x3917ef7b	0.00014489696
205	0x3902cf7f	0.00012475064
206	0x80000004	-6e-45
207	0xb8456206	-4.705975e-05
208	0x39acb7d4	0.0003294336
209	0x3971d27b	0.00023061961
210	0x00000004	6e-45
211	0xb884fca7	-6.341311e-05
212	0xba193433	-0.0005844265
213	0x34bb7804	3.4918787e-07
214	0x3b13e158	0.0022564735
215	0xb71e5f51	-9.439726e-06
216	0xb8798429	-5.948931e-05
217	0x3b15b137	0.0022841224
218	0xbb28b260	-0.0025741085
219	0xbaeec910	-0.001821788
220	0x32791637	1.4498759e-08
221	0xb896fa72	-7.1992064e-05
222	0xb6f3e4de	-7.268608e-06
223	0xb8ab78a3	-8.176386e-05
224	0xb5f4b223	-1.8231261e-06
225	0xb8a06568	-7.648283e-05
226	0x37e0c83c	2.6796122e-05
227	0xb89150bb	-6.929176e-05
228	0x80000004	-6e-45
229	0xb87329e5	-5.7974732e-05
230	0x38129c8c	3.495491e-05
231	0xb8186085	-3.6329515e-05
232	0x80000004	-6e-45
233	0xb867aba3	-5.523454e-05
234	0xb7b79e53	-2.1889025e-05
235	0xb3bab977	-8.695036e-08
236	0xbc0609a7	-0.008181012
237	0x3a8fcaf1	0.0010970515
238	0xb9043fce	-0.0001261227
239	0xbc0b736e	-0.008511407
240	0xba524d2c	-0.0008022364
241	0xbb31ccd8	-0.0027130153
242	0x2fac0e81	3.1296923e-10
243	0xb6dedf5b	-6.6421176e-06
244	0x36ee26ab	7.0974543e-06
245	0xb693938e	-4.398119e-06
246	0x35ffbe46	1.9054357e-06
247	0xb6d35df2	-6.2992267e-06
248	0x36efe1d0	7.149043e-06
249	0xb6d4f0fb	-6.346146e-06
250	0x80000004	-6e-45
251	0xb71169d4	-8.6673135e-06
252	0xb74e4b38	-1.229607e-05
253	0xb7907db5	-1.7224675e-05
254	0x00000004	6e-45
255	0xb708cabc	-8.1534345e-06

exp_avg_sq f4 [128, 22]
0	0x302f4542	6.376305e-10
1	0x345fd9ec	2.0847773e-07
2	0x32b7344d	2.1327788e-08
3	0x348ce7f2	2.6245795e-07
4	0x3239bc83	1.081128e-08
5	0x34874d0e	2.5201774e-07
6	0x34f92b0e	4.641119e-07
7	0x355af5f6	8.156925e-07
8	0x31305ba3	2.566346e-09
9	0x34a41450	3.056216e-07
10	0x35906ad0	1.0759923e-06
11	0x35dac38d	1.6299178e-06
12	0x314bc492	2.9652125e-09
13	0x34bb1953	3.484989e-07
14	0x374180c4	1.1533677e-05
15	0x2db138c9	2.0147788e-11
16	0x3ab57721	0.0013844707
17	0x322ec2cb	1.0172424e-08
18	0x36023d3d	1.9407155e-06
19	0x3a56c8f4	0.00081933965
20	0x38e6dad0	0.00011008012
21	0x3a4dcf0d	0.00078509824
22	0x34eb98af	4.3883253e-07
23	0x35c2fd22	1.4527798e-06
24	0x359678c1	1.1211015e-06
25	0x36130c67	2.1911926e-06
26	0x34977721	2.821262e-07
27	0x35b4896a	1.3451038e-06
28	0x362eda05	2.6054925e-06
29	0x366e8607	3.5542778e-06
30	0x3382d2fc	6.0919746e-08
31	0x35384b93	6.8655316e-07
32	0x35bffef9	1.4304816e-06
33	0x3622f59f	2.4282851e-06
34	0x33694b96	5.4318285e-08
35	0x3504fafe	4.9539074e-07
36	0x37d21caf	2.5047308e-05
37	0x2d871ee3	1.536144e-11
38	0x3a544d6e	0.0008098696
39	0x32c74513	2.319806e-08
40	0x363ab934	2.7823962e-06
41	0x3a144686	0.0005656261
42	0x396a76a6	0.00022360179
43	0x3a6f1f33	0.00091217755
44	0x34d52be8	3.9706288e-07
45	0x35725965	9.028211e-07
46	0x353952f8	6.9038606e-07
47	0x35a7c50e	1.249982e-06
48	0x322bbe5b	9.996792e-09
49	0x350842e1	5.076127e-07
50	0x36085993	2.0317718e-06
51	0x362d4401	2.5818592e-06
52	0x30c3389a	1.4204204e-09
53	0x34abc1bc	3.1992192e-07
54	0x35edbf6d	1.7713588e-06
55	0x362a0178	2.533283e-06
56	0x31a2d566	4.739081e-09
57	0x348be559	2.605764e-07
58	0x38198386	3.6600533e-05
59	0x2df5131f	2.7861767e-11
60	0x3a8f4004	0.0010929112
61	0x36a75c75	4.9877513e-06
62	0x361504bf	2.2205493e-06
63	0x3a9daa56	0.0012028913
64	0x38d49a4b	0.00010137687
65	0x3a6ac072	0.0008955068
66	0x3399c10b	7.159732e-08
67	0x34701719	2.2360145e-07
68	0x340c06ff	1.3041061e-07
69	0x34af3c26	3.2640054e-07
70	0x3250a5d7	1.2144901e-08
71	0x341e4c06	1.4742554e-07
72	0x3428989d	1.570174e-07
73	0x35061162	4.9944185e-07
74	0x312d863d	2.525112e-09
75	0x33e35cbe	1.0587381e-07
76	0x34987ec4	2.840444e-07
77	0x3536575e	6.792742e-07
78	0x311b3f79	2.2591549e-09
79	0x33ca391c	9.416746e-08
80	0x37815588	1.5417827e-05
81	0x2c08ac46	1.9422393e-12
82	0x3b347448	0.002753513
83	0x37c15e54	2.3051318e-05
84	0x35805df5	9.564088e-07
85	0x3b4f6751	0.0031647275
86	0x380a7adb	3.3016182e-05
87	0x39d10ac5	0.0003987161
88	0x3391cf4d	6.7897965e-08
89	0x35a2366c	1.2085779e-06
90	0x3626aa9e	2.483524e-06
91	0x365cde59	3.2911978e-06
92	0x35153cda	5.5595376e-07
93	0x35ea9cc1	1.747998e-06
94	0x3602fe57	1.9519555e-06
95	0x36448349	2.9282694e-06
96	0x3402a18a	1.2165961e-07
97	0x35477ae2	7.4312095e-07
98	0x352d806a	6.463439e-07
99	0x35c81171	1.4906237e-06
100	0x33f65dbf	1.147232e-07
101	0x3511706d	5.418031e-07
102	0x374ea730	1.2317483e-05
103	0x2e1ee581	3.612888e-11
104	0x3a91d72e	0.0011126751
105	0x31711ed7	3.5087646e-09
106	0x3622022d	2.4141148e-06
107	0x39a57921	0.000315615
108	0x38f2a450	0.00011570065
109	0x3a693cdf	0.0008897315
110	0x34959b5f	2.786646e-07
111	0x3545463c	7.3490423e-07
112	0x34ce5476	3.8431943e-07
113	0x358023a8	9.54712e-07
114	0x34524dd1	1.9586084e-07
115	0x35257f3d	6.1652446e-07
116	0x34c86518	3.7326458e-07
117	0x35a96be6	1.2622884e-06
118	0x33346a7d	4.2006366e-08
119	0x34cbc013	3.795145e-07
120	0x34aabff6	3.1804638e-07
121	0x35b2828d	1.3300029e-06
122	0x335e719b	5.1791726e-08
123	0x34c85156	3.7312083e-07
124	0x37f3f71e	2.908293e-05
125	0x2cdbe289	6.249505e-12
126	0x3bc7827b	0.0060885525
127	0x382d65a3	4.134107e-05
128	0x362cbe40	2.5740737e-06
129	0x3bee44f1	0.007271402
130	0x38b483d3	8.607623e-05
131	0x3a8978f0	0.0010488313
132	0x3534a71e	6.7298413e-07
133	0x3609d0df	2.053617e-06
134	0x3622db1b	2.4267417e-06
135	0x3679cd9c	3.7223572e-06
136	0x351b8127	5.792994e-07
137	0x36059347	1.990427e-06
138	0x369a2ff2	4.595139e-06
139	0x36bdc463	5.6555014e-06
140	0x341e3b58	1.4736486e-07
141	0x357b5f83	9.3643774e-07
142	0x3638454a	2.7458468e-06
143	0x36862f96	3.999051e-06
144	0x3407bc0a	1.2641263e-07
145	0x3534e472	6.7387657e-07
146	0x383ba790	4.474033e-05
147	0x2da3093f	1.853506e-11
148	0x3b0384d9	0.0020068197
149	0x37012553	7.697689e-06
150	0x3684e836	3.9609395e-06
151	0x3adbde16	0.0016774561
152	0x393f21bf	0.00018227751
153	0x3acd26da	0.0015651837
154	0x31a70f9e	4.862115e-09
155	0x33ae32cc	8.111746e-08
156	0x33001a37	2.9826165e-08
157	0x33faeac5	1.16842365e-07
158	0x320b65e6	8.114034e-09
159	0x33bf15ce	8.898097e-08
160	0x3525223e	6.151712e-07
161	0x35317a2e	6.6115433e-07
162	0x3114d53c	2.1658044e-09
163	0x3345f7e2	4.6093085e-08
164	0x35486640	7.46546e-07
165	0x355152db	7.797914e-07
166	0x30fb5569	1.8286929e-09
167	0x330416bd	3.0754325e-08
168	0x3687a3ef	4.042398e-06
169	0x2c2ced83	2.4574516e-12
170	0x38e703f8	0.000110156776
171	0x341c3f5b	1.4551681e-07
172	0x348b5d2d	2.5958562e-07
173	0x389439f5	7.067985e-05
174	0x3838a85e	4.4025823e-05
175	0x38afbc6f	8.379749e-05
176	0x307fb689	9.302786e-10
177	0x35151c69	5.554817e-07
178	0x3569c0d6	8.707988e-07
179	0x35b6dba9	1.3623986e-06
180	0x3519ee68	5.734387e-07
181	0x3595b0e5	1.1152848e-06
182	0x352bf2c1	6.405572e-07
183	0x3588457c	1.0153012e-06
184	0x34590457	2.0211279e-07
185	0x3510ffe0	5.401653e-07
186	0x347472a5	2.2765978e-07
187	0x3519615b	5.713861e-07
188	0x3445b814	1.8414022e-07
189	0x34ee3535	4.4369668e-07
190	0x3683daa7	3.9295587e-06
191	0x2d88490f	1.5493854e-11
192	0x3a3a24c7	0.0007100817
193	0x2141f516	6.571531e-19
194	0x35a1ab84	1.2045352e-06
195	0x3972d536	0.00023158346
196	0x388d1cbe	6.7287576e-05
197	0x39d69e10	0.00040935026
198	0x349ed9c9	2.9588253e-07
199	0x35830224	9.760884e-07
200	0x3555261d	7.9404145e-07
201	0x35cb5d34	1.5151804e-06
202	0x34514cc3	1.9492568e-07
203	0x356c19d9	8.7954464e-07
204	0x35eda24f	1.7705114e-06
205	0x362728c5	2.490867e-06
206	0x33547aba	4.9471716e-08
207	0x351c1406	5.8143667e-07
208	0x35b3ba3c	1.3390741e-06
209	0x361d2641	2.341709e-06
210	0x33819590	6.034236e-08
211	0x350de83e	5.286455e-07
212	0x38145b89	3.53712e-05
213	0x2e30924f	4.0147715e-11
214	0x3a74024f	0.00093082053
215	0x309359a4	1.0721135e-09
216	0x365399f1	3.1531056e-06
217	0x3a2e3466	0.0006645381
218	0x390d0370	0.00013448088
219	0x3a98b5fe	0.0011650918
220	0x3409c403	1.2830428e-07
221	0x34b516fb	3.3730598e-07
222	0x347024ea	2.2365171e-07
223	0x34f7e162	4.6171323e-07
224	0x32d451fd	2.4717332e-08
225	0x34656120	2.1362621e-07
226	0x34eec4c8	4.4474132e-07
227	0x3547763c	7.430533e-07
228	0x3220b62c	9.354647e-09
229	0x340d8c8a	1.3182776e-07
230	0x34518024	1.9511259e-07
231	0x351a1966	5.740643e-07
232	0x3213d6a2	8.605328e-09
233	0x34058763	1.2435844e-07
234	0x3763d5c0	1.3580022e-05
235	0x2c304fef	2.5055476e-12
236	0x3ab9db32	0.0014179705
237	0x3737b60a	1.0950034e-05
238	0x3581eebf	9.680733e-07
239	0x3adff22d	0.0017085724
240	0x384a38a0	4.821329e-05
241	0x39cabb7b	0.00038668126
242	0x2d8f715d	1.6307561e-11
243	0x321298dd	8.533076e-09
244	0x30eec769	1.7373455e-09
245	0x3243dae7	1.14002665e-08
246	0x30709480	8.752252e-10
247	0x32379420	1.0685682e-08
248	0x31a71b41	4.863438e-09
249	0x32ae5336	2.0294106e-08
250	0x2f167d49	1.3686931e-10
251	0x32880ba9	1.5837786e-08
252	0x310c1187	2.0382644e-09
253	0x32ad75a4	2.0193347e-08
254	0x30d3632b	1.5380456e-09
255	0x326c51a5	1.3755572e-08

exp_avg f4 [128]
0	0xba47d329	-0.0007622713
1	0x3a1750b7	0.00057722203
2	0xb94f8dac	-0.00019793835
3	0xb9ac6530	-0.00032881787
4	0x39919e96	0.0002777471
5	0xba1698ee	-0.0005744834
6	0x37f81c72	2.957715e-05
7	0xb9735398	-0.00023205427
8	0xba4ed3fc	-0.00078898645
9	0xb901f4ce	-0.00012393596
10	0xb989c278	-0.00026275567
11	0xb81aaed0	-3.6879268e-05
12	0xba8998c9	-0.0010497804
13	0xb94daa58	-0.00019613781
14	0xb907919a	-0.00012928844
15	0xb86abe78	-5.5967335e-05
16	0xba17b6b3	-0.0005787417
17	0x3a204d00	0.00061149895
18	0xb8b4a1ac	-8.6131826e-05
19	0x39229423	0.00015504709
20	0x380a8e29	3.303416e-05
21	0x3a324022	0.00067997177
22	0xb8e03011	-0.000106901054
23	0xb915977a	-0.00014266177
24	0xb88b35a0	-6.638025e-05
25	0x39ce4f4e	0.00039350468
26	0x389a33f2	7.352968e-05
27	0xb9cd57e6	-0.00039166136
28	0x388282e9	6.223267e-05
29	0x38d2e27c	0.00010055766
30	0xb929e1b6	-0.0001620118
31	0xb651a040	-3.1236705e-06
32	0xb872e8f2	-5.7914243e-05
33	0xb9d28330	-0.00040152064
34	0xba0b96af	-0.0005324883
35	0xb7e78d96	-2.7603277e-05
36	0x3929e4b5	0.00016202296
37	0xba1e9de7	-0.0006050751
38	0xba3ee73c	-0.00072823814
39	0xb9bda3e6	-0.00036171003
40	0xb9a5fcb1	-0.00031659522
41	0x38cf28f8	9.87816e-05
42	0x3936ec3c	0.00017444877
43	0xba2d8ba2	-0.0006620233
44	0xba4226dc	-0.0007406303
45	0x3a2e0981	0.00066389894
46	0xb9ab71a3	-0.00032700328
47	0x3953dbe1	0.0002020444
48	0xb9758586	-0.00023414762
49	0xb9d669bb	-0.00040896036
50	0xb88802e7	-6.485526e-05
51	0xb9775bca	-0.0002358995
52	0x38a5e748	7.9108926e-05
53	0xba652187	-0.00087406527
54	0xba02e642	-0.00049934175
55	0x3a7a0fc7	0.0009539094
56	0xb8c0389a	-9.165816e-05
57	0x38f983e0	0.00011897809
58	0xb92d0c6e	-0.00016503196
59	0xb9e1e0f1	-0.0004308294
60	0x3a184ca8	0.00058097625
61	0x39183784	0.00014516531
62	0xb9a13343	-0.00030746506
63	0x3a2ab302	0.00065116596
64	0xb90519d8	-0.00012693496
65	0xba68396e	-0.00088586553
66	0x39c5965d	0.00037686797
67	0xba15bcee	-0.00057120516
68	0x38f0d648	0.00011484005
69	0xb942d533	-0.00018580705
70	0x394580b4	0.0001883533
71	0x380564d9	3.1803593e-05
72	0xb93cfc91	-0.00018023165
73	0x38cbc0fc	9.7157405e-05
74	0x3a2eae6c	0.0006663564
75	0xb91d7e08	-0.00015019637
76	0x39a64b81	0.00031718242
77	0xb9cd7870	-0.0003919038
78	0xba510476	-0.0007973382
79	0x39c08197	0.00036717646
80	0x390721d1	0.00012887201
81	0xb90bb40f	-0.0001332315
82	0x3a610e20	0.00085851736
83	0xba87a4cf	-0.0010348799
84	0xba6859e9	-0.00088634953
85	0xba96f7e4	-0.0011517969
86	0xb6e899c0	-6.9320376e-06
87	0x3a4869cf	0.0007645161
88	0xba10ad27	-0.0005518966
89	0x3995a20b	0.00028540226
90	0xb989e082	-0.00026297948
91	0xb96303e7	-0.0002164986
92	0x3990ec7a	0.0002764201
93	0xb98ad25a	-0.00026478135
94	0x380f6858	3.4191035e-05
95	0xb9be7b3a	-0.00036331435
96	0xba969cb4	-0.0011490793
97	0x3a1857b8	0.0005811411
98	0x393e9284	0.00018174393
99	0xb89269ee	-6.9815535e-05
100	0x38b1a84c	8.4713654e-05
101	0x3a3820fd	0.00070239586
102	0xba092de1	-0.0005232972
103	0xba10fb3b	-0.00055306003
104	0xba2b80f5	-0.00065423484
105	0x39247a76	0.00015685879
106	0x39b7f02b	0.0003508342
107	0x3a17cdd4	0.00057908637
108	0x38b30ccb	8.537768e-05
109	0xb8bbc3cf	-8.953327e-05
110	0xb9aa87af	-0.0003252602
111	0x39de9a47	0.00042458085
112	0xba788290	-0.00094799045
113	0x38a3851c	7.797239e-05
114	0xb9255923	-0.00015768832
115	0x3a132e8b	0.00056145404
116	0xb900e2dc	-0.00012291543
117	0xb98903aa	-0.00026133406
118	0x3a320118	0.0006790324
119	0x383bbbe8	4.4759276e-05
120	0xb9335a07	-0.00017104308
121	0x38842cbc	6.302583e-05
122	0xb98ccc99	-0.00026855318
123	0xb80ffd15	-3.4329558e-05
124	0x38c84c2e	9.550933e-05
125	0x399cca07	0.0002990516
126	0xb9ad3372	-0.0003303546
127	0xb92655bc	-0.00015862932

exp_avg_sq f4 [128]
0	0x370d5187	8.423237e-06
1	0x374a9ba2	1.2076374e-05
2	0x3721b20f	9.637805e-06
3	0x368b4978	4.1510757e-06
4	0x372fca62	1.0477934e-05
5	0x373b7043	1.11722065e-05
6	0x379036a5	1.7191584e-05
7	0x3597384b	1.126676e-06
8	0x36af6c5e	5.228022e-06
9	0x37659a25	1.3685353e-05
10	0x368cfc80	4.20172e-06
11	0x348b2752	2.5919377e-07
12	0x37b700aa	2.181561e-05
13	0x352cae36	6.4328503e-07
14	0x355d1bf1	8.2369576e-07
15	0x3693a284	4.3998607e-06
16	0x370501bb	7.927821e-06
17	0x3709787d	8.19389e-06
18	0x366ad507	3.4992715e-06
19	0x366df9cc	3.5461153e-06
20	0x358cf0a6	1.0500851e-06
21	0x36750e1c	3.6516058e-06
22	0x370b30a7	8.296373e-06
23	0x36dd7eda	6.6010807e-06
24	0x33f845e3	1.1561112e-07
25	0x370988a8	8.197654e-06
26	0x368a6206	4.124132e-06
27	0x36dc6067	6.5677336e-06
28	0x3612acfe	2.185639e-06
29	0x35ad6ab5	1.292056e-06
30	0x350fb70a	5.353801e-07
31	0x34faf3c0	4.674348e-07
32	0x36282836	2.5057357e-06
33	0x365595a3	3.1826573e-06
34	0x3837695e	4.372873e-05
35	0x362d886c	2.5858417e-06
36	0x35de7bac	1.6576282e-06
37	0x380043c9	3.0580708e-05
38	0x37a50b66	1.967484e-05
39	0x371595bc	8.915955e-06
40	0x379af771	1.8473454e-05
41	0x36a7ec79	5.004517e-06
42	0x35725a2d	9.028325e-07
43	0x37e9899b	2.7839842e-05
44	0x36bc2e3f	5.6082204e-06
45	0x37473536	1.1873713e-05
46	0x371896ec	9.095045e-06
47	0x36e3adb0	6.785347e-06
48	0x379e6fe4	1.888717e-05
49	0x3732d782	1.0659804e-05
50	0x369a27f5	4.5942093e-06
51	0x36b2b86f	5.3262843e-06
52	0x357910e9	9.2784336e-07
53	0x3799092a	1.8243289e-05
54	0x37d135b7	2.4939754e-05
55	0x37b62240	2.171204e-05
56	0x357d1292	9.427687e-07
57	0x37c73d1c	2.3751105e-05
58	0x368158c2	3.8548324e-06
59	0x375e909b	1.32659e-05
60	0x380a70ab	3.3006694e-05
61	0x3744bc58	1.1726363e-05
62	0x3628c250	2.5147056e-06
63	0x3749e211	1.2033169e-05
64	0x35749233	9.110983e-07
65	0x3808ea23	3.2642984e-05
66	0x3615055b	2.2205847e-06
67	0x37603610	1.3364028e-05
68	0x372f5d4e	1.0452537e-05
69	0x37c5bac8	2.3571207e-05
70	0x352c48bf	6.418085e-07
71	0x35a58f94	1.2335245e-06
72	0x36fa2daa	7.4558966e-06
73	0x350146c9	4.815925e-07
74	0x36685271	3.4618681e-06
75	0x36fefb4a	7.599044e-06
76	0x371c69aa	9.322926e-06
77	0x3767442f	1.3784548e-05
78	0x37a7ab86	1.9987823e-05
79	0x360f8c08	2.139017e-06
80	0x34f4f772	4.5628582e-07
81	0x36f9051a	7.421372e-06
82	0x37825cf9	1.5540501e-05
83	0x37fbfdb1	3.0039666e-05
84	0x37bc1428	2.2420732e-05
85	0x382c3d4c	4.1065083e-05
86	0x36555209	3.1787224e-06
87	0x3791c793	1.7378281e-05
88	0x36a1858d	4.8137213e-06
89	0x37b4e036	2.1562078e-05
90	0x37446ddb	1.1708088e-05
91	0x353b8bec	6.986654e-07
92	0x3526c213	6.2122234e-07
93	0x351488ce	5.5333373e-07
94	0x3723884a	9.747289e-06
95	0x3781f638	1.5492653e-05
96	0x37ec9499	2.8202589e-05
97	0x3698160c	4.5325196e-06
98	0x3618c51d	2.27645e-06
99	0x3640d8c3	2.8736401e-06
100	0x365f8853	3.330894e-06
101	0x371af62d	9.236433e-06
102	0x35e513e2	1.7067616e-06
103	0x379e7b3e	1.8892457e-05
104	0x369f2c38	4.743717e-06
105	0x36420a39	2.8914203e-06
106	0x36e09010	6.6924913e-06
107	0x37dc34f5	2.6250704e-05
108	0x3641c929	2.8876332e-06
109	0x363bc304	2.7978685e-06
110	0x36b9388f	5.520014e-06
111	0x367f18ba	3.8012354e-06
112	0x37cf7836	2.47323e-05
113	0x36eb6129	7.0148567e-06
114	0x3676a74e	3.675424e-06
115	0x37018bac	7.721519e-06
116	0x362cb8b1	2.5737502e-06
117	0x368503fc	3.9641727e-06
118	0x37530eed	1.2580055e-05
119	0x349be48e	2.9037295e-07
120	0x35b36893	1.3366974e-06
121	0x3567fda4	8.64233e-07
122	0x3687e459	4.0498967e-06
123	0x35220b10	6.03658e-07
124	0x35ceff81	1.5422557e-06
125	0x366b8b21	3.5098712e-06
126	0x370abc13	8.26923e-06
127	0x37baaa69	2.2252281e-05
