results/CurveRoad1.2/CarAgent/CarAgent-15984.pt (torch, 492127 bytes, 36 tensors)

network_body._body_endoder.seq_layers.0.weight f4 [128, 22]
0	0xbe34d574	-0.17659551
1	0x3e334ad1	0.17509009
2	0x3ed05dc5	0.4069654
3	0xbe1b3201	-0.15155794
4	0xba96ac34	-0.0011495412
5	0x3ec2008b	0.3789104
6	0x3e2ba207	0.16761027
7	0x3e6a97a4	0.22909409
8	0x3e1beac0	0.15226269
9	0xbd546843	-0.051857244
10	0xbe1fb925	-0.15597971
11	0x3d770065	0.06030311
12	0x3eae541d	0.34048548
13	0xbe2b5cc8	-0.16734612
14	0x3e954be5	0.29159465
15	0x3cd8e869	0.02647801
16	0xbe000b1a	-0.12504235
17	0x3e9922dc	0.29909408
18	0xbd85daab	-0.06535848
19	0x3de159d4	0.110034615
20	0xbe8bfcbe	-0.27341264
21	0x3e68e869	0.22744907
22	0xbea5e38a	-0.3240016
23	0x3e8ca9a4	0.27473176
24	0x3e935466	0.28775328
25	0xbe9c9527	-0.30582544
26	0x3c3d8b32	0.011568831
27	0x3e3f9e74	0.18712789
28	0x3e5f4759	0.2180456
29	0x3e00b7d6	0.12570128
30	0x3e80b107	0.2513506
31	0xbb0670e5	-0.0020514068
32	0x3d028895	0.031868536
33	0x3e833926	0.25629538
34	0x3ea028ed	0.31281224
35	0xbd8b0bfb	-0.067893945
36	0x3c309f3d	0.010780153
37	0xbdbccdc3	-0.092189334
38	0x3bbf7044	0.0058422405
39	0x3ee2b9b9	0.4428232
40	0x3db706d5	0.0893685
41	0xbf148a8d	-0.5802391
42	0x3dac7cd7	0.08422249
43	0xbe40d512	-0.1883128
44	0xbe0613e0	-0.13093519
45	0x3d29ef3b	0.041487914
46	0x3e972240	0.29518318
47	0x3d20587f	0.039146896
48	0xbe659e04	-0.2242356
49	0xbc685ba5	-0.014182006
50	0xbd45d0ac	-0.048294708
51	0x3dc81957	0.09770458
52	0x3ea9941c	0.3312081
53	0xbc7c60d0	-0.015403941
54	0x3dc4154f	0.09574377
55	0x3e4ec908	0.20193875
56	0x3d471179	0.048600648
57	0xbde51c93	-0.11187091
58	0xbd51dcd5	-0.051235992
59	0xbec4725b	-0.38368496
60	0xbcf6eafe	-0.03014135
61	0xbe85fa31	-0.26167443
62	0xbe1a7842	-0.15084937
63	0x3e941ac9	0.28926685
64	0xbe2ae5fb	-0.16689293
65	0x3e5ab1f7	0.2135695
66	0x3e8adb27	0.27120325
67	0xbd0f2312	-0.034945555
68	0x3ca049ac	0.01956638
69	0xbec73d02	-0.38913733
70	0xbdcebf88	-0.100951254
71	0x3e3e9ef0	0.18615317
72	0x3e81cee4	0.25353158
73	0xbb510e5f	-0.0031899435
74	0x3dfedad8	0.12444085
75	0xbe710b89	-0.23539557
76	0x3e4ce453	0.20008974
77	0x3cfa57a5	0.03055937
78	0xbed65163	-0.41858968
79	0xbda4cc0b	-0.080467306
80	0x3d8ccb48	0.0687471
81	0x3e6fa663	0.23403315
82	0xbd4ea384	-0.05044891
83	0xbd9feab8	-0.07808441
84	0xbe13f728	-0.14449751
85	0xbe4fabbe	-0.20280358
86	0x3e5fedb6	0.21868023
87	0x3e0dff17	0.1386684
88	0x3e8c7ae7	0.27437517
89	0xbe09885d	-0.13430925
90	0x3e9e28e7	0.3089058
91	0xbdd015f9	-0.10160441
92	0xbb8771f3	-0.004133457
93	0x3e99adca	0.30015403
94	0x3ea0e6c0	0.31426048
95	0xbe325311	-0.174145
96	0x3e711695	0.2354377
97	0xbb166dc3	-0.0022953607
98	0x3e7aa91d	0.24478574
99	0xbed216e7	-0.41033098
100	0xbe783b1b	-0.24241297
101	0x3e4f7c67	0.202623
102	0xbd980145	-0.07422117
103	0xbe841743	-0.25798997
104	0x3d8d62aa	0.06903584
105	0x3ed9a3b8	0.4250772
106	0xbe21a09d	-0.15783925
107	0xbe0a4e9b	-0.13506548
108	0xbd8cbceb	-0.06871971
109	0x3d5ed32e	0.054400615
110	0xbe3be961	-0.18350746
111	0xbf0b92b5	-0.5452073
112	0x3e967cd5	0.29392114
113	0xbe74bdd0	-0.23900533
114	0xbee127cd	-0.43975678
115	0xbd4fd57a	-0.050740696
116	0x3e1e2807	0.15444957
117	0x3e128d22	0.1431165
118	0x3e8be509	0.27323177
119	0xbdf31a1c	-0.11870214
120	0x3bfff76d	0.007811478
121	0xbc5bf1c2	-0.013424339
122	0x3d9d2733	0.07673492
123	0x3d8c6a55	0.06856219
124	0x3dafa1d3	0.085757874
125	0x3df5ce42	0.12002231
126	0xbe2087f7	-0.15676866
127	0xbe152dd0	-0.14568257
128	0xbcf481e2	-0.02984709
129	0xbd47704e	-0.048691086
130	0x3f25f06c	0.6481998
131	0xbdc63cfd	-0.09679601
132	0x3e6895d8	0.22713411
133	0xbdd612c2	-0.104527965
134	0x3e3ecac1	0.18632032
135	0x3d98739a	0.07443924
136	0x3d9a6143	0.075380825
137	0xbe853751	-0.26018766
138	0xbdee138d	-0.11624823
139	0x3e9d0269	0.306659
140	0xbd449af1	-0.047999326
141	0x3e8c31a8	0.27381635
142	0x3e8bb56d	0.27286854
143	0x3e7f6afb	0.24943154
144	0x3e342ce2	0.17595246
145	0x3e4132e6	0.18867072
146	0xbbc1f4a1	-0.0059190546
147	0x3dbb6290	0.09149659
148	0xbeb9437a	-0.36184293
149	0x3cf66e70	0.030081958
150	0xbde1fe9e	-0.110348925
151	0xbe595827	-0.21225034
152	0xbe621ca0	-0.22081232
153	0xbe377e5d	-0.17919298
154	0x3d8deddc	0.06930134
155	0xbdf438bc	-0.11924884
156	0x3dbf06fa	0.093275025
157	0xbb53ea8a	-0.003233584
158	0xbdad7e35	-0.08471338
159	0x3e642308	0.22278988
160	0x3c888da4	0.016669102
161	0xbe19ae0f	-0.15007804
162	0x3d78392e	0.060601406
163	0xbe2d86de	-0.16945979
164	0xbeb618fd	-0.3556594
165	0xbdf74dce	-0.12075387
166	0xbe65db88	-0.22447026
167	0x3c9a4616	0.018832248
168	0xbc9d0150	-0.019165665
169	0xbe1a5b06	-0.15073785
170	0x3b8afa7b	0.0042412854
171	0x3eb1392c	0.3461393
172	0xbed723e8	-0.42019582
173	0x3e168bf3	0.14701824
174	0xbe5232b2	-0.20527151
175	0x3e4af41f	0.19819687
176	0xbdea0822	-0.114273325
177	0x3ea866d7	0.3289096
178	0x3e1e4c1e	0.15458724
179	0x3b7bb0eb	0.0038405012
180	0xbd6a1501	-0.057148937
181	0xbe7067be	-0.23477075
182	0x3d83ed79	0.06441779
183	0x3c86b162	0.016442005
184	0xbe8e0e60	-0.27745342
185	0xbaad9252	-0.0013242459
186	0x3e9128e9	0.28351524
187	0x3d8f86dc	0.07008144
188	0xbe715577	-0.23567759
189	0x3e5b15cf	0.21395038
190	0xbe35eb77	-0.17765604
191	0x3e86229a	0.26198274
192	0x3cee72ce	0.029107478
193	0xbe60a696	-0.21938547
194	0x3e72c62f	0.23708414
195	0x3eb0222d	0.34401074
196	0x3e066c48	0.13127244
197	0x3ebbfa6c	0.36714494
198	0x3dd69de3	0.10479333
199	0x3ecf40e5	0.40479198
200	0xbe097a3a	-0.13425532
201	0x3ed3b29e	0.41347212
202	0xbb40f0f5	-0.0029440497
203	0x3e827ca2	0.25485712
204	0xbd78942c	-0.060688183
205	0xbb01c263	-0.0019799701
206	0xbd87ad03	-0.06624796
207	0xbdba9f8a	-0.09112461
208	0x3dbe1177	0.09280675
209	0xbdaed162	-0.0853603
210	0x3ddd3d86	0.1080275
211	0x3e1aa588	0.15102208
212	0x3d8844c0	0.06653738
213	0xbe876193	-0.2644163
214	0xbeb9e85f	-0.36310098
215	0x3ce1cb79	0.027562844
216	0xbdfd74a6	-0.123757645
217	0x3e30ca38	0.1726464
218	0xbefceeb0	-0.49400854
219	0xbdc08859	-0.09401006
220	0xbdbf7f61	-0.093504675
221	0xbe32ba91	-0.17453982
222	0xbd1d5c1f	-0.03841793
223	0x3e783631	0.24239422
224	0x3ea8afb8	0.32946563
225	0x3d9cc2e7	0.07654362
226	0x3d1d95a9	0.038472805
227	0xbdd7a168	-0.10528833
228	0xbe34c166	-0.176519
229	0xbe612273	-0.21985798
230	0x3e0d182e	0.13778755
231	0x3e8c00c0	0.27344322
232	0xbe33e265	-0.17566831
233	0xbe1a40f1	-0.15063836
234	0xbe0de39e	-0.1385636
235	0xbde57f23	-0.1120589
236	0xbd49b22b	-0.04924218
237	0x3df8d368	0.121496975
238	0x3e16e873	0.1473711
239	0xbea7524b	-0.32679972
240	0xbf0c8307	-0.5488743
241	0x3ea29f34	0.31762087
242	0x3ce36f9b	0.027763179
243	0xbea57320	-0.32314396
244	0xbc782229	-0.015144863
245	0x3f309437	0.6897616
246	0x3ec3063f	0.38090703
247	0x3e6d05f9	0.2314681
248	0xbe652f0a	-0.22381225
249	0x3e988b99	0.29794005
250	0xbcd5cf43	-0.026099807
251	0x3e4dd3ae	0.2010028
252	0xbeb12f14	-0.3460623
253	0x3eb12bb4	0.34603655
254	0xbd92ca26	-0.07167463
255	0x3e87c22b	0.26515326

network_body._body_endoder.seq_layers.0.bias f4 [128]
0	0x3a1355cd	0.00056203903
1	0xbca05a06	-0.019574177
2	0x3bf1ab80	0.0073751807
3	0xbca1016e	-0.019654002
4	0xbb2b1e11	-0.002611045
5	0xbd3e7171	-0.046494905
6	0xba56e4dc	-0.0008197555
7	0xbb8edcc4	-0.0043598134
8	0xbcb2647d	-0.021776432
9	0xbc7f257f	-0.015572905
10	0xbc501513	-0.012700337
11	0xbb26895c	-0.0025411462
12	0xbcf160c5	-0.029465089
13	0xbc740540	-0.01489383
14	0xbc9be210	-0.019028693
15	0xbc67a1c0	-0.014137685
16	0x3cab30ec	0.020897351
17	0xbb28e145	-0.0025769037
18	0xbb0061d5	-0.0019589562
19	0xbc9052bc	-0.017617576
20	0xbd3d98f7	-0.046288457
21	0xbc80e0db	-0.01573222
22	0xbb344ab0	-0.0027510338
23	0xbc9c4ab4	-0.01907859
24	0xbbb708e7	-0.005585778
25	0xbaebcab3	-0.0017989486
26	0xbd1da1fe	-0.038484566
27	0xbc60800e	-0.013702406
28	0xbc3b1c44	-0.011420313
29	0xbc1872c3	-0.009304705
30	0xbb8b3f98	-0.0042495243
31	0xb81314a1	-3.5066743e-05
32	0xbc53d16e	-0.01292835
33	0xbc2428ab	-0.010019462
34	0xbc593464	-0.01325712
35	0xbbb3a45d	-0.00548224
36	0xba41ca22	-0.0007392486
37	0x3c0a0950	0.008425072
38	0xbce5725b	-0.02800863
39	0xbcc6ca3a	-0.024266351
40	0xbbd72d6d	-0.0065666945
41	0xbc9064e6	-0.017626237
42	0xba6322c8	-0.00086645456
43	0x3a72e730	0.0009266017
44	0xbbe9b3f3	-0.0071320473
45	0xbc71f2a4	-0.014767323
46	0xbbda261e	-0.006657376
47	0x3b5a793f	0.0033336428
48	0xbce0ddd7	-0.027449531
49	0xbc8db8c0	-0.01730001
50	0xbb9d6785	-0.0048036003
51	0xbc9dea4f	-0.019276766
52	0xbd038e6b	-0.032118242
53	0xbc2bb32a	-0.010479728
54	0xbb40013d	-0.0029297613
55	0xbb787e26	-0.0037916987
56	0xbc74b138	-0.01493483
57	0xbc81153f	-0.015757201
58	0x3c12a255	0.008949836
59	0xbbb8e89c	-0.0056429636
60	0xbcb4d1c8	-0.022072688
61	0xbba33df0	-0.0049817488
62	0xbc3f5dfa	-0.011680121
63	0xbb239131	-0.0024958367
64	0xbcb212df	-0.021737514
65	0xbc9139be	-0.017727729
66	0xba14409c	-0.00056553795
67	0xbc3e2b9d	-0.011607078
68	0xbd1368ac	-0.035988495
69	0xbca96d46	-0.020681988
70	0xbbf6578c	-0.0075177606
71	0xbc442781	-0.011972309
72	0xbc0cfda5	-0.008605395
73	0xbbed72f0	-0.0072463676
74	0x3c81a25d	0.015824491
75	0xbcce6d43	-0.025198584
76	0x3d82c08b	0.06384381
77	0x3ab66c15	0.0013917709
78	0x3bf0be91	0.007346936
79	0xbc33bbc9	-0.010970064
80	0x3c1cbfba	0.009567196
81	0xbcdee502	-0.027208809
82	0xbc160fef	-0.009159072
83	0xba988b9d	-0.0011638288
84	0x3b2c2940	0.0026269704
85	0xbb903b43	-0.004401596
86	0xbada16e4	-0.0016638902
87	0x3a6ae3b2	0.0008960321
88	0xbbc18c09	-0.005906586
89	0xbc60f02a	-0.013729135
90	0xbcfb64a8	-0.030687645
91	0xbcdf0259	-0.0272228
92	0x3cf65246	0.030068528
93	0xbc880590	-0.016604215
94	0xbca6ffe3	-0.020385688
95	0x3c3d285f	0.01154527
96	0x3b9f93d3	0.004869917
97	0xbc438487	-0.011933452
98	0x3adb12ab	0.0016713938
99	0xbbfd111e	-0.007722988
100	0xbd540bf9	-0.05176923
101	0xbcdacfcf	-0.026710419
102	0x3c5e187f	0.013555645
103	0xbc3967c9	-0.011316248
104	0xbb2dd15c	-0.0026522493
105	0xbc302f9f	-0.010753541
106	0x3c68685e	0.014185039
107	0xbb4d8778	-0.0031361263
108	0x3c1c5cb9	0.009543591
109	0x3baa9cd5	0.005206684
110	0xbd3b5be2	-0.045741923
111	0xbc98e6f1	-0.018664809
112	0x3a607f9c	0.0008563937
113	0xbcc5800b	-0.024108907
114	0xbd2cf6a0	-0.042227387
115	0xbc5184ed	-0.01278804
116	0xbcc27e39	-0.023741828
117	0xbb351e96	-0.002763664
118	0xbb9f4dad	-0.0048615546
119	0x3af4ef09	0.0018686961
120	0xbca3295d	-0.019917184
121	0xbbf0e4bb	-0.0073514855
122	0xbaa22fbf	-0.0012373849
123	0xba7c5670	-0.00096259173
124	0xbccffa29	-0.02538784
125	0xbc89e332	-0.016831968
126	0x3c48baf1	0.012251602
127	0x3c08ac25	0.008341824

network_body._body_endoder.seq_layers.2.weight f4 [128, 128]
0	0xbd3f768e	-0.046743922
1	0x3d8f0ab3	0.069844626
2	0xbd8325c8	-0.064036906
3	0xbcc36e85	-0.02385641
4	0x3dc50ed5	0.096219696
5	0x3cd620c0	0.026138663
6	0xbe00c413	-0.12574796
7	0x3dfc8fb1	0.123320945
8	0xbc8ebfe4	-0.017425485
9	0x3c531cea	0.012885312
10	0xbb6fcf24	-0.0036591971
11	0xbdc5ff99	-0.09667892
12	0xbdb047c7	-0.086074404
13	0x3d368a1d	0.04456531
14	0xbdd50e00	-0.10403061
15	0x3dcc6ea9	0.09982044
16	0xbc8c050f	-0.017092256
17	0xbd882f70	-0.06649673
18	0x3e083670	0.13302016
19	0xbc40f270	-0.011776552
20	0x3cb111e0	0.021614969
21	0xbe1d75cf	-0.15376972
22	0xbdfe3375	-0.124121584
23	0xbd75ec0f	-0.060039576
24	0xbd41214b	-0.04715089
25	0xbdf74294	-0.12073246
26	0x3dc43bb3	0.09581699
27	0xbc21e013	-0.009880084
28	0x3d907a85	0.07054619
29	0x3d847f35	0.06469575
30	0xbd5b8798	-0.05359611
31	0xbd9f7ed5	-0.07787863
32	0x3d45fa0d	0.04833417
33	0xbdcfcc0e	-0.10146342
34	0xbcf553c3	-0.029947167
35	0x3d066756	0.032813393
36	0x3d010f4f	0.03150874
37	0x3d353075	0.044235665
38	0xbdaf5f7d	-0.08563135
39	0x3c8821af	0.016617624
40	0x3ae3ba9b	0.0017374338
41	0x3da0192e	0.07817303
42	0xbd6f28b6	-0.058388434
43	0xbe52c46a	-0.20582739
44	0x3e4c58e6	0.19955787
45	0xbd4abab5	-0.049494464
46	0x3e0fede2	0.14055589
47	0xbe17e622	-0.14833882
48	0xbc4768fb	-0.012171025
49	0xbd36691b	-0.04453383
50	0x3e0691e2	0.13141587
51	0x3d18384b	0.03716306
52	0x3da65e53	0.0812346
53	0xbd4c48e9	-0.04987422
54	0xbd87fa85	-0.0663958
55	0xbdccf79a	-0.10008164
56	0xbb3a496a	-0.0028425106
57	0x3d8de0a7	0.06927615
58	0xbdd2bc61	-0.10289837
59	0x3e5d0fde	0.21588084
60	0x3cef05e4	0.029177614
61	0x3c8acd21	0.016943516
62	0xbde75efd	-0.112974145
63	0xbd445b85	-0.047938842
64	0x39522852	0.00020042181
65	0xbdadcca9	-0.084863015
66	0xbab169c2	-0.0013535547
67	0xbdb890d1	-0.090119965
68	0xbdb41cbb	-0.087945424
69	0xbdc4b316	-0.096044704
70	0x3d5fd270	0.05464405
71	0x3e15aaf2	0.14615992
72	0x3cbb74ca	0.022882838
73	0x3d9bc618	0.07606143
74	0x3ca84fdb	0.02054589
75	0xbd813271	-0.06308449
76	0x3d71ec56	0.05906328
77	0x3dea63df	0.1144483
78	0x3ceb439a	0.028718758
79	0x3d031863	0.03200568
80	0x3d0d61fc	0.034517273
81	0x3e470e1b	0.19438975
82	0x3df77a3a	0.1208386
83	0x3da5312e	0.08066021
84	0xbbd145b2	-0.006386482
85	0x3d2cc609	0.04218105
86	0xbcae907a	-0.021309126
87	0xbd8ec6c4	-0.06971505
88	0x3d8b82fb	0.06812092
89	0xbdb05378	-0.086096704
90	0x3c682f8a	0.01417149
91	0x3d2a04e9	0.04150859
92	0xbd14164f	-0.036154088
93	0xbcd178d2	-0.025570307
94	0x3d0562c9	0.032564912
95	0xbe0a78df	-0.13522671
96	0xbc3fa810	-0.011697784
97	0x3dbf1443	0.093300365
98	0xbdd90bbd	-0.10597942
99	0xbda34adf	-0.07973265
100	0xbe281ad4	-0.16416484
101	0x3cc2dd63	0.023787206
102	0xbbce0bcb	-0.006288027
103	0x3d970150	0.07373297
104	0x3e1466c0	0.14492321
105	0xbccdcff6	-0.025123578
106	0x3de9cbed	0.11415849
107	0x3b466d3b	0.0030277509
108	0x3cd93c0f	0.026517896
109	0xbdf27fdf	-0.11840796
110	0x3def6dd9	0.11690874
111	0x3c1a8a4f	0.009432389
112	0x3b2506ec	0.0025181128
113	0xbe17de3b	-0.14830868
114	0xbd2b70f8	-0.041855782
115	0x3d76751e	0.060170285
116	0xbb1234a7	-0.0022309215
117	0xbc0358f4	-0.008016814
118	0xbdabe69b	-0.08393594
119	0x3d1edd3c	0.038785204
120	0xbe3a3bee	-0.18186924
121	0x3d953a16	0.0728647
122	0xbdbf4337	-0.09338992
123	0xbc409e96	-0.01175656
124	0x3dca6ad3	0.09883656
125	0xbe477795	-0.1947921
126	0xbe38290d	-0.1798441
127	0xbe185995	-0.14877923
128	0x3e10cf3c	0.14141554
129	0x3cd99e28	0.026564673
130	0x3dce40ef	0.10070979
131	0x3d1cc219	0.038271043
132	0x3d8bbece	0.068235025
133	0x3d9610d3	0.07327428
134	0xbd2aba30	-0.04168147
135	0x3d6423ef	0.05569833
136	0xbd8c07ad	-0.068374015
137	0x3daff63f	0.085918896
138	0x3d0ac4dd	0.03387915
139	0xbdf4881e	-0.11940025
140	0x3bde248c	0.006779259
141	0xbe2904dc	-0.1650576
142	0x3e3acabe	0.18241403
143	0x3e1492ca	0.1450912
144	0x3d8fedb5	0.07027761
145	0xba0f14ac	-0.00054580974
146	0xbd038e43	-0.032118093
147	0x3db3b9ce	0.08775674
148	0xbd512755	-0.0510629
149	0x3dce4310	0.10071385
150	0xbd87bfc8	-0.06628376
151	0xbdb207e2	-0.0869291
152	0xbd68aac2	-0.056803472
153	0xbda71459	-0.08158178
154	0x3c2054b3	0.009785819
155	0xbdca2342	-0.09870006
156	0x3ce3fd36	0.027830701
157	0x3e1ada21	0.15122272
158	0x3d054913	0.032540392
159	0x3e47847d	0.19484134
160	0x3c68bd30	0.014205262
161	0x3d007bfe	0.03136825
162	0x3d5d2f0d	0.05399995
163	0x3d6bc762	0.057563193
164	0xbce657ea	-0.028118093
165	0x3ddc02f3	0.1074275
166	0xbe15e2f5	-0.14637358
167	0x3ca4b4e3	0.020105785
168	0x3d26ba59	0.04070506
169	0x3de81e32	0.11333884
170	0x3dac1abd	0.084035374
171	0xbdfc9570	-0.123331904
172	0x3e30bc84	0.17259413
173	0xbdc98a9f	-0.09840893
174	0x3dfa149a	0.12210961
175	0xbca06e53	-0.019583857
176	0xbcc8fc29	-0.024534302
177	0xbd294781	-0.041327957
178	0x3d12ac6a	0.035808958
179	0x3d1678e8	0.0367364
180	0xbe5d38f9	-0.21603765
181	0x3dc59d26	0.09649114
182	0xbd24b824	-0.040214673
183	0x3d35e894	0.044411257
184	0x3d8c075c	0.06837341
185	0xbd0998aa	-0.033592857
186	0x3e438134	0.19092256
187	0x3dccec79	0.10006041
188	0xbcc659f8	-0.024212822
189	0x3ddbb756	0.10728328
190	0xbdab777f	-0.083724014
191	0xbe649d69	-0.22325672
192	0x3db9c8f1	0.0907153
193	0x3d42b155	0.0475324
194	0xbe4068fd	-0.1879005
195	0x3c4ba923	0.012430462
196	0x3e0f3848	0.13986313
197	0x3de38070	0.11108482
198	0x3e009e79	0.12560453
199	0xbd4eb1d3	-0.050462555
200	0x3d8247db	0.063613616
201	0xbe1734c5	-0.14766224
202	0xbe04327b	-0.12909882
203	0x3d38a226	0.04507651
204	0xbc4ddb09	-0.012564429
205	0x3d922580	0.07136059
206	0x3d651c56	0.055935226
207	0xbdb297ca	-0.08720358
208	0xbe923b6b	-0.28560957
209	0xbca6c433	-0.020357227
210	0xbe3242d1	-0.17408301
211	0x3d1d38aa	0.038384117
212	0x3db83532	0.08994521
213	0x3dd8c965	0.10585288
214	0x3d2a10a7	0.041519787
215	0xbda34e83	-0.07973959
216	0xbc4a3029	-0.012340584
217	0x3de45c29	0.11150391
218	0x3dd8f4fc	0.10593602
219	0xbd917ce5	-0.071039
220	0x3d028b30	0.03187102
221	0x3e0461ca	0.12927929
222	0xbe0218c6	-0.12704763
223	0x3e50fab9	0.20408143
224	0xbca3c683	-0.019992119
225	0xbe3ac749	-0.18240084
226	0xbe18b4e7	-0.14912759
227	0x3d9ab724	0.075544626
228	0xbe34c60d	-0.17653675
229	0x3dc5c3a4	0.09656456
230	0x3d668e28	0.056287915
231	0xbdb99076	-0.09060757
232	0x3ab79616	0.0014006521
233	0xbb041b9f	-0.0020158065
234	0x3dcfc8aa	0.101456955
235	0x3db71055	0.08938662
236	0xbd0e1f32	-0.03469772
237	0xbde61cf8	-0.11235994
238	0x3d05c20c	0.03265576
239	0xbd9637a9	-0.07334835
240	0xbdbe44aa	-0.092904404
241	0xbd365f58	-0.04452452
242	0xbdd1aaa3	-0.102376245
243	0x3ca0d2b1	0.019631715
244	0xbd0a3384	-0.033740535
245	0x3d427bc2	0.047481306
246	0xbcb0c098	-0.02157621
247	0xbdad9650	-0.084759355
248	0x3be47fda	0.006973249
249	0x3df796c9	0.12089307
250	0xbd490a15	-0.04908188
251	0x3bd3d78e	0.006464905
252	0xbcb73172	-0.022362445
253	0x3e05db82	0.13072017
254	0xbcebdacb	-0.028790852
255	0xbd8261a4	-0.0636628

network_body._body_endoder.seq_layers.2.bias f4 [128]
0	0xbc6c0597	-0.01440563
1	0xbcb89e94	-0.022536553
2	0xbb7bef5b	-0.0038442228
3	0xbc060228	-0.008179225
4	0xbb939846	-0.0045042364
5	0xbb9904f0	-0.004669778
6	0xbb44cbc2	-0.0030028676
7	0xbcb21ad5	-0.02174131
8	0xbc8439ff	-0.016140936
9	0xbc8b6920	-0.017017901
10	0xbc6ab016	-0.014324209
11	0xbc6cba1d	-0.01444867
12	0xbab8692e	-0.0014069432
13	0xbc969474	-0.018381335
14	0xbbac208c	-0.0052529033
15	0xbb87387b	-0.004126606
16	0xbc24e8da	-0.010065282
17	0xbc404e01	-0.011737348
18	0xbba843dc	-0.0051350426
19	0xbc502660	-0.012704462
20	0xbc940d16	-0.018072646
21	0xbcba8381	-0.022767784
22	0xbcac92a5	-0.02106602
23	0xbbd40424	-0.00647022
24	0xbc68cbcd	-0.014208746
25	0xbc827c43	-0.015928393
26	0xbc89988d	-0.016796375
27	0xbc98ee62	-0.018668357
28	0xbc3a51d6	-0.01137205
29	0xbbf01b90	-0.0073275045
30	0xbbd59dca	-0.006519054
31	0x3b9a3422	0.0047059217
32	0xbc9b7cc6	-0.018980395
33	0xbc7a2ac6	-0.015268987
34	0xbc9ae59d	-0.018908316
35	0xbc803d19	-0.015654134
36	0xbc91d0a1	-0.017799677
37	0xbad52c7d	-0.0016263869
38	0xbc663f51	-0.014053182
39	0xbb25bd9a	-0.0025290013
40	0xbc98eccb	-0.0186676
41	0xbc645152	-0.013935404
42	0xba9b307e	-0.0011840013
43	0xbbf6650b	-0.0075193695
44	0xbc600f2f	-0.013675495
45	0xbc7d57d1	-0.015462832
46	0xbc99322b	-0.01870068
47	0xbafa2959	-0.0019085809
48	0xbc807a5e	-0.01568335
49	0xbc10481e	-0.008806257
50	0x3b86f0fd	0.0041180835
51	0xbc8c35b8	-0.017115459
52	0xbad2223a	-0.0016031929
53	0x3b3caa69	0.0028788096
54	0xbc891f55	-0.016738573
55	0xbc243a29	-0.010023632
56	0xbc536b87	-0.0129040545
57	0xbc09b5c1	-0.00840515
58	0xbc92f912	-0.017941032
59	0xbc4db170	-0.012554511
60	0xbc598dd7	-0.013278446
61	0xbc86115e	-0.016365703
62	0xbc843fb7	-0.016143663
63	0xbb9892dc	-0.004656179
64	0xbbbb0ca7	-0.0057082954
65	0xbb066a73	-0.0020510226
66	0xbc8c6d17	-0.017141862
67	0xbc6d5880	-0.014486432
68	0xbb0d80ce	-0.0021591666
69	0xbc9836cf	-0.018580822
70	0xbbf597c9	-0.007494901
71	0xbbce73a0	-0.0063004047
72	0xbc160a1a	-0.009157682
73	0xbc963dbc	-0.018339984
74	0xbc6ef1ea	-0.014584044
75	0xbba687bd	-0.005082099
76	0xbc035cd5	-0.008017738
77	0xbc92e8b7	-0.017933233
78	0xbc824f0a	-0.01590683
79	0xbb9433ce	-0.004522777
80	0xbb8f8a30	-0.004380487
81	0xbc50521b	-0.012714888
82	0xba81b739	-0.0009896524
83	0xbc881a7c	-0.016614191
84	0xbc777661	-0.015103907
85	0xbc4e2257	-0.012581429
86	0xbb6c48c6	-0.0036054119
87	0xbc8b7861	-0.017025175
88	0xbc90e901	-0.01768923
89	0xbc9397d9	-0.018016743
90	0xbc8e3f00	-0.017364025
91	0xbc865553	-0.016398108
92	0xbba6eb0e	-0.0050939387
93	0xbc0593ad	-0.008152884
94	0xbc2ac251	-0.010422305
95	0xbc2847f1	-0.010271058
96	0xbca6b495	-0.02034978
97	0xbc97dd89	-0.018538253
98	0xbb6d1058	-0.0036173072
99	0xbcc7d351	-0.024392756
100	0xbc9414d5	-0.01807634
101	0xbc5e1b09	-0.01355625
102	0xbab1deda	-0.0013570443
103	0x3b3b1fdd	0.0028552928
104	0xbc84b451	-0.016199263
105	0xbc2ecd21	-0.010669024
106	0xbca25a31	-0.019818397
107	0xbbac61e5	-0.0052606934
108	0xbc97b936	-0.018520933
109	0xbc3be7ff	-0.011468886
110	0xbc58c19f	-0.013229757
111	0xbca1fefc	-0.019774906
112	0xbcd8b6e1	-0.026454391
113	0xbc84f7ce	-0.016231444
114	0xbc3613df	-0.011113136
115	0xbc9547ef	-0.018222777
116	0xbc599b4e	-0.013281656
117	0xbc1e3a2d	-0.009657425
118	0xbc6ac724	-0.014329705
119	0xbca9fd9f	-0.020750819
120	0xbc9b5cad	-0.01896509
121	0xbc988b48	-0.018621102
122	0xbc0c215e	-0.008552877
123	0xbc332c26	-0.010935819
124	0x380c6ca1	3.347977e-05
125	0xbc3ee46a	-0.011651138
126	0xbc967095	-0.01836423
127	0xbc4d5620	-0.012532741

action_model._continuous_distribution.log_sigma f4 [1, 3]
0	0xbd3bbef0	-0.04583639
1	0x3cac13e5	0.02100558
2	0xbcd2fef9	-0.025756346

action_model._continuous_distribution.mu.weight f4 [3, 128]
0	0x3bcb59eb	0.0062057874
1	0xb91ee052	-0.0001515162
2	0xb99a00d2	-0.0002937378
3	0x3c3befde	0.011470763
4	0x3c56f1f4	0.01311921
5	0x3c255529	0.010091105
6	0xb9d0f6c3	-0.00039856703
7	0xbc94aabb	-0.018147817
8	0x3c6698a0	0.014074475
9	0xb9d95b46	-0.0004145747
10	0x3bc568fd	0.0060244785
11	0xbc7bd84f	-0.015371396
12	0xbb1132e1	-0.002215557
13	0x3c4c559c	0.012471583
14	0x3a4d829b	0.0007839591
15	0x385d056c	5.2695555e-05
16	0xbc7c4bdc	-0.015398946
17	0xbb257d2f	-0.0025251617
18	0xbbdcc2c5	-0.0067370855
19	0x3c9eb5a2	0.019373719
20	0x3a8711a4	0.001030494
21	0x3bc2e2b2	0.0059474343
22	0xbb0c5499	-0.0021412729
23	0xbc7bf70e	-0.015378727
24	0x3b474fff	0.0030412672
25	0x3b81824c	0.0039523
26	0xb6a3f033	-4.8857414e-06
27	0xbbaef94f	-0.0053397785
28	0x3cc77d24	0.024351664
29	0x3c344942	0.011003794
30	0x395ebd91	0.00021242189
31	0x3cd8ad23	0.026449746
32	0xba85e1a6	-0.0010214343
33	0x3c0d515b	0.008625354
34	0xbbcf8fef	-0.006334297
35	0xbc843197	-0.016136928
36	0xbba3524f	-0.004984177
37	0xbb0d7edf	-0.0021590514
38	0xbb8e36b4	-0.004340017
39	0xbb6c8802	-0.003609181
40	0x3b4a55a3	0.0030873797
41	0xbbc9f2d5	-0.006162981
42	0xbb6d433b	-0.0036203403
43	0xbc0d29df	-0.00861594
44	0x3b91fb16	0.0044549806
45	0x3ced0a4b	0.028935572
46	0x3c0fb01c	0.008770015
47	0x3749fc50	1.203928e-05
48	0xbc08b54e	-0.008344008
49	0xbba9b40e	-0.005178935
50	0xbc6d20b5	-0.01447313
51	0xbb7c6c43	-0.0038516677
52	0x3ce40015	0.02783207
53	0x3b8c9450	0.004290141
54	0xbbb40d94	-0.0054947827
55	0xbc9fb6d1	-0.019496353
56	0x3c67c832	0.014146851
57	0xb8a5f7ec	-7.913992e-05
58	0xbc10a880	-0.008829236
59	0x3c40135d	0.011723367
60	0x3c6cbe98	0.014449738
61	0x3c075e95	0.008262296
62	0xbc2da5c5	-0.010598605
63	0xbb77d2f4	-0.0037814947
64	0x3bd6a6bd	0.0065506385
65	0xb883011b	-6.246773e-05
66	0xbc2660cb	-0.010154913
67	0x3be4dd7c	0.006984411
68	0x3ce635e5	0.02810187
69	0xbb29d9a3	-0.0025917075
70	0xbb92061b	-0.0044562942
71	0x3ae6c797	0.001760709
72	0xbaa9361a	-0.00129098
73	0x3c6dcbb9	0.014513903
74	0xbc411fd4	-0.011787374
75	0xbb0ee3d6	-0.0021803281
76	0x3ca10317	0.019654794
77	0x3af9f818	0.001907113
78	0x3c3ba79f	0.011453538
79	0xbc7401ee	-0.014893038
80	0xbc2665c4	-0.010156099
81	0x3c6b6816	0.014368078
82	0x3ce67ff7	0.02813719
83	0x3c89ffb8	0.016845569
84	0x3c6c9b55	0.014441331
85	0x3c84e736	0.016223531
86	0x3c8fe58b	0.01756551
87	0xbcd196a1	-0.02558452
88	0x3c88227a	0.016618002
89	0xbc48e4cc	-0.012261581
90	0x3c377856	0.011198124
91	0x3b6c7fb6	0.0036086864
92	0xbb7c5cd3	-0.0038507476
93	0xbca55ce1	-0.02018589
94	0x3b5bfaf9	0.003356634
95	0xbc8e4552	-0.017367039
96	0xb97bfaa8	-0.00024030602
97	0x3c28f1a4	0.010311518
98	0xbb70dc17	-0.0036752278
99	0xbb918a9b	-0.004441572
100	0xbb4e8ab9	-0.003151579
101	0x3becb455	0.0072236457
102	0x3b544113	0.003238742
103	0x3c8a8eda	0.01691382
104	0xba4c8c8b	-0.0007802925
105	0xbc18fc91	-0.00933756
106	0xbae88987	-0.0017741182
107	0xbbd95f91	-0.006633707
108	0x3b0841bb	0.0020791132
109	0xb94fd639	-0.00019820863
110	0xb8ae59ae	-8.313671e-05
111	0x3ad42427	0.0016185091
112	0x3b77f01f	0.0037832332
113	0xbb36f16d	-0.0027914897
114	0x3c3e1830	0.011602446
115	0x3b412b8c	0.002947542
116	0x3ae3b8eb	0.0017373835
117	0xbcaba3d6	-0.020952147
118	0x3cfca60a	0.030840892
119	0x3b978083	0.004623474
120	0xbaad1012	-0.0013203642
121	0x3b73b7a6	0.003718832
122	0x3bf20d80	0.007386863
123	0xb56beee7	-8.789197e-07
124	0x39db621b	0.0004184403
125	0xbcbbd09b	-0.02292662
126	0xbb46e595	-0.0030349244
127	0x3c8bfa59	0.017087149
128	0x3af1d004	0.0018448834
129	0x3b6975a8	0.0035623107
130	0xba5d48f3	-0.0008441351
131	0xbac64993	-0.0015128128
132	0x3babd567	0.0052439454
133	0xbb27d48e	-0.002560887
134	0x3bbca409	0.005756859
135	0x3bfff428	0.007811088
136	0xbbee94c4	-0.007280918
137	0x3c886f48	0.016654626
138	0x3c442505	0.011971717
139	0x3c8be4bd	0.017076844
140	0xbd13a4a8	-0.0360457
141	0xbb8f0ac2	-0.004365296
142	0x3a9c08e8	0.001190451
143	0xbaa64a27	-0.0012686894
144	0xbb703754	-0.0036654072
145	0x3c8d789d	0.017269427
146	0x39842c4e	0.00025210012
147	0x3c9e23e1	0.019304218
148	0x3bdd862b	0.006760379
149	0x3c6da83b	0.014505441
150	0xbb514282	-0.003193051
151	0xbcb27d28	-0.021788195
152	0x3d179f90	0.037017405
153	0x3cbca09d	0.023025805
154	0xb830d59d	-4.2160613e-05
155	0xbc8edfbc	-0.01744067
156	0x3d154113	0.036439013
157	0xbb2cff2d	-0.0026397214
158	0xbc4b415d	-0.012405721
159	0x3aeee5c7	0.0018226438
160	0xbc10127b	-0.008793469
161	0x3c96e72e	0.018420782
162	0xbbe5fdfc	-0.0070188027
163	0x3c92d2f1	0.01792285
164	0xbb77d90c	-0.003781858
165	0x3cadc73b	0.021213165
166	0x3ccadd27	0.024763657
167	0xb82a6098	-4.062112e-05
168	0xbc2c781b	-0.010526682
169	0x3cec5844	0.028850682
170	0x3b66338e	0.0035125944
171	0xbcc3f41e	-0.023920115
172	0xbbe8f7fe	-0.007109641
173	0x3bf8607e	0.007579862
174	0xbb876ae4	-0.0041326154
175	0xb900e797	-0.00012293305
176	0x3d2a5697	0.041586485
177	0xbc994210	-0.018708259
178	0xbd6e2019	-0.05813608
179	0x3ba84dc1	0.005136222
180	0xbae27d82	-0.0017279836
181	0x3cf24e01	0.02957821
182	0x3bef8f17	0.007310759
183	0x3c91df68	0.017806724
184	0x3caaff70	0.020873755
185	0x38823f00	6.210618e-05
186	0x3c37aaab	0.011210124
187	0x3cad0c30	0.021123976
188	0x3c835253	0.016030466
189	0x3c1985ad	0.00937025
190	0x3c85bca0	0.016325295
191	0xbce15260	-0.0275051
192	0x3cf4d136	0.029884916
193	0xb8bf6921	-9.1271715e-05
194	0x3be1bc6d	0.006888917
195	0x3c273dde	0.010207621
196	0xbd2b9390	-0.041888773
197	0x3b1f4d5c	0.0024307584
198	0x392e00bc	0.00016594207
199	0xba4c3b52	-0.0007790822
200	0xb92bc0cd	-0.00016379655
201	0xbbce0afe	-0.0062879315
202	0x3c659346	0.0140121635
203	0xbac39c67	-0.0014923931
204	0xbce995e6	-0.02851386
205	0x3c0ab622	0.008466275
206	0x3c35eccb	0.011103819
207	0xbcec21e4	-0.028824754
208	0xbb808251	-0.003921785
209	0x3af2c952	0.0018523133
210	0x3c8e9030	0.017402738
211	0x3b981ae6	0.0046418784
212	0x3bcf9ff9	0.006336209
213	0x3c9ddb62	0.019269649
214	0x3c9fa94a	0.019489903
215	0xbae5bad9	-0.0017526998
216	0xbb1c276b	-0.0023827206
217	0x3c69566e	0.014241798
218	0x3c5995fd	0.013280389
219	0xbb817e27	-0.003951806
220	0x3aa7437d	0.0012761202
221	0x3ca18335	0.019715885
222	0xbbbf4f89	-0.0058383388
223	0xbbee283f	-0.0072679813
224	0x3bec478c	0.0072106775
225	0xbc6436d7	-0.01392909
226	0x3c81ef6c	0.015861236
227	0xbbd9273f	-0.006626993
228	0x3c0c4662	0.008561702
229	0x3cab191c	0.020885997
230	0xb9866be0	-0.00025638845
231	0x3c000115	0.007812758
232	0xba155318	-0.0005696281
233	0xbc175e7a	-0.009238834
234	0x3c07771d	0.008268145
235	0xbcba906c	-0.022773944
236	0xbb7a796d	-0.0038219348
237	0x38b508f8	8.632423e-05
238	0xb8cbad99	-9.7121294e-05
239	0x3bce9104	0.0063039083
240	0x3acba713	0.0015537463
241	0x3c7bcde2	0.0153689105
242	0x3cfc07e4	0.030765481
243	0xbcf1fbea	-0.029539067
244	0xbc9cec8a	-0.01915576
245	0xbc0d48c1	-0.008623303
246	0x3cbc2721	0.022967877
247	0x3b634e6a	0.003468419
248	0xbcac6aec	-0.021047078
249	0x3c2c43f6	0.01051425
250	0x3c503400	0.01270771
251	0xb97594ce	-0.00023420455
252	0x3a7ecee0	0.0009720158
253	0xbba040d6	-0.0048905415
254	0x3c098230	0.0083928555
255	0x3d326e3e	0.043562166

action_model._continuous_distribution.mu.bias f4 [3]
0	0xbb825044	-0.0039768536
1	0xbc44678b	-0.011987577
2	0x39a4b1bd	0.00031412943

exp_avg f4 [128, 22]
0	0x00000000	0.0
1	0x381e4698	3.773588e-05
2	0x00000000	0.0
3	0x382c5f81	4.109694e-05
4	0x00000000	0.0
5	0x382c5f81	4.109694e-05
6	0x00000000	0.0
7	0x3866a42a	5.4989163e-05
8	0x00000000	0.0
9	0x3866a429	5.498916e-05
10	0x00000000	0.0
11	0x3863aa35	5.4279535e-05
12	0x00000000	0.0
13	0x383be039	4.4793098e-05
14	0xb8c7b148	-9.522081e-05
15	0xb3a9c84e	-7.906111e-08
16	0xbb687cdf	-0.003547482
17	0x00000000	0.0
18	0x38cbf0f7	9.7246775e-05
19	0xbb2fed0a	-0.0026844167
20	0x2d324236	1.013283e-11
21	0xad8eb5c1	-1.6224246e-11
22	0x00000000	0.0
23	0x378241b4	1.5527803e-05
24	0x00000000	0.0
25	0x378ddbc2	1.6910843e-05
26	0x00000000	0.0
27	0x378ddbc2	1.6910843e-05
28	0x00000000	0.0
29	0x37bdcfb8	2.2627282e-05
30	0x00000000	0.0
31	0x37bdcfb6	2.2627279e-05
32	0x00000000	0.0
33	0x37bb5c86	2.2335222e-05
34	0x00000000	0.0
35	0x379a9dbd	1.8431683e-05
36	0xb824575e	-3.9182014e-05
37	0xb30bb6f0	-3.252984e-08
38	0xbabf54a6	-0.0014597371
39	0x00000000	0.0
40	0x3827d66e	4.0015606e-05
41	0xba90c825	-0.0011045976
42	0x2d032d44	7.456539e-12
43	0xad47e918	-1.13635976e-11
44	0x00000000	0.0
45	0x363f6c3b	2.8524216e-06
46	0x00000000	0.0
47	0x365078f1	3.1064812e-06
48	0x00000000	0.0
49	0x365078f1	3.1064812e-06
50	0x00000000	0.0
51	0x368b78c8	4.1565836e-06
52	0x00000000	0.0
53	0x368b78c9	4.156584e-06
54	0x00000000	0.0
55	0x3689ac09	4.1029457e-06
56	0x00000000	0.0
57	0x366338e4	3.385875e-06
58	0xb6f1837d	-7.197667e-06
59	0xb1cd5a28	-5.976535e-09
60	0xb98c96a8	-0.00026815129
61	0x00000000	0.0
62	0x36f6a6f6	7.350808e-06
63	0xb954c508	-0.00020291295
64	0x28e740b0	2.5674206e-14
65	0xabbdd707	-1.348894e-12
66	0x00000000	0.0
67	0xb835b6b5	-4.3323922e-05
68	0x00000000	0.0
69	0xb845e603	-4.7182675e-05
70	0x00000000	0.0
71	0xb845e603	-4.7182675e-05
72	0x00000000	0.0
73	0xb88465ce	-6.313213e-05
74	0x00000000	0.0
75	0xb88465d0	-6.3132145e-05
76	0x00000000	0.0
77	0xb882b072	-6.2317486e-05
78	0x00000000	0.0
79	0xb857b28c	-5.142628e-05
80	0x38e54389	0.0001093215
81	0x33c2eff9	9.07748e-08
82	0x3b857532	0.0040728087
83	0x00000000	0.0
84	0xb8ea2453	-0.000111647554
85	0x3b49fa52	0.0030819369
86	0xab126778	-5.201321e-13
87	0x2d87df4d	1.5446889e-11
88	0x00000000	0.0
89	0x3732bbb0	1.0653326e-05
90	0x00000000	0.0
91	0x3742a71e	1.1602211e-05
92	0x00000000	0.0
93	0x3742a71e	1.1602211e-05
94	0x00000000	0.0
95	0x378239d5	1.5524138e-05
96	0x00000000	0.0
97	0x378239db	1.5524149e-05
98	0x00000000	0.0
99	0x37808b90	1.5323778e-05
100	0x00000000	0.0
101	0x37542891	1.264563e-05
102	0xb7e180d0	-2.6882073e-05
103	0xb2bfbb0c	-2.2320386e-08
104	0xba8344b4	-0.0010014982
105	0x00000000	0.0
106	0x37e64ce9	2.745395e-05
107	0xba46aa04	-0.0007578435
108	0x29f95736	1.107295e-13
109	0xad4b5ca2	-1.1559783e-11
110	0x00000000	0.0
111	0xb775cb78	-1.4650512e-05
112	0x00000000	0.0
113	0xb785d7f7	-1.5955402e-05
114	0x00000000	0.0
115	0xb785d7f7	-1.5955402e-05
116	0x00000000	0.0
117	0xb7b31669	-2.1348898e-05
118	0x00000000	0.0
119	0xb7b3166d	-2.1348906e-05
120	0x00000000	0.0
121	0xb7b0c6cd	-2.1073409e-05
122	0x00000000	0.0
123	0xb791e1a2	-1.7390415e-05
124	0x381b0e81	3.6968388e-05
125	0x3303d63f	3.069567e-08
126	0x3ab4857e	0.0013772694
127	0x00000000	0.0
128	0xb81e5b15	-3.7754962e-05
129	0x3a889a3c	0.0010421942
130	0xac13ada0	-2.0986338e-12
131	0x2cacf5a3	4.915805e-12
132	0x00000000	0.0
133	0xb8411dbc	-4.6042478e-05
134	0x00000000	0.0
135	0xb8525111	-5.01434e-05
136	0x00000000	0.0
137	0xb8525111	-5.01434e-05
138	0x00000000	0.0
139	0xb88cb4a0	-6.709364e-05
140	0x00000000	0.0
141	0xb88cb4a1	-6.709365e-05
142	0x00000000	0.0
143	0xb88ae3ca	-6.622782e-05
144	0x00000000	0.0
145	0xb8653b6b	-5.4653192e-05
146	0x38f3a65e	0.00011618131
147	0x33cf2906	9.646651e-08
148	0x3b8dd509	0.0043283743
149	0x00000000	0.0
150	0xb8f8d57d	-0.00011865327
151	0x3b56a6d4	0.0032753246
152	0xad134f20	-8.373552e-12
153	0x2da4d736	1.8740214e-11
154	0x00000000	0.0
155	0xb580557c	-9.561622e-07
156	0x00000000	0.0
157	0xb58bc3b2	-1.0413262e-06
158	0x00000000	0.0
159	0xb58bc3b2	-1.0413262e-06
160	0x00000000	0.0
161	0xb5bb0272	-1.3933297e-06
162	0x00000000	0.0
163	0xb5bb0260	-1.3933277e-06
164	0x00000000	0.0
165	0xb5b89859	-1.3753407e-06
166	0x00000000	0.0
167	0xb5985543	-1.1349697e-06
168	0x3621ea63	2.41273e-06
169	0x3109aa86	2.0033055e-09
170	0x38bc8185	8.9886635e-05
171	0x00000000	0.0
172	0xb6255c0e	-2.4640499e-06
173	0x388ea4e9	6.8018046e-05
174	0x2a3a68e0	1.6556504e-13
175	0x2bfb9d0f	1.7878215e-12
176	0x00000000	0.0
177	0xb5cfdb2a	-1.5486487e-06
178	0x00000000	0.0
179	0xb5e25e93	-1.6865837e-06
180	0x00000000	0.0
181	0xb5e25e93	-1.6865837e-06
182	0x00000000	0.0
183	0xb61771f2	-2.2567078e-06
184	0x00000000	0.0
185	0xb61771f3	-2.256708e-06
186	0x00000000	0.0
187	0xb6157d9a	-2.227584e-06
188	0x00000000	0.0
189	0xb5f6ba77	-1.8382697e-06
190	0x36831f97	3.907782e-06
191	0x315ef85b	3.2446426e-09
192	0x3918a853	0.00014558555
193	0x00000000	0.0
194	0xb685e9c2	-3.990922e-06
195	0x38e708fb	0.00011016611
196	0xaaa55c2c	-2.9373845e-13
197	0x2b8ca94b	9.994587e-13
198	0x00000000	0.0
199	0x38699a8c	5.5695462e-05
200	0x00000000	0.0
201	0x387e690e	6.065616e-05
202	0x00000000	0.0
203	0x387e690e	6.065616e-05
204	0x00000000	0.0
205	0x38aa347d	8.1160084e-05
206	0x00000000	0.0
207	0x38aa347d	8.1160084e-05
208	0x00000000	0.0
209	0x38a8022b	8.011268e-05
210	0x00000000	0.0
211	0x388aa54a	6.61114e-05
212	0xb9135db5	-0.00014053921
213	0xb3fa98a6	-1.1669299e-07
214	0xbbab9154	-0.0052358303
215	0x00000000	0.0
216	0x3916805c	0.00014352932
217	0xbb81d3b8	-0.0039620064
218	0x2c2644fc	2.3628313e-12
219	0xae1671b6	-3.4207047e-11
220	0x00000000	0.0
221	0xb796283e	-1.7900133e-05
222	0x00000000	0.0
223	0xb7a38806	-1.9494455e-05
224	0x00000000	0.0
225	0xb7a38806	-1.9494455e-05
226	0x00000000	0.0
227	0xb7dacf90	-2.6084279e-05
228	0x00000000	0.0
229	0xb7dacf95	-2.6084288e-05
230	0x00000000	0.0
231	0xb7d7fcbd	-2.5747688e-05
232	0x00000000	0.0
233	0xb7b23d41	-2.1247777e-05
234	0x383d7324	4.5168345e-05
235	0x3321156d	3.750522e-08
236	0x3adc9015	0.0016827608
237	0x00000000	0.0
238	0xb8417b09	-4.612937e-05
239	0x3aa6e6f7	0.0012733628
240	0xaa157548	-1.3274549e-13
241	0x2cf3f776	6.933949e-12
242	0x00000000	0.0
243	0xb2378b49	-1.0683672e-08
244	0x00000000	0.0
245	0xb247e44a	-1.16352314e-08
246	0x00000000	0.0
247	0xb247e44a	-1.16352314e-08
248	0x00000000	0.0
249	0xb285bb29	-1.5568348e-08
250	0x00000000	0.0
251	0xb285bb34	-1.5568368e-08
252	0x00000000	0.0
253	0xb2840160	-1.5367448e-08
254	0x00000000	0.0
255	0xb259dea9	-1.26816895e-08

exp_avg_sq f4 [128, 22]
0	0x00000000	0.0
1	0x32c7cf31	2.3260869e-08
2	0x00000000	0.0
3	0x32ecfcc0	2.7588953e-08
4	0x00000000	0.0
5	0x32ecfcc2	2.7588957e-08
6	0x00000000	0.0
7	0x335424c6	4.939354e-08
8	0x00000000	0.0
9	0x335424cb	4.939356e-08
10	0x00000000	0.0
11	0x334eb440	4.812705e-08
12	0x00000000	0.0
13	0x330cc430	3.277472e-08
14	0x341f0812	1.4810965e-07
15	0x29e7d8d7	1.02960765e-13
16	0x39578e0c	0.00020556914
17	0x00000000	0.0
18	0x3425deb6	1.5447844e-07
19	0x38f6dbb3	0.00011771116
20	0x207268a3	2.0532819e-19
21	0x240c6f60	3.0452e-17
22	0x00000000	0.0
23	0x33017c46	3.014818e-08
24	0x00000000	0.0
25	0x3319942e	3.5757857e-08
26	0x00000000	0.0
27	0x3319942b	3.5757846e-08
28	0x00000000	0.0
29	0x33897ab1	6.401877e-08
30	0x00000000	0.0
31	0x33897aba	6.4018835e-08
32	0x00000000	0.0
33	0x3385f43f	6.237723e-08
34	0x00000000	0.0
35	0x33367260	4.24792e-08
36	0x344e1ee8	1.9196489e-07
37	0x2a1ab52f	1.3740808e-13
38	0x398bb082	0.00026643655
39	0x00000000	0.0
40	0x3456fb8b	2.0021814e-07
41	0x391ff9be	0.00015256458
42	0x21e135ea	1.5260864e-18
43	0x25468a51	1.7220626e-16
44	0x00000000	0.0
45	0x2f8a7c98	2.5190583e-10
46	0x00000000	0.0
47	0x2fa44133	2.9877753e-10
48	0x00000000	0.0
49	0x2fa44133	2.9877753e-10
50	0x00000000	0.0
51	0x30130926	5.349129e-10
52	0x00000000	0.0
53	0x30130927	5.3491295e-10
54	0x00000000	0.0
55	0x300f440c	5.21198e-10
56	0x00000000	0.0
57	0x2fc320eb	3.5493683e-10
58	0x30dc728a	1.6039661e-09
59	0x269fed0c	1.1097093e-15
60	0x36156654	2.2262293e-06
61	0x00000000	0.0
62	0x30e5ed54	1.6729396e-09
63	0x35ab1889	1.2747633e-06
64	0x1c977300	1.0022069e-21
65	0x203e24de	1.6105824e-19
66	0x00000000	0.0
67	0x33450a9d	4.587729e-08
68	0x00000000	0.0
69	0x3369b488	5.4413732e-08
70	0x00000000	0.0
71	0x3369b48a	5.441374e-08
72	0x00000000	0.0
73	0x33d134a6	9.7418976e-08
74	0x00000000	0.0
75	0x33d134a9	9.7419e-08
76	0x00000000	0.0
77	0x33cbd753	9.4920914e-08
78	0x00000000	0.0
79	0x338ad10f	6.464153e-08
80	0x349cd415	2.9211574e-07
81	0x2a646f5f	2.0289108e-13
82	0x39d491ac	0.00040544325
83	0x00000000	0.0
84	0x34a39280	3.046771e-07
85	0x39737043	0.00023216107
86	0x215098e9	7.0675516e-19
87	0x24b29ad1	7.7457464e-17
88	0x00000000	0.0
89	0x330122e1	3.0066875e-08
90	0x00000000	0.0
91	0x33192a21	3.5661404e-08
92	0x00000000	0.0
93	0x33192a21	3.5661404e-08
94	0x00000000	0.0
95	0x33891bbf	6.3846066e-08
96	0x00000000	0.0
97	0x33891bc3	6.3846095e-08
98	0x00000000	0.0
99	0x338597a7	6.2208805e-08
100	0x00000000	0.0
101	0x3335f449	4.2364523e-08
102	0x344d904a	1.9144605e-07
103	0x2a156cf4	1.3271659e-13
104	0x398b5007	0.0002657177
105	0x00000000	0.0
106	0x3456672a	1.9967834e-07
107	0x391f8b4a	0.00015215311
108	0x208c40d2	2.3759817e-19
109	0x23e76534	2.5087931e-17
110	0x00000000	0.0
111	0x31ad8ffa	5.051331e-09
112	0x00000000	0.0
113	0x31cddb79	5.9912364e-09
114	0x00000000	0.0
115	0x31cddb77	5.9912355e-09
116	0x00000000	0.0
117	0x323846f3	1.0726342e-08
118	0x00000000	0.0
119	0x323846f9	1.0726347e-08
120	0x00000000	0.0
121	0x32338d67	1.04513225e-08
122	0x00000000	0.0
123	0x31f48d21	7.117379e-09
124	0x330a2465	3.216373e-08
125	0x28d74294	2.3898669e-14
126	0x383b3d68	4.4641463e-05
127	0x00000000	0.0
128	0x331014f9	3.3546687e-08
129	0x37d66e73	2.556222e-05
130	0x213c9fa9	6.3908186e-19
131	0x24959291	6.486674e-17
132	0x00000000	0.0
133	0x3309c8f3	3.208056e-08
134	0x00000000	0.0
135	0x33236bf7	3.804959e-08
136	0x00000000	0.0
137	0x33236bf7	3.804959e-08
138	0x00000000	0.0
139	0x33924a5a	6.812179e-08
140	0x00000000	0.0
141	0x33924a5e	6.812182e-08
142	0x00000000	0.0
143	0x338e8a00	6.637492e-08
144	0x00000000	0.0
145	0x334223b7	4.5201627e-08
146	0x345b5472	2.0426685e-07
147	0x2a214d94	1.4326588e-13
148	0x3994a472	0.0002835128
149	0x00000000	0.0
150	0x3464c2fe	2.1305092e-07
151	0x392a3a64	0.00016234216
152	0x214246b4	6.582333e-19
153	0x24c79a66	8.6564054e-17
154	0x00000000	0.0
155	0x3075898d	8.932595e-10
156	0x00000000	0.0
157	0x30919cb3	1.0594675e-09
158	0x00000000	0.0
159	0x30919cb3	1.0594675e-09
160	0x00000000	0.0
161	0x310258f1	1.8968047e-09
162	0x00000000	0.0
163	0x310258f9	1.8968065e-09
164	0x00000000	0.0
165	0x30fe0289	1.8481653e-09
166	0x00000000	0.0
167	0x30acfb5b	1.2586087e-09
168	0x31c36d5f	5.687681e-09
169	0x278e2ffb	3.946494e-15
170	0x3704716b	7.89422e-06
171	0x00000000	0.0
172	0x31cbd498	5.9322467e-09
173	0x3697ad28	4.5203087e-06
174	0x1e0fa095	7.6035646e-21
175	0x21979c3a	1.0273511e-18
176	0x00000000	0.0
177	0x2ec3d244	8.904924e-11
178	0x00000000	0.0
179	0x2ee84213	1.0561876e-10
180	0x00000000	0.0
181	0x2ee84213	1.0561876e-10
182	0x00000000	0.0
183	0x2f4fe8fa	1.890931e-10
184	0x00000000	0.0
185	0x2f4fe906	1.8909327e-10
186	0x00000000	0.0
187	0x2f4a9423	1.8424422e-10
188	0x00000000	0.0
189	0x2f09f506	1.2547127e-10
190	0x301bdb97	5.670073e-10
191	0x25e1eb9e	3.9190939e-16
192	0x355340b4	7.869778e-07
193	0x00000000	0.0
194	0x30228f3e	5.9138816e-10
195	0x34f1ee81	4.5063283e-07
196	0x1b97f582	2.513951e-22
197	0x1f1eeb11	3.3652244e-20
198	0x00000000	0.0
199	0x3411bb15	1.3572237e-07
200	0x00000000	0.0
201	0x342cd8c4	1.6097607e-07
202	0x00000000	0.0
203	0x342cd8c4	1.6097607e-07
204	0x00000000	0.0
205	0x349aba20	2.882016e-07
206	0x00000000	0.0
207	0x349aba25	2.8820173e-07
208	0x00000000	0.0
209	0x3496c28d	2.8081232e-07
210	0x00000000	0.0
211	0x344d5607	1.912341e-07
212	0x3567fab4	8.6419027e-07
213	0x2b29ae89	6.028308e-13
214	0x3a9d3702	0.0011994543
215	0x00000000	0.0
216	0x3571f45f	9.0135103e-07
217	0x3a340bb8	0.00068682013
218	0x225bddd5	2.9797471e-18
219	0x25aa2e04	2.952148e-16
220	0x00000000	0.0
221	0x32485255	1.1660252e-08
222	0x00000000	0.0
223	0x326d9878	1.3829883e-08
224	0x00000000	0.0
225	0x326d9878	1.3829883e-08
226	0x00000000	0.0
227	0x32d4b02b	2.476016e-08
228	0x00000000	0.0
229	0x32d4b02f	2.4760167e-08
230	0x00000000	0.0
231	0x32cf3c07	2.4125269e-08
232	0x00000000	0.0
233	0x328d2096	1.6429379e-08
234	0x339f7090	7.4244895e-08
235	0x296fb43d	5.3224992e-14
236	0x38d81b83	0.00010304807
237	0x00000000	0.0
238	0x33a64b8f	7.7437214e-08
239	0x38777da8	5.9006416e-05
240	0x215b1cc7	7.4238173e-19
241	0x2501102a	1.1194443e-16
242	0x00000000	0.0
243	0x2a6e0701	2.1141076e-13
244	0x00000000	0.0
245	0x2a8d288f	2.5074775e-13
246	0x00000000	0.0
247	0x2a8d288f	2.5074775e-13
248	0x00000000	0.0
249	0x2afcb8a7	4.489232e-13
250	0x00000000	0.0
251	0x2afcb8b8	4.4892367e-13
252	0x00000000	0.0
253	0x2af63dbd	4.3741218e-13
254	0x00000000	0.0
255	0x2aa7b0f4	2.9787945e-13

exp_avg f4 [128]
0	0x39547057	0.00020259745
1	0x38aed4b6	8.336587e-05
2	0x378076f4	1.5314181e-05
3	0xb973e5d7	-0.00023259908
4	0x386fe577	5.7195746e-05
5	0xb8a4f436	-7.865617e-05
6	0xb98199dc	-0.00024719432
7	0xb6ac3fe7	-5.1334387e-06
8	0xb70b7e2d	-8.314423e-06
9	0x399cc5b4	0.0002990194
10	0xb8c98ad4	-9.6102856e-05
11	0xb3765a86	-5.735867e-08
12	0xb951af56	-0.00019997111
13	0xb7d488f2	-2.533614e-05
14	0x33e6a54a	1.07402755e-07
15	0x37aa915e	2.0333271e-05
16	0xb616e5fa	-2.2485606e-06
17	0xb809c42c	-3.2846045e-05
18	0xb42b000a	-1.592563e-07
19	0xb71b392d	-9.252032e-06
20	0xb8a64f54	-7.930273e-05
21	0x34cce705	3.816605e-07
22	0x3893f5e9	7.0553106e-05
23	0x39a03a7b	0.0003056115
24	0x3690f648	4.3202053e-06
25	0x37c5ac92	2.356459e-05
26	0x3607a4b7	2.0212444e-06
27	0xb6de8b88	-6.632359e-06
28	0xb9a62dc8	-0.00031696097
29	0xb54a6d83	-7.5410225e-07
30	0xb6bb9018	-5.589809e-06
31	0x3650b1ce	3.1097911e-06
32	0xb9df39de	-0.0004257699
33	0x3710ea66	8.637644e-06
34	0xb794320d	-1.7666282e-05
35	0x36044cb2	1.9714175e-06
36	0xb7a6ef1e	-1.990009e-05
37	0x37de0f2f	2.6471533e-05
38	0xb8c981b3	-9.608585e-05
39	0x2f1bd229	1.4171832e-10
40	0x2edab2da	9.945263e-11
41	0xb7e4b951	-2.7266013e-05
42	0x3a0b8b8d	0.0005323224
43	0xb6c3256e	-5.8158103e-06
44	0x34de5f17	4.141991e-07
45	0x38816867	6.170646e-05
46	0xb7504850	-1.2414603e-05
47	0xae8c0f08	-6.369133e-11
48	0xb94b951e	-0.00019415139
49	0xba180ec7	-0.0005800542
50	0xb693b12e	-4.401568e-06
51	0x35ecba91	1.7637668e-06
52	0xb7693f5c	-1.3902634e-05
53	0xb6d05353	-6.2085833e-06
54	0xb72f9314	-1.0465057e-05
55	0xb918f0d8	-0.00014585571
56	0x38df720a	0.0001065471
57	0xb93b2066	-0.00017845779
58	0x36b5ed13	5.4218194e-06
59	0x2ff2a854	4.4139148e-10
60	0x38d54b99	0.000101707126
61	0x373baac6	1.118583e-05
62	0x34fd5404	4.7186052e-07
63	0x3885616b	6.36008e-05
64	0xb40a5eab	-1.2886692e-07
65	0x381f976f	3.8049588e-05
66	0xb8900926	-6.868159e-05
67	0xb9d78363	-0.00041105886
68	0xb782c0b6	-1.5586946e-05
69	0x38891d1e	6.5380926e-05
70	0xb9f8e2f2	-0.00047471334
71	0xb8311102	-4.221593e-05
72	0xb7f02f59	-2.8632277e-05
73	0xb887e97a	-6.48079e-05
74	0x379286ce	1.746733e-05
75	0x36059b11	1.9908805e-06
76	0x34652a71	2.1342727e-07
77	0xb7b774c6	-2.1869677e-05
78	0x397d72f4	0.00024170784
79	0x39100f50	0.00013738615
80	0xb812a811	-3.4965637e-05
81	0xb754ce02	-1.268415e-05
82	0xb8a276cb	-7.746889e-05
83	0x3687c194	4.045849e-06
84	0xad4056ce	-1.0933211e-11
85	0x35ec70ed	1.7616236e-06
86	0xb8436dd4	-4.659391e-05
87	0xb9c12b7d	-0.0003684423
88	0x3715ba79	8.924509e-06
89	0x39531c52	0.00020133078
90	0xb888114f	-6.488209e-05
91	0xb78c635f	-1.6735574e-05
92	0x37d46c79	2.532288e-05
93	0x35be65da	1.4185746e-06
94	0x3881c7a7	6.1883875e-05
95	0xaeafe011	-7.997881e-11
96	0x38eee87f	0.0001139203
97	0xb5407078	-7.168924e-07
98	0xb835c2c9	-4.333517e-05
99	0xb63c6f74	-2.8079057e-06
100	0xb9a9678a	-0.00032311335
101	0xb9119275	-0.00013882837
102	0xb78d15ea	-1.6818714e-05
103	0x35e8ee73	1.7354745e-06
104	0x38e35f5f	0.00010841968
105	0xb755a93e	-1.2735194e-05
106	0x3723a9cd	9.755092e-06
107	0x3a057981	0.0005091653
108	0x38cc78b6	9.749962e-05
109	0x3906323f	0.00012797954
110	0xb8f3e06f	-0.00011628947
111	0xb7e8c423	-2.7747888e-05
112	0xb7d11e43	-2.4928833e-05
113	0xb88de1ba	-6.765449e-05
114	0xb69b24df	-4.6236523e-06
115	0x37acf61b	2.06186e-05
116	0x36c6d370	5.9254744e-06
117	0x37df9b93	2.6656116e-05
118	0x38ba7ebe	8.892779e-05
119	0x366a7056	3.4934105e-06
120	0xb9237dbb	-0.0001559173
121	0x38115e64	3.4658602e-05
122	0xb96ca773	-0.00022569094
123	0xb989e7ba	-0.00026303326
124	0x32b51e24	2.108488e-08
125	0x35547d86	7.9158815e-07
126	0x37d7a4bc	2.5706708e-05
127	0x39845e49	0.0002524725

exp_avg_sq f4 [128]
0	0x3533faf3	6.7047876e-07
1	0x35694582	8.690041e-07
2	0x31f97c93	7.2610162e-09
3	0x35b17cc7	1.3223843e-06
4	0x3568a459	8.666589e-07
5	0x341c56b3	1.4560173e-07
6	0x357838ce	9.246986e-07
7	0x32dd2b8b	2.5747587e-08
8	0x31306376	2.5667908e-09
9	0x368344ca	3.9121123e-06
10	0x34b47126	3.360994e-07
11	0x2cd667db	6.093776e-12
12	0x3542c00e	7.255011e-07
13	0x3603b07e	1.9623253e-06
14	0x2faf41f9	3.187919e-10
15	0x3240d795	1.1224889e-08
16	0x2f5b70ac	1.9957963e-10
17	0x3298e100	1.7797447e-08
18	0x2d8dc8ca	1.6119012e-11
19	0x33133016	3.426984e-08
20	0x35d21124	1.5651208e-06
21	0x2e8fbdba	6.536589e-11
22	0x36fc6e7f	7.5230487e-06
23	0x35b45c29	1.3437867e-06
24	0x33c1e976	9.029729e-08
25	0x328bcfeb	1.627628e-08
26	0x2e678ea7	5.265002e-11
27	0x328d252e	1.6431468e-08
28	0x363c85db	2.8092097e-06
29	0x2daad6e6	1.9422196e-11
30	0x3295750b	1.7399108e-08
31	0x2f9158e1	2.64385e-10
32	0x369063d8	4.3031578e-06
33	0x31125842	2.1295965e-09
34	0x3236671b	1.0617238e-08
35	0x2f3f97f5	1.7425335e-10
36	0x3331474f	4.127588e-08
37	0x3259eba3	1.268464e-08
38	0x35a3f770	1.221646e-06
39	0x3050174a	7.5703055e-10
40	0x2f36c449	1.6622538e-10
41	0x35f27852	1.8065423e-06
42	0x37099f5e	8.202942e-06
43	0x338b05ae	6.473725e-08
44	0x2f7b3edb	2.2850648e-10
45	0x36072890	2.0140178e-06
46	0x32dbd807	2.5593193e-08
47	0x2f0b97b7	1.2695876e-10
48	0x35bd3030	1.4095622e-06
49	0x37441f95	1.1689864e-05
50	0x3211359e	8.452302e-09
51	0x30944db5	1.0790503e-09
52	0x35826c08	9.717196e-07
53	0x30c8eadd	1.4618667e-09
54	0x31867743	3.9134718e-09
55	0x3678c315	3.7068432e-06
56	0x35d071ab	1.5530289e-06
57	0x36a41029	4.889462e-06
58	0x2fee8a8e	4.3390397e-10
59	0x2f99d60c	2.7982627e-10
60	0x36218512	2.4068327e-06
61	0x311b0f00	2.2563995e-09
62	0x2e2a95e8	3.878667e-11
63	0x34ca53da	3.7686442e-07
64	0x2b80012a	9.09527e-13
65	0x335a2ee8	5.079974e-08
66	0x356381df	8.4753077e-07
67	0x369d6ec2	4.6918585e-06
68	0x319ad604	4.5063206e-09
69	0x34ca993b	3.7736922e-07
70	0x370f0f88	8.52708e-06
71	0x358268b7	9.716231e-07
72	0x3685e45e	3.9902943e-06
73	0x347c479a	2.3495377e-07
74	0x340c8b19	1.308912e-07
75	0x2fa9ff2e	3.0922237e-10
76	0x2ca0cb10	4.570018e-12
77	0x3269ed1a	1.3616296e-08
78	0x35d91236	1.617306e-06
79	0x35725c1c	9.028606e-07
80	0x34f62712	4.5849498e-07
81	0x32b09087	2.055482e-08
82	0x35a3835a	1.2182675e-06
83	0x319ea36c	4.616984e-09
84	0x2cf0a50b	6.8395337e-12
85	0x31639b3c	3.3121088e-09
86	0x358299c4	9.730506e-07
87	0x36cbc8ed	6.0732623e-06
88	0x328b24f9	1.6198543e-08
89	0x3600db9a	1.9201311e-06
90	0x34eb50da	4.3830988e-07
91	0x34a3c46e	3.0504037e-07
92	0x33374857	4.26738e-08
93	0x2e39fcda	4.2288707e-11
94	0x351bb217	5.8001154e-07
95	0x301970b4	5.5821237e-10
96	0x3533089e	6.6695236e-07
97	0x2e86a490	6.122847e-11
98	0x34b131ae	3.3004966e-07
99	0x2f6ec802	2.1717031e-10
100	0x363f9711	2.854915e-06
101	0x35c233f1	1.4469243e-06
102	0x31bd15d1	5.503104e-09
103	0x2ee97beb	1.06176255e-10
104	0x36179ef5	2.2593279e-06
105	0x33a2525a	7.5586925e-08
106	0x3262b6bb	1.31964795e-08
107	0x368a8f33	4.129391e-06
108	0x34b270f4	3.3237268e-07
109	0x34f23386	4.51135e-07
110	0x3499a280	2.8616705e-07
111	0x35287f28	6.2769914e-07
112	0x3219e180	8.957045e-09
113	0x35670996	8.6068155e-07
114	0x3180bec1	3.7469765e-09
115	0x33bced20	8.797565e-08
116	0x3156905a	3.1223153e-09
117	0x326528f6	1.3338868e-08
118	0x3458e906	2.0201341e-07
119	0x2f7245c2	2.2034555e-10
120	0x358434d1	9.850138e-07
121	0x33108c4a	3.3655205e-08
122	0x362a9c28	2.542287e-06
123	0x3624383e	2.4470642e-06
124	0x2919f3b4	3.4184203e-14
125	0x320cec86	8.202852e-09
126	0x34302c0f	1.6407306e-07
127	0x35daea07	1.6310377e-06
