results/RoadExt1.4/CarAgent.onnx (onnx, 90051 bytes, 13 tensors)

discrete_act_size_vector f4 [1, 2]
000000 00 00 40 40 00 00 40 40
       3.0 3.0

network_body.observation_encoder.processors.0.normalizer.running_mean f4 [14]
000000 6d 53 bc 3c 1d eb 76 3e 7a f8 1f 3d 3d f0 87 3e
       0.022989 0.24113126 0.039055325 0.26550475
000010 3b de 46 3d fa 45 87 3e 83 60 18 3b 0d 49 7a 3e
       0.04855178 0.26420575 0.0023250885 0.24441929
000020 50 47 13 3b af 89 81 3e 9f 77 8e 39 73 6f 6d 3e
       0.0022472925 0.25300357 0.00027173475 0.23187046
000030 bb 1b 0e 3b 5a 7f 80 3e
       0.002168401 0.25097162

network_body.observation_encoder.processors.1.normalizer.running_mean f4 [8]
000000 19 5d ef bf 1d 38 9d b8 5c c9 0b 41 d5 34 31 c0
       -1.8700286 -7.496795e-05 8.73666 -2.7688496
000010 4c e0 f4 3e 2a ea 55 41 a0 5f 71 41 5d cf 20 bf
       0.47827375 13.369669 15.085846 -0.6281641

network_body._body_endoder.seq_layers.0.weight f4 [128, 22]
000000 f6 34 cb 3e e3 b8 56 be 98 48 bf bd 5b 39 2c 3e
       0.39688843 -0.20968966 -0.09340018 0.16818754
000010 7c 74 d2 3d 8c 6a d2 3d 1f 70 5b 3e 4f 46 66 3d
       0.10276124 0.102742285 0.2142949 0.056219395
000020 1c d5 5f 3d b3 00 ab bd 4b 07 9a 3d 2a 6c b1 be
       0.054646596 -0.08349743 0.07520922 -0.34652835
000030 f5 76 b7 bc 8d 9d 87 bc f8 96 aa 3d 21 f8 10 bf
       -0.02239559 -0.016554618 0.08329576 -0.56628615
000040 d2 1a 5d bd f2 db 3a be 62 49 76 3e 81 ea fb 3d
       -0.053980656 -0.18247965 0.24051431 0.123005874
000050 df e0 96 3c 81 ab b8 bc 91 8a e2 3d 85 42 e4 3d
       0.018417774 -0.022542717 0.11061586 0.111455
000060 a5 cc 9e bd 78 5f f3 bb 44 59 8e bd 3f 33 01 bf
       -0.077538766 -0.0074271522 -0.0695062 -0.5046882
000070 56 9e f5 bc 52 bd 50 3e 12 09 f4 3d 90 57 4d be
       -0.029982727 0.2038472 0.119157925 -0.20052934
000080 6e 40 bd 3d 96 a2 a6 bd 29 7d 28 be f6 fa fe 3d
       0.092408046 -0.081364796 -0.16453995 0.12450211
000090 f6 65 72 be 80 b7 6d be a4 27 58 3e 23 89 4d bd
       -0.23671708 -0.23214531 0.21108872 -0.050179612
0000a0 86 fc 56 3c 66 29 93 be 21 a8 e5 be 21 a5 3b 3d
       0.01312173 -0.28742522 -0.44854835 0.045811776
0000b0 b7 65 9e 3d 7b f9 19 3e 92 84 67 be b2 9e e1 3e
       0.07734244 0.15036575 -0.22609165 0.44066387
0000c0 df 71 79 be f1 1c 6a be 0f c3 58 be 4b c8 96 3d
       -0.24359845 -0.22862603 -0.21168159 0.073624216
0000d0 99 37 14 3e 5e 2a d8 3d 0a 07 e8 3d de 34 73 be
       0.14474334 0.10554956 0.113294676 -0.23750636
0000e0 ee 0a e2 bd 9a 9c 29 bd e3 86 17 bd f0 9b 3d 3e
       -0.11037241 -0.041409113 -0.036993872 0.18516517
0000f0 9c 9b 5d bd 75 cc fa 3d 3c 84 90 3e 47 7f b6 3e
       -0.05410348 0.12246028 0.28225887 0.3564398
000100 c1 00 3e bf 16 73 e1 3e 35 38 92 be 17 8d 3b 3e
       -0.742199 0.44033116 -0.28558508 0.1831554
000110 fa 69 c1 3d 26 b6 21 be 46 3f f7 bb 8e 1e 1b be
       0.094440416 -0.1579214 -0.0075453846 -0.15148374
000120 5b 31 9c be f3 ae e4 b9 a2 d3 38 bd 1a 6b 10 be
       -0.30506405 -0.00043617896 -0.045123704 -0.14103356
000130 49 9c 92 3e 5b f6 5b 3e 4e 46 a7 bd 21 fa 9a 3e
       0.2863486 0.21480696 -0.081677064 0.30268958
000140 e8 52 78 3e ec 9d ac 3e 27 c7 63 3e ea 91 83 bc
       0.24250376 0.33714235 0.2224394 -0.016060788
000150 04 2d 0a be 30 cf 07 3e ad d4 4b be 9c 35 6e 3e
       -0.13493735 0.1326263 -0.19905348 0.23262638
000160 ce 7f 28 3e 7d bd 8e be dc 6b 31 3d a9 4d 97 3e
       0.16455004 -0.27878943 0.043315753 0.29551437
000170 d1 9d 73 3e 21 cb de 3d 98 ce 84 3b 18 a3 73 3d
       0.23790671 0.108785875 0.004052948 0.05948171
000180 a5 47 cf 3e 24 f0 60 be 62 59 44 3e a8 07 fc bb
       0.40484348 -0.21966606 0.19174722 -0.0076913424
000190 f8 75 43 3e 64 b3 38 3d 79 7d 37 3d 2f 26 0a be
       0.1908797 0.045092955 0.044797394 -0.13491128
0001a0 58 6e b8 be 6a 6c 31 bd d0 7d d5 bd 57 2d ba be
       -0.36021686 -0.043316282 -0.104243875 -0.36362717
0001b0 ac 40 46 3e a9 c6 23 3e c9 68 91 3e 3e dc ad bd
       0.19360608 0.15993752 0.28400257 -0.084892735
0001c0 c9 d3 af be 39 17 1f be 36 75 57 be 16 33 b9 bb
       -0.34341267 -0.15536202 -0.21040806 -0.005651842
0001d0 69 07 cd 3e 21 95 4b be df fb 57 be 0a 33 75 3e
       0.40044716 -0.19881107 -0.21092175 0.23945251
0001e0 c7 88 bc 3d ab 0b ac 3e 37 17 24 be 6f 1b 6d be
       0.09205776 0.33602652 -0.16024481 -0.23154996
0001f0 ce e3 7d be 19 7a 9b bd b4 af 07 3f b6 07 4f 3d
       -0.24793932 -0.07591648 0.53002477 0.050544463
000200 0e e9 58 be 57 0b 90 bd f8 61 c6 3e 46 58 4c 3d
       -0.21182653 -0.07033413 0.3874662 0.04988887
000210 70 f9 be 3e 85 8b ac 3e a6 1c 8d bc 73 83 53 3e
       0.3729968 0.33700195 -0.017225575 0.20655613
000220 94 32 59 bd f3 a2 85 3d 4d 66 f4 bd d5 d4 19 3e
       -0.05302675 0.06525221 -0.11933575 0.15022595
000230 96 22 c4 bd a4 81 62 3e 39 dd 28 be 79 f5 95 3e
       -0.09576909 0.22119766 -0.1649064 0.29288843
000240 25 c4 2c 3e 7d 0b fa 3d c2 6f 1d be 52 a8 2e 3e
       0.16871698 0.122092225 -0.15374663 0.17056397
000250 3c 10 97 3e 25 69 28 3e 14 5e 5c be 53 b0 ad 3b
       0.29504573 0.1644636 -0.21520263 0.0053005605
000260 ba a2 ca be 9a 00 57 3d 4d 34 61 3e 5d 20 29 3e
       -0.39577276 0.052490808 0.21992607 0.16516252
000270 03 e6 ec be 58 44 74 bd 5f 14 3a be 2d e3 35 be
       -0.46269235 -0.05963549 -0.18171833 -0.17762442
000280 77 80 94 3e 71 b3 57 3d a2 9f 9c bd 05 94 10 3e
       0.2900426 0.052661363 -0.07647635 0.14118965
000290 8d 62 38 be 9f c9 8a be 2c d8 8d bd f0 04 7a 3e
       -0.18006344 -0.2710695 -0.06925997 0.24415946
0002a0 28 57 63 be a4 7c ca bd 33 bb 0e 3e a5 c0 f3 3d
       -0.22201216 -0.098870546 0.13938598 0.119019784
0002b0 bb 80 89 be aa a2 39 3e 00 01 0a be 4a 75 af be
       -0.26856026 0.18128458 -0.13476944 -0.34269172
0002c0 69 ab 60 be 92 f7 58 be d2 63 cf 3e 2a b7 d1 3e
       -0.21940388 -0.2118819 0.40505844 0.40960056
0002d0 cd d4 b9 bc 19 9f 1b 3e fc 33 4f be d1 59 0b bf
       -0.02268448 0.1519741 -0.20234674 -0.54433924
0002e0 4a a1 12 3e 34 f1 b3 bd c3 50 b2 3e cd a9 60 3e
       0.1431934 -0.0878624 0.3482724 0.21939774
0002f0 b8 e5 5c 3d c3 b0 ec 3d cf d7 9d 3e 1e bf fc bd
       0.053930014 0.11557152 0.3082871 -0.1234114
000300 91 91 4b 3d 81 66 b5 3d 83 d7 8f be 53 a3 6e 3e
       0.04969937 0.08857442 -0.2809411 0.23304491
000310 81 fc aa bd c8 a0 96 be e4 d8 91 3d 46 7d 28 3e
       -0.083489425 -0.2941954 0.07121447 0.16454038
000320 6f 8d 0d be 51 ea be be 37 39 37 be 39 08 67 be
       -0.13823484 -0.37288144 -0.1789292 -0.2256173
000330 16 3e cb 3d 4c f4 64 3e 49 cd f5 bb 77 9a 81 be
       0.09923951 0.22358817 -0.0075012785 -0.2531316
000340 f1 37 0f 3e 8f 6e ae bd 80 16 13 3f 70 1e 71 3d
       0.13986184 -0.08517181 0.5745621 0.058866918
000350 b8 87 89 3d 21 0a 22 3f 29 34 c3 3c 4b 7a b3 bd
       0.067153394 0.63296705 0.023828583 -0.0876356
000360 4d 63 ca 3e a2 a3 54 3e 11 8f 50 be a9 c3 02 3f
       0.39528885 0.20765546 -0.20367076 0.51079804
000370 32 9f fc bc 8e 87 e0 3e de 97 47 be 11 d1 6b 3e
       -0.030837629 0.4385342 -0.19491526 0.23028971
000380 50 ec 66 3d 86 68 f6 3d c3 96 fc 3d 5b 11 be be
       0.05637771 0.12031655 0.12333443 -0.37122616
000390 17 40 b7 3e df 9c ea 3d 5d f1 e9 be 9e e6 e5 3c
       0.35791084 0.11455702 -0.45691958 0.028064068
0003a0 90 05 37 be 7b d3 44 bd 89 2b b4 bd 29 91 0a be
       -0.17873216 -0.048053246 -0.08797366 -0.13531937
0003b0 0b ad d0 bd 8b 9f a1 bd 31 7e 76 be 64 7f a6 3e
       -0.10189255 -0.078917585 -0.24071576 0.32519066
0003c0 83 76 af bc 9c 8a 79 be 34 1a 90 3e c9 1d 7b be
       -0.021418815 -0.24369282 0.2814499 -0.24523081
0003d0 e1 cb 5b be 9f c9 29 be 2d 87 37 be bc 10 71 be
       -0.21464492 -0.16580819 -0.17922659 -0.2354154
0003e0 d8 5c 0e 3d 2e 4e ec 3e f0 de 7e 3d 49 f4 0e b9
       0.03475651 0.46153396 0.06222433 -0.00013633179
0003f0 dc 47 bd bd 86 c9 28 be 22 21 1b 3e 98 6a e1 3d
       -0.09242222 -0.16483125 0.15149358 0.11006659

network_body._body_endoder.seq_layers.0.bias f4 [128]
000000 d5 60 5e be 9a 22 50 3e 32 c7 f4 3d a1 91 14 3e
       -0.21716626 0.203257 0.11952056 0.14508678
000010 3f ea 82 bd 3c c5 67 3d df 29 66 3e 37 19 36 3e
       -0.06392335 0.05658458 0.2247691 0.17783056
000020 7c fe c1 bd 00 53 c6 3d 80 7c 80 3c 81 de 29 3e
       -0.09472367 0.096838 0.015684366 0.16588785
000030 bc 25 4c 3e de 10 a5 bc 44 61 90 3e 1f 5b a2 3d
       0.1993627 -0.020149644 0.28199208 0.07927536
000040 df cc e5 3d d2 fd 0c be ee ae 56 be a4 3a 25 bd
       0.11220717 -0.137687 -0.20965168 -0.040339127
000050 1e 32 5f 3e da ee 86 3e 4d d9 7c 3e 3d 6e 8e bd
       0.21796462 0.26354104 0.24692269 -0.0695462
000060 8c b7 87 3c 2e 2a 95 3c 47 90 21 be c1 36 bf bd
       0.016567014 0.01820859 -0.15777694 -0.09336615
000070 70 97 d5 3d 05 46 2f 3e 42 e9 0b 3e f2 18 f8 3d
       0.10429275 0.17116554 0.136632 0.12114133
000080 ef c5 4d be 27 27 58 3d a6 81 85 3e 9d 25 41 be
       -0.20095037 0.052771714 0.26075476 -0.18862005
000090 f9 23 91 bc 56 a2 9a 3e a6 18 36 3e da ad f2 bd
       -0.017717348 0.30201977 0.1778284 -0.11849566
0000a0 ba 5a c3 3d dc 72 f6 3d ee ea 33 3e 81 c5 01 3e
       0.09538789 0.120336264 0.17570087 0.12672998
0000b0 6e 3a 0e 3e c9 7a 12 3e fd e8 a6 3d 07 ae 45 3e
       0.13889477 0.14304651 0.08149908 0.19304667
0000c0 99 00 65 be de 70 b0 bc bd 98 09 3e d6 f5 6d 3e
       -0.22363509 -0.021538194 0.13437171 0.2323831
0000d0 bb 6e d4 3c 55 45 a2 bd 40 d0 9d 3d e1 34 9a 3e
       0.025931707 -0.0792338 0.07705736 0.30118468
0000e0 a6 d1 41 3e 6d 60 17 3e e0 1a 24 be 22 bb 9d bd
       0.18927631 0.14782877 -0.16025877 -0.077017084
0000f0 b6 46 07 3e 99 46 2f be d6 c1 87 3e aa 6f 13 be
       0.13210568 -0.17116775 0.26515073 -0.14398065
000100 f8 7c 68 3c aa fa b5 3d 3f 28 0f be 62 50 a9 3e
       0.014189951 0.08885701 -0.13980196 0.3306914
000110 28 e5 7a 3e 28 57 7a 3e 71 f7 2c 3c de 06 5c 3e
       0.24501479 0.2444731 0.0105570415 0.21486995
000120 77 f2 6d 3e 36 66 8e be 7b 4b e3 bd 49 65 66 bd
       0.23237024 -0.27812356 -0.11098381 -0.056248937
000130 db 63 46 3e a0 73 21 3e 0f 4f 9c 3e 8f 07 34 be
       0.1937403 0.15766764 0.30529067 -0.17581008
000140 cf 53 2c be d2 45 13 3e 99 e5 06 be 4f 9f 36 3e
       -0.16828845 0.14382103 -0.13173522 0.17834209
000150 ee 83 a4 bd 17 99 0e 3e 7f ff 71 3e aa 83 46 3e
       -0.08032976 0.13925587 0.2363262 0.19386163
000160 a6 61 24 3e 6f 51 88 3e 9e ad 60 be 12 bb 30 be
       0.16052875 0.2662463 -0.2194123 -0.17258862
000170 ec ef 21 3e a2 3f 87 3e c9 46 8a bc 83 37 63 3e
       0.15814179 0.26415735 -0.016879456 0.22189145
000180 27 59 b5 3d f0 9a 98 3e a3 7f 39 3e 34 f6 0e 3e
       0.08854895 0.29805708 0.18115096 0.13961107
000190 4c c2 ae bd 28 29 0d 3e 11 8c d5 3d 17 93 06 3e
       -0.08533153 0.13785231 0.10427106 0.13142048
0001a0 94 90 6d 3e 04 28 07 3e 3b 63 02 3e 8f 28 29 3e
       0.23199683 0.13198858 0.12733166 0.16519378
0001b0 57 76 00 3e d3 60 39 3e 3e 51 06 3e 0d 89 52 3e
       0.12545143 0.18103342 0.13116929 0.20560093
0001c0 40 68 45 be 97 ab 35 bc 16 2e fe 3d 48 fe 2b bd
       -0.1927805 -0.0110882735 0.12411134 -0.04199055
0001d0 87 fe 23 be 0c b0 87 bd 07 00 5c bc 11 12 67 3e
       -0.16015063 -0.06625375 -0.013427741 0.22565486
0001e0 2e 0b 5b be 0d 45 27 3e 07 e8 64 3e 70 31 0f be
       -0.21390983 0.16334935 0.22354136 -0.13983703
0001f0 1e d8 82 3d 24 c1 bc 3d 87 a7 24 3e 4e ee 59 3d
       0.06388877 0.09216526 0.16079532 0.05320578

network_body._body_endoder.seq_layers.2.weight f4 [128, 128]
000000 b0 5d 8c bd f4 c3 fe 3d ee e7 a6 bd 25 e6 ea bd
       -0.06853807 0.12439719 -0.08149706 -0.11469678
000010 59 07 c3 bc 69 3d 5a be 70 3c 47 be 19 57 48 bd
       -0.023807215 -0.21312489 -0.19456649 -0.048911188
000020 0f 53 72 bc ff c5 0c be 7f 50 79 3d b1 e9 c8 bb
       -0.0147903105 -0.13747405 0.060867783 -0.006131374
000030 86 78 25 be 1d 79 a6 3d b3 58 22 bd 3e 4f f0 3c
       -0.16159257 0.08128569 -0.03963537 0.02933466
000040 95 43 1b bd 8e 9b ed bd 1e f0 3d 3e dd ce 03 3d
       -0.037906248 -0.11601935 0.18548629 0.032179702
000050 3e 0c 97 bd 96 9b c9 bd 79 0f b5 3d 9c d5 73 bc
       -0.07375382 -0.09844129 0.08840842 -0.014882471
000060 cc f2 cc 3d 51 bf d9 3c c0 a9 32 3e 06 80 7e be
       0.10007247 0.026580485 0.17447567 -0.24853525
000070 8a 84 98 bd 80 80 e9 3d 1b 5a fb bd e7 1f 9d 3c
       -0.07447155 0.114014626 -0.12273046 0.019180251
000080 47 99 ec bd 1e 21 04 3e 20 14 50 bd 28 20 5b bd
       -0.11552673 0.12903258 -0.050800443 -0.053497463
000090 df 8f 00 3d 3e 4e 06 3e 1c c1 e5 3d 0f f5 dc 3d
       0.031387206 0.13115785 0.11218473 0.10788929
0000a0 85 37 68 3d e3 08 6d 3d 5e 9c dc bd ee bb 97 3d
       0.056693573 0.057869803 -0.10772012 0.074088916
0000b0 4c eb 86 bb 40 fd 5c be 84 68 e9 3d 21 10 a1 3d
       -0.004117405 -0.21580982 0.11396888 0.078644045
0000c0 eb 49 9a bd 56 8a 02 be e8 18 83 3d 49 c2 7b bd
       -0.0753363 -0.12748083 0.06401235 -0.06146458
0000d0 3d 8f aa 3d 1f 16 ac 3d e5 37 11 be ca 3a 47 3d
       0.08328102 0.08402657 -0.14181478 0.04864005
0000e0 a1 53 8d bc 32 1a f9 bc 87 ba d8 3d 82 02 18 3c
       -0.017251791 -0.030407999 0.10582452 0.009277942
0000f0 e5 2d 6f bd a5 f0 1a 3d 6f 22 c5 3d b9 49 6c bd
       -0.058393378 0.037827153 0.09625708 -0.057687495
000100 c2 b5 d9 bd 21 e8 e3 3c f9 c3 33 bd be 51 ba bc
       -0.10630371 0.027820649 -0.043888066 -0.022744056
000110 06 48 2b 3e e7 90 0e bd ad 3f 9c bd a4 71 98 3d
       0.16726694 -0.03480616 -0.07629333 0.0744355
000120 78 90 a1 3d 8b 0e 24 be a4 09 96 be 4e dc 7a bd
       0.07888883 -0.16021173 -0.2930423 -0.061245255
000130 71 f6 3f 3e 84 e2 2d 3d 44 c0 89 3e 19 a2 83 bd
       0.18746354 0.04245235 0.269045 -0.06427402
000140 57 31 a8 3c a7 a2 94 bd e4 db 8c bd aa ca 4c 3e
       0.02053134 -0.07257586 -0.06877878 0.19999185
000150 e8 7e 28 be 66 35 6c bd c3 ca 0b 3e 2e 73 ec bd
       -0.16454661 -0.057668112 0.13651566 -0.11545406
000160 ee 32 f7 bd 93 47 05 3d d3 79 67 be 1b 5a b5 3d
       -0.12070261 0.03253896 -0.22605066 0.08855077
000170 a3 31 9b bd 15 36 df bd d9 48 1b 3d 76 ae a2 bd
       -0.07577827 -0.10898987 0.03791127 -0.07943432
000180 9e d1 fa 3c 1e 9b 44 3e 67 62 01 3c 07 9a 27 bc
       0.030617531 0.19199798 0.007896996 -0.010229594
000190 08 2f 83 bc 92 f6 11 be 56 8d 0d 3e 8b 21 9e bd
       -0.016013637 -0.14254215 0.13823447 -0.077212416
0001a0 ef a7 99 3e ba d2 21 3d be 3a a8 bd e3 a1 cc 3d
       0.30010936 0.039507605 -0.08214329 0.09991815
0001b0 6c c4 c8 bd 71 b8 be bd 11 f4 96 bd 5d 58 2a bd
       -0.098030895 -0.09312523 -0.07370771 -0.041588176
0001c0 80 18 03 3a 46 57 cf bd ce b3 63 3c d3 a9 89 3e
       0.0005000904 -0.10124068 0.013897849 0.26887378
0001d0 74 5b 73 3d e5 0f 9e bc 44 56 97 bd 77 4d 94 bd
       0.05941339 -0.019294688 -0.07389501 -0.07241338
0001e0 84 00 44 be 04 81 0b be d9 fd 60 3e 68 72 a6 3c
       -0.19140822 -0.13623434 0.21971835 0.020318225
0001f0 89 d1 1a bd fa 83 75 bd 47 64 85 bd 1b 36 1d 3e
       -0.037797485 -0.059940316 -0.06513267 0.15352671
000200 b5 c9 ae bc 5a 86 36 bd fc af 91 bd dc 86 3f be
       -0.021336416 -0.04456172 -0.071136445 -0.18703789
000210 7f 3f 6c bc 6b 00 a7 bc 6a 05 39 bd 30 2c 09 be
       -0.0144194355 -0.020385941 -0.04517118 -0.13395762
000220 79 ec 2d 3e 49 9a e8 bd 2a 7e c5 bd 42 49 bf 3d
       0.16984738 -0.113575526 -0.096432045 0.09340145
000230 77 ef 91 bd eb ef 76 be 62 ae 15 bd f2 d5 9c bd
       -0.071257524 -0.24114959 -0.036543258 -0.07657994
000240 91 ec 06 be 0b b2 e8 bc 2e ca 23 3e ad 2d ed 3c
       -0.1317618 -0.02840521 0.15995094 0.028952444
000250 69 5f 25 3d 0b 25 3a 3b 5e 17 f2 bc 1b 1b 8e 3c
       0.040374193 0.0028403427 -0.029552158 0.01734691
000260 49 bb 89 bd d8 bc 2e be 32 dd ef 3d d5 58 b1 bd
       -0.06725175 -0.17064226 0.117121115 -0.086595215
000270 60 82 6a 3d 58 d9 88 38 17 1f a1 bc fe 13 cd 3c
       0.05725324 6.525469e-05 -0.019668145 0.025033947
000280 98 20 35 be 01 6d d7 3b ee 1e a9 bd 41 a3 8c 3d
       -0.17688215 0.0065742736 -0.082578525 0.06867076
000290 41 9f 1e be 02 c0 4d 3e 83 19 01 be 90 6d 87 bd
       -0.15490438 0.20092776 -0.12607388 -0.06612694
0002a0 29 70 c3 3d c4 1b a5 3d aa a1 04 3d 3a 81 79 bd
       0.09542877 0.080619365 0.032380737 -0.060914256
0002b0 d8 f6 08 3d e1 1e 14 bd e6 30 1e 3e 6f e7 b7 3a
       0.033438534 -0.03616226 0.15448341 0.0014030765
0002c0 f3 9c a5 3d e6 ac b6 bc c0 91 9b 3e 2c 6c 36 bd
       0.08086576 -0.022299241 0.30384636 -0.044536754
0002d0 ea 93 0e be 20 b9 11 be 2f 67 52 bd a9 4e 19 3e
       -0.13923612 -0.14230776 -0.051367935 0.14971413
0002e0 03 fd cd 3d bb d1 e1 3d bf 77 be bd 5c 6d 74 3d
       0.10058024 0.11026331 -0.093001835 0.059674606
0002f0 49 90 a8 3b c7 b7 06 3d 03 cc 92 bd c5 5b 35 3d
       0.0051441533 0.032890107 -0.071678184 0.04427697
000300 cd 00 74 be 3b 6d 6f be 97 9a a2 3d 30 65 82 3d
       -0.2382843 -0.23381512 0.07939642 0.06366956
000310 fd d9 7e 3d e3 e6 d8 3c 11 56 d5 bd fa 16 03 3e
       0.06221961 0.026477283 -0.104168065 0.12801734
000320 1a e5 54 bc 54 c5 9b bc a9 ab 24 be 42 99 85 bd
       -0.012994075 -0.019014992 -0.16081108 -0.06523372
000330 94 ce 93 bd 73 3b 81 bd 8d 91 82 3d 19 91 49 3d
       -0.07217136 -0.06310167 0.06375418 0.04921064
000340 73 9b c7 bc 41 de 0c bc 23 4f 2c bc 91 28 7c 3d
       -0.024366116 -0.008597911 -0.010516915 0.061562125
000350 3b 17 b0 3c bf 19 07 3e 9f b9 fd 3d 76 c8 eb bd
       0.021495452 0.13193415 0.1238892 -0.11512844
000360 94 64 4b be 66 c6 82 3e 37 26 70 3d 06 3e 11 bd
       -0.19862586 0.2554199 0.058630195 -0.03545954
000370 63 d9 fa bd 1a f1 83 3d 93 7d e0 bd 62 1f 33 3e
       -0.122484945 0.06442471 -0.109614514 0.1749244
000380 4f 17 15 bb 45 9f 2e 3e e9 5d b6 bb ec a8 aa bd
       -0.0022749489 0.17052944 -0.005565394 -0.083330005
000390 85 e8 ca bd d1 26 b7 bd 8d 77 3f bb 51 83 0c be
       -0.09907631 -0.089429505 -0.0029215545 -0.13721968
0003a0 b9 84 ef 3c d3 79 7d 3d 46 da 66 bc 02 66 bb bd
       0.029238092 0.06188376 -0.014090126 -0.09150316
0003b0 1a 3d 69 bd 55 c7 42 3d 77 cc 35 bc 13 dd 0c 3d
       -0.056943037 0.04755338 -0.0110961115 0.03439052
0003c0 e4 87 43 3c 3c d7 80 bd 81 c9 c7 bc 51 dc 05 3d
       0.011934254 -0.06291053 -0.024388077 0.032680813
0003d0 11 43 e7 bd df 93 94 bc 65 07 34 be 2d 0e c5 ba
       -0.11292089 -0.018136917 -0.17580946 -0.0015034132
0003e0 a2 f6 9e bd 70 36 85 be 2c 72 db bd 7e 59 ee 3d
       -0.07761885 -0.26018095 -0.10715136 0.11638163
0003f0 9c d9 22 3e c3 12 a2 3d d4 28 31 3c 81 c8 2d bd
       0.15903324 0.07913735 0.010812957 -0.042427544

network_body._body_endoder.seq_layers.2.bias f4 [128]
000000 f8 b3 80 3d 62 fb 2d 3c f5 63 59 3e a4 98 05 3e
       0.06284326 0.010619016 0.21229537 0.13046509
000010 dd e4 59 3d 16 91 64 bd c8 01 fe 3d 68 11 3f 3d
       0.053196777 -0.055802427 0.124026835 0.04664746
000020 5f 54 11 be 18 c7 10 3e f2 0f c1 bd 42 6a 09 3e
       -0.14192341 0.14138448 -0.094268695 0.1341944
000030 c2 2e 3e bd fc 00 25 be 64 15 b4 3d fc f7 68 3e
       -0.04643131 -0.16113657 0.087931424 0.22750849
000040 cd 2c 95 bd 2c 60 fb bd 9c 3c a8 bd 97 b7 66 3e
       -0.07283936 -0.12274203 -0.08214685 0.22530971
000050 1c b7 2a bd 86 ca 4e 3e 2a 56 a9 3d cc 1f 8d bd
       -0.041678533 0.20194444 0.082683876 -0.068908304
000060 6b 21 ea 3d 8b c9 b9 3d cb d5 ee bd a0 25 31 bd
       0.11432155 0.090716444 -0.116618715 -0.043248773
000070 e1 42 7b bd cb 14 88 bc 11 bc 1e 3e cb 94 2c be
       -0.061343078 -0.016611477 0.15501429 -0.16853635
000080 7a c5 25 be 90 4d 06 3e 18 41 38 3d b9 a5 dd bd
       -0.16188613 0.13115525 0.044983953 -0.10822625
000090 34 e4 ea bd b8 82 ce 3c 5c 13 08 be 40 b3 3c 3d
       -0.114693075 0.025208816 -0.13288635 0.046069384
0000a0 91 bf 65 bd b1 bd cc 3d 51 5f 1d 3e 5f c0 8e 3c
       -0.056090895 0.09997118 0.15368392 0.017425714
0000b0 f3 37 97 3d ca 49 b2 3d 26 c5 1b 3e 10 36 ab bd
       0.07383718 0.087054804 0.15211925 -0.08359921
0000c0 49 b8 0a 3e c7 c8 36 bd b3 be 43 bc 6e bf 96 bd
       0.13546862 -0.04462507 -0.011947322 -0.07360731
0000d0 8d e8 11 be 76 a2 8e 3c 30 fb d6 bd 2b 53 19 3e
       -0.14248867 0.017411452 -0.10497129 0.14973132
0000e0 63 cb d5 bd 33 d2 b4 bc 9c 97 0c 3e 65 5b 29 be
       -0.104391836 -0.022072887 0.1372971 -0.1653877
0000f0 2b 17 e7 bd 47 8e ef bd 1c ad 2e bd ba 21 6a 3e
       -0.11283716 -0.11697059 -0.04264556 0.22864428
000100 63 51 70 3d 24 a8 88 bd a5 e7 07 3e a0 11 27 be
       0.058671366 -0.06672695 0.13271959 -0.16315317
000110 ea f4 a4 3c 0a 99 a6 bd 85 7e ff bd 61 30 0d 3d
       0.020136315 -0.08134659 -0.124753036 0.034469966
000120 ad 3c 74 3d 9c 11 41 be 46 76 e7 3d e5 cb eb 3d
       0.059628177 -0.18854374 0.11301856 0.11513499
000130 4e 5d 01 be 77 c9 db bd 14 35 3a be 36 a2 54 3d
       -0.12633249 -0.10731786 -0.1818431 0.05191251
000140 be a7 1f be 9a ab 0e 3e 79 39 41 3e 98 bb 0f be
       -0.15591332 0.13932648 0.1886958 -0.14036405
000150 45 3f e9 bd 0f c9 a9 3c 5f a0 0a 3e 2b 08 a9 bd
       -0.11389021 0.020725755 0.13537739 -0.08253511
000160 2e a8 3f be 21 0f 96 bd 4f fa 55 3e 43 3d f3 bd
       -0.18716499 -0.07327104 0.20896266 -0.11876919
000170 12 d7 d0 3d 8c 07 06 be 8b dd 5e bd 5e 94 b9 bd
       0.101972714 -0.13088816 -0.0544105 -0.09061502
000180 d7 82 61 3e 28 c5 c9 bd 42 a0 59 bd 39 64 01 3e
       0.22022568 -0.09852058 -0.05313135 0.12635888
000190 81 bd bd 3d 09 26 d6 bd b3 7e 1f be f9 df f0 bd
       0.092646606 -0.104564734 -0.15575676 -0.117614694
0001a0 4b 72 1a 3e ae 75 08 3e f5 2b 51 3d 99 00 c0 3d
       0.15082662 0.13326141 0.05106731 0.09375114
0001b0 34 0d ae 3d 0f 1c 26 3c de 84 fa 3d dd 41 e8 bd
       0.08498612 0.010138526 0.12232374 -0.113406874
0001c0 4d 83 01 3e c4 e8 1c 3e b4 6e 08 3e 5e ea d8 bd
       0.12647744 0.15323168 0.1332348 -0.10591577
0001d0 ff 09 35 3e 28 b9 fb 3d 67 95 d0 bd 21 1b 1a 3e
       0.17679594 0.12291175 -0.10184746 0.15049411
0001e0 50 08 3d 3e 56 a6 e0 bd cc 8a c3 bd 79 b9 dc 3d
       0.18460202 -0.10969226 -0.09547958 0.107775636
0001f0 ad 96 14 3e 87 ee 07 be b8 56 7d 3d ee 42 dc 3c
       0.14510603 -0.13274585 0.06185028 0.026887383

action_model._discrete_distribution.branches.0.weight f4 [3, 128]
000000 dd 43 ac ba d1 13 86 bd 31 39 68 3d b1 92 e6 3c
       -0.0013142783 -0.065467484 0.056695167 0.02814612
000010 f8 58 61 3c fe 3e 37 bc 44 16 26 bd 8b 31 b0 bd
       0.013754122 -0.011184452 -0.040548578 -0.086031996
000020 3f 35 a4 bd 5b 67 13 3d 24 19 91 bd ff 88 0a 3c
       -0.080179684 0.03598724 -0.07084873 0.008455514
000030 3f 1d 20 3c af 01 32 bd 00 bc 90 3d a6 80 19 3d
       0.009772598 -0.043458637 0.07067108 0.037476204
000040 5e 8a b5 bd bd b2 87 bd 19 d4 b0 bd a8 99 23 3d
       -0.08864282 -0.066258885 -0.086342044 0.03994146
000050 af da cb bc d5 f4 8e 3d 4f 1c 82 3d fb 5d 83 bd
       -0.02488455 0.06980292 0.06353056 -0.0641441
000060 ac 14 d5 3c a5 ef 9c 3c 48 54 82 bd ab be 80 3d
       0.026010834 0.01915724 -0.063637316 0.06286367
000070 e9 00 56 3c 90 f4 8f bd de b0 1f 3c 34 99 b2 bd
       0.01306174 -0.070290685 0.009746758 -0.087206274
000080 28 ac 9b bd 7e 47 58 3b e6 0b 09 3d 7a 84 52 bd
       -0.076011956 0.0033001597 0.033458613 -0.05139587
000090 16 84 cb bd c2 f5 27 bc 21 84 b4 bd 4d 0a 22 3d
       -0.09937303 -0.010251464 -0.08814264 0.039560605
0000a0 18 8e 85 3d da a9 e0 bc 53 82 75 3d 03 26 07 3c
       0.06521243 -0.027424742 0.05993874 0.008248809
0000b0 0f 57 fe 3c 44 9e 0e bb 66 cc 85 3c d0 f1 c2 3c
       0.031047372 -0.0021761814 0.016332816 0.023796946
0000c0 16 a1 22 3d ee 9f b5 bd a1 84 eb 3c d9 53 7d bd
       0.039704405 -0.08868395 0.028749766 -0.06184754
0000d0 fa 09 b3 bd 7e e5 29 3d 8f 99 4a bd c0 83 47 39
       -0.08742137 0.041478626 -0.04946285 0.000190272
0000e0 8c 66 97 bd f9 18 5f 3d 81 8a ac 3b 14 6c a4 bd
       -0.07392606 0.054467175 0.0052655344 -0.08028427
0000f0 47 20 b1 bd db 80 2c bd a1 46 f9 3c 49 4f 8c 3d
       -0.086487345 -0.042115074 0.030429186 0.0685106
000100 0c f0 8c 3a 27 e1 dc bd 38 9b 91 3d 1b 69 dd bd
       0.0010752692 -0.10785132 0.07109684 -0.10811063
000110 44 71 da bb 79 7d 38 bd 99 d5 c4 bd 46 70 55 3d
       -0.0066663343 -0.045041535 -0.09611053 0.052109025
000120 78 1c 17 3d f8 69 ce bd fd 8c 83 3d 07 a8 74 3d
       0.036892384 -0.10078806 0.06423376 0.059730556
000130 b7 32 2c 3c 62 a9 b4 bd e6 9c c3 bd c3 93 9a bd
       0.010510138 -0.0882137 -0.095514104 -0.075477146
000140 4c 74 95 bd d4 5e bb 3c 45 d2 d2 3c af 5f 2b bd
       -0.072975725 0.022872366 0.02573503 -0.041839298
000150 f4 13 47 bd f3 dc 62 bd 96 d9 84 bc d2 e9 d7 bc
       -0.048603013 -0.055386495 -0.016217034 -0.026356611
000160 51 51 d1 bd 40 d8 d9 bd bf 46 21 3d 54 de da bc
       -0.10220588 -0.106369495 0.03937411 -0.026717342
000170 f7 25 2d 3d 7a e6 ad bd bd a1 b5 bd 2c 90 bf bd
       0.042272534 -0.084912255 -0.0886874 -0.093536705
000180 19 66 44 3d 65 12 6e bd 26 df a6 ba 9b 68 08 bd
       0.04794893 -0.05812301 -0.0012731298 -0.033302885
000190 5d 23 15 3d 72 04 ad bd 5c 05 80 bd c1 d3 a4 bd
       0.03641068 -0.084481135 -0.06251022 -0.08048201
0001a0 be 5c 9b 3d 09 4b ec 3b 4f 2e 9c 3c fc 45 64 bc
       0.075860485 0.0072110933 0.01906505 -0.013932701
0001b0 49 dc 8a 3d cf 46 64 bc 8b 34 0a 3d f1 26 81 bd
       0.06780297 -0.013932898 0.033741515 -0.063062556
0001c0 9e f2 cd 3c 0d 4d c4 3b 4a 0a 1a 3b 9f 80 66 bd
       0.025140103 0.0059906305 0.0023504668 -0.056275006
0001d0 d5 07 7f 3c e2 43 66 bc ae 49 b1 bd e5 a6 58 3d
       0.015565832 -0.01405427 -0.086566314 0.052893538
0001e0 09 02 4e 3b 1c 70 0a bd 8e 36 a5 bd 9c f9 0a 3b
       0.0031434319 -0.033798322 -0.08067046 0.0021205908
0001f0 c5 ec 4a bd 19 4e be bd a5 14 8a bd aa 3d 87 3d
       -0.049542207 -0.0929224 -0.06742219 0.06603558
000200 7e 5e 64 3c 98 d5 11 3d 6e 87 f3 3c a9 95 53 3c
       0.013938544 0.03560409 0.029727664 0.0129141
000210 30 74 87 3c fa 41 e1 bb 4e 5d ae 3d 07 b1 3b 3d
       0.016534895 -0.00687432 0.0851389 0.045823123
000220 e9 8a 3d bd ea 6b 39 3d 09 52 bf bb 1b 38 f9 3c
       -0.046275053 0.04526893 -0.005838637 0.030422261
000230 cc d1 8b bc 2d a8 80 bc f6 3e 8f bc 64 49 cb 3c
       -0.017067812 -0.015705192 -0.017486077 0.024815269
000240 cc 3c a0 bc 2c b8 7f 3c bc 19 f1 3b 03 ce 0a 3d
       -0.01956024 0.015607875 0.007357804 0.033887874
000250 75 7f 42 bc 1e e5 c2 3c 36 1c 93 bc b8 08 3d bb
       -0.011871208 0.023790892 -0.017957788 -0.0028844308
000260 28 8a 17 3c ee 5c 44 3b 75 35 c7 bc 8b 95 b5 bd
       0.009249248 0.0029962617 -0.024317482 -0.08866414
000270 70 fa b5 bd 7c ec a7 3c 8e 60 4c 3d 69 94 0b bd
       -0.08885658 0.020498507 0.04989677 -0.03407708
000280 eb e1 0c bd c8 56 59 3c 89 5e ac bc a0 97 c9 3b
       -0.03439514 0.013265319 -0.021041172 0.0061521083
000290 a0 07 ff bc ff f7 be 3c 60 b5 c4 bc 22 8c c0 bc
       -0.031131566 0.023311613 -0.024012268 -0.02350432
0002a0 fa 8d 7a bd 5c 33 0c 3d bd 70 aa bc 8e 0c 93 bb
       -0.061170556 0.034228668 -0.02080571 -0.0044875806
0002b0 78 e8 0a bc e1 c6 ef 3c f0 0a 5f 3c f2 35 24 bd
       -0.008478276 0.029269638 0.013613448 -0.04009051
0002c0 18 41 76 3c 1a da a3 3c 87 47 d8 bc 02 04 8a 3c
       0.015030168 0.02000146 -0.026401294 0.016847614
0002d0 a8 fb 02 bd 12 87 36 bd df 7f 4f 3c 1e d1 82 3d
       -0.03197828 -0.044562407 0.012664764 0.06387542
0002e0 a7 fb 94 bb 05 4c 10 bd 2e 53 48 3d 7b eb 9b bc
       -0.004546601 -0.035228748 0.04890745 -0.019033184
0002f0 e3 82 19 bc ee d4 14 3a fa f8 23 bd 00 c8 d6 3c
       -0.009369585 0.0005677481 -0.040032364 0.026218414
000300 5c 82 d7 3c 4f b8 a0 3c b9 0e 83 bc 8e 38 8a bc
       0.026307277 0.019619135 -0.015998231 -0.01687267
000310 31 c6 8d 3c cd 44 2f bd a8 d5 0d 3c 7b c5 b5 bc
       0.01730642 -0.042790223 0.008656897 -0.022188893
000320 19 7b 23 bc a7 34 79 3c 5a 6a 21 bc 25 a3 04 bd
       -0.009978079 0.015210307 -0.009852016 -0.03238215
000330 1a 02 82 bd 0d bf 2a bd 98 3e 95 bc f5 ad 42 3d
       -0.06348057 -0.041686106 -0.018218324 0.04752918
000340 da 6e d6 39 f6 fa 76 3b 91 38 a1 3d fd 11 32 3b
       0.00040899852 0.0037686205 0.07872117 0.0027171366
000350 fe da 6c bd eb f9 24 3c c7 d5 0f 3d ca bb 53 3c
       -0.057826035 0.010069351 0.035115983 0.01292319
000360 66 8b 10 3b 6f b4 aa 3d c7 1e 33 3a 67 2b 34 bc
       0.0022055744 0.08335196 0.0006832894 -0.010996676
000370 84 e2 a3 3c af bd 04 bc f3 73 43 3c 27 b9 2e bd
       0.020005472 -0.008101865 0.0119295 -0.042657044
000380 07 37 c6 3c c6 5e ba 3c 49 c1 70 bc 47 61 81 3d
       0.024196161 0.02275027 -0.01469452 0.06317382
000390 ea 21 e1 3c 35 44 8e bc 17 da cb 3b ed 10 dd b9
       0.027481992 -0.017366508 0.0062210667 -0.00042165015
0003a0 9e b6 ce b9 6f 92 26 3d 32 21 01 bc 8e e6 44 3d
       -0.00039427442 0.040666994 -0.00788145 0.048071437
0003b0 b6 99 de bc 7f 40 80 3c dc 93 44 3c b4 cd 72 bd
       -0.027172904 0.015655754 0.011998143 -0.059278205
0003c0 ef 5c e7 3c 15 b0 49 3d 3c a5 83 3c 71 49 f3 bc
       0.028242556 0.04924019 0.01607 -0.029698106
0003d0 6e 7f 2a 3d fd 52 48 3d ab 1a 0e bd 9f 00 29 3c
       0.041625433 0.04890727 -0.0346934 0.0103150895
0003e0 ae f6 cf 3d 50 f9 dd bc f6 21 a4 bb aa 55 dc 3b
       0.10154472 -0.02709642 -0.0050089313 0.006724079
0003f0 74 be bd 3d fd d4 a1 bc 5f c5 99 3d 1f 13 6e bd
       0.09264842 -0.019754881 0.07508349 -0.058123704

action_model._discrete_distribution.branches.0.bias f4 [3]
000000 78 63 c4 3d 52 8e 2d 3d 1e 05 39 be
       0.09589285 0.042372055 -0.18068358

action_model._discrete_distribution.branches.1.weight f4 [3, 128]
000000 49 59 96 3d 66 3e 33 3d d4 03 7f 38 36 17 6b bd
       0.073412485 0.04376068 6.0800303e-05 -0.057395183
000010 f0 cb 7c bb 78 ae 7d 3d 97 65 e6 3c 87 be 47 3d
       -0.0038573705 0.061933964 0.028124614 0.048765685
000020 02 9d 89 3c fd ac ee 3c 0c 4f a5 3c 5c e9 56 3a
       0.0167985 0.029135222 0.020179294 0.00081982254
000030 3c a0 2b bd e8 0e 82 bc ce 51 41 3c c8 d4 30 bb
       -0.04190086 -0.015876248 0.011799289 -0.0026982296
000040 5a e7 c0 3b b6 c7 e7 3a 46 cf 3f 3c fa de 66 bc
       0.0058869543 0.001768342 0.011707133 -0.014091248
000050 5f 7b 10 3d 82 b5 9d bc 03 2b 5d bd 37 28 1c bd
       0.035273906 -0.019251589 -0.053996097 -0.03812429
000060 46 9b e8 3b 20 eb 8c 3c cb e3 58 3d 3b ba 53 3d
       0.007098588 0.01720196 0.052951615 0.051691275
000070 bd 9f aa 3b 25 fa fd 3c 9a f3 67 3d af 11 e8 bb
       0.0052070306 0.031003067 0.0566288 -0.007082186
000080 81 98 fe 3c 9c a1 f1 3b c8 f8 b8 bb 8f 7b 99 bc
       0.031078579 0.0073740017 -0.0056448914 -0.018735675
000090 3b e7 02 3c f6 a8 9b 3d 50 32 3a ba 31 a6 10 bc
       0.0079897 0.07600586 -0.0007102834 -0.008828686
0000a0 a5 d7 d5 ba 53 e0 b1 3c d6 b1 a6 bc f7 fe 53 3c
       -0.0016314877 0.021713411 -0.02034847 0.012939206
0000b0 4b d2 98 bc b8 cd 49 3d 00 69 87 3c 77 44 5d bd
       -0.018654963 0.049268454 0.01652956 -0.05402037
0000c0 59 58 f4 bc a0 37 45 3d 71 81 76 bd bd 16 1e 3d
       -0.029827284 0.04814875 -0.06018204 0.038595904
0000d0 b6 9a f7 ba 49 44 1f bc c0 cd 57 bc a4 63 3f 3d
       -0.0018890712 -0.00972087 -0.013171613 0.046725884
0000e0 ae cf 20 3d fa ef b7 bc df 3b 22 3d 2b db 7d 3c
       0.03926056 -0.022453297 0.03960788 0.015494148
0000f0 3f 81 7c bc 48 a1 22 bd 41 e9 98 3c 7d fb c2 bc
       -0.015411674 -0.03970459 0.018665912 -0.02380156
000100 4e bb b3 3b b1 a3 2d 3d 85 23 5d bd e4 11 e0 b7
       0.005484975 0.042392436 -0.053988952 -2.6711212e-05
000110 d9 91 a8 3c 7a 97 33 3d 2b 6c b9 3d 98 52 27 bd
       0.020577358 0.04384563 0.090538345 -0.040850252
000120 15 a8 6a bd 89 78 37 3d ca 0a 10 bd a0 55 db bc
       -0.0572892 0.044792686 -0.03516654 -0.026774228
000130 1d 40 12 3d 8b 1d 20 3d 93 36 83 3c 3b ed b8 3c
       0.035705674 0.039090674 0.016017234 0.022574058
000140 8f 9f b3 3c 0d 66 97 3a 51 e1 79 bb 05 82 4a 3d
       0.02192667 0.0011550799 -0.0038128684 0.049440403
000150 47 99 41 bb 60 fe 51 3c f3 17 0b 3d 3e 96 6c 3c
       -0.0029540823 0.012816995 0.033958387 0.014440117
000160 81 3b e9 bb f4 14 16 3d f7 30 1b bd 9b ef 81 3c
       -0.007117689 0.036641076 -0.037888493 0.015861323
000170 3c cc 0a 3b 60 d7 25 3d d7 98 8d 3a 9c 14 03 3c
       0.0021178862 0.0404886 0.0010802996 0.008000519
000180 1e 1b 96 3c 9c 07 e6 3c 63 8c f7 bc e9 c2 f5 3c
       0.018323477 0.0280798 -0.030218309 0.030000167
000190 fd 71 ac bd 49 79 02 3d 1a 85 27 3c f3 7d 42 3d
       -0.08420179 0.031853948 0.010224605 0.047483396
0001a0 e1 49 b9 3b 31 d3 f4 3c 59 18 5a bc 95 db f7 3c
       0.005654559 0.02988586 -0.013311469 0.030256072
0001b0 10 d5 6a bd e4 12 08 bd 96 19 86 bc 26 dc 0d bc
       -0.0573321 -0.03322114 -0.016369622 -0.0086584445
0001c0 10 65 a5 bb 1f 46 5d bc 96 97 62 3c b7 11 d8 3b
       -0.005047448 -0.013505488 0.013830086 0.0065939086
0001d0 7d 5e 87 3c fd 66 fc 3c 3a 33 5b 3c 53 df f3 bc
       0.016524548 0.030810827 0.013378913 -0.029769575
0001e0 bb 6f 4d 3c df 6b ed 3c f2 3b 81 3d 23 7b fb 3c
       0.012538846 0.028982101 0.06310262 0.030698365
0001f0 bc b4 51 3d 3f 5d f0 3c 4d ad 6b bb 4e 0f fa bc
       0.051197752 0.029341338 -0.003596145 -0.030524876
000200 94 18 10 3c 7b a6 50 3d 4c 1c b0 bc ed 72 f9 bc
       0.008794922 0.05094002 -0.021497868 -0.030450309
000210 00 5e 67 bc fe de b8 bc 2a 2e ec 3b b2 4d e1 3d
       -0.014121532 -0.022567268 0.0072076516 0.11001147
000220 af 00 52 bb 2e cc 7b bc ca 71 c8 3b 8b ea ab bd
       -0.0032043864 -0.015368504 0.0061170803 -0.08394345
000230 65 f7 7f bd 36 8e c6 3c bb a2 b1 bd 60 6e a4 3d
       -0.062491793 0.024237733 -0.086736165 0.08028865
000240 64 99 09 bd fd 76 89 3c bf 5a 03 3c 82 00 af 3d
       -0.03359355 0.01678037 0.008017241 0.08545019
000250 01 c3 5b 3d 0d 98 88 3d ef 03 fc bb 0b fa 84 bc
       0.053652767 0.066696264 -0.0076908986 -0.016232511
000260 43 ea b9 bd d5 31 e3 bb 85 fe 46 bc b0 f0 02 bc
       -0.09077885 -0.0069334307 -0.012145643 -0.007991955
000270 22 73 a5 bd 83 15 21 bd 9e 1f 8e 3c 91 b5 55 ba
       -0.080786005 -0.039327156 0.01734906 -0.00081523607
000280 b0 e4 88 3c 5a 01 8c 3b 57 08 0d 3c cc 55 9a bc
       0.01671061 0.004272622 0.008607945 -0.01883974
000290 ca 74 b5 3b c8 e0 6d bc c7 ea be bc d1 cf e1 3c
       0.005537604 -0.014518924 -0.02330531 0.027564915
0002a0 7c 49 16 ba bb 9a cf bd 8f 8a f3 3b 4c 37 9b bb
       -0.0005732996 -0.10136934 0.007432289 -0.0047368165
0002b0 a9 86 65 bb dd 31 17 bd 42 25 49 3d 79 04 8b bd
       -0.003502289 -0.036912788 0.049107797 -0.067879625
0002c0 98 3e 1b bc 4c ab 0c 3d 6a 72 18 bb 0b ef ef 3b
       -0.009475373 0.03434305 -0.0023261555 0.0073221973
0002d0 62 79 bc bb 05 8f 2c 3c a8 a7 c2 bb 1c ac 86 3c
       -0.0057517746 0.010532145 -0.0059403963 0.01643949
0002e0 6b bf 9d 3c 7e a3 ca bd 6d ed e4 3c 28 66 4e 3c
       0.019256314 -0.09894465 0.027945245 0.012597598
0002f0 55 db 81 bc ff db 58 bd cc 3a 05 3d f5 56 50 3d
       -0.015851656 -0.05294418 0.032526776 0.05086418
000300 fb 07 db 3c 26 18 f9 ba 5a f4 95 bc bb 42 d7 3b
       0.026737204 -0.0019004389 -0.018304992 0.006569234
000310 d7 59 91 3d 34 f7 63 3d 23 07 a4 bc f0 3e 82 bd
       0.07097214 0.055655673 -0.020022934 -0.063596606
000320 95 14 54 bd 1f 87 45 bc cd 6c 37 bd 03 07 86 bd
       -0.05177744 -0.012056141 -0.044781495 -0.06544306
000330 a5 9d 25 bc 06 2f a1 3a 87 5e e1 3c 51 2e 11 3d
       -0.010108386 0.0012297339 0.027510894 0.03544456
000340 8a 28 c9 3b 35 14 87 3b 48 79 d8 bc f8 9d 9f bc
       0.006138866 0.004122282 -0.026425019 -0.019484505
000350 2e d1 52 3d ed 7f d1 3d bd 8b f7 3d 3d 3d 9d bc
       0.05146902 0.10229478 0.120872 -0.01919424
000360 6f f3 a5 3a ed 7e 02 bd 39 3b f3 3b 3a 7b e0 bc
       0.001266105 -0.031859327 0.0074228314 -0.027402509
000370 c2 ae e1 bc e5 2a 92 bb c1 b6 24 bc d9 50 2b bc
       -0.027549151 -0.00446068 -0.010053338 -0.010456287
000380 36 9e 1e 3b 5c 28 bd bc 69 e6 22 bc f1 5f 1f 3d
       0.0024203188 -0.023090534 -0.009942629 0.038909856
000390 44 b5 41 bc d0 7b c4 3b d0 1a 6e 3c 70 1c ca bb
       -0.011823002 0.005996205 0.01453276 -0.006167941
0003a0 75 43 81 bc 05 2f ba bc f2 13 0c bd e7 59 f2 3c
       -0.015779236 -0.022727499 -0.03419871 0.029583884
0003b0 8d 61 ae 3c c3 d6 c8 3c 27 89 6f 39 50 b7 82 bd
       0.02128675 0.024516469 0.0002284391 -0.0638262
0003c0 4b af 59 3d ca c1 c2 bb 8e 4e 44 3d b4 da 6b 3c
       0.053145688 -0.0059435116 0.047926478 0.014395405
0003d0 a0 18 f7 3c ac 0c 16 3d f7 fc f9 ba 09 8f 99 bc
       0.03016311 0.03663318 -0.0019072582 -0.018744962
0003e0 b7 52 b0 bc 77 b0 1b 3d a0 63 e0 bb 47 25 e3 3d
       -0.021523817 0.038010087 -0.0068478137 0.110910945
0003f0 92 c4 9c 3d 60 8f 87 bb 47 2b e4 bc 6b 61 f4 bc
       0.0765468 -0.0041369647 -0.027852667 -0.029831609

action_model._discrete_distribution.branches.1.bias f4 [3]
000000 2f 17 88 bc 49 0d aa bb 4b 4e a6 3c
       -0.016612617 -0.005189572 0.020301005

onnx::Div_78 f4 [14]
000000 08 78 19 3e ec 6d 21 3e 06 61 46 3e 59 d2 39 3e
       0.14987195 0.15764588 0.19372949 0.18146648
000010 0f 17 5c 3e b5 93 48 3e 85 52 45 3d 6e c7 a3 3d
       0.21493171 0.19587596 0.0481744 0.079970226
000020 a2 00 42 3d 32 d9 b8 3d 32 4b 87 3c b6 80 6f 3d
       0.047363885 0.09025802 0.016515348 0.058472358
000030 75 93 3e 3d 2e d9 89 3d
       0.046527345 0.06730877

onnx::Div_81 f4 [8]
000000 00 4c a9 40 69 8e a0 3a a2 4d 9c 41 0d c7 cf 40
       5.2905273 0.0012249473 19.537907 6.493048
000010 0b 62 1b 3c f3 b5 94 41 48 ed 4a 41 00 2e b7 3f
       0.0094838245 18.588842 12.68293 1.4310913
