results/RoadExt1.0/CarAgent/CarAgent-4532.onnx (onnx, 90051 bytes, 13 tensors)

discrete_act_size_vector f4 [1, 2]
000000 00 00 40 40 00 00 40 40
       3.0 3.0

network_body.observation_encoder.processors.0.normalizer.running_mean f4 [14]
000000 7c a7 f9 3c ac 35 80 3e b9 12 6b 3d 67 b0 8f 3e
       0.03047537 0.25040948 0.057390902 0.28064272
000010 b9 05 53 3d d5 58 8a 3e 5d 1c a0 3b 2d 8f 86 3e
       0.05151913 0.27020898 0.0048861937 0.2628111
000020 c8 08 6f 3b 3f 7b 7b 3e bf b2 15 3a 4f 10 81 3e
       0.003647374 0.24558733 0.0005710534 0.25207755
000030 71 64 25 3a 9c d2 65 3e
       0.00063092174 0.22443622

network_body.observation_encoder.processors.1.normalizer.running_mean f4 [8]
000000 3f b2 25 bf 2b 31 22 b8 25 2c 9e 3f 54 6d 3b bf
       -0.64725107 -3.86696e-05 1.2357222 -0.73213696
000010 c9 bf f5 3e 00 28 ca 40 f5 11 4c 41 16 dd 89 be
       0.47997883 6.317383 12.754384 -0.26926488

network_body._body_endoder.seq_layers.0.weight f4 [128, 22]
000000 3a bf be 3e d3 db 63 be f4 a6 e6 bd 4e a1 1f 3e
       0.3725527 -0.22251825 -0.112623125 0.15588877
000010 3e f1 b4 3d 2e 6f c2 3d 72 80 57 3e 81 49 4d 3d
       0.08835076 0.09493862 0.21045092 0.050118927
000020 98 c3 a3 3d c3 a6 79 bd e6 dc 91 3d 16 22 b5 be
       0.07996291 -0.060950052 0.07122211 -0.35377568
000030 f8 68 ce 3c 5c 9d 5d bc 02 a0 86 3d d2 86 17 bf
       0.025196537 -0.013526287 0.06573488 -0.59190094
000040 66 1e a6 bc 86 f1 4f be df cb 85 3e 8c 6a 22 3e
       -0.020278167 -0.20306978 0.26132104 0.15860957
000050 df 12 cb 3c 55 65 3f bd 40 55 d8 3d 2c 97 f4 3d
       0.024789272 -0.046727497 0.10563135 0.11942896
000060 25 19 99 bd b5 e0 96 3b 6c 93 91 bd db f5 ff be
       -0.07475499 0.004604424 -0.071081966 -0.4999226
000070 5f 86 01 bd d8 e7 51 3e 49 ce ef 3d c9 5a 50 be
       -0.031622287 0.20498598 0.11709268 -0.20347132
000080 23 b2 bb 3d 42 c6 c4 bd e3 31 f0 bd 54 1f 06 3e
       0.09164836 -0.09608127 -0.11728265 0.13097888
000090 01 fd 72 be d9 f0 63 be 90 10 4f 3e 8d c3 54 bd
       -0.23729326 -0.22259845 0.20221162 -0.051944304
0000a0 73 22 85 bc e8 f9 97 be 9b 04 d6 be 14 88 48 3d
       -0.016251778 -0.2968285 -0.4180039 0.0489579
0000b0 05 e9 81 3d 92 a6 04 3e c1 f3 68 be 46 35 d5 3e
       0.06343273 0.12954167 -0.22749235 0.41642207
0000c0 9a cd 75 be 01 93 78 be b7 82 7f be 6b f1 42 3d
       -0.24004212 -0.24274828 -0.24952208 0.047593515
0000d0 cf 24 cc 3d 68 1f 93 3d 4a 62 aa 3d 58 46 5f be
       0.09967958 0.07183725 0.083195284 -0.21804178
0000e0 97 3d 08 be 48 99 1f bd 75 8f 89 bd 4a 4d 1a 3e
       -0.13304745 -0.03896454 -0.067168154 0.15068546
0000f0 13 6c d3 3b df 08 8d 3d 79 17 9e 3e b5 69 d5 3e
       0.0064520924 0.06886458 0.30877283 0.4168221
000100 4b 48 36 bf 70 d5 cd 3e 78 a7 8b be 23 83 47 3e
       -0.7120406 0.40201902 -0.27276206 0.19483618
000110 ae 69 ce 3d 80 c7 22 be 4f 89 d1 3c 0e 6f 00 be
       0.100787506 -0.15896416 0.02557817 -0.12542364
000120 0b e9 91 be f8 6b 8e bc 40 de 0b bd 2c f8 e1 bd
       -0.2849811 -0.017385468 -0.0341475 -0.11033663
000130 f6 50 98 3e 9c ce 41 3e a0 da 08 be 7a 5c 99 3e
       0.29749268 0.18926471 -0.13364649 0.29953367
000140 84 6e 51 3e 35 ce 9f 3e fa 98 63 3e 4f a5 4e bd
       0.20452315 0.3121201 0.22226325 -0.05045062
000150 64 c3 74 bd d1 1a 09 3e ad 65 58 be 59 33 78 3e
       -0.05975665 0.13389136 -0.21132536 0.24238338
000160 f1 69 18 3e b8 ca 98 be c2 de 14 3d 71 34 93 3e
       0.14884163 -0.29842162 0.03634525 0.28750947
000170 5f cd 5a 3e 84 36 bc 3d 8f a2 36 3c 9d ca 93 3d
       0.21367405 0.091900855 0.011147155 0.0721638
000180 46 07 d2 3e 2f ac 56 be 09 f0 50 3e 8e fa d1 3c
       0.41021174 -0.2096412 0.20404066 0.02563217
000190 26 65 7b 3e b3 c7 3d 3d ad 2f 2f 3d d2 47 2f be
       0.24550304 0.046333026 0.042770077 -0.17117241
0001a0 d9 91 b2 be eb 38 4b bd 3c c9 19 be 36 04 b4 be
       -0.34876898 -0.049614828 -0.15018171 -0.35159463
0001b0 73 46 40 3e 87 71 0c 3e 8e 32 87 3e 00 29 eb bd
       0.18776874 0.13715182 0.26405758 -0.114824295
0001c0 38 30 b7 be 02 29 42 be df dd 69 be 93 ae d6 bc
       -0.35778975 -0.18960956 -0.22838543 -0.02620629
0001d0 87 51 c4 3e 48 50 6d be 04 8a 66 be 4d 76 68 3e
       0.3834345 -0.23175156 -0.22513586 0.22701378
0001e0 29 b9 a6 3d 67 3f ad 3e 53 56 4f be b9 3b 7d be
       0.08140785 0.33837435 -0.20247774 -0.24729814
0001f0 b8 1c 87 be 95 ce ac bd 79 67 0c 3f a6 e0 1c 3d
       -0.26389098 -0.0843784 0.54845387 0.03830018
000200 9c 06 1f be 08 b9 55 bd 92 fe c5 3e 13 c2 0d 3d
       -0.15529865 -0.052178413 0.38670784 0.03460891
000210 36 95 d0 3e c0 9e bf 3e fc 70 32 bb 20 6c 68 3e
       0.4073884 0.37425804 -0.0027227988 0.22697496
000220 78 b3 a4 bc 3e b3 bd 3d 3d 45 04 be 50 a6 2f 3e
       -0.020105109 0.09262703 -0.12917037 0.17153287
000230 3d 55 03 be 62 ab 5b 3e 7a bf 33 be 95 d8 9c 3e
       -0.12825485 0.21452096 -0.17553511 0.3063399
000240 21 68 41 3e 09 7c d6 3d c9 b6 2b be 7a 44 2f 3e
       0.18887378 0.104728766 -0.16768946 0.17115965
000250 56 10 96 3e ee dd 1b 3e c6 a9 2a be eb 3b e5 3b
       0.29309338 0.15221378 -0.16666326 0.006995668
000260 42 a5 ce be db 73 9e 3d ad 72 69 3e 75 28 2b 3e
       -0.40360457 0.077369414 0.22797652 0.16714652
000270 36 9e e7 be 94 a2 71 bd cd e1 3c be 47 04 39 be
       -0.45237893 -0.058992937 -0.18445511 -0.18068038
000280 30 99 98 3e b8 07 82 3d 0e 11 cb bd 4c ee fb 3d
       0.29804373 0.063491285 -0.09915362 0.12301311
000290 d1 05 30 be 5a e1 88 be ba 33 15 bc 72 55 81 3e
       -0.17189719 -0.2673443 -0.009106571 0.25260502
0002a0 26 0f 6a be b1 3e b7 bd ba 45 03 3e b8 52 e7 3d
       -0.22857341 -0.08947504 0.12819567 0.11295074
0002b0 33 d4 73 be aa ed 2b 3e 83 db 15 be 35 3e a6 be
       -0.23811416 0.1678988 -0.14634518 -0.32469335
0002c0 e4 fc 5f be 6c e9 5f be e6 1c d6 3e 02 8e cd 3e
       -0.21873814 -0.21866387 0.41818923 0.40147406
0002d0 5d 76 2a bc e6 65 1e 3e e7 85 4c be 2d 01 12 bf
       -0.010404197 0.15468559 -0.19972955 -0.57033044
0002e0 1f f3 07 3e 63 21 af bd 17 fa b3 3e f4 40 4e 3e
       0.13276337 -0.0855129 0.3515174 0.20141965
0002f0 6b 26 4e 3c a3 3b eb 3d 7c 00 97 3e 1d 80 08 be
       0.012582402 0.11485984 0.29492557 -0.13330121
000300 d5 32 4d 3d a9 4b 9f 3d 8e 7a 61 be 8f 2a 6e 3e
       0.050097305 0.07778103 -0.22019407 0.23258422
000310 f1 bb be bd 42 57 88 be 8f ba 84 3d 84 98 26 3e
       -0.09313191 -0.26629072 0.06480896 0.16269118
000320 4d aa 06 be 65 f8 bb be f2 e1 37 be 08 53 61 be
       -0.13150902 -0.36712947 -0.17957285 -0.2200433
000330 c9 04 d5 3d 20 36 5d 3e 33 df 1f bb 74 c0 62 be
       0.10401303 0.21602678 -0.0024394512 -0.22143728
000340 9c e3 1a 3e d3 81 ad bd 99 a2 f2 3e 43 c2 34 3d
       0.15125889 -0.08472028 0.47389677 0.044130575
000350 c5 f7 49 3d d3 23 1e 3f 36 cf 4c 3d 66 b3 c8 bd
       0.049308557 0.61773413 0.0500023 -0.097998425
000360 dc 90 b1 3e b7 aa 72 3e 67 16 58 be ea d4 f5 3e
       0.3468083 0.23697935 -0.21102296 0.48014003
000370 b8 f1 d7 bc c4 49 dc 3e cb 10 45 be 8c 81 5e 3e
       -0.026360378 0.4302503 -0.19244687 0.21729106
000380 48 25 c6 3d 47 7a 05 3e c2 5a 01 3e bf 9b c3 be
       0.096750796 0.13034926 0.12632278 -0.38204762
000390 ae ce b4 3e bc 52 ea 3d 2c 68 e8 be 90 4d c6 3c
       0.35313934 0.114415616 -0.45391977 0.024206907
0003a0 2b dd 56 be 14 38 e8 bc db db b3 bd fb e3 0b be
       -0.20982806 -0.028347053 -0.087821685 -0.13661186
0003b0 00 0d cf bd e3 01 a2 bd a5 47 3c be 07 6f a6 3e
       -0.101099014 -0.07910516 -0.18386705 0.32506582
0003c0 69 fa 77 bd b5 63 70 be fa 94 7f 3e 21 f7 5c be
       -0.060541544 -0.23475535 0.24959174 -0.21578647
0003d0 5f 00 6d be 3b 06 0d be 35 58 3d be 61 13 53 be
       -0.23144673 -0.13771908 -0.1849068 -0.20612861
0003e0 c2 7a d8 3c db 1d ff 3e 1c 31 6b 3d bb 2b 29 3d
       0.026425723 0.49827465 0.05741988 0.04130147
0003f0 48 22 cc bd 85 68 23 be 6d 97 5a 3e 8f 4e 0f 3e
       -0.09967476 -0.1595784 0.21346827 0.13994811

network_body._body_endoder.seq_layers.0.bias f4 [128]
000000 1a 6a 56 be f5 f5 51 3e a6 d6 23 3e 14 5a fe 3d
       -0.20938912 0.20503981 0.1599985 0.12419525
000010 dc 4f 90 bd 71 ea 98 3d 95 31 6f 3e 83 20 2d 3e
       -0.07046482 0.07466591 0.23358758 0.16906933
000020 f2 ae c7 bd 52 c9 bc 3d 61 db 49 3c 26 7a 2e 3e
       -0.09750165 0.09218086 0.01232037 0.17038783
000030 88 86 50 3e 58 13 2f bb b2 c7 93 3e 56 b5 96 3d
       0.2036382 -0.002671441 0.28863293 0.07358806
000040 c4 c7 bb 3d 3f 14 07 be be 09 42 be b7 05 84 bd
       0.09168962 -0.13191317 -0.18949029 -0.064464025
000050 6a b7 67 3e bf a4 85 3e 53 9e 75 3e f8 da 32 bd
       0.2262856 0.26102254 0.23986177 -0.043665856
000060 96 05 a8 3c 31 d4 06 bb 9e b5 27 be 78 10 df bd
       0.020510476 -0.0020573253 -0.16377875 -0.10891813
000070 fa 49 b1 3d b4 52 3c 3e 1c 4c 0f 3e 91 40 f1 3d
       0.08656688 0.18390924 0.13993877 0.11779893
000080 6a e0 5e be d7 76 fa 3c e4 80 88 3e 1e 96 3b be
       -0.21765295 0.030574245 0.26660836 -0.18318984
000090 76 b4 3a bc 42 ad 97 3e 68 47 28 3e e0 a5 0a be
       -0.011395564 0.29624373 0.1643349 -0.13539839
0000a0 0c f9 d1 3d 97 cd 07 3e 44 bb 33 3e 74 56 18 3e
       0.1025258 0.1326202 0.17551905 0.14876729
0000b0 52 37 18 3e 03 da 12 3e 8a 8a 9a 3d 64 da 47 3e
       0.14864853 0.14340977 0.075459555 0.19516903
0000c0 40 e1 64 be 71 c3 b2 bc a1 ae 0a 3e c0 bf 5d 3e
       -0.22351551 -0.02182171 0.13543178 0.21655178
0000d0 4d 14 ca 3c 10 7e 9d bd 4f 90 a0 3d 33 92 99 3e
       0.024667883 -0.0769006 0.07840025 0.29994354
0000e0 ff 26 4c 3e 87 d9 0d 3e a7 c7 1d be 97 b2 88 bd
       0.19936751 0.13852511 -0.15408193 -0.06674688
0000f0 34 fb 0f 3e c8 f9 3f be ef ec 87 3e 3d 00 0d be
       0.1406067 -0.18747628 0.26547953 -0.13769622
000100 a5 9e ed bb 8d 66 88 3d 9f f1 ec bd 45 7c 9e 3e
       -0.007251578 0.06660185 -0.11569523 0.30954185
000110 08 25 85 3e 5d 90 78 3e 27 2a bf bc 01 e9 55 3e
       0.26004815 0.2427382 -0.02333553 0.20889665
000120 51 d8 74 3e d5 df 87 be 72 f2 01 be f0 09 85 bd
       0.23910643 -0.26537958 -0.12690142 -0.06496036
000130 d5 dd 39 3e 47 04 0e 3e 71 ce 98 3e c6 f9 42 be
       0.18151028 0.13868819 0.29845002 -0.19040594
000140 54 87 1b be c7 a7 18 3e 10 b4 fb bd 0a 75 5a 3e
       -0.15188342 0.14907752 -0.122902036 0.2133371
000150 59 9a ce bd 65 2c 12 3e b9 a6 67 3e 95 22 52 3e
       -0.10088033 0.14274748 0.22622193 0.20521004
000160 f0 29 34 3e f9 9c 82 3e 59 88 42 be 46 9a 34 be
       0.17594123 0.25510386 -0.18997325 -0.17636976
000170 d9 4e 1c 3e b1 5c 7f 3e 53 61 37 bd 18 d8 65 3e
       0.15264453 0.24937703 -0.04477055 0.22445714
000180 c0 a5 aa 3d df ea 9a 3e c1 95 29 3e 54 9d 09 3e
       0.083323956 0.30257317 0.16561033 0.13438922
000190 c0 63 a7 bd 20 3d 1d 3e aa c7 c4 3d 69 86 02 3e
       -0.08173323 0.15355349 0.096083954 0.12746586
0001a0 b1 57 6a 3e cd 83 08 3e d3 9c 09 3e e4 dd 2f 3e
       0.22885014 0.13331528 0.1343873 0.17174488
0001b0 c7 9a f2 3d eb f6 30 3e 24 74 0a 3e 5c d6 4c 3e
       0.11845928 0.17281692 0.13520867 0.20003647
0001c0 36 f8 56 be fd 2f 94 bc bf c5 0a 3e aa 1e 78 bd
       -0.20993122 -0.018089289 0.13551997 -0.06057612
0001d0 87 53 1e be f8 46 8e bd 3e 7b 8e bc e8 2d 4b 3e
       -0.1546155 -0.0694713 -0.01739275 0.1984173
0001e0 83 33 4a be ae 00 30 3e a6 4c 74 3e c6 e8 0b be
       -0.19746213 0.1718776 0.23857364 -0.13663015
0001f0 bc a4 a4 3d 25 7a ae 3d fe 50 31 3e be cd 53 3d
       0.08039233 0.08519391 0.17316052 0.051709883

network_body._body_endoder.seq_layers.2.weight f4 [128, 128]
000000 39 a2 90 bd 00 17 f4 3d 5d f3 71 bd 45 c5 bc bd
       -0.070621915 0.119184494 -0.05906998 -0.09217314
000010 1e 09 3d bc 96 42 65 be d1 dc 1d be 58 c2 40 bd
       -0.011537818 -0.22388682 -0.15416266 -0.04706034
000020 3b 04 37 bb 9b e7 de bd 85 c7 70 3d 68 8b 38 ba
       -0.0027926106 -0.10884019 0.058784027 -0.0007039816
000030 a2 93 35 be 50 3b b3 3d f0 43 41 bd 09 2d c0 3c
       -0.17732099 0.08751547 -0.04718393 0.023458974
000040 97 5a 8d bc 31 39 c8 bd 2f ca 59 3e 0e 3d f1 3c
       -0.01725511 -0.097765334 0.21268533 0.029448058
000050 73 75 6f bd c6 d0 9c bd 39 7a c5 3d 1b ce 8d 3c
       -0.058461618 -0.07657008 0.09642453 0.017310193
000060 e1 56 f5 3d 73 da 17 3d 3b 02 2b 3e f5 d2 43 be
       0.119794615 0.037073564 0.1670007 -0.19123442
000070 64 3c 38 bd 0d dc ee 3d e7 d4 df bd fb 9b a7 ba
       -0.044979468 0.11663065 -0.1092928 -0.0012787575
000080 0f b8 a2 bd e2 6a 18 3e 92 cc 6b bd f8 01 39 bd
       -0.07945263 0.14884523 -0.05756814 -0.045167893
000090 51 66 b4 3c d1 db cf 3d ab 52 c1 3d 51 d7 e9 3d
       0.022021445 0.101493485 0.09439596 0.114180215
0000a0 98 5a 35 3d c1 12 52 3d 4d b0 99 bd 8b 87 8a 3d
       0.04427585 0.051287416 -0.0750433 0.06764134
0000b0 2f dd 0b bc 07 1d 63 be a8 15 f4 3d 65 ad 64 3d
       -0.008536621 -0.22179042 0.11918193 0.055829424
0000c0 1c dc 82 bd d9 f3 f2 bd a5 05 2b 3d 52 9b 83 bd
       -0.06389639 -0.118629165 0.04175343 -0.064261094
0000d0 31 1f b5 3d de ab ae 3d 8f 64 17 be 43 91 dd 3c
       0.0884384 0.08528875 -0.14784454 0.027046805
0000e0 02 25 33 bb 71 fc 08 bd 41 98 e9 3d b4 2c 8f 3b
       -0.002733529 -0.033443872 0.11405993 0.0043693427
0000f0 1c ac 86 bd a9 18 06 3d de df ae 3d 7c a3 08 bd
       -0.06575796 0.03273836 0.08538793 -0.033359036
000100 20 3e 82 bd 37 1c 84 3d bc 12 41 bd 66 5d 0d bd
       -0.06359506 0.06450694 -0.047137007 -0.0345129
000110 9c 0c 10 3e 96 0e 0e bd 59 b9 99 bd 68 ca 8f 3d
       0.1406731 -0.03468188 -0.075060554 0.07021028
000120 1e 5b e4 3d 29 50 0b be 38 a5 89 be 62 d6 2b bd
       0.11150192 -0.13604797 -0.26883864 -0.0419525
000130 b2 6a 5c 3e 33 a6 0e 3d c7 c0 83 3e 0c e0 f6 bc
       0.21525076 0.03482647 0.25733015 -0.03013613
000140 6c 5c fd 3c e4 f9 a3 bd 71 ac 5d bd 41 22 55 3e
       0.03092786 -0.08006647 -0.05411953 0.20813848
000150 3b 5c 1b be 22 06 86 bd 07 8e 05 3e 96 0d 08 be
       -0.15171902 -0.065441385 0.1304246 -0.13286433
000160 b6 1d f1 bd 1e ec 40 bb a3 7a 5e be 44 2f d4 3d
       -0.11773245 -0.0029437612 -0.2172647 0.10360578
000170 0e 12 ac bd c4 96 02 be 0e cb 52 3d 11 a9 9c bd
       -0.08401881 -0.12752825 0.05146318 -0.07649434
000180 1f f7 50 3d 9f 59 2a 3e b6 eb 70 ba 1e b8 26 bc
       0.051016923 0.1663575 -0.0009190397 -0.010175733
000190 e9 bf 98 bc 56 04 02 be b4 e7 f8 3d 23 9e 44 bd
       -0.018646197 -0.12696967 0.12153569 -0.048002373
0001a0 ec d3 88 3e 8e d1 b1 3c 57 61 a9 bd 70 9a e9 3d
       0.26724184 0.021706369 -0.08270519 0.1140641
0001b0 92 98 b8 bd 78 a9 bb bd 81 18 8d bd c9 8e 70 bd
       -0.090134755 -0.09163183 -0.068894394 -0.05872992
0001c0 6e 33 3c 3c 9d e7 e9 bd 84 b0 82 3c a4 25 88 3e
       0.011486871 -0.1142113 0.01595331 0.26591218
0001d0 a1 3d 90 3d 45 15 af bc 6f 22 72 bd 0a 2b 89 bd
       0.07043005 -0.021372447 -0.05911487 -0.06697662
0001e0 2f 50 18 be c2 23 05 be fb ba 52 3e 63 e2 4f 3d
       -0.14874338 -0.13001922 0.2057914 0.05075301
0001f0 59 63 fe bb d9 6a 64 bd c8 1c 79 bd ba c6 1b 3e
       -0.007763308 -0.05576596 -0.060818464 0.15212527
000200 51 32 13 bd 72 eb 8f bd 50 23 da bc 40 91 1d be
       -0.035936657 -0.070273295 -0.026628166 -0.1538744
000210 8a 12 56 bb c8 3f df bc 37 21 d5 ba c8 f5 fd bd
       -0.0032664859 -0.027252093 -0.0016260509 -0.12400395
000220 9c 26 47 3e 77 e6 ce bd 4a b2 b6 bd 4b 13 c8 3d
       0.19448322 -0.101025514 -0.08920725 0.09769305
000230 b5 02 91 bd 27 ca 80 be e8 8e 62 bd 8e 24 a9 bd
       -0.070805945 -0.2515423 -0.055312067 -0.082589254
000240 97 47 c4 bd 2c ef 5d bc 5f 16 42 3e 92 32 ee 3b
       -0.09583967 -0.013545793 0.18953846 0.007269212
000250 fb 87 87 3d 49 0e 0e 3d f4 ae fc bc 97 c9 17 3d
       0.06617733 0.034681592 -0.030845143 0.037057485
000260 4f ea 80 bc da ed 05 be 5e 84 a9 3d 6b 14 96 ba
       -0.015736727 -0.13079014 0.082772 -0.0011450177
000270 80 da b2 3d 84 6e 12 3c 5a 8f cc bb 3f 0f 19 3b
       0.08733082 0.008937482 -0.006242675 0.0023355035
000280 1f d3 23 be ec 1c d9 3c 3c b1 b6 bd 92 fc 98 3d
       -0.15998505 0.026503049 -0.089205235 0.07470049
000290 06 08 22 be 14 96 25 3e a0 6b 47 be d7 0c a3 bd
       -0.15823373 0.16170532 -0.1947465 -0.079614334
0002a0 8d 26 b5 3d c9 51 bb 3d 64 b4 6f 3d a4 59 56 bd
       0.088452436 0.09146459 0.058521643 -0.05233158
0002b0 c5 8c 32 3c 42 49 ef bc 55 64 2b 3e 88 e1 83 3b
       0.01089782 -0.029209737 0.16737492 0.004024688
0002c0 24 09 8c 3d 0b 3e cb bc 8d 38 8b 3e 29 99 53 bd
       0.06837681 -0.024809858 0.27191582 -0.051659737
0002d0 94 a1 03 be 36 49 0d be 95 f5 9b bd 9b f6 06 3e
       -0.12854606 -0.13797459 -0.076152004 0.1318001
0002e0 24 9d a6 3d 09 4a c1 3d 4f fb c8 bd 09 e7 49 3c
       0.08135441 0.09437949 -0.09813558 0.0123231495
0002f0 50 5d f8 bc b4 19 b1 3c a0 c4 be bd fc 2c 71 3d
       -0.030317932 0.021618702 -0.09314847 0.05888079
000300 c7 c6 20 be c8 57 39 be 53 18 97 3d 0f 35 52 3d
       -0.15700828 -0.18099892 0.07377686 0.051320132
000310 db 15 ec 3c 2a 93 12 3d 7d c4 d3 bd e3 e8 dc 3d
       0.028819015 0.035784878 -0.103402115 0.10786607
000320 cb 83 5f 3c 24 0f 0f 3c 90 73 f1 bd 72 99 37 bd
       0.013642262 0.008731637 -0.1178962 -0.04482407
000330 6a cf 2c bd 57 9d bc bd a6 0a 05 3c 28 1b 7c 3d
       -0.042189993 -0.09209698 0.008120215 0.061549336
000340 dc dc 2e bc d1 43 43 3b 4c 97 e2 3a 63 59 75 3d
       -0.010672774 0.002979506 0.0017287522 0.0598997
000350 d5 8d 46 3d 96 f9 12 3e b0 67 08 3e 91 7f d7 bd
       0.048475105 0.14353022 0.13320804 -0.10522378
000360 ba 3e 4f be 06 34 6f 3e 12 b6 70 3d 96 a5 e9 bc
       -0.20238772 0.23359689 0.058767386 -0.02852134
000370 9d 40 0c be 1d 7a fe 3c 88 03 b7 bd 8d e8 10 3e
       -0.13696523 0.031064088 -0.089362204 0.14151211
000380 4d 41 f0 3c d6 5f 1c 3e 3a cb f7 bc 6f e9 c4 bd
       0.029328013 0.15270934 -0.030248273 -0.096148364
000390 b9 d1 08 be 52 4e 8c bd d9 03 e5 bc 11 65 25 be
       -0.13361253 -0.06850876 -0.027955936 -0.16151835
0003a0 40 44 ab ba c0 6c 84 3d 87 7b 92 bc 9d 2c 80 bd
       -0.0013066605 0.06466055 -0.017881168 -0.06258509
0003b0 71 67 50 bd b7 2a 80 3d bc 8e 13 bb c1 9f 20 3c
       -0.0508799 0.06258147 -0.0022515496 0.009803713
0003c0 60 12 21 3b 51 a7 93 bd fe a2 2d bd 5f 51 84 3a
       0.0024577603 -0.072096474 -0.04239177 0.0010095051
0003d0 66 53 db bd 89 59 e1 bc b7 94 17 be ef e3 76 bc
       -0.10709266 -0.027508514 -0.14802824 -0.015068992
0003e0 57 bb 13 bc df bd 81 be ec 81 d3 bd 7d f1 0e 3e
       -0.009016833 -0.25340173 -0.10327515 0.13959308
0003f0 a1 e4 3e 3e 62 cd c0 3d bd 6a f4 3c 7d a2 24 bd
       0.18641903 0.09414174 0.029836053 -0.040194023

network_body._body_endoder.seq_layers.2.bias f4 [128]
000000 50 da 52 3d 15 b4 ea 3b 20 8e 47 3e 93 74 02 3e
       0.05147773 0.0071625807 0.1948781 0.12739782
000010 54 6b 9f 3d 51 f9 84 bd d1 23 d8 3d 0e af cc 3c
       0.07784143 -0.06492866 0.105537064 0.024985816
000020 39 8b 25 be fe a7 1e 3e bb 02 93 bd ad a6 0b 3e
       -0.1616639 0.15493771 -0.07178255 0.136378
000030 14 90 3c bd 3a 5e 17 be 3d 4f 96 3d 09 b4 64 3e
       -0.04603584 -0.14782038 0.07339332 0.22334303
000040 e0 67 00 be 5a f9 02 be 7d 9d 16 be a8 ab 5f 3e
       -0.12539625 -0.12790433 -0.14708515 0.21842825
000050 25 0b 72 bd 32 4b 4c 3e 77 63 b0 3d fa 12 ae bd
       -0.05909266 0.1995056 0.086127214 -0.08499713
000060 d8 80 be 3d c1 46 cc 3d 1e 9f 0f be c9 f9 73 bd
       0.09301919 0.09974433 -0.14025542 -0.059564386
000070 96 bc 83 bd 6e ef c4 bc fc a4 21 3e a5 53 18 be
       -0.06432454 -0.02403995 0.15785593 -0.14875658
000080 64 5a 2e be f8 b0 14 3e 45 61 75 3d 15 8a 02 be
       -0.17026669 0.14520633 0.059907217 -0.12747987
000090 81 c3 1d be 93 5c d5 3c bb 71 17 be 18 de 46 3d
       -0.1540661 0.02604512 -0.14789478 0.04855165
0000a0 df 74 85 bd 04 5c c2 3d 99 90 15 3e 75 ad 01 3d
       -0.06516432 0.09490207 0.14605941 0.031659562
0000b0 a2 17 99 3d d0 4a d1 3d 0d 66 1c 3e 6e 90 a7 bd
       0.07475211 0.102193475 0.15273304 -0.08181845
0000c0 a2 61 0a 3e e2 21 6d bd 74 51 3d bb dd 4e b3 bd
       0.13513806 -0.05789364 -0.0028887661 -0.08755276
0000d0 5a 7a 12 be 27 4c 07 3c 29 55 c2 bd 77 30 15 3e
       -0.14304486 0.008257902 -0.09488899 0.14569269
0000e0 3d 00 c1 bd 79 f1 cb bc 32 17 0f 3e ad d8 2b be
       -0.094238736 -0.024895417 0.13973692 -0.16781874
0000f0 03 a2 0b be 42 40 e6 bd be ef 23 bd 5c e9 6e 3e
       -0.13636021 -0.11242725 -0.040023558 0.23331207
000100 3b f3 99 3d be 7e 0d be 38 cc 09 3e 72 ef 1c be
       0.07517096 -0.1381788 0.1345681 -0.15325716
000110 1d 48 08 3d 77 47 92 bd 48 1b da bd 82 d9 07 3d
       0.033271898 -0.07142537 -0.10649735 0.033166416
000120 76 7b 52 3d 12 30 1a be 06 f3 d6 3d bf 58 c4 3d
       0.051387273 -0.150574 0.10495572 0.095872395
000130 78 77 f8 bd f6 e7 fd bd 7a de 23 be eb c8 1d 3d
       -0.12132162 -0.12397759 -0.16002837 0.03852169
000140 95 2c 1b be f9 fb 20 3e 58 44 4c 3e 65 9b ec bd
       -0.15153725 0.1572112 0.19947946 -0.11553077
000150 9f 91 aa bd be 9a ab 3b 29 4c ee 3d bf d9 9f bd
       -0.08328556 0.0052369526 0.1163562 -0.07805204
000160 d3 29 38 be 48 3c ea bd 1c 1e 53 3e 15 ae e3 bd
       -0.17984705 -0.11437279 0.20616955 -0.11117188
000170 5c 1e f6 3d eb 83 d8 bd ff 55 f5 bd 02 59 c3 bd
       0.12017509 -0.10572036 -0.11979293 -0.09538461
000180 fb 40 5d 3e b4 ff da bd 19 99 44 bd 3a 35 eb 3d
       0.2160682 -0.10693303 -0.047997568 0.114847615
000190 f9 b4 ab 3d 4e 27 ff bd fa 26 13 be 1e c0 db bd
       0.08384127 -0.12458669 -0.14370337 -0.10730003
0001a0 84 f1 0d 3e 77 f6 0e 3e 8e 9a 5b 3d 2f 65 be 3d
       0.13861662 0.13961206 0.05361419 0.09296643
0001b0 f0 2c b1 3d 96 86 bd 3c 40 99 00 3e 3c 1d c6 bd
       0.08651149 0.023135465 0.1255846 -0.09673545
0001c0 77 05 01 3e 20 a8 1f 3e 55 85 01 3e 4c fc c0 bd
       0.12599741 0.15591478 0.12648518 -0.09423122
0001d0 07 45 30 3e b0 a5 fc 3d 2d 9b 0f be 83 ef 21 3e
       0.17213832 0.1233629 -0.14024039 0.15814023
0001e0 4e a6 3b 3e 8e 18 e2 bd ce 2b a5 bd cd 9b e8 3d
       0.18325159 -0.1103984 -0.08064996 0.11357842
0001f0 d9 29 0b 3e e8 a1 31 be ab c2 08 3d 8c e8 a1 3c
       0.13590182 -0.17346919 0.033388775 0.019764207

action_model._discrete_distribution.branches.0.weight f4 [3, 128]
000000 4f 78 63 3c 91 9b 33 bd fd 1d fd 3c 14 81 17 3d
       0.013883664 -0.04384953 0.030898089 0.036988333
000010 f4 d5 be 3c bb 12 43 bc bc 2c 85 3c 0d c8 1b bd
       0.02329538 -0.011906321 0.016256683 -0.03803258
000020 7e 82 93 bd f1 92 01 3d 4f 23 7c bd 67 8a de 3a
       -0.07202624 0.031634275 -0.06155711 0.0016978503
000030 51 ac 34 bc 09 e3 09 bd e1 71 22 3d d9 dd 60 3d
       -0.011027412 -0.033663783 0.039659385 0.05489907
000040 da 4a 9a bd a3 1b 7a bd 19 af 88 bd 25 83 39 3d
       -0.07533808 -0.061061513 -0.06674022 0.045291085
000050 2a f9 03 bd 7f 05 a5 3d f0 fa 13 3d a1 fb 05 bd
       -0.032220043 0.08057689 0.036127985 -0.032710675
000060 84 c1 fa bb ce d8 bd 3a 68 43 86 bd ea 12 24 3d
       -0.0076524634 0.0014484168 -0.065558255 0.0400571
000070 92 4b 20 bd 9b 41 96 bd 99 1e a1 3c 8b a7 91 bd
       -0.03913457 -0.07336732 0.01966791 -0.071120344
000080 b1 21 86 bd 65 88 22 3c 73 07 75 3c 21 ba 8a bc
       -0.06549395 0.009920214 0.014955389 -0.016934456
000090 5e 6e b7 bd d8 6f 6c bc 3d ef 9e bd db 93 2e 3c
       -0.08956598 -0.0144309625 -0.07760475 0.010655369
0000a0 4c 7f b6 3b 98 34 6d bd 57 14 0c 3d 5d 28 1a 3c
       0.005569374 -0.057911485 0.034199085 0.009409037
0000b0 31 d9 14 3d 7b aa b5 bc 74 2c 36 3c b1 ac 7d 3c
       0.036339942 -0.022176018 0.011118997 0.015483067
0000c0 ff 7a 28 3d 02 62 76 bd 27 3b 1a 3d 59 be 31 bd
       0.041132923 -0.06015206 0.03765407 -0.04339442
0000d0 0e 26 a4 bd 85 39 54 3c f4 0d 3e bd 8d fe ad 3b
       -0.08015071 0.012953167 -0.046400025 0.005309886
0000e0 7d dd 6c bd 1c 13 e6 3c 76 46 95 3c 01 d4 93 bd
       -0.057828415 0.028085284 0.018222075 -0.07218171
0000f0 ce 37 a1 bd 58 81 30 bd 39 d1 bc bb 7a bd 8e 3d
       -0.07871972 -0.0430921 -0.005762246 0.069697335
000100 01 a7 1b 3c 4b 3a 92 bd 41 04 89 3d 03 e1 c9 bd
       0.009500266 -0.07140025 0.066902645 -0.09857371
000110 ad e4 b4 3c 23 e0 34 bd 62 12 b7 bd 7b b1 17 3d
       0.022081697 -0.044159066 -0.08939053 0.037034493
000120 af f0 91 3c d8 4e c2 bd 73 c5 2d 3d dc 09 c9 3c
       0.017814962 -0.094876945 0.04242463 0.024540834
000130 53 17 b2 bb 73 58 a4 bd e4 1d a8 bd b9 53 72 bd
       -0.0054349094 -0.08024683 -0.08208826 -0.059161875
000140 43 05 82 bd 31 fb ab 3b 45 af 1a 3d c0 b5 50 bd
       -0.0634866 0.00524845 0.037764806 -0.05095458
000150 36 7d 81 bd 11 a2 3c bd ff c0 4f 3c 69 fe dd bc
       -0.0632271 -0.046052996 0.012680291 -0.027098851
000160 bf 83 c7 bd e2 e5 31 bc b2 35 0b 3d b4 4d 0a bd
       -0.097419254 -0.010858031 0.033986755 -0.03376551
000170 aa 71 a1 3c 5c 76 95 bd 00 0e 90 bd 14 3b b2 bd
       0.01970752 -0.07297966 -0.0703392 -0.087026745
000180 6a 7d 2f 3d 5f ed 47 bd 49 45 63 bc 85 88 7b 3b
       0.042844214 -0.04881036 -0.013871499 0.0038380933
000190 cd c8 e6 3c 97 e2 9c bd 9e 18 73 bd 8c e0 90 bd
       0.028171921 -0.07660406 -0.05934965 -0.07074079
0001a0 61 6f 70 3d 5e ae 87 3b 32 86 85 3c 9a aa 39 3c
       0.05869997 0.0041406592 0.01629934 0.0113321785
0001b0 a1 78 3f 3d 4d 82 e6 3c 00 c2 20 3d 20 27 9f bd
       0.0467459 0.028138304 0.039247513 -0.077711344
0001c0 7e c1 c9 3c e4 f0 f6 3c 5a 10 53 3c 6f 6d 4e bd
       0.024628397 0.030144162 0.0128823165 -0.050397333
0001d0 cb 02 0c 3d 65 25 38 3b 44 b3 a2 bd b2 16 9c 3d
       0.03418235 0.002809846 -0.079443485 0.07621516
0001e0 c2 2b 89 3c 9e 4e bc bc 7b ab 9f bd e0 29 1c 3d
       0.016744498 -0.022986706 -0.07796379 0.038125873
0001f0 a9 dd 85 bc 4f b9 a6 bd 57 b3 db bb bc 9d 87 3c
       -0.016341047 -0.081408136 -0.0067047286 0.016554706
000200 88 5e 02 3b df e3 af 3c 81 7a 4f 3d 71 a1 c9 ba
       0.001989277 0.021470962 0.05065394 -0.0015383196
000210 ee 28 1d 3c 21 12 02 bb 52 94 f4 3c 33 80 45 3b
       0.009592278 -0.0019847231 0.02985588 0.0030136227
000220 e2 e9 42 bd 99 20 56 3d be 20 10 bc c9 fe 23 3d
       -0.04758633 0.05227718 -0.008796869 0.040037904
000230 50 0a 53 bb 5e 6f 8a bc aa f3 67 3b d5 8d 07 3c
       -0.0032202192 -0.016898807 0.0035393038 0.0082735615
000240 4f 18 d6 bc 4c 43 61 3c 9b 3f a7 bb 74 23 e1 3c
       -0.026134638 0.013748955 -0.005104018 0.027482726
000250 f5 5a 3b 3b 3b f8 5d 3c 15 e5 68 3b c7 91 cf bc
       0.002858815 0.013547952 0.0035536934 -0.025338067
000260 b9 88 1b 3d 96 f4 b1 3c 41 03 a1 bc 62 e8 8e bd
       0.037972186 0.021723073 -0.019654872 -0.06977917
000270 2c 84 07 bd 32 4c fa 3c b2 8c 22 3d df e2 2f bd
       -0.033085033 0.03055391 0.03968496 -0.04294097
000280 ab 16 1e bd fa 6f 30 3c 07 89 08 bc 2d d6 ce bc
       -0.038595837 0.010768885 -0.008333451 -0.025248611
000290 ac 5d 0c bd 69 f6 e5 3c 6e 23 e4 bc 9d 67 00 3b
       -0.03426902 0.0280716 -0.027848925 0.0019593008
0002a0 77 09 ca bb 0f 16 8b 3d 0b c7 e1 ba b7 ee 48 3a
       -0.006165679 0.06791317 -0.0017225457 0.0007664966
0002b0 00 25 a5 bc da 2a 5c 3d 9f e9 a3 3c 48 ff 27 bd
       -0.020159245 0.053751804 0.02000886 -0.04101494
0002c0 3b bb ec 3b d4 3e 39 bb bd 30 2d bd b7 12 b8 3b
       0.007224468 -0.0028266208 -0.04228281 0.0056174654
0002d0 58 55 02 bd 9e 93 9e bc 95 8c 75 3c 39 e1 78 3d
       -0.03181967 -0.019357499 0.014987131 0.060761664
0002e0 d3 f8 43 bc 30 46 90 bc 60 e6 24 3d c6 a7 a5 bc
       -0.01196118 -0.017611593 0.040258765 -0.020221602
0002f0 b6 c0 22 bc 41 4e a7 ba 49 8f c7 bb 22 3b b9 3c
       -0.009933641 -0.001276441 -0.006090079 0.022611205
000300 30 56 8d 3c 92 56 3b bc 40 10 aa bc 14 f5 b1 bc
       0.017253011 -0.011434214 -0.020759702 -0.021723308
000310 96 87 bf bb 36 f6 19 bd ff 78 9b 3a cf 6f 84 bc
       -0.0058450205 -0.03758832 0.0011861621 -0.016166596
000320 87 50 0a 3b ab 0e cc 3b 00 33 78 3b 68 0d 68 bb
       0.0021105127 0.0062273345 0.0037872195 -0.0035408381
000330 ca b5 36 bd 09 96 37 bd 0c 91 cc bc 1c 03 1d 3d
       -0.04460696 -0.04482082 -0.024971507 0.038333043
000340 39 19 06 bb 41 57 d7 3c 01 9b 8f 3d f5 6c dc 3b
       -0.0020461811 0.026286723 0.070119865 0.006726856
000350 7d 29 13 bd 0c 67 ec 3b 19 e3 34 3c 2d c0 97 3c
       -0.03592824 0.0072144326 0.011040472 0.018524254
000360 ea ce 89 3b 78 ed 1e bc 6d 2e ee 3a 5f 8c bb bb
       0.0042055743 -0.009700172 0.0018171795 -0.0057235206
000370 bf ed 40 3d 17 07 4e bc 6d 04 62 3a 3a 6e 2d bd
       0.047101732 -0.012574933 0.00086218753 -0.04234145
000380 67 cf f6 3c 3e f6 81 3c 97 9a d1 ba be 5b 01 3d
       0.030128194 0.015864488 -0.0015991506 0.031581633
000390 59 8c e2 3c 97 f3 b8 bc 7f f8 0a 3c 3f 29 47 bb
       0.027654814 -0.02257709 0.008482098 -0.0030389575
0003a0 7d 32 48 3c df a1 47 3d 80 1f 5a bc 64 78 ce 3c
       0.012219069 0.048738357 -0.013313174 0.025203891
0003b0 15 45 43 bc 3c ab 90 bc ec 43 0f 3b 57 45 29 bd
       -0.011918326 -0.017659776 0.0021860553 -0.041325893
0003c0 fd 0f da 3c e5 12 d7 3c 9c 36 4e 3c b9 b6 eb bc
       0.026618952 0.026254127 0.012586262 -0.028773652
0003d0 a6 d8 c3 3c 7d c1 14 3d 79 c6 0e bd a8 99 8d bc
       0.023907017 0.036317337 -0.034857247 -0.017285183
0003e0 58 36 bb 3d 86 4e f9 bc 36 c2 2a bb 3b 0b be bc
       0.091412246 -0.03043295 -0.00260557 -0.023198714
0003f0 78 78 79 3d dd f8 c8 bc 85 90 56 3c 57 be 97 bc
       0.060905904 -0.02453273 0.01309598 -0.018523378

action_model._discrete_distribution.branches.0.bias f4 [3]
000000 32 b4 b1 3d e4 c6 34 3d 4c 68 19 be
       0.08676948 0.04413499 -0.14981192

action_model._discrete_distribution.branches.1.weight f4 [3, 128]
000000 3c 97 16 3d f1 f3 28 3d 2d 31 68 bb 50 6b 53 bd
       0.036765322 0.041248266 -0.0035429702 -0.051616013
000010 f4 8a 0e 3b 21 87 40 3d 0a 8c 72 3c 23 68 f6 3c
       0.0021750303 0.04700387 0.014803896 0.030078953
000020 95 21 a6 3c c2 c5 e0 3c e8 b0 ac 3c bd bf 72 bc
       0.020279685 0.027438048 0.02108045 -0.014816222
000030 74 6b a4 bc cc ef 3d bc be 6a e8 3b a7 da 42 bc
       -0.020070769 -0.011592817 0.007092803 -0.011892951
000040 9a 53 3b 3c a1 6e 16 b9 b9 4b 92 3c 39 46 ab bc
       0.011433506 -0.00014346327 0.017858373 -0.020907508
000050 e1 4d 13 3d 4f f6 90 bc a3 2e 4f bd 2f c8 3e bc
       0.035962943 -0.017695574 -0.050581586 -0.011644407
000060 c6 33 9e bb bb 1d c2 3c e2 35 ff 3c 41 47 62 3d
       -0.004827949 0.023695817 0.031153623 0.055243734
000070 93 b1 74 3c 88 42 9b 3c 61 8e 4b 3d b1 0f 59 3a
       0.014934915 0.018952623 0.04969633 0.0008280231
000080 85 a4 15 3d af 09 7a bb 85 d6 8f bc 66 12 68 bc
       0.03653385 -0.0038152745 -0.017558346 -0.014164543
000090 30 f1 55 3c 56 25 7a 3d c8 62 0d 3b 19 f9 5b 3b
       0.013057992 0.061070763 0.002157377 0.0033565222
0000a0 68 c5 82 3c 1a 0c 4b 3c c1 5d db bb 91 48 40 3c
       0.015963271 0.012393022 -0.006694526 0.011736051
0000b0 41 02 60 bc 9d be f9 3c ed b7 27 bb b7 34 3b bd
       -0.013672412 0.0304864 -0.0025591806 -0.04570457
0000c0 19 14 e3 bc 9f 2e 30 3d 7a 2c 32 bd bb c9 31 3d
       -0.027719544 0.04301321 -0.043499447 0.043405276
0000d0 59 05 f7 3a b0 01 34 bc de 25 41 bc 73 be fa 3c
       0.0018846198 -0.01098673 -0.011788813 0.030608391
0000e0 23 ec 1a 3d ad 6d 81 bc da cb f6 3c d5 8c b5 3c
       0.037822854 -0.015799368 0.0301265 0.02216188
0000f0 69 2d c2 bb 40 9c ea bc 80 c6 20 3d 58 51 05 bd
       -0.0059258235 -0.028638959 0.039251804 -0.03254828
000100 42 e0 b6 bb 14 77 4e 3d d9 5b 36 bd a2 05 f6 3b
       -0.005580933 0.05040653 -0.044521187 0.0075079957
000110 2d 7d 1f 3b d0 c1 17 3d a7 41 ab 3d 48 92 2c bd
       0.0024336085 0.03705007 0.083621316 -0.042131692
000120 1d ed 41 bd 4c 0f 65 3d 38 ce 04 bd 41 25 8c bc
       -0.04734527 0.05592279 -0.032423228 -0.017107608
000130 b7 68 21 3d 2c 50 1a 3d 50 1b b3 3c df 26 0c 3c
       0.039406504 0.037674114 0.02186361 0.0085541895
000140 70 0d f4 3c 79 69 ac ba 84 db 02 bc da d8 41 3d
       0.029791564 -0.0013153992 -0.007986907 0.047325946
000150 e7 5b 26 3c 06 1f ae 3b 36 62 70 3c 8a 4e 0e 3c
       0.010153747 0.005313757 0.014671853 0.008685717
000160 1b 4e 33 bb 5f 63 19 bb 17 65 f8 bc 9c ca ce 3c
       -0.0027359787 -0.0023405177 -0.03032164 0.025243096
000170 a2 b3 44 3a 1d 7e 43 3d f0 d4 94 3c 57 b3 6d 3c
       0.0007503574 0.047727693 0.018167943 0.01450809
000180 f9 97 8a 3c 79 ae fc 3c 29 d0 75 bc a7 fb 52 3c
       0.01691817 0.030844914 -0.0150032425 0.012877381
000190 1a 46 97 bd 15 d4 d1 3c 56 93 de 3b fb 6e 60 3d
       -0.07386418 0.025613824 0.006792466 0.05479334
0001a0 56 a8 fe 3b 76 26 8c 3c 15 ac 0d bb 3d 77 81 3c
       0.007771532 0.017108183 -0.0021617461 0.015803928
0001b0 2a e4 54 bd 5e cd 7c ba 8f de a3 bc 3a 54 ac bb
       -0.051975407 -0.0009643639 -0.020003585 -0.005259064
0001c0 66 98 a9 bb 2d 25 dd bc 60 16 cb 3b 13 69 82 3c
       -0.005175638 -0.026995266 0.0061977357 0.015919244
0001d0 04 5b 15 3c af b1 90 3c a6 b2 7f 3c 50 f6 2f bd
       0.009115938 0.017662851 0.015606558 -0.04295951
0001e0 0b 02 c1 3a 65 86 03 3d a6 e0 43 3d ab 5c ef 3b
       0.001472534 0.03211059 0.047821663 0.007304748
0001f0 8f 4f ef 3c 84 5f f2 3c 04 e3 22 3c 82 9f bb bc
       0.029212741 0.029586561 0.00994182 -0.022903208
000200 43 07 ad 3c 72 38 46 3d d6 3e 80 bb 0b bd 0e bd
       0.021121627 0.048393674 -0.0039137406 -0.034848254
000210 2c 34 80 bc 7c 8a 3b bc 10 2b 8a 3c 99 47 cf 3d
       -0.015649877 -0.0114465915 0.016866237 0.10121078
000220 ee 98 21 bc 8d b2 67 bc fe 6a 6c 3c 44 03 98 bd
       -0.009863121 -0.014141691 0.014429806 -0.07422498
000230 ff 61 5b bd 2a 8c cf 3c bb a3 08 bd 3b 4b 90 3d
       -0.053560253 0.02533539 -0.03335927 0.07045599
000240 86 66 2b bd e9 a1 83 3c 2c e2 e1 39 cc 2a 92 3d
       -0.04184582 0.016068416 0.00043083855 0.07137069
000250 01 46 09 3d f1 7e 81 3d 4a 3d 24 bc 2e 29 ee bc
       0.033514027 0.0632304 -0.010024378 -0.02907237
000260 e7 c7 3c bd 59 45 18 bc 59 a0 7d 3b 1b 17 22 3b
       -0.04608908 -0.0092938775 0.003870031 0.002473301
000270 af 39 c8 bd 81 2c 16 bd b2 0b b3 3c d7 cf ba bb
       -0.09776627 -0.036663536 0.021856163 -0.005701046
000280 0e 92 57 3c fd 0b eb 3b 14 71 d9 3c 48 d8 1d bc
       0.013157381 0.00717306 0.026543178 -0.009634085
000290 3f 41 27 ba b1 a7 00 bc de 2b d0 bc 19 f1 18 3a
       -0.0006380267 -0.007852481 -0.025411543 0.0005834266
0002a0 c2 98 3e bc f0 97 a9 bd 53 fd 2f 3c ec 40 19 3c
       -0.0116331 -0.08280933 0.01074155 0.0093538575
0002b0 ca 92 03 3a 91 11 ca bc d3 c6 62 3d 53 37 2f bd
       0.00050191267 -0.02466658 0.055365395 -0.04277737
0002c0 5f ee b1 bc b4 2d 06 3d 13 e1 b6 bc b9 9f 6f 3b
       -0.02172011 0.03275843 -0.02232412 0.0036563708
0002d0 9c 31 53 bc 1c 59 8d 3c 7c 5c 4e bc d1 ce dc 3c
       -0.012890246 0.017254405 -0.012595292 0.026954086
0002e0 ad e2 8c 3c 19 6d 8e bd 1f de 36 3d 47 72 05 3c
       0.017197931 -0.069544025 0.044645425 0.008144922
0002f0 61 7e 81 bc 38 6c 5c bd 59 a1 66 3c 6b 95 83 3d
       -0.015807332 -0.053814143 0.014076554 0.064249836
000300 f3 38 05 3d 11 39 d8 bb d5 8c 82 bc 2c 0a a4 3b
       0.032525014 -0.0065985997 -0.015936295 0.0050060954
000310 ed 5d aa 3d 3d 3c 69 3d 90 15 db bb 4a a5 40 bd
       0.08318696 0.056942213 -0.00668592 -0.047032632
000320 f0 8f 34 bd 6e 67 2b 3b 0c 33 12 bd dc 91 16 bd
       -0.044082582 0.0026154178 -0.035693213 -0.036760196
000330 0a ae 31 bb cc 88 8a 3b 73 bc 80 3c 65 40 d4 3c
       -0.0027111792 0.0042277332 0.01571486 0.025909612
000340 af 98 b7 ba 26 1a 32 3b a1 d2 15 bd 06 01 64 3c
       -0.0014007295 0.002717623 -0.036577825 0.01391626
000350 53 25 80 3d c6 f5 c5 3d e1 03 ff 3d ac cc ec 39
       0.06257119 0.09666018 0.12451912 0.0004516592
000360 7c 7a ea ba d8 de ce bb 1c c8 e3 bb ad c9 05 bc
       -0.0017889286 -0.006313186 -0.006951345 -0.008165759
000370 f6 a9 b8 bc 0e ef 46 bc 55 70 b2 bc 48 ce 55 bc
       -0.022541981 -0.012141956 -0.02178208 -0.01304967
000380 9d d5 a3 ba d4 d0 8b bc 58 cb 00 bd 5e 67 3f 3d
       -0.0012499575 -0.01706735 -0.031443924 0.046729438
000390 85 89 66 bc 06 ce 3b 3c 8e 0d af 3c 40 af 3c bc
       -0.014070873 0.011462694 0.021368768 -0.011516392
0003a0 31 f3 9b bc 79 2c 6c bc 30 2e 94 bc 34 70 1d 3d
       -0.019036861 -0.0144149 -0.01808843 0.038437083
0003b0 88 c2 61 3c 81 da 91 bc f7 00 8f bc cb 32 a1 bd
       0.01377929 -0.017804386 -0.017456515 -0.07871016
0003c0 b5 90 2a 3d ee 16 21 bb 4b 8b 63 3d f5 b0 8d 3b
       0.04164191 -0.0024580318 0.055552762 0.0043240734
0003d0 ca df dc 3c 68 c9 2c 3d 03 9e 41 bb 03 ee a6 3a
       0.02696218 0.042184263 -0.0029543645 0.0012735728
0003e0 ef 92 9e bc cc e0 11 3d a8 09 e3 3b ec 0c ec 3d
       -0.019357173 0.035614774 0.0069286413 0.11525902
0003f0 46 1f 9e 3d a9 c8 c7 bb b5 60 77 bc e4 65 7a bc
       0.07720809 -0.0060969186 -0.01509874 -0.015283082

action_model._discrete_distribution.branches.1.bias f4 [3]
000000 14 14 91 bc d7 c1 69 ba e8 a3 8e 3c
       -0.01770977 -0.0008917129 0.017412141

onnx::Div_78 f4 [14]
000000 0a 06 30 3e a6 6f 2f 3e d9 2c 6e 3e 4b 66 53 3e
       0.17189804 0.17132434 0.23259296 0.2064449
000010 65 5d 62 3e 46 96 4d 3e 70 d7 8e 3d 7a 83 bf 3d
       0.2210594 0.20076856 0.06974685 0.09351249
000020 a1 ff 76 3d 8a ec b3 3d bc 19 c4 3c 89 dc 61 3d
       0.06030238 0.087853506 0.023938052 0.05514196
000030 0e 14 ce 3c 88 18 46 3d
       0.025156047 0.04836324

onnx::Div_81 f4 [8]
000000 eb 10 d7 3f 71 05 d4 3a 63 b6 89 41 51 af 1d 40
       1.6802038 0.0016175938 17.214056 2.4638255
000010 cf 33 fe 3a c6 5d 87 41 16 fb 41 41 1d f9 82 3f
       0.0019394102 16.920788 12.1238 1.0232273
