results/RoadExt1.0/CarAgent/CarAgent-32423.pt (torch, 504287 bytes, 56 tensors)

discrete_act_size_vector f4 [1, 2]
0	0x40400000	3.0
1	0x40400000	3.0

network_body.observation_encoder.processors.0.normalizer.running_mean f4 [14]
0	0x3cf38a16	0.02972893
1	0x3e7f008f	0.24902557
2	0x3d63c3b1	0.055606548
3	0x3e8ebbf5	0.27877775
4	0x3d524997	0.051339712
5	0x3e89e34b	0.26931223
6	0x3b9672d5	0.0045913258
7	0x3e85cdda	0.26133615
8	0x3b609bf8	0.0034272652
9	0x3e7b15dc	0.24520057
10	0x3a0caa10	0.00053659175
11	0x3e80e760	0.25176525
12	0x3a1b6954	0.0005928476
13	0x3e65d1f2	0.22443369

network_body.observation_encoder.processors.0.normalizer.running_variance f4 [14]
0	0x46505217	13332.522
1	0x465149ba	13394.432
2	0x46bd9fd6	24271.918
3	0x4697083e	19332.121
4	0x46afdda2	22510.816
5	0x46917b7a	18621.738
6	0x45041420	2113.2578
7	0x4575ee01	3934.8752
8	0x44c57253	1579.5726
9	0x45604685	3588.4075
10	0x4378ddf6	248.86703
11	0x44b01c98	1408.8936
12	0x43896b38	274.83765
13	0x448bae52	1117.4475

network_body.observation_encoder.processors.1.normalizer.running_mean f4 [8]
0	0xbf27de10	-0.65573215
1	0xb8088afe	-3.2554373e-05
2	0x3fdf1fc8	1.7431574
3	0xbf3ffef7	-0.7499842
4	0x3ef5ace6	0.47983474
5	0x40da6487	6.8247714
6	0x4151ab18	13.104271
7	0xbe91fb63	-0.28512105

network_body.observation_encoder.processors.1.normalizer.running_variance f4 [8]
0	0x49a3ba85	1.3412646e+06
1	0x3f9677e4	1.1755338
2	0x4d045335	1.3875285e+08
3	0x4a2cb99d	2.8299272e+06
4	0x40a602f7	5.187862
5	0x4cffb625	1.3406647e+08
6	0x4c8fb81e	7.535026e+07
7	0x48f355cb	498350.34

network_body.processors.0.normalizer.running_mean f4 [14]
0	0x3cf38a16	0.02972893
1	0x3e7f008f	0.24902557
2	0x3d63c3b1	0.055606548
3	0x3e8ebbf5	0.27877775
4	0x3d524997	0.051339712
5	0x3e89e34b	0.26931223
6	0x3b9672d5	0.0045913258
7	0x3e85cdda	0.26133615
8	0x3b609bf8	0.0034272652
9	0x3e7b15dc	0.24520057
10	0x3a0caa10	0.00053659175
11	0x3e80e760	0.25176525
12	0x3a1b6954	0.0005928476
13	0x3e65d1f2	0.22443369

network_body.processors.0.normalizer.running_variance f4 [14]
0	0x46505217	13332.522
1	0x465149ba	13394.432
2	0x46bd9fd6	24271.918
3	0x4697083e	19332.121
4	0x46afdda2	22510.816
5	0x46917b7a	18621.738
6	0x45041420	2113.2578
7	0x4575ee01	3934.8752
8	0x44c57253	1579.5726
9	0x45604685	3588.4075
10	0x4378ddf6	248.86703
11	0x44b01c98	1408.8936
12	0x43896b38	274.83765
13	0x448bae52	1117.4475

network_body.processors.1.normalizer.running_mean f4 [8]
0	0xbf27de10	-0.65573215
1	0xb8088afe	-3.2554373e-05
2	0x3fdf1fc8	1.7431574
3	0xbf3ffef7	-0.7499842
4	0x3ef5ace6	0.47983474
5	0x40da6487	6.8247714
6	0x4151ab18	13.104271
7	0xbe91fb63	-0.28512105

network_body.processors.1.normalizer.running_variance f4 [8]
0	0x49a3ba85	1.3412646e+06
1	0x3f9677e4	1.1755338
2	0x4d045335	1.3875285e+08
3	0x4a2cb99d	2.8299272e+06
4	0x40a602f7	5.187862
5	0x4cffb625	1.3406647e+08
6	0x4c8fb81e	7.535026e+07
7	0x48f355cb	498350.34

network_body._body_endoder.seq_layers.0.weight f4 [128, 22]
0	0x3ec3ee69	0.3826783
1	0xbe5b19b2	-0.2139652
2	0xbddc1338	-0.10745853
3	0x3e2683c7	0.16261207
4	0x3dbd1159	0.092318244
5	0x3dcb20ea	0.09918387
6	0x3e590da3	0.21196608
7	0x3d54d75e	0.051963203
8	0x3da95cb1	0.082696326
9	0xbd7e04c4	-0.062016264
10	0x3d951183	0.07278731
11	0xbeb3804f	-0.3505883
12	0x3ce0ad3c	0.027426355
13	0xbc4a8362	-0.012360426
14	0x3d87d5d9	0.06632585
15	0xbf16eccf	-0.5895509
16	0xbcd17220	-0.025567114
17	0xbe509f60	-0.20373297
18	0x3e76cf10	0.24102426
19	0x3e1d1819	0.15341224
20	0x3cb2996e	0.021801677
21	0xbd328446	-0.043583177
22	0x3dd6b0d4	0.10482946
23	0x3df32fd2	0.118743554
24	0xbd9914d4	-0.07474676
25	0x3b5ed6d4	0.003400256
26	0xbd926f5d	-0.07150147
27	0xbeff340d	-0.498444
28	0xbd00b52a	-0.03142277
29	0x3e511156	0.2041677
30	0x3df03844	0.11729482
31	0xbe4c132d	-0.1992919
32	0x3dbbe99c	0.09175417
33	0xbdc5547a	-0.09635253
34	0xbdefc7e3	-0.11708047
35	0x3e05f874	0.13083059
36	0xbe7353c7	-0.23762427
37	0xbe5c6ee4	-0.21526676
38	0x3e507733	0.20357971
39	0xbd56446c	-0.052311346
40	0x3c1adf94	0.009452719
41	0xbe972ac9	-0.2952483
42	0xbed7968b	-0.42107043
43	0x3d456a64	0.048197165
44	0x3d69c184	0.057069317
45	0x3e06b16d	0.1315362
46	0xbe69efc1	-0.22845365
47	0x3ed73119	0.42029646
48	0xbe79a7c0	-0.24380398
49	0xbe768acc	-0.24076384
50	0xbe7e3279	-0.24823941
51	0x3d4953d1	0.0491522
52	0x3dceb0ad	0.10092292
53	0x3d95b499	0.07309837
54	0x3dabb280	0.083836555
55	0xbe636fdd	-0.22210641
56	0xbe06ed12	-0.13176373
57	0xbd0ee4f9	-0.034886334
58	0xbd8a2f63	-0.067473195
59	0x3e18106f	0.14850019
60	0x3b61a61e	0.003443129
61	0x3d89c3fd	0.06726835
62	0x3e97bf42	0.29638106
63	0x3ed41eed	0.41429844
64	0xbf389206	-0.72097814
65	0x3ece88d8	0.40338778
66	0xbe8b7b6a	-0.27242595
67	0x3e48ba27	0.19602261
68	0x3dd3207f	0.103089325
69	0xbe1f0d1e	-0.15532348
70	0x3cd64278	0.026154742
71	0xbe003176	-0.12518868
72	0xbe9179d2	-0.28413254
73	0xbc64bbb3	-0.013960767
74	0xbd08616b	-0.03329603
75	0xbdf26e64	-0.118374616
76	0x3e98716a	0.29774028
77	0x3e47b7ca	0.19503704
78	0xbe07f9f8	-0.1327895
79	0x3e97f6d6	0.29680508
80	0x3e57c106	0.21069726
81	0x3ea48f17	0.3214042
82	0x3e60a862	0.21939233
83	0xbd3e2276	-0.046419583
84	0xbda7d0fe	-0.08194159
85	0x3e061c92	0.13096836
86	0xbe5b5448	-0.2141887
87	0x3e790371	0.24317719
88	0x3e1faad9	0.15592517
89	0xbe983c53	-0.29733524
90	0x3d2bdf5b	0.041961055
91	0x3e92d8e1	0.2868109
92	0x3e67e72b	0.22646777
93	0x3dc836af	0.09776055
94	0x3c48515c	0.012226429
95	0x3d5704e6	0.052494906
96	0x3ed2a098	0.41138148
97	0xbe56fd60	-0.20995092
98	0x3e512f5a	0.2042822
99	0x3be9f502	0.007139803
100	0x3e7c96b4	0.24666864
101	0x3d161307	0.03663924
102	0x3d3893b1	0.045062725
103	0xbe2edb79	-0.1707591
104	0xbeafd308	-0.34340692
105	0xbd339a67	-0.04384842
106	0xbe1c93ec	-0.15290803
107	0xbeb13dbc	-0.34617412
108	0x3e4a605c	0.1976332
109	0x3e0a8cf8	0.13530338
110	0x3e89466c	0.2681154
111	0xbddfdf2e	-0.1093124
112	0xbeb4f1db	-0.3534077
113	0xbe3bec90	-0.1835196
114	0xbe65193b	-0.22372906
115	0xbcc8d46f	-0.024515359
116	0x3ec679ba	0.38764745
117	0xbe69c2db	-0.22828238
118	0xbe622427	-0.22084104
119	0x3e660185	0.22461517
120	0x3da9a088	0.08282572
121	0x3eae99d8	0.34101748
122	0xbe4af07b	-0.19818299
123	0xbe79e4e9	-0.24403729
124	0xbe865278	-0.26234794
125	0xbdb61559	-0.088907905
126	0x3f0b3ef2	0.5439292
127	0x3d20e71f	0.039282914
128	0xbe2c90ef	-0.16852163
129	0xbd691cec	-0.056912348
130	0x3ec3dd2a	0.38254672
131	0x3d15db87	0.03658631
132	0x3ecf0bfc	0.4043883
133	0x3ebea766	0.3723709
134	0xbb90a4b2	-0.0044141645
135	0x3e658ed9	0.22417773
136	0xbccf1ef2	-0.02528331
137	0x3db98b62	0.09059788
138	0xbe0607c8	-0.13088906
139	0x3e319e0c	0.17345446
140	0xbe05ba6b	-0.13059394
141	0x3e5aac9f	0.21354912
142	0xbe343852	-0.1759961
143	0x3e9f1731	0.3107238
144	0x3e3f15ae	0.18660614
145	0x3dc99e9c	0.098447055
146	0xbe2ec7fb	-0.17068474
147	0x3e293f9e	0.16528174
148	0x3e972e1c	0.29527366
149	0x3e19c3c1	0.1501608
150	0xbe2ff982	-0.17185023
151	0x3c1693cb	0.00919051
152	0xbecc3c5e	-0.39889807
153	0x3d97ea98	0.07417792
154	0x3e667841	0.2250681
155	0x3e2af2c5	0.16694172
156	0xbee9811e	-0.4560632
157	0xbd70eb55	-0.05881818
158	0xbe443c70	-0.1916368
159	0xbe36e17f	-0.17859457
160	0x3e96bf2b	0.29442725
161	0x3d8ac3b4	0.06775609
162	0xbdd2cf9b	-0.10293504
163	0x3e028297	0.12745129
164	0xbe33e136	-0.1756638
165	0xbe878cc6	-0.2647459
166	0xbc530e6e	-0.012881858
167	0x3e82b629	0.25529602
168	0xbe691591	-0.22762133
169	0xbdaa41ae	-0.08313309
170	0x3e052073	0.1300066
171	0x3de85ba8	0.11345607
172	0xbe7171e9	-0.2357861
173	0x3e2da6d2	0.16958168
174	0xbe1cfda5	-0.15331133
175	0xbea6b24d	-0.32557908
176	0xbe61a850	-0.22036862
177	0xbe573784	-0.21017271
178	0x3ed58e63	0.41710195
179	0x3ed246ae	0.4106955
180	0xbc50b0d6	-0.0127374735
181	0x3e23a2f5	0.15980132
182	0xbe492a5e	-0.19645068
183	0xbf0e9ac3	-0.557049
184	0x3e0b4bc6	0.13603124
185	0xbda9a13e	-0.08282708
186	0x3eb4bd24	0.35300553
187	0x3e550091	0.20800997
188	0x3c817485	0.015802631
189	0x3df5212e	0.11969219
190	0x3e983f5a	0.29735833
191	0xbe03ad40	-0.12859058
192	0x3d370ea0	0.04469168
193	0x3d9ff755	0.07810847
194	0xbe64c291	-0.22339846
195	0x3e688c79	0.22709836
196	0xbdcc770a	-0.099836424
197	0xbe87c323	-0.26516065
198	0x3d86fcfa	0.0659122
199	0x3e28b92d	0.16476889
200	0xbe01b2fa	-0.1266593
201	0xbeb9d79e	-0.36297315
202	0xbe327fad	-0.17431517
203	0xbe5dd9d2	-0.21665123
204	0x3ddec731	0.108778365
205	0x3e5a83a2	0.21339276
206	0x3b1a03c3	0.0023500777
207	0xbe652f4b	-0.22381322
208	0x3e1c3f72	0.15258577
209	0xbdbcbd05	-0.0921574
210	0x3ef50d7e	0.47861856
211	0x3d48575a	0.04891143
212	0x3d5e3811	0.054252688
213	0x3f1e8030	0.6191435
214	0x3d30ddda	0.043180324
215	0xbdc25d1a	-0.09490414
216	0x3eb3cc94	0.35117018
217	0x3e6bc9da	0.23026219
218	0xbe5f7d01	-0.21825029
219	0x3ef847f4	0.48492396
220	0xbd01d475	-0.031696755
221	0x3edd8ed6	0.43273038
222	0xbe4a47ab	-0.19753902
223	0x3e62a82e	0.22134468
224	0x3db06888	0.08613688
225	0x3e040267	0.12891541
226	0x3e003a96	0.12522349
227	0xbec1df39	-0.37865618
228	0x3eb43e34	0.35203707
229	0x3de604b0	0.11231363
230	0xbee8f8e4	-0.45502388
231	0x3cdaacdf	0.02669376
232	0xbe57fffc	-0.21093744
233	0xbcf2eb03	-0.029653078
234	0xbdb8d92e	-0.09025799
235	0xbe125c89	-0.14293112
236	0xbdcf0dde	-0.10110067
237	0xbda68e34	-0.08132592
238	0xbe40b401	-0.18818666
239	0x3ea693e0	0.32534695
240	0xbd68b237	-0.056810584
241	0xbe7262e7	-0.23670541
242	0x3e7cf08c	0.24701136
243	0xbe5fdabf	-0.21860789
244	0xbe6d7d53	-0.23192339
245	0xbe100cde	-0.14067408
246	0xbe3fd4a9	-0.18733467
247	0xbe588945	-0.21146114
248	0x3cdafeca	0.026732821
249	0x3f003871	0.5008612
250	0x3d6baa35	0.05753537
251	0x3d2c9aa5	0.042139668
252	0xbdcb93b7	-0.09940284
253	0xbe18c2d2	-0.14918068
254	0x3e5ae7e2	0.21377519
255	0x3e02de89	0.12780203

network_body._body_endoder.seq_layers.0.bias f4 [128]
0	0xbe59c0af	-0.21264909
1	0x3e51bc85	0.2048207
2	0x3e2262ad	0.15857954
3	0x3dfc9253	0.12332597
4	0xbd930ee1	-0.07180572
5	0x3d8f87a5	0.07008294
6	0x3e71d025	0.23614557
7	0x3e3147da	0.17312565
8	0xbdcea5e5	-0.100902356
9	0x3db25939	0.08708424
10	0x3c5d39cc	0.013502549
11	0x3e2e8349	0.17042269
12	0x3e55a056	0.20861945
13	0xbb5a1e47	-0.0033282207
14	0x3e921457	0.28531143
15	0x3d94626e	0.072453365
16	0x3db2b453	0.087258
17	0xbdfb4de7	-0.12270718
18	0xbe47e3f4	-0.19520551
19	0xbd7b1512	-0.06129939
20	0x3e66a860	0.22525167
21	0x3e853f00	0.26024628
22	0x3e79c56b	0.24391715
23	0xbd49c8c8	-0.049263746
24	0x3c8d0985	0.017216453
25	0xbbde6ee2	-0.0067881206
26	0xbe278404	-0.16358954
27	0xbdcd3dbd	-0.10021541
28	0x3db0c113	0.08630576
29	0x3e33d240	0.17560673
30	0x3e07e27e	0.13269994
31	0x3df0a501	0.11750222
32	0xbe60e56f	-0.21962522
33	0x3d0935a4	0.03349842
34	0x3e8ace2e	0.27110428
35	0xbe3be9e0	-0.18350935
36	0xbc57a9c7	-0.013163037
37	0x3e983ab3	0.29732284
38	0x3e2bc03b	0.16772549
39	0xbe07221e	-0.13196608
40	0x3dcdc894	0.10048023
41	0x3e062a3d	0.1310205
42	0x3e350a36	0.17679676
43	0x3e149bd0	0.14512563
44	0x3e16ebc0	0.14738369
45	0x3e10b72e	0.14132378
46	0x3d8e0229	0.06934006
47	0x3e457764	0.19283825
48	0xbe6384a8	-0.22218573
49	0xbcca122e	-0.024666872
50	0x3e08fe08	0.13378155
51	0x3e57494f	0.21024059
52	0x3cc2509d	0.02372008
53	0xbda3d98b	-0.080004774
54	0x3d9b0e66	0.07571106
55	0x3e99feeb	0.300773
56	0x3e4dbd3a	0.20091715
57	0x3e0efc60	0.13963461
58	0xbe213da1	-0.15746166
59	0xbd8840b4	-0.06652966
60	0x3e0ed8ea	0.13949934
61	0xbe42a76c	-0.19009179
62	0x3e8abc7c	0.27096927
63	0xbe0e272b	-0.13882129
64	0xbc8a98e4	-0.016918607
65	0x3d8f5797	0.06999128
66	0xbdf1cfbc	-0.118072
67	0x3e9fc4c4	0.31204808
68	0x3e803fe0	0.25048733
69	0x3e791c05	0.24327095
70	0xbc7f81c7	-0.015594906
71	0x3e5c3a37	0.21506582
72	0x3e774f9f	0.24151467
73	0xbe877aff	-0.26461026
74	0xbdf44590	-0.119273305
75	0xbd8b37c7	-0.06797748
76	0x3e36fbd8	0.17869508
77	0x3e0f6f1b	0.14007227
78	0x3e9a9a92	0.30196053
79	0xbe40a886	-0.18814287
80	0xbe1c9688	-0.15291798
81	0x3e13b69e	0.14425132
82	0xbe0050bc	-0.12530798
83	0x3e5d53cf	0.21614002
84	0xbdd0f8a9	-0.10203678
85	0x3e115057	0.14190803
86	0x3e656655	0.22402318
87	0x3e4c6e45	0.1996394
88	0x3e321b2a	0.17393175
89	0x3e82a105	0.25513473
90	0xbe45c912	-0.19314983
91	0xbe38f17f	-0.18060873
92	0x3e1c330f	0.15253852
93	0x3e7e7be5	0.2485195
94	0xbd385e13	-0.04501159
95	0x3e657115	0.22406419
96	0x3da4f430	0.080543876
97	0x3e997ad8	0.29976535
98	0x3e2c1aa5	0.16807039
99	0x3e02a149	0.12756838
100	0xbda8c674	-0.08240977
101	0x3e1bf849	0.15231432
102	0x3dc5bf96	0.09655683
103	0x3e084275	0.13306601
104	0x3e6af9e9	0.22946896
105	0x3e027ac4	0.12742144
106	0x3e0739ae	0.13205597
107	0x3e2ef4d1	0.17085578
108	0x3df465e6	0.11933498
109	0x3e346d9b	0.17619936
110	0x3e08d4f1	0.1336248
111	0x3e5000d3	0.20312814
112	0xbe593c63	-0.21214442
113	0xbc852dcf	-0.016257195
114	0x3e070e7f	0.13189124
115	0xbd6c86c1	-0.0577457
116	0xbe1ed0c1	-0.15509321
117	0xbd8ecf9d	-0.06973193
118	0xbccbb2d0	-0.024865538
119	0x3e524ef9	0.20537938
120	0xbe4e37f7	-0.20138536
121	0x3e2f5d1c	0.17125362
122	0x3e6ad06e	0.22931072
123	0xbe0f0115	-0.13965257
124	0x3da07672	0.07835092
125	0x3da875d5	0.082256
126	0x3e317ba8	0.17332327
127	0x3d6f5286	0.05842831

network_body._body_endoder.seq_layers.2.weight f4 [128, 128]
0	0xbd8fc98d	-0.07020865
1	0x3df2e1f6	0.11859505
2	0xbd78d53b	-0.060750227
3	0xbdca4770	-0.09876907
4	0xbc916eb6	-0.017752986
5	0xbe60d0ec	-0.21954697
6	0xbe233dfe	-0.15941617
7	0xbd3d4739	-0.0462105
8	0xbbfece69	-0.007776071
9	0xbde38918	-0.11110133
10	0x3d7945c5	0.060857553
11	0xba35aa95	-0.0006930021
12	0xbe3a8431	-0.1821449
13	0x3db3c8b0	0.087785125
14	0xbd2da8be	-0.042397253
15	0x3ccf54a4	0.025308914
16	0xbcb4b916	-0.022060912
17	0xbdd5d302	-0.10440637
18	0x3e5604af	0.20900224
19	0x3cff2cc5	0.031149277
20	0xbd7fc03c	-0.06243919
21	0xbda7d35b	-0.0819461
22	0x3dc67aff	0.096914284
23	0x3c771d77	0.015082709
24	0x3def3001	0.11679078
25	0x3d061174	0.03273149
26	0x3e2a2275	0.16614707
27	0xbe4d9a43	-0.20078377
28	0xbd518c98	-0.05115947
29	0x3df24361	0.11829258
30	0xbde6be79	-0.112667985
31	0x3a8888ee	0.0010416785
32	0xbda88d21	-0.08230043
33	0x3e11d557	0.14241539
34	0xbd6494a9	-0.055805836
35	0xbd39dd12	-0.045376845
36	0x3cde020e	0.02710059
37	0x3dd42bc7	0.10359912
38	0x3dc6fdd1	0.097163804
39	0x3dee0575	0.116221346
40	0x3d295c39	0.041347716
41	0x3d59326c	0.0530266
42	0xbd9af0ed	-0.07565484
43	0x3d915eef	0.07098185
44	0xbb91f16b	-0.004453828
45	0xbe6034a2	-0.21895078
46	0x3df18469	0.11792833
47	0x3d665f38	0.05624315
48	0xbd838f8d	-0.064238645
49	0xbdf82ebf	-0.12118291
50	0x3d2c225c	0.042024955
51	0xbd878f32	-0.06619109
52	0x3db6a30e	0.08917819
53	0x3db21f55	0.08697382
54	0xbe0fff9f	-0.14062355
55	0x3d0ae99c	0.033914194
56	0x3b4f324f	0.003161568
57	0xbd027a94	-0.03185518
58	0x3deaba14	0.11461273
59	0x3be385bf	0.006943434
60	0xbd801dc7	-0.062556796
61	0x3d0570a2	0.03257812
62	0x3db175a3	0.086650155
63	0xbd12a50b	-0.03580193
64	0xbda1c9cc	-0.07899818
65	0x3d70ae55	0.058760006
66	0xbd35dd36	-0.044400416
67	0xbd1a4c1d	-0.037670244
68	0x3e0c7d58	0.1371969
69	0xbd0e213e	-0.03469967
70	0xbd9ff84d	-0.078110315
71	0x3d96052c	0.07325205
72	0x3ddd6d4d	0.10811863
73	0xbe1260f4	-0.14294797
74	0xbe939d00	-0.2883072
75	0xbd313615	-0.043264467
76	0x3e55b172	0.20868471
77	0x3d109eef	0.03530782
78	0x3e8503c2	0.2597943
79	0xbd155bb9	-0.036464427
80	0x3d0260dd	0.031830657
81	0xbda8ed33	-0.08248367
82	0xbd5e571e	-0.0542823
83	0x3e4bf8a1	0.19919063
84	0xbe23d9fe	-0.16001126
85	0xbd941810	-0.07231152
86	0x3e01bdb5	0.12670024
87	0xbe0b6012	-0.13610867
88	0xbdf78ec9	-0.12087781
89	0xbbaf57fb	-0.0053510643
90	0xbe617360	-0.22016668
91	0x3dd38b43	0.103292964
92	0xbda39442	-0.07987262
93	0xbdf77705	-0.12083248
94	0x3d42ee8c	0.047590777
95	0xbd95dbe6	-0.07317333
96	0x3d4fd02c	0.050735638
97	0x3e2afd60	0.16698217
98	0x3aa73b6a	0.0012758796
99	0xbbf0e448	-0.007351432
100	0xbc8e1d34	-0.01734791
101	0xbe06583e	-0.13119599
102	0x3dfdb1b0	0.12387407
103	0xbd624c94	-0.05524881
104	0x3e895adf	0.26827142
105	0x3c9baf1b	0.019004395
106	0xbda53d70	-0.08068359
107	0x3de28c89	0.11061961
108	0xbdb59761	-0.08866764
109	0xbdc284b6	-0.09497969
110	0xbd8fc57d	-0.0702009
111	0xbd6d796e	-0.057977132
112	0x3bd97d57	0.006637256
113	0xbdef8783	-0.11695769
114	0x3c883210	0.016625434
115	0x3e882adc	0.265952
116	0x3d976958	0.073931396
117	0xbca6bf06	-0.020354759
118	0xbd8496f3	-0.06474104
119	0xbd8e6adb	-0.06953975
120	0xbe20982e	-0.15683052
121	0xbe05cbed	-0.13066073
122	0x3e4c0701	0.19924547
123	0x3d511a61	0.051050548
124	0xbc18445a	-0.00929364
125	0xbd5a71ee	-0.053331308
126	0xbd63e639	-0.05563948
127	0x3e1ac796	0.15115198
128	0xbd40dcda	-0.04708562
129	0xbd98bec3	-0.0745826
130	0xbcb07ce9	-0.021543937
131	0xbe255677	-0.16146265
132	0xbb1534ab	-0.0022766988
133	0xbcff925e	-0.031197723
134	0xbc445e68	-0.011985399
135	0xbdf5a354	-0.11994043
136	0x3e41151f	0.18855713
137	0xbdc2cdab	-0.09511884
138	0xbdbb0d84	-0.09133437
139	0x3dc1b795	0.094588436
140	0xbd9fba84	-0.07799247
141	0xbe79314b	-0.2433521
142	0xbd4ca825	-0.049965043
143	0xbdb35595	-0.08756558
144	0xbdc5655c	-0.096384734
145	0xbbadd38e	-0.0053047603
146	0x3e466d2e	0.19377586
147	0x3c36e155	0.011162122
148	0x3d897e8d	0.06713591
149	0x3d040fed	0.03224175
150	0xbce9dd4a	-0.028547902
151	0x3d14377f	0.036185738
152	0xbc7ce058	-0.015434347
153	0xbe0b7fb7	-0.13622938
154	0x3dabdf1e	0.083921656
155	0x3b317718	0.0027079042
156	0x3d9ef07d	0.07760713
157	0x3b88cc08	0.004174713
158	0xbc26cfeb	-0.010181407
159	0xb99f9f22	-0.00030445406
160	0xbe17371d	-0.14767118
161	0x3cba7857	0.02276246
162	0xbdb23b91	-0.08702768
163	0x3da3be5f	0.07995295
164	0xbe294d90	-0.16533494
165	0x3e1f8bc4	0.1558066
166	0xbe4af9d2	-0.19821861
167	0xbd98572b	-0.07438501
168	0x3dbe5b07	0.09294706
169	0x3db05f11	0.086118825
170	0x3d78d198	0.06074676
171	0xbd346d9e	-0.04404985
172	0x3c319833	0.01083951
173	0xbcfcaf72	-0.030845378
174	0x3e28ab9e	0.16471717
175	0xb9c42af3	-0.00037416033
176	0x3d933783	0.071883224
177	0xbd0a3bc8	-0.033748418
178	0x3e8994c5	0.26871315
179	0xbd42678b	-0.047462028
180	0xbe05c0b5	-0.13061793
181	0xbe1507cf	-0.1455376
182	0xbda20e75	-0.07912914
183	0x3dff2ed4	0.12460104
184	0x3db1cfa0	0.086821795
185	0x3dbf0f46	0.09329085
186	0xbdbc0390	-0.09180367
187	0x3c568c8b	0.0130950315
188	0xbccfa93b	-0.02534925
189	0x3c3cddac	0.01152746
190	0xbdc911ed	-0.09817872
191	0x3d390751	0.045172993
192	0xbe2b0ec4	-0.16704851
193	0xbe3f52f2	-0.18683985
194	0x3d904a77	0.07045453
195	0x3d28d973	0.041223
196	0x3ced61b8	0.02897726
197	0x3d068c32	0.032848544
198	0xbdd1ec7e	-0.102501854
199	0x3ddf7ebf	0.10912847
200	0x3c917181	0.017754318
201	0x3c539e18	0.01291611
202	0xbdf9f462	-0.122048154
203	0xbd4f6646	-0.050634645
204	0xbd545b3c	-0.05184482
205	0xbdc9b6f3	-0.09849348
206	0x3c4dfa10	0.012571827
207	0x3d618e67	0.055067446
208	0xbc4e6681	-0.012597681
209	0x3adc59e9	0.0016811463
210	0x3bee95c8	0.007281039
211	0x3d745a9e	0.05965673
212	0x3d4314ff	0.047627445
213	0x3e1d7032	0.1537483
214	0x3e068b96	0.13139185
215	0xbdeea111	-0.11651815
216	0xbe4ea337	-0.20179449
217	0x3e6931cd	0.22772904
218	0x3d47df13	0.048796725
219	0xbcd689db	-0.026188781
220	0xbe0ec371	-0.13941742
221	0x3d06fbc1	0.032954935
222	0xbdcdcd50	-0.10048926
223	0x3e195c21	0.1497655
224	0x3d2dd677	0.042440858
225	0x3e0ffd45	0.14061458
226	0xbd038493	-0.032108855
227	0xbdb0477c	-0.086073846
228	0xbe044555	-0.12917073
229	0xbd8b2fe3	-0.06796243
230	0xbd0c8751	-0.034308735
231	0xbe21af3d	-0.15789504
232	0xbc4c9e10	-0.012488857
233	0x3d84faf8	0.06493181
234	0xbc862562	-0.016375247
235	0xbd71ca3a	-0.05903075
236	0xbd42f612	-0.047597952
237	0x3d597170	0.053086698
238	0x3b95b99a	0.0045692446
239	0x3c812f5e	0.015769657
240	0x3b900d6a	0.0043961303
241	0xbd946ca0	-0.07247281
242	0xbd1887d9	-0.03723893
243	0x3bb1777a	0.005415854
244	0xbdd502c7	-0.1040092
245	0xbcab2fe1	-0.020896854
246	0xbe17757a	-0.14790908
247	0xbc4d8d37	-0.012545875
248	0xbc4ae143	-0.012382808
249	0xbe7e7efc	-0.24853128
250	0xbddc2f78	-0.107512414
251	0x3e10e39c	0.14149326
252	0x3e46c561	0.19411232
253	0x3db538a9	0.08848698
254	0x3d0d3911	0.03447825
255	0xbd3f1f64	-0.046660796

network_body._body_endoder.seq_layers.2.bias f4 [128]
0	0x3d5fabf8	0.05460736
1	0x3b3aac98	0.0028484222
2	0x3e3fdd6b	0.18736808
3	0x3e03acda	0.12858906
4	0x3d9f4fc4	0.07778886
5	0xbd7e0d3a	-0.062024333
6	0x3ddae809	0.106887884
7	0x3ce42abb	0.027852407
8	0xbe26d8ab	-0.1629359
9	0x3e1d1718	0.15340841
10	0xbd9f1376	-0.07767384
11	0x3e041585	0.12898834
12	0xbd47bc6b	-0.048763674
13	0xbe1b4328	-0.15162337
14	0x3d995f5a	0.0748889
15	0x3e644d30	0.2229507
16	0xbe017c0b	-0.12644975
17	0xbe0ff4e9	-0.1405827
18	0xbe16e4b8	-0.14735687
19	0x3e5f628c	0.21814936
20	0xbd8112ec	-0.06302437
21	0x3e4d1f20	0.20031404
22	0x3db3cfc2	0.08779861
23	0xbdbec0b1	-0.09314097
24	0x3dbb0208	0.09131247
25	0x3dc8e546	0.098093554
26	0xbe128256	-0.14307532
27	0xbd6b46fb	-0.05744074
28	0xbd7fea8d	-0.062479544
29	0xbd019466	-0.031635664
30	0x3e2218b9	0.15829743
31	0xbe18922d	-0.14899512
32	0xbe304c33	-0.17216568
33	0x3e15dcc9	0.14635004
34	0x3d61b692	0.055105753
35	0xbdfcfe54	-0.12353197
36	0xbe1ca904	-0.1529885
37	0x3cc31e72	0.023818228
38	0xbe1922c8	-0.14954674
39	0x3d33d20e	0.043901496
40	0xbd88157b	-0.06644722
41	0x3dc18d7d	0.09450815
42	0x3e170ec1	0.14751722
43	0x3d053b0a	0.032527007
44	0x3d981221	0.07425333
45	0x3dc2713e	0.094942555
46	0x3e1bf653	0.15230684
47	0xbdab5f5c	-0.08367798
48	0x3e0b6d4b	0.1361591
49	0xbd66746f	-0.056263383
50	0xbb4ec8e3	-0.0031552843
51	0xbdbe837c	-0.093024224
52	0xbe095430	-0.13411021
53	0x3c74065d	0.014894095
54	0xbdc90633	-0.098156355
55	0x3e149f61	0.14513923
56	0xbdc41382	-0.09574033
57	0xbcc5e0ce	-0.024155047
58	0x3e1167dc	0.14199775
59	0xbe2b5ea1	-0.16735317
60	0xbe11687f	-0.14200018
61	0xbdee069a	-0.11622353
62	0xbd3673d7	-0.044544067
63	0x3e6ca2c8	0.23108971
64	0x3d8f302a	0.069916084
65	0xbe0ed4e5	-0.139484
66	0x3e0c5716	0.13705096
67	0xbe19ae19	-0.15007819
68	0x3d0ba7c4	0.03409554
69	0xbd87c624	-0.06629589
70	0xbde1c83e	-0.11024521
71	0x3d0123b7	0.0315282
72	0x3d508274	0.05090566
73	0xbe2073fd	-0.15669246
74	0x3dd83677	0.10557263
75	0x3dc4eb05	0.09615139
76	0xbdf60b5a	-0.12013884
77	0xbdfa555e	-0.12223314
78	0xbe1ee1b0	-0.1551578
79	0x3d1b0d24	0.03785433
80	0xbe19d4f8	-0.15022647
81	0x3e1dd3e4	0.15412861
82	0x3e4642a2	0.19361356
83	0xbdf6db14	-0.120535046
84	0xbda30d56	-0.07961528
85	0x3b9b23c3	0.0047344877
86	0x3df56656	0.1198241
87	0xbdae607e	-0.08514498
88	0xbe3f9694	-0.18709785
89	0xbdf08900	-0.11744881
90	0x3e50d8db	0.20395224
91	0xbded69f8	-0.115924776
92	0x3de0f060	0.10983348
93	0xbdcc229c	-0.09967539
94	0xbde77c31	-0.113029845
95	0xbdb955bf	-0.09049558
96	0x3e5d050e	0.2158396
97	0xbddc1698	-0.10746497
98	0xbd51ba61	-0.051203135
99	0x3defeff4	0.11715689
100	0x3da9702b	0.082733475
101	0xbdf5cb04	-0.12001613
102	0xbe17875a	-0.14797726
103	0xbddde5f2	-0.10834874
104	0x3e102678	0.14077175
105	0x3e050ac0	0.12992382
106	0x3d558916	0.05213269
107	0x3dbeb9ba	0.09312768
108	0x3db263ab	0.087104164
109	0x3c9a7385	0.018853912
110	0x3df8cca1	0.12148405
111	0xbdc47ba4	-0.09593895
112	0x3dfdcf93	0.12393107
113	0x3e1b167d	0.15145297
114	0x3e0538e7	0.13009988
115	0xbdbcb17d	-0.09213541
116	0x3e36aed6	0.17840132
117	0x3dfe6443	0.12421467
118	0xbe0f6ab4	-0.14005548
119	0x3e226cb6	0.15861782
120	0x3e3445ee	0.17604801
121	0xbde18def	-0.110134
122	0xbdafe92c	-0.08589396
123	0x3deba499	0.11506004
124	0x3e07d764	0.13265759
125	0xbe33bf73	-0.17553501
126	0x3cc05039	0.023475753
127	0x3c9e496c	0.01932212

action_model._discrete_distribution.branches.0.weight f4 [3, 128]
0	0x3c794930	0.015215203
1	0xbd40c87f	-0.047066208
2	0x3d056c7a	0.032574154
3	0x3d1935db	0.037404876
4	0x3ccca860	0.024982631
5	0xbc890e95	-0.016730586
6	0x3ca6d66b	0.020365914
7	0xbd0fb38a	-0.03508333
8	0xbda12e3d	-0.078701474
9	0x3cf84ee3	0.030311054
10	0xbd86c4fc	-0.065805405
11	0x3c11f916	0.008909484
12	0xbc51e965	-0.012811993
13	0xbd16c97d	-0.036813248
14	0x3d36feb1	0.044676486
15	0x3d68ec2a	0.05686585
16	0xbda7d423	-0.08194759
17	0xbd84cdce	-0.06484567
18	0xbd93f57a	-0.07224555
19	0x3d53488e	0.051582865
20	0xbd09b621	-0.033620957
21	0x3daa9aa4	0.083302766
22	0x3d195cc9	0.037442002
23	0xbd1ee85e	-0.03879582
24	0xbb0ef73f	-0.002181485
25	0x3a3874b5	0.00070364337
26	0xbd8da470	-0.069161296
27	0x3d208f19	0.03919897
28	0xbd4d29c1	-0.050088648
29	0xbd9af115	-0.07565514
30	0x3cac34a6	0.021021198
31	0xbd9e83d3	-0.07739987
32	0xbd92ef00	-0.07174492
33	0x3c079511	0.008275286
34	0x3c2fbc70	0.010726079
35	0xbc8905f7	-0.016726477
36	0xbdc28b27	-0.094991975
37	0xbc5b3d6c	-0.013381343
38	0xbdaaf6e4	-0.08347872
39	0x3b314ae9	0.0027052707
40	0x3b0aeff0	0.0021200143
41	0xbd65ad38	-0.056073397
42	0x3d134784	0.035956874
43	0x3be587eb	0.007004728
44	0x3cef5f62	0.029220287
45	0xbcb5d3fd	-0.02219581
46	0x3c969e43	0.018386012
47	0x3c407ffd	0.011749265
48	0x3d311429	0.043232117
49	0xbd7d7758	-0.061881393
50	0x3d150535	0.03638192
51	0xbd40e934	-0.0470974
52	0xbdb15a59	-0.086598106
53	0x3c4f9273	0.012669194
54	0xbd4cceb2	-0.050001808
55	0x3c2a555a	0.010396326
56	0xbd7d3569	-0.061818514
57	0x3cdc7936	0.026913267
58	0x3ca9888d	0.020694995
59	0xbd9e24a8	-0.077218354
60	0xbda9a461	-0.08283306
61	0xbd2cb106	-0.04216101
62	0xbbc85457	-0.0061135697
63	0x3d9982e2	0.07495667
64	0x3ba5c7b4	0.005059207
65	0xbda0a271	-0.07843483
66	0x3d8614b7	0.0654692
67	0xbdd577c9	-0.10423238
68	0x3cd90097	0.02648954
69	0xbd290210	-0.041261733
70	0xbdb719fb	-0.08940502
71	0x3d0c4a00	0.03425026
72	0x3cbd2b2a	0.023091871
73	0xbdc431de	-0.09579824
74	0x3d34b81e	0.0441209
75	0x3c7b6278	0.015343301
76	0xbbb50eb9	-0.0055254367
77	0xbdb09333	-0.08621826
78	0xbdb043a1	-0.08606649
79	0xbd811ced	-0.06304345
80	0xbd8d4fee	-0.06900011
81	0x3bb278e0	0.0054465383
82	0x3d183a52	0.037164994
83	0xbd443e1a	-0.047910787
84	0xbd878228	-0.06616622
85	0xbd39ff7f	-0.045409676
86	0x3c80bc8a	0.015714902
87	0xbcadfb3f	-0.021237968
88	0xbdd0698a	-0.1017638
89	0xbc2e2c6d	-0.010630709
90	0x3d16eb4d	0.036845494
91	0xbd00fd80	-0.031491756
92	0x3c91eac9	0.01781215
93	0xbda0e481	-0.07856084
94	0xbd9a6860	-0.07539439
95	0xbdbe7c4e	-0.09301053
96	0x3d30e80d	0.04319005
97	0xbd5d6e3d	-0.05406021
98	0xbc905304	-0.01761771
99	0x3c017105	0.007900481
100	0x3cf5dfb8	0.030013904
101	0xbda8278f	-0.0821067
102	0xbd81ab9c	-0.0633156
103	0xbd9a0f0b	-0.075224005
104	0x3d75cb6f	0.060008463
105	0x3ad31db6	0.0016106877
106	0x3c439607	0.011937625
107	0x3c59838d	0.013275993
108	0x3d46e3ae	0.048556976
109	0x3c44ffa1	0.012023837
110	0x3d1b3711	0.037894312
111	0xbdbed08c	-0.09317121
112	0x3cc5f12b	0.02416285
113	0x3d06ec88	0.032940418
114	0x3c517603	0.012784484
115	0xbd5dc6a5	-0.05414452
116	0x3d149571	0.03627533
117	0x3b88839b	0.004166079
118	0xbdb11758	-0.086470306
119	0x3da0258d	0.07819662
120	0x3c9346da	0.01797812
121	0xbcbb8b83	-0.022893673
122	0xbda03f1d	-0.07824538
123	0x3d297e4d	0.041380215
124	0xbc761355	-0.015019258
125	0xbdb31aec	-0.08745369
126	0xbbba05fd	-0.0056769834
127	0x3c8fdae6	0.017560434
128	0xb989d1af	-0.00026286903
129	0x3cbe2f10	0.0232158
130	0x3d44efce	0.048080258
131	0xba1cdbfc	-0.0005983708
132	0x3bea5a72	0.007151895
133	0x3b8eb8a9	0.0043555093
134	0x3ccaa40f	0.024736432
135	0xb968d556	-0.00022204718
136	0xbd246d5e	-0.040143363
137	0x3d5b19a9	0.05349127
138	0xbb7c6a55	-0.0038515527
139	0x3d06d689	0.03291944
140	0xbaf085ba	-0.00183504
141	0xbc45c20f	-0.012070193
142	0xbc3e9480	-0.011632085
143	0x3bc6a45c	0.0060620736
144	0xbc8e71d4	-0.017388262
145	0x3c97e39c	0.01854115
146	0x3afe6026	0.0019407317
147	0x3cb43204	0.021996506
148	0x3b9dbcbe	0.0048137596
149	0x3c34dddb	0.011039223
150	0x3ba2bc5e	0.004966303
151	0xbc9874fa	-0.018610466
152	0x3ce70bd5	0.028203884
153	0x3cb7087f	0.022342918
154	0xbc62afea	-0.0138358865
155	0xbd92b576	-0.07163517
156	0xbcafc05a	-0.021454025
157	0x3d0b5751	0.03401882
158	0x3d1b2383	0.037875663
159	0xbd11c4cd	-0.035588074
160	0xbd08edb7	-0.033429828
161	0x3c38af05	0.011272197
162	0xbc2358f0	-0.009969935
163	0xbcc0079e	-0.023441132
164	0xbcdf929e	-0.027291592
165	0x3cdb9b1b	0.026807358
166	0xbcab3327	-0.020898415
167	0x3c3666f8	0.011132948
168	0x3a6fb0ce	0.00091434724
169	0x3d898d1e	0.06716369
170	0xbb4480bc	-0.0029983958
171	0x3a82cc4a	0.0009979096
172	0xbc839889	-0.016063945
173	0x3d5e7203	0.05430795
174	0x3c5b19b1	0.0133728245
175	0xbd295707	-0.04134276
176	0x3c02128d	0.007938993
177	0xbad03bf4	-0.0015887008
178	0xbd266893	-0.040627073
179	0x3c34650c	0.01101042
180	0xbcbfc567	-0.023409558
181	0xbcda234d	-0.02662816
182	0x3c8f4760	0.017490089
183	0x3d63c5f5	0.05560871
184	0xbc05d4ef	-0.008168443
185	0xbcad558e	-0.02115896
186	0x3d156065	0.036468882
187	0xbc6ebd5a	-0.014571512
188	0xbb828eb7	-0.003984298
189	0x3a100cdc	0.000549508
190	0xbb1e7554	-0.002417882
191	0x3c767df9	0.015044683
192	0x3cba1563	0.022715276
193	0xbb62e9d4	-0.0034624236
194	0xbca9fd16	-0.020750564
195	0xbc6e04c0	-0.0145275
196	0xbc26acd5	-0.010173042
197	0xbd2d354c	-0.042287156
198	0xbadd4742	-0.0016882198
199	0xbc9a60ef	-0.01884505
200	0xbb0ab8e7	-0.002116734
201	0x3b380504	0.0028079161
202	0x3aa295f6	0.0012404311
203	0xbb5b14e4	-0.00334292
204	0xbd40ac39	-0.047039244
205	0xbd1a7785	-0.03771164
206	0xbca4d233	-0.020119762
207	0x3d2c3233	0.04204006
208	0x3b9d3996	0.0047981245
209	0x3cdbb9ab	0.026821932
210	0x3d91779f	0.07102894
211	0x38c5d6e1	9.433716e-05
212	0xbd0339c0	-0.032037497
213	0x3bd3c4cc	0.006462669
214	0x3c055e7c	0.008140203
215	0x3c482f02	0.012218239
216	0x3c26108e	0.010135783
217	0xbb0cb820	-0.0021472052
218	0xbb12a186	-0.0022374108
219	0xbc47c03f	-0.012191831
220	0x3d49abad	0.04923599
221	0xbbd8b183	-0.006612958
222	0x3bf218c3	0.0073882057
223	0xbd0a85ff	-0.033819195
224	0x3cf21a2e	0.0295535
225	0x3c9a6c88	0.01885058
226	0x3bbecc99	0.00582273
227	0x3ce0e078	0.027450785
228	0x3ce3a6f2	0.027789567
229	0xbc76548e	-0.015034808
230	0x3c57f301	0.013180495
231	0x3b4bce6d	0.003109838
232	0x3c2dfd43	0.010619464
233	0x3d4f2911	0.050576273
234	0xbc3196b6	-0.010839155
235	0x3cb92a71	0.022603245
236	0xbc51adb1	-0.012797759
237	0xbb467c6c	-0.0030286564
238	0x3ae5e356	0.0017539065
239	0xbccc540e	-0.024942424
240	0x3cdf29ac	0.02724155
241	0x3cc0b357	0.023523016
242	0x3c4ddf14	0.012565393
243	0xbcb65547	-0.02225746
244	0x3cb91064	0.022590823
245	0x3d0c45a2	0.034246095
246	0xbcddd8bf	-0.027080892
247	0xbcba6ad1	-0.022756012
248	0x3db8dc25	0.09026364
249	0xbd018f4f	-0.03163081
250	0xbb0e2a64	-0.0021692747
251	0xbcd644dc	-0.026155882
252	0x3d8298b9	0.06376786
253	0xbc857a3a	-0.016293634
254	0x3c52a60e	0.012856973
255	0xbc9f0786	-0.019412767

action_model._discrete_distribution.branches.0.bias f4 [3]
0	0x3dbcdf5d	0.09222291
1	0x3d1c3f07	0.038146045
2	0xbe18b77a	-0.14913741

action_model._discrete_distribution.branches.1.weight f4 [3, 128]
0	0x3d2a4bef	0.041576322
1	0x3d313051	0.04325897
2	0xbb1cb6c5	-0.002391265
3	0xbd41cd7f	-0.047315117
4	0x3afe366f	0.0019394885
5	0x3d3f9249	0.046770368
6	0x3cb8b8f7	0.022549136
7	0x3d2963cb	0.041354936
8	0x3ca153bd	0.01969325
9	0x3cdb0de7	0.026740028
10	0x3c8bda50	0.017071873
11	0xbc78af09	-0.01517845
12	0xbc96da18	-0.018414542
13	0xbc5d852a	-0.013520518
14	0x3c07067e	0.008241294
15	0xba8410cd	-0.0010075808
16	0x3c1408b6	0.00903528
17	0xba0ec77a	-0.00054465944
18	0x3c879d6c	0.016554557
19	0xbc48a62b	-0.012246649
20	0x3d0c0142	0.034180887
21	0xbc21cffc	-0.0098762475
22	0xbd677039	-0.05650351
23	0xbc5df197	-0.013546369
24	0xbb9b5c9a	-0.0047412636
25	0x3cb49230	0.022042364
26	0x3d08d94f	0.033410367
27	0x3d5e9de8	0.05434981
28	0xba269254	-0.0006354202
29	0x3c9407cb	0.018070122
30	0x3d4ff23c	0.050768122
31	0x3a5219b6	0.00080146955
32	0x3d19a844	0.037513986
33	0xb8372a39	-4.3669923e-05
34	0xbca5fb6a	-0.020261485
35	0xbc49b5a0	-0.012311369
36	0x3c4872c1	0.012234391
37	0x3d774e8b	0.06037764
38	0x3aeabc02	0.0017908814
39	0xbc53a649	-0.012918063
40	0x3c14783e	0.009061871
41	0x3bb6b180	0.005575359
42	0xbb7c7bb4	-0.0038525881
43	0x3c6765d7	0.014123402
44	0xbc49ee3e	-0.012324868
45	0x3ceee953	0.029163992
46	0x3b8bdd00	0.0042682886
47	0xbd11776e	-0.035514288
48	0xbcd8e16d	-0.026474679
49	0x3d3c0c8f	0.045910414
50	0xbd19bef1	-0.03753561
51	0x3d3333f0	0.043750703
52	0xb92bca6c	-0.00016383239
53	0xbca9f19e	-0.020745095
54	0xbc4e8221	-0.012604267
55	0x3d095a80	0.033533573
56	0x3d1c3259	0.038133953
57	0xbc4dc772	-0.0125597585
58	0x3d10d3f3	0.03535838
59	0x3cb4dbcf	0.02207747
60	0xbbb15729	-0.0054120016
61	0xbd01ff87	-0.03173783
62	0x3d0ada31	0.03389949
63	0xbcd1115f	-0.025520978
64	0xbba6b682	-0.0050876746
65	0x3d3947e3	0.045234572
66	0xbd27bb56	-0.04095014
67	0x3b9b526f	0.0047400515
68	0x3c46f5ad	0.012143535
69	0x3d11e132	0.035615154
70	0x3dbcec43	0.09224751
71	0xbd236757	-0.039893474
72	0xbd24f068	-0.04026833
73	0x3d81a7eb	0.06330856
74	0xbd072de2	-0.03300274
75	0xbcf24769	-0.029575067
76	0x3d101b66	0.03518238
77	0x3d1c07f5	0.038093526
78	0x3cad8da5	0.021185705
79	0x3c4e30b6	0.012584856
80	0x3cf5b1d1	0.029992016
81	0xbbb6c32d	-0.005577466
82	0xbbf3b83a	-0.007437733
83	0x3d5ca39c	0.053866968
84	0x3c36c990	0.011156455
85	0x3c9cc8f6	0.019138794
86	0x3d063ca8	0.03277269
87	0x3b82c0b5	0.0039902576
88	0xbb5b9891	-0.0033507685
89	0xbb88c05c	-0.0041733216
90	0xbcf0a8fa	-0.02937745
91	0x3ce5d6dc	0.028056554
92	0xbbc9ed06	-0.0061622886
93	0x3d403167	0.046922114
94	0x3c87a378	0.01655744
95	0x3c55dc36	0.013052991
96	0x3ca67a88	0.0203221
97	0x3cd4a367	0.025956823
98	0xbc74f43a	-0.014950806
99	0x3cb27f5b	0.021789243
100	0xbd9606a4	-0.07325485
101	0x3ccaa34b	0.024736067
102	0x3b891c09	0.0041842503
103	0x3d5cd8e6	0.053917788
104	0x3bf502cc	0.00747714
105	0x3c83f644	0.01610864
106	0x3ba96048	0.0051689483
107	0x3c8e9fe1	0.01741022
108	0xbd4b79f9	-0.04967687
109	0xbb8928b7	-0.004185762
110	0xbc5c4c0f	-0.013445868
111	0xbc83432b	-0.01602324
112	0x3af95b8f	0.0019024479
113	0xbc8ee437	-0.017442806
114	0x3c9adb8f	0.018903522
115	0x3c7afaa3	0.0153185455
116	0x3c6d7f77	0.014495722
117	0x3cd67a86	0.02618147
118	0x3c70d22c	0.014698546
119	0xbd0f9c12	-0.03506095
120	0x3bb00fc3	0.0053729727
121	0x3d025533	0.031819534
122	0x3d4dc464	0.05023612
123	0x3c81d558	0.0158488
124	0x3d0d18b3	0.034447383
125	0x3cf15abc	0.02946221
126	0x3c63ba2a	0.013899365
127	0xbcbebfc1	-0.023284795
128	0x3c9888ac	0.018619858
129	0x3d290517	0.04126462
130	0xbac4864c	-0.0014993637
131	0xbd0f0601	-0.034917835
132	0xbc595cd9	-0.0132667655
133	0xbc485321	-0.012226851
134	0x3c83dda0	0.01609689
135	0x3dca592d	0.0988029
136	0xbc2ea7eb	-0.010660152
137	0xbc5ba535	-0.013406088
138	0x3c551f7c	0.013007995
139	0xbd8b9bee	-0.068168506
140	0xbd61c14a	-0.055115975
141	0x3cbb83a4	0.02288992
142	0xbd11a2c3	-0.035555612
143	0x3d8c768f	0.06858551
144	0xbd2a8a5e	-0.041635863
145	0x3c8028fd	0.015644545
146	0xba338e10	-0.0006849477
147	0x3d8a49fe	0.06752394
148	0x3d0f8cd0	0.0350464
149	0x3d7b7fff	0.061401363
150	0xbbf95b69	-0.007609774
151	0xbcdf255b	-0.027239492
152	0xbd4d7527	-0.050160553
153	0xbc0e87b8	-0.00869935
154	0x39807872	0.000245038
155	0xb907af4b	-0.00012939905
156	0xbda5743d	-0.08078811
157	0xbd082c6b	-0.033245485
158	0x3ca469ee	0.020070042
159	0xbb8de300	-0.004330039
160	0x3c3453ff	0.011006354
161	0x3bc3e2e6	0.005977976
162	0x3cb29dc9	0.021803753
163	0xbc9294ce	-0.017893221
164	0xba983af6	-0.0011614251
165	0xbc0fccfb	-0.0087768985
166	0xbcd9ed74	-0.026602484
167	0xbbaca902	-0.0052691707
168	0xbc2da107	-0.010597474
169	0xbd9bf751	-0.07615531
170	0x3bd25c16	0.006419669
171	0x3c377e7c	0.01119959
172	0x36ff4b00	7.6083234e-06
173	0xbcbb2256	-0.022843521
174	0x3d531592	0.051534243
175	0xbd383223	-0.04496969
176	0xbcaffd41	-0.021483066
177	0x3cff10e8	0.031135991
178	0xbcca29b0	-0.024678081
179	0x3bd8d2e4	0.006616937
180	0xbc26dfc8	-0.01018519
181	0x3cb2c6a6	0.021823239
182	0xbc3bc113	-0.011459607
183	0x3ccbc202	0.024872784
184	0x3c82b385	0.015954742
185	0xbd94ad4e	-0.07259618
186	0x3d2d7cab	0.04235522
187	0x3c16b5c7	0.0091986125
188	0xbc7b5a8a	-0.01534141
189	0xbd52a1e7	-0.051423933
190	0x3c7791f8	0.015110485
191	0x3d79fbc6	0.061031125
192	0x3cc81791	0.0244253
193	0xbbe881c9	-0.0070955497
194	0xbcb18d2f	-0.021673767
195	0x3bd09481	0.0063653593
196	0x3da2f897	0.07957571
197	0x3d6e290f	0.058144625
198	0xbc17e2a1	-0.009270341
199	0xbd3dc4e6	-0.046330355
200	0xbd3974cb	-0.045277398
201	0xbc25cd43	-0.010119739
202	0xbd10d924	-0.03536333
203	0xbd1b4698	-0.03790912
204	0xbba9fa49	-0.005187307
205	0x3b989d05	0.00465739
206	0x3c8c62ce	0.017136957
207	0x3cd772ef	0.026299922
208	0x3952a1d4	0.00020087446
209	0x3b9a65c9	0.004711841
210	0xbd043285	-0.03227474
211	0xbc03af00	-0.008037329
212	0x3d777686	0.060415767
213	0x3dc0c990	0.09413445
214	0x3df5c4d6	0.12000434
215	0x3bb550e2	0.0055333236
216	0xbaa466f3	-0.0012542888
217	0x3b54312a	0.0032377937
218	0xbb749cc7	-0.0037324892
219	0xbc82f42a	-0.015985567
220	0xbc902f49	-0.017600672
221	0xbc4c9ade	-0.012488095
222	0xbcb9d289	-0.022683399
223	0xbc3ef49e	-0.011655001
224	0xba927413	-0.0011173509
225	0xbc6b7b75	-0.014372696
226	0xbcdbfe32	-0.026854608
227	0x3d211522	0.039326794
228	0xbc8b98d9	-0.017040657
229	0x3c2abf16	0.010421535
230	0x3caa8e76	0.020819884
231	0xbc242502	-0.010018589
232	0xbc9df9fe	-0.019284245
233	0xbc40e9cc	-0.0117744915
234	0xbcb2fd8d	-0.021849418
235	0x3d15c5d3	0.036565613
236	0x3c4ecc48	0.012621947
237	0xbc34be9a	-0.011031771
238	0xbc6c8328	-0.014435567
239	0xbd861e14	-0.06548706
240	0x3d1cc746	0.03827598
241	0xba6510de	-0.000873817
242	0x3d56f085	0.05247547
243	0x3b8b4e0d	0.0042512477
244	0x3cde43e2	0.027131978
245	0x3d27665e	0.04086911
246	0xbb9a19c3	-0.004702778
247	0xbb0547d3	-0.0020337
248	0xbc84a670	-0.016192645
249	0x3cf94d2d	0.030432308
250	0x3bb29111	0.005449422
251	0x3de7c1e3	0.11316278
252	0x3d92e41f	0.07172417
253	0xbbf36ef3	-0.0074289977
254	0xbc3010bc	-0.010746177
255	0xbc7e7255	-0.015530189

action_model._discrete_distribution.branches.1.bias f4 [3]
0	0xbc8fa70e	-0.017535713
1	0xbb0627ce	-0.0020470503
2	0x3c95bd88	0.018278852

exp_avg f4 [128, 22]
0	0x368cdcc8	4.1980275e-06
1	0xb7a2a408	-1.9388288e-05
2	0x38632540	5.415571e-05
3	0x37da4a04	2.6022091e-05
4	0xb8d3deef	-0.00010102789
5	0xb8a0f89c	-7.6757016e-05
6	0x379b78ec	1.8533749e-05
7	0x38bf7fac	9.1313705e-05
8	0x37863c17	1.6002026e-05
9	0x36733a8e	3.6243905e-06
10	0x36d3c919	6.311701e-06
11	0x398b4bb3	0.00026568546
12	0x36dea8d2	6.635769e-06
13	0x3897e33e	7.242568e-05
14	0x3835ece0	4.337437e-05
15	0x378608be	1.5978116e-05
16	0xb8a324f1	-7.7793266e-05
17	0x37a8221a	2.004304e-05
18	0xb92c99ac	-0.00016460445
19	0xb8cb9378	-9.7072625e-05
20	0xb9c45c75	-0.0003745292
21	0x38ca991e	9.660631e-05
22	0x374a8a38	1.207232e-05
23	0x38f21150	0.00011542684
24	0x3793e067	1.7628261e-05
25	0x38f45a0a	0.00011651598
26	0x37c7d68c	2.3822555e-05
27	0x38ea19f6	0.00011162825
28	0x369ace2b	4.6135588e-06
29	0x39a320de	0.0003111427
30	0x3685a8a2	3.9833403e-06
31	0x38b62bf3	8.6866225e-05
32	0x35d2e075	1.5711545e-06
33	0x38674122	5.513535e-05
34	0x35ddb42e	1.6518222e-06
35	0x3932afba	0.00017040866
36	0x3a06c26c	0.00051406655
37	0x39058860	0.00012734672
38	0xb8adab43	-8.281183e-05
39	0x39e8fd52	0.00044439227
40	0xb8826410	-6.217521e-05
41	0xb8a569b3	-7.887501e-05
42	0xb97e3210	-0.00024241977
43	0x39bc9966	0.00035972445
44	0x38cb36ff	9.690038e-05
45	0xb871819f	-5.7579597e-05
46	0x38b46752	8.602314e-05
47	0xb89171df	-6.935349e-05
48	0x381fb566	3.8077495e-05
49	0xb8b37854	-8.557798e-05
50	0x37aa5069	2.0303023e-05
51	0xb8444b6b	-4.680028e-05
52	0x37930c92	1.7529619e-05
53	0xb9833848	-0.000250282
54	0x36e800cc	6.9142316e-06
55	0x397969b4	0.00023785868
56	0x36f3ea40	7.2692346e-06
57	0xb989dcdc	-0.0002629523
58	0xb91beab9	-0.00014869393
59	0xb7bcd640	-2.2511114e-05
60	0x38128536	3.4933175e-05
61	0xb8727efa	-5.7815552e-05
62	0xb5154280	-5.5603596e-07
63	0x36913ac0	4.328176e-06
64	0x389ffacb	7.628425e-05
65	0xb89d29b4	-7.494111e-05
66	0x37f954dc	2.9722629e-05
67	0xb8c6b4b0	-9.4750314e-05
68	0x387424c0	5.820836e-05
69	0xb8c61c1e	-9.446613e-05
70	0x374f3f3f	1.2352887e-05
71	0xb8ab647a	-8.1726306e-05
72	0x3790a643	1.724356e-05
73	0xb96b058f	-0.00022413417
74	0x3779c7cd	1.4888076e-05
75	0xb9209643	-0.00015314766
76	0x36c50ae7	5.8723267e-06
77	0x3a621d05	0.000862554
78	0x36cf28d4	6.1738338e-06
79	0xb96836ec	-0.00022145704
80	0xb9380084	-0.000175478
81	0x3898b1cc	7.281042e-05
82	0x38e524de	0.00010926438
83	0xb7f4e4ea	-2.9193663e-05
84	0xb7a74048	-1.9937885e-05
85	0x389e3d44	7.545439e-05
86	0x38196704	3.6573983e-05
87	0xb9299d4a	-0.0001617569
88	0xb814449d	-3.534985e-05
89	0x373b76f0	1.1173761e-05
90	0x3810be4b	3.45095e-05
91	0x38267e46	3.9695085e-05
92	0xb91b0f5f	-0.00014787678
93	0xb8930b87	-7.011653e-05
94	0x37a86f3c	2.0078958e-05
95	0x3836d6e8	4.359233e-05
96	0x37916d1a	1.7336151e-05
97	0xb8d27df6	-0.000100370424
98	0x36e5714d	6.837922e-06
99	0xb8cc5d46	-9.7448516e-05
100	0x36f1391e	7.189009e-06
101	0xb9b21385	-0.0003396535
102	0xb96070da	-0.00021404345
103	0x396c6531	0.0002254441
104	0x39a7db31	0.00032016032
105	0xb8df7832	-0.00010655857
106	0xba13b4d6	-0.00056345516
107	0x399cd7b5	0.00029915353
108	0x39d4e27e	0.0004060454
109	0xb9be20d8	-0.00036264095
110	0x3819c02f	3.6657028e-05
111	0x389a852e	7.368099e-05
112	0x3858ba8d	5.1672152e-05
113	0x38b7222f	8.732487e-05
114	0x38829abc	6.2277046e-05
115	0x391efd3f	0.00015162396
116	0x376ebe9d	1.4230286e-05
117	0xb83acb04	-4.453493e-05
118	0x374e21c3	1.2286418e-05
119	0x39f1c069	0.0004611046
120	0x36a29c1c	4.8461497e-06
121	0x38db4aff	0.00010456703
122	0x36aaf572	5.0949684e-06
123	0x3a1a3423	0.0005882403
124	0xb99b55f5	-0.00029627947
125	0x3815f9fe	3.575719e-05
126	0xb8e419e0	-0.00010876707
127	0xba19528a	-0.0005848786
128	0x3a4b244c	0.0007749244
129	0xb8f79fa0	-0.0001180761
130	0xba79de7f	-0.00095317507
131	0xb9c91b3a	-0.00038357993
132	0x3885319a	6.351173e-05
133	0xb83351f8	-4.2753265e-05
134	0xb8b29b73	-8.516656e-05
135	0xb8d36e5d	-0.00010081821
136	0x386f57a4	5.7063662e-05
137	0xb790e936	-1.7274735e-05
138	0xb8061046	-3.1963245e-05
139	0xb8f0440e	-0.00011456768
140	0xb7e78030	-2.7597038e-05
141	0x38619b26	5.3788674e-05
142	0xb7369f51	-1.0885139e-05
143	0x3a0b51ac	0.0005314599
144	0xb73fffb4	-1.1444023e-05
145	0x389eb074	7.566894e-05
146	0x39aab642	0.0003256072
147	0xb98b2cbe	-0.00026545482
148	0x3987cae9	0.00025900386
149	0x39e9ea90	0.00044615986
150	0xba6393d6	-0.0008681392
151	0x39a156cc	0.00030772982
152	0x39877bb8	0.00025841384
153	0x38973994	7.210966e-05
154	0x37df2aa8	2.6603535e-05
155	0xb759b1f5	-1.2975642e-05
156	0xb7cdfd3c	-2.4555826e-05
157	0xb824954e	-3.9239698e-05
158	0xb78de5f8	-1.6915597e-05
159	0xb7faafcf	-2.988419e-05
160	0xb6e8b602	-6.9353273e-06
161	0x38e1fcec	0.000107759464
162	0xb6c8ec2c	-5.9879585e-06
163	0x383526ba	4.318983e-05
164	0xb61e8010	-2.3618377e-06
165	0x394d0387	0.00019551638
166	0xb626a36b	-2.483105e-06
167	0x3930d024	0.00016862206
168	0x3a054a62	0.0005084631
169	0xb8bb052b	-8.9178175e-05
170	0xb92f2cdc	-0.00016706012
171	0x3a08ff74	0.0005226054
172	0x39b20f86	0.00033962372
173	0xb91a2610	-0.00014700764
174	0xb9171c9e	-0.00014411143
175	0x3a0f95b1	0.0005477323
176	0x37e5aaca	2.7378457e-05
177	0xb7ca7c79	-2.4138239e-05
178	0x388babc2	6.660029e-05
179	0xb7229d58	-9.692587e-06
180	0xb7f261f1	-2.8894256e-05
181	0xb7b9b208	-2.213662e-05
182	0x37096992	8.190416e-06
183	0xb7ca5269	-2.4118652e-05
184	0x36ed4892	7.0715987e-06
185	0x38ab92c5	8.181253e-05
186	0x363b2f24	2.789261e-06
187	0x398a2df3	0.00026355646
188	0x3644cb86	2.9324742e-06
189	0x3919c07a	0.0001466292
190	0xb8b218e0	-8.492335e-05
191	0xb8a14724	-7.690329e-05
192	0xb7dfdfb6	-2.6687845e-05
193	0xb90011bc	-0.00012213638
194	0x3a6f0882	0.0009118394
195	0xb836bbe0	-4.3567154e-05
196	0xb974f9d0	-0.00023362716
197	0x38e8b36a	0.000110960405
198	0x38b55573	8.646669e-05
199	0xb7b58338	-2.1637985e-05
200	0x3901aeb7	0.00012367485
201	0xb83b0d54	-4.4596687e-05
202	0x38f3fb87	0.000116339936
203	0xb7219558	-9.63112e-06
204	0x38183cb8	3.6296173e-05
205	0xb943323f	-0.00018615367
206	0x38037105	3.133809e-05
207	0xb99133f6	-0.0002769527
208	0x374f60ef	1.2360731e-05
209	0x39a843f4	0.00032094086
210	0x375a06b4	1.2995373e-05
211	0xb9ea9a4a	-0.00044746912
212	0xb9c0412a	-0.00036669645
213	0x39563bfe	0.00020430979
214	0x38f26c70	0.00011559657
215	0xb8bea96d	-9.091464e-05
216	0xb8917a57	-6.9369264e-05
217	0x387b8130	5.996338e-05
218	0x39ac5d2b	0.00032875812
219	0xb996483d	-0.0002866405
220	0x3894c6f2	7.0942464e-05
221	0xb919df8a	-0.00014674492
222	0x3843ca43	4.6679994e-05
223	0xb94758dd	-0.00019011223
224	0xb7826730	-1.5545258e-05
225	0xb917d095	-0.00014478185
226	0x3527b0c8	6.24696e-07
227	0xb9a00d90	-0.00030527683
228	0x3510c8f8	5.393663e-07
229	0xb8ab79e2	-8.176618e-05
230	0x34646e00	2.1274172e-07
231	0x38bd54b4	9.0279995e-05
232	0x34702898	2.236651e-07
233	0xb82c8c88	-4.1138876e-05
234	0xba07087f	-0.00051511073
235	0xb8e601d6	-0.000109675966
236	0x39639424	0.00021703594
237	0xb9f910f5	-0.00047505615
238	0x3a4be15a	0.00077774154
239	0x393dbc5c	0.00018094614
240	0x3981234c	0.00024631096
241	0xb9c5bf21	-0.0003771717
242	0xb753bb1d	-1.2620146e-05
243	0x3815be5b	3.570165e-05
244	0xb7962937	-1.7900586e-05
245	0x37df7191	2.6636555e-05
246	0xb77e76c8	-1.5167236e-05
247	0x37e2524f	2.6979627e-05
248	0xb6a2da97	-4.8534234e-06
249	0x387145a2	5.7523728e-05
250	0xb68c9ba5	-4.1904445e-06
251	0x37ee18b2	2.838331e-05
252	0xb5ddd746	-1.6528436e-06
253	0xb8ad6568	-8.268171e-05
254	0xb5e93b1c	-1.7377056e-06
255	0x36e0ecb8	6.703278e-06
