results/Test4.6/CarAgent/checkpoint.pt (torch, 490283 bytes, 36 tensors)

network_body._body_endoder.seq_layers.0.weight f4 [128, 22]
-0.036683332 -0.19529574 0.22327684 0.16473742 0.20498769 -0.038525973 0.35095927 -0.18110436
0.17496431 -0.025569258 0.13813305 0.020636737 0.09073896 0.22066851 0.22038938 0.07239759
0.1368792 0.5379609 -0.33404756 -0.303012 -0.24224074 -0.039004657 -0.043458074 -0.4510359
-0.22627087 0.004518831 -0.5541138 -0.036257863 0.273435 -0.0005445292 -0.026857687 -0.1948309
0.13845986 0.074031584 0.09755939 0.0486332 0.43151176 0.05620358 -0.061143868 -0.20210172
-0.01153507 0.36174014 0.20026653 0.33725262 -0.18077278 0.06415357 0.21268453 0.15554255
0.22844526 -0.0028658304 -0.4755747 0.10521484 -0.1570412 0.047813416 0.036117874 -0.31875733
0.47575194 0.11939013 0.31719974 -0.3285685 0.109587215 -0.050455026 0.34498516 0.29327944
-0.13666287 0.39822188 0.2778658 0.11278642 -0.015128198 -0.19430207 0.24573964 0.24181361
0.49171886 0.4190146 -0.05221158 0.025307538 -0.05024978 0.105436765 0.4271061 -0.086338684
-0.2184429 -0.40635735 -0.134481 -0.016490692 -0.055259213 -0.23671003 0.18390994 -0.2868924
0.060517587 0.19775015 -0.048038974 -0.037998386 0.23589094 -0.13607581 -0.22660983 0.26862186
0.42568132 0.02956185 0.042249348 -0.02280354 0.33579025 0.24330945 -0.39422223 -0.0529542
0.27969888 -0.14234585 0.376135 -0.3167161 -0.08470034 -0.1538497 0.24721436 -0.17189033
0.07775015 0.56752026 0.3885103 0.17937216 0.02097979 -0.22586863 -0.24432254 0.23396423
-0.19919334 -0.11039533 0.27160543 -0.18669362 -0.20440204 -0.21271442 0.25272357 -0.19671771
0.34258655 0.041093547 -0.2880556 0.24482594 -0.20974469 0.1438846 -0.06281045 0.21784385
0.2583304 -0.023411082 0.23006798 0.050956905 0.033695247 0.34765437 0.13735543 0.172319
-0.046241216 0.29558656 0.07955051 0.111535564 -0.02802089 -0.31693003 0.045688868 0.05650756
-0.22912484 -0.052508105 -0.1991088 0.47175103 0.32445818 -0.030500183 -0.19268599 0.2487962
-0.26835033 0.04252451 -0.22560377 -0.12861022 -0.07970067 -0.26622653 -0.06942795 -0.13212359
0.30676585 -0.4403834 0.25393844 0.2211087 0.19790277 -0.017590562 -0.13633537 -0.039563008
0.09294349 -0.04870545 0.18320012 -0.22346158 -0.013508851 -0.11121031 0.08450767 0.18707058
0.2710475 -0.1458612 -0.3591174 -0.574896 -0.040816642 -0.25248274 0.22176518 -0.4035153
0.24707651 -0.52038974 0.2979709 -0.1439659 0.0048296987 -0.2932281 -0.4398478 0.033019565
-0.016066508 0.05131177 0.37201524 -0.17325826 -0.019187223 -0.15211934 -0.25850952 -0.06570573
0.28684342 -0.26460275 0.35764807 0.11706273 0.51285547 0.28758687 0.15107389 -0.0850532
0.19285324 0.0769342 0.2673663 0.0024773572 0.25839657 0.08291923 -0.12303366 0.16393489
-0.118478194 -0.09598539 -0.09947789 -0.20772903 -0.34366202 0.09207576 0.111122705 0.0014242871
-0.15457533 0.27029344 -0.13645867 -0.111264355 0.29671946 0.11938371 -0.1232934 -0.3735644
-0.49969068 0.08145987 0.14347064 -0.02612174 0.35323092 -0.29227477 -0.009304962 -0.42680973
0.05790858 -0.03088221 0.3627973 0.15281647 -0.06454671 0.096565016 0.1398286 -0.03912332
00000000: 4341 16bd 9bfb 47be afa2 643e edb0 283e
00000010: 4be8 513e 69cd 1dbd efb0 b33e 6c73 39be
00000020: d829 333e 9f76 d1bc c072 0d3e 600e a93c
00000030: 59d5 b93d edf6 613e c1ad 613e 3045 943d
00000040: 102a 0c3e ceb7 093f 4808 abbe 6424 9bbe
00000050: f50d 78be 59c3 1fbd 1801 32bd 2dee e6be
00000060: 8db3 67be b412 943b 67da 0dbf 2083 14bd
00000070: acff 8b3e bcbe 0eba a704 dcbc c081 47be
00000080: 6cc8 0d3e df9d 973d 38cd c73d 9b33 473d
00000090: 1cef dc3e ba35 663d fe71 7abd c1f3 4ebe
000000a0: 97fd 3cbc 0136 b93e ab12 4d3e 60ac ac3e
000000b0: 801c 39be f262 833d f9c9 593e 8c46 1f3e
000000c0: 8eed 693e a8d0 3bbb 877e f3be e17a d73d
000000d0: 69cf 20be 00d8 433d 56f0 133d 2934 a3be
000000e0: c295 f33e d082 f43d 0168 a23e 213a a8be
000000f0: 436f e03d eea9 4ebd e5a1 b03e b928 963e
00000100: 5af1 0bbe bde3 cb3e 6d44 8e3e 91fc e63d
00000110: 43dc 77bc 1ff7 46be 2ca3 7b3e fd9d 773e
00000120: 93c2 fb3e 1589 d63e cfdb 55bd c151 cf3c
00000130: b7d2 4dbd 3bef d73d a7ad da3e 56d2 b0bd
00000140: 7faf 5fbe 120e d0be 63b5 09be 7d17 87bc
00000150: 7c57 62bd 1d64 72be e352 3c3e 90e3 92be
00000160: 4ae1 773d 047f 4a3e 84c4 44bd 32a4 1bbd
00000170: 658d 713e 7557 0bbe 680c 68be ce88 893e
00000180: e7f2 d93e b12b f23c a70d 2d3d 7dce babc
00000190: b3ec ab3e 1d26 793e 7fd7 c9be 81e6 58bd
000001a0: b134 8f3e 1cc3 11be c494 c03e 9d28 a2be
000001b0: 5f77 adbd c78a 1dbe c325 7d3e 0504 30be
000001c0: 783b 9f3d 0249 113f d2ea c63e 56ad 373e
000001d0: cfdd ab3c 1b4a 67be b02f 7abe 5294 6f3e
000001e0: 57f9 4bbe f216 e2bd de0f 8b3e 9d2c 3fbe
000001f0: c54e 51be cfd1 59be fc64 813e 5e70 49be
00000200: 8167 af3e b551 283d 067c 93be a7b3 7a3e
00000210: 50c7 56be 7c56 133e c4a2 80bd 7512 5f3e
00000220: e243 843e 99c8 bfbc f196 6b3e 30b8 503d
00000230: 0704 0a3d c1ff b13e e7a6 0c3e 6474 303e
00000240: 6e67 3dbd 1f57 973e 61eb a23d c26c e43d
00000250: 118c e5bc a744 a2be 4024 3b3d 7974 673d
00000260: b49f 6abe bd12 57bd 2de3 4bbe 5a89 f13e
00000270: 621f a63e 85db f9bc 7a4f 45be 6ec4 7e3e
00000280: 3765 89be 2e2e 2e3d ad04 67be 66b2 03be
00000290: 1b3a a3bd d84e 88be 3e30 8ebd 684b 07be
000002a0: 6a10 9d3e ef79 e1be 3804 823e 526a 623e
000002b0: 06a7 4a3e 151a 90bc 809b 0bbe d20c 22bd
000002c0: 2859 be3d 5e7f 47bd d098 3b3e 1dd3 64be
000002d0: 3a54 5dbc 3bc2 e3bd 5b12 ad3d 6e8f 3f3e
000002e0: bdc6 8a3e a35c 15be 3cde b7be 622c 13bf
000002f0: 5a2f 27bd 6b45 81be 6916 633e 8f99 cebe
00000300: a001 7d3e 4338 05bf a48f 983e cc6b 13be
00000310: 7342 9e3b fe21 96be bb33 e1be 863f 073d
00000320: e99d 83bc 4a2c 523d c878 be3e 9d6a 31be
00000330: 862e 9dbc 2cc5 1bbe 5c5b 84be ba90 86bd
00000340: 24dd 923e 037a 87be a61d b73e 96be ef3d
00000350: 7f4a 033f 963e 933e 1db3 1a3e 5f30 aebd
00000360: 527b 453e ae8f 9d3d 3ce4 883e 285b 223b
00000370: 8e4c 843e 8fd1 a93d 12f9 fbbd 8cde 273e
00000380: b2a4 f2bd fd93 c4bd 10bb cbbd ebb6 54be
00000390: 78f4 afbe 3792 bc3d 4d94 e33d 25af ba3a
000003a0: ff48 1ebe e763 8a3e d2bb 0bbe 91de e3bd
000003b0: 9deb 973e 727f f43d 4081 fcbd d543 bfbe
000003c0: 75d7 ffbe 6fd4 a63d f8e9 123e 42fd d5bc
000003d0: afda b43e 0aa5 95be d773 18bc ce86 dabe
000003e0: 8c31 6d3d b0fc fcbc 91c0 b93e ec7b 1c3e
000003f0: 1131 84bd e1c3 c53d 3b2f 0f3e c63f 20bd

network_body._body_endoder.seq_layers.0.bias f4 [128]
-0.051325858 -0.10410352 -0.053696826 -0.056334876 0.089312434 -0.020773383 -0.056693353 -0.06465063
-0.121612564 0.05733195 0.045919873 0.02449556 -0.13529196 -0.11296355 -0.13020179 0.037797164
-0.04609114 0.009723424 -0.11637411 -0.0044257017 -0.10967613 -0.043286987 -0.088097535 -0.09209515
0.042654637 -0.034732483 -0.11218246 -0.060668394 -0.057020105 0.018672014 -0.01761612 -0.14251496
-0.09097949 0.07500148 -0.14986311 -0.0841851 0.008110606 -0.009253834 -0.03064167 -0.041916396
-0.0048444844 0.009702486 -0.001473674 -0.042702362 -0.036551915 -0.010764601 -0.06681135 -0.000106977604
0.055079024 -0.02557204 -0.098284885 -0.025398672 -0.11206526 -0.0022142986 -0.0679324 -0.041196827
0.023814555 0.0024728116 -0.1499148 -0.12719442 -0.069816224 0.045074012 0.07144252 -0.123215914
0.033450615 -0.0020490761 -0.050342202 -0.05505493 -0.05294054 -0.02884265 -0.087969996 -0.17082128
0.017225666 -0.008944891 -0.017869253 -0.024069192 -0.01263265 0.011895349 -0.12355127 -0.02904335
0.0128395725 -0.01588058 0.026186042 -0.029818928 -0.025690153 -0.019803332 -0.08408245 -0.045148283
-0.112231106 -0.069027565 0.0018701341 0.04939868 -0.09533828 -0.021759275 0.06144071 -0.04527639
0.029319512 -0.10153151 -0.0039764657 0.05157638 -0.010425851 0.0071856873 0.0019098126 -0.061240043
-0.1811141 -0.002699228 -0.08150386 -0.06360367 0.015415425 -0.016029207 0.06287391 -0.099539965
-0.050551005 0.0050737155 -0.06700271 -0.08949763 -0.027959298 -0.009532141 -0.03342895 0.051521614
-0.06315842 0.0648805 -0.16599618 -0.09897714 0.010403993 0.050012283 0.04098321 -0.11599663
00000000: 103b 52bd 3a34 d5bd 34f1 5bbd 66bf 66bd
00000010: 70e9 b63d f12c aabc 4a37 68bd 8d67 84bd
00000020: 0210 f9bd e8d4 6a3d 7a16 3c3d eaaa c83c
00000030: fa89 0abe 6f59 e7bd 9e53 05be 33d1 1a3d
00000040: 10ca 3cbd ff4e 1f3c 8d55 eebd 7a05 91bb
00000050: e19d e0bd b24d 31bd 7b6c b4bd 629c bcbd
00000060: a1b6 2e3d a643 0ebd ebbf e5bd 6c7f 78bd
00000070: ea8d 69bd 0df6 983c ae4f 90bc 71ef 11be
00000080: 7453 babd 609a 993d b775 19be 3d69 acbd
00000090: 59e2 043c 659d 17bc 3d04 fbbc 87b0 2bbd
000000a0: 7bbe 9ebb 2df7 1e3c 4b28 c1ba ace8 2ebd
000000b0: 76b7 15bd 025e 30bc 64d4 88bd 2a59 e0b8
000000c0: 8b9a 613d 747c d1bc 9649 c9bd e010 d0bc
000000d0: 7982 e5bd c41d 11bb 2420 8bbd 01be 28bd
000000e0: be16 c33c e50e 223b 4483 19be 413f 02be
000000f0: cffb 8ebd 879f 383d 7550 923d a058 fcbd
00000100: 8303 093d cb49 06bb a033 4ebd 4781 61bd
00000110: 2ed8 58bd 6c47 ecbc 9d29 b4bd c6eb 2ebe
00000120: d71c 8d3c 988d 12bc 8a62 92bc c12c c5bc
00000130: 2df9 4ebc b6e4 423c 7308 fdbd 52ec edbc
00000140: 125d 523c fd17 82bc 1c84 d63c d346 f4bc
00000150: 2874 d2bc 993a a2bc 6b33 acbd 68ed 38bd
00000160: 6cd9 e5bd 535e 8dbd 4a1f f53a 4556 4a3d
00000170: b740 c3bd 8240 b2bc 41a9 7b3d bc73 39bd
00000180: 792f f03c c1ef cfbd 034d 82bb c141 533d
00000190: 30d1 2abc ea75 eb3b ad52 fa3a d7d6 7abd
000001a0: fa75 39be 88e5 30bb 7feb a6bd a442 82bd
000001b0: fb90 7c3c af4f 83bc 09c4 803d 9cdb cbbd
000001c0: 920e 4fbd 6941 a63b b838 89bd 894a b7bd
000001d0: e60a e5bc b22c 1cbc cbec 08bd 5408 533d
000001e0: 3459 81bd 11e0 843d e7fa 29be 87b4 cabd
000001f0: 8275 2a3c aed9 4c3d 03de 273d a48f edbd

network_body._body_endoder.seq_layers.2.weight f4 [128, 128]
0.03801226 0.007422179 -0.09039235 0.054134622 0.06640037 -0.20032345 0.0031811278 -0.12659785
0.15425815 0.027645808 -0.20452729 -0.023282435 -0.31984222 -0.044294585 -0.036275223 -0.21726942
-0.10469106 0.04508565 0.0718774 -0.015416806 -0.12772451 -0.17317498 -0.09702474 -0.054399073
0.0941398 -0.076382734 -0.060762122 -0.049095538 -0.049309436 0.0026119044 0.13535783 0.021921689
0.038175806 -0.057913877 -0.061422225 -0.25013164 -0.17100097 0.13762279 -0.07972001 -0.0057601887
0.22214445 0.14014798 -0.07074322 -0.15270625 -0.11560508 0.09987482 -0.022676196 -0.123811245
-0.080022395 -0.07032724 -0.20290771 0.11303719 -0.05738077 -0.012057496 0.06895215 -0.08363018
0.09922373 -0.15377097 0.014595232 -0.014173081 -0.028948069 -0.031091165 0.29725483 -0.09125781
-0.14364828 0.01841104 -0.085778825 -0.050497204 -0.03249846 0.027374284 -0.0035399587 -0.16031669
-0.10617445 0.0812625 0.06638209 0.13008614 -0.019495755 0.20187847 0.0055090813 -0.11075239
-0.07263072 0.052122496 0.21840554 -0.07248043 -0.111778125 -0.01924557 0.20543243 -0.28208116
-0.026190633 -0.15803039 0.10855541 0.009443085 0.024318948 0.059464425 -0.006076095 -0.12986098
0.051556394 0.056529827 0.0696498 0.06880437 -0.08417104 -0.057070855 0.19760726 -0.07133967
0.02966484 -0.027432578 -0.10624834 -0.03271269 -0.0047792504 -0.14045012 0.2547589 -0.049646843
0.06386011 0.034304317 0.027330216 -0.07569942 0.07716183 -0.15441118 0.06659886 -0.14003958
-0.027669104 0.14713418 -0.027452933 -0.06339218 -0.11628429 0.050642647 0.06398242 -0.040823277
-0.029976122 0.12962261 -0.15269719 -0.0795086 -0.0059079863 0.01483094 -0.09269499 0.05135399
0.030448588 0.13947462 0.06648975 0.10186827 -0.18890582 -0.15465713 -0.29900855 -0.24701881
-0.08813769 0.09283411 0.087946214 -0.0121134715 -0.026882797 0.061210573 0.080121726 0.12627804
-0.11268739 0.02940439 0.019293949 0.106567405 0.051630005 -0.10709628 0.01515564 -0.17072305
-0.12672395 -0.060081918 -0.003732473 -0.21882096 -0.17292458 0.1772538 -0.06542104 0.00055340515
6.8228386e-05 -0.047423817 -0.04094483 -0.14094731 -0.18495579 -0.05592374 -0.11213655 -0.013850859
0.1090834 -0.044305235 -0.107739046 0.0533022 -0.0865971 -0.02937387 -0.0014872313 -0.07097765
-0.025950206 -0.10573214 -0.08931781 -0.060773883 -0.03746281 -0.023288444 0.080187015 0.05579209
-0.19086275 0.12455489 -0.09178942 0.009780787 -0.031164266 -0.05925243 -0.05973331 0.095334925
-0.061263073 -0.037390523 0.26569945 -0.08971478 -0.042821888 -0.09872176 -0.09027066 -0.09317121
0.28720638 0.098622605 0.037273552 -0.21911284 -0.25211543 -0.09992334 0.17240144 -0.17685695
-0.09582157 0.022119537 0.18392901 -0.012360358 -0.036852147 0.15040195 -0.01599909 -0.25849786
-0.040769976 -0.03192407 -0.04201349 0.049539547 0.19813585 -0.021785911 -0.062394965 0.034959156
0.0004812494 0.13821673 -0.025734622 -0.07719321 0.20170768 -0.005583258 0.3500679 -0.11864888
0.07002109 -0.018665912 -0.035091337 -0.09681793 0.004027118 -0.107944936 -0.09180775 -0.047079306
0.02407475 0.101626344 -0.17383827 -0.2462742 -0.14218865 0.06642828 -0.11816693 -0.22770368
00000000: beb2 1b3d c035 f33b a01f b9bd 44bc 5d3d
00000010: ebfc 873d 9721 4dbe 787a 503b dea2 01be
00000020: d9f5 1d3e 7679 e23c 9a6f 51be ceba bebc
00000030: 5cc2 a3be 3d6e 35bd 5495 14bd e07b 5ebe
00000040: 4468 d6bd bbab 383d 7534 933d c596 7cbc
00000050: 37ca 02be c854 31be e8b4 c6bd 90d1 5ebd
00000060: 5ecc c03d 8d6e 9cbd b4e1 78bd 6718 49bd
00000070: b1f8 49bd 7c2c 2b3b 3e9b 0a3e 1d95 b33c
00000080: 3c5e 1c3d 1a37 6dbd df95 7bbd 4111 80be
00000090: e11a 2fbe fdec 0c3e 3f44 a3bd f7bf bcbb
000000a0: d679 633e f482 0f3e d2e1 90bd 075f 1cbe
000000b0: 5bc2 ecbd 2b8b cc3d 6ec3 b9bc c090 fdbd
000000c0: c8e2 a3bd ba07 90bd 0ac7 4fbe 0b80 e73d
000000d0: 1908 6bbd ce8c 45bc c936 8d3d 4d46 abbd
000000e0: d035 cb3d 2376 1dbe d720 6f3c 3636 68bc
000000f0: 8024 edbc e6b2 febc c931 983e 60e5 babd
00000100: 8918 13be c0d2 963c cfac afbd 28d6 4ebd
00000110: 1b1d 05bd 0940 e03c a7fe 67bb 0f2a 24be
00000120: fd71 d9bd f46c a63d 55f3 873d 4d35 053e
00000130: 90b5 9fbc 3bb9 4e3e 8685 b43b 26d2 e2bd
00000140: 6abf 94bd 667e 553d b4a5 5f3e 9f70 94bd
00000150: eeeb e4bd e3a8 9dbc e15c 523e f16c 90be
00000160: bd8d d6bc b8d2 21be 4c52 de3d 2bb7 1a3c
00000170: 8838 c73c f890 733d fb19 c7bb 47fa 04be
00000180: cc2c 533d d28b 673d 8ea4 8e3d 4ee9 8c3d
00000190: de61 acbd 21c3 69bd 8f59 4a3e 881a 92bd
000001a0: ae03 f33c 49ba e0bc bb98 d9bd befd 05bd
000001b0: 429b 9cbb 28d2 0fbe c26f 823e 7d5a 4bbd
000001c0: 17c9 823d af82 0c3d 9ee3 df3c 4c08 9bbd
000001d0: 0607 9e3d f71d 1ebe fc64 883d 8966 0fbe
000001e0: 51aa e2bc 58aa 163e f9e4 e0bc c2d3 81bd
000001f0: 7526 eebd aa6e 4f3d 3709 833d 4f36 27bd
00000200: 7c90 f5bc cabb 043e a75c 1cbe 68d5 a2bd
00000210: c897 c1bb 79fd 723c dfd6 bdbd 9058 523d
00000220: 516f f93c 6fd2 0e3e c72b 883d 50a0 d03d
00000230: 8770 41be 705e 1ebe a617 99be 80f2 7cbe
00000240: 8981 b4bd cf1f be3d 251d b43d 9577 46bc
00000250: 5039 dcbc f0b7 7a3d dc16 a43d 084f 013e
00000260: a5c8 e6bd 7ae1 f03c 580e 9e3c 0340 da3d
00000270: fc79 533d 4b55 dbbd 5d4f 783c 06d2 2ebe
00000280: ecc3 01be 7518 76bd 819c 74bb 9a12 60be
00000290: 2413 31be 0582 353e 77fb 85bd 6412 113a
000002a0: d615 8f38 7a3f 42bd c4b5 27bd 7e54 10be
000002b0: 0d65 3dbe 4b10 65bd d9a7 e5bd b7ee 62bc
000002c0: 1e67 df3d 6879 35bd 4aa6 dcbd 6853 5a3d
000002d0: d259 b1bd 78a1 f0bc 34ef c2ba bb5c 91bd
000002e0: 8795 d4bc 188a d8bd 42ec b6bd 09ee 78bd
000002f0: 9a72 19bd 68c7 bebc 1739 a43d 3f86 643d
00000300: 8671 43be a216 ff3d 17fc bbbd 983f 203c
00000310: 344c ffbc adb2 72bd eaaa 74bd f53e c33d
00000320: fdee 7abd ce26 19bd c209 883e 62bc b7bd
00000330: 0166 2fbd a22e cabd d3df b8bd 8cd0 bebd
00000340: b70c 933e a6fa c93d 27ac 183d 1e5f 60be
00000350: 4615 81be 9ca4 ccbd 018a 303e fd19 35be
00000360: 193e c4bd 0834 b53c e357 3c3e 1983 4abc
00000370: 47f2 16bd f802 1a3e 8610 83bc d559 84be
00000380: 6bfe 26bd d0c2 02bd 5616 2cbd fbe9 4a3d
00000390: 20e4 4a3e 5e78 b2bc dd91 7fbd 5531 0f3d
000003a0: 3350 fc39 b088 0d3e 6ad1 d2bc 7917 9ebd
000003b0: 758c 4e3e c3f3 b6bb 1a3c b33e 2ffe f2bd
000003c0: 3867 8f3d 41e9 98bc efbb 0fbd 7b48 c6bd
000003d0: eaf5 833b 3c12 ddbd b405 bcbd 3bd6 40bd
000003e0: 6938 c53c 7921 d03d a902 32be 4e2f 7cbe
000003f0: e799 11be 8d0b 883d 8101 f2bd 272b 69be

network_body._body_endoder.seq_layers.2.bias f4 [128]
-0.0044361213 -0.0076802634 -0.051159523 -0.10797921 0.047220714 -0.0422223 -0.12343609 0.030266296
-0.08805905 -0.058579016 -0.08567079 -0.026279965 -0.023695681 -0.038280826 -0.014037559 -0.070059426
-0.051487394 -0.042540815 -0.03121575 -0.107020885 0.02599931 -0.027946578 0.007715306 0.003250484
-0.08760471 0.00048215463 -0.12128354 0.042996198 0.02753375 -0.05611043 -0.07293871 -0.057747807
-0.10110602 -0.045648843 -0.08730716 -0.042054757 0.029264033 -0.08910898 -0.12947382 -0.10741462
-0.0412264 0.06627927 0.045454558 -0.06640685 -0.07795011 0.01015347 -0.096183866 -0.106609024
-0.029888688 0.028300649 -0.0365859 -0.08550552 -0.14161357 -0.11188526 0.05144431 0.0082828505
0.061272793 0.01463159 0.01935354 -0.05220817 -0.07132705 -0.13701205 0.010125826 -0.01723216
-0.10679504 0.090087906 -0.0052831885 -0.123268925 0.06787646 -0.070342384 -0.098152235 0.00030295973
-0.079066046 -0.064345516 -0.05412182 -0.10405075 -0.0029828092 -0.039018158 -0.046378598 -0.04939003
0.00991931 -0.06052134 0.057250027 0.04041313 -0.10800456 -0.1255978 -0.09131545 0.011897273
0.054509714 -0.100068346 0.0056342124 -0.080971055 -0.16292483 -0.05866738 -0.053120513 -0.04798653
-0.05871068 0.008564752 0.00970315 0.046399128 -0.10571458 -0.07369136 -0.07048219 -0.058078535
-0.067338035 0.038466655 -0.09770035 -0.08298698 0.008248341 -0.10308294 -0.0630576 -0.06464984
-0.010437094 -0.10814405 -0.09406472 -0.09177855 0.022027804 -0.037495706 -0.07266159 -0.0021651618
-0.051186178 0.08230403 -0.039646685 -0.07518092 -0.112074815 -0.031925973 -0.09364443 -0.06142955
00000000: e25c 91bb b8aa fbbb a68c 51bd 3424 ddbd
00000010: 826a 413d 4af1 2cbd 10cc fcbd 06f1 f73c
00000020: 4e58 b4bd 8df0 6fbd 2b74 afbd 1549 d7bc
00000030: 721d c2bc 5bcc 1cbd cafd 65bc 517b 8fbd
00000040: 72e4 52bd 473f 2ebd 2cb8 ffbc c42d dbbd
00000050: 81fc d43c 39f0 e4bc add0 fc3b 1206 553b
00000060: 196a b3bd b3c9 fc39 8163 f8bd c81c 303d
00000070: 758e e13c 0dd4 65bd e460 95bd f788 6cbd
00000080: ac10 cfbd 48fa 3abd 19ce b2bd 9c41 2cbd
00000090: 20bb ef3c c57e b6bd c994 04be 32fc dbbd
000000a0: 03dd 28bd 6dbd 873d 8f2e 3a3d 5100 88bd
000000b0: 4fa4 9fbd bd5a 263c 0cfc c4bd d555 dabd
000000c0: 1fd9 f4bc c3d6 e73c 19db 15bd 851d afbd
000000d0: 2603 11be 1924 e5bd 45b7 523d cbb4 073c
000000e0: 2ef9 7a3d 56b9 6f3c 518b 9e3c 3cd8 55bd
000000f0: eb13 92bd e34c 0cbe cbe6 253c 752a 8dbc
00000100: 5cb7 dabd 0280 b83d 991e adbb 6b74 fcbd
00000110: d002 8b3d ab0f 90bd 0a04 c9bd 91d6 9e39
00000120: 61ed a1bd 95c7 83bd d7ae 5dbd 8f18 d5bd
00000130: 3c7b 43bb 81d1 1fbd 7cf7 3dbd 334d 4abd
00000140: 9a84 223c 3ae5 77bd 017f 6a3d 3d88 253d
00000150: 7f31 ddbd b69c 00be 9803 bbbd c8ec 423c
00000160: 9445 5f3d a2f0 ccbd 339f b83b 27d4 a5bd
00000170: c4d5 26be 354d 70bd e594 59bd 868d 44bd
00000180: 9c7a 70bd 2c53 0c3c f6f9 1e3c 030d 3e3d
00000190: e380 d8bd 7feb 96bd f758 90bd c2e3 6dbd
000001a0: 86e8 89bd 368f 1d3d 1f17 c8bd 14f5 a9bd
000001b0: 0d24 073c 261d d3bd 5824 81bd 2367 84bd
000001c0: 5800 2bbc a17a ddbd 01a5 c0bd 64f6 bbbd
000001d0: a773 b43c 1995 19bd 9acf 94bd 63e5 0dbb
000001e0: 99a8 51bd 048f a83d 9064 22bd 74f8 99bd
000001f0: 7b87 e5bd cfc4 02bd a7c8 bfbd 8d9d 7bbd

action_model._continuous_distribution.log_sigma f4 [1, 2]
-0.42487493 -0.22623792
00000000: 3589 d9be eaaa 67be

action_model._continuous_distribution.mu.weight f4 [2, 128]
-0.070651025 -0.040635522 -0.01020054 -0.02376758 -0.02795554 -0.008637182 0.014564988 -0.0039024595
0.016208496 -0.007545902 -0.012748719 0.111728944 0.030575054 0.043770637 0.011945639 0.07308867
0.012247269 -0.011393839 -0.01606886 0.0053777075 -0.028768988 -0.022532914 -0.040807147 0.018203638
-0.003901959 -0.036377605 -0.020285292 -0.042812422 0.011944288 0.0046886094 -0.035259537 0.0905878
0.023189576 -0.0050344784 0.0018681166 -0.015776731 -0.042490505 -0.0031290126 0.016702162 -0.0036561778
-0.007669214 0.002296023 -0.0041562626 -0.03389665 -0.029263984 0.00045652053 0.0048662517 0.0567651
-0.006505101 -0.0018643528 0.01958836 -0.017020505 -0.007390764 0.0056208363 -0.0011530605 0.11143276
-0.092978954 -0.010458554 0.04117936 0.012412144 -0.022964947 -0.01952824 0.0070633716 0.029966902
0.027694585 0.009505728 0.07852811 0.010764936 -0.04791073 0.030844651 -0.0032070973 0.0053027063
0.014867872 -0.0074608726 -0.0178332 0.0082765175 -0.047611825 -0.033943124 0.061589196 -0.029314823
0.0116531085 0.005482035 -0.06055199 0.0068989187 0.007845807 -0.008696592 -0.010947408 -0.018537441
-0.012446741 0.010572498 0.014963439 0.021084195 -0.019599637 0.00019005826 -0.03135582 -0.033033106
0.021311259 -0.040692657 -0.025477383 0.078283705 0.03010601 0.03849824 -0.010176523 0.011597521
0.013593969 0.041040465 -0.016902745 0.06176561 0.020652426 -0.0326192 0.031336837 -0.03087369
0.06747046 0.01694844 0.00622581 0.015938703 0.028295686 -0.043871097 0.0004247992 0.008736089
-0.0262132 -0.01694248 -0.049096793 -0.02174244 -0.02206344 0.0027455878 -0.0029533505 0.02598159
-0.04504571 -0.0662314 -0.021396022 -0.012997072 0.04786357 -0.001100001 -0.042268675 -0.059403874
-0.07069897 -0.00014000043 -0.077076234 -0.061959516 -0.10999506 -0.040591788 -0.013816823 -0.02343652
-0.035852257 -0.011944432 -0.017621702 -0.07443163 -0.0040451894 -0.01658469 -0.034683887 -0.080742806
-0.012331035 -0.040172715 -0.057530977 0.0005063081 0.052857522 -0.0053045657 -0.055870585 0.043419253
-0.02568653 8.450575e-05 0.047384314 -0.023623258 -0.01867844 -0.045040354 -0.032705694 -0.04523263
-0.07838653 0.049570005 0.06358274 -0.027194444 -0.036781445 0.06347203 -0.055702824 0.0024057603
0.0066763703 0.028792847 -0.046861183 -0.021659775 -0.02794619 -0.0016943082 0.05453043 -0.017528506
0.007432874 -0.0039760387 -0.032562986 0.03572526 -0.03583154 -0.041219346 -0.06295179 -0.05109989
-0.025773913 0.057647627 -0.0017657193 -0.002451977 -0.022001889 -0.08764984 -0.028380502 0.03136516
-0.049642805 -0.020639807 0.018654875 -0.026412472 -0.026469331 -0.060051695 -0.057954125 -0.05185605
-0.030370003 -0.003988949 -0.04607256 -0.059403043 -0.020430483 -0.041685607 -0.009378349 -0.03305101
-0.10217121 0.011500019 0.061173297 -0.016993513 -0.005313361 -0.032212876 -0.030977273 -0.08364207
0.049174406 -0.06953278 -0.07146534 -0.044328347 -0.054618523 -0.024259627 -0.036794644 -0.013409542
-0.024172276 0.1038586 -0.041531406 0.0007983309 0.054448184 -0.03039522 -0.031191852 -0.09513155
-0.01426639 -0.04513241 -0.038089804 -0.007950507 0.044108767 -0.007829703 -0.013172461 0.005937033
-0.016681787 0.11340574 -0.033131372 -0.046357147 -0.00057645206 0.024576213 -0.013645304 -0.0699724
00000000: 7cb1 90bd 6f71 26bd 2a20 27bc 3ab4 c2bc
00000010: 0403 e5bc f882 0dbc fda1 6e3c 68c0 7fbb
00000020: aec7 843c 9d43 f7bb 01e0 50bc 25d2 e43d
00000030: 8978 fa3c d748 333d a4b7 433c 83af 953d
00000040: c5a8 483c 39ad 3abc d8a2 83bc 7b37 b03b
00000050: f1ac ebbc f296 b8bc 6525 27bd cc1f 953c
00000060: 02b8 7fbb af00 15bd 572d a6bc 145c 2fbd
00000070: fab1 433c e8a2 993b 4e6c 10bd 1986 b93d
00000080: 11f8 bd3c 44f8 a4bb 97db f43a 343e 81bc
00000090: 860a 2ebd 1f10 4dbb f9d2 883c 7c9c 6fbb
000000a0: 084e fbbb e078 163b 4231 88bb 37d7 0abd
000000b0: 06bb efbc 2659 ef39 1475 9f3b 8682 683d
000000c0: be28 d5bb 4d5d f4ba c577 a03c 966e 8bbc
000000d0: 392e f2bb fe2e b83b 4a22 97ba dc36 e43d
000000e0: c06b bebd 5b5a 2bbc b0ab 283d 4e5c 4b3c
000000f0: fc20 bcbc b0f9 9fbc db73 e73b 267d f53c
00000100: c1df e23c eabd 1b3c 59d3 a03d 6a5f 303c
00000110: 0b3e 44bd ecad fc3c 2a2e 52bb 53c2 ad3b
00000120: 6098 733c 567a f4bb ee16 92bc 3b9a 073c
00000130: 9e04 43bd f207 0bbd f444 7c3d a425 f0bc
00000140: aeec 3e3c a5a2 b33b 5d05 78bd 5310 e23b
00000150: b38b 003c 277c 0ebc c25c 33bc d5db 97bc
00000160: 6aed 4bbc 4538 2d3c 3629 753c c3b8 ac3c
00000170: 6b8f a0bc 604a 4739 f66e 00bd b94d 07bd
00000180: f394 ae3c 58ad 26bd f2b5 d0bc 3553 a03d
00000190: e1a0 f63c 55b0 1d3d 6ebb 26bc 8703 3e3c
000001a0: 3db9 5e3c 0c1a 283d a077 8abc f0fd 7c3d
000001b0: 472f a93c b69b 05bd 0e5b 003d d2ea fcbc
000001c0: f42d 8a3d 74d7 8a3c e101 cc3b e291 823c
000001d0: 5bcc e73c 2eb2 33bd 95b7 de39 d021 0f3c
000001e0: 11bd d6bc f5ca 8abc b819 49bd 341d b2bc
000001f0: 63be b4bc 52ef 333b 008d 41bb 58d7 d43c
00000200: da81 38bd 54a4 87bd b646 afbc acf1 54bc
00000210: 970c 443d e92d 90ba eb21 2dbd 7a51 73bd
00000220: 9fca 90bd 14cd 12b9 25da 9dbd 43c9 7dbd
00000230: 1745 e1bd 9343 26bd f55f 62bc f2fd bfbc
00000240: d1d9 12bd 94b2 43bc 635b 90bc 9c6f 98bd
00000250: 828d 84bb 9edc 87bc b110 0ebd 7c5c a5bd
00000260: 1c08 4abc 258c 24bd 9aa5 6bbd c3b9 043a
00000270: 2181 583d ecd1 adbb 8ed8 64bd 63d8 313d
00000280: 8f6c d2bc ae38 b138 0e16 423d 9085 c1bc
00000290: 8703 99bc 3c7c 38bd 68f6 05bd da45 39bd
000002a0: 1e89 a0bd eb09 4b3d ab37 823d e2c6 debc
000002b0: 24a8 16bd a0fd 813d a528 64bd f6a9 1d3b
000002c0: 74c5 da3b fade eb3c 83f1 3fbd d76f b1bc
000002d0: 69ef e4bc 8d13 deba 4d5b 5f3d f197 8fbc
000002e0: 778f f33b 6e49 82bb c460 05bd a654 123d
000002f0: 18c4 12bd 9ed5 28bd deec 80bd 1e4e 51bd
00000300: d023 d3bc eb1f 6c3d b56f e7ba 59b1 20bb
00000310: 4e3d b4bc c281 b3bd 3a7e e8bc c178 003d
00000320: 4156 4bbd d014 a9bc 1cd2 983c f85e d8bc
00000330: 36d6 d8bc c4f8 75bd 4e61 6dbd 0267 54bd
00000340: 83ca f8bc bbb5 82bb 95b6 3cbd 9b50 73bd
00000350: d45d a7bc 87be 2abd a6a7 19bc 7f60 07bd
00000360: 243f d1bd 936a 3c3c da90 7a3d fb35 8bbc
00000370: b41b aebb a6f1 03bd 0dc4 fdbc 894c abbd
00000380: 1a6b 493d 3467 8ebd 6c5c 92bd a491 35bd
00000390: acb7 5fbd 20bc c6bc fbb5 16bd b2b3 5bbc
000003a0: f004 c6bc d1b3 d43d d61c 2abd 1447 513a
000003b0: 0f05 5f3d 65ff f8bc 0e86 ffbc 55d4 c2bd
000003c0: 94bd 69bc c3dc 38bd 0e04 1cbd d842 02bc
000003d0: 65ab 343d 2848 00bc 4ed1 57bc 718b c23b
000003e0: 3ea8 88bc 4541 e83d c3b4 07bd fee0 3dbd
000003f0: 0b1d 17ba 0e54 c93c 8e90 5fbc b14d 8fbd

action_model._continuous_distribution.mu.bias f4 [2]
-0.008363613 0.06843563
00000000: 8907 09bc fb27 8c3d

exp_avg f4 [128, 22]
8.088238e-06 3.2621942e-06 -1.1349994e-07 -3.3732908e-06 4.8552727e-31 -1.4484191e-06 -1.2934437e-05 -1.2200432e-05
6e-45 -1.795311e-06 -2.1096468e-05 -1.7254915e-05 6e-45 -2.3843313e-06 1.6368158e-05 6.622312e-09
5.909617e-07 0.0 -5.580998e-06 -0.00022963494 7.1661845e-05 0.00011706789 6.550885e-05 0.0001709409
-0.00028757442 3.5996185e-05 7.9189515e-30 0.00011669078 0.00069844397 0.00070062716 -6e-45 0.0001201316
0.00063673384 0.0006605263 6e-45 0.00014953244 -0.0010017233 -2.0265382e-07 -0.00093300466 0.0
0.00034331146 0.014125841 -0.0056099715 -0.00541874 0.00031085036 0.00045457832 -9.919965e-05 0.00023159897
7.349711e-30 0.00022173414 0.00088674936 0.000869176 6e-45 0.00020847257 0.0005543084 0.0006900499
6e-45 0.00023382489 0.00036663932 -1.2070072e-06 0.0040193363 0.0 0.0003919862 0.01612859
-0.013623179 -0.004281882 4.945721e-07 1.6282875e-05 2.394028e-06 2.7610564e-05 8.416843e-31 1.21912735e-05
6.05156e-05 6.252935e-05 6e-45 1.1418664e-05 5.7180474e-05 6.0381863e-05 -6e-45 1.2759061e-05
-7.473189e-05 -6.656212e-08 -3.77432e-05 0.0 3.1220396e-05 0.0012845892 -0.00022754192 0.00019427622
4.8764664e-06 2.7937454e-05 -1.0751762e-05 3.2713044e-05 5.5064213e-31 2.0297543e-05 0.000113665774 0.00011401065
6e-45 1.9899848e-05 0.00011108736 0.00011257658 -6e-45 2.3429895e-05 -0.0001392499 -5.480608e-08
-0.00010009731 0.0 5.4948843e-05 0.0022609166 -0.0008801295 -0.0006400548 0.00041859876 0.00037317318
0.00021168585 0.00016398788 6.0054348e-30 7.57574e-05 -0.0004814749 -0.00022502485 6e-45 4.8337362e-05
-0.0006225149 -0.00028285017 6e-45 3.6095327e-05 0.0010633883 5.4994996e-07 0.0027382679 0.0
-2.3921813e-05 -0.0009842821 -0.0023190365 -0.0014148946 6.736505e-05 0.0006051261 0.000907439 0.0013692338
1.0458218e-29 0.0004369436 0.0025230069 0.0024014285 -6e-45 0.00041185904 0.0023247506 0.0022928338
-6e-45 0.00046053305 -0.0024021089 -1.4874829e-06 -0.0020391864 0.0 0.0011034365 0.04540181
-0.011097088 -0.0007888875 -9.859486e-05 7.764061e-05 0.0001892474 0.00032554579 -8.39986e-31 0.000106069885
0.00054305355 0.00055850286 -6e-45 0.00010434207 0.0007206866 0.0006603027 -6e-45 0.00012062452
-0.00056434976 -3.639014e-07 0.00023498051 0.0 0.0002762576 0.01136685 0.00025109728 -0.0007288434
1.406891e-06 1.1572134e-05 -2.096171e-05 5.6775734e-06 -1.3564175e-30 9.628428e-06 4.640063e-05 4.7740275e-05
-6e-45 9.809675e-06 5.244325e-05 5.0884646e-05 -6e-45 1.1672707e-05 -3.2022577e-05 -2.8798967e-08
8.17798e-05 0.0 2.375243e-05 0.0009773131 -0.00049819093 -0.00017975486 -1.6929022e-05 -8.349042e-05
-0.00032743113 -0.00023770699 -8.539383e-30 -4.8221405e-05 -0.00019594586 -0.00010370581 -6e-45 -3.7050107e-05
2.621542e-05 1.077613e-05 6e-45 -2.7395006e-05 -0.0008398634 7.2066763e-07 -0.0021700712 0.0
-1.2007949e-06 -4.9413648e-05 0.0014467367 -0.0023793322 7.540385e-06 3.7253994e-06 7.4725313e-06 1.1897264e-06
-5.835735e-33 -1.2451115e-06 -1.18092175e-05 -1.1161086e-05 6e-45 -1.7267625e-06 -1.7737097e-05 -1.4835229e-05
6e-45 -2.419045e-06 1.3078892e-05 1.29630005e-08 -5.7115863e-06 0.0 -5.1419993e-06 -0.00021157175
8.878024e-05 6.0223152e-05 -0.00024707345 -0.0005496064 -0.00028252395 -0.0006951658 -6.78969e-30 -0.0003207514
-0.0015976616 -0.0015065752 -6e-45 -0.0003007374 -0.001294182 -0.0013526827 6e-45 -0.0003368089
00000000: b8b2 0737 12ec 5a36 40bd f3b3 b260 62b6
00000010: 0790 1d0d 4d67 c2b5 fc00 59b7 75b0 4cb7
00000020: 0400 0000 6bf6 f0b5 52f8 b0b7 a6be 90b7
00000030: 0400 0000 8002 20b6 5a4e 8937 798a e331
00000040: 94a2 1e35 0000 0000 6844 bbb6 29ca 70b9
00000050: 2949 9638 5882 f538 cc61 8938 993e 3339
00000060: 96c5 96b9 9cfa 1638 8c9d 200f e3b7 f438
00000070: c817 373a 4baa 373a 0400 0080 29ef fb38
00000080: 7cea 263a 2b27 2d3a 0400 0000 cfcb 1c39
00000090: 424c 83ba 0f99 59b4 e294 74ba 0000 0000
000000a0: 7cfe b339 1270 673c dad3 b7bb b08f b1bb
000000b0: a1f9 a239 7854 ee39 6809 d0b8 60d9 7239
000000c0: e211 150f 4e81 6839 be74 683a 6ad9 633a
000000d0: 0400 0000 6e99 5a39 024f 113a 77e4 343a
000000e0: 0400 0000 e42e 7539 7f39 c039 7400 a2b5
000000f0: a3b4 833b 0000 0000 7f83 cd39 1b20 843c
00000100: c133 5fbc 084f 8cbb bcc2 0435 3597 8837
00000110: 16a9 2036 3c9d e737 3392 880d 1f89 4c37
00000120: 21d2 7d38 3022 8338 0400 0000 ca92 3f37
00000130: 11d5 6f38 8842 7d38 0400 0080 c00f 5637
00000140: 61b9 9cb8 eaf0 8eb3 744e 1eb8 0000 0000
00000150: a5f2 0238 a95f a83a 5298 6eb9 a0b6 4b39
00000160: 87a0 a336 3a5b ea37 7762 34b7 5d35 0938
00000170: 8fb1 320d a444 aa37 d95f ee38 0019 ef38
00000180: 0400 0000 99ee a637 93f7 e838 1717 ec38
00000190: 0400 0080 518b c437 9c03 12b9 ec63 6bb3
000001a0: 56eb d1b8 0000 0000 df78 6638 e32b 143b
000001b0: 7eb8 66ba 5ac9 27ba 6077 db39 75a6 c339
000001c0: fdf7 5d39 29f4 2b39 009c f30e f2df 9e38
000001d0: 786e fcb9 a6f4 6bb9 0400 0000 d9bd 4a38
000001e0: 4530 23ba 824b 94b9 0400 0000 1065 1738
000001f0: 6461 8b3a 46a0 1335 8374 333b 0000 0000
00000200: b4ab c8b7 0703 81ba fafa 17bb fc73 b9ba
00000210: 5646 8d38 53a1 1e3a 33e1 6d3a dd77 b33a
00000220: 2c1e 540f 9415 e539 0859 253b 4961 1d3b
00000230: 0400 0080 c9ee d739 d85a 183b 5e43 163b
00000240: 0400 0080 b373 f139 b36c 1dbb 86a5 c7b5
00000250: dfa3 05bb 0000 0000 2fa1 903a 40f7 393d
00000260: 90d0 35bc 58cd 4eba b6c4 ceb8 fcd2 a238
00000270: b670 4639 04ae aa39 a74b 888d d671 de38
00000280: b55b 0e3a 7e68 123a 0400 0080 39d2 da38
00000290: 76ec 3c3a 2a18 2d3a 0400 0080 ccf7 fc38
000002a0: dff0 13ba 3a5e c3b4 1a65 7639 0000 0000
000002b0: abd6 9039 063c 3a3c b5a5 8339 da0f 3fba
000002c0: 68d4 bc35 f025 4237 eed6 afb7 fc81 be36
000002d0: 6117 dc8d c989 2137 4c9e 4238 bb3c 4838
000002e0: 0400 0080 3c94 2437 83f6 5b38 f96c 5538
000002f0: 0400 0080 e5d5 4337 fb4f 06b8 9961 f7b2
00000300: 3281 ab38 0000 0000 f43f c737 3019 803a
00000310: 0799 02ba 947c 3cb9 cc02 8eb7 9417 afb8
00000320: 10ab abb9 fc40 79b9 0333 2d8f 5741 4ab8
00000330: d176 4db9 a27c d9b8 0400 0080 4066 1bb8
00000340: 30e9 db37 20cb 3437 0400 0000 54ce e5b7
00000350: 472a 5cba e773 4135 c137 0ebb 0000 0000
00000360: 002b a1b5 8041 4fb8 6ea0 bd3a 92ee 1bbb
00000370: 6a03 fd36 e001 7a36 8ebc fa36 b0ae 9f35
00000380: 2e68 f289 b51d a7b5 3420 46b7 8040 3bb7
00000390: 0400 0000 1cc3 e7b5 20ca 94b7 d3e4 78b7
000003a0: 0400 0000 e056 22b6 6a6d 5b37 e1b3 5e32
000003b0: 27a6 bfb6 0000 0000 7089 acb6 5cd9 5db9
000003c0: 872f ba38 1e98 7c38 a389 81b9 7613 10ba
000003d0: b91f 94b9 ca3b 36ba 16b6 098f 862a a8b9
000003e0: a168 d1ba 4678 c5ba 0400 0080 4aac 9db9
000003f0: 8ba1 a9ba 804c b1ba 0400 0000 ba95 b0b9

exp_avg_sq f4 [128, 22]
2.9067712e-07 3.9737768e-07 1.1687942e-07 2.7898466e-07 2.5584012e-07 3.905259e-07 1.3837236e-08 2.4274567e-07
9.6413814e-08 3.30723e-07 7.159929e-09 4.1246017e-07 6.404248e-08 3.2395417e-07 3.288082e-06 7.971051e-12
0.0012835873 0.0 1.2758272e-06 0.0008652541 5.4674307e-05 0.00044944492 4.0999453e-06 4.6526375e-06
7.315558e-06 7.740846e-06 8.312804e-07 1.5534047e-06 5.7078096e-06 7.0365936e-06 9.008814e-09 5.3246373e-07
4.288439e-06 5.2493774e-06 1.5780545e-07 6.773643e-07 1.4215443e-05 6.8521404e-12 0.00011391838 0.0
2.67411e-06 0.0039765495 0.0002017373 0.00054873666 2.9645706e-05 3.3680724e-05 5.0263723e-05 5.381776e-05
7.115592e-06 1.2046244e-05 3.6207686e-05 4.520827e-05 5.281327e-09 3.789193e-06 2.8233919e-05 3.622021e-05
1.0818845e-06 4.8430684e-06 9.271627e-05 3.7547083e-11 0.00068933994 0.0 1.841542e-05 0.028449053
0.0012432922 0.0028635876 7.2042305e-08 8.7277e-08 1.0232021e-07 1.18100104e-07 3.8828407e-08 5.4816862e-08
8.584516e-08 1.03766226e-07 7.650392e-09 2.5579705e-08 6.008815e-08 8.618971e-08 4.59051e-09 2.3194751e-08
3.6001006e-07 2.11156e-13 4.9408038e-05 0.0 8.9863036e-08 7.866272e-05 4.572476e-06 2.4475508e-05
1.09871394e-07 2.6476127e-07 1.0796705e-07 2.7122937e-07 7.1232634e-08 2.5027282e-07 6.2809804e-08 2.947464e-07
1.3874626e-08 3.2098552e-07 4.323979e-08 3.8568996e-07 1.4932242e-08 3.4780166e-07 1.1123842e-06 7.453994e-12
0.000104247236 0.0 1.315259e-06 0.00034310968 0.00015509382 0.0002708033 2.8664355e-05 3.470714e-05
5.431694e-05 5.8789014e-05 7.3831743e-06 1.3147521e-05 2.4549023e-05 4.25292e-05 6.12499e-08 4.3762197e-06
1.5453756e-05 2.8752163e-05 3.1788063e-06 7.403857e-06 0.000119122706 8.217674e-11 0.00093027914 0.0
2.1860638e-05 0.029569432 0.00083973905 0.0068557933 3.3006494e-05 3.8812712e-05 6.163483e-05 6.634199e-05
8.276944e-06 1.4407101e-05 4.426277e-05 5.673961e-05 3.6201233e-09 4.6202936e-06 3.3161443e-05 4.4134456e-05
1.1601333e-06 5.7406432e-06 0.000111323054 4.347305e-11 0.0008545155 0.0 2.2425416e-05 0.03547709
0.0009904017 0.0029117304 3.4211418e-05 3.645387e-05 4.6766378e-05 4.886978e-05 9.6561225e-06 1.4125925e-05
1.8760365e-05 2.6713604e-05 3.9024425e-08 3.640176e-06 9.744215e-06 1.5018664e-05 2.3641238e-07 3.3330107e-06
1.7253347e-05 6.6443136e-11 0.001046296 0.0 1.3308199e-05 0.02080453 0.00057835324 0.0019388964
3.81526e-07 5.0727505e-07 1.1283968e-06 1.1689762e-06 1.498267e-07 2.641876e-07 7.0230914e-07 8.600255e-07
1.0377692e-08 1.294332e-07 4.351379e-07 6.167543e-07 9.7301625e-09 1.3960455e-07 6.6237766e-07 1.21948e-11
6.14491e-05 0.0 4.7904473e-07 0.0005109067 4.3080887e-05 0.000100856734 1.9201521e-05 2.1214828e-05
2.9420342e-05 3.1498297e-05 5.502208e-06 8.528322e-06 1.7341192e-05 2.2422473e-05 3.3878194e-08 2.380573e-06
1.3861079e-05 1.8418285e-05 8.518094e-07 3.1378502e-06 4.3803488e-05 2.6667068e-11 0.00044729517 0.0
1.0316876e-05 0.016215388 0.00048418235 0.0012849953 1.3999114e-07 2.4599132e-07 8.442141e-08 2.1247136e-07
1.1950664e-07 2.4429687e-07 8.626151e-09 1.9854916e-07 3.838197e-08 2.4738335e-07 3.2276355e-09 3.1479257e-07
5.7367117e-08 3.0124255e-07 2.301755e-06 8.450407e-12 0.0005056257 0.0 1.0931961e-06 0.00041663196
0.00010982024 0.00030253004 3.6740294e-05 4.0425883e-05 5.8251157e-05 6.068487e-05 6.6385405e-06 1.205438e-05
4.7271806e-05 5.289894e-05 2.418583e-09 3.961591e-06 3.7474016e-05 4.4033437e-05 4.806344e-07 4.373661e-06
00000000: 5c0e 9c34 2c57 d534 24ff fa33 5cc7 9534
00000010: 665a 8934 79a9 d134 cfb8 6d32 b652 8234
00000020: 0e0c cf33 398e b134 6703 f631 1870 dd34
00000030: ba87 8933 eceb ad34 d2a8 5c36 6c3a 0c2d
00000040: 0b3e a83a 0000 0000 173d ab35 38d2 623a
00000050: 1752 6538 7aa3 eb39 4392 8936 da1d 9c36
00000060: 2a78 f536 aede 0137 2725 5f35 947e d035
00000070: b685 bf36 e11b ec36 2fc5 1a32 a1ee 0e35
00000080: 69e5 8f36 cf23 b036 3b71 2934 1fd4 3535
00000090: dd7e 6e37 9816 f12c 77e7 ee38 0000 0000
000000a0: dc74 3336 b74d 823b 7289 5339 18d9 0f3a
000000b0: abaf f837 6744 0d38 43d2 5238 61ba 6138
000000c0: 78c2 ee36 391a 4a37 b5dd 1738 039e 3d38
000000d0: 0b77 b531 d749 7e36 e1d7 ec37 28eb 1738
000000e0: 4535 9135 a481 a236 ab70 c238 4222 252e
000000f0: d2b4 343a 0000 0000 d07a 9a37 fd0d e93c
00000100: f7f5 a23a 07ab 3b3b adb5 9a33 0a6d bb33
00000110: 21bb db33 389e fd33 49c4 2633 c76f 6b33
00000120: e059 b833 16d6 de33 c86e 0332 5eba db32
00000130: cf09 8133 4b17 b933 8eba 9d31 cc3d c732
00000140: 6847 c134 93bd 6d2a 7a3b 4f38 0000 0000
00000150: bafa c033 baf7 a438 456d 9936 c150 cd37
00000160: 70f2 eb33 8324 8e34 83db e733 7b9d 9134
00000170: 8ef8 9833 3c5d 8634 0ee2 8633 a33d 9e34
00000180: 405d 6e32 ea53 ac34 a7b6 3933 d310 cf34
00000190: 5944 8032 7fb9 ba34 3b4d 9535 ce21 032d
000001a0: 4f9f da38 0000 0000 f587 b035 67e3 b339
000001b0: aea0 2239 9bfa 8d39 3c74 f037 8292 1138
000001c0: 5fd2 6338 3994 7638 fcbc f736 2c94 5c37
000001d0: a0ee cd37 6161 3238 7d88 8333 71d7 9236
000001e0: b0a2 8137 cd30 f137 7a53 5536 a66e f836
000001f0: 84d1 f938 64b5 b42e fadd 733a 0000 0000
00000200: 5d61 b737 983b f23c ef21 5c3a 90a6 e03b
00000210: 7470 0a38 d5ca 2238 f341 8138 1621 8b38
00000220: 34dd 0a37 07b6 7137 caa6 3938 b1fb 6d38
00000230: e2c5 7831 0508 9b36 d416 0b38 031d 3938
00000240: e0b5 9b35 c09f c036 1c76 e938 4e32 3f2e
00000250: 9101 603a 0000 0000 371e bc37 6d50 113d
00000260: 5ed0 813a bbd2 3e3b 3b7e 0f38 0be6 1838
00000270: 0427 4438 87f9 4c38 bb00 2237 63fe 6c37
00000280: 945f 9d37 0717 e037 cf9b 2733 bf49 7436
00000290: 167b 2337 acf8 7b37 8ad8 7d34 b0ac 5f36
000002a0: 48bb 9037 291c 922e de23 893a 0000 0000
000002b0: 4846 5f37 436e aa3c a19c 173a 9122 fe3a
000002c0: 89d4 cc34 ad2b 0835 6b73 9735 b7e5 9c35
000002d0: 0de0 2034 abd5 8d34 5186 3c35 81dc 6635
000002e0: 9249 3232 54fa 0a34 e69c e934 088f 2535
000002f0: b529 2732 35e6 1534 3fce 3135 7f88 562d
00000300: 3cde 8038 0000 0000 b497 0035 5eee 053a
00000310: c0b1 3438 0c83 d338 f412 a137 7ff6 b137
00000320: b4cb f637 0a1d 0438 9b9f b836 dd14 0f37
00000330: ed77 9137 e517 bc37 7881 1133 efc1 1f36
00000340: e28c 6837 f780 9a37 e5a7 6435 db93 5236
00000350: a3b9 3738 e690 ea2d f182 ea39 0000 0000
00000360: a516 2d37 22d6 843c dbd9 fd39 4a6d a83a
00000370: 7950 1634 ca10 8434 294b b533 af23 6434
00000380: bc51 0034 e827 8334 3732 1432 c730 5534
00000390: 6cd9 2433 1cd0 8434 2acd 5d31 c300 a934
000003a0: d063 7633 76ba a134 da77 1a36 40a9 142d
000003b0: f78b 043a 0000 0000 efb9 9235 656f da39
000003c0: 4b4f e638 e59c 9e39 9719 1a38 f68e 2938
000003d0: b452 7438 e287 7e38 a1c0 de36 2b3d 4a37
000003e0: b745 4638 cedf 5d38 2934 2631 cfed 8436
000003f0: 6b2d 1d38 8bb0 3838 f204 0135 76c1 9236

exp_avg f4 [128]
-1.1627083e-05 0.00071523216 0.0008166379 6.504251e-05 0.00011447679 -4.9837014e-05 0.002298826 0.0005755367
4.9484206e-05 -2.50194e-06 -1.0712498e-05 -0.0014010022 1.5013229e-05 -0.0002167679 7.08859e-05 -0.0003047383
0.0003707527 0.00016050648 6.652824e-05 0.0009663676 -0.0014119876 -1.0557533e-05 -0.00010821947 0.00010573844
-0.00016171507 -0.001327646 0.0023129708 0.00047993864 -0.0011434476 -0.0018760083 0.0010295715 1.16882175e-05
0.00019263661 -0.00045328488 -0.00025238207 -0.0011318458 0.0003049384 -1.2347446e-05 -0.0019151778 7.734643e-05
-6.929031e-06 0.00059654086 -0.00036946498 0.0009779456 -0.00042510402 8.3232546e-05 9.060587e-05 0.0020690204
-0.0009237675 0.0010687242 0.0022581911 -0.002785293 0.0009134536 -0.0011924107 -0.0015045918 -0.0016253849
-7.981657e-05 -0.001448455 -0.000705406 0.00016441295 -0.0014940861 0.0017263546 -0.0013601487 -0.00021031308
6.3802305e-05 -0.0001970314 0.0015387944 -0.0013845001 0.0010167226 -0.0013439914 0.0015717122 6.410508e-05
-0.0023427678 -0.0023010361 0.0014761682 -0.0020767364 -0.0017895361 -0.00023467149 -6.2789535e-05 -0.0007366106
0.0006217551 5.665385e-05 2.3865465e-05 -0.0013016125 0.0012987292 0.001472282 0.0006671195 2.1535461e-05
-0.0011531889 0.0015338864 0.00090130215 0.001760068 -0.00012503212 3.9036157e-05 0.0011706606 -0.0013530075
-0.00078002206 -0.00024122569 0.00019915309 1.519395e-05 -0.00020992971 -0.0008673015 -8.320555e-05 0.0001759378
4.3183154e-05 0.0011269615 0.00272879 -0.00090433675 4.3734117e-06 -0.00039865103 0.0017446734 -0.00096122135
0.0013144518 0.0008440931 -0.00073457486 0.00011895146 -0.0004542663 0.002041466 -0.0031707706 0.0004097763
-4.056636e-05 0.002275996 0.0005987397 9.00579e-05 -0.00047449634 0.001231593 -8.744657e-06 1.4289511e-05
00000000: f111 43b7 6b7e 3b3a a413 563a 6f67 8838
00000010: 4213 f038 1608 51b8 e6a7 163b 9ddf 163a
00000020: 438d 4f38 00e7 27b6 d4b9 33b7 d5a1 b7ba
00000030: 54e1 7b37 314c 63b9 94a8 9438 48c5 9fb9
00000040: 9661 c239 a14d 2839 1485 8b38 d553 7d3a
00000050: 7112 b9ba 4220 31b7 e3f3 e2b8 e5bf dd38
00000060: 0f92 29b9 6804 aeba 3695 173b 46a0 fb39
00000070: bcdf 95ba 65e4 f5ba b0f2 863a 8318 4437
00000080: 7ffe 4939 dea6 edb9 2652 84b9 715a 94ba
00000090: 24e0 9f39 e027 4fb7 b406 fbba 0c35 a238
000000a0: ec7f e8b6 2e61 1c3a c0b4 c1b9 692e 803a
000000b0: 7fe0 deb9 228d ae38 a803 be38 6798 073b
000000c0: fd28 72ba 6f14 8c3a 29fe 133b 7689 36bb
000000d0: d574 6f3a aa4a 9cba b935 c5ba de0a d5ba
000000e0: 3263 a7b8 16da bdba ffea 38ba 4466 2c39
000000f0: 36d5 c3ba d946 e23a 0447 b2ba 7d87 5cb9
00000100: 9acd 8538 379a 4eb9 5fb1 c93a 1d78 b5ba
00000110: 8d43 853a de28 b0ba e901 ce3a 2770 8638
00000120: 1f89 19bb fbcc 16bb fc7b c13a db19 08bb
00000130: de8e eaba 2612 76b9 e0ad 83b8 1a19 41ba
00000140: 47fd 223a 9c9f 6d38 b232 c837 de9a aaba
00000150: 1f3a aa3a 96f9 c03a a2e1 2e3a 0da7 b437
00000160: 9926 97ba b00c c93a 5d45 6c3a 15b2 e63a
00000170: 0e1b 03b9 c1ba 2338 da70 993a 6657 b1ba
00000180: 657a 4cba 87f1 7cb9 c0d3 5039 85e9 7e37
00000190: 9420 5cb9 9e5b 63ba a47e aeb8 f27b 3839
000001a0: 8f1f 3538 8eb6 933a 80d5 323b 0311 6dba
000001b0: 52bf 9236 0902 d1b9 86ad e43a 79fa 7bba
000001c0: af49 ac3a 2146 5d3a 7c90 40ba 9475 f938
000001d0: 972a eeb9 1eca 053b b4cc 4fbb 3ed7 d639
000001e0: cc25 2ab8 e028 153b bef4 1c3a 78dd bc38
000001f0: d2c5 f8b9 676d a13a 04b6 12b7 fbbc 6f37

exp_avg_sq f4 [128]
5.53744e-06 1.1606363e-05 7.9928024e-05 3.9003214e-07 5.708611e-06 9.488127e-05 9.7332544e-05 5.7761223e-05
2.0791852e-06 4.4778102e-05 4.7447666e-06 8.514686e-05 1.2794789e-06 7.9209303e-07 1.3588185e-06 4.265208e-06
1.4778388e-05 2.5895847e-06 3.1004498e-07 1.856049e-05 2.4909006e-05 5.8502087e-07 5.964515e-06 9.3415696e-07
2.3179708e-05 1.706043e-05 0.00010701215 1.2523012e-05 1.7503462e-05 8.5995285e-05 0.000105808904 1.7478679e-07
6.6544544e-06 6.1531127e-06 4.6466657e-06 2.3494034e-05 5.372582e-05 1.2075429e-06 2.3665092e-05 7.421214e-07
1.3435056e-06 0.00013420015 2.1045992e-06 0.000106614876 2.6672028e-06 7.013237e-07 5.810545e-07 8.917129e-05
2.4360364e-05 4.633774e-05 4.8870592e-05 0.00014806751 1.2633145e-05 0.0001206279 0.00015719545 2.3489169e-05
2.748413e-05 4.6368725e-05 4.780335e-06 1.1228107e-06 3.30754e-05 6.645711e-05 0.00033495863 3.7502848e-06
1.8770417e-05 1.27322155e-05 3.8349128e-05 7.7019475e-05 2.6692505e-05 6.064451e-05 5.21613e-05 3.9791817e-06
7.554062e-05 0.00010684636 5.123395e-05 7.673637e-05 0.00028004905 3.331475e-05 3.9792176e-06 2.099126e-05
7.10498e-05 1.2783934e-05 4.511513e-07 3.5754314e-05 9.966355e-05 2.4991357e-05 3.5665344e-05 2.48097e-06
2.1647022e-05 6.796661e-05 7.8373276e-05 5.999653e-05 5.253528e-06 1.3958645e-06 6.158648e-05 6.7341636e-05
6.0133414e-05 1.04275e-05 1.2620659e-06 7.4640576e-07 5.6205703e-05 0.000262112 4.3531738e-05 5.2711925e-07
4.7626455e-07 2.0851241e-05 5.9973303e-05 8.5429e-06 3.0066399e-06 9.734738e-06 0.00018821837 4.1392854e-05
2.7527723e-05 0.0002211917 4.94396e-06 5.8815357e-07 4.3402855e-05 0.00018503961 0.00020032181 0.000118059106
1.6714594e-06 0.00013430645 3.260201e-05 2.4056874e-07 4.8490992e-06 0.00013299177 8.562619e-06 2.5233763e-07
00000000: 3fce b936 f3b8 4237 089f a738 9c65 d134
00000010: 988c bf36 fefa c638 031f cc38 a444 7238
00000020: 2188 0b36 1fd0 3b38 3c35 9f36 df90 b238
00000030: 8fba ab35 38a0 5435 a660 b635 dc1d 8f36
00000040: b1f0 7737 bac8 2d36 4274 a634 59b2 9b37
00000050: aff3 d037 540a 1d35 cb22 c836 c7c2 7a35
00000060: 0b72 c237 ff1c 8f37 b66b e038 ed19 5237
00000070: 66d4 9237 5e58 b438 b9e5 dd38 07ad 3b34
00000080: 5449 df36 d676 ce36 8eea 9b36 0e15 c537
00000090: a957 6138 dc12 a235 6684 c637 3236 4735
000000a0: 8052 b435 14b8 0c39 bd3c 0d36 6d96 df38
000000b0: 32fe 3236 9942 3c35 c3f9 1b35 7901 bb38
000000c0: 7c59 cc37 c55a 4238 66fa 4c38 9242 1b39
000000d0: f2f2 5337 9cf9 fc38 d5d4 2439 9b0a c537
000000e0: b88d e637 0a7c 4238 c466 a036 7bb3 9635
000000f0: 71ba 0a38 e45e 8b38 639d af39 67ad 7b36
00000100: 2a75 9d37 739c 5537 10d9 2038 8485 a138
00000110: b8e9 df37 8c5c 7e38 c5c7 5a38 e984 8536
00000120: 906b 9e38 b412 e038 09e4 5638 86ed a038
00000130: 8cd3 9239 71bb 0b38 3885 8536 6316 b037
00000140: 9200 9538 947a 5637 c335 f234 e7f6 1538
00000150: 7602 d138 88a4 d137 5f97 1538 bd7e 2636
00000160: a096 b537 4c89 8e38 555c a438 c9a4 7b38
00000170: 7647 b036 8a59 bb35 fd27 8138 c439 8d38
00000180: c337 7c38 c5f1 2e37 4164 a935 9d5c 4835
00000190: 6abe 6b38 146c 8939 d995 3638 5c7f 0d35
000001a0: 4db1 ff34 b3e9 ae37 d88b 7b38 7a53 0f37
000001b0: aec5 4936 6252 2337 7c5c 4539 3d9d 2d38
000001c0: 56eb e637 b2ef 6739 4be4 a536 9be1 1d35
000001d0: 760b 3638 3107 4239 7a0d 5239 8096 f738
000001e0: e856 e035 9dd4 0c39 24be 0838 8427 8134
000001f0: 72b5 a236 b573 0b39 2ba8 0f37 0579 8734
