results/Curve1.6/CarAgent/CarAgent-208516.onnx (onnx, 90051 bytes, 13 tensors)

discrete_act_size_vector f4 [1, 2]
00000000: 0000 4040 0000 4040
3.0 3.0

network_body.observation_encoder.processors.0.normalizer.running_mean f4 [14]
00000000: e73b 623d ac6c 8b3e 86f9 543d 62df 8d3e
00000010: 2604 903d ac47 943e 3056 fa3b d407 843e
00000020: 3a3c cd3c 5c52 8d3e 5160 993a 71ff 773e
00000030: be3b 163b db0c 7b3e
0.05523291 0.27231348 0.051995777 0.2770949 0.07032041 0.2896093 0.007639669 0.25787222
0.025053132 0.27601898 0.0011701678 0.24218537 0.0022923793 0.24516623

network_body.observation_encoder.processors.1.normalizer.running_mean f4 [8]
00000000: 3832 eabb cfe4 85b9 379d b4c0 b922 9abd
00000010: fac1 f53e b7a0 28be 71b8 cd3d 4268 a240
-0.0071471 -0.00025538213 -5.6441913 -0.07526154 0.47999555 -0.16467558 0.10044945 5.075227

network_body._body_endoder.seq_layers.0.weight f4 [128, 22]
00000000: 7c47 bcbe 019a 993e 3b42 4e3e bbd5 49be
00000010: ba9b dbbc 6dd1 01be 706f b1be 34c6 98bd
00000020: 9151 8cbe 379b afbd bc03 44be 9f9d 533e
00000030: 1382 993e 1cb0 77bc a590 04be 0051 06bf
00000040: 9b97 283e 4a54 9bbd 62f8 943e f673 1a3e
00000050: 4e91 af3d 5b30 943d 6e00 1fbe 516e 323e
00000060: 717d 1bbb 0346 a8bd 2663 d53b 5f2e b7bd
00000070: b1dd 873d 35c1 093e e0e4 9d3d 9e6d 5c3e
00000080: 90ba 3bbd 145b 64bd 47d8 9637 1201 87be
00000090: a448 babc 4a9f b23d 67bd a03d a51c 9cbe
000000a0: ccf2 eb3e 7a26 c03c 071c 7fbd 6619 a6be
000000b0: d56e 8b3d e694 8cbc f9ff 0c3e 8136 4bbe
000000c0: 0b8d cfbd 4c65 9cbc ee9f 973e c176 c23e
000000d0: c375 19be 2f10 b6be a824 ca3d ba2b 15be
000000e0: 01d6 afbe 2e86 7bbc 2897 cabe 089e 843e
000000f0: d2d1 02bf 0b34 87bc 6333 b13e 4b96 0a3e
00000100: a352 5dbe dbc5 093e f286 87bd 1127 a53d
00000110: beea aa3e f598 d0bd fa3c 9d3d a4da 22be
00000120: 46f8 17be 4acf e4bd 9301 95be c9f2 0d3f
00000130: 36ea 3abe 1980 3d3e 0789 60be 730a 5dbe
00000140: f314 993d 9e84 783e ae71 073e 707f cf3d
00000150: 65a7 72bd a80d 5f3c 1a2c 0a3d 6c34 5b3e
00000160: da35 5d3e 7e11 0c3e 0f06 273e 44a2 013f
00000170: 04df c13c 6d75 c33c 29b7 78be 5635 53be
00000180: aac5 91be c4b1 8c3d 9ee1 96be 963e 62be
00000190: 0652 ebbe 5355 2cbe c1e9 783e f044 00bd
000001a0: 35df 02be 731b 1b3e 40f5 173f 9a3b 1d3e
000001b0: addc dbbe 2fd0 453e 4255 123e 780e 27bd
000001c0: 3779 62bd 6203 2dbd 4ace 53be ec4f 443d
000001d0: 0add c8bc d653 e23d ef3b debd c589 083f
000001e0: d9f8 133e b919 91be 157e 1f3b 4fbf 5fbe
000001f0: e062 4bbe 5719 083d ec5e bd3e c557 4c3e
00000200: ffd0 583e cd90 81be 0565 b2be 7678 0b3f
00000210: 1912 bc3d 5bb9 d9bd 7907 073e 260e b33d
00000220: f2e9 b13e 20ce 01be cff5 c7be 4bf0 f9bd
00000230: 849b fc3c 889e 4d3e 601b 693e 1ad8 d9bc
00000240: 1627 20bd 2ab2 c1bd b2c8 833d 3708 36be
00000250: 939d 4fbd 2ba0 a33e 2b37 ccbd 9152 23be
00000260: 37e8 253e 9c86 4c3e ba10 683e 5f46 9d3d
00000270: bb1a 853e 6839 80bd 7487 9f3e f0ff 3a3e
00000280: f53b bf3d 631c 01be 31ab 883d b897 483d
00000290: 6919 643d 0789 6bbe 0f76 16bd f58b 233e
000002a0: e232 f6be f55e 25bf 128c 6dbd 6849 57be
000002b0: 72fd d6bd faae bf3d 64a7 a13c 854a 223e
000002c0: 3ce3 b0be 7190 d6be 9b7e cbbd 4f7f a5be
000002d0: 913c 713e 4903 e63c 69c0 a5be e03b f53e
000002e0: fa2f a8bd ed65 7e3d 434c 7c3e 5146 5e3d
000002f0: 348f d73d aa22 36bd 72d8 b4bd 2f20 903d
00000300: 9b0b b5be c34f 80be abfc 913e 235c 14be
00000310: 8ec0 c03e 86bb a8bd 72a0 bcbd 6d46 87be
00000320: 0378 34be ac75 f7bc 6b7c 8a3e 7cc3 21be
00000330: c7ca 963e 6d83 94be 83e9 493e b4c1 813e
00000340: 7f59 303c 5765 f4bd e68c 093f 00aa b8be
00000350: ac2b 01be aaf1 bcbd 6f65 2b3e d5b4 983d
00000360: 2a7d 0d3e dc27 babe 9345 d43c 049c 91be
00000370: 0824 b8bc d8f7 563e 3d50 0ebf bd3c dfbe
00000380: 6b34 7dbe f436 943d 3d09 c93e 99ed 493d
00000390: e632 91be ef2e 863e 76c1 88bd d683 2c3d
000003a0: cfbf 403f c53e ddbd 0282 2c3d 96b4 763e
000003b0: 8343 8e3e 72b4 e23d 6893 c33d 0068 6cbe
000003c0: 93a0 bc3d d9fb 6dbc bd74 0dbe 0689 65bd
000003d0: 1974 a83c 14ed c4be ee3e 5c3b 290d 2ebd
000003e0: 96f4 42be ee33 91bd 1d49 953e 7f9b 7c3e
000003f0: 4d72 f53d 3bf7 3dbd b314 9239 0888 0a3e
-0.36773288 0.30000308 0.20142452 -0.19710438 -0.026807655 -0.12677546 -0.34655333 -0.07459679
-0.2740598 -0.08574527 -0.1914205 0.20665596 0.2998205 -0.015117671 -0.12945803 -0.52467346
0.16464083 -0.07584436 0.2909575 0.15083298 0.085726365 0.072357856 -0.15527508 0.17424895
-0.0023725892 -0.08216479 0.0065120636 -0.089443915 0.06634081 0.13452609 0.0770967 0.2152619
-0.045832217 -0.05575092 1.7982105e-05 -0.26368004 -0.022739716 0.08721788 0.07848626 -0.30490604
0.46083677 0.023455847 -0.06228259 -0.32441252 0.06808249 -0.017160844 0.13769521 -0.1984501
-0.10134324 -0.01909127 0.29614204 0.37981227 -0.14986329 -0.35559222 0.09870273 -0.14567462
-0.3434296 -0.015351815 -0.39568448 0.25901818 -0.5110141 -0.016504308 0.34609517 0.13533895
-0.21613555 0.13454382 -0.06617536 0.08064092 0.3338222 -0.10185424 0.07677646 -0.15903717
-0.14840803 -0.1117235 -0.29102764 0.55448586 -0.18253407 0.18505897 -0.21927272 -0.21586017
0.07474699 0.2426934 0.13226959 0.10131729 -0.05924167 0.013614096 0.033733465 0.21406716
0.21602574 0.13678548 0.16310905 0.5063822 0.023665912 0.023859704 -0.2428862 -0.20625815
-0.28471118 0.068698436 -0.29469007 -0.22094187 -0.45961016 -0.16829424 0.2430792 -0.031315744
-0.12780459 0.1514719 0.59358597 0.15354767 -0.429418 0.19317697 0.14290336 -0.040785283
-0.05529138 -0.042239554 -0.20684162 0.047927782 -0.024519462 0.11051147 -0.10851275 0.5333522
0.14450397 -0.28339937 0.0024336625 -0.21850322 -0.19861937 0.03322729 0.36986482 0.19955356
0.21173476 -0.25305787 -0.34842697 0.54480684 0.09183139 -0.10631057 0.13186444 0.08742933
0.347488 -0.12676287 -0.39054725 -0.12204035 0.030835874 0.20080006 0.22764349 -0.026592303
-0.039099775 -0.0945781 0.06434764 -0.17776571 -0.050687384 0.31958136 -0.0997146 -0.15949465
0.16201864 0.19973224 0.2266263 0.07679438 0.25996956 -0.062609494 0.3115803 0.18261695
0.09337608 -0.12608485 0.06673277 0.048972815 0.055688296 -0.2300149 -0.036733683 0.15971358
-0.48085696 -0.6459802 -0.05799491 -0.21024096 -0.104975596 0.09359546 0.019733138 0.1584874
-0.34548366 -0.41907075 -0.099362575 -0.3232369 0.2355826 0.028077738 -0.3237336 0.47897243
-0.08212276 0.062108923 0.24638467 0.054266278 0.10525361 -0.044466652 -0.08830346 0.070373885
-0.35360417 -0.25060853 0.28513083 -0.14488272 0.37646908 -0.08238892 -0.0921029 -0.26420918
-0.17623906 -0.030207478 0.27048048 -0.15797228 0.29451582 -0.2900652 0.19717984 0.25343096
0.010763525 -0.119333915 0.5373062 -0.360672 -0.12614316 -0.09225781 0.16737913 0.07456366
0.13817278 -0.36358535 0.025912082 -0.28439343 -0.022478119 0.20992982 -0.55591184 -0.43601027
-0.24727027 0.07237044 0.3926486 0.049298856 -0.28359145 0.26207682 -0.06677525 0.042117916
0.75292677 -0.10802988 0.042116173 0.24092326 0.27785882 0.110695735 0.095496 -0.23086548
0.092103146 -0.014525377 -0.13814063 -0.05603888 0.020563172 -0.38462126 0.0033606845 -0.04249302
-0.19038615 -0.07089983 0.29157344 0.24668692 0.11984692 -0.046378355 0.00027862712 0.13528454

network_body._body_endoder.seq_layers.0.bias f4 [128]
00000000: 5a55 1d3e cf0e cfbd 427f 5dbb 7781 0a3e
00000010: 22bf 1a3d a597 0c3e fa2c 583e 38ef a1bd
00000020: adb4 4b3e fd59 9d3d bfc5 4c3e 2dff 253e
00000030: 2fd9 a0bd f966 0d3e 1cee e23d ac65 0d3e
00000040: 698d e43c 1376 f33d 17ea febd 4dc0 eb3c
00000050: 15fb 273e 270e c03c 089f 683d 4e4d b53d
00000060: dd6f 85bb c636 2b3e 6642 113d 387c 313d
00000070: 35d2 cc3d 34df f03d dce9 083e c29c d2bd
00000080: 5ac1 cd3d 6360 b43c ea74 40bd d873 063e
00000090: 861b ba3b 3f89 243c 0bf7 c4bd d325 e33d
000000a0: dab5 643d 186b 673c 2cd8 1b3e 2516 963d
000000b0: 55c2 bdbd 935f c5bc 69fd acbd 885d 903e
000000c0: 3a5d 903c 87f9 57bd 1e3d 383e ceec 1c3d
000000d0: 5d79 fa3d cc4e 1b3c e34d d23d 21c8 253e
000000e0: 68cc d8bd b8f7 07bd f96c ec3d 12d1 7cbe
000000f0: 588f f8bd a254 4abd 0cec 02be 9863 a5bd
00000100: 913d ecbd 0ee1 023e 60d3 a13d 8538 223e
00000110: f2e0 a7bc 9625 9dbd d9fc 5e3e e71a 693e
00000120: 60c3 54be c17e 1e3e d28c 7c3e 1744 5f3c
00000130: becb bebc ee90 f53d 16f3 2f3c d5dd 053e
00000140: 1d7f 333e a69b a6bd 2de1 11bd 5217 423e
00000150: 678f 2b3e 7e57 f73d 5819 053e 3ba5 e13d
00000160: f5b0 1cbd 54db 1dbd 2e0a 443e 9e1d 3f3e
00000170: a190 aabd a47c 2c3e 8d82 63be cd72 10bd
00000180: 01f8 abbd 733e 563e 922a 5dbd 227c 87bd
00000190: 61aa 15bd c919 ebbc 37fb 553e 2253 ea3d
000001a0: 9941 c6bc bb31 083e 5c50 eebd cca5 aabd
000001b0: e800 c93d 266f 373e 9f7e 903d d92a e6bb
000001c0: 97c5 febc d67e ccbd f3a0 16be 08fd b43b
000001d0: a8ae ef3d ff90 793d da8e 5d3d 9eed b7bd
000001e0: b63e 203e c6da c63d 193f de3d 1234 aa3d
000001f0: a006 08bd 6b5b 813d f67b b33c 94ca c33d
0.1536459 -0.101102464 -0.0033797775 0.1352595 0.037779935 0.13729723 0.21110907 -0.079069555
0.19893141 0.076831795 0.19997309 0.16210623 -0.078539245 0.13808812 0.11080572 0.13808316
0.02789946 0.11887755 -0.12446993 0.02877822 0.16404374 0.023444248 0.05679229 0.08852635
-0.004072173 0.16720113 0.035463713 0.043331355 0.10001031 0.117613226 0.1337046 -0.102838054
0.100466445 0.022018617 -0.046986498 0.13130128 0.0056795506 0.010042488 -0.09617432 0.11091199
0.05583749 0.014124654 0.15219182 0.073284425 -0.092655815 -0.024093425 -0.08446772 0.2819636
0.017622579 -0.052728202 0.17992064 0.038311772 0.122301795 0.009479236 0.10268762 0.16189624
-0.105858624 -0.033195227 0.115442224 -0.24689129 -0.12136716 -0.04939712 -0.12785357 -0.080756366
-0.1153518 0.12781164 0.07901645 0.15841873 -0.020493004 -0.076731846 0.21776141 0.22764169
-0.20777655 0.1547804 0.24663094 0.013627074 -0.023290511 0.11990534 0.010739109 0.13072903
0.17528959 -0.08135156 -0.035615135 0.18954208 0.16753922 0.12077235 0.12997949 0.11017843
-0.038254697 -0.038539246 0.19144508 0.18663642 -0.08328367 0.16844422 -0.2221777 -0.035265733
-0.08396912 0.2092226 -0.053995676 -0.06615473 -0.03653944 -0.028698819 0.20896612 0.114416376
-0.024201201 0.1330022 -0.11636421 -0.083324045 0.09814626 0.17913494 0.07055401 -0.007024151
-0.031100078 -0.099851295 -0.14709835 0.0055233277 0.11703235 0.060929295 0.054091312 -0.08980869
0.15648922 0.097096965 0.10851879 0.08310713 -0.033209443 0.06316265 0.021909695 0.09560123

network_body._body_endoder.seq_layers.2.weight f4 [128, 128]
00000000: a412 873d 0250 0d3e 8575 25bd 184f 59be
00000010: f6f9 4d3d f0b6 e2bc 3c79 f0bd 8dd7 633b
00000020: 451b c93d b97a 6d3e 21c7 4fbd d6d0 8dbd
00000030: 52cb 07be 0716 91be a1d5 803d fb04 16be
00000040: c3a0 49bd 65a3 d83c f3e8 e7bb 05a2 3fbd
00000050: d8d6 413d ff7d 17be 521d 37bd 5a4f e13c
00000060: 10c2 fdbd 79e9 7bbd e46a ffb9 9e9a 37be
00000070: f44c 71be 37c2 063c d907 f9bc 916b 8c3c
00000080: 858b b2bb 418a b9bc 32ea 88bd 5ea3 27bd
00000090: a16a b6bd 5124 823c 8aa5 5cbd 6be4 563d
000000a0: 85a1 aabd 82f8 ae3d 3941 44bd 19a0 083d
000000b0: 57cc 11be c1ec 99bd 59d1 dabd 6292 87be
000000c0: dffa ee3d adea 913d 1c19 173e 7c90 20bd
000000d0: 6fe9 6f3d d800 e3bd 9596 6fbd 930f 68bd
000000e0: 6538 cabc 6b56 5dbd 5d8f 89bd c042 87bc
000000f0: d226 82bd 036d ffbd e0bc ff3d 572b 77bd
00000100: 7a02 edbd a61f 28bd c2dc 8abd bfe7 d63d
00000110: 89ab bf3d 2b35 903c 37b6 31be c9e6 f2bd
00000120: d66e 5b3d e2ac a9bd 6206 07be 0173 783e
00000130: 8b33 69bd 2745 973d b9ac afbb f085 ef3d
00000140: a1c3 d6bd 24c5 873d 7513 0b3e 6ddf 083d
00000150: 0b41 143e a031 d3bd 9f57 e9bc 42a2 9ebd
00000160: 3df4 fbbc 667a 8f3d 604c 40be c173 93bd
00000170: 6306 a8bd 9d92 543d 7cd2 123d 8663 583d
00000180: 206b 573c 7d7f c73c 71d1 44bd 55ef 70bd
00000190: bb0e 073e 73bb 903c eec6 97bd 58aa 28bd
000001a0: f4a9 1cbd d146 27be 426d afbc 94a9 3abc
000001b0: 9d50 b4bd 738e 91bd 4614 8cbc 3e9e 173d
000001c0: 8dbb 953d 8d35 943d 8596 1d3e 9758 6dbd
000001d0: 2215 c3bd 043b 8fbd 6257 9e3d 2f04 03bd
000001e0: cdc7 443b 0da6 e6bd b14f 7e3d f264 33be
000001f0: adcc 93bb c56d 2ebd 0094 6b3c 66bb 49be
00000200: c1c9 fdbd 165b 2b3d 4a5f 093e 8f79 b03d
00000210: 9c25 cabc 438d 90bc 0fa0 a03d abfc 9dbd
00000220: 4e4e 853c b912 16bc 7b24 bf3c ff98 473e
00000230: dd79 5b3d 239e 7e3b 07cb 933d 85cd 7abd
00000240: 0d82 613d 33e6 6ebc 04b0 24bd 0b44 5fbd
00000250: eef8 e0bd 8b79 e8bc 4e66 13be 5d29 87bd
00000260: 60b8 d5bd 863e 4b3c e064 a73d f3b0 e7bd
00000270: eb11 023d fb58 31be d788 663e 83ff ed3d
00000280: f59f 44bd 0b87 f93c 6f01 ad39 363d b23d
00000290: 4f1e 3abd b95f 8ebd 5bff 4bbb e4de 94bd
000002a0: 05fe fb3c 88ec b3bd d0e4 73bd c53d 19bd
000002b0: ace4 b53d 51ec 9a3d 53f3 423b 5e8d 72bd
000002c0: d044 533d e039 433d 5466 21be ef5b c0bd
000002d0: 9d21 75be e87d 763d bc58 2bbd f6c3 2d3d
000002e0: 1c99 cf3c cbd0 c33d 240f 1cbe 9fc6 c7bc
000002f0: e134 393d 72c7 953d 3874 a33d aa94 04bd
00000300: dfa9 373d 74fa e1bc 72a4 f538 29f5 ffbd
00000310: 5237 833c 61f8 5f3d 061b 73bd aa3f e63d
00000320: 72e4 c63d f45e 993d 9bf2 153e b4f2 523d
00000330: 913b 7bbe 3d05 a9bc 04ce 99bd f770 143d
00000340: f6df 493a be11 2fbe 99ff 82bc 36f5 43bd
00000350: 936f df3d 7322 dd3d b208 c63c abe4 213d
00000360: a6ca 9b3d 4930 f43b 9706 c6bd 0a93 92bc
00000370: 616b 07be f6c4 323b 3cae 213d 529c e03d
00000380: 55eb 41be f3c6 623d f65c 55bd 5b1e b63d
00000390: dbc8 d0bd cb5e e0bc db36 70bb 5679 17be
000003a0: ecfd 773d 5bb9 fd3d db18 5c3e 72a7 3b3e
000003b0: 8513 13be 6407 2d3d 40ca 9c3c b668 27bc
000003c0: d6cc 26bd 154d aa3d 625a fcbc df06 f43c
000003d0: 0e06 11bc 92a9 a4bb 091e b83b 6cde 14be
000003e0: a243 3e3d ac5b babb f050 4fbe 96b0 95bd
000003f0: 78d9 71bd 4887 e4bd 73d5 dc3c 7a46 aebd
0.06595352 0.13800052 -0.04039528 -0.21221578 0.05028721 -0.027675122 -0.117418736 0.003476593
0.098196544 0.23191346 -0.050727013 -0.06924598 -0.13261154 -0.28337118 0.062907465 -0.14650337
-0.04922558 0.0264451 -0.0070773303 -0.046785373 0.04732403 -0.14794157 -0.044705696 0.027503658
-0.1239053 -0.061501954 -0.0004871703 -0.17930076 -0.23564512 0.008225015 -0.03039925 0.017141135
-0.005448761 -0.022648932 -0.06685294 -0.040927283 -0.089070566 0.015886458 -0.053868808 0.05246393
-0.08331589 0.08543493 -0.047913764 0.033355806 -0.14238106 -0.0751586 -0.10684461 -0.2647887
0.116689436 0.07124839 0.14755672 -0.03920029 0.05857223 -0.11084145 -0.058493216 -0.056655478
-0.024685094 -0.054037493 -0.067167975 -0.016511321 -0.06355061 -0.12471964 0.12487197 -0.060344066
-0.11572738 -0.041045807 -0.067803875 0.10493421 0.093588896 0.017603477 -0.17354666 -0.11860425
0.0535725 -0.08284928 -0.13186029 0.2426262 -0.05693392 0.07386237 -0.0053611663 0.116954684
-0.10486532 0.066293985 0.13581641 0.0334162 0.14477937 -0.103121996 -0.028484164 -0.07745792
-0.03075611 0.070057675 -0.18779135 -0.07199813 -0.08204343 0.051897634 0.035845265 0.052829288
0.013148099 0.024352783 -0.0480513 -0.058821995 0.13189213 0.017667508 -0.0741099 -0.041178077
-0.038248017 -0.16335608 -0.021414403 -0.01139297 -0.08804438 -0.07107248 -0.01709951 0.037016146
0.07311163 0.072367765 0.1538945 -0.057945814 -0.09525515 -0.06993678 0.07731511 -0.03198641
0.0030026317 -0.112621404 0.06208772 -0.17518976 -0.0045104832 -0.042585153 0.014378548 -0.19700393
-0.12391997 0.041834913 0.13415256 0.086169355 -0.024676137 -0.017645484 0.07843029 -0.07714208
0.01627269 -0.009159737 0.023332825 0.19491957 0.053583015 0.003885158 0.07216459 -0.061231155
0.055055667 -0.014581251 -0.040206924 -0.05450825 -0.109849796 -0.028378269 -0.14394495 -0.06599686
-0.10435557 0.0124050435 0.08173537 -0.11313047 0.03175537 -0.173191 0.22513138 0.116210006
-0.04800411 0.030459901 0.000329982 0.08703081 -0.04543906 -0.069518514 -0.0031127546 -0.072690755
0.030760774 -0.08785349 -0.059544384 -0.037412424 0.08881506 0.07564605 0.0029747083 -0.05921685
0.051579297 0.047662616 -0.15761691 -0.09392535 -0.23938604 0.060178667 -0.04183267 0.04242321
0.025341563 0.095613085 -0.1524015 -0.024386702 0.045216445 0.07313432 0.07981151 -0.03236834
0.044839736 -0.027585246 0.00011713141 -0.124979325 0.01601759 0.054680232 -0.059351943 0.11242612
0.09711541 0.07488814 0.14643328 0.05150099 -0.24534442 -0.02063238 -0.075099975 0.036240544
0.0007700914 -0.17096612 -0.01599102 -0.047841273 0.10909953 0.10797586 0.024174068 0.039524715
0.076070115 0.007452045 -0.09669226 -0.01789238 -0.13224556 0.0027278042 0.039472803 0.10967316
-0.18937428 0.055365514 -0.052090608 0.088925086 -0.1019456 -0.02738895 -0.003665379 -0.1479238
0.060544893 0.123888694 0.21493857 0.18325594 -0.14362915 0.042243376 0.019139409 -0.010217836
-0.04072269 0.083154835 -0.030804817 0.029788433 -0.008851541 -0.005025097 0.005618815 -0.14537972
0.04645122 -0.0056871977 -0.20245719 -0.07309072 -0.059045285 -0.11158615 0.02695725 -0.08509536

network_body._body_endoder.seq_layers.2.bias f4 [128]
00000000: fed3 20be 3677 51bc 01b6 0fbe 7614 e23d
00000010: 6b85 3d3d a4be 10be c36b bb3b 509c 1a3e
00000020: 5277 263d d17e 44be f21b 30be 00c2 4f3d
00000030: fbf7 d2bd e794 3e3d 9927 b43c 7f3e 0fbd
00000040: 42a8 8abb 39ed 05be f69a 043e 9caa ecbd
00000050: 707d 8b3d 89ed 193e 675d 053e ec56 433c
00000060: 8b88 a2bd e27e c6bd f83f 23bd 9314 e83d
00000070: c5e1 2dbe a3c6 0fbe 8c09 df3d 301d 023e
00000080: 6398 1dbe b659 d63d 589c 2cbe 6384 30be
00000090: 1cf9 b4bc 5cba a23d 5894 b73d e4c6 bd3d
000000a0: 5c08 8dbd 0396 043e 5296 2bbe 8597 ad3c
000000b0: 7ae9 323e 9b45 033e 63f4 ef3d b725 903b
000000c0: 7b5e f0bd ecd3 8c3c d5ea 303e 7f62 92bd
000000d0: 1d74 ce3d 21ce b53d 325f 26be c3a4 1ebe
000000e0: d196 103e 89dc 85ba e232 0c3e 5cb6 943d
000000f0: e0c6 c2bd 2c09 113d b086 d83d 3a00 0a3c
00000100: 6048 c33d defc 2abe e49b 26be b6c0 033d
00000110: fa13 903d 3792 1cbd 903e 823d fdcd b5bb
00000120: db39 223d 274e f93b f1ed ae3d 9855 d5bd
00000130: 1191 e33d 1381 09be c29c f13d 467e 003e
00000140: 3d79 2ebe 4b71 5a3d 20c4 ba3d 208d e83d
00000150: 623e d8bd 93cb 40bd c0c8 aebd 7913 f13d
00000160: 4368 043e 3766 edbd 4ac5 27be 582b 253e
00000170: 7723 8dbd bd04 583d 65c9 b43d 011c cebc
00000180: 94ac 58bd 015e 20be 59d1 f03d 335e 173e
00000190: 80dc fbba b5e2 c73d 945d b0bd 2a85 1f3e
000001a0: 4831 27be a114 9a3d 45c7 44be 0ee8 1f3e
000001b0: cbe3 da3d 511f afbb 3ccb 57bd dca8 8ebd
000001c0: d836 f43d f74e e93d 7461 29be 1321 8f3d
000001d0: a9d6 05be ec59 b03d 793d f7bd bdd3 8e3d
000001e0: 54af 913d 958b 7bbd ba31 35be dbd6 fcbd
000001f0: 2e46 33bd 3a60 d13d 63a3 61bd a621 3cbe
-0.15705869 -0.01278477 -0.14034273 0.11039059 0.046269815 -0.14135224 0.0057196333 0.15098691
0.040641136 -0.19189002 -0.1719816 0.050722122 -0.10301205 0.046528723 0.021991538 -0.03497171
-0.0042314837 -0.13078775 0.12949738 -0.11555979 0.06811035 0.15032019 0.13023911 0.011922579
-0.079362 -0.0969217 -0.039855927 0.11332049 -0.16980655 -0.14040618 0.10890493 0.12706447
-0.15390162 0.1046633 -0.16856515 -0.17238002 -0.02209144 0.079457015 0.08963841 0.09266451
-0.0688636 0.1294785 -0.16756561 0.021190414 0.17471877 0.12819521 0.11716535 0.004399027
-0.11736771 0.017190896 0.17277081 -0.07147693 0.100807406 0.088772066 -0.16247252 -0.15492539
0.14120032 -0.0010212819 0.13691285 0.07261345 -0.09510589 0.035409138 0.105725646 0.008422906
0.09535289 -0.16698024 -0.16270405 0.032166205 0.0703506 -0.03822538 0.06359589 -0.0055482374
0.039605957 0.0076081934 0.085414775 -0.10416716 0.111116536 -0.13428144 0.11797477 0.1254817
-0.17038436 0.0533307 0.09119439 0.113550425 -0.105587736 -0.047069144 -0.08534384 0.11771292
0.12930398 -0.115917616 -0.16383854 0.16129816 -0.0689153 0.052738894 0.088274755 -0.025159838
-0.05289896 -0.1566086 0.1175868 0.14782028 -0.0019215494 0.09760038 -0.086115986 0.15578142
-0.16327393 0.07523466 -0.1921664 0.15615866 0.10687979 -0.0053443094 -0.052684054 -0.06965801
0.11924523 0.113920145 -0.16541082 0.0698873 -0.13070168 0.08610901 -0.12072272 0.069739796
0.07113519 -0.061412413 -0.1769475 -0.12345668 -0.0437681 0.10223432 -0.05508746 -0.18372211

action_model._discrete_distribution.branches.0.weight f4 [3, 128]
00000000: 424c a03c 99f7 593c 70d2 c7bb 5ca9 cbba
00000010: 993a 873c 1204 1b3b fc4a fa3b 2e98 8d3a
00000020: a5db 843b d64d 833c e69f 823c 6f61 5a3c
00000030: a7f6 653c da43 babc 2860 ad3c e8f6 9abc
00000040: f22d 07bb 0a58 013c 2c5f cabc 41eb 46bc
00000050: 4e76 02bc f0da 8fbc cc44 cfbb a34a 65bb
00000060: 6c61 91bc bfcc aabc c0b0 bdbc 459e b3bb
00000070: 576e 1abb 4d71 883c 7c0e b4bc d442 413c
00000080: f47a 913c 3f73 d63b 75d5 b83c 623a c03c
00000090: 1689 173d 1b9c fc3b 8d3e 08bc b1c3 a13b
000000a0: 3afc 2fbc cfed d3bc 9739 b93c a74a fabb
000000b0: 75b0 cf3c ae30 9e3c e81c 5fbb a416 01bb
000000c0: 70e0 22bb 6ce9 833c 7bf3 c8bc f23e 7cbc
000000d0: cbde 0cbc 08a4 15bd 3e29 bb3c 8bee 593c
000000e0: f132 fb3b 212e e8bb dc78 a53b 056b a4bc
000000f0: c9fb 28bc b924 c9bc 7526 9a3b 20a3 a13c
00000100: 5f63 adbc c17f 6e3c 9e40 b63c 2336 48bc
00000110: a4fc 493c 55d0 55bb 46e4 20bc c728 43bc
00000120: f2ed bcbc 11cd 503b 8809 1e3c f2ee af3c
00000130: 6f7a 1ebc 1a83 033c 35c6 a63b 7fb7 22bc
00000140: cee2 863c cb23 44bd 3fee b6ba f3bf 363b
00000150: 17b2 97bb ec23 e7bc 96ec 01bd 5435 6e3b
00000160: 5fcc 5dbb eeef a53c 2668 0b3d a141 f7b9
00000170: e553 883c 2c97 213c eec7 673c 05da 573c
00000180: f476 b639 47a0 923c e8bc c5ba 3e8a d73b
00000190: 734c 323c 6e6d 633c 9559 143c 2197 013c
000001a0: 92a0 023d 5127 2b3d 957f 053d 13fc 99bc
000001b0: bcd4 77bc e897 28bc f150 05bd a396 053c
000001c0: 8e8e 343c 088f 2fbb 6300 c13c 2cf1 67bc
000001d0: 242d 663c fad7 d13b 8153 15bb 4a68 eebc
000001e0: d484 aa3b c93c 483c dcf4 053d 5754 1a3c
000001f0: dff8 c4bc 6ecb d73a 1bee 243d 53e4 a83c
00000200: e1a7 45bd c02f 943b 0f90 6fbd b4c5 1f3d
00000210: 7539 683c e836 95bc e100 5bba 290c 7d3d
00000220: 5d32 ba3a de2b b6bd f9ca d3bd e1d1 5d3c
00000230: b053 63bd f7de 6e3c 2a52 653c dc07 67bb
00000240: 3349 8e3b 7c9c 70bd 8ad8 c73c 4adb b3bd
00000250: 112e 4a3b 1630 443d 6c04 693d 7642 63b8
00000260: 60e7 9dbc a872 89bc 950f 1ebb b9ac 3d3d
00000270: c681 b9bd 6910 83bd 7e6e 6ebb 6b13 1f3d
00000280: 9d18 76bd 85ae d53c 60c2 a4bd 30ec cdbd
00000290: fa80 4abc ba81 333d 758a 733c f2d4 8dbb
000002a0: 5878 14bd ae84 213d 013d 8ebd 5e2b ba3b
000002b0: 14ae 3f3d ae22 2d3d 6a5e 5e3d ed00 ad3c
000002c0: ddc4 28bd da65 adbc 7db1 823d 2b35 96bc
000002d0: 9d52 bb3c 7bec 173d e553 e3bd 2e6a 6fbd
000002e0: abaf 263d 64c4 5e3b 3520 2e3d 7f4f abbb
000002f0: 3696 04bd df50 ab3b 0574 463c 323f 02bc
00000300: 35f4 913c 3dc6 5bbd e6c0 cdbd da2b 863c
00000310: d785 cb3c cbb5 853c 803b ab3c aeaa 71bb
00000320: a99e b33c c0ad 1abb 2869 b5bb 485e 52bd
00000330: 11a4 853c 049d 5dbd 1db0 033d 80c6 c93c
00000340: 5507 b4bd a95d 34bc 3ba6 f23c 72ba 6d3d
00000350: e3e3 33bd 538b 193c 117d d7bc 9e54 2c3d
00000360: 2485 083d bcb8 c3bc de59 b5bd f8a1 203d
00000370: 9ab5 2bbd df54 8d3c 89a2 803c 4adb 84bc
00000380: 310d 0bbc 43b0 a2bd 0740 c13c d274 ed3c
00000390: 5bc3 ec3b 81a6 a43c ca4d 34bd 1461 4c3d
000003a0: a22b 61bd 696f e5bb 29df bdbd abb4 503d
000003b0: caaf 3a3d 0a87 383c 12a4 03bc eb28 35bd
000003c0: 9efe d63c f887 443d 2ef4 fdbd 8117 8c3c
000003d0: 212c 3abd 0242 4b3c 9f58 9ebd c514 093d
000003e0: 0cad 6c3c a3cc 46bc 0367 b1bd 68b7 4ebd
000003f0: e1db be3b 6277 003d 4df1 23bd e167 b5bd
0.019567613 0.013303661 -0.006098084 -0.0015538144 0.016507434 0.002365355 0.0076383334 0.0010802799
0.004054504 0.016028326 0.015945386 0.013328894 0.014035857 -0.022737432 0.021164015 -0.018916562
-0.002062675 0.007894525 -0.024703585 -0.01214105 -0.007962776 -0.017560452 -0.00632534 -0.0034987114
-0.01774665 -0.020849584 -0.02315557 -0.0054815137 -0.0023564303 0.016655589 -0.021979563 0.011795718
0.017758824 0.0065445 0.022562722 0.02346534 0.03699597 0.007709039 -0.0083156945 0.0049366583
-0.010741288 -0.025870232 0.022610469 -0.007638294 0.025352696 0.019310322 -0.003404433 -0.0019697333
-0.0024853013 0.016102515 -0.024530163 -0.015395867 -0.00859804 -0.036533386 0.022846814 0.013301502
0.007665985 -0.007085577 0.005049808 -0.020070562 -0.0103139365 -0.024553644 0.0047042915 0.019731104
-0.021165548 0.014556826 0.022247609 -0.012219938 0.012328301 -0.0032625396 -0.00982005 -0.011911578
-0.02306268 0.003186051 0.009645827 0.021476243 -0.009672745 0.0080268625 0.005089546 -0.009931444
0.01646557 -0.047885697 -0.0013956501 0.0027885407 -0.0046293843 -0.028215371 -0.031719767 0.0036347704
-0.0033843738 0.020256009 0.03403487 -0.0004716041 0.016641567 0.009862702 0.014146788 0.0131745385
0.00034802372 0.017898692 -0.0015086206 0.006577759 0.010882485 0.013881071 0.009054561 0.007909567
0.031891413 0.041785542 0.032592375 -0.018796956 -0.015126403 -0.0102901235 -0.032547895 0.00815359
0.011020316 -0.0026788134 0.023559755 -0.014156621 0.014048848 0.0064039202 -0.0022785368 -0.029102463
0.0052038226 0.012221524 0.03270422 0.009419522 -0.024044452 0.0016463825 0.040266138 0.020616686
-0.048255805 0.004522294 -0.058486994 0.039006904 0.014173855 -0.018214658 -0.0008354318 0.061779175
0.0014205683 -0.08895086 -0.10341448 0.013538809 -0.055499732 0.014579526 0.01399664 -0.0035252487
0.004342222 -0.058742985 0.024395246 -0.087820604 0.0030850212 0.04789742 0.056888983 -5.4182914e-05
-0.019275367 -0.016778305 -0.0024118174 0.0463073 -0.090579554 -0.06399614 -0.0036381776 0.038836878
-0.060082067 0.026084194 -0.080448866 -0.10054815 -0.012359852 0.04382489 0.014864554 -0.0043283636
-0.03624758 0.039433174 -0.06945229 0.0056814393 0.046796873 0.0422694 0.05428926 0.021118606
-0.04120337 -0.02116673 0.063815095 -0.0183359 0.022866542 0.03709076 -0.11099986 -0.05845087
0.040694874 0.003399157 0.042511184 -0.0052279825 -0.032369815 0.0052281464 0.012112622 -0.007949637
0.017816642 -0.05365585 -0.10046558 0.016378332 0.024844093 0.016322037 0.020902395 -0.0036875415
0.021926241 -0.0023602098 -0.0055362172 -0.051359445 0.016313585 -0.05410482 0.032150377 0.024630785
-0.08790461 -0.011008658 0.02962028 0.058039136 -0.0439185 0.009371596 -0.026304753 0.042072885
0.033330098 -0.0238918 -0.088550314 0.039216965 -0.041921236 0.017252384 0.015702503 -0.016217846
-0.008487032 -0.079437755 0.0235901 0.028986368 0.0072254366 0.020098926 -0.044019498 0.04989727
-0.054973252 -0.0070018065 -0.0927108 0.05095355 0.0455778 0.011262665 -0.008034723 -0.044228476
0.026244458 0.047981232 -0.12400089 0.017101051 -0.04545224 0.012405874 -0.07731747 0.033467073
0.014445554 -0.01213375 -0.08662226 -0.05046788 0.0058245515 0.031363852 -0.040025044 -0.08857704

action_model._discrete_distribution.branches.0.bias f4 [3]
00000000: 47bc c7bc b9dd e23d ad88 d1bd
-0.02438177 0.110774465 -0.10231147

action_model._discrete_distribution.branches.1.weight f4 [3, 128]
00000000: 6626 3cbd f4d1 57bc 863f 923c 1b42 593d
00000010: a16b fbbc 67a4 a2bc 24e1 c6bc 59ba 023d
00000020: 0a2b e83b bfa7 44bd 23dd 60bd a078 d33a
00000030: b666 e8bc 0b0a f63c ae1a 973c fb46 e33b
00000040: d01f 27bb 97b2 14bd b669 b93c 2dff 46bd
00000050: 6399 a73c d85d 753d c0ee 3c3c ecd0 98bc
00000060: f884 cdbb 2651 23bc 808f 74bc 6c3f 953c
00000070: af6d f7bc 8b2b 59bd a586 ff3c 5621 9e3c
00000080: 5da3 fcbc 628c b93c 1aa0 13bd c2c6 04bd
00000090: 3564 55bd 4fea 823d cb66 f93b 8e5b 713c
000000a0: 6e60 54bc b24d 473c d5eb e4bc 8220 22bc
000000b0: db96 833d ed6d c63c 899c 873c 169e ff3c
000000c0: fd6d 46bd e712 98bc 6dac 673d 3767 e0bc
000000d0: dda0 f23a f6cf e63c 7bf0 5ebd f9dd d5bc
000000e0: 5a58 5e3d a9d7 9fbc 5fa1 063d 66a1 efbb
000000f0: 94de 6cbd 8d55 4bb9 3021 2c3d 0cfc dc3a
00000100: e0c9 e03c 36c3 cabc 6554 22bd 190f a03b
00000110: cc47 a03b e768 81bc df9f a5bc cbe1 9b3c
00000120: b146 773c a452 80ba 2ce8 883c d132 28bd
00000130: 6b5c b23c 0027 78bd 90b9 013d 6eb9 903c
00000140: 82e1 46bd 5265 5cbc 5c8b 9e3c 413b 143d
00000150: 78c9 39bd de1e 72bc c747 b9bc 0e6c f9bb
00000160: 805e 753d 9161 35bd 7890 c3bc 83ef 193d
00000170: 7d70 6d3a 8d27 43bc d446 a33c 93c3 88bc
00000180: adc0 fbbc 6438 19bd 0561 4b3c 8c69 d03c
00000190: d6a8 923c a089 e03c ddce 0ebd 532f e83c
000001a0: 4bc8 9abc b130 463d 7e4a 3cbd ef88 fd3c
000001b0: 5a11 953c 9976 3b3c a2d3 81bc c7f5 dfbc
000001c0: f33a 3b3d c7a8 613c 9eba e5bc 6197 b73b
000001d0: d132 5abd 8a37 63bc 02c1 62bd e0de 3bbc
000001e0: 32aa 1e3c d2ad d3bc b39f f2bc 8bd7 1cbd
000001f0: d7b1 ddbb 0844 f7bb fa91 d9bc 0462 aabc
00000200: 3cf6 b63d 1f13 833c 21e7 b43c 9223 9bbc
00000210: eaff d83c 0db1 373d 6f01 ef3b 7caa fa3c
00000220: c0a2 c1bc 19d9 3b3d bb85 963c 5fe1 5abc
00000230: fb36 b73c 62e1 ef3b 507f 06bc ee73 163a
00000240: 6966 09bd 459b fe3c aa7a 80bd 8684 6e3c
00000250: 83b7 d9bc 19a9 e6bc f32a 31bd f11e 153c
00000260: 21b1 62bc 3956 bd3c 6aa9 94bc ad83 4abd
00000270: 8cd4 103d e310 963c 471d 2f3a d0ca d4bc
00000280: 0c2d b93c 1208 b1bb 5061 473d 81b2 db3c
00000290: aafe 203d bc3d 60ba b06c e5bc 7555 963c
000002a0: 9735 d43b eab7 8fbc 27f0 a43c 42a1 77bc
000002b0: a377 ea3b 439a 383c 674d 73bc 3b34 f4bc
000002c0: 409f 3d3b a654 013d 1f2d 86bd 2e70 ff3b
000002d0: 525b 313d 211d 50bd 9803 183d f7b3 1c3c
000002e0: a5cd ac3b 3511 103d 425f 14bc c7de b4bc
000002f0: 1266 5dbb 4dcc 50bd a06a f03b 2ef9 6e3c
00000300: 47fb 52bc f7ed 1e3d b1f1 213d 254e 913b
00000310: f932 943c 5932 813c d777 393c acc4 93bc
00000320: 5a92 e3bc d1f1 673c 83bd 903b 36d3 043d
00000330: e2fc b7bc a1de 1e3d 7b6d 10bc d07e 85bc
00000340: ddd2 a63b 9c45 14bd b452 44bc 1aaf 55bd
00000350: 47c8 783d d55c f93c 3863 583a 0fbc 05bc
00000360: 0639 813b cab0 25bb 37ba 0c3d d4ca 9ebc
00000370: fde8 233d 1236 3f3b f577 2b3b 9c36 793c
00000380: 10f7 10bd d944 593d 8bee 15bd 3415 023d
00000390: dde1 a03b 63ec 0fbc c602 133d b7a9 10bc
000003a0: d253 843c 54fe ad3b 7dcd 093d 9f65 92bc
000003b0: 5e49 0d3d 9075 253d 4f5f ccbc 824b 603d
000003c0: 342d 4a3b 0f50 a7bc 111a 883c 7c21 8dbb
000003d0: 2b4f d33c e3d5 d8bb ae40 9ebb 00ce 153b
000003e0: 8469 263c e83b 143c 2387 e93c 92f5 223d
000003f0: 9ee9 703a 2b8a a9bc d700 5f3d 006b 1b3d
-0.045935057 -0.013172615 0.017852556 0.05304156 -0.03069097 -0.019853784 -0.024277277 0.031915996
0.007085209 -0.048011538 -0.054898392 0.0016133972 -0.028369289 0.030034086 0.018445339 0.0069359518
-0.002550114 -0.03630313 0.022633415 -0.0485832 0.020458883 0.05990395 0.011531532 -0.01865431
-0.0062719546 -0.009968078 -0.014926791 0.018218718 -0.030203668 -0.05302004 0.031192133 0.019303005
-0.030839616 0.022649948 -0.036041357 -0.032416113 -0.052097518 0.06392347 0.007611131 0.014731301
-0.012962444 0.01216452 -0.027944485 -0.009895446 0.06425258 0.024222339 0.016554134 0.031203311
-0.048444737 -0.0185637 0.056560922 -0.027392967 0.0018511076 0.028175335 -0.05442856 -0.026106821
0.054283477 -0.019512014 0.03286874 -0.0073129414 -0.057829455 -0.00019391459 0.042023838 0.0016859784
0.027440012 -0.024751287 -0.039631266 0.0048846123 0.0048913714 -0.015797092 -0.020217834 0.019028565
0.015092538 -0.0009790254 0.01671227 -0.041064087 0.021772584 -0.06058407 0.031671107 0.017666545
-0.048554905 -0.013451891 0.019353561 0.03618932 -0.04535815 -0.014777867 -0.022617234 -0.007611758
0.059904575 -0.0442825 -0.023872599 0.03758193 0.00090575946 -0.011911285 0.019931234 -0.01669482
-0.030731523 -0.037407294 0.012413268 0.025440954 0.017902773 0.027409375 -0.03486525 0.028342878
-0.018894335 0.04838628 -0.04596948 0.030949084 0.01819675 0.01144185 -0.015847985 -0.027338875
0.045710515 0.01377315 -0.028043088 0.0056027626 -0.05327112 -0.013868222 -0.055359848 -0.011466712
0.009684132 -0.02583972 -0.029617166 -0.038291495 -0.006765585 -0.0075459518 -0.026558865 -0.02079869
0.08933684 0.016000329 0.022082867 -0.01893786 0.026489217 0.044846583 0.007293872 0.030598871
-0.023637176 0.045861337 0.018374315 -0.013359397 0.022365084 0.007320569 -0.008209065 0.0005739321
-0.03354493 0.031079898 -0.06273396 0.014557963 -0.026576763 -0.028156804 -0.04325385 0.009101615
-0.013836176 0.023112403 -0.01814719 -0.049441982 0.03535895 0.0183186 0.0006680083 -0.025975615
0.022604488 -0.0054025734 0.04867679 0.026818516 0.039305367 -0.0008554121 -0.028005928 0.018351296
0.006476115 -0.017543752 0.020134045 -0.01511413 0.007155375 0.011267248 -0.014849997 -0.029810062
0.0028934032 0.031574868 -0.06551575 0.0077953553 0.04329998 -0.05080903 0.037112802 0.009564391
0.005273538 0.03517266 -0.009055914 -0.022078885 -0.0033782762 -0.050976086 0.0073369294 0.014585776
-0.012877292 0.03880116 0.039537136 0.0044343644 0.018090712 0.015771078 0.011320076 -0.018038116
-0.027779747 0.014156775 0.004417123 0.03242799 -0.022459451 0.038786534 -0.008815165 -0.01629582
0.005091055 -0.036199197 -0.011982609 -0.052168943 0.060737874 0.030439774 0.0008254531 -0.008162512
0.0039435653 -0.0025282376 0.034357276 -0.019383825 0.040017117 0.0029176516 0.002616403 0.015210774
-0.035391867 0.053044174 -0.036604445 0.031758502 0.0049097375 -0.008784386 0.035891317 -0.008829526
0.01615325 0.0053098593 0.033643235 -0.017870722 0.034493797 0.04039532 -0.02494779 0.05475951
0.0030849697 -0.020423917 0.016613992 -0.00430697 0.025794586 -0.006617294 -0.0048294878 0.0022858381
0.010156993 0.009047486 0.028506821 0.039784975 0.0009190085 -0.020695766 0.05444416 0.03794384

action_model._discrete_distribution.branches.1.bias f4 [3]
00000000: 7125 e23c 02d5 9bbc f6b3 5cbc
0.027605744 -0.019022468 -0.01347064

onnx::Div_78 f4 [14]
00000000: 6fed 693e 4018 523e a55b 633e 3b5a 4a3e
00000010: 8cea 823e 74ab 613e 8760 b23d bcae d03d
00000020: 960d 203e 3aae 123e e151 0c3d d8f8 823d
00000030: 8b17 443d 174b 903d
0.2284448 0.20517063 0.22202928 0.19760983 0.2556957 0.2203806 0.087098174 0.10189578
0.15630183 0.14324275 0.034257773 0.063951194 0.047874015 0.07045572

onnx::Div_81 f4 [8]
00000000: 58c8 843f e0a0 123b d6a1 5741 33cb 0c3f
00000010: 4c33 1f3b fbe8 5d41 c767 353f 8c5d 9540
1.037364 0.002237372 13.477011 0.5499756 0.002429205 13.86938 0.70861477 4.6676693
