results/Test4.3/CarAgent.onnx (onnx, 83292 bytes, 7 tensors)

network_body._body_endoder.seq_layers.0.weight f4 [128, 22]
-0.031129656 -0.1590789 0.2219039 0.18880384 0.18057868 0.01084733 0.40030292 -0.13117167
0.2726062 0.007778917 0.20924221 0.07482627 0.14656432 0.24179126 0.161051 0.057564534
0.17684063 0.5379609 -0.31082168 -0.29826918 -0.17296717 -0.052835774 0.029731127 -0.3898336
-0.04000759 0.082322165 -0.48156318 0.019177478 0.23292907 0.0017027152 -0.0042891125 -0.16280359
0.13777225 0.0900051 0.096538976 0.11032505 0.3909686 0.041069333 -0.15172577 -0.20210172
0.039659295 0.46577552 0.10637654 0.3394141 -0.13101667 0.047324248 0.31938034 0.17312397
0.18636338 -0.04445757 -0.43243256 0.114233464 -0.24761954 -0.015264401 0.027527979 -0.3266976
0.41247994 0.09827453 0.2972682 -0.29240745 0.1187593 -0.050455026 0.36483762 0.24639198
-0.098747805 0.45174277 0.27595717 0.1229752 -0.011378139 -0.16199704 0.25509575 0.27455616
0.35271227 0.40939644 0.02984337 0.106356144 -0.080539584 0.13405514 0.41676554 -0.037295982
-0.23125678 -0.37225282 -0.20674378 -0.016490692 0.014634231 -0.26446193 0.17609675 -0.27000138
0.07281788 0.21652281 0.043144856 0.015383595 0.19105253 -0.1283376 -0.18858378 0.3022878
0.38709268 0.034130618 0.004444817 -0.03543062 0.3563366 0.2550161 -0.40965024 -0.060579136
0.2878715 -0.14234585 0.3841651 -0.22982036 -0.059226915 -0.21362801 0.19240505 -0.17319477
-0.0013606 0.55736697 0.33497116 0.17688668 -0.019077217 -0.23324186 -0.17198998 0.26984215
-0.09789173 -0.057444677 0.22029562 -0.110869534 -0.2479594 -0.15295231 0.20462775 -0.19671771
0.40397772 0.021403858 -0.29894736 0.28622183 -0.28005284 0.11584319 0.024672808 0.23499164
0.25000474 -0.04838298 0.28258714 0.07889143 -0.01183514 0.3049712 0.19032124 0.24552032
-0.0034990243 0.2866778 -0.014218839 0.22614567 -0.042891208 -0.31693003 0.08215676 0.10603359
-0.24155113 -0.035008814 -0.15863177 0.5303052 0.3102613 0.0014324926 -0.18719763 0.31223482
-0.17115152 0.10856484 -0.19189098 -0.09102655 -0.04811172 -0.22075112 -0.021863535 -0.10588064
0.2625292 -0.45144865 0.28954202 0.2211087 0.23601401 -0.036211062 -0.06907644 -0.022883188
0.14038646 0.05217235 0.15780206 -0.15491605 -0.008252769 -0.005542522 0.113574974 0.27682483
0.24880527 -0.07310693 -0.27039766 -0.4594318 -0.098620914 -0.22994791 0.1338219 -0.35620147
0.29997534 -0.52038974 0.39531085 -0.13709491 -0.010907463 -0.26950324 -0.42489123 0.02464361
-0.06854438 0.030261865 0.41737816 -0.15182824 -0.14093478 -0.19567043 -0.22451776 -0.034380164
0.35038683 -0.23137234 0.38149408 0.15753217 0.49587613 0.30004746 0.22701684 -0.0850532
0.21737424 0.08156133 0.2156604 0.008081063 0.26632947 0.09974945 -0.1000089 0.18629326
-0.07258542 -0.05821645 -0.041135907 -0.17173833 -0.28854775 0.10741337 0.11855963 0.029669432
-0.07349549 0.27792096 -0.19441688 -0.12618908 0.3377617 0.11938371 -0.11929337 -0.3310978
-0.47563672 0.058733203 0.14422184 0.026690114 0.24122933 -0.27698147 0.048829824 -0.37014043
-0.03287272 -0.048287544 0.38279042 0.18812382 -0.07008271 0.10827441 0.15573707 -0.0025123255
00000000: 9f03 ffbc 94e5 22be c73a 633e cb55 413e
00000010: 9ee9 383e 00b9 313c 81f4 cc3e de51 06be
00000020: 0a93 8b3e 49e6 fe3b 9743 563e 843e 993d
00000030: f514 163e 2198 773e 8eea 243e cac8 6b3d
00000040: b615 353e ceb7 093f 0524 9fbe bdb6 98be
00000050: 4e1e 31be 536a 58bd b18e f33c 4598 c7be
00000060: 00df 23bd 8698 a83d 738f f6be 161a 9d3c
00000070: f584 6e3e a42d df3a af8b 8cbb fcb5 26be
00000080: 2b14 0d3e 9854 b83d 3ab6 c53d 1af2 e13d
00000090: 092d c83e 5138 283d 005e 1bbe c1f3 4ebe
000000a0: c971 223d 217a ee3e f2db d93d afc7 ad3e
000000b0: 3c29 06be 12d7 413d d285 a33e 6947 313e
000000c0: 0bd6 3e3e 2419 36bd cd67 ddbe 3cf3 e93d
000000d0: fa8f 7dbe 8a17 7abc 5b82 e13c e844 a7be
000000e0: 9230 d33e 2844 c93d 8a33 983e 6eb6 95be
000000f0: 1338 f33d eea9 4ebd ffcb ba3e 2e4e 7c3e
00000100: 4a3c cabd d44a e73e 424a 8d3e 6cda fb3d
00000110: 606b 3abc 8de2 25be e99b 823e a092 8c3e
00000120: b496 b43e 699c d13e 157a f43c 40d1 d93d
00000130: f0f1 a4bd c045 093e 4b62 d53e acc3 18bd
00000140: 94ce 6cbe ec97 bebe a4b4 53be 7d17 87bc
00000150: 6ac4 6f3c 8e67 87be b552 343e 9f3d 8abe
00000160: 8a21 953d 28b8 5d3e a9b8 303d 790b 7c3c
00000170: 46a3 433e ef6a 03be 1b1c 41be 77c5 9a3e
00000180: 0331 c63e 8ccc 0b3d d4a5 913b b31f 11bd
00000190: c071 b63e 7891 823e adbd d1be d421 78bd
000001a0: e563 933e 1cc3 11be 4ab1 c43e 0756 6bbe
000001b0: ec97 72bd 4dc1 5abe d405 453e f859 31be
000001c0: 2956 b2ba 9aaf 0e3f 5781 ab3e c821 353e
000001d0: d347 9cbc f4d6 6ebe 241e 30be c028 8a3e
000001e0: 767b c8bd 1c4b 6bbd 2d95 613e 910f e3bd
000001f0: 12e9 7dbe 889f 1cbe f089 513e 5e70 49be
00000200: 2bd6 ce3e 2557 af3c a10f 99be ab8b 923e
00000210: 1663 8fbe 323f ed3d a11e ca3c a6a1 703e
00000220: 9f00 803e 3b2d 46bd 43af 903e d491 a13d
00000230: 2de8 41bc 2f25 9c3e 92e3 423e ae69 7b3e
00000240: e34f 65bb 6fc7 923e 22f6 68bc bb92 673e
00000250: b1ae 2fbd a744 a2be ce41 a83d 2428 d93d
00000260: 2e59 77be 6765 0fbd 5e70 22be 15c2 073f
00000270: 92da 9e3e 7ac2 bb3a bcb0 3fbe 3edd 9f3e
00000280: 5842 2fbe 3e57 de3d 127f 44be 216c babd
00000290: cb10 45bd 950c 62be 281b b3bc f3d7 d8bd
000002a0: 3a6a 863e 4724 e7be da3e 943e 526a 623e
000002b0: a8ad 713e 0d52 14bd f377 8dbd 8675 bbbc
000002c0: 78c1 0f3e adb2 553d dd96 213e 50a2 1ebe
000002d0: 9f36 07bc 0b9e b5bb ff99 e83d fcbb 8d3e
000002e0: cfc6 7e3e 16b9 95bd 9071 8abe a53a ebbe
000002f0: c3f9 c9bd 7777 6bbe 9c08 093e 0a60 b6be
00000300: 5e96 993e 4338 05bf 2f66 ca3e 9c62 0cbe
00000310: 37b5 32bc 54fc 89be 588b d9be 65e1 c93c
00000320: ff60 8cbd bbe7 f73c 97b2 d53e dd78 1bbe
00000330: 3551 10be d45d 48be fce7 65be 37d2 0cbd
00000340: e765 b33e dfec 6cbe 3153 c33e 1d50 213e
00000350: 7ae3 fd3e d29f 993e 1a77 683e 5f30 aebd
00000360: 5a97 5e3e a009 a73d 14d6 5c3e 6f66 043c
00000370: 565c 883e 7149 cc3d 77d1 ccbd a9c3 3e3e
00000380: aaa7 94bd 5f74 6ebd 207e 28bd 2cdc 2fbe
00000390: 88bc 93be 8afb db3d 64cf f23d 4f0d f33c
000003a0: ce84 96bd a84b 8e3e 3815 47be b637 01be
000003b0: 1aef ac3e 727f f43d 1550 f4bd a785 a9be
000003c0: a886 f3be 3a92 703d e4ae 133e 3aa5 da3c
000003d0: d204 773e 84d0 8dbe c801 483d 0c83 bdbe
000003e0: 8ca5 06bd 29c9 45bd 1bfd c33e 88a3 403e
000003f0: 8687 8fbd f9be dd3d 8a79 1f3e d4a5 24bb

network_body._body_endoder.seq_layers.0.bias f4 [128]
-0.02809989 -0.052909065 -0.03384494 0.013558782 0.09734572 0.040617228 -0.020225836 -0.026537886
-0.024267994 0.08185323 0.049920034 0.027734531 -0.07396653 -0.07343519 -0.08324768 0.08016123
-0.0747138 0.039822094 -0.001159315 -0.0017787758 -0.007633938 0.050326955 -0.053893603 -0.06833256
0.028785814 -0.010033641 -0.07030521 0.01584005 -0.038554907 -0.01057116 -0.0053419927 -0.046713993
-0.044103295 0.04982842 -0.053861603 -0.018236037 -0.03226601 0.027807519 -0.03548092 -0.010975063
0.052532446 0.0001953215 -0.010038139 -0.020185733 0.0014690366 0.0148314275 -0.041397035 0.009434515
0.022994531 0.03604426 -0.039063267 -0.0065623703 -0.014821183 -0.027249858 -0.044584032 -0.03856863
0.043630086 0.014761905 -0.06845902 -0.033362 -0.06557987 0.03798493 0.031065341 -0.043779004
0.023894077 -0.010479937 -0.039696712 0.016430095 0.0049447105 0.005003566 -0.03312626 -0.05965658
0.014039246 -0.0021597561 -0.026817925 -0.017269779 -0.010361664 0.03162691 -0.087268956 -0.04868342
0.022888212 0.0011688966 0.072315596 -0.018126078 0.0010436367 0.03561033 -0.012497574 0.026787298
-0.06012946 -0.047374554 0.028243838 0.04848524 -0.020895336 0.014288762 0.034025196 -0.048470527
-0.0013511761 -0.07860903 0.04899616 0.083447754 0.0019992855 0.0020264355 -0.0022350077 -0.04325859
-0.0794787 0.012939954 -0.030610096 -0.024255319 0.041449063 -0.0062862416 0.054641087 -0.041697633
-0.0023418865 -0.025423128 -0.011287603 -0.0034750104 -0.03799936 0.0048969374 -0.015262314 0.03765554
-0.04803442 0.040637687 -0.07784882 -0.03966915 0.036186505 0.013285166 -0.016354581 -0.023189574
00000000: be31 e6bc 2db7 58bd fea0 0abd a725 5e3c
00000010: 315d c73d 405e 263d a7b0 a5bc fb65 d9bc
00000020: accd c6bc aba2 a73d f378 4c3d 8733 e33c
00000030: c47b 97bd 3065 96bd c27d aabd 922b a43d
00000040: 8c03 99bd 7e1c 233d 28f4 97ba d025 e9ba
00000050: 1d26 fabb a323 4e3d 8abf 5cbd f1f1 8bbd
00000060: 3ad0 eb3c 2464 24bc 2efc 8fbd fec2 813c
00000070: c0eb 1dbd a932 2dbc e20b afbb 2c57 3fbd
00000080: a8a5 34bd e318 4c3d fc9d 5cbd be63 95bc
00000090: 5d29 04bd 98cc e33c 7154 11bd c0d0 33bc
000000a0: 432c 573d 37cf 4c39 0277 24bc 8d5c a5bc
000000b0: b08c c03a 84ff 723c f08f 29bd 3993 1a3c
000000c0: 075f bc3c 25a3 133d ce00 20bd 2709 d7bb
000000d0: 8cd4 72bc 183b dfbc bf9d 36bd 24fa 1dbd
000000e0: 76b5 323d ebdb 713c 3e34 8cbd 98a6 08bd
000000f0: bd4e 86bd 1696 1b3d be7c fe3c 9d51 33bd
00000100: 83bd c33c 0bb4 2bbc 0599 22bd 6898 863c
00000110: 3d07 a23b f4f4 a33b 67af 07bd 755a 74bd
00000120: de04 663c b28a 0dbb 44b1 dbbc 5a79 8dbc
00000130: f8c3 29bc 388b 013d 11ba b2bd 4468 47bd
00000140: 0f80 bb3c a935 993a 331a 943d 247d 94bc
00000150: a3ca 883a 23dc 113d a0c2 4cbc 0971 db3c
00000160: 4f4a 76bd d20b 42bd 9f5f e73c 7698 463d
00000170: b22c abbc 691b 6a3c 015e 0b3d 0889 46bd
00000180: f219 b1ba c5fd a0bd 33b0 483d a8e6 aa3d
00000190: 7206 033b f2cd 043b 3579 12bb eb2f 31bd
000001a0: bbc5 a2bd 1a02 543c 06c2 fabc 17b3 c6bc
000001b0: 7ec6 293d d1fc cdbb 55cf 5f3d 23cb 2abd
000001c0: 567a 19bb 2a44 d0bc a3ef 38bc 00bd 63bb
000001d0: 38a5 1bbd 7d76 a03b c90e 7abc b23c 1a3d
000001e0: bdbf 44bd b473 263d 346f 9fbd 1e7c 22bd
000001f0: 4d38 143d 06aa 593c 0bfa 85bc 10f8 bdbc

network_body._body_endoder.seq_layers.2.weight f4 [128, 128]
0.06100313 0.021871971 0.0014135985 -0.007400567 0.08646101 -0.11860324 0.09976446 -0.049187332
0.15905802 0.018706972 -0.18914568 -0.01193573 -0.32568392 -0.022989143 0.023626849 -0.2162009
-0.081897825 -0.01261803 0.051851615 0.019468661 -0.103575245 -0.1677242 -0.10012452 -0.1365728
0.06134742 -0.07117337 0.01987113 -0.0034780859 -0.014674082 0.020233136 0.1268379 0.063432015
0.054143514 -0.01647086 -0.0114206625 -0.18380445 -0.03683857 0.08181241 -0.03769942 -0.03586974
0.17232399 0.12012101 -0.046506744 -0.09488787 -0.07896898 0.06445762 -0.0038804202 -0.06849742
-0.09718076 -0.03936777 -0.1738263 0.12203528 -0.0065161292 -0.07566565 0.059021756 -0.101122506
0.090135716 -0.08965424 0.024122655 0.033922117 -0.013826651 -0.036709167 0.26236373 -0.13222325
-0.07049803 -0.0025009639 -0.037993688 -0.022284685 0.019383863 0.116948046 0.09463993 -0.0866615
0.00055004447 0.07144585 -0.055882975 0.1589703 -0.019078102 0.18942039 0.027549507 -0.10693764
-0.12846197 0.034134008 0.17904967 -0.058967896 -0.017632326 -0.041169405 0.22034347 -0.23242392
0.021315452 -0.06961776 0.07905146 0.0151052 0.04677587 -0.025115728 0.053159267 -0.0137318075
0.0397129 0.042091567 0.059775133 -0.013646013 -0.12649596 0.021750212 0.18985578 -0.096613646
0.063565224 -0.01936504 -0.053113304 -0.025318442 -0.0059314417 -0.12597002 0.16479646 -0.0059560183
0.09939743 -0.0145828435 0.021154342 -0.092863426 0.11983957 -0.08699941 0.08612638 -0.11274638
0.022029204 0.1369722 0.052269407 -0.088988334 -0.10931019 -0.021971721 0.027372222 -0.034266517
0.015407632 0.17872547 -0.06271254 -0.19594455 0.008826155 0.0483086 -0.031075351 0.055066366
0.03811239 0.13133359 0.094526574 0.10805497 -0.1721982 -0.15247393 -0.28135154 -0.22877586
-0.06233777 0.07537583 0.09535114 0.05188136 -0.005310465 0.06294454 0.08863224 0.016773542
-0.08636447 -0.0041280654 0.061076663 0.14808239 0.04613448 -0.043540552 0.05643053 -0.13859339
-0.115486406 -0.048260592 0.023576446 -0.19165446 -0.066804595 0.109844014 -0.022621265 0.016621519
-0.028497973 -0.024861887 0.022283383 -0.005355233 -0.12791252 -0.08043767 -0.09699814 -0.004302532
0.084594354 -0.014172447 -0.07342511 0.06483307 -0.06750094 -0.021917999 0.039778106 -0.06646163
0.0247374 -0.09286646 -0.08956819 -0.041613832 -0.011248704 -0.021619935 0.079133525 0.002914434
-0.14453277 0.08706712 -0.059834726 0.015303431 0.014778392 0.019555531 0.033051077 0.12408463
-0.0062981434 -0.04764269 0.109880656 -0.08244216 -0.0017659322 -0.07057603 -0.028968655 -0.0733218
0.24400978 0.09718952 0.044661418 -0.16529033 -0.20053922 -0.086436965 0.2180833 -0.16108538
-0.0049011507 0.068551056 0.15246455 0.022575876 -0.0071307663 0.04674699 0.052264914 -0.16638921
0.0042608823 -0.027987884 -0.019339485 -0.0071844663 0.18655904 0.005634465 -0.033133663 -0.010938922
0.012355499 0.21392348 0.007538351 -0.00892958 0.12132016 0.02940377 0.2865258 -0.05377538
0.11954574 -0.031942505 0.056033947 -0.084931575 0.08951671 -0.04837219 -0.080020934 -0.0080926195
0.06527254 0.11315985 -0.1376155 -0.20086275 -0.09310856 0.029431762 -0.07444685 -0.18674314
00000000: 6bde 793d d92c b33c 7f48 b93a 7580 f2bb
00000010: 7812 b13d 41e6 f2bd 4f51 cc3d a878 49bd
00000020: 1be0 223e 5d3f 993c 68af 41be 158e 43bc
00000030: 0bc0 a6be ba53 bcbc 188d c13c c563 5dbe
00000040: 0cba a7bd dbbb 4ebc 5c62 543d be7c 9f3c
00000050: 421f d4bd e5bf 2bbe 160e cdbd bdd9 0bbe
00000060: 6f47 7b3d 58c3 91bd c8c8 a23c 99f0 63bb
00000070: 906b 70bc f6bf a53c cbe1 013e a5e8 813d
00000080: 97c5 5d3d e6ed 86bc bb1d 3bbc 3c37 3cbe
00000090: 0ae4 16bd 448d a73d b56a 1abd 26ec 12bd
000000a0: b375 303e 0102 f63d db7d 3ebd 9254 c2bd
000000b0: 7dba a1bd 5b02 843d a64e 7ebb 6048 8cbd
000000c0: b506 c7bd 1940 21bd 86ff 31be a2ed f93d
000000d0: 4185 d5bb 98f6 9abd ccc0 713d 5119 cfbd
000000e0: 1399 b83d a49c b7bd e09c c53c ebf1 0a3d
000000f0: 2d89 62bc 5a5c 16bd 8a54 863e 8865 07be
00000100: 4561 90bd 36e7 23bb 459f 1bbd 5f8e b6bc
00000110: e8ca 9e3c 7582 ef3d 94d2 c13d 967b b1bd
00000120: dc30 103a 3452 923d 8ce5 64bd 1cc9 223e
00000130: ae49 9cbc 6bf7 413e 81af e13c 1f02 dbbd
00000140: 898b 03be 1ad0 0b3d cc58 373e 5288 71bd
00000150: ab71 90bc 40a1 28bd b8a1 613e 8900 6ebe
00000160: be9d ae3c c293 8ebd bbe5 a13d cd7b 773c
00000170: 0e98 3f3d 80bf cdbc 88bd 593d 60fb 60bc
00000180: fea9 223d 3568 2c3d c5d6 743d 8793 5fbc
00000190: 2888 01be 802d b23c 8e69 423e 60dd c5bd
000001a0: 7c2e 823d 6fa3 9ebc 568d 59bd 9f68 cfbc
000001b0: 8a5c c2bb 49fe 00be 67c0 283e b42a c3bb
000001c0: e190 cb3d e1ec 6ebc df4b ad3c 2e2f bebd
000001d0: 736e f53d bf2c b2bd 0763 b03d 93e7 e6bd
000001e0: 9776 b43c 7142 0c3e 7218 563d 843f b6bd
000001f0: 05de dfbd 0afe b3bc b63b e03c 0c5b 0cbd
00000200: 4b70 7c3c cf03 373e 6f6f 80bd b0a5 48be
00000210: 949b 103c 3ddf 453d bc91 febc 458d 613d
00000220: bd1b 1c3d 507c 063e 2697 c13d ed4b dd3d
00000230: ba54 30be 2022 1cbe 4f0d 90be 3844 6abe
00000240: e455 7fbd a55e 9a3d 7547 c33d 8d81 543d
00000250: 6903 aebb 11e9 803d d284 b53d ab68 893c
00000260: dbdf b0bd b944 87bb 862b 7a3d e9a2 173e
00000270: 82f7 3c3d 9457 32bd b323 673d 6deb 0dbe
00000280: 2384 ecbd e6ac 45bd 6423 c13c 1141 44be
00000290: d9d0 88bd e6f5 e03d 3b50 b9bc da29 883c
000002a0: 9574 e9bc 28ab cbbc a48b b63c f37a afbb
000002b0: 80fb 02be 81bc a4bd f6a6 c6bd 41fc 8cbb
000002c0: ce3f ad3d 8d33 68bc e75f 96bd 33c7 843d
000002d0: ef3d 8abd 608d b3bc 5eee 223d 091d 88bd
000002e0: 16a6 ca3c c530 bebd 876f b7bd 4473 2abd
000002f0: 7c4c 38bc 4a1c b1bc c210 a23d 1700 3f3b
00000300: 6600 14be 3f50 b23d 4215 75bd 3ebb 7a3c
00000310: 1221 723c ec32 a03c 9160 073d 1520 fe3d
00000320: a860 cebb fb24 43bd 1c09 e13d 6fd7 a8bd
00000330: da76 e7ba 2a8a 90bd ac4f edbc bd29 96bd
00000340: b3dd 793e 4d0b c73d e4ee 363d de41 29be
00000350: 275a 4dbe dd05 b1bd 3b51 5f3e 91f3 24be
00000360: d599 a0bb 7f64 8c3d ab1f 1c3e 0bf1 b83c
00000370: 34a9 e9bb c679 3f3d bc13 563d ef61 2abe
00000380: df9e 8b3b d946 e5bc d76d 9ebc ac6b ebbb
00000390: 5509 3f3e 51a1 b83b 2ab7 07bd 2a39 33bc
000003a0: b86e 4a3c c20e 5b3e 4604 f73b 604d 12bc
000003b0: b476 f83d 2de0 f03c 82b3 923e 9343 5cbd
000003c0: 66d4 f43d 25d6 02bd da83 653d 9bf0 adbd
000003d0: 8954 b73d eb21 46bd 04e2 a3bd e896 04bc
000003e0: 9cad 853d 5ac0 e73d 14eb 0cbe f7ae 4dbe
000003f0: b3af bebd e11a f13c 9777 98bd 9839 3fbe

network_body._body_endoder.seq_layers.2.bias f4 [128]
-0.008997491 0.012795514 0.021737207 -0.05861842 0.03214187 -0.0196617 -0.055383533 0.021609785
-0.04793981 0.011153546 -0.04480516 0.008198089 -0.048262604 -0.04640929 0.019254342 -0.011999471
-0.024288762 -0.014961 -0.034921486 -0.061681062 0.033683877 -0.009230699 0.027250275 -0.0025055597
-0.028600907 0.013972952 -0.08813143 0.05723021 0.027772576 -0.017723449 -0.052404776 -0.02908313
-0.031146077 -0.0027932266 -0.011080516 0.0007308612 0.048882745 -0.07384181 -0.050809074 -0.06751074
-0.047860846 0.046987496 0.030222613 -0.037312437 -0.03664014 0.0009609968 -0.046141952 -0.0187897
0.032458737 0.049217317 -0.03577741 -0.035830867 -0.043341268 -0.03783119 0.049482666 0.016119054
0.02915586 0.048863705 0.018463418 -0.004828477 -0.032695115 -0.07453289 0.005229869 0.009033188
-0.06771489 0.061496712 -0.024804825 -0.03357518 0.070755355 -0.08515725 -0.051399264 0.025836533
-0.051810365 -0.0071880175 0.0076489216 -0.027795868 -0.0013017656 -0.030225549 -0.0649445 0.008462816
-0.0021891536 -0.03164318 0.028905671 0.025577713 -0.027199438 -0.03524033 0.0028453085 0.018985072
0.044484388 -0.045413144 0.025692051 -0.07296931 -0.04378873 -0.0067438586 -0.0579729 -0.01577049
-0.060280345 -0.005054619 0.018337667 0.032646004 -0.0362662 -0.022470504 -0.03738892 8.0923244e-05
-0.005640143 0.021461539 -0.021444844 -0.05529335 0.015202593 -0.048115242 -0.033254173 -0.030336773
0.0034640657 -0.006760682 0.0090613505 -0.036663704 0.029145334 -0.03032728 0.029343171 -0.00070261856
-0.016801322 0.04785974 -0.0135876 -0.012516236 -0.018742105 0.014355041 -0.027292393 -0.037470467
00000000: 366a 13bc 47a4 513c 3a12 b23c de19 70bd
00000010: 32a7 033d 9311 a1bc d8d9 62bd 0107 b13c
00000020: 895c 44bd 5dbd 363c 9e85 37bd 4751 063c
00000030: 02af 45bd ab17 3ebd 48bb 9d3c 6e99 44bc
00000040: 3af9 c6bc fb1e 75bc d509 0fbd 48a5 7cbd
00000050: 1bf8 093d 5c3c 17bc f83b df3c 5134 24bb
00000060: 734c eabc cfee 643c 407e b4bd 3a6a 6a3d
00000070: 5083 e33c c430 91bc 64a6 56bd bf3f eebc
00000080: 0f26 ffbc 910e 37bb 0d8b 35bc 4497 3f3a
00000090: 4639 483d 603a 97bd 2d1d 50bd 1243 8abd
000000a0: bc09 44bd f675 403d 6a95 f73c edd4 18bd
000000b0: f913 16bd 67eb 7b3a 58ff 3cbd dbec 99bc
000000c0: 74f3 043d 1998 493d 558b 12bd 63c3 12bd
000000d0: 9d86 31bd e1f4 1abd 56ae 4a3d 1b0c 843c
000000e0: 45d8 ee3c 4f25 483d 9840 973c 3338 9ebb
000000f0: 50eb 05bd b3a4 98bd 525f ab3b f0ff 133c
00000100: 1bae 8abd fae3 7b3d 7d33 cbbc 2186 09bd
00000110: 2fe8 903d ed66 aebd 0988 52bd 23a7 d33c
00000120: 1b37 54bd 7689 ebbb cea3 fa3b 29b4 e3bc
00000130: 01a0 aaba 929b f7bc 9f01 85bd 9fa7 0a3c
00000140: e777 0fbb 479c 01bd 96cb ec3c 5a88 d13c
00000150: 5bd1 debc 2a58 10bd 5b78 3a3b 9586 9b3c
00000160: 4335 363d 2203 3abd 2378 d23c ef70 95bd
00000170: d05b 33bd 96fb dcbb fe74 6dbd 1d31 81bc
00000180: 86e8 76bd 38a1 a5bb e038 963c d1b7 053d
00000190: de8b 14bd 1014 b8bc 2025 19bd 56b5 a938
000001a0: f3d0 b8bb 1cd0 af3c 19ad afbc 487b 62bd
000001b0: 4c14 793c 7d14 45bd 8735 08bd d384 f8bc
000001c0: 6105 633b b688 ddbb 0f76 143c ae2c 16bd
000001d0: 32c2 ee3c ea70 f8bc 1761 f03c ef2f 38ba
000001e0: eda2 89bc 9308 443d 869e 5ebc e610 4dbc
000001f0: 0b89 99bc 6831 6b3c 4c94 dfbc a27a 19bd

action_model._continuous_distribution.log_sigma f4 [1, 2]
-0.14689305 -0.07278953
00000000: 226b 16be ad12 95bd

action_model._continuous_distribution.mu.weight f4 [2, 128]
-0.014656939 0.016131459 -0.0007748927 -0.0010992466 -0.018032808 -0.020930719 -0.009006429 0.017503213
0.026976243 0.007891262 0.021007104 0.03476759 -0.015435291 -0.0025390233 0.047537 0.013470555
-0.032971628 0.003716023 0.014257856 0.00073013175 -0.010644447 0.020423187 0.008313411 -0.0058651455
-0.008811973 0.01842371 0.0010862907 -0.044250727 -0.0069847605 -0.0060488703 0.004462101 0.0250499
-0.00039986736 0.02200375 0.013666589 0.0021064102 -0.024622155 -0.02070551 -0.00017847324 -0.014137083
-0.01576729 -0.0055710347 -0.007225397 -0.0077023446 -0.016483719 -0.017423773 -0.029587882 -0.0014798507
0.043227803 -0.0018938143 -0.014938851 -0.010357927 -0.0030624138 -7.9667385e-05 0.0071500707 0.043271467
-0.018316997 -0.012772286 0.0009863928 -0.009239151 0.017840216 -0.006669547 0.02589744 -0.03577281
-0.020563891 -0.015613859 0.017583888 -0.015203713 -0.02454391 -0.0109258825 -0.009950067 -0.0027997606
0.014261118 -0.0101582045 0.011597417 0.005263857 -0.010428438 -0.023962473 0.006756511 0.003597332
-0.009648062 -0.0069182576 -0.00013902996 0.014608271 0.0109541975 -0.0027553334 0.008280462 -0.0088125365
0.01497319 -0.007809819 0.017539619 -0.013388474 -0.013636033 0.003087994 -0.01825687 -0.008731208
-0.0023635451 0.013401584 0.01747981 0.026480084 -0.004490162 0.024310792 -0.042578634 0.035175517
-0.0017653089 0.042427156 -0.0033455403 -0.0038801965 0.038565304 -0.0032332835 -0.031028418 -0.0071392246
0.070995785 0.008348937 0.02995644 -0.033462092 0.0228575 -0.033766136 0.033660788 -0.024684237
-0.0055720345 -0.020892039 -0.0036434378 -0.003973931 0.004923155 -0.015051564 -0.003342618 -0.012056934
-0.048472036 -0.057742458 0.042426366 -0.00025623964 0.04997289 -0.00023444211 0.0043454794 -0.06084718
-0.09889202 0.04256684 -0.09472978 0.014636803 -0.009547728 -0.038706932 -2.6952617e-05 -0.005995016
-0.049314484 -0.034082484 0.0010922068 -0.12305325 0.055066228 0.03325589 -0.055151016 0.006317202
-0.025406629 -0.049486205 -0.067326024 -0.016425518 0.023547532 -0.007277298 -0.08525375 -0.011768936
-0.01945877 0.033971358 -0.019551698 0.0058954596 0.018546488 -0.038542442 -0.010013596 -0.02087895
-0.08144022 0.06246946 0.04252339 -0.018625969 -0.08052236 0.052565295 -0.06005415 0.0049417866
0.028057111 0.049120724 -0.08709171 0.012837244 0.008329907 0.012847429 0.05131982 -0.0073366365
0.01120491 0.04099559 -0.074067146 0.033518482 -0.09387118 -0.0017451736 -0.04999384 -0.03674278
-0.04687336 0.05143321 0.014706002 -0.015720015 0.02686858 -0.057705123 -0.019803463 0.034631178
-0.016427645 0.014818554 0.031941883 -0.016969776 -0.057395328 -0.02042436 -0.07518845 0.056044187
-0.0067985053 -0.0010839782 -0.059089623 -0.06477134 -0.017785847 0.0064048944 0.042776916 0.010521175
-0.08058036 -0.0720268 0.041637283 -0.04762886 -0.0052491357 0.012793265 -0.034153413 -0.085133046
-0.022927325 -0.040002536 -0.07203 -0.06875152 -0.022740806 -0.003472169 -0.067884974 -0.012707954
-0.010320812 0.05308787 0.006993676 0.0004724058 0.06387165 -0.086872414 -0.07462621 -0.09871557
-0.004873041 0.027422847 0.029721966 -0.07633894 -0.015087248 0.023876645 0.024849169 0.013811009
-0.029299954 0.08557713 -0.040574145 0.029879825 -0.0072206985 0.023637319 0.027640644 -0.066201925
00000000: a823 70bc 1f26 843c 2b22 4bba 9814 90ba
00000010: 8ab9 93bc e676 abbc b48f 13bc e662 8f3c
00000020: 48fd dc3c 5a4a 013c 1717 ac3c 7668 0e3d
00000030: 4ee4 7cbc be65 26bb 28b6 423d 9ab3 5c3c
00000040: 420d 07bd 8588 733b c899 693c 5066 3f3a
00000050: 0c66 2ebc 874e a73c f934 083c 6830 c0bb
00000060: 1860 10bc 52ed 963c de61 8e3a 4040 35bd
00000070: 6be0 e4bb 9a35 c6bb d136 923b 7335 cd3c
00000080: 4aa5 d1b9 3541 b43c d4e9 5f3c b30b 0a3b
00000090: 67b4 c9bc 9a9e a9bc 8c24 3bb9 399f 67bc
000000a0: 672a 81bc 3a8d b6bb 06c3 ecbb f363 fcbb
000000b0: dd08 87bc 4dbc 8ebc 4962 f2bc 8df7 c1ba
000000c0: a30f 313d dd39 f8ba 15c2 74bc 4bb4 29bc
000000d0: c7b2 48bb 1a13 a7b8 244b ea3b 6c3d 313d
000000e0: 870d 96bc da42 51bc da49 813a cf5f 17bc
000000f0: a525 923c 378c dabb de26 d43c 8386 12bd
00000100: 9b75 a8bc 45d1 7fbc 160c 903c ff18 79bc
00000110: 4f10 c9bc 7902 33bc 9b05 23bc 307c 37bb
00000120: 77a7 693c 996e 26bc 1803 3e3c 6f7c ac3b
00000130: 0adc 2abc f34c c4bc b965 dd3b 37c1 6b3b
00000140: e812 1ebc 8db2 e2bb 92c8 11b9 8857 6f3c
00000150: 3c79 333c d392 34bb c6aa 073c 7562 10bc
00000160: 1c52 753c 83e9 ffbb 3faf 8f3c 545b 5bbc
00000170: ab69 5fbc f15f 4a3b 6e8f 95bc 570d 0fbc
00000180: b5e5 1abb 5192 5b3c d231 8f3c c3ec d83c
00000190: 3522 93bb 6d27 c73c ef66 2ebd 3414 103d
000001a0: f061 e7ba 19c8 2d3d da40 5bbb e54a 7ebb
000001b0: a7f6 1d3d 7fe5 53bb 4f2f febc 28f0 e9bb
000001c0: 3d66 913d fbc9 083c 3567 f53c 8c0f 09bd
000001d0: a73f bb3c 5c4e 0abd e5df 093d 9936 cabc
000001e0: 9d95 b6bb c825 abbc bec6 6ebb c037 82bb
000001f0: 6b52 a13b d69a 76bc d30f 5bbb 728a 45bc
00000200: 9d8a 46bd 5b83 6cbd 45c7 2d3d e757 86b9
00000210: 60b0 4c3d 93d4 75b9 8664 8e3b e53a 79bd
00000220: e687 cabd 915a 2e3d b001 c2bd 34cf 6f3c
00000230: 136e 1cbc 298b 1ebd 4e18 e2b7 d771 c4bb
00000240: fcfd 49bd 139a 0bbd 6128 8f3a 5803 fcbd
00000250: 208d 613d 5437 083d 08e6 61bd 8800 cf3b
00000260: 9021 d0bc 0cb2 4abd 3ae2 89bd cf8e 86bc
00000270: c1e6 c03c 6676 eebb 8599 aebd 7fd2 40bc
00000280: 0068 9fbc 8d25 0b3d e22a a0bc b32e c13b
00000290: ceee 973c aede 1dbd 1110 24bc 550a abbc
000002a0: 21ca a6bd fadf 7f3d 022d 2e3d 7d95 98bc
000002b0: e8e8 a4bd b54e 573d 57fb 75bd b6ee a13b
000002c0: 07d8 e53c d032 493d 235d b2bd 4e53 523c
000002d0: 2a7a 083c 067e 523c bb34 523d 2b68 f0bb
000002e0: cd94 373c feea 273d 84b0 97bd ad4a 093d
000002f0: 893f c0bd 4fbe e4ba 57c6 4cbd 997f 16bd
00000300: 48fe 3fbd a1ab 523d 71f1 703c 43c7 80bc
00000310: 7f1b dc3c 355c 6cbd df3a a2bc 6cd9 0d3d
00000320: 4593 86bc 85c9 723c 7ed5 023d 3304 8bbc
00000330: 5d17 6bbd fd50 a7bc 67fc 99bd 978e 653d
00000340: ffc5 debb 4614 8eba f607 72bd d6a6 84bd
00000350: a0b3 91bc 26e0 d13b d936 2f3d 0261 2c3c
00000360: 5107 a5bd c982 93bd db8b 2a3d 7b16 43bd
00000370: f100 acbb d89a 513c 73e4 0bbd 3c5a aebd
00000380: 16d2 bbbc b3d9 23bd 7784 93bd 99cd 8cbd
00000390: ed4a babc 548d 63bb 4707 8bbd 0635 50bc
000003a0: a018 29bc ab72 593d 352b e53b 3cad f739
000003b0: 24cf 823d 2aea b1bd a0d5 98bd 642b cabd
000003c0: 08ae 9fbb e1a5 e03c 7b7b f33c 9757 9cbd
000003d0: 8130 77bc f498 c33c 7c90 cb3c 9247 623c
000003e0: 7506 f0bc 1043 af3d 1331 26bd 89c6 f43c
000003f0: 9c9b ecbb 0da3 c13c a26e e23c e094 87bd

action_model._continuous_distribution.mu.bias f4 [2]
0.004919648 0.05081123
00000000: 0035 a13b 701f 503d
