results/Test4.4/CarAgent/CarAgent-40233.onnx (onnx, 83292 bytes, 7 tensors)

network_body._body_endoder.seq_layers.0.weight f4 [128, 22]
-0.08125368 -0.19291428 0.2113084 0.16804393 0.21300834 -0.015863543 0.376014 -0.15812624
0.2281647 -0.005072204 0.15399459 0.036406793 0.15271173 0.24073662 0.18402013 0.061966963
0.16212973 0.5379609 -0.31867072 -0.3046568 -0.21638466 -0.038173098 -0.011007222 -0.4003717
-0.11299527 0.0671166 -0.50284535 0.012478274 0.24310035 0.01957973 0.0021235517 -0.1538038
0.13054015 0.10711225 0.14428152 0.11477144 0.3908889 0.019647045 -0.094868794 -0.20210172
0.043677997 0.4417938 0.16852617 0.33696163 -0.13361412 0.07363411 0.24131832 0.16262928
0.18312012 -0.017106274 -0.3933874 0.14915565 -0.1354134 0.06700022 0.08655318 -0.2825288
0.48563874 0.15875131 0.3023318 -0.3060503 0.10293347 -0.050455026 0.37852737 0.2603696
-0.11754769 0.44575256 0.28759602 0.11945664 0.028390164 -0.16446452 0.2581306 0.2623422
0.44927526 0.4364656 -0.0063492074 0.07036933 -0.014540798 0.15069553 0.4315083 -0.04993928
-0.22435798 -0.41107005 -0.18259457 -0.016490692 -0.00967837 -0.28100905 0.1468894 -0.2684462
0.111126676 0.21293634 0.015571891 -0.004096771 0.25069845 -0.14774345 -0.21449833 0.28273365
0.42981613 0.022044733 0.08101059 -0.00010932956 0.355037 0.25346652 -0.39992478 -0.057509243
0.26854086 -0.14234585 0.37827775 -0.3090889 -0.098803125 -0.15705825 0.22543474 -0.19720906
0.023024753 0.53451747 0.3626944 0.14227508 -0.018137345 -0.25016388 -0.26045108 0.21996859
-0.077417985 -0.075939104 0.2847896 -0.16199203 -0.21758972 -0.18833487 0.24014612 -0.19671771
0.36034626 0.01930872 -0.27272704 0.26022398 -0.25906488 0.11796449 -0.024217917 0.21788119
0.25155345 -0.041041862 0.29690292 0.07159842 0.0666191 0.34620786 0.1748405 0.21067815
-0.034733064 0.29566175 0.038794454 0.18990748 -0.021830281 -0.31693003 0.05815654 0.09900885
-0.24749348 -0.05765701 -0.17414762 0.5049268 0.30248275 -0.01677473 -0.13646418 0.29768455
-0.17812881 0.10407954 -0.19157912 -0.09815187 -0.07180656 -0.23783804 -0.028803589 -0.10706729
0.27688804 -0.40550455 0.24939124 0.2211087 0.220501 -0.04604404 -0.10406065 0.00029298206
0.104383804 -0.0033934787 0.13559058 -0.20701407 0.018202756 -0.051105645 0.09155137 0.22786203
0.24311249 -0.108912185 -0.32257655 -0.51446986 -0.04141844 -0.24118127 0.17449453 -0.39442658
0.26679158 -0.52038974 0.34726033 -0.18520477 -0.020921389 -0.2512934 -0.4468727 0.020975567
-0.060193013 0.024898047 0.35827687 -0.17250526 -0.14286968 -0.19270411 -0.2522498 -0.053178195
0.33464038 -0.22846618 0.3815997 0.14545518 0.5055815 0.28028136 0.21595678 -0.0850532
0.2154927 0.07105549 0.23145433 -0.009019922 0.30565476 0.084828824 -0.09287683 0.1679328
-0.06625956 -0.095898 -0.037099436 -0.1907764 -0.30543292 0.081828095 0.096619904 -0.008332957
-0.10356394 0.25647506 -0.15857227 -0.12213026 0.3398743 0.11938371 -0.14443992 -0.3447235
-0.46552205 0.05909745 0.15741263 0.0077804523 0.36315098 -0.25670648 0.06410737 -0.38678133
-0.03549381 -0.04491944 0.31487364 0.14146572 -0.11565268 0.101621196 0.14684923 -0.03244874
00000000: 5468 a6bd 528b 45be 3b61 583e b513 2c3e
00000010: dc1e 5a3e 43f4 81bc e884 c03e d8eb 21be
00000020: 02a4 693e bb34 a6bb c2b0 1d3e 4a1f 153d
00000030: 7760 1c3e a983 763e c66f 3c3e 12d1 7d3d
00000040: 5605 263e ceb7 093f cf28 a3be fafb 9bbe
00000050: f193 5dbe 655b 1cbd a357 34bc 85fd ccbe
00000060: 106a e7bd 6e74 893d 79ba 00bf ad71 4c3c
00000070: 4cef 783e ac65 a03c 492b 0b3b be7e 1dbe
00000080: 51ac 053e ab5d db3d 89be 133e 4a0d eb3d
00000090: 9722 c83e d7f2 a03c 924a c2bd c1f3 4ebe
000000a0: b3e7 323d cc32 e23e 2092 2c3e 3c86 ac3e
000000b0: 24d2 08be 7bcd 963d 261c 773e 4a88 263e
000000c0: d783 3b3e 7522 8cbc 136a c9be 42bc 183e
000000d0: cfa9 0abe 6937 893d cb42 b13d 9da7 90be
000000e0: a4a5 f83e b48f 223e 3ccb 9a3e a0b2 9cbe
000000f0: c8ce d23d eea9 4ebd 57ce c13e 2a4f 853e
00000100: d8bc f0bd ae39 e43e c93f 933e afa5 f43d
00000110: 7d92 e83c 6369 28be b229 843e b851 863e
00000120: 6807 e63e 6b78 df3e 030d d0bb cc1d 903d
00000130: 873c 6ebc ee4f 1a3e a8ee dc3e 218d 4cbd
00000140: 19be 65be c677 d2be 12fa 3abe 7d17 87bc
00000150: 0792 1ebc 6be0 8fbe 2d6a 163e c871 89be
00000160: 6296 e33d fc0b 5a3e 3f21 7f3c 353e 86bb
00000170: 8c5b 803e 0f4a 17be 73a5 5bbe 77c2 903e
00000180: dc10 dc3e 2897 b43c e1e8 a53d dc47 e5b8
00000190: 69c7 b53e 5dc6 813e f1c2 ccbe d08e 6bbd
000001a0: 307e 893e 1cc3 11be 9fad c13e e640 9ebe
000001b0: 4b59 cabd e1d3 20be 5dd8 663e 2cf1 49be
000001c0: 689e bc3c 23d6 083f 15b3 b93e 8fb0 113e
000001d0: c594 94bc 7b15 80be d859 85be 723f 613e
000001e0: 528d 9ebd f685 9bbd f1cf 913e 3de1 25be
000001f0: d7cf 5ebe dbda 40be dde8 753e 5e70 49be
00000200: 4e7f b83e 522d 9e3c e1a2 8bbe 143c 853e
00000210: 27a4 84be 5e97 f13d a764 c6bc 3f1c 5f3e
00000220: 9dcb 803e 831b 28bd a903 983e 31a2 923d
00000230: 986f 883d 2842 b13e 6309 333e 03bc 573e
00000240: 4244 0ebd fa60 973e efe6 1e3d 1b77 423e
00000250: 6bd5 b2bc a744 a2be 8d35 6e3d 27c5 ca3d
00000260: ee6e 7dbe c229 6cbd c153 32be e242 013f
00000270: 05df 9a3e 296b 89bc 44bd 0bbe 1c6a 983e
00000280: 6667 36be a727 d53d 512d 44be d903 c9bd
00000290: 510f 93bd d18b 73be 81f5 ebbc 1846 dbbd
000002a0: 45c4 8d3e 4b9e cfbe 6b60 7f3e 526a 623e
000002b0: 04cb 613e ad98 3cbd c01d d5bd 639b 9939
000002c0: 2dc7 d53d 2065 5ebb 42d8 0a3e 7ffb 53be
000002d0: f21d 953c 2754 51bd 497f bb3d aa54 693e
000002e0: 7bf2 783e 5a0d dfbd c128 a5be 4cb4 03bf
000002f0: 62a6 29bd 39f8 76be b2ae 323e 48f2 c9be
00000300: e898 883e 4338 05bf 1bcc b13e 52a6 3dbe
00000310: 5563 abbc 87a9 80be 80cc e4be f4d4 ab3c
00000320: f38c 76bd fdf6 cb3c 1170 b73e 38a5 30be
00000330: 6e4c 12be 3a54 45be e326 81be 61d1 59bd
00000340: fc55 ab3e 0af3 69be 0961 c33e 34f2 143e
00000350: ca6d 013f 0a81 8f3e c623 5d3e 5f30 aebd
00000360: 1eaa 5c3e 8a85 913d 5d02 6d3e 4cc8 13bc
00000370: c87e 9c3e bcba ad3d 3536 bebd 93f6 2b3e
00000380: 18b3 87bd 2c66 c4bd 94f5 17bd e35a 43be
00000390: b461 9cbe 7d95 a73d a8e0 c53d f486 08bc
000003a0: 5519 d4bd b350 833e c560 22be 6e1f fabd
000003b0: 0104 ae3e 727f f43d 0fe8 13be 997f b0be
000003c0: e858 eebe 2b10 723d c730 213e 2af3 fe3b
000003d0: edee b93e 086f 83be ba4a 833d 3408 c6be
000003e0: f561 11bd 72fd 37bd 1e37 a13e 64dc 103e
000003f0: 50db ecbd c61e d03d a55f 163e f8e8 04bd

network_body._body_endoder.seq_layers.0.bias f4 [128]
-0.035948798 -0.04889041 -0.020154346 -0.010753865 0.09145929 -0.003013986 -0.044226162 -0.042051304
-0.07231991 0.07997159 0.024773648 0.031381037 -0.10150193 -0.071900345 -0.09280943 0.045882594
-0.061780583 0.030158522 -0.047106322 0.013418107 -0.05373312 -0.006510091 -0.08154127 -0.08860446
0.018994827 -0.031960063 -0.067648046 0.024361659 -0.04039405 -0.0060382895 0.0020569419 -0.0825038
-0.08278733 0.025820034 -0.078409664 -0.037342675 -0.013202515 0.028647723 -0.022567626 -0.01944785
0.025819192 0.010157058 0.0010234521 -0.039106507 -0.012665611 0.0035357757 -0.06200283 0.013092902
0.05299877 0.03495958 -0.040732462 -0.0061227717 -0.04525944 -0.04980476 -0.06989771 -0.05980292
0.03938707 -0.006745192 -0.101205535 -0.052349564 -0.05933781 0.067196034 0.04569179 -0.098557666
0.03121559 0.012892042 -0.022115083 -0.0362761 0.0037349262 -0.0127622485 -0.025537873 -0.10192596
0.00048484618 -0.020131784 -0.044233214 -0.02139176 -0.028807757 0.0086092055 -0.10209218 -0.054010868
0.028225413 0.010390603 0.0597928 -0.026021507 -0.028228484 0.011326533 -0.032999597 -0.018406956
-0.08878275 -0.05216602 0.02541356 0.06196756 -0.028363528 0.00086097827 0.058720894 -0.06162148
0.0045931116 -0.07938145 0.014985362 0.06459739 0.0029452632 -0.017432086 -0.019570481 -0.053718068
-0.10381422 0.024960743 -0.04117227 -0.008227411 0.036266644 -0.008458152 0.06170089 -0.048091076
-0.004693546 -0.008852325 -0.032497507 -0.030340498 -0.03754653 -0.018960752 0.005062252 0.028079292
-0.04630582 0.068292856 -0.10165297 -0.054329146 0.0025021855 0.026993971 0.020847457 -0.033743892
00000000: 0c3f 13bd 5041 48bd ba1a a5bc fb30 30bc
00000010: 024f bb3d 4b86 45bb 7e26 35bd fd3d 2cbd
00000020: 761c 94bd 25c8 a33d 1bf2 ca3c 6789 003d
00000030: 3ee0 cfbd 7d40 93bd df12 bebd 63ef 3b3d
00000040: a30d 7dbd 010f f73c 8ff2 40bd 9fd7 5b3c
00000050: 4317 5cbd 9a52 d5bb 1cff a6bd 4176 b5bd
00000060: 0a9b 9b3c 8ee8 02bd 0f8b 8abd 1a92 c73c
00000070: 3b74 25bd d8dc c5bb c2cd 063b c1f7 a8bd
00000080: 678c a9bd 8984 d33c 3f95 a0bd a2f4 18bd
00000090: 5d4f 58bc a1ae ea3c bedf b8bc 1951 9fbc
000000a0: c582 d33c ca69 263c 5b25 863a 252e 20bd
000000b0: 6c83 4fbc 79b8 673b aef6 7dbd 9c83 563c
000000c0: 3d15 593d c731 0f3d 15d7 26bd 88a1 c8bb
000000d0: f661 39bd 1300 4cbd 8826 8fbd e8f3 74bd
000000e0: 5654 213d c606 ddbb d944 cfbd 7f6c 56bd
000000f0: 340c 73bd 139e 893d 5027 3b3d 9ad8 c9bd
00000100: d6b7 ff3c 2539 533c b12a b5bc 3f96 14bd
00000110: aac5 743b c018 51bc cd34 d1bc 8fbe d0bd
00000120: f432 fe39 69eb a4bc e32d 35bd c63d afbc
00000130: 3ffe ebbc a00d 0d3c b415 d1bd 803a 5dbd
00000140: fb38 e73c 593d 2a3c 4ce9 743d 0e2b d5bc
00000150: 6c3f e7bc ec92 393c 962a 07bd 2fca 96bc
00000160: bbd3 b5bd 09ac 55bd 1930 d03c b2d1 7d3d
00000170: a15a e8bc 46b3 613a 5285 703d ce66 7cbd
00000180: d081 963b be92 a2bd 2a85 753c a34b 843d
00000190: 5105 413b bccd 8ebc 4652 a0bc 7a07 5cbd
000001a0: 8d9c d4bd 797a cc3c 41a4 28bd 43cc 06bc
000001b0: 558c 143d 1094 0abc 13ba 7c3d 26fb 44bd
000001c0: 51cc 99bb 5809 11bc 1b1c 05bd a38c f8bc
000001d0: 64ca 19bd 9453 9bbc 3fe1 a53b 8b06 e63c
000001e0: 2cab 3dbd 20dd 8b3d 6f2f d0bd 3d88 5ebd
000001f0: b5fb 233b 7622 dd3c 49c8 aa3c 0937 0abd

network_body._body_endoder.seq_layers.2.weight f4 [128, 128]
0.056080688 0.008046976 -0.014023919 0.0062313713 0.080440186 -0.11857204 0.084084526 -0.073509395
0.14983007 0.0074417656 -0.16718632 -0.020036949 -0.33078948 -0.042723097 0.0021452378 -0.22464512
-0.08419941 -0.012466958 0.031014694 0.007822049 -0.10929622 -0.1923003 -0.14597613 -0.10602623
0.07035789 -0.08523718 -0.0071978183 -0.01282391 -0.016692461 0.018647317 0.12324798 0.05595932
0.042606164 -0.042252004 -0.037426107 -0.18960421 -0.07269342 0.0828674 -0.054309044 -0.035890587
0.18389893 0.11897684 -0.06108315 -0.0870528 -0.096719965 0.054431707 -0.03247604 -0.08962808
-0.10331159 -0.047381967 -0.1648572 0.11196758 -0.0106236385 -0.040072236 0.06102859 -0.11362008
0.09021649 -0.07170082 0.039321113 0.011406984 -0.027487772 -0.026413016 0.2643671 -0.13090171
-0.09318699 -0.012685762 -0.05036854 -0.0334913 0.0103011755 0.100358136 0.07329823 -0.11411056
-0.011406622 0.07012445 -0.03706609 0.14561626 -0.011905478 0.19050397 0.009160794 -0.11520485
-0.15190041 0.032246865 0.17183205 -0.06183518 -0.021991715 -0.0367909 0.21713568 -0.25112405
0.015185127 -0.11437924 0.07528523 0.00581822 0.027678315 -0.023110257 0.034483466 -0.03257604
0.028032048 0.041499756 0.049373418 0.017684486 -0.12128544 0.021008639 0.2022505 -0.083510816
0.053362917 -0.018651119 -0.0629702 -0.006191095 0.0109550115 -0.12513201 0.15761934 -0.021209849
0.08698293 -0.012736126 0.043866828 -0.11877786 0.10215145 -0.09694963 0.07345121 -0.09839747
0.013661067 0.14686038 0.01455636 -0.08438162 -0.117728174 -0.019237552 0.0627014 -0.03626776
-0.0071161357 0.15667595 -0.077325635 -0.13313453 0.0034100858 0.04837434 -0.06867225 0.065965615
0.038944356 0.147718 0.08416157 0.09916082 -0.18711878 -0.17099339 -0.30002475 -0.23659253
-0.082207024 0.08622347 0.08609556 0.033795938 -0.017189873 0.04645428 0.05184059 0.06688144
-0.1385795 -0.025848556 0.07976244 0.13556638 0.048021045 -0.07011453 0.041692335 -0.15536967
-0.13892698 -0.07013396 0.022774303 -0.2128565 -0.11844881 0.14963573 -0.08578497 -0.002932472
0.01696266 -0.028106136 -0.033066865 -0.03282567 -0.17500132 -0.08178798 -0.12039382 0.0055493005
0.08261636 -0.024480961 -0.06420305 0.05302228 -0.057271834 -0.033158436 0.028841441 -0.06994534
0.011727657 -0.08199029 -0.09022369 -0.057466965 -0.025816787 -0.00020416701 0.08565748 0.011628135
-0.18278871 0.07737702 -0.060195535 -0.00058786356 0.00085341115 -0.0012220901 0.0012718539 0.11367238
-0.029576069 -0.051497195 0.1849927 -0.10131916 0.0025314374 -0.091611765 -0.058066826 -0.06921168
0.25710332 0.080019206 0.03353538 -0.20660788 -0.1848939 -0.07478818 0.21288653 -0.16631627
-0.043673325 0.054406147 0.18336138 0.011401437 -0.045031868 0.113109075 0.019820949 -0.19574615
-0.016194666 -0.052625597 -0.051657397 -0.019188633 0.20523567 0.009611572 -0.06373792 0.02261186
0.006560605 0.20126869 0.016925229 -0.01526267 0.12668006 -0.015967827 0.30638337 -0.07966328
0.10288629 -0.025490504 0.035245057 -0.101545945 0.05952529 -0.047397196 -0.09722665 -0.019761499
0.046922978 0.12273394 -0.15701684 -0.23598114 -0.09819291 0.039611015 -0.14715149 -0.21897702
00000000: ddb4 653d 77d7 033c 94c4 65bc 8830 cc3b
00000010: d3bd a43d e6d5 f2bd 8234 ac3d 188c 96bd
00000020: 0e6d 193e 0eda f33b e432 2bbe 8724 a4bc
00000030: 3d5d a9be 6afe 2ebd 1e97 0c3b 5f09 66be
00000040: be70 acbd 3642 4cbc 8712 fe3c 0d28 003c
00000050: b2d6 dfbd 5fea 44be c47a 15be 4824 d9bd
00000060: cc17 903d d590 aebd addb ebbb 611b 52bc
00000070: a1be 88bc 42c2 983c 7069 fc3d 9a35 653d
00000080: cd83 2e3d 7010 2dbd 1e4c 19bd 9b27 42be
00000090: 4ae0 94bd 62b6 a93d 2973 5ebd 0202 13bd
000000a0: 0050 3c3e 21aa f33d 5332 7abd bd48 b2bd
000000b0: 1e15 c6bd c8f3 5e3d 9905 05bd ed8e b7bd
000000c0: 0795 d3bd 9813 42bd 53d0 28be 424f e53d
000000d0: c50e 2ebc c922 24bd 1df9 793d a5b1 e8bd
000000e0: 6cc3 b83d e1d7 92bd 2d0f 213d 5ce4 3a3c
000000f0: 092e e1bc 1c60 d8bc 205b 873e 190b 06be
00000100: d2d8 bebd f1d7 4fbc 3e4f 4ebd 2c2e 09bd
00000110: 43c6 283c 9188 cd3d 621d 963d ccb2 e9bd
00000120: d7e2 3abc 689d 8f3d 9dd2 17bd 6e1c 153e
00000130: 320f 43bc 7913 433e 2817 163c 85f0 ebbd
00000140: c88b 1bbe 4a15 043d bef4 2f3e e346 7dbd
00000150: f827 b4bc 0eb2 16bd d158 5e3e 5593 80be
00000160: 0acb 783c aa3f eabd 252f 9a3d c4a6 be3b
00000170: a2bd e23c b951 bdbc 893e 0d3d 746e 05bd
00000180: 77a3 e53c a6fb 293d c83b 4a3d 0edf 903c
00000190: 8064 f8bd 4f1a ac3c c11a 4f3e b807 abbd
000001a0: 1393 5a3d 3bca 98bc 85f6 80bd abde cabb
000001b0: a67c 333c 9b22 00be f766 213e 47c0 adbc
000001c0: 1b24 b23d 2fab 50bc b4ad 333d cf41 f3bd
000001d0: c834 d13d 878d c6bd 976d 963d 9d84 c9bd
000001e0: abd2 5f3c 9162 163e cd7d 6e3c 45d0 acbd
000001f0: 781b f1bd 1298 9dbc 9769 803d 818d 14bd
00000200: 792e e9bb a96f 203e e75c 9ebd 6b54 08be
00000210: bf7b 5f3b 2c24 463d 09a4 8cbd fb18 873d
00000220: 1e84 1f3d 6343 173e e75c ac3d d414 cb3d
00000230: 119c 3fbe e418 2fbe d89c 99be 5045 72be
00000240: 285c a8bd ee95 b03d de52 b03d 9c6d 0a3d
00000250: c7d1 8cbc d846 3e3d cc56 543d 23f9 883d
00000260: c9e7 0dbe 5ac0 d3bc 7d5a a33d ead1 0a3e
00000270: b7b1 443d 3598 8fbd 95c5 2a3d 3a19 1fbe
00000280: e042 0ebe 65a2 8fbd 2d91 ba3c 0ef7 59be
00000290: 4a95 f2bd 1c3a 193e 08b0 afbd b72e 40bb
000002a0: 47f5 8a3c d73e e6bc 1f71 07bd 3674 06bd
000002b0: 8c33 33be 7580 a7bd 0991 f6bd e8d6 b53b
000002c0: c432 a93d 4c8c c8bc e47c 83bd e42d 593d
000002d0: df95 6abd 24d1 07bd e344 ec3c 813f 8fbd
000002e0: 5c25 403c 86ea a7bd 33c7 b8bd 7b62 6bbd
000002f0: ba7d d3bc aa15 56b9 306d af3d ef83 3e3c
00000300: f72c 3bbe d877 9e3d 988f 76bd db1a 1aba
00000310: 74b7 5f3a 8a2e a0ba 56b4 a63a 11cd e83d
00000320: 8349 f2bc b9ee 52bd ba6e 3d3e 6b80 cfbd
00000330: 79e6 253b f39e bbbd 7bd7 6dbd dabe 8dbd
00000340: 0ca3 833e 1ce1 a33d 655c 093d 0491 53be
00000350: d454 3dbe 8c2a 99bd edfe 593e d04e 2abe
00000360: cde2 32bd fbd8 5e3d 16c3 3b3e 18cd 3a3c
00000370: 5673 38bd bba5 e73d 8b5f a23c ae71 48be
00000380: adaa 84bc f08d 57bd b596 53bd 7b31 9dbc
00000390: 4d29 523e db79 1d3c 0789 82bd 823c b93c
000003a0: 58fa d63b 6119 4e3e c7a6 8a3c 4710 7abc
000003b0: 6bb8 013e f6ce 82bc 48de 9c3e 8026 a3bd
000003c0: 0cb6 d23d 76d1 d0bc 1f5d 103d 52f7 cfbd
000003d0: cad0 733d 9023 42bd c41e c7bd dee2 a1bc
000003e0: 4f32 403d ef5b fb3d 06c9 20be 0aa5 71be
000003f0: 5d19 c9bd 293f 223d e1ae 16be 833b 60be

network_body._body_endoder.seq_layers.2.bias f4 [128]
0.0062457253 0.018928204 -0.0076707066 -0.08776328 0.033073995 0.032966822 -0.09655278 0.047668226
-0.08167416 -0.0073882644 -0.076224715 -0.0125091 -0.034850806 -0.041037206 -0.0056429105 -0.023086034
0.0028282104 -0.014725383 -0.01790599 -0.07653004 0.022699958 -0.045121398 0.040871497 0.011896235
-0.041592274 0.022188215 -0.102026336 0.058360957 0.018786643 -0.038274284 -0.03027914 -0.05158554
-0.03161759 -0.022694284 -0.09876237 -0.002232884 0.04165203 -0.072126664 -0.05107005 -0.05117049
-0.024860503 0.05242032 0.02021218 -0.060452137 -0.04025847 0.0006319446 -0.047851536 -0.0712703
0.0033225538 0.040868647 -0.036378004 -0.060456876 -0.089733385 -0.020925486 0.021850232 -0.00011818587
0.04364424 0.055751283 0.038696848 -0.012566455 -0.039239354 -0.09562992 0.014997605 0.008993522
-0.07082103 0.06416289 -0.01573089 -0.044442438 0.071531095 -0.07901967 -0.072087824 0.010788652
-0.05950004 -0.014143349 -0.016987998 -0.060434 0.011712887 0.010010054 -0.047354054 -0.030929228
0.040840533 -0.05138434 0.042565044 0.044312023 -0.032872282 -0.07090572 -0.034440223 0.026432341
0.063180976 -0.058675323 -0.0042507597 -0.06539456 -0.07012561 -0.02135528 -0.038903784 -0.020996965
-0.06793495 0.0028912337 0.034363545 0.038525645 -0.046391316 -0.04084657 -0.029642005 -0.0006844334
-0.006830754 0.0006825705 -0.06506703 -0.11723059 -0.005684288 -0.060875304 -0.041393105 -0.028222192
-0.0016261062 -0.05393046 -0.030293163 -0.047106937 0.03483044 -0.018472534 0.0019325555 0.011289907
-0.019339532 0.053189766 -0.0057083704 -0.017211871 -0.04160384 -0.022702932 -0.04599116 -0.023638539
00000000: f1a8 cc3b 520f 9b3c 8d5a fbbb 3cbd b3bd
00000010: 9978 073d 3808 073d 77bd c5bd c23f 433d
00000020: c844 a7bd 4119 f2bb b41b 9cbd f8f2 4cbc
00000030: b8bf 0ebd a116 28bd 2ae8 b8bb ec1e bdbc
00000040: 7f59 393b bc42 71bc 95af 92bc c8bb 9cbd
00000050: 43f5 b93c 37d1 38bd df68 273d 6de8 423c
00000060: a95c 2abd 0fc4 b53c 2ff3 d0bd e60b 6f3d
00000070: 72e6 993c 7fc5 1cbd f60b f8bc 5c4b 53bd
00000080: 7281 01bd 5de9 b9bc ed43 cabd 9455 12bb
00000090: 529b 2a3d 25b7 93bd d42e 51bd 2698 51bd
000000a0: 41a8 cbbc b1b6 563d 0494 a53c a99c 77bd
000000b0: 11e6 24bd 16a9 253a f9ff 43bd 2af6 91bd
000000c0: 34bf 593b e265 273d 1a01 15bd a1a1 77bd
000000d0: 23c6 b7bd ed6b abbc 42ff b23c 8eda f7b8
000000e0: 4dc4 323d 755b 643d 9680 1e3d 88e3 4dbc
000000f0: 72b9 20bd 9fd9 c3bd 84b8 753c 9159 133c
00000100: 9e0a 91bd d567 833d 11de 80bc 4609 36bd
00000110: e57e 923d 11d5 a1bd c8a2 93bd e3c2 303c
00000120: 50b6 73bd 81b9 67bc 6a2a 8bbc a489 77bd
00000130: 69e7 3f3c 3601 243c 53f6 41bd 4b5f fdbc
00000140: 6748 273d 6378 52bd af58 2e3d 8680 353d
00000150: 16a5 06bd 0537 91bd 3111 0dbd a388 d83c
00000160: 0765 813d 8955 70bd f549 8bbb 95ed 85bd
00000170: 049e 8fbd 45f1 aebc 9359 1fbd d401 acbc
00000180: 7b21 8bbd da7a 3d3b cac0 0c3d 11cd 1d3d
00000190: d204 3ebd bc4e 27bd cad3 f2bc 8c6b 33ba
000001a0: 85d4 dfbb 88ee 323a dd41 85bd 9716 f0bd
000001b0: 4443 babb 6258 79bd d18b 29bd 3a32 e7bc
000001c0: 1223 d5ba 30e6 5cbd 5e29 f8bc 34f3 40bd
000001d0: 5daa 0e3d b653 97bc cd4d fd3a 4df9 383c
000001e0: f06d 9ebc 83dd 593d 480d bbbb e9ff 8cbc
000001f0: ca68 2abd 80fb b9bc 3a61 3cbd 9ca5 c1bc

action_model._continuous_distribution.log_sigma f4 [1, 2]
-0.2806329 -0.09038883
00000000: 1eaf 8fbe c71d b9bd

action_model._continuous_distribution.mu.weight f4 [2, 128]
-0.0026549422 0.0351721 0.0054272404 0.022250239 -0.014828847 -0.042538613 0.04195367 0.021414429
0.033095386 0.0094614895 0.010448733 0.096502155 -0.031042172 0.0142837865 0.058220122 0.072712846
-0.06393976 0.018560916 -0.03512661 -0.0021905126 -0.023945782 0.02404029 0.01473968 -0.02445643
0.008478271 0.031628717 -0.00361414 -0.046537943 0.036194235 0.014875092 -0.020595744 0.048819482
0.05257566 0.039996892 0.05063426 -0.00829245 -0.04223575 0.010272575 -0.011051587 -0.024872597
-0.022092449 -0.011838583 -0.0077176658 0.03628884 -0.03714667 -0.012335705 0.013378898 0.037194114
0.03203579 -0.012150765 0.029353768 -0.004240561 0.013194025 0.04248898 0.015546149 0.098414354
-0.07551575 -0.029832987 0.02473963 -0.0069612684 -0.029133793 -0.013772157 0.023284206 -0.002557732
0.007416737 -0.013226414 0.08350472 0.0021754955 -0.038928926 0.035628244 0.0056314035 -0.011632649
0.053834185 -0.023757812 -0.010115262 -0.0011810559 -0.003188696 -0.023922438 0.025526745 0.006193663
-0.021829981 0.012525719 0.004050102 0.025317598 0.038679756 0.02839913 0.0136111695 -0.014359564
0.010563224 -0.01182809 0.036608763 0.00035088698 0.015487949 0.03424391 -0.012532144 -0.03579953
-0.0014239666 0.034138072 0.012870695 0.06414253 0.0006339848 0.032895785 0.0030009397 0.04131714
0.01501266 0.04988866 -0.03169343 0.025225129 0.016957544 -0.02871199 -0.0045517622 -0.025491798
0.11993523 0.0071116756 0.022471115 0.0154472245 0.08133388 -0.03737549 0.0038068334 -0.016788486
-0.014512733 -0.01861807 -0.011524439 -0.020714492 0.017765906 0.0147648 0.008313138 0.0016927655
-0.02996269 -0.062089268 0.029049773 -0.0013842162 0.055750135 -0.0073348377 0.01817976 -0.06437145
-0.0629974 0.030353153 -0.05812965 -0.0072365063 -0.047929496 -0.04347974 0.00030706954 -0.012320428
-0.022927834 -0.02658607 0.009042367 -0.080358215 0.006135174 0.004434443 -0.051990375 -0.0310846
-0.022109808 -0.05049994 -0.03125936 -0.026903475 0.033428885 0.032252405 -0.08030454 -0.013146496
-0.017244345 0.03591473 0.01390969 -0.004635757 0.0048428965 -0.03635226 -0.0023821979 -0.013251473
-0.07255912 0.04849653 0.053781483 -0.015245328 -0.043573156 0.05596109 -0.041740317 -0.007818142
0.028847227 0.050540708 -0.065686956 0.0033737198 0.0035641983 0.036484115 0.047966566 -0.014353837
-0.014381221 0.03670321 -0.05677792 0.043746285 -0.042817477 -0.014331731 -0.056167804 -0.040338278
-0.03315598 0.055190526 0.0010340622 -0.0023346462 0.01693529 -0.06895918 -0.0162199 0.028391842
-0.03263639 -0.011997713 0.015184972 -0.013727204 -0.046878833 -0.02655842 -0.088311456 0.024439935
-0.033522755 -0.012792494 -0.06037972 -0.0574593 -0.010384635 0.014989404 0.021219844 0.008476708
-0.08779729 -0.0090129785 0.050696462 -0.047557507 0.011938281 0.029311009 -0.0152395815 -0.04003151
0.00970571 -0.054321304 -0.073568776 -0.053840656 -0.012939958 -0.0038443613 -0.02274383 -0.025747087
0.03346187 0.066681474 0.019159732 0.019223485 0.06259421 -0.0436812 -0.043023497 -0.09566939
-0.008315132 0.021816729 0.02141173 -0.033331122 -0.001038001 0.0171415 0.022430828 0.029962238
-0.026284624 0.08636519 -0.038913332 0.030762509 0.0053265747 0.023312902 0.012444726 -0.05250594
00000000: 8afe 2dbb 9f10 103d fed6 b13b 2246 b63c
00000010: b1f4 72bc f83c 2ebd 9dd7 2b3d 506d af3c
00000020: 078f 073d 5d04 1b3c 2a31 2b3c eca2 c53d
00000030: 274c febc 8b06 6a3c 3978 6e3d 79ea 943d
00000040: d9f2 82bd 100d 983c ece0 0fbd b48e 0fbb
00000050: f229 c4bc 24f0 c43c b37e 713c da58 c8bc
00000060: 72e8 0a3c 1d8d 013d 35db 6cbb 929e 3ebd
00000070: 6840 143d a8b6 733c 68b8 a8bc f0f6 473d
00000080: 9359 573d c8d3 233d df65 4f3d 0edd 07bc
00000090: 65ff 2cbd 4d4e 283c b711 35bc 9ec1 cbbc
000000a0: 39fb b4bc 9ef6 41bc 79e4 fcbb 9ba3 143d
000000b0: 1b27 18bd b21b 4abc 2a33 5b3c db58 183d
000000c0: f637 033d 0114 47bc 5077 f03c 67f4 8abb
000000d0: c02b 583c ed08 2e3d 46b5 7e3c 778d c93d
000000e0: 00a8 9abd 4f64 f4bc c4aa ca3c 5a1b e4bb
000000f0: fea9 eebc 9da4 61bc 85be be3c 9f9f 27bb
00000100: 1908 f33b 9ab3 58bc 8604 ab3d c292 0e3b
00000110: f073 1fbd ecee 113d a387 b83b de96 3ebc
00000120: 3c81 5c3d be9f c2bc 7cba 25bc a9cd 9aba
00000130: 71f9 50bb fdf8 c3bc 771d d13c 36f4 ca3b
00000140: cad4 b2bc ac38 4d3c b8b6 843b da66 cf3c
00000150: aa6e 1e3d 4ba5 e83c 6201 5f3c 6044 6bbc
00000160: 5f11 2d3c 9bca 41bc 12f3 153d 41f7 b739
00000170: 2bc1 7d3c 5843 0c3d 9f53 4dbc 87a2 12bd
00000180: 64a4 baba 5dd4 0b3d 9cdf 523c 295d 833d
00000190: 0032 263a bbbd 063d 6aab 443b 293c 293d
000001a0: a9f7 753c 0d58 4c3d f8d0 01bd eea4 ce3c
000001b0: 8cea 8a3c 6835 ebbc f326 95bb 2dd4 d0bc
000001c0: 9aa0 f53d 0f09 e93b 5815 b83c 5b16 7d3c
000001d0: 6192 a63d 0b17 19bd 117c 793b 0288 89bc
000001e0: d0c6 6dbc ec84 98bc 00d1 3cbc 70b1 a9bc
000001f0: ce89 913c 0fe8 713c d433 083c c9df dd3a
00000200: 5174 f5bc 5151 7ebd caf9 ed3c 976e b5ba
00000210: 415a 643d 1459 f0bb b8ed 943c 2ed5 83bd
00000220: c804 81bd 2da7 f83c 5b19 6ebd 3720 edbb
00000230: b851 44bd d017 32bd 2dfe a039 9fdb 49bc
00000240: 27d3 bbbc 08cb d9bc 7026 143c d992 a4bd
00000250: 9209 c93b ce4e 913b dcf3 54bd 22a5 febc
00000260: a11f b5bc 06d9 4ebd d109 00bd ad64 dcbc
00000270: baec 083d 191b 043d b576 a4bd 6764 57bc
00000280: 0344 8dbc 531b 133d 78e5 633c 8ce7 97bb
00000290: 29b1 9e3b 1be6 14bd a61e 1cbb b51c 59bc
000002a0: e099 94bd 4ca4 463d f949 5c3d 8ac7 79bc
000002b0: c479 32bd 7537 653d e5f7 2abd aa17 00bc
000002c0: 0551 ec3c c603 4f3d e286 86bd a019 5d3b
000002d0: 5395 693b 5e70 153d 9778 443d 5b2c 6bbc
000002e0: 369f 6bbc 1b56 163d f78f 68bd 4e2f 333d
000002f0: 6161 2fbd a3cf 6abc 3610 66bd c039 25bd
00000300: 91ce 07bd 760f 623d 5f89 873a dd00 19bb
00000310: e1bb 8a3c 783a 8dbd 99df 84bc 0296 e83c
00000320: bcad 05bd 0e92 44bc 64ca 783c 11e8 60bc
00000330: 0504 40bd 0b91 d9bc a3dc b4bd 4236 c83c
00000340: 284f 09bd 9c97 51bc ba50 77bd 715a 6bbd
00000350: 5124 2abc 1e96 753c 3dd5 ad3c e4e1 0a3c
00000360: 11cf b3bd 2cab 13bc 18a7 4f3d a9cb 42bd
00000370: c898 433c a41d f03c 70af 79bc 15f8 23bd
00000380: b304 1f3c 0480 5ebd 3aab 96bd 0588 5cbd
00000390: 1e02 54bc aef1 7bbb 4551 babc 8eeb d2bc
000003a0: 500f 093d 4c90 883d dff4 9c3c 927a 9d3c
000003b0: 6531 803d 0feb 32bd 6839 30bd 50ee c3bd
000003c0: 313c 08bc ffb8 b23c a767 af3c 3786 08bd
000003d0: 890d 88ba 556c 8c3c dbc0 b73c 5e73 f53c
000003e0: da52 d7bc 3ce0 b03d 9663 1fbd a801 fc3c
000003f0: 8c8a ae3b b3fa be3c f7e4 4b3c 7810 57bd

action_model._continuous_distribution.mu.bias f4 [2]
-0.014593682 0.04014457
00000000: 571a 6fbc a26e 243d
