results/Curve1.4/CarAgent/CarAgent-193260.onnx (onnx, 11791 bytes, 6 tensors)

network_body._body_endoder.seq_layers.0.weight f4 [32, 22]
0	0xbee7482c	-0.4517225
1	0xbe79ab88	-0.2438184
2	0xbe2667f9	-0.162506
3	0x3d110d8e	0.035413317
4	0x3e21df6d	0.15807886
5	0xbeeb5b1c	-0.45967948
6	0xbe8d3f5c	-0.27587402
7	0xbe217fcc	-0.15771407
8	0xbe8a4848	-0.2700827
9	0xbe7f40c4	-0.2492705
10	0xbf110a56	-0.56656396
11	0xbdb5b9c1	-0.0887332
12	0xbd9e4a22	-0.077289835
13	0xbeceb799	-0.4037445
14	0xbcfd371e	-0.030910071
15	0x3de70162	0.112795606
16	0xbe243a22	-0.16037801
17	0x3de3907f	0.11111545
18	0xbe4732e0	-0.19453001
19	0x3de0ab1e	0.10970138
20	0xbe835834	-0.2565323
21	0x3dc2d821	0.095138796
22	0xbc2c111f	-0.010502129
23	0xbea8c93e	-0.32966036
24	0x3c9f6c03	0.019460684
25	0x3eabe1e7	0.33570787
26	0xbdea69f0	-0.11445987
27	0xbe5d6d37	-0.21623693
28	0xbca64f18	-0.020301387
29	0x3da2a1b3	0.07940998
30	0xbe0b091f	-0.13577698
31	0x3eb0cff1	0.34533647
32	0xbecee7c1	-0.4041119
33	0xbf114036	-0.56738603
34	0xbd88b51b	-0.06675168
35	0xbe605e52	-0.2191098
36	0xbd130afd	-0.03589915
37	0xbd5643ab	-0.052310627
38	0x3e024f93	0.12725668
39	0x3dda0afb	0.106466256
40	0x3c3b3fd9	0.011428797
41	0x3e887636	0.26652688
42	0xbe7e1dcc	-0.24816054
43	0xbe98cc75	-0.29843488
44	0xbebfd107	-0.37464163
45	0x3e53d818	0.20687902
46	0x3da9a221	0.08282877
47	0xbe16014f	-0.14648937
48	0x3edc9402	0.4308167
49	0xbe63fa2f	-0.22263406
50	0x3ca9c296	0.020722669
51	0xbcbcbe28	-0.023039892
52	0xbe9dddf3	-0.30833396
53	0x3b7e22c7	0.0038778053
54	0x3dda9eb7	0.10674804
55	0x3e4ab5f7	0.19795977
56	0x3d8cdef5	0.06878463
57	0xbec01526	-0.37516135
58	0xbe1c9f3d	-0.1529512
59	0x3b7bbc8e	0.0038411948
60	0x3d0576ed	0.03258412
61	0xbdd4e305	-0.10394863
62	0xbd402f5a	-0.046920158
63	0xbe18b297	-0.14911877
64	0xbe349176	-0.17633614
65	0xbe34b25c	-0.17646164
66	0x3e25665c	0.16152328
67	0x3e07b1e7	0.13251458
68	0x3eb59be2	0.35470492
69	0x3e03f4b3	0.12886314
70	0xbebceb8c	-0.36898458
71	0xbe761f29	-0.24035324
72	0x3de14832	0.11000098
73	0x3e6efd0a	0.23338714
74	0xbe487b33	-0.19578247
75	0xbe460dc9	-0.19341196
76	0x3e3e3f2c	0.18578786
77	0x3ea58031	0.32324365
78	0xbe647bbe	-0.22312829
79	0x3dc46d4c	0.09591159
80	0x3cbf15fe	0.023325916
81	0xbd1f2786	-0.03885605
82	0xbb73cd2c	-0.003720115
83	0xbe2c7da3	-0.16844802
84	0x3d9baf9a	0.07601853
85	0x3e6e7914	0.23288375
86	0x3ea28fc9	0.31750324
87	0x3dbbe503	0.0917454
88	0xbe989120	-0.29798222
89	0x3e6dd9da	0.23227635
90	0xbec263c5	-0.37966743
91	0x3bb77801	0.0055990224
92	0x3adaf720	0.0016705729
93	0x3d36f2e0	0.044665217
94	0x3e6e87da	0.23294011
95	0x3ea8e298	0.32985377
96	0xbd6568a1	-0.056007985
97	0x3da31465	0.07962874
98	0xbc750572	-0.014954912
99	0xbd043b6e	-0.03228324
100	0x3e21423c	0.15747923
101	0x3e98aa1b	0.2981728
102	0xbd8041f5	-0.0626258
103	0xbe34c2b3	-0.17652397
104	0x3dd778b6	0.10521071
105	0xbdc0f43c	-0.09421584
106	0x3e2258c5	0.15854175
107	0xbe3cc850	-0.18435788
108	0xbd0a1471	-0.0337109
109	0xbe83bdb7	-0.25730678
110	0x3db73507	0.08945661
111	0xbe172982	-0.14761928
112	0x3d1a850d	0.037724543
113	0xbd0fa000	-0.035064697
114	0xbe05031a	-0.12989464
115	0xbf26139d	-0.6487368
116	0xbe7d309e	-0.24725577
117	0xbcab6d48	-0.020926133
118	0xbd845f09	-0.06463439
119	0xbb507279	-0.0031806512
120	0xbd9d301b	-0.07675191
121	0x3daa0c45	0.083031215
122	0xbeb0f43d	-0.3456134
123	0x3e09b90e	0.13449499
124	0x3e15a494	0.14613563
125	0x3eacafeb	0.33727965
126	0x3d3bc08e	0.04583793
127	0x3e598da1	0.21245433
128	0xbe6c3f15	-0.23070939
129	0xbba42a5b	-0.005009932
130	0x3e3b0371	0.18263032
131	0xbc8971db	-0.016777923
132	0x3d26a0ea	0.040680803
133	0x3db33a7b	0.08751389
134	0xbda83f20	-0.08215165
135	0x3de2522b	0.110508285
136	0xbde76b88	-0.11299807
137	0x3e8250b9	0.25452211
138	0xbe45ff0c	-0.19335574
139	0x3e995f84	0.29955685
140	0x3dc995fd	0.09843061
141	0xbd00c9dd	-0.03144251
142	0x3e3c1275	0.18366416
143	0xbccc7b87	-0.024961246
144	0xbdd33507	-0.103128485
145	0xbee57adf	-0.44820306
146	0x3d25a4af	0.040440258
147	0xbe4c877f	-0.19973563
148	0x3f02a74c	0.51036525
149	0x3d7c65e9	0.061620627
150	0x3e8f8d96	0.2803771
151	0x3d288268	0.04113999
152	0x3e25bc85	0.16185196
153	0xbe9a7686	-0.3016855
154	0x3e9a4d52	0.30137116
155	0xbd1a37c2	-0.03765083
156	0x3e0d0e10	0.13774896
157	0xbe446a4f	-0.19181179
158	0x3db0d177	0.08633702
159	0xbdd5293a	-0.10408254
160	0x3e52aec2	0.20574477
161	0xbd71cee7	-0.059035208
162	0x3df44ceb	0.119287334
163	0xbe07db42	-0.13267234
164	0x3e7d50e4	0.24737889
165	0x3e11d070	0.14239669
166	0xbe57730c	-0.2103998
167	0x3eaae235	0.33375707
168	0x3e0ebbe1	0.13938858
169	0xbeffa7fa	-0.49932843
170	0xbe44d36a	-0.19221273
171	0xbd114198	-0.035462946
172	0x3e001457	0.12507759
173	0x3e08a2e4	0.13343388
174	0xbcf46344	-0.02983249
175	0x3e011f04	0.12609488
176	0xbd921b9c	-0.07134172
177	0xbeaeee3b	-0.3416613
178	0xbdddce55	-0.1083037
179	0x3daee3be	0.08539532
180	0x3dddab0d	0.10823641
181	0xbd5474d1	-0.051869217
182	0xbe4305be	-0.19045159
183	0xbe8fae02	-0.28062445
184	0x3e9d05fd	0.3066863
185	0xbca1f8d5	-0.019771973
186	0xbee9a243	-0.45631608
187	0x3d7fb27d	0.06242608
188	0xbe92a976	-0.28644913
189	0xbe6e8555	-0.2329305
190	0xbe925c73	-0.28586158
191	0x3ea2a103	0.31763467
192	0xbe1d984e	-0.15390131
193	0xbedbddb0	-0.42942572
194	0xbeb502c5	-0.35353675
195	0x3ec367f3	0.38165244
196	0x3e6fa089	0.23401083
197	0xbd9789e9	-0.07399351
198	0x3ed4e659	0.4158199
199	0xbe2e041a	-0.16993752
200	0x3d9fa3d6	0.07794921
201	0xbe6bc456	-0.23024115
202	0x3e44b121	0.19208194
203	0x3c639e93	0.0138927875
204	0xbe01658e	-0.12636396
205	0x3e82f1b8	0.25575042
206	0x3e8cbbb0	0.27486944
207	0x3d367c1b	0.04455195
208	0x3e580ca0	0.21098566
209	0x3eb3e506	0.3513567
210	0x3e76e335	0.2411011
211	0xbdba5516	-0.0909826
212	0x3f0db6d4	0.553571
213	0xbe7cde1b	-0.24694102
214	0xbe886815	-0.26641908
215	0xbde85a9f	-0.113454096
216	0xbb912381	-0.004429281
217	0x3b86129d	0.0040915743
218	0x3e945438	0.28970504
219	0x3e1ef5d6	0.15523466
220	0xbeb3f8b5	-0.35150686
221	0x3e02d19e	0.12775275
222	0xbad9b63f	-0.00166101
223	0x3d36c395	0.044620115
224	0x3e85fbbe	0.26168627
225	0x3cdec922	0.027195517
226	0x3a8f9121	0.0010953286
227	0xbc7fb8f4	-0.015608061
228	0x3e20e398	0.1571182
229	0x3e021649	0.12703814
230	0x3c73b5e4	0.014874909
231	0x3d31a021	0.0433656
232	0x3e9e0950	0.3086648
233	0x3f046bc5	0.51726943
234	0xbdad5a9e	-0.084645495
235	0xbe96cdf4	-0.29454005
236	0x3e20d27b	0.15705292
237	0xbdc8895a	-0.09791823
238	0x3e8182ac	0.25295007
239	0xbdf85d45	-0.12127165
240	0x3ddc77f1	0.107650645
241	0xbd5b85c9	-0.053594384
242	0x3d5e64c9	0.054295335
243	0x3db7c127	0.08972388
244	0xbcfee967	-0.031117154
245	0xbec01735	-0.37517706
246	0xbcbd6f23	-0.023124283
247	0xbe81f1d4	-0.25379813
248	0xbd0f54b9	-0.034992907
249	0xbe158cc4	-0.14604479
250	0xbe22137b	-0.15827744
251	0x3d82ed84	0.06392959
252	0x3e8a2d8d	0.26987877
253	0x3e0bdc4f	0.1365826
254	0x3e02c9ec	0.1277234
255	0x3e023a95	0.1271766

network_body._body_endoder.seq_layers.0.bias f4 [32]
0	0x00000000	0.0
1	0x00000000	0.0
2	0x00000000	0.0
3	0x00000000	0.0
4	0x00000000	0.0
5	0x00000000	0.0
6	0x00000000	0.0
7	0x00000000	0.0
8	0x00000000	0.0
9	0x00000000	0.0
10	0x00000000	0.0
11	0x00000000	0.0
12	0x00000000	0.0
13	0x00000000	0.0
14	0x00000000	0.0
15	0x00000000	0.0
16	0x00000000	0.0
17	0x00000000	0.0
18	0x00000000	0.0
19	0x00000000	0.0
20	0x00000000	0.0
21	0x00000000	0.0
22	0x00000000	0.0
23	0x00000000	0.0
24	0x00000000	0.0
25	0x00000000	0.0
26	0x00000000	0.0
27	0x00000000	0.0
28	0x00000000	0.0
29	0x00000000	0.0
30	0x00000000	0.0
31	0x00000000	0.0

network_body._body_endoder.seq_layers.2.weight f4 [32, 32]
0	0x3e036c6d	0.1283433
1	0xbdc8840c	-0.09790811
2	0xbe506598	-0.20351255
3	0x3d5934ea	0.05302898
4	0xbde1c3bb	-0.11023661
5	0xbe364c95	-0.17802651
6	0x3d776e32	0.060407825
7	0xbdecbf90	-0.11559975
8	0xbe87c15d	-0.26514712
9	0xbc9a2749	-0.01881756
10	0xbdd1a210	-0.10235989
11	0x3dce7c7b	0.100823365
12	0xbde1177c	-0.109908074
13	0x3d483fd6	0.048889004
14	0xbdbac810	-0.0912019
15	0xbc3a8fe8	-0.011386849
16	0xbe331c82	-0.17491344
17	0x3e94e15e	0.29078192
18	0x3e8995e7	0.2687218
19	0x3ea66e86	0.32506198
20	0xbdd9e05e	-0.10638498
21	0x3d4d4105	0.050110836
22	0x3dde05e9	0.10840971
23	0xbde0b3c4	-0.109717876
24	0xbd57785c	-0.052605018
25	0x3e944a5e	0.28962988
26	0x3e73e173	0.23816471
27	0xbe0aea6d	-0.13565989
28	0xbe9abdcf	-0.30222937
29	0xbe03e560	-0.12880468
30	0xbe811770	-0.25213194
31	0x3e360a1d	0.17777295
32	0x3e3c63c5	0.18397434
33	0xbe46aa05	-0.19400795
34	0x3d92ca4e	0.07167493
35	0x3e766db9	0.24065293
36	0xbe2b8e26	-0.16753444
37	0xbc85ae09	-0.016318338
38	0xbe470f46	-0.1943942
39	0x3db5eebb	0.08883425
40	0xbe8642e8	-0.2622292
41	0xbdfb1f91	-0.1226188
42	0xbe2c7e39	-0.16845025
43	0xbdc2f4e1	-0.09519363
44	0xbe2b5042	-0.16729835
45	0xbd7f5c12	-0.062343664
46	0xbe996ccb	-0.29965815
47	0xbe3247dc	-0.17410225
48	0x3c4b3907	0.012403733
49	0xbe4b4432	-0.19850233
50	0xbdb56a68	-0.08858186
51	0x3c87773b	0.016536346
52	0x3e4c1a65	0.19931944
53	0x3c88428b	0.016633293
54	0x3e1d26f7	0.15346895
55	0xbe83b1d6	-0.25721616
56	0x3e279ccb	0.16368406
57	0x3e0b5b1a	0.13608971
58	0xbea5f5c4	-0.32414067
59	0xbb911c5a	-0.0044284286
60	0x3d40d201	0.047075275
61	0x3d93489b	0.07191583
62	0xbe7baa73	-0.2457674
63	0x3d1c13d7	0.03810486
64	0x3d5b883a	0.053596713
65	0x3e32f5e2	0.1747661
66	0x3c8b6fba	0.017021049
67	0x3e883c9e	0.26608747
68	0x3ce34053	0.027740633
69	0x3e696c46	0.2279521
70	0xbe3716be	-0.17879769
71	0xbdc4671f	-0.09589981
72	0x3e22ce99	0.15899123
73	0x3d981048	0.074249804
74	0x3c1548ae	0.0091115665
75	0xbd87c6d4	-0.0662972
76	0x3ebfe117	0.37476417
77	0x3d44b9e0	0.048028827
78	0xbe49ce70	-0.19707656
79	0xbdeb2577	-0.11481755
80	0xbd92a497	-0.07160299
81	0xbdbebbbd	-0.09313152
82	0xbd704d38	-0.05866739
83	0xbe2b9015	-0.16754182
84	0x3e4bb565	0.19893415
85	0xbc8666bc	-0.01640641
86	0x3dd2ecb0	0.10299051
87	0x3dbe3aaa	0.09288533
88	0xbe01c307	-0.12672053
89	0x3e54b619	0.2077259
90	0xbeab2244	-0.3342458
91	0xbd6b8658	-0.057501167
92	0x3c27fd07	0.0102531975
93	0x3e9d705d	0.3074979
94	0xbcae8f1f	-0.02130848
95	0x3d1889eb	0.037240904
96	0x3e813be5	0.25241008
97	0xbc2dacf8	-0.010600321
98	0x3e924038	0.2856462
99	0xbdbc3084	-0.09188941
100	0xbe501152	-0.20319107
101	0xbe5a14c4	-0.21296984
102	0x3ddbe327	0.10736685
103	0xbe64d2fc	-0.22346109
104	0x3b6c3275	0.0036040817
105	0xbefbbb1c	-0.4916619
106	0xbdfe2aed	-0.12410531
107	0xbdfaf25a	-0.12253256
108	0x3e4ee791	0.20205523
109	0x3d9386b2	0.072034255
110	0xbc177978	-0.009245269
111	0x3e48724c	0.19574851
112	0xbe84b562	-0.25919634
113	0x3dbb449a	0.09143944
114	0x3c6ba188	0.014381774
115	0xbd4150d7	-0.047196236
116	0xbd6c9c2e	-0.057766132
117	0x3d52c720	0.05145943
118	0x3e077d8b	0.13231485
119	0xbe2760d0	-0.16345525
120	0xbdd64988	-0.10463244
121	0xbda2b5ca	-0.0794483
122	0x3e4c5924	0.1995588
123	0x3cffa461	0.031206312
124	0x3d86b80d	0.06578074
125	0xbeaaa756	-0.33330792
126	0x3e6d6401	0.2318268
127	0x3df83aef	0.12120616
128	0xbeadd67b	-0.33952698
129	0x3cfe290e	0.031025436
130	0xbec768b6	-0.38947076
131	0x3e39637a	0.18104354
132	0xbec8758b	-0.39152178
133	0x3e163bb5	0.14671214
134	0x3dd768ca	0.10518034
135	0x3de70736	0.11280672
136	0xbe1c15f2	-0.15242746
137	0xbdda0d5f	-0.106470816
138	0xbe488b84	-0.19584471
139	0x3dd9ee2d	0.106411316
140	0x3df123f6	0.11774437
141	0xbdea0b7a	-0.1142797
142	0xbe93514d	-0.28772965
143	0xbb1d7e60	-0.0024031624
144	0x3e8a70a0	0.2703905
145	0x3cb2e21e	0.021836337
146	0xbd04f496	-0.032459818
147	0xbd41c2e9	-0.04730502
148	0xbe18ccbb	-0.14921848
149	0xbc98d011	-0.018653901
150	0xbdd070b8	-0.101777494
151	0x3d90eaf4	0.07076064
152	0x3d4dd85f	0.050255176
153	0xbe34e277	-0.17664514
154	0xbe5acd5a	-0.21367398
155	0xbca41f53	-0.020034468
156	0xbcd60e84	-0.026129968
157	0xbe89e88e	-0.26935238
158	0xbb3644dc	-0.002781204
159	0x3bbf7482	0.0058427462
160	0x3e0a4219	0.13501777
161	0xbea7bf67	-0.32763216
162	0xbc89d95b	-0.016827276
163	0x3d7a4f2a	0.061110653
164	0xbd599bb3	-0.053127002
165	0xbce9024a	-0.028443474
166	0xbd48e74e	-0.049048714
167	0xbda8dca8	-0.08245212
168	0xbe540343	-0.20704369
169	0xbea4d841	-0.3219624
170	0x3d4f9ca0	0.05068648
171	0xbdc53390	-0.096289754
172	0x3dbc3458	0.09189671
173	0x3ce95b22	0.028485838
174	0x3d93ea37	0.07222407
175	0xbe9faae2	-0.3118506
176	0xbe2ed10e	-0.17071936
177	0x3e18dab2	0.14927176
178	0xbea788cf	-0.32721564
179	0x3f0ac71f	0.54210085
180	0x3e03834e	0.12843058
181	0xbe3af286	-0.18256578
182	0xbdaed4b7	-0.08536666
183	0xbe974b11	-0.2954946
184	0x3e645a40	0.22300053
185	0xbe432a91	-0.19059207
186	0xbe5b3cc1	-0.21409895
187	0x3d08e4f4	0.03342147
188	0x3ec2824c	0.37990034
189	0x3ddb4236	0.10705988
190	0xbe510d43	-0.20415215
191	0x3d8be20c	0.068302244
192	0xbe5d6fa4	-0.21624619
193	0x3f07cb6f	0.5304479
194	0x3cca6c0b	0.024709722
195	0xbdbbb0f6	-0.09164612
196	0xbe947d7b	-0.29001984
197	0x3e82b05e	0.25525182
198	0x3d023fcf	0.031799134
199	0x3e910a31	0.28328088
200	0xbe22f765	-0.15914686
201	0x3e3e6c8a	0.18596092
202	0x3df15507	0.11783796
203	0x3e2e3c86	0.17015275
204	0xbe0c8233	-0.13721542
205	0xbe363a41	-0.1779566
206	0x3de41f35	0.11138765
207	0x3e841e6c	0.2580446
208	0xbcd15194	-0.025551595
209	0xbe299095	-0.1655906
210	0x3df7bf7c	0.120970696
211	0x3da85d65	0.082209386
212	0x3c464c69	0.012103179
213	0xbc7c3def	-0.0153956255
214	0xbd300bb8	-0.042979926
215	0x3e731212	0.23737362
216	0xbde90605	-0.11378101
217	0x3de0c1ac	0.1097444
218	0x3e1c33fa	0.15254202
219	0x3e35269c	0.1769051
220	0xbd0889a8	-0.033334404
221	0x3c51a534	0.012795735
222	0xbddf8f41	-0.109159954
223	0x3dd41f3b	0.10357519
224	0x3e1aeeda	0.15130177
225	0x3db927e6	0.09040813
226	0xbe331204	-0.17487341
227	0xbd964682	-0.07337667
228	0xbd718be4	-0.0589713
229	0x3e05459a	0.13014832
230	0x3ce0c0fb	0.02743577
231	0x3dfc7a9c	0.123280734
232	0xbe5212aa	-0.20514932
233	0xbc856adf	-0.016286312
234	0x3d9f9732	0.0779251
235	0xbe11852a	-0.14210954
236	0x3e61dcc3	0.2205687
237	0x3d84d746	0.06486373
238	0xbe2f88ea	-0.17142072
239	0xbe853592	-0.26017433
240	0xbd863731	-0.06553496
241	0xbdead18f	-0.114657514
242	0xbd30d65f	-0.04317319
243	0x3dce6606	0.10078053
244	0x3e29a1ae	0.16565582
245	0x3df63cb4	0.12023297
246	0xbe0374e5	-0.1283756
247	0xbdff1ddf	-0.12456869
248	0xbd42b5fa	-0.047536828
249	0x3e0b6d4d	0.13615914
250	0xbe093ccc	-0.13402098
251	0xbda88757	-0.08228939
252	0x3d011476	0.031513654
253	0x3eaf0791	0.3418546
254	0x3dc6c5b6	0.09705679
255	0xbe232047	-0.15930282

action_model._continuous_distribution.log_sigma f4 [1, 2]
0	0xbf808f20	-1.0043678
1	0xbf07c1d7	-0.5303015

action_model._continuous_distribution.mu.weight f4 [2, 32]
0	0x3d6ba5ba	0.057531096
1	0x3d3e87ae	0.046516113
2	0xbc8f16ce	-0.017466929
3	0x3c205b86	0.009787446
4	0xbc0be5a7	-0.00853864
5	0xbd87dfbb	-0.0663447
6	0xbd8d4ba5	-0.06899194
7	0xbd77a96b	-0.060464304
8	0xbb4d688f	-0.003134284
9	0x3c13a72b	0.009012024
10	0x3d548d2f	0.051892456
11	0x3cc69f94	0.024246015
12	0xbd04e51f	-0.03244507
13	0x3cebe72f	0.02879676
14	0xbc91cc3c	-0.017797582
15	0xbc6e62ad	-0.014549893
16	0x3c9cf4fa	0.019159783
17	0x3cf227f0	0.02956006
18	0xb99eecbb	-0.00030312486
19	0xbc63c7fb	-0.0139026595
20	0xbbb8c95c	-0.0056392383
21	0x3c21ec8b	0.009883056
22	0xbcc3cfcb	-0.023902794
23	0x3d1ef38b	0.03880648
24	0xbd5e08d7	-0.05420765
25	0x3bdd0543	0.006745012
26	0xbddac5af	-0.106822364
27	0x3c6c479f	0.014421373
28	0x3c2fb719	0.010724806
29	0x3bf72d67	0.007543254
30	0x3c925436	0.01786242
31	0xbc9b313b	-0.018944373
32	0xbc83949e	-0.016062077
33	0xbc95feab	-0.018309912
34	0x3b358122	0.0027695377
35	0xbdb842d4	-0.089971215
36	0x3cb984e3	0.022646373
37	0xbc0e2263	-0.008675191
38	0xbc8e5ddc	-0.01737874
39	0xbc3bc110	-0.011459604
40	0xbd97610c	-0.07391557
41	0xbcbe01dd	-0.023194248
42	0x393b2607	0.00017847876
43	0xbc75eae0	-0.015009612
44	0x3c4aa363	0.012368056
45	0x3b1d834f	0.0024034565
46	0x3cca19a6	0.024670433
47	0x3c6287bd	0.013826308
48	0xbc5ea9f0	-0.013590321
49	0xbd2a4d0c	-0.041577384
50	0x3ca136ef	0.019679515
51	0x3d37e9d3	0.044900727
52	0xbd22780f	-0.039665278
53	0x3c980b7b	0.018560162
54	0xbcaca3af	-0.021074144
55	0xbd7bc9a3	-0.061471593
56	0x3d097df8	0.0335674
57	0xbd1ea5fe	-0.03873252
58	0x3d0fe334	0.035128787
59	0x3c02e3a0	0.00798884
60	0xbbf30cb8	-0.0074172877
61	0xbd139280	-0.036028385
62	0x3d00bc77	0.031429734
63	0xbd8bf189	-0.068331786

action_model._continuous_distribution.mu.bias f4 [2]
0	0xbcf7956c	-0.030222617
1	0x3e48752a	0.19575945
