results/Curve1.4/CarAgent/CarAgent-192108.pt (torch, 490652 bytes, 36 tensors)

network_body._body_endoder.seq_layers.0.weight f4 [128, 22]
0	0xbd82bfbc	-0.06384227
1	0x3c46812b	0.012115757
2	0xbee5d951	-0.44892362
3	0x3e43925c	0.190988
4	0x3e0fece5	0.14055212
5	0xbed17626	-0.40910453
6	0xbd86bb7d	-0.06578729
7	0xbe87b694	-0.26506484
8	0xbe72c81d	-0.2370915
9	0xbdce2874	-0.100663096
10	0x3d7daa9f	0.061930295
11	0xbe5ea3df	-0.217422
12	0xbec0947b	-0.37613282
13	0x3d811e7a	0.06304641
14	0xbd64bdde	-0.055845134
15	0x3d9e846e	0.07740103
16	0x3eb3172e	0.34978622
17	0xbe9a3692	-0.3011976
18	0x3de5ce9d	0.11221049
19	0xbef12b5c	-0.47103393
20	0xbe6015a2	-0.21883252
21	0xbc895ad2	-0.01676694
22	0xbe8aff23	-0.2714778
23	0x3d39d9c7	0.045373704
24	0xbece6d92	-0.4031797
25	0x3e3f3cde	0.18675563
26	0xbdd17398	-0.10227126
27	0x3ec0e3d4	0.3767382
28	0xbddb8a2a	-0.10719712
29	0xbdf35f3e	-0.118834004
30	0x3e08e388	0.13368046
31	0x3e6f8643	0.2339106
32	0xbc2bce39	-0.010486179
33	0xbde8ecca	-0.11373289
34	0x3e34b38c	0.17646617
35	0x3e4f3255	0.20234044
36	0x3c00f8d9	0.00787183
37	0x3db8e360	0.09027743
38	0xbe34c6d1	-0.17653967
39	0x3e742044	0.23840433
40	0xbc6dc046	-0.014511174
41	0x3e8544f1	0.2602916
42	0x3ddae511	0.10688222
43	0xbe14daf2	-0.14536646
44	0x3d8c3c76	0.068474695
45	0x3e3a19e8	0.18173945
46	0xbe84a358	-0.2590587
47	0xbeff378a	-0.4984706
48	0xbecdc7ed	-0.40191594
49	0xbde7be54	-0.11315599
50	0x3d2ca744	0.042151704
51	0x3eb86967	0.36017916
52	0xbba97b77	-0.005172189
53	0x3e3ede95	0.18639596
54	0x3e6c97af	0.23104738
55	0xbe6c0b50	-0.2305119
56	0x3e0d09ee	0.13773319
57	0x3b2bd424	0.0026218975
58	0xbe93252b	-0.28739294
59	0x3d7e08d1	0.062020127
60	0x3e457cc4	0.19285876
61	0xbedc7c10	-0.43063402
62	0xbe35694a	-0.17715946
63	0xbe3e2358	-0.1856817
64	0x3cfa5922	0.03056008
65	0x3e28dbb7	0.16490065
66	0xbe3b27a0	-0.18276834
67	0xbe32c5cc	-0.17458266
68	0xbcd9225e	-0.026505645
69	0xbeb5d553	-0.35514316
70	0xbeb0a206	-0.34498614
71	0xbe4127aa	-0.18862787
72	0xbefc1d95	-0.4924132
73	0xbeeab444	-0.45840657
74	0x3d3920e7	0.045197394
75	0x3dd70aa7	0.10500079
76	0xbe4a58b3	-0.19760399
77	0xbc373c1b	-0.011183764
78	0x3e6e7ad5	0.23289044
79	0xbe42f145	-0.1903735
80	0xbe1eed84	-0.15520293
81	0x3d3c6453	0.045994114
82	0x3e12775b	0.14303343
83	0x3d7b5de5	0.06136884
84	0x3e916922	0.28400522
85	0x3caabdf1	0.020842524
86	0xbe3a364a	-0.18184772
87	0xbcf90c85	-0.030401478
88	0xbdb8eea3	-0.09029891
89	0x3c19983a	0.009374673
90	0xbd86ce5d	-0.065823294
91	0x3ea1e11b	0.31617054
92	0xbd87c8fa	-0.0663013
93	0x3ddd25e9	0.107982464
94	0x3cf32915	0.029682675
95	0xbeee2906	-0.46515673
96	0xbc9c83b6	-0.019105773
97	0xbc97ecb2	-0.018545482
98	0x3e760e5a	0.24028912
99	0xbe0ed49f	-0.13948296
100	0x3d94c7a7	0.07264643
101	0x3e5e5c9d	0.21715017
102	0x3d45bf1f	0.04827797
103	0x3e134423	0.14381461
104	0xbe01da73	-0.12680988
105	0x3e2cbb31	0.16868283
106	0x3dc834dc	0.09775707
107	0x3d888055	0.066651024
108	0xbeca431e	-0.3950433
109	0xbe42cc11	-0.19023158
110	0xbe21f709	-0.15816893
111	0xbebb2d6c	-0.36558092
112	0x3e2bcc52	0.16777161
113	0x3d6a719a	0.057237245
114	0x3e03e0f3	0.1287878
115	0x3d1ee22b	0.03878991
116	0xbf14c1db	-0.581083
117	0xbead803e	-0.33886904
118	0xbec200d7	-0.37891266
119	0xbe95394d	-0.2914528
120	0x3df2e0fe	0.1185932
121	0xbe0c6c91	-0.1371329
122	0x3e582b54	0.21110278
123	0x3d24cebf	0.04023623
124	0x3e859baa	0.26095325
125	0x3ebf2572	0.37333256
126	0xbe013892	-0.12619236
127	0xbe06d86a	-0.13168493
128	0xbe2c768f	-0.16842102
129	0x3e68fc29	0.22752441
130	0x3eff1dbf	0.49827382
131	0xbd109970	-0.03530258
132	0xbc2862a7	-0.010277427
133	0x3e253ded	0.16136904
134	0x3ec10ded	0.37705937
135	0x3d201d08	0.039090186
136	0x3dd3d66a	0.103436306
137	0xbd8100ff	-0.06299018
138	0x3d549abf	0.05190539
139	0xbc161a85	-0.009161596
140	0xbc42399c	-0.011854555
141	0x3e930f04	0.28722394
142	0x3de51a77	0.111866884
143	0x3d418c2a	0.04725281
144	0xbd0b24cd	-0.033970643
145	0x3b0ed117	0.0021792108
146	0x3ea88a69	0.329181
147	0xbdae497c	-0.0851011
148	0x3d053ed5	0.032530624
149	0x3e1327de	0.14370677
150	0xbc1f3642	-0.009717526
151	0x3d505188	0.050859004
152	0xbd6c81e4	-0.05774106
153	0x3e25f1e5	0.16205557
154	0x3e581b2d	0.21104117
155	0xbef84fc3	-0.48498353
156	0xbe99cd67	-0.30039522
157	0xbeab529f	-0.33461472
158	0xbd3c4e00	-0.045972824
159	0xbd8326b2	-0.06403865
160	0x3e61c940	0.22049427
161	0x3e23887d	0.15970035
162	0xbe488965	-0.19583662
163	0xbde2b91e	-0.110704646
164	0x3ea00a8e	0.31258053
165	0x3e195045	0.14972027
166	0x3ed9e1a3	0.4255496
167	0x3d59638d	0.053073455
168	0x3d85246b	0.06501087
169	0x3db7bdc5	0.089717425
170	0x3e226a74	0.15860921
171	0x3eb4a54e	0.35282367
172	0x3dc7abca	0.09749563
173	0xbd411f6c	-0.047149107
174	0xbe821e7f	-0.25413892
175	0xbdc970bc	-0.098359555
176	0xbe447668	-0.19185793
177	0x3ec09bd6	0.37618893
178	0x3f058f04	0.5217135
179	0x3e94ee45	0.29088035
180	0xbe80817d	-0.25098792
181	0xbde3883a	-0.111099675
182	0x3af0b32a	0.0018363942
183	0xbe3b6e6f	-0.18303846
184	0x3d209361	0.03920305
185	0xbd299891	-0.041405264
186	0x3e8601c1	0.26173213
187	0xbd323497	-0.043507185
188	0xbe3c790b	-0.18405549
189	0x3f015ad4	0.5052922
190	0x3cc7459b	0.024325183
191	0xbe1dd300	-0.15412521
192	0xbdddfb68	-0.108389676
193	0x3d29f8c4	0.041497007
194	0xbe9f58b3	-0.3112236
195	0xbea2ba4e	-0.31782764
196	0x3d806e3e	0.06271027
197	0xbe82396e	-0.2543444
198	0xbe018836	-0.12649617
199	0xbe1598de	-0.14609095
200	0xbe374cd5	-0.17900403
201	0x3e5e5916	0.21713671
202	0x3dd653bf	0.10465192
203	0x3e5d7cae	0.21629593
204	0xbdc77076	-0.09738247
205	0xbd9b5478	-0.075844705
206	0x3ea79039	0.3272722
207	0x3dab42fb	0.08362385
208	0x3d80a867	0.0628212
209	0xbda867ee	-0.08222948
210	0x3d5cd3d2	0.053912945
211	0xbe7cc984	-0.24686247
212	0xbec321d0	-0.38111734
213	0xbe058edf	-0.13042782
214	0xbd89177e	-0.06693934
215	0x3e9f35d4	0.31095755
216	0x3dacab09	0.0843106
217	0xbd02a83f	-0.031898733
218	0xbc81b486	-0.01583315
219	0x3dec8435	0.11548654
220	0x3ee5de53	0.44896182
221	0xbe31b6d8	-0.17354906
222	0x3e061832	0.13095167
223	0xbdcad80c	-0.09904489
224	0xbe9436c6	-0.2894804
225	0xbe752eaa	-0.23943582
226	0x3df74f30	0.12075651
227	0xbe8b1b7e	-0.27169412
228	0xbc9311d2	-0.017952833
229	0xbee119e9	-0.4396508
230	0xbf068c6c	-0.52558017
231	0x3dce49ea	0.10072692
232	0xbd873f66	-0.06603889
233	0xbdd4040a	-0.10352333
234	0x3d8deadb	0.06929561
235	0x3de964c7	0.11396175
236	0x3e14b135	0.14520724
237	0x3c68f92c	0.014219563
238	0xbe049370	-0.12946868
239	0x3dec1013	0.115265034
240	0x3ec99143	0.39368638
241	0x3d91dff4	0.07122794
242	0x3e31784f	0.1733105
243	0xbe09ea09	-0.13468184
244	0x3db5b3a4	0.08872154
245	0xbe08a591	-0.13344409
246	0xbeb0364f	-0.34416434
247	0xbed11762	-0.40838152
248	0x3e953d6a	0.29148418
249	0xbe96abd4	-0.2942797
250	0x3e567d6c	0.20946282
251	0xbe792beb	-0.2433316
252	0xbd521794	-0.051292017
253	0xbefb1eac	-0.49046838
254	0xbdc2345c	-0.09482643
255	0x3e80bf0c	0.25145757

network_body._body_endoder.seq_layers.0.bias f4 [128]
0	0xbdbb3904	-0.09141734
1	0x3d8d4f6a	0.06899913
2	0xbd790161	-0.06079233
3	0xbd8312b4	-0.06400052
4	0xbc7c56ce	-0.015401555
5	0xbdc1949e	-0.094521746
6	0xbda13eec	-0.078733295
7	0x3cc3a438	0.023882017
8	0xbd0f2f41	-0.034957174
9	0xbd12d106	-0.03584387
10	0xbd73e2bd	-0.059542406
11	0xbe0541e9	-0.13013424
12	0xbde6b43e	-0.11264847
13	0xbd6ae20a	-0.057344474
14	0xbe2f148a	-0.17097679
15	0xbe17ec78	-0.148363
16	0xbd8ff55b	-0.0702922
17	0xbc7d39f6	-0.0154557135
18	0xbde22eba	-0.11044069
19	0xbe55848b	-0.20851342
20	0xbdda0f53	-0.10647454
21	0xbd8de68a	-0.069287375
22	0xbe193e05	-0.14965065
23	0x3cc4f7c6	0.024043929
24	0xbda14c4c	-0.078758806
25	0xbdd2b74d	-0.10288868
26	0xbcec254a	-0.028826375
27	0x3bbb97ce	0.0057248836
28	0xbdc1d8bf	-0.09465169
29	0xbe1f0778	-0.15530193
30	0xbd86a6b3	-0.06574764
31	0xbce350ef	-0.027748553
32	0xbdb54a7b	-0.08852097
33	0xbcf121d9	-0.029435085
34	0x3b797f42	0.0038070236
35	0xbd504f5f	-0.050856944
36	0xbdc38e5b	-0.095486365
37	0xbdf8418b	-0.12121876
38	0xbd9de511	-0.077097066
39	0xbd81e7ba	-0.063430265
40	0xbd6886e0	-0.05676925
41	0xbcfe6b03	-0.031056887
42	0x3c95af01	0.018271925
43	0xbd6041b2	-0.054750152
44	0xbc8e1497	-0.017343802
45	0xbd8b181f	-0.0679171
46	0x3b8dfa09	0.004332785
47	0xbd450110	-0.048096716
48	0xbd9561f6	-0.07294075
49	0xbe1acc6f	-0.15117048
50	0xbc895da4	-0.016768284
51	0xbb3ea627	-0.0029090734
52	0xbc973cf1	-0.018461676
53	0xbcf57534	-0.029963113
54	0x3caa6502	0.020800117
55	0xbb8f0859	-0.004365009
56	0xbe2739e2	-0.16330674
57	0x3d47814e	0.0487073
58	0xbc7e214f	-0.015510871
59	0xbbf45044	-0.0074558575
60	0x3c1981ab	0.009369294
61	0xbd99550f	-0.07486927
62	0xbda71b1c	-0.081594676
63	0xba8e49c5	-0.0010855725
64	0xbcaec4f6	-0.021334153
65	0xbe19c2fe	-0.1501579
66	0xbd7ed31f	-0.06221306
67	0xbd1e3bc9	-0.038631234
68	0xbe15abc2	-0.14616302
69	0xbce4b8fb	-0.027920237
70	0xbd61a9cd	-0.055093575
71	0xbcb2918e	-0.021797922
72	0xbdafa82d	-0.08576999
73	0xbd594e8c	-0.053053424
74	0xbd91a6b6	-0.07111876
75	0xbd448d1a	-0.047986127
76	0xbda96e5c	-0.082730025
77	0xbd21ee0a	-0.039533652
78	0xbc3f1ae2	-0.011664124
79	0xbd0cb927	-0.034356263
80	0xbdb70b50	-0.089377046
81	0xbd7f72ed	-0.06236546
82	0xbdbdd9f5	-0.09270088
83	0x3c2c2994	0.01050796
84	0xbd97b67b	-0.07407852
85	0xbda54baa	-0.080710724
86	0xbe08daec	-0.13364762
87	0xbe04fa8a	-0.12986198
88	0xbcd545a5	-0.026034186
89	0x38728085	5.781699e-05
90	0xbd275b81	-0.04085875
91	0xbdc7c369	-0.097540684
92	0xbd3d8cf4	-0.046277
93	0xbd67caed	-0.05659001
94	0xbdb08830	-0.08619726
95	0xbd95f5ff	-0.07322311
96	0xbda2d754	-0.07951227
97	0xbdb79681	-0.08964253
98	0xbdc0f88f	-0.09422409
99	0xbdad8b97	-0.0847389
100	0xbde04bc9	-0.10951955
101	0xbda45791	-0.080245145
102	0xbd116b03	-0.035502445
103	0x3db8809d	0.09008906
104	0xbc3524e8	-0.011056162
105	0xbd1dfc2c	-0.038570568
106	0xbd3e7051	-0.046493832
107	0x3caff49f	0.02147895
108	0xbc338db5	-0.010959079
109	0xbe0457a4	-0.12924057
110	0xbe7b73d4	-0.24555904
111	0x3c05e4b6	0.008172205
112	0xbcf23104	-0.029564388
113	0xbd7ba03e	-0.061432116
114	0xbd0e84b9	-0.034794543
115	0xbdb6c7fc	-0.08924863
116	0xbd9590b0	-0.073029876
117	0x3bb5661b	0.0055358536
118	0xbbbd4431	-0.0057759513
119	0xbbdd6d6d	-0.0067574293
120	0xbe24f7a6	-0.16110095
121	0xbdbc54fd	-0.09195898
122	0xbbc8a086	-0.0061226515
123	0xbdd6970a	-0.10478027
124	0xbd95d577	-0.07316106
125	0xbd7779ae	-0.060418777
126	0xbdf8616e	-0.12127958
127	0xbd8a6051	-0.06756652

network_body._body_endoder.seq_layers.2.weight f4 [128, 128]
0	0x3dadaf91	0.08480752
1	0x3bb41507	0.0054956707
2	0x3d9b30a0	0.07577634
3	0xbe3648b7	-0.17801176
4	0x3c52492b	0.012834827
5	0xbe311efc	-0.17296976
6	0x3d9e397b	0.07725807
7	0xbe2fbdcc	-0.17162246
8	0x3c7f0cd2	0.015567021
9	0xbcf05404	-0.029336937
10	0x3d1873ac	0.03721969
11	0xbc34cb87	-0.011034853
12	0x3d2534da	0.040333606
13	0x3d2864b5	0.041111667
14	0xbe2aaaac	-0.16666669
15	0xbdf30d45	-0.11867765
16	0xbe328222	-0.17432454
17	0xbddacf6b	-0.10684093
18	0x3da8696a	0.08223231
19	0xbdb83949	-0.08995301
20	0xbd28ec89	-0.041241203
21	0x3df558a6	0.11979799
22	0xbe167d76	-0.14696297
23	0xbdc0d028	-0.09414703
24	0xbe0aaa77	-0.1354159
25	0x3d073bbd	0.033015955
26	0xbdbac297	-0.09119146
27	0x3d2a191a	0.041527845
28	0xbce5b293	-0.028039252
29	0xbdb27aaa	-0.087148026
30	0xbca00444	-0.019533284
31	0xbd73cb59	-0.0595201
32	0xbd6c1029	-0.0576326
33	0x3cc74738	0.024325952
34	0xbd986af4	-0.07442275
35	0xbca5359e	-0.020167168
36	0x3be191c0	0.00688383
37	0xbdae8371	-0.08521164
38	0x3db65933	0.08903732
39	0xbbf1e284	-0.007381739
40	0xba96c5ca	-0.0011503038
41	0xbe4fbb4b	-0.2028629
42	0xbdb1a9af	-0.08674943
43	0xbd5c1928	-0.05373493
44	0x3b1b854a	0.002373057
45	0x3d7a8904	0.061165825
46	0x3c20728b	0.009792934
47	0xbdcee309	-0.10101897
48	0xbdd125f4	-0.10212317
49	0x3e125cbf	0.14293192
50	0x3dde7181	0.10861493
51	0xbdc18a2d	-0.09450183
52	0x3d84f756	0.06492488
53	0xbe07d793	-0.13265829
54	0xbd916cf7	-0.071008615
55	0xbdb19204	-0.086704284
56	0x3d5832e7	0.05278292
57	0xbd1e081d	-0.038581956
58	0x3dcda591	0.10041345
59	0xbe54a230	-0.20764995
60	0xbda17d84	-0.07885268
61	0xbdc24a92	-0.094868794
62	0x3811cd7d	3.476207e-05
63	0xbd9ed3f4	-0.077552706
64	0xbd442a58	-0.047891945
65	0x3cf5b07e	0.029991385
66	0xbd14387d	-0.036186684
67	0x3d4ee99a	0.05051575
68	0xbd10f483	-0.035389435
69	0x3e0a1026	0.13482723
70	0x3daf4792	0.08558573
71	0xbba35161	-0.0049840664
72	0xbc768cf0	-0.015048251
73	0xbd134c44	-0.035961404
74	0xbc784e3a	-0.015155369
75	0xbe083a28	-0.13303435
76	0x3cf7a0a0	0.03022796
77	0xbd969084	-0.07351783
78	0xbd70334d	-0.058642674
79	0x3df65c29	0.12029297
80	0x3ced23ef	0.028947799
81	0x3d814903	0.06312754
82	0x3d5af0d4	0.053452328
83	0xbdf6f674	-0.12058726
84	0xbd931483	-0.07181647
85	0xbb80fc61	-0.003936336
86	0xbdaabdb6	-0.08336966
87	0xbbe33df5	-0.006934876
88	0xbe232670	-0.15932631
89	0xbd087afa	-0.033320405
90	0xbd0e5075	-0.0347447
91	0xbdbc2abf	-0.09187841
92	0x3dfe1cbb	0.12407824
93	0x3e1606a9	0.14650978
94	0xbda9fb1c	-0.082998484
95	0xbdacc217	-0.08435457
96	0xbde5257f	-0.111887924
97	0xbd58b9ab	-0.05291144
98	0x3d4d005a	0.050049163
99	0xbb6eda61	-0.0036446082
100	0x3d17125f	0.036882754
101	0xbe0a7c6f	-0.1352403
102	0x3d31481a	0.043281652
103	0xbd83d6d2	-0.06437458
104	0x3d4ac0c0	0.049500227
105	0xbb838d4e	-0.0040146476
106	0xbd58d85d	-0.052940715
107	0xbcba607b	-0.022751084
108	0x3d92593d	0.07145927
109	0xbdd34511	-0.10315908
110	0xbd374879	-0.04474685
111	0xbb9eaaf4	-0.0048421565
112	0xbd09406e	-0.03350871
113	0xbc805f3b	-0.01567041
114	0xbd2832e0	-0.041064143
115	0xbd050405	-0.032474536
116	0xbc35bc18	-0.011092208
117	0xbd3c5cc4	-0.045986906
118	0xbd035d14	-0.032071188
119	0xbe2e8ff1	-0.17047097
120	0x3e0cdd07	0.1375619
121	0x3d1f5561	0.038899783
122	0x3d70ae48	0.058759958
123	0x3dca12e9	0.09866888
124	0x3d5bd7c6	0.053672574
125	0xbdb149cb	-0.08656653
126	0xbd6a9899	-0.057274435
127	0xbd7265d4	-0.059179142
128	0xbdcba347	-0.09943252
129	0x3c1a1ed5	0.009406765
130	0xbe468128	-0.19385207
131	0xbdc3c691	-0.09559358
132	0xbe064dab	-0.13115565
133	0x3d98d835	0.07463113
134	0xbe27daff	-0.16392134
135	0xbcaece79	-0.021338688
136	0xbd16fcbc	-0.03686212
137	0xbde24317	-0.110479526
138	0xbcf57df9	-0.029967295
139	0xbcb09ad0	-0.021558195
140	0x3e99eebf	0.3006496
141	0xbd86e5ee	-0.06586824
142	0xbdd24041	-0.10266162
143	0x3ab35a20	0.0013683476
144	0xbdcddd92	-0.10052027
145	0x3dc1c4c0	0.09461355
146	0xbe465fe2	-0.19372514
147	0xbd452949	-0.048135076
148	0xbd0577d6	-0.032584988
149	0xbe7b9bb9	-0.24571122
150	0xbc8c93db	-0.017160347
151	0xbd9e4cd0	-0.077294946
152	0x3d163015	0.03666695
153	0x3d6703ee	0.056400232
154	0xbcaf285f	-0.021381555
155	0x3d9e80cc	0.0773941
156	0xbce7ca69	-0.028294759
157	0xbe330d2e	-0.17485496
158	0xbbb6d4b2	-0.0055795545
159	0xbe453621	-0.1925893
160	0xbe44cafc	-0.19218057
161	0xbc9ce674	-0.019152857
162	0x3d74fe79	0.059812997
163	0x3cc65210	0.024209052
164	0xbe528b6d	-0.20560999
165	0xbdefe0ba	-0.11712785
166	0xbe3759f4	-0.17905408
167	0x3c845f87	0.016158832
168	0x3e54c8bf	0.20779704
169	0xbe8fa1a6	-0.28053015
170	0xbd5e131e	-0.05421745
171	0xbcbf867e	-0.02337956
172	0xbe0364b3	-0.12831382
173	0xbd78508c	-0.06062369
174	0x3c8d7d9d	0.017271811
175	0x3ceffebf	0.029296277
176	0xbd4180d8	-0.047242016
177	0x3dde4625	0.10853223
178	0xbd92514b	-0.07144412
179	0xbe828e04	-0.25498974
180	0xbd86b50f	-0.06577503
181	0xbd887a13	-0.06663909
182	0xbd106142	-0.035249002
183	0xbd427517	-0.047474947
184	0xbb761f86	-0.003755541
185	0xbe0ce4fe	-0.13759229
186	0x3e3d5f65	0.18493421
187	0xbe1a19f6	-0.15048966
188	0x3cc58751	0.024112375
189	0xbd1778e6	-0.036980532
190	0xbd52d5c4	-0.051473394
191	0x3d9a2997	0.07527464
192	0x3e1896e1	0.14901306
193	0xbda1bed6	-0.07897727
194	0xbd55493b	-0.05207179
195	0xbda90b11	-0.08254064
196	0x3db49e10	0.088192105
197	0x3dc41d97	0.09575956
198	0x3ce173cf	0.027521042
199	0xbe1599e5	-0.14609487
200	0xbd93d595	-0.07218472
201	0xbdd787d4	-0.10523954
202	0xbe050afb	-0.1299247
203	0xbcb36b4e	-0.021901753
204	0x3e2ee9ce	0.17081377
205	0xbd5ad090	-0.053421557
206	0x3d4963c2	0.049167402
207	0xbe3df299	-0.18549575
208	0xbe1905c1	-0.14943601
209	0x3cd539ed	0.026028598
210	0x3dfb407f	0.12268161
211	0x3ca9e2d0	0.020738035
212	0x3d508569	0.05090848
213	0x3defa51f	0.11701416
214	0xbdf6b669	-0.12046511
215	0xbe2b8278	-0.16748989
216	0xbe6a43dd	-0.2287745
217	0xbdb5e4a0	-0.088814974
218	0xbccb84bf	-0.024843572
219	0xbcb50797	-0.022098346
220	0xbd991666	-0.07474975
221	0x3d8db2a4	0.069188386
222	0xbe0e0715	-0.13869889
223	0xbe19aae7	-0.150066
224	0x3e495bfd	0.19663997
225	0xbe070c0e	-0.13188192
226	0x3d1c96b4	0.03822966
227	0xbdc9f09d	-0.098603465
228	0xbd713960	-0.058892608
229	0xbd2770fd	-0.04087924
230	0xba857024	-0.0010180515
231	0x3b963620	0.004584089
232	0xbda5f437	-0.08103221
233	0xbda77afd	-0.08177755
234	0xbda0558e	-0.07828818
235	0xba5ecce9	-0.0008499162
236	0xbd565b16	-0.05233296
237	0xbebb01e8	-0.36524892
238	0xbd186f41	-0.037215475
239	0xbced3a1d	-0.028958375
240	0xbd0378e0	-0.032097697
241	0xbe205bb8	-0.15659988
242	0xbe0cb49e	-0.13740775
243	0xbdd9c539	-0.1063332
244	0x39b65175	0.00034774435
245	0xbda32865	-0.07966689
246	0x3d69835b	0.057010036
247	0xbd3e5787	-0.04647019
248	0x3d4ec6bd	0.0504825
249	0xbc402107	-0.011726624
250	0xb82adc19	-4.073614e-05
251	0xbad89197	-0.0016522881
252	0xbc548c57	-0.012972913
253	0xbd0a36c5	-0.03374364
254	0x3d787898	0.060661882
255	0x3d441d49	0.04787949

network_body._body_endoder.seq_layers.2.bias f4 [128]
0	0xbcd67f0e	-0.026183631
1	0x3cb4015c	0.021973304
2	0xbcc134bc	-0.023584716
3	0xbd1d8efa	-0.03846643
4	0xbdff1d60	-0.12456775
5	0xbd85acae	-0.06527077
6	0xbcf6f083	-0.030143982
7	0x3d0358df	0.032067176
8	0xbc5cc7fc	-0.013475414
9	0xbd2915be	-0.0412805
10	0xbd264318	-0.04059133
11	0xbcf33d06	-0.029692184
12	0x3c54d217	0.012989542
13	0xbe8673f7	-0.2626035
14	0xbd2b60a4	-0.04184021
15	0xbd324a21	-0.043527726
16	0xbd7e4bd9	-0.062084053
17	0xbd7833e5	-0.060596365
18	0x3c09b9a7	0.008406079
19	0xbd933002	-0.07186891
20	0xbd768053	-0.060180973
21	0xbd9a9977	-0.07548802
22	0xbc3ff062	-0.011715027
23	0xbce35783	-0.02775169
24	0xbcaa2ebb	-0.020774236
25	0x38915a1b	6.930922e-05
26	0xbc7048e9	-0.014665821
27	0xbd1813bf	-0.037128206
28	0xbd168dbd	-0.036756266
29	0xbc58fee8	-0.013244368
30	0xbd946a5a	-0.072468475
31	0xbbd1cf44	-0.006402882
32	0x3cad37ce	0.021144774
33	0xbc26afcb	-0.010173748
34	0xbd2384ad	-0.03992145
35	0xbd503e96	-0.050840937
36	0xbd467a29	-0.048456345
37	0xbbdc4dd8	-0.006723147
38	0xbda86c64	-0.08223799
39	0xbca10ee4	-0.01966042
40	0xbc6fca60	-0.014635652
41	0xbd841b3f	-0.06450509
42	0xbdc964b5	-0.098336615
43	0xbcd67949	-0.02618088
44	0xbc5ff88f	-0.013670101
45	0xbce82c29	-0.02834137
46	0xbc9c22c9	-0.019059556
47	0xbc2ad8a6	-0.01042763
48	0xbdcedc28	-0.10100585
49	0xbd6d16ec	-0.057883188
50	0x3d5df32a	0.054186977
51	0x3d372d6f	0.044721063
52	0xbd9c2bd0	-0.07625544
53	0xbdcfb4ef	-0.10141932
54	0xbd586295	-0.05282839
55	0xbd67b23a	-0.056566454
56	0xbce02c17	-0.027364774
57	0xbd43e7d5	-0.047828514
58	0xbda60cd8	-0.081079185
59	0xbe4c4095	-0.19946511
60	0xbda7911c	-0.08181974
61	0x3c412fee	0.0117912125
62	0xbd312851	-0.04325134
63	0x3d0870a3	0.033310544
64	0xbcda88e3	-0.0266766
65	0xbbcfa4a2	-0.0063367644
66	0xbd32ad70	-0.043622434
67	0xbd1ad573	-0.037801217
68	0xbcdde4c5	-0.027086625
69	0xbd904fbf	-0.0704646
70	0xbd407373	-0.0469851
71	0xbc734671	-0.0148483375
72	0xbd9ab902	-0.07554819
73	0xbd792a1e	-0.06083118
74	0xbcfd0cd5	-0.030889908
75	0xbd566e6a	-0.052351393
76	0x3d216290	0.039400637
77	0xbd4442c9	-0.047915254
78	0xbe1f4d89	-0.15556921
79	0xbc848052	-0.01617447
80	0x3cf5ff24	0.030028887
81	0xbcb9f501	-0.022699835
82	0xba854395	-0.0010167236
83	0xbb639ef8	-0.0034732204
84	0xbc39d340	-0.01134187
85	0x3d00bc35	0.03142949
86	0xbd043d91	-0.032285277
87	0xbd537bbb	-0.05163167
88	0xbd7a910a	-0.061173476
89	0xbb911f4e	-0.0044287806
90	0x3c010134	0.007873822
91	0x3bb87a35	0.0056298026
92	0xbdd48f83	-0.10378935
93	0xbd60decf	-0.054899987
94	0xbc3c867a	-0.011506671
95	0xbdedcf18	-0.116117656
96	0xbc35905c	-0.011081781
97	0xbdbe7d95	-0.093012966
98	0xbe588756	-0.21145377
99	0xbcb87a95	-0.02251939
100	0xbda37b00	-0.07982445
101	0xbce0b555	-0.027430216
102	0xbdb0c32c	-0.08630976
103	0xbdcb29d6	-0.09920089
104	0xbcd01df2	-0.025404904
105	0xbe0977be	-0.13424584
106	0xbd1d8627	-0.038458016
107	0x3e0c0a8b	0.13675897
108	0xbd4436cc	-0.04790382
109	0xbd695ee7	-0.05697527
110	0xbd561677	-0.052267518
111	0xbcbbeac5	-0.022939095
112	0xbd4633c6	-0.04838922
113	0xbcab6356	-0.02092139
114	0xbd60dec0	-0.05489993
115	0xbcead30e	-0.028665092
116	0xbd8b9a0f	-0.06816494
117	0x3cdf5c17	0.027265592
118	0xbd4e4822	-0.05036176
119	0xbd90da01	-0.07072831
120	0xbc184caf	-0.009295627
121	0xbd4dd37c	-0.050250515
122	0x39041e33	0.00012599751
123	0xbe14fb15	-0.14548905
124	0xbd6aa74c	-0.057288453
125	0x3c202218	0.009773754
126	0xbc12049c	-0.008912232
127	0xbdd7ff8e	-0.1054679

action_model._continuous_distribution.log_sigma f4 [1, 2]
0	0xbf808f20	-1.0043678
1	0xbf07c1d7	-0.5303015

action_model._continuous_distribution.mu.weight f4 [2, 128]
0	0x3cc372dc	0.02385848
1	0xbc84243a	-0.016130555
2	0xbb07de28	-0.002073178
3	0x3c11a236	0.008888772
4	0x3d2e22fc	0.042513832
5	0x3d1de3f2	0.038547464
6	0xbc1e6c2e	-0.009669347
7	0x3c4e72f4	0.012600649
8	0x3c2c664e	0.010522438
9	0x3c7d1529	0.0154469395
10	0x3b5ecd97	0.0033997053
11	0x3cf88e7d	0.030341381
12	0xbd05303d	-0.032516707
13	0x3c8248c3	0.015903836
14	0x3cbc94ab	0.02302011
15	0xbce56586	-0.028002512
16	0x3d1696e7	0.036765005
17	0x3cab9a10	0.020947486
18	0xbc146540	-0.009057343
19	0x3bff242d	0.007786295
20	0xbc5af70a	-0.013364563
21	0xbbc5ac31	-0.0060324897
22	0xbc0f15f2	-0.0087332595
23	0xba9e1f0e	-0.0012063698
24	0x3d0f46b4	0.034979537
25	0xbd58c131	-0.052918617
26	0x3cf066ed	0.029345954
27	0xbcd44e63	-0.025916284
28	0x3c173024	0.009227786
29	0x3d060142	0.032716043
30	0xbcd2b3ad	-0.025720442
31	0x3c8b7b57	0.017026586
32	0xbc3957c9	-0.0113124335
33	0xbcf32a94	-0.029683389
34	0xbb42adea	-0.0029705712
35	0xbbe1fec5	-0.006896826
36	0xbcbf4935	-0.023350338
37	0xbce13b6c	-0.027494155
38	0xbc3540f4	-0.011062849
39	0x3c8aa3f6	0.016923886
40	0xbcc0ecb8	-0.023550376
41	0x3bd3229d	0.006443335
42	0x3b0a5720	0.002110906
43	0x3bba3ea0	0.005683735
44	0x3c7aa6e4	0.015298579
45	0xbc2fa626	-0.010720765
46	0xbcc6395c	-0.024197273
47	0x3c16ac33	0.009196329
48	0x3c291765	0.010320519
49	0x3c739ceb	0.014868955
50	0xbcb597c4	-0.022167094
51	0x3cf56004	0.02995301
52	0xbba2fbd4	-0.004973868
53	0x3b57100a	0.0032815957
54	0x3ce1b2ab	0.027551016
55	0x3d2d3682	0.04228831
56	0x3cd3f96d	0.025875771
57	0xbc8b614f	-0.017014174
58	0xbc86bae7	-0.016446544
59	0x3c98586b	0.018596848
60	0xba1a8d53	-0.0005895693
61	0xbc493ca2	-0.012282522
62	0xbbb61353	-0.005556503
63	0x3d92878c	0.0715476
64	0x3cf35986	0.029705774
65	0xbb8e6aa0	-0.004346207
66	0x3bfe5d01	0.007762552
67	0xbb8dd9dc	-0.0043289494
68	0x3cb3ec4f	0.021963267
69	0x3cf1dc72	0.029524062
70	0x3ca6a473	0.020342087
71	0xbb527e98	-0.0032118913
72	0x3d37f1e5	0.044908423
73	0x3cf06888	0.02934672
74	0x3d54712e	0.05186575
75	0xbd70891a	-0.0587245
76	0x3af469f2	0.0018647297
77	0xbb813a62	-0.0039437274
78	0x3cab67c7	0.020923508
79	0x3a90279d	0.0010998134
80	0x3c4f049b	0.012635375
81	0xbc548589	-0.01297129
82	0xbc12e00f	-0.008964553
83	0x3b36033c	0.0027772924
84	0xbd064664	-0.032781973
85	0x3ce4dbea	0.027936894
86	0x3ba5ac7a	0.005055961
87	0x3d226468	0.039646536
88	0xbbfd8084	-0.0077362675
89	0x3c69cbd2	0.014269786
90	0xbcd69505	-0.026194105
91	0x3bcc2f2a	0.0062312083
92	0x3cdb7cd3	0.02679292
93	0x3c650ae5	0.013979648
94	0x3d2a5517	0.041585054
95	0x3d1a1eec	0.037627146
96	0x3ce1206a	0.027481277
97	0x3b21d32e	0.0024692523
98	0x3cbc011f	0.022949753
99	0x3bcf621d	0.0063288347
100	0xbbcfde50	-0.0063436404
101	0xbc1398b1	-0.009008572
102	0x3c201806	0.009771353
103	0xbb944996	-0.0045253737
104	0x3cc8f11b	0.02452903
105	0x3d097a85	0.03356411
106	0x3ac3e914	0.0014946782
107	0x3bd87c1c	0.006606592
108	0x3b0580bf	0.0020370928
109	0xbc08a65a	-0.008340443
110	0x3ba37d40	0.004989296
111	0xbb3a71db	-0.002844921
112	0xbd7a8a6d	-0.06116717
113	0xbaa5b978	-0.0012643775
114	0x3c8910bd	0.016731614
115	0xbbd412fd	-0.00647199
116	0xbbba3f87	-0.0056838426
117	0xbb3f079d	-0.0029148825
118	0xbba3277e	-0.004979073
119	0xbc372c92	-0.01118006
120	0x3d00c582	0.031438358
121	0xbbd891a9	-0.006609161
122	0xbb94db95	-0.004542778
123	0x3c9abcc5	0.01888884
124	0x3b51fd02	0.0032041674
125	0x3d1f8853	0.03894837
126	0xbb9f1f52	-0.0048560286
127	0x3c7418a5	0.014898454
128	0xbde7c048	-0.113159716
129	0x3b12d29b	0.0022403363
130	0xbb63c6a9	-0.0034755862
131	0xbbc41b09	-0.005984668
132	0xbd62364a	-0.055227555
133	0xbd5035a1	-0.050832395
134	0xbdd5eb8b	-0.10445317
135	0x3cb368c8	0.02190055
136	0xbde40459	-0.11133642
137	0xbdb5d2ee	-0.08878122
138	0xbd5462ba	-0.051851965
139	0xbdff079f	-0.124526255
140	0xbd248830	-0.04016894
141	0x3c8752cf	0.016518978
142	0xbd2f82c8	-0.042849332
143	0xbd41b850	-0.047294915
144	0xbda954a5	-0.08268098
145	0xbdb24087	-0.08703714
146	0xbdbe363f	-0.0928769
147	0xbdffc8b3	-0.12489452
148	0xbda386ae	-0.079846725
149	0xbdb980eb	-0.09057792
150	0x3bf8aa74	0.007588679
151	0xbe0fb164	-0.14032513
152	0xbddd3ca3	-0.10802581
153	0xbd9d2317	-0.076727085
154	0xbcb6fac5	-0.022336373
155	0xbd46f271	-0.048571054
156	0xbdf38440	-0.11890459
157	0xbd8bb9ee	-0.06822573
158	0xbd32daf7	-0.043665852
159	0xbdba9e11	-0.0911218
160	0xbe04a7ec	-0.12954682
161	0xbe20851b	-0.15675776
162	0xbdcd337e	-0.10019587
163	0xbdba7e3a	-0.09106107
164	0xbdbb138d	-0.091345884
165	0xbccf73e7	-0.025323821
166	0xbd37867f	-0.044806
167	0xbddd75c6	-0.10813479
168	0xbc5eb9c6	-0.0135940965
169	0xbc00d0b0	-0.007862255
170	0xbd06d318	-0.03291616
171	0xbe01688d	-0.12637539
172	0xbdc4c9df	-0.09608816
173	0xbdab3336	-0.08359377
174	0xbdf37176	-0.11886875
175	0xbd3af53c	-0.04564403
176	0xbd24a952	-0.04020054
177	0xbde911af	-0.11380326
178	0x3d26d756	0.040732704
179	0x3d9fa0f7	0.077943735
180	0xbdb3fd17	-0.087885074
181	0xbddf00e3	-0.10888841
182	0xbd0c3209	-0.034227405
183	0xbd524d12	-0.05134303
184	0xbdd4a6da	-0.10383387
185	0xbd57706f	-0.05259746
186	0xbd4534b0	-0.04814595
187	0x3c82dc7f	0.015974281
188	0x3a3f5c0c	0.0007299788
189	0xbe0759e1	-0.1321788
190	0xbdf8d10a	-0.12149246
191	0xbd7f4e93	-0.062330794
192	0xbdf9ec36	-0.12203257
193	0xbdaca394	-0.084296376
194	0xbd211f3a	-0.03933642
195	0xbdc2b981	-0.09508038
196	0xbdbea533	-0.09308853
197	0xbd8eee64	-0.06979063
198	0xbde5c2f7	-0.11218827
199	0xbde12190	-0.1099273
200	0xbdb7d916	-0.08976953
201	0xbd9079a0	-0.07054448
202	0xbd97e0ca	-0.07415922
203	0xbcfa839a	-0.03058033
204	0x3cd887f4	0.026432015
205	0xbdb3cb7c	-0.08779046
206	0xbd3ed57f	-0.046590324
207	0xbd9e926f	-0.07742774
208	0xbe10c494	-0.14137489
209	0xbd89f3a8	-0.06735927
210	0xbe02b7e6	-0.12765464
211	0xbde56e3b	-0.112026654
212	0xbe028179	-0.12744702
213	0x3c8b48db	0.017002514
214	0x3b890369	0.0041813147
215	0xbde28d26	-0.11062078
216	0xbde35e12	-0.11101927
217	0xbdcb7204	-0.09933856
218	0xbd2943d4	-0.04132445
219	0xbd061157	-0.03273138
220	0xbd0c2e0a	-0.034223594
221	0xbd8a294f	-0.0674616
222	0xbde62f97	-0.11239546
223	0xbcdb14e3	-0.026743358
224	0xbe056ed7	-0.13030563
225	0xbd6621a5	-0.05618443
226	0x3bf27210	0.007398851
227	0xbcd380bc	-0.025818221
228	0xbd7197d2	-0.058982678
229	0xbe15c866	-0.14627227
230	0xbd497770	-0.04918617
231	0xbd02d841	-0.031944517
232	0xbc1c87c6	-0.009553855
233	0xbc87c0fd	-0.016571516
234	0xbd9d56d5	-0.076825775
235	0x3db88e2a	0.09011491
236	0x3b0cfe19	0.0021513759
237	0xbdbe7d34	-0.09301224
238	0xbd8570cc	-0.06515655
239	0xbd803f1c	-0.06262037
240	0xbcd57335	-0.026055912
241	0xbe0b9f2f	-0.13634942
242	0xbda6d3fb	-0.08145901
243	0xbd31244f	-0.043247517
244	0xbd38dfa2	-0.045135148
245	0xbe19abf2	-0.15006998
246	0xbde14e6a	-0.110012844
247	0xbd9771ce	-0.073947534
248	0xbdb12efe	-0.08651541
249	0xbdd98e1a	-0.10622807
250	0xbd036f37	-0.032088485
251	0x3a6f9f26	0.00091408414
252	0xbdef90af	-0.11697518
253	0xbd72e31e	-0.059298627
254	0xbd61a32e	-0.05508726
255	0xbdba1e88	-0.090878546

action_model._continuous_distribution.mu.bias f4 [2]
0	0xbcf7956c	-0.030222617
1	0x3e48752a	0.19575945

exp_avg f4 [128, 22]
0	0x00000004	6e-45
1	0x36c7bfd5	5.9529943e-06
2	0x00000004	6e-45
3	0x3702ad4c	7.788953e-06
4	0x80000004	-6e-45
5	0x36b2ee0e	5.3325266e-06
6	0x00000004	6e-45
7	0x376daf8a	1.4167172e-05
8	0x00000004	6e-45
9	0x36ad4fd8	5.165097e-06
10	0x00000004	6e-45
11	0xb7f74092	-2.9474762e-05
12	0x00000004	6e-45
13	0xb7823281	-1.5520725e-05
14	0x38da39d2	0.0001040582
15	0x3340ca63	4.4887553e-08
16	0x3b001cf8	0.0019548517
17	0x80000004	-6e-45
18	0xb8418f30	-4.614814e-05
19	0x3b044cd2	0.002018739
20	0x380ec550	3.40392e-05
21	0xb6d0fcc0	-6.228307e-06
22	0x00000004	6e-45
23	0x3819e428	3.669053e-05
24	0x00000004	6e-45
25	0x3831247f	4.2234078e-05
26	0x80000004	-6e-45
27	0x381f0240	3.791065e-05
28	0x80000004	-6e-45
29	0x38865413	6.405278e-05
30	0x80000004	-6e-45
31	0x383d06ca	4.5067434e-05
32	0x80000004	-6e-45
33	0x38557f86	5.0901923e-05
34	0x80000004	-6e-45
35	0x38759bcd	5.8557653e-05
36	0x3752324a	1.2528684e-05
37	0xb3de8c86	-1.03632416e-07
38	0xbb35db86	-0.0027749254
39	0x80000004	-6e-45
40	0x38de7560	0.00010607648
41	0xbafccaaf	-0.0019286479
42	0x389c02ac	7.439157e-05
43	0x3a06d59e	0.0005143526
44	0x00000004	6e-45
45	0x358d1b77	1.0513312e-06
46	0x00000004	6e-45
47	0x35bd055b	1.4083156e-06
48	0x00000004	6e-45
49	0x3575bab6	9.154131e-07
50	0x80000004	-6e-45
51	0x366878b5	3.4640955e-06
52	0x00000004	6e-45
53	0x358091f9	9.579227e-07
54	0x80000004	-6e-45
55	0xb63579fd	-2.7042108e-06
56	0x00000004	6e-45
57	0x34476140	1.8568699e-07
58	0x379476b3	1.7698248e-05
59	0x315702f8	3.1288305e-09
60	0x395c9989	0.00021038031
61	0x80000004	-6e-45
62	0xb65355cc	-3.149139e-06
63	0x396e1bde	0.0002270783
64	0x370525b2	7.936194e-06
65	0x37b669be	2.174533e-05
66	0x80000004	-6e-45
67	0xb7cfbc92	-2.4764133e-05
68	0x80000004	-6e-45
69	0xb7ec09eb	-2.813801e-05
70	0x00000004	6e-45
71	0xb7d93ee7	-2.5897707e-05
72	0x00000004	6e-45
73	0xb815c14e	-3.5704397e-05
74	0x80000004	-6e-45
75	0xb802d1d8	-3.1189848e-05
76	0x00000004	6e-45
77	0xb7c6d05e	-2.3700468e-05
78	0x00000004	6e-45
79	0xb7da9e45	-2.6061325e-05
80	0x36c79ac3	5.948679e-06
81	0x3348844b	4.668645e-08
82	0x3ab04f3d	0.0013451349
83	0x80000004	-6e-45
84	0xb848f07c	-4.7907684e-05
85	0x3a516f32	0.00079892867
86	0xb7ed1526	-2.826245e-05
87	0xb959bcd0	-0.00020765071
88	0x00000004	6e-45
89	0xb861c710	-5.382957e-05
90	0x00000004	6e-45
91	0xb86d6dba	-5.6607394e-05
92	0x00000004	6e-45
93	0xb87c8bf2	-6.0211816e-05
94	0x00000004	6e-45
95	0xb7c78ba4	-2.3787674e-05
96	0x00000004	6e-45
97	0xb8a1cdf1	-7.715438e-05
98	0x00000004	6e-45
99	0xb89eb8db	-7.568459e-05
100	0x80000004	-6e-45
101	0xb815c3d1	-3.5706737e-05
102	0x39b3a0a8	0.0003426124
103	0x33e0d179	1.0468916e-07
104	0x3baebdad	0.0053326697
105	0x00000004	6e-45
106	0xb8e4b74d	-0.0001090603
107	0x3b872696	0.004124473
108	0x390983d6	0.00013114451
109	0x393845ce	0.00017573612
110	0x00000004	6e-45
111	0xb6be8e1a	-5.678984e-06
112	0x00000004	6e-45
113	0xb6d7d6c7	-6.4325027e-06
114	0x80000004	-6e-45
115	0xb6c7d23a	-5.9551357e-06
116	0x80000004	-6e-45
117	0xb71319b9	-8.767872e-06
118	0x80000004	-6e-45
119	0xb6fa2b2e	-7.4556074e-06
120	0x80000004	-6e-45
121	0xb70631e2	-7.998637e-06
122	0x80000004	-6e-45
123	0xb703e4fe	-7.861525e-06
124	0x36d089d7	6.2149297e-06
125	0x3282b7b9	1.521754e-08
126	0x39f07e86	0.00045870634
127	0x80000004	-6e-45
128	0xb782cb96	-1.559201e-05
129	0x39ac15b8	0.00032822578
130	0xb6b95ea2	-5.5244464e-06
131	0xb881b541	-6.1849605e-05
132	0x00000004	6e-45
133	0xb7a976a4	-2.0201616e-05
134	0x00000004	6e-45
135	0xb7c3210a	-2.3261196e-05
136	0x80000004	-6e-45
137	0xb7af0754	-2.0865038e-05
138	0x00000004	6e-45
139	0xb817e86f	-3.6217676e-05
140	0x80000004	-6e-45
141	0xb7d35fd4	-2.5197784e-05
142	0x00000004	6e-45
143	0xb7fffbbb	-3.051559e-05
144	0x00000004	6e-45
145	0xb8103b4c	-3.43875e-05
146	0xb64b7900	-3.0319788e-06
147	0x338432a7	6.1559426e-08
148	0x3ada3f40	0.001665093
149	0x80000004	-6e-45
150	0xb8841cf3	-6.299643e-05
151	0x3a9c8012	0.0011940023
152	0xb825608a	-3.9428975e-05
153	0xb99e4171	-0.00030184866
154	0x80000004	-6e-45
155	0xb6db2dc8	-6.5320382e-06
156	0x80000004	-6e-45
157	0xb6fbe7dc	-7.507375e-06
158	0x00000004	6e-45
159	0xb6e2c5d4	-6.758355e-06
160	0x00000004	6e-45
161	0xb7366682	-1.0871912e-05
162	0x00000004	6e-45
163	0xb70e0f98	-8.46749e-06
164	0x00000004	6e-45
165	0xb71f7a18	-9.505566e-06
166	0x00000004	6e-45
167	0xb72c84bd	-1.0282904e-05
168	0x33aad6e0	7.9553274e-08
169	0x32a377ab	1.9030116e-08
170	0x3a0c50b1	0.00053526
171	0x80000004	-6e-45
172	0xb7a3a7f5	-1.9509325e-05
173	0x39c93dec	0.00038383843
174	0xb771e659	-1.4418351e-05
175	0xb8b643ec	-8.691088e-05
176	0x00000004	6e-45
177	0x392612d0	0.00015838002
178	0x00000004	6e-45
179	0x39411894	0.0001841507
180	0x00000004	6e-45
181	0x3929e89c	0.0001620375
182	0x80000004	-6e-45
183	0x399a3672	0.00029413734
184	0x00000004	6e-45
185	0x3942d9cc	0.00018582417
186	0x00000004	6e-45
187	0x39346d60	0.00017206883
188	0x00000004	6e-45
189	0x396eaaa1	0.00022761013
190	0x396f0516	0.00022794711
191	0xb4ca7872	-3.7713068e-07
192	0xbc0eb796	-0.0087107625
193	0x00000004	6e-45
194	0x39c9508a	0.00038397714
195	0xbba89cf5	-0.005145664
196	0x39b686a8	0.00034814072
197	0x3b1444a2	0.0022623916
198	0x00000004	6e-45
199	0x38002a84	3.0557174e-05
200	0x00000004	6e-45
201	0x381ed548	3.786877e-05
202	0x80000004	-6e-45
203	0x37f57460	2.9260467e-05
204	0x00000004	6e-45
205	0x38a211aa	7.728052e-05
206	0x80000004	-6e-45
207	0x37bd88c8	2.259425e-05
208	0x80000004	-6e-45
209	0x35d8fac0	1.6166232e-06
210	0x00000004	6e-45
211	0x38145a6e	3.537017e-05
212	0x39826d33	0.00024876892
213	0xb32ac044	-3.9756074e-08
214	0x3a17b228	0.000578674
215	0x00000004	6e-45
216	0x381bed48	3.7175865e-05
217	0x3a9f8c80	0.001217261
218	0x3934f833	0.00017258599
219	0x3a240742	0.0006257185
220	0x80000004	-6e-45
221	0xb7fe9bf1	-3.0351775e-05
222	0x80000004	-6e-45
223	0xb812163e	-3.4829827e-05
224	0x80000004	-6e-45
225	0xb803e5b6	-3.144677e-05
226	0x00000004	6e-45
227	0xb84ee263	-4.9325066e-05
228	0x80000004	-6e-45
229	0xb82095ba	-3.8286416e-05
230	0x00000004	6e-45
231	0xb80ecb31	-3.4044675e-05
232	0x00000004	6e-45
233	0xb825b4d2	-3.9507468e-05
234	0xb712707e	-8.72847e-06
235	0x3394eaea	6.934518e-08
236	0x3af42e01	0.0018629433
237	0x00000004	6e-45
238	0xb8951fcc	-7.110796e-05
239	0x3a9ac76e	0.0011808702
240	0xb85930ac	-5.178216e-05
241	0xb9b51f67	-0.00034546407
242	0x80000004	-6e-45
243	0xb6323c82	-2.6559287e-06
244	0x00000004	6e-45
245	0xb5a40800	-1.222128e-06
246	0x00000004	6e-45
247	0xb691b254	-4.342097e-06
248	0x00000004	6e-45
249	0x368871a8	4.066347e-06
250	0x00000004	6e-45
251	0xb73040c9	-1.0505501e-05
252	0x00000004	6e-45
253	0xb8a08d64	-7.6557306e-05
254	0x00000004	6e-45
255	0xb85991a2	-5.1872463e-05

exp_avg_sq f4 [128, 22]
0	0x2d8095a4	1.4618369e-11
1	0x32dc2935	2.563011e-08
2	0x2d0201e1	7.390062e-12
3	0x3307cb53	3.161706e-08
4	0x2e749554	5.5611807e-11
5	0x32fa192e	2.911528e-08
6	0x25d3bf22	3.6732182e-16
7	0x337cf610	5.8897115e-08
8	0x27179f54	2.1041832e-15
9	0x335197e8	4.8799762e-08
10	0x299fc3c6	7.09498e-14
11	0x340d4a9f	1.3158795e-07
12	0x1e566822	1.13506e-20
13	0x33e0200a	1.0436641e-07
14	0x34d0338b	3.8780522e-07
15	0x2b03e8ca	4.686361e-13
16	0x39fe2c9b	0.0004847989
17	0x3409d331	1.283595e-07
18	0x34fc3a93	4.6981276e-07
19	0x39afbd12	0.0003351947
20	0x337516ca	5.7064234e-08
21	0x36ac8576	5.1415363e-06
22	0x350e691b	5.305207e-07
23	0x35bf3669	1.4246444e-06
24	0x350af764	5.1769007e-07
25	0x35d3a4c4	1.5768678e-06
26	0x348594a9	2.4881345e-07
27	0x35a6a4dc	1.2415944e-06
28	0x2e8cfde0	6.41156e-11
29	0x359f9ace	1.1891477e-06
30	0x2f9f830f	2.9015054e-10
31	0x35b6b620	1.3613062e-06
32	0x2fb0b84d	3.2145167e-10
33	0x35a0a99b	1.1970291e-06
34	0x280467e1	7.349997e-15
35	0x35f6d4a7	1.8390318e-06
36	0x3827a832	3.9972547e-05
37	0x2c9e216c	4.4943407e-12
38	0x3b41910a	0.0029535913
39	0x379a82a3	1.8419063e-05
40	0x36c225de	5.786059e-06
41	0x3b55de02	0.0032633548
42	0x36eccac1	7.0569517e-06
43	0x39ac3bf1	0.00032851056
44	0x2fee4cb8	4.334646e-10
45	0x3304a265	3.0881342e-08
46	0x2fcdfb50	3.746785e-10
47	0x33132d88	3.4267515e-08
48	0x3096eee0	1.0981829e-09
49	0x3304c989	3.091694e-08
50	0x2e5514e8	4.844916e-11
51	0x334ef2f3	4.8184074e-08
52	0x2bf9bdf5	1.7745238e-12
53	0x3321fe4f	3.7717026e-08
54	0x2dfe7d15	2.8932004e-11
55	0x33c8fe1e	9.3594494e-08
56	0x2517efae	1.3178369e-16
57	0x336c05cc	5.4953304e-08
58	0x36f26ede	7.2250687e-06
59	0x2aa548c6	2.9360385e-13
60	0x3a17dabb	0.0005792786
61	0x371bcba3	9.286133e-06
62	0x34b127be	3.2997735e-07
63	0x3a3af6ed	0.0007132132
64	0x35d9953c	1.6211193e-06
65	0x37f9abaa	2.976305e-05
66	0x31745192	3.555304e-09
67	0x339c5f4b	7.28165e-08
68	0x318b8623	4.060682e-09
69	0x33acb1ae	8.041694e-08
70	0x3161ef29	3.2877756e-09
71	0x33a222ec	7.550065e-08
72	0x2ac526a4	3.5021042e-13
73	0x33d7dbd0	1.0051701e-07
74	0x2e86db9a	6.1326236e-11
75	0x33b0ca37	8.232421e-08
76	0x2ea2ddc0	7.406298e-11
77	0x341e4b1a	1.4742218e-07
78	0x26998b8a	1.065433e-15
79	0x33befb85	8.8933156e-08
80	0x36fc2d5d	7.515466e-06
81	0x2ae897bf	4.1316774e-13
82	0x3a1572f0	0.0005701026
83	0x36cfa4f8	6.1882856e-06
84	0x34faf2ee	4.6742883e-07
85	0x3a4819fd	0.0007633267
86	0x35ece0c1	1.7648782e-06
87	0x382512cb	3.9356568e-05
88	0x342d0329	1.611303e-07
89	0x35d22f97	1.566007e-06
90	0x3429d2f4	1.5816096e-07
91	0x35fd3de7	1.8867985e-06
92	0x33948aa7	6.917008e-08
93	0x35e0b8cd	1.6743085e-06
94	0x2a295b0d	1.5041805e-13
95	0x3637ce0f	2.7389067e-06
96	0x2d5c5555	1.25245e-11
97	0x36295cb1	2.5236916e-06
98	0x2a1de1e6	1.4022775e-13
99	0x3669f220	3.486064e-06
100	0x267b2a3d	8.714036e-16
101	0x364b36ee	3.028133e-06
102	0x372c23df	1.0260351e-05
103	0x2d72aa32	1.3793898e-11
104	0x3c4e3333	0.012585449
105	0x334c6393	4.7588014e-08
106	0x3754127f	1.2640491e-05
107	0x3bfde8ab	0.0077486834
108	0x35ac7195	1.2848055e-06
109	0x3920b4b3	0.00015326105
110	0x33af0352	8.1496765e-08
111	0x351123a0	5.406855e-07
112	0x33d9bb72	1.0138946e-07
113	0x3527436e	6.231047e-07
114	0x340bc8d2	1.3018442e-07
115	0x351b56b2	5.786816e-07
116	0x2ca7f28e	4.7733545e-12
117	0x35171280	5.6278805e-07
118	0x2d2285d0	9.238346e-12
119	0x351c42ee	5.8211924e-07
120	0x2f61bf8d	2.0531683e-10
121	0x352febe9	6.5535875e-07
122	0x260a6a06	4.8022056e-16
123	0x35613dd6	8.3909015e-07
124	0x3805e79b	3.192537e-05
125	0x2c175c11	2.1509498e-12
126	0x3b066768	0.0020508412
127	0x37db10b9	2.6114622e-05
128	0x364081e2	2.8685831e-06
129	0x3b1e049c	0.0024111634
130	0x36beae51	5.6827344e-06
131	0x393dcd3e	0.00018100903
132	0x339df195	7.354826e-08
133	0x349edbe1	2.9589776e-07
134	0x33990d01	7.126983e-08
135	0x34ae215e	3.2434303e-07
136	0x33988c1c	7.103537e-08
137	0x34ade725	3.239194e-07
138	0x2d287e5a	9.57775e-12
139	0x3496a954	2.806288e-07
140	0x2f383848	1.6754698e-10
141	0x34c0d464	3.591732e-07
142	0x2e38ece3	4.2047154e-11
143	0x348dbb41	2.6399542e-07
144	0x27d72f1b	5.972556e-15
145	0x34fa5bdb	4.6632962e-07
146	0x36ed7c11	7.0775936e-06
147	0x2b9b7123	1.1044814e-12
148	0x39b3f11d	0.00034321184
149	0x35e1d105	1.6824639e-06
150	0x35be6be0	1.4187499e-06
151	0x39e9e9ad	0.00044615325
152	0x358bddf0	1.0420899e-06
153	0x38b402cd	8.5835905e-05
154	0x3059fdda	7.9304885e-10
155	0x32c2313a	2.2606958e-08
156	0x304d855d	7.4768086e-10
157	0x32dbeb25	2.5601887e-08
158	0x3059d873	7.9251733e-10
159	0x32d3e014	2.4665532e-08
160	0x2ce5a2c0	6.5266403e-12
161	0x3315e42c	3.4899287e-08
162	0x2e9d6f6b	7.159325e-11
163	0x33172030	3.51867e-08
164	0x2e04b784	3.017632e-11
165	0x335995ee	5.066061e-08
166	0x26bf056a	1.3254755e-15
167	0x336ae962	5.469463e-08
168	0x35f763a0	1.8431929e-06
169	0x2a4cab3f	1.8178253e-13
170	0x392a0d7e	0.0001621749
171	0x35805176	9.560451e-07
172	0x346349db	2.1167891e-07
173	0x395864c9	0.0002063691
174	0x34dc649c	4.1051396e-07
175	0x377ad787	1.4951343e-05
176	0x2f6e0d3e	2.1650678e-10
177	0x35dffdf0	1.66887e-06
178	0x2e5419c8	4.8226118e-11
179	0x3606d409	2.0090977e-06
180	0x3004debe	4.8337856e-10
181	0x35f7c750	1.8460942e-06
182	0x1e674ef5	1.2245366e-20
183	0x3633e21b	2.680469e-06
184	0x27a7e54d	4.660042e-15
185	0x3636b995	2.7228136e-06
186	0x1fe03dca	9.496991e-20
187	0x3639cc4a	2.768606e-06
188	0x1cd76202	1.4252841e-21
189	0x36435c58	2.9111015e-06
190	0x3758c9a1	1.2921549e-05
191	0x2d3dd4ee	1.0790686e-11
192	0x3c14f230	0.009090945
193	0x22a8f709	4.579805e-18
194	0x37383a0b	1.0980769e-05
195	0x3ba3bd28	0.0049969144
196	0x35e19e8a	1.6809947e-06
197	0x395458e5	0.00020251011
198	0x3234b45f	1.0518391e-08
199	0x36223d35	2.4175508e-06
200	0x3226b14b	9.7027835e-09
201	0x36459e47	2.9447417e-06
202	0x3383fbcf	6.1459666e-08
203	0x3637c910	2.7386159e-06
204	0x2a74dfeb	2.174924e-13
205	0x36933264	4.3868076e-06
206	0x2c2d6b10	2.464421e-12
207	0x368e0f4e	4.2337115e-06
208	0x2cdc13e5	6.254985e-12
209	0x36bac3b9	5.566017e-06
210	0x23eb3260	2.5500086e-17
211	0x36bf21eb	5.696192e-06
212	0x37fd69bd	3.0209188e-05
213	0x2dc84570	2.2768204e-11
214	0x3c97d907	0.018536104
215	0x33d49145	9.898444e-08
216	0x37b7ba61	2.190209e-05
217	0x3c36705f	0.01113519
218	0x362acfc3	2.5452907e-06
219	0x39ce9aa0	0.00039406586
220	0x324ce3dd	1.1926173e-08
221	0x34626325	2.1083959e-07
222	0x324075e9	1.1202681e-08
223	0x347b9f41	2.3434133e-07
224	0x32a5da5a	1.9307823e-08
225	0x34891429	2.5532907e-07
226	0x2e1c520a	3.554316e-11
227	0x348a970b	2.58144e-07
228	0x2fbf6c2e	3.4819564e-10
229	0x34b67b21	3.398973e-07
230	0x2dff8e48	2.905333e-11
231	0x348fb8ee	2.677038e-07
232	0x2876e9a6	1.3706408e-14
233	0x34ceefbb	3.8544917e-07
234	0x37048a95	7.900079e-06
235	0x2b9f2d78	1.131025e-12
236	0x3a046fe6	0.00050520746
237	0x3690126c	4.293679e-06
238	0x35ae6dfd	1.2996021e-06
239	0x3a4680cb	0.0007572292
240	0x35dc74ca	1.6425267e-06
241	0x38c47729	9.3682036e-05
242	0x2e46ae58	4.5174836e-11
243	0x3422ccea	1.5161973e-07
244	0x2e12440e	3.3257e-11
245	0x3448305e	1.8644047e-07
246	0x2ea1c670	7.356682e-11
247	0x343a4715	1.734846e-07
248	0x23862563	1.4544143e-17
249	0x34b68b2b	3.40014e-07
250	0x29155547	3.3158612e-14
251	0x349cfaf6	2.9239862e-07
252	0x26d3738b	1.4672384e-15
253	0x353d4094	7.050196e-07
254	0x22142f1b	2.0082678e-18
255	0x3511e6f4	5.435279e-07

exp_avg f4 [128]
0	0xb8c99fd1	-9.614195e-05
1	0x3967ba43	0.00022099265
2	0xb6dc243a	-6.5607283e-06
3	0xb8d14fd7	-9.980768e-05
4	0xb96e3ee8	-0.00022720883
5	0xb8083ebd	-3.2483356e-05
6	0xb9099e29	-0.00013124257
7	0xb82a799f	-4.0644427e-05
8	0x3a51b3e4	0.0007999523
9	0x38a26c7c	7.744969e-05
10	0xb91b5675	-0.0001481416
11	0xb98cd318	-0.00026860158
12	0x39743b00	0.00023291633
13	0x39bcfc8e	0.00036046322
14	0x383fa5cc	4.569236e-05
15	0xb7dbd0f9	-2.6204145e-05
16	0x36e86c80	6.92677e-06
17	0x38a1f2b5	7.722286e-05
18	0xb980b014	-0.0002454525
19	0xb9660e9c	-0.00021939952
20	0x39cb962e	0.0003883107
21	0x3a3cd094	0.00072027114
22	0x37e91130	2.7783768e-05
23	0x37e451d4	2.7217822e-05
24	0xb98cdd5a	-0.000268678
25	0x38d5838f	0.00010181136
26	0x396493da	0.00021798853
27	0xb7755347	-1.46225275e-05
28	0x3805d76d	3.1910302e-05
29	0x3a1f546f	0.000607795
30	0x392c617b	0.00016439513
31	0x389f5188	7.596897e-05
32	0xb82636d0	-3.9628532e-05
33	0x39730eca	0.00023179795
34	0x3982195b	0.00024814424
35	0x3934e169	0.0001725011
36	0xb8812c00	-6.159395e-05
37	0xb8b1e41b	-8.482506e-05
38	0xb9c132df	-0.0003684973
39	0xb901744c	-0.00012345723
40	0xb96d29e3	-0.00022617685
41	0xb892cfec	-7.000551e-05
42	0x39162c08	0.00014321518
43	0xb8569589	-5.116084e-05
44	0x399b2e82	0.00029598555
45	0x3a5fb794	0.000853413
46	0xb9096b66	-0.00013105347
47	0x3963fdf7	0.00021743016
48	0x3a8a1c7b	0.0010537052
49	0xb9dabd88	-0.00041721412
50	0x38be00b8	9.06004e-05
51	0x398374aa	0.0002507319
52	0x38de174e	0.00010590126
53	0xb84a60b2	-4.8250608e-05
54	0xb8c54063	-9.405685e-05
55	0x38e658bd	0.000109837834
56	0x39f9349f	0.00047532187
57	0x39935818	0.0002810366
58	0xb76fbd94	-1.428965e-05
59	0xb86cfa4e	-5.64999e-05
60	0x3935a6c4	0.0001732363
61	0x39d998f2	0.00041503418
62	0x38f8a350	0.00011855981
63	0xba145b46	-0.0005659353
64	0x38235bda	3.8947772e-05
65	0x3824920a	3.9236656e-05
66	0x3913c68c	0.00014092977
67	0xb81abc54	-3.6891855e-05
68	0xba061ca2	-0.0005115961
69	0x3957e8c9	0.00020590717
70	0x3831231c	4.2232787e-05
71	0xb989eaae	-0.00026305526
72	0xb923e58d	-0.00015630406
73	0x38ca4c80	9.64636e-05
74	0x38c6a24a	9.4716044e-05
75	0xb83e71e7	-4.540561e-05
76	0x39f795fb	0.00047223255
77	0x392c16ad	0.00016411646
78	0xb8433d8a	-4.6548936e-05
79	0xb7eee775	-2.8479591e-05
80	0xb7a40724	-1.9553649e-05
81	0x3850509c	4.9666138e-05
82	0xb89624ee	-7.159436e-05
83	0xb87bab34	-6.000251e-05
84	0x36d6b11a	6.3983143e-06
85	0x392ad582	0.00016292001
86	0x39a2a3d0	0.00031021098
87	0xb7f3d608	-2.9067523e-05
88	0x39151613	0.0001421797
89	0xb906ca28	-0.00012854545
90	0xb7c56955	-2.353328e-05
91	0x38b25f95	8.505505e-05
92	0x395421c6	0.00020230477
93	0x390182ab	0.00012351076
94	0xb8394ee6	-4.4180917e-05
95	0x3969dae5	0.00022302156
96	0xb72d15c1	-1.03166685e-05
97	0x39e5c7e3	0.0004382721
98	0xb770f6dc	-1.4362591e-05
99	0x39733e1c	0.00023197423
100	0x398da221	0.0002701441
101	0x399e629e	0.00030209584
102	0xb91961c0	-0.00014627632
103	0x39a9c4fb	0.00032380954
104	0x3a904572	0.0011007024
105	0xb8887e94	-6.5085624e-05
106	0xb7048ae0	-7.9001475e-06
107	0xb88ecb52	-6.808959e-05
108	0x3a52a5d0	0.0008035572
109	0xb86b1c0c	-5.6054487e-05
110	0xb8d818a5	-0.00010304273
111	0x3981b850	0.0002474212
112	0xb6704d98	-3.5807952e-06
113	0x38face78	0.00011959387
114	0xb90ba7fc	-0.00013318652
115	0xb825eccc	-3.95596e-05
116	0xb8fd8d58	-0.000120903074
117	0xb8c2a265	-9.280889e-05
118	0xb8b1f2a8	-8.485216e-05
119	0x397fc77c	0.00024393009
120	0x381e44dc	3.7734266e-05
121	0xb89b4e4c	-7.40556e-05
122	0xb8494884	-4.798967e-05
123	0x39059314	0.0001273866
124	0x39143561	0.00014134265
125	0xb76cdf98	-1.4118756e-05
126	0xb6eebb90	-7.114788e-06
127	0xb712770d	-8.729997e-06

exp_avg_sq f4 [128]
0	0x3608d7c0	2.0391162e-06
1	0x37d2aa0d	2.5113137e-05
2	0x35c039f8	1.4321986e-06
3	0x360825f0	2.0287662e-06
4	0x38661cf7	5.486325e-05
5	0x3750e21f	1.2450414e-05
6	0x36ce9eb3	6.1577534e-06
7	0x35769f99	9.1874386e-07
8	0x3847e5fe	4.7659494e-05
9	0x38c75b84	9.5061056e-05
10	0x36bd44c4	5.6406443e-06
11	0x373247fb	1.0626386e-05
12	0x37a010c3	1.9081292e-05
13	0x368f77fa	4.275699e-06
14	0x35aba94a	1.2789762e-06
15	0x359a86da	1.1513141e-06
16	0x35caf243	1.512068e-06
17	0x3647265b	2.9675637e-06
18	0x36b7c5e5	5.476863e-06
19	0x38425144	4.632889e-05
20	0x368e7d34	4.2465053e-06
21	0x38dcbf06	0.000105259984
22	0x36e6ef34	6.882381e-06
23	0x35c422a7	1.4613223e-06
24	0x36a0dbb8	4.79395e-06
25	0x364f8e40	3.0928204e-06
26	0x36cb7546	6.063524e-06
27	0x369097c7	4.3092036e-06
28	0x3540623c	7.1668524e-07
29	0x382414b1	3.9119917e-05
30	0x3707a63f	8.085334e-06
31	0x36cfb211	6.1898104e-06
32	0x354d63c9	7.651366e-07
33	0x363d4826	2.820519e-06
34	0x3797b15b	1.808319e-05
35	0x36a5e314	4.9438186e-06
36	0x35286d4f	6.274394e-07
37	0x3915a918	0.0001427274
38	0x381cc3db	3.7375703e-05
39	0x360982f2	2.049081e-06
40	0x383af7db	4.457669e-05
41	0x35e9713e	1.7392811e-06
42	0x368f6ddd	4.274522e-06
43	0x35b7f0fb	1.3704697e-06
44	0x37d9968b	2.5938518e-05
45	0x3777f024	1.4778259e-05
46	0x366f5456	3.5662865e-06
47	0x3796671f	1.7929413e-05
48	0x37c3f975	2.3361974e-05
49	0x375e6ee1	1.3258047e-05
50	0x37020438	7.749586e-06
51	0x38b884da	8.798549e-05
52	0x36fa1fe7	7.4542945e-06
53	0x36e42c13	6.8000604e-06
54	0x37b1d01e	2.1196956e-05
55	0x372f7d8d	1.0460045e-05
56	0x36e399dc	6.7830388e-06
57	0x378faccd	1.7127395e-05
58	0x36e9d63c	6.9688813e-06
59	0x371e807c	9.447449e-06
60	0x383ca288	4.4974062e-05
61	0x36e64f30	6.863753e-06
62	0x360c665e	2.0921211e-06
63	0x390e1a61	0.00013552002
64	0x34cb4303	3.7860454e-07
65	0x357071f1	8.9572774e-07
66	0x37475294	1.1880551e-05
67	0x36e43130	6.8006557e-06
68	0x37505a73	1.24188255e-05
69	0x36e3d8a2	6.7903466e-06
70	0x353f00e6	7.115435e-07
71	0x390012e7	0.00012214073
72	0x38906a9f	6.886315e-05
73	0x379a8425	1.8419765e-05
74	0x36ebe730	7.0304595e-06
75	0x37e3b289	2.7143646e-05
76	0x37b01a95	2.0993213e-05
77	0x3698666c	4.5418765e-06
78	0x36f5ceb5	7.325633e-06
79	0x35a27a98	1.210562e-06
80	0x37e2b296	2.702446e-05
81	0x36b45614	5.374439e-06
82	0x36002168	1.9092931e-06
83	0x3796bc53	1.7969089e-05
84	0x375e3fdd	1.32471005e-05
85	0x37172006	9.007757e-06
86	0x374cddac	1.22109595e-05
87	0x37359dbb	1.0825165e-05
88	0x35b20596	1.3263659e-06
89	0x3786b271	1.6057138e-05
90	0x354a0d18	7.526992e-07
91	0x368a24bd	4.1169974e-06
92	0x370692bd	8.021188e-06
93	0x36dbe897	6.5537856e-06
94	0x36809e77	3.833145e-06
95	0x37829089	1.5564512e-05
96	0x36d289b4	6.2745185e-06
97	0x378f15b0	1.7057027e-05
98	0x3446bec8	1.8509593e-07
99	0x38905c27	6.88362e-05
100	0x376ff15a	1.4301704e-05
101	0x37a2d63b	1.9411664e-05
102	0x38f9ce87	0.00011911714
103	0x39637ea0	0.00021695578
104	0x383248e1	4.250638e-05
105	0x359e47c3	1.1792803e-06
106	0x37cdf9e2	2.4554265e-05
107	0x3795e8fd	1.7870678e-05
108	0x3878b95e	5.9300444e-05
109	0x365fa838	3.3327506e-06
110	0x35c4a3ae	1.4650775e-06
111	0x372c1558	1.0256968e-05
112	0x36a2eadb	4.855317e-06
113	0x385eeec7	5.3151303e-05
114	0x38a09f5c	7.6590775e-05
115	0x36f4d381	7.296389e-06
116	0x36995218	4.5693123e-06
117	0x3637b447	2.737406e-06
118	0x3616c44f	2.2466008e-06
119	0x36a464b6	4.899305e-06
120	0x35ad7cec	1.2925861e-06
121	0x34b6fa19	3.4082112e-07
122	0x36e9329e	6.9498337e-06
123	0x36c554b4	5.8809183e-06
124	0x357bec51	9.384867e-07
125	0x37341553	1.0733801e-05
126	0x352b3bbe	6.37894e-07
127	0x37a76d2a	1.9958785e-05
