results/Curve1.7/CarAgent/CarAgent-154340.pt (torch, 504556 bytes, 56 tensors)

discrete_act_size_vector f4 [1, 2]
3.0 3.0
00000000: 0000 4040 0000 4040

network_body.observation_encoder.processors.0.normalizer.running_mean f4 [14]
0.04020965 0.25438064 0.05329108 0.2705114 0.038136333 0.25764433 0.0136451125 0.2718591
0.010237075 0.25072625 0.0011727278 0.262428 0.0017752899 0.2257031
00000000: e0b2 243d 2e3e 823e bf47 5a3d 7880 8a3e
00000010: d834 1c3d f5e9 833e c08f 5f3c 1e31 8b3e
00000020: 68b9 273c 315f 803e 37b6 993a f65c 863e
00000030: d8b0 e83a b71e 673e

network_body.observation_encoder.processors.0.normalizer.running_variance f4 [14]
5957.4565 5232.375 7787.679 6068.756 5662.531 4886.4683 2078.2627 2153.2102
1564.8257 1813.5194 181.78781 607.2831 274.51358 660.22034
00000000: a72b ba45 0083 a345 6f5d f345 0ca6 bd45
00000010: 3ff4 b045 bfb3 9845 34e4 0145 5d93 0645
00000020: 6c9a c344 9fb0 e244 aec9 3543 1ed2 1744
00000030: bd41 8943 1a0e 2544

network_body.observation_encoder.processors.1.normalizer.running_mean f4 [8]
-0.36735618 -0.00024667315 -7.0592113 -0.067827746 0.47999623 -1.7758355 14.947185 0.05108793
00000000: 1c16 bcbe e953 81b9 0fe5 e1c0 46e9 8abd
00000010: 11c2 f53e 944e e3bf ab27 6f41 9441 513d

network_body.observation_encoder.processors.1.normalizer.running_variance f4 [8]
136852.02 1.0325058 2.512246e+07 43327.258 1.2304661 2.7420428e+07 2.4507822e+07 42596.07
00000000: 01a5 0548 2629 843f 4eab bf4b 423f 2947
00000010: ea7f 9d3f 8633 d14b d7fa ba4b 1264 2647

network_body.processors.0.normalizer.running_mean f4 [14]
0.04020965 0.25438064 0.05329108 0.2705114 0.038136333 0.25764433 0.0136451125 0.2718591
0.010237075 0.25072625 0.0011727278 0.262428 0.0017752899 0.2257031
00000000: e0b2 243d 2e3e 823e bf47 5a3d 7880 8a3e
00000010: d834 1c3d f5e9 833e c08f 5f3c 1e31 8b3e
00000020: 68b9 273c 315f 803e 37b6 993a f65c 863e
00000030: d8b0 e83a b71e 673e

network_body.processors.0.normalizer.running_variance f4 [14]
5957.4565 5232.375 7787.679 6068.756 5662.531 4886.4683 2078.2627 2153.2102
1564.8257 1813.5194 181.78781 607.2831 274.51358 660.22034
00000000: a72b ba45 0083 a345 6f5d f345 0ca6 bd45
00000010: 3ff4 b045 bfb3 9845 34e4 0145 5d93 0645
00000020: 6c9a c344 9fb0 e244 aec9 3543 1ed2 1744
00000030: bd41 8943 1a0e 2544

network_body.processors.1.normalizer.running_mean f4 [8]
-0.36735618 -0.00024667315 -7.0592113 -0.067827746 0.47999623 -1.7758355 14.947185 0.05108793
00000000: 1c16 bcbe e953 81b9 0fe5 e1c0 46e9 8abd
00000010: 11c2 f53e 944e e3bf ab27 6f41 9441 513d

network_body.processors.1.normalizer.running_variance f4 [8]
136852.02 1.0325058 2.512246e+07 43327.258 1.2304661 2.7420428e+07 2.4507822e+07 42596.07
00000000: 01a5 0548 2629 843f 4eab bf4b 423f 2947
00000010: ea7f 9d3f 8633 d14b d7fa ba4b 1264 2647

network_body._body_endoder.seq_layers.0.weight f4 [128, 22]
0.34598047 -0.23512524 -0.12519541 0.1538139 0.085769534 0.08956303 0.20487095 0.037829887
0.06961025 -0.08522007 0.06203182 -0.37278238 0.01932749 -0.030346034 0.04178807 -0.6087031
-0.0076008895 -0.22977415 0.29295334 0.17181534 0.010889695 -0.07979445 0.11629217 0.16310075
-0.08613978 0.0197581 -0.0652836 -0.46452495 -0.02635009 0.22381696 0.123634905 -0.15863611
0.113096625 -0.07775132 -0.1097727 0.1573631 -0.19552493 -0.16173457 0.21222307 -0.013125893
-0.024977112 -0.28418642 -0.41284388 0.053292517 0.06855369 0.13544288 -0.24357082 0.40660092
-0.22325847 -0.2241766 -0.2524428 0.045587886 0.09882051 0.088795535 0.07876839 -0.25264788
-0.13409773 -0.04725807 -0.0839419 0.15205257 0.006816984 0.08339233 0.30599335 0.41608724
-0.7348001 0.37509242 -0.26399192 0.23571144 0.08819279 -0.1512419 0.0465744 -0.064450204
-0.2794539 -0.010697613 -0.027884912 -0.027562119 0.3037337 0.16679485 -0.12937118 0.3732667
0.24927396 0.2936854 0.18640079 0.06177872 -0.06837338 0.099572115 -0.24804246 0.2536804
0.13537945 -0.3048828 0.03601536 0.28259212 0.19449557 0.07975757 0.011861111 0.08202661
0.41633067 -0.21226072 0.22118191 0.04473363 0.2522407 0.03260931 0.0067561204 -0.12782308
-0.3134377 -0.08076521 -0.17435461 -0.32274765 0.19861749 0.08579436 0.26512188 -0.14235891
-0.3563697 -0.20229888 -0.24439314 -0.02805363 0.37926626 -0.24356902 -0.2265455 0.23058563
0.082956955 0.31885305 -0.20292315 -0.24978974 -0.2957748 -0.16736138 0.5227995 0.055978764
-0.15384686 -0.07920397 0.35500515 0.029932193 0.41690692 0.36200845 0.019240847 0.23408829
-0.0002631316 0.070389755 -0.116502315 0.16937804 -0.112029985 0.19162133 -0.17534393 0.29535073
0.20186058 0.10484752 -0.17672203 0.17949216 0.28503218 0.11330773 -0.20550832 -0.005965511
-0.36434352 0.099187866 0.2136781 0.18582156 -0.43700963 -0.052932575 -0.13872676 -0.17131387
0.3162727 0.060606163 -0.090548985 0.12030204 -0.17098477 -0.25733694 -0.004285559 0.24504174
-0.23055263 -0.07914896 0.13082735 0.07751965 -0.26601464 0.1699028 -0.0919112 -0.3100235
-0.20803884 -0.19925205 0.4385607 0.4233936 0.007200775 0.18385689 -0.18795957 -0.55071676
0.14538027 -0.06853581 0.3232089 0.22164562 0.023420166 0.13716197 0.3198233 -0.18722233
0.02554458 0.09751704 -0.23897007 0.21101657 -0.09179288 -0.22365749 0.08609002 0.18408626
-0.14934671 -0.36747265 -0.16498224 -0.17243236 0.10794034 0.2029742 0.0023345463 -0.16817065
0.16144153 -0.13727568 0.47784764 0.07702958 0.040059198 0.60253555 0.030620184 -0.02882824
0.34022743 0.21680288 -0.2589319 0.46590245 -0.0262823 0.4060361 -0.19377498 0.19399488
0.121703215 0.13172609 0.1340363 -0.41544986 0.3610849 0.095865324 -0.42575353 0.008042109
-0.20065166 -0.029385446 -0.120250106 -0.21959566 -0.11913415 -0.09521614 -0.21061318 0.3052071
-0.051015064 -0.21621577 0.27470636 -0.18530579 -0.2173194 -0.106353566 -0.17530905 -0.18609993
0.028461665 0.5312275 0.064974844 0.05136959 -0.10375146 -0.16905227 0.21614912 0.14817797
00000000: 5a24 b13e acc4 70be 3a33 00be 6481 1d3e
00000010: f0a7 af3d d26c b73d b1c9 513e 83f3 1a3d
00000020: d28f 8e3d dc87 aebd 1415 7e3d 55dd bebe
00000030: af54 9e3c 3f98 f8bc f829 2b3d f7d3 1bbf
00000040: e210 f9bb ea49 6bbe fbfd 953e 5cf0 2f3e
00000050: b16a 323c 466b a3bd 972a ee3d e203 273e
00000060: 0e6a b0bd bddb a13c 68b3 85bd 37d6 edbe
00000070: 25dc d7bc 4630 653e 4c34 fd3d 8171 22be
00000080: 349f e73d 163c 9fbd 82d0 e0bd cb23 213e
00000090: b037 48be bf9d 25be 0151 593e fc0d 57bc
000000a0: cd9c ccbc e280 91be 4660 d3be 4149 5a3d
000000b0: e165 8c3d 8ab1 0a3e a16a 79be ff2d d03e
000000c0: de9d 64be 8d8e 65be 2f40 81be 5dba 3a3d
000000d0: 6862 ca3d 6fda b53d 5251 a13d 105b 81be
000000e0: ea50 09be ae91 41bd bbe9 abbd abb3 1b3e
000000f0: 0261 df3b 99c9 aa3d 29ab 9c3e 6309 d53e
00000100: dc1b 3cbf 1d0c c03e f329 87be 575e 713e
00000110: 6c9e b43d 28df 1abe ccc4 3e3d 78fe 83bd
00000120: 9514 8fbe 0a45 2fbc e66e e4bc f4c9 e1bc
00000130: fc82 9b3e 45cc 2a3e e179 04be d01c bf3e
00000140: ac41 7f3e ef5d 963e d9df 3e3e af0b 7d3d
00000150: 5807 8cbd 77ec cb3d d8fe 7dbe 66e2 813e
00000160: e9a0 0a3e 9919 9cbe d884 133d eaaf 903e
00000170: d929 473e f057 a33d 1b55 423c 91fd a73d
00000180: 4b29 d53e e05a 59be 837d 623e 9c3a 373d
00000190: b125 813e 5791 053d 7262 dd3b 0ee4 02be
000001a0: e87a a0be 3b68 a5bd 048a 32be 2e3f a5be
000001b0: 6262 4b3e f4b4 af3d 0ebe 873e 89c6 11be
000001c0: 1776 b6be 7027 4fbe 3242 7abe bad0 e5bc
000001d0: 302f c23e 286a 79be 8bfb 67be a41e 6c3e
000001e0: 56e5 a93d b540 a33e 16cb 4fbe e2c8 7fbe
000001f0: cb6f 97be c860 2bbe 30d6 053f fd49 653d
00000200: 088a 1dbe b135 a2bd 3cc3 b53e 5c34 f53c
00000210: d374 d53e 2c59 b93e fb9e 9d3c d7b4 6f3e
00000220: edf4 89b9 8128 903d c498 eebd 7071 2d3e
00000230: fa6f e5bd 6238 443e 5c8d 33be 3638 973e
00000240: 8ab4 4e3e 4cba d63d 9ff6 34be cbcc 373e
00000250: bdef 913e e20d e83d c670 52be 557a c3bb
00000260: 3c8b babe 0223 cb3d 6fce 5a3e 0248 3e3e
00000270: babf dfbe d4cf 58bd 630e 0ebe e76c 2fbe
00000280: 7fee a13e 2b3e 783d bf71 b9bd ea60 f63d
00000290: a216 2fbe abc1 83be e06d 8cbb 39ec 7a3e
000002a0: fd15 6cbe da18 a2bd 9bf7 053e 9fc2 9e3d
000002b0: 1233 88be 00fb 2d3e f03b bcbd 66bb 9ebe
000002c0: 2208 55be bb08 4cbe 078b e03e 0cc7 d83e
000002d0: 7bf4 eb3b fb44 3c3e 7978 40be c6fb 0cbf
000002e0: 91de 143e 815c 8cbd a37b a53e 12f7 623e
000002f0: a6db bf3c 3074 0c3e e1bf a33e 36b7 3fbe
00000300: de42 d13c 04b7 c73d 92b4 74be ba14 583e
00000310: e8fd bbbd 7806 65be f74f b03d 1c81 3c3e
00000320: 58ee 18be 6025 bcbe 1bf1 28be 1c92 30be
00000330: d30f dd3d 78d8 4f3e 30ff 183b ed34 2cbe
00000340: ee50 253e ff91 0cbe 72a8 f43e afc1 9d3d
00000350: 1d15 243d c53f 1a3f 2ed7 fa3c 3429 ecbc
00000360: 4a32 ae3e 9301 5e3e b992 84be c48a ee3e
00000370: fa4d d7bc f7e3 cf3e f36c 46be 98a6 463e
00000380: 893f f93d 34e3 063e d040 093e d8b5 d4be
00000390: 1fe0 b83e 0a55 c43d 5efc d9be 0dc3 033c
000003a0: a177 4dbe bfb9 f0bc b045 f6bd afdd 60be
000003b0: 9bfc f3bd ae00 c3bd fbaa 57be 1b44 9c3e
000003c0: 2cf5 50bd ab67 5dbe 50a6 8c3e cdc0 3dbe
000003d0: fa88 5ebe e6cf d9bd 3784 33be fb90 3ebe
000003e0: 7028 e93c 87fe 073f 8811 853d eb68 523d
000003f0: a57b d4bd 0a1c 2dbe 3256 5d3e f7bb 173e

network_body._body_endoder.seq_layers.0.bias f4 [128]
-0.17970723 0.1965078 0.15725978 0.11630233 -0.093746275 0.076369695 0.19651265 0.14072594
-0.11524113 0.08596667 -0.012951831 0.1568762 0.20924757 -0.015732244 0.25671506 0.066031225
0.11591043 -0.10997447 -0.17216246 -0.031671807 0.17593278 0.19133648 0.21149708 -0.028382031
0.02869698 -0.004827192 -0.14941776 -0.08653205 0.067531236 0.13089064 0.114925645 0.10234825
-0.19194244 0.08159737 0.22948869 -0.16075718 -0.026361732 0.25577596 0.15859398 -0.08928669
0.15407756 0.12295292 0.14965214 0.12605384 0.14529797 0.123929955 0.041942112 0.15342452
-0.20414293 -0.021931812 0.12813193 0.20824637 0.030342503 -0.08184537 0.07641383 0.24755695
0.14958487 0.14581849 -0.13047764 -0.050662126 0.10414488 -0.16961017 0.22457504 -0.12776934
0.009702582 0.05649906 -0.0930304 0.2415025 0.22768292 0.21855105 -0.03775962 0.1899322
0.18660839 -0.20637216 -0.10871452 -0.07103749 0.16712625 0.14369111 0.25643358 -0.16036533
-0.14331762 0.14161298 -0.11151507 0.21552859 -0.09108346 0.14067154 0.2033043 0.18687335
0.16782422 0.20565659 -0.16502611 -0.13836493 0.13359591 0.21846594 0.0008579174 0.19985119
0.07712919 0.27168557 0.13390449 0.13968296 -0.040225618 0.15673184 0.06835921 0.12854217
0.21480222 0.11367314 0.13121557 0.14333594 0.093090154 0.17540015 0.1049065 0.18132089
-0.19806857 -0.019810569 0.1410433 -0.081884526 -0.14640704 -0.05766992 -0.015776228 0.15631329
-0.18489732 0.16033605 0.21145983 -0.11312704 0.07516562 0.069021955 0.14549245 0.04622042
00000000: 2c05 38be 5739 493e b508 213e ea2f ee3d
00000010: 0cfe bfbd b767 9c3d 9d3a 493e 761a 103e
00000020: 8b03 ecbd 4b0f b03d eb33 54bc 28a4 203e
00000030: ff44 563e e8e0 80bc 2870 833e 613b 873d
00000040: 7362 ed3d 4c3a e1bd 5b4b 30be 4cba 01bd
00000050: b927 343e b6ed 433e b192 583e 6f81 e8bc
00000060: ee15 eb3c 6c2d 9ebb f800 19be b737 b1bd
00000070: d14d 8a3d 3208 063e 235e eb3d f69b d13d
00000080: 8f8c 44be 861c a73d 15ff 6a3e 889d 24be
00000090: 8ff4 d7bc 11f5 823e 7666 223e f1db b6bd
000000a0: 82c6 1d3e bece fb3d 693e 193e 4214 013e
000000b0: fec8 143e fdce fd3d 7ecb 2b3d 511b 1d3e
000000c0: d80a 51be 58aa b3bc 0435 033e 893e 553e
000000d0: d790 f83c 8c9e a7bd db7e 9c3d 927f 7d3e
000000e0: c72c 193e 7151 153e ee9b 05be 1783 4fbd
000000f0: e949 d53d 4aae 2dbe 00f7 653e f7d5 02be
00000100: 94f7 1e3c 8f6b 673d b986 bebd 6e4c 773e
00000110: b625 693e d9cb 5f3e d5a9 1abd 967d 423e
00000120: 4516 3f3e 3953 53be b8a5 debd 1b7c 91bd
00000130: 2523 2b3e c323 133e 434b 833e cf36 24be
00000140: dbc1 12be fe02 113e 0362 e4bd 87b3 5c3e
00000150: f789 babd 330c 103e 012f 503e ba5b 3f3e
00000160: 1dda 2b3e a497 523e 9bfc 28be 89af 0dbe
00000170: 5ecd 083e 89b5 5f3e dde5 603a caa5 4c3e
00000180: e9f5 9d3d 5f1a 8b3e 421e 093e 0d09 0f3e
00000190: 9ec3 24bd 507e 203e eaff 8b3d 8fa0 033e
000001a0: 1df5 5b3e 77cd e83d 605d 063e a8c6 123e
000001b0: 0da6 be3d 199c 333e 38d9 d63d 2fac 393e
000001c0: 7dd2 4abe c649 a2bc a86d 103e 13b3 a7bd
000001d0: baeb 15be 4b37 6cbd 263d 81bc 9710 203e
000001e0: b955 3dbe 222f 243e ed88 583e 26af e7bd
000001f0: 6ff0 993d 625b 8d3d f9fb 143e a051 3d3d

network_body._body_endoder.seq_layers.2.weight f4 [128, 128]
-0.07968177 0.083965056 -0.073394075 -0.10400961 0.017550146 -0.21468383 -0.16217801 -0.056443043
0.012216396 -0.106455445 0.059945684 0.0067805112 -0.13185939 0.08397905 -0.03287734 -0.004665087
-0.014031399 -0.11240318 0.21180746 0.02731509 -0.066770986 -0.093505874 0.08963534 0.029971028
0.11972032 0.05813487 0.10150112 -0.19579342 -0.05127493 0.11155937 -0.085078284 -0.030819144
-0.08042741 0.15220019 -0.06336618 -0.047858886 0.051914558 0.096627116 0.08676372 0.13614948
0.06663603 0.052351285 -0.07317619 0.07095796 0.022226969 -0.19093317 0.11343733 0.08014917
-0.06117842 -0.0864641 0.04023543 -0.07928709 0.09606584 0.11499675 -0.12213344 -0.011224507
-0.019647043 -0.052776992 0.11191632 0.0038476011 -0.06766534 0.018425524 0.07929334 -0.048183132
-0.1003078 0.0780975 -0.0313338 -0.036500975 0.16291215 -0.04983304 -0.07482518 0.06726574
0.09627872 -0.13405786 -0.24587598 -0.015260674 0.2025748 0.013936974 0.23717335 -0.008293213
0.026530266 -0.0701913 -0.05396905 0.22217716 -0.13354714 -0.047142882 0.11980682 -0.07629533
-0.1285659 -0.024280908 -0.23237759 0.10506385 -0.06514918 -0.11653053 0.07782122 -0.09226517
0.07695431 0.17344202 0.011745349 -0.0014852758 -0.025810694 -0.09667974 0.10740791 -0.025523786
0.2553801 0.03716422 -0.073371954 0.09925058 -0.08129159 -0.0819233 -0.06830623 -0.08154128
0.025998864 -0.052383494 0.012805897 0.2480493 0.0893703 -0.03663207 -0.051708225 -0.072935596
-0.18309018 -0.09492084 0.22224918 0.09154009 0.008234062 -0.040670782 -0.057198267 0.15621871
0.022845779 -0.0079812 -0.015423251 -0.14152332 0.02284128 -0.027377531 -0.010362405 -0.11181543
0.17352861 -0.056690425 -0.0773693 0.09829943 -0.012619825 -0.22419223 -0.019026587 -0.0862332
-0.051553532 0.0011583868 0.17206731 0.037774563 0.06671462 0.017656917 -0.021527689 0.0036234462
-0.012594251 -0.07695948 0.13059711 -0.0074016727 0.050032213 -0.023649216 -0.032711644 -0.007141572
-0.1412952 0.02860728 -0.07288054 0.079046525 -0.16068983 0.104413 -0.17463806 -0.06313429
0.08601273 0.053099744 0.05345091 -0.028417876 0.053327184 -0.030449327 0.18730654 -0.013516517
0.09496494 -0.024690107 0.28009722 -0.061343696 -0.09518226 -0.10932044 -0.07533101 0.11173943
0.08140763 0.107194155 -0.058840852 0.04961992 0.0017879202 0.059042893 -0.0983095 0.066329546
-0.1710444 -0.1552608 0.090548806 0.034726627 0.05125722 0.03624274 -0.096668676 0.127269
-0.0049695405 0.027700612 -0.10438057 -0.07894157 -0.05505446 -0.081676304 0.034921132 0.07342483
-0.003342787 0.0050027454 -0.0030133151 0.09041414 0.02335103 0.1440083 0.13382283 -0.07430258
-0.21411994 0.18848208 0.062466703 -0.01151773 -0.113459304 -0.025630508 -0.10185683 0.16896404
0.10055875 0.14026119 -0.06273071 -0.10780252 -0.08958902 -0.044260383 -0.04383773 -0.14444393
0.013202584 0.01806798 0.011595636 -0.06693208 -0.030005362 0.050542347 0.016976021 0.026522562
0.03515975 0.0060935295 -0.0128160175 0.0068989615 -0.12566037 -0.01268431 -0.11809193 -0.022557283
-0.01500511 -0.22511716 -0.07083855 0.124571286 0.17705108 0.113630585 0.03710262 -0.05585736
00000000: 3230 a3bd dff5 ab3d a24f 96bd fe02 d5bd
00000010: 53c5 8f3c 14d6 5bbe fe11 26be d230 67bd
00000020: 4727 483c 5005 dabd 9b89 753d 0d2f de3b
00000030: 2606 07be 35fd ab3d 64aa 06bd 96dd 98bb
00000040: f4e3 65bc a333 e6bd 0ee4 583e e5c3 df3c
00000050: 3abf 88bd 0280 bfbd bc92 b73d cd85 f53c
00000060: ed2f f53d d41e 6e3d d2df cf3d 127e 48be
00000070: a905 52bd 3d79 e43d 863d aebd 6e78 fcbc
00000080: 20b7 a4bd 5eda 1b3e 21c6 81bd ae07 44bd
00000090: 5ca4 543d 70e4 c53d 2db1 b13d c56a 0b3e
000000a0: 7978 883d 4d6e 563d 66dd 95bd 6852 913d
000000b0: 5515 b63c fc83 43be d551 e83d 3f25 a43d
000000c0: 3996 7abd 1714 b1bd e8cd 243d 4561 a2bd
000000d0: 2bbe c43d 6b83 eb3d 1921 fabd ffe6 37bc
000000e0: d6f2 a0bc b02c 58bd 6234 e53d 0928 7c3b
000000f0: 2094 8abd 20f1 963c 8c64 a23d ad5b 45bd
00000100: 2d6e cdbd 95f1 9f3d df57 00bd 0c82 15bd
00000110: 71d2 263e bb1d 4cbd f23d 99bd 9fc2 893d
00000120: c72d c53d 7746 09be eac6 7bbe e807 7abc
00000130: c56f 4f3e e857 643c 92dd 723e 42e0 07bc
00000140: 0056 d93c 75c0 8fbd a70e 5dbd 6982 633e
00000150: 95c0 08be e518 41bd 475d f53d ba40 9cbd
00000160: c7a6 03be c1e8 c6bc 64f4 6dbe b72b d73d
00000170: ef6c 85bd 8fa7 eebd bb60 9f3d 85f5 bcbd
00000180: 399a 9d3d c99a 313e 906f 403c 96ad c2ba
00000190: f370 d3bc 0700 c6bd aef8 db3d 4217 d1bc
000001a0: 2ec1 823e 8239 183d 0944 96bd e343 cb3d
000001b0: 357c a6bd 67c7 a7bd 23e4 8bbd 1dff a6bd
000001c0: 92fb d43c 1390 56bd d3cf 513c a300 7e3e
000001d0: c707 b73d 820b 16bd 01cc 53bd 425f 95bd
000001e0: fe7b 3bbe db65 c2bd 4a95 633e 5f79 bb3d
000001f0: 29e8 063c 6896 26bd bb48 6abd ccf7 1f3e
00000200: 1227 bb3c 94c3 02bc ceb1 7cbc 7deb 10be
00000210: a31d bb3c d846 e0bc 14c7 29bc 7dff e4bd
00000220: 7cb1 313e 3834 68bd cc73 9ebd 3651 c93d
00000230: 62c3 4ebc a692 65be a5dd 9bbc 089b b0bd
00000240: cc29 53bd 03d5 973a 6a32 303e 80b9 1a3d
00000250: ada1 883d 3da5 903c d65a b0bc 5777 6d3b
00000260: 1e58 4ebc ef9c 9dbd 40bb 053e bb89 f2bb
00000270: 94ee 4c3d 00bc c1bc a5fc 05bd d903 eabb
00000280: b0af 10be d159 ea3c 6442 95bd 25e3 a13d
00000290: e08b 24be 7cd6 d53d 52d4 32be 8d4c 81bd
000002a0: 7127 b03d 1e7f 593d 57ef 5a3d 9bcc e8bc
000002b0: 9b6d 5a3d de70 f9bc 49cd 3f3e 6274 5dbc
000002c0: fa7c c23d e842 cabc e768 8f3e 8743 7bbd
000002d0: ebee c2bd 65e3 dfbd 2547 9abd a4d7 e43d
000002e0: 0bb9 a63d 9c88 db3d 1b03 71bd 423e 4b3d
000002f0: a658 ea3a f6d6 713d 7e56 c9bd c9d7 873d
00000300: 4326 2fbe b0fc 1ebe a771 b93d 823d 0e3d
00000310: 17f3 513d 4473 143d 3afa c5bd ce52 023e
00000320: 87d7 a2bb 65ec e23c 7bc5 d5bd 1eac a1bd
00000330: c980 61bd e845 a7bd 7609 0f3d c25f 963d
00000340: a912 5bbb 12ee a33b 0a7b 45bb 0c2b b93d
00000350: a94a bf3c e976 133e da08 093e f32b 98bd
00000360: 4242 5bbe 7201 413e 16dd 7f3d dcb4 3cbc
00000370: 5a5d e8bd 12f7 d1bc 509a d0bd e904 2d3e
00000380: bff1 cd3d a1a0 0f3e f578 80bd 91c7 dcbd
00000390: 737a b7bd 604a 35bd 318f 33bd 1ce9 13be
000003a0: a74f 583c 4d03 943c 9ffb 3d3c b013 89bd
000003b0: cecd f5bc 7e05 4f3d 4c11 8b3c d845 d93c
000003c0: ac03 103d 3bac c73b 46fa 51bc af10 e23b
000003d0: 1dad 00be dad1 4fbc 2fda f1bd 0dca b8bc
000003e0: fed7 75bc 1d85 66be cd13 91bd 3b1f ff3d
000003f0: e14c 353e 27b7 e83d ebf8 173d b0ca 64bd

network_body._body_endoder.seq_layers.2.bias f4 [128]
0.046905633 -0.0024511425 0.17679508 0.10471449 0.0740222 -0.05041311 0.10795502 -0.00906875
-0.15433264 0.1540751 -0.07328205 0.12390158 -0.0489397 -0.13034032 0.05736922 0.18999018
-0.13594091 -0.122752726 -0.14970735 0.1813065 -0.03414835 0.16215935 0.07135251 -0.0876089
0.08115161 0.10565746 -0.16104914 -0.082744956 -0.07900028 -0.030629685 0.14847569 -0.15031299
-0.15631782 0.14138703 0.047127537 -0.1378246 -0.1434833 0.03481918 -0.15209807 0.041609786
-0.06385618 0.08748578 0.10603841 0.041631673 0.053961247 0.10895523 0.12317278 -0.11576575
0.10835823 -0.07930464 -0.034024037 -0.0825479 -0.1493711 -3.6064248e-06 -0.07870949 0.13815874
-0.08814312 -0.038195465 0.12624869 -0.15353546 -0.12050276 -0.10235426 -0.025330126 0.19920152
0.086866416 -0.11333568 0.09872393 -0.15385933 0.020049207 -0.08624049 -0.13076673 0.011397015
0.038477212 -0.1451945 0.076253615 0.10501392 -0.119320504 -0.12690336 -0.14679651 0.046542827
-0.1524773 0.14327809 0.19309276 -0.096849844 -0.11810117 -0.03161957 0.10136142 -0.058701035
-0.13350162 -0.08622205 0.16734864 -0.0980821 0.1428152 -0.11236471 -0.13773982 -0.13331686
0.17995627 -0.08629414 -0.05968182 0.10490182 0.07994453 -0.15270153 -0.13479602 -0.09599241
0.10188612 0.14632817 0.04544924 0.08764455 0.062108535 0.028846085 0.098158926 -0.12682651
0.1171129 0.13624287 0.10533234 -0.06931719 0.14827439 0.12375052 -0.14945012 0.12410024
0.18650058 -0.10098029 -0.115360506 0.09702569 0.1173446 -0.17827997 0.035178974 0.010357444
00000000: 1f20 403d 59a3 20bb c509 353e 8d74 d63d
00000010: f498 973d fa7d 4ebd 8617 dd3d 1895 14bc
00000020: 6009 1ebe ddc5 1d3e e614 96bd 1dc0 fd3d
00000030: ff74 48bd ef77 05be fdfb 6a3d c98c 423e
00000040: 1834 0bbe c865 fbbd e24c 19be 69a8 393e
00000050: 24df 0bbd 1a0d 263e 4421 923d 4c6c b3bd
00000060: d132 a63d f062 d83d 11ea 24be 3076 a9bd
00000070: e6ca a1bd 1beb fabc 030a 183e a6eb 19be
00000080: c711 20be c3c7 103e ce08 413d e421 0dbe
00000090: 49ed 12be 8e9e 0e3d 99bf 1bbe 066f 2a3d
000000a0: 07c7 82bd bf2b b33d aa2a d93d f985 2a3d
000000b0: 7806 5d3d eb23 df3d 0342 fc3d 9816 edbd
000000c0: ebea dd3d 796a a2bd ca5c 0bbd e00e a9bd
000000d0: bdf4 18be e805 72b6 7132 a1bd 7c79 0d3e
000000e0: 6184 b4bd d972 1cbd 5647 013e 6638 1dbe
000000f0: 27ca f6bd 1c9f d1bd 2081 cfbc 7cfb 4b3e
00000100: 05e7 b13d 891c e8bd c62f ca3d 4d8d 1dbe
00000110: 3c3e a43c db9e b0bd b7e7 05be 8cba 3a3c
00000120: 489a 1d3d dead 14be db2a 9c3d 8a11 d73d
00000130: 4f5e f4bd f4f2 01be d351 16be b1a3 3e3d
00000140: 0223 1cbe 7eb7 123e 1cba 453e 3659 c6bd
00000150: 07df f1bd 8683 01bd 9396 cf3d 7f70 70bd
00000160: a6b4 08be 3095 b0bd 715d 2b3e 45df c8bd
00000170: 263e 123e 781f e6bd ab0b 0dbe 3784 08be
00000180: 7546 383e fbba b0bd ed74 74bd c4d6 d63d
00000190: f5b9 a33d ca5d 1cbe f807 0abe ab97 c4bd
000001a0: aca9 d03d 0dd7 153e fb28 3a3d fc7e b33d
000001b0: 8565 7e3d a04e ec3c 8c07 c93d cfde 01be
000001c0: e3d8 ef3d 4083 0b3e 7bb8 d73d 2cf6 8dbd
000001d0: 3ed5 173e ea70 fd3d 7409 19be 4428 fe3d
000001e0: 02fa 3e3e c1ce cebd 2142 ecbd 68b5 c63d
000001f0: 5e52 f03d 068f 36be d417 103d 45b2 293c

action_model._discrete_distribution.branches.0.weight f4 [3, 128]
0.014587327 0.009639474 0.029626528 0.0067177787 0.034576528 0.015974818 0.014312345 -0.022544827
-0.035789546 0.0333523 -0.022514664 0.005234569 -0.024787804 0.003952603 0.019389287 0.035081394
-0.038581673 -0.032655492 -0.027293595 0.03489671 -0.026552849 0.054634485 0.0079736095 0.008845207
0.018253094 0.013964579 -0.019317592 0.019248426 -0.0076460326 -0.019769298 0.040971808 -0.038798064
-0.0317745 0.010696623 -0.0013454692 -0.0046007563 -0.05615385 0.006670004 -0.038017187 0.019001586
0.008605217 0.000112719936 0.01326432 0.013309835 0.01157432 0.020655163 0.0116441 -0.0006286183
0.019978154 -0.02841085 0.027261041 -0.0198332 -0.04398026 0.010128345 -0.016746769 0.032576386
-0.026818082 -0.010799728 0.027604826 -0.035528407 -0.041004233 -0.04183837 0.0139057245 0.03627721
0.025436943 -0.033423267 0.02660956 -0.06784763 -0.00077122246 -0.024407018 -0.04829611 0.009307057
0.0054379962 -0.04960516 0.01852594 0.010273869 0.004254312 -0.037748802 -0.041557916 -0.0077674394
-0.025898095 0.02359598 0.045554396 -0.009290416 -0.036926072 -0.02222752 -0.003255682 -0.002883044
-0.065931596 -0.028710347 0.012789102 -0.011956582 0.03494335 -0.034255937 -0.034007277 -0.04722498
0.03527673 -0.020998284 0.0055029322 0.011949109 0.011688337 -0.031944573 -0.023168715 -0.027214192
0.040522244 0.016437024 -0.00013572947 0.030340128 0.015458369 0.020567859 0.019117977 -0.047966417
0.032985892 0.011854803 0.021894222 -0.012255981 0.03203976 0.013949677 -0.04001797 0.053868175
0.0175845 -0.0019304522 -0.038850754 -0.006950902 0.03093192 -0.04354113 0.007166756 -0.0081950845
-0.0067246417 -0.025135996 0.04623872 0.015963549 -0.005544592 -0.022670588 0.02832289 -0.004613178
-0.07042099 0.046938404 -0.03711991 0.032403175 0.00027822139 -0.04196736 0.017951777 0.01896872
-0.052451197 -0.0042953044 -0.032134093 0.0325543 0.0032393176 0.03035347 0.021568844 -0.054832503
0.0041499715 0.006791744 -0.052121975 -0.05548094 -0.05793548 -0.012024087 0.015343826 -0.0622825
-0.061336894 0.006866565 0.0059592067 -0.035235178 -0.05565802 0.0043481975 -0.053790234 -0.0027498603
-0.007901223 0.009548996 0.010108829 0.0004838118 0.0018948787 0.010228692 0.015643755 -0.030372888
0.016748916 -0.024215791 -0.030803042 -0.0046799364 -0.05580388 -0.01326264 -0.0076646935 0.029809944
-0.03765649 0.00543373 0.028839717 -0.044485595 -0.040802762 -0.013618573 -0.016292613 0.04909412
-0.0015183544 -0.037003025 0.0087164845 -0.041234244 0.00820679 -0.04783707 -0.028232755 0.0060210535
0.006849468 -0.029052202 0.014731639 0.009250652 -0.051373295 -0.07416948 -0.052683774 -0.0047682757
-0.026468972 0.007735544 0.05770253 -0.025388326 -0.05080228 -0.008994933 0.022710755 0.00030832936
-0.02489678 0.0022725542 0.015922455 -0.01753679 0.029607086 -0.0374365 -0.024410155 -0.06955677
0.03137709 -0.0019264147 -0.01803553 0.02006312 0.0285374 -0.054468017 -0.016265417 -0.034963645
0.022964187 0.034475572 0.00045077276 0.0069738645 0.0073063285 -0.0054627177 0.01690018 -0.06191748
0.011728034 0.037802108 0.0026466115 -0.05403166 0.021300178 0.018701717 -0.061208535 -0.00057253125
0.08488329 -0.0509582 -0.029152926 0.013492675 0.012615328 -0.050604578 0.0075259744 0.008327441
00000000: afff 6e3c e2ee 1d3c 55b3 f23c d020 dc3b
00000010: 1ea0 0d3d 9fdd 823c 537e 6a3c eeaf b8bc
00000020: 0f98 12bd 6c9c 083d ac70 b8bc bf86 ab3b
00000030: cb0f cbbc d684 813b 48d6 9e3c 82b1 0f3d
00000040: d107 1ebd c4c1 05bd d196 dfbc daef 0e3d
00000050: 5c85 d9bc 69c8 5f3d bea3 023c 7deb 103c
00000060: 8387 953c b1cb 643c ed3f 9ebc e0ae 9d3c
00000070: 928b fabb 39f3 a1bc 0ed2 273d b8ea 1ebd
00000080: fa25 02bd e340 2f3c 745a b0ba f1c1 96bb
00000090: 9401 66bd 0d90 da3b e9b7 1bbd 37a9 9b3c
000000a0: e5fc 0c3c 0e64 ec38 9752 593c 7f11 5a3c
000000b0: 37a2 3d3c 0435 a93c e5c6 3e3c dcc9 24ba
000000c0: 3aa9 a33c dfbd e8bc 8c52 df3c 3c79 a2bc
000000d0: a524 34bd 5cf1 253c 8530 89bc d16e 053d
000000e0: 98b1 dbbc 58f1 30bc 8423 e23c 3c86 11bd
000000f0: 0ef4 27bd b65e 2bbd d6d4 633c 6997 143d
00000100: 2361 d03c d6e6 08bd 4bfc d93c b3f3 8abd
00000110: dd2b 4aba 3af1 c7bc 24d2 45bd a07c 183c
00000120: 3831 b23b c82e 4bbd b6c3 973c bb53 283c
00000130: c167 8b3b 7d9e 1abd a238 2abd 0186 febb
00000140: 3e28 d4bc 5b4c c13c 3f97 3a3d d436 18bc
00000150: cb3f 17bd 7d16 b6bc 485d 55bb 74f1 3cbb
00000160: 2507 87bd f631 ebbc 6289 513c 8ae5 43bc
00000170: c220 0f3d f44f 0cbd 374b 0bbd fb6e 41bd
00000180: 557e 103d 9804 acbc f151 b43b 32c6 433c
00000190: 7080 3f3c 50d8 02bd 51cc bdbc 4cf0 debc
000001a0: a7fa 253d f0a6 863c 9a52 0eb9 dc8b f83c
000001b0: 1945 7d3c ed7d a83c 4e9d 9c3c 6f78 44bd
000001c0: 371c 073d a63a 423c 835b b33c 4fcd 48bc
000001d0: 203c 033d 308d 643c e2e9 23bd e0a4 5c3d
000001e0: 5f0d 903c 3a07 fdba f821 1fbd 64c4 e3bb
000001f0: f064 fd3c 2f58 32bd 1bd7 ea3b ad44 06bc
00000200: 625a dcbb 01ea cdbc d064 3d3d fdc5 823c
00000210: 69af b5bb abb7 b9bc 6805 e83c 242a 97bb
00000220: e138 90bd 7c42 403d 0c0b 18bd 31b9 043d
00000230: 3ede 9139 f7e5 2bbd 9b0f 933c 4a64 9b3c
00000240: 11d7 56bd a0bf 8cbb 0a9f 03bd a857 053d
00000250: bb4a 543b d7a7 f83c 25b1 b03c 0c98 60bd
00000260: 7cfc 873b 478d de3b da7d 55bd fb3f 63bd
00000270: c14d 6dbd ad00 45bc ac64 7b3c ef1b 7fbd
00000280: 653c 7bbd ec00 e13b 7345 c33b c352 10bd
00000290: aaf9 63bd 537b 8e3b 2653 5cbd 0037 34bb
000002a0: 2274 01bc 6473 1c3c 809f 253c 1fa8 fd39
000002b0: 945d f83a 3e96 273c 5527 803c 90d0 f8bc
000002c0: 0635 893c 3260 c6bc a956 fcbc 275a 99bb
000002d0: 9c92 64bd 8b4b 59bc 1c28 fbbb fc33 f43c
000002e0: b13d 1abd 6e0d b23b 4541 ec3c 8736 36bd
000002f0: cc20 27bd 6f20 5fbc 1678 85bc ea16 493d
00000300: 8503 c7ba 7c90 17bd 96cf 0e3c 3de5 28bd
00000310: c675 063c cef0 43bd 6148 e7bc 424c c53b
00000320: 8171 e03b e2fe edbc f95c 713c 0c90 173c
00000330: ce6c 52bd 2be6 97bd f1ca 57bd 323f 9cbb
00000340: 75d5 d8bc 727a fd3b 7d59 6c3d 2efb cfbc
00000350: 0d16 50bd 7c5f 13bc e80b ba3c 44a7 a139
00000360: 55f4 cbbc 22ef 143b cf6f 823c 50a9 8fbc
00000370: 8f8a f23c 0457 19bd cef7 c7bc c873 8ebd
00000380: 4385 003d c07f fcba 3fbf 93bc 6a5b a43c
00000390: 44c7 e93c db19 5fbd 0d3f 85bc 0a36 0fbd
000003a0: 641f bc3c 4236 0d3d b255 ec39 0485 e43b
000003b0: ed69 ef3b 9900 b3bb 3f72 8a3c 2f9d 7dbd
000003c0: f126 403c 62d6 1a3d c672 2d3b 4d50 5dbd
000003d0: b67d ae3c 5834 993c cdb5 7abd ec15 16ba
000003e0: 4ad7 ad3d 8cb9 50bd 1ed2 eebc 6110 5d3c
000003f0: 85b0 4e3c bf46 4fbd 739c f63b d26f 083c

action_model._discrete_distribution.branches.0.bias f4 [3]
0.054521192 0.06477769 -0.112676166
00000000: 9d51 5f3d 2aaa 843d c3c2 e6bd

action_model._discrete_distribution.branches.1.weight f4 [3, 128]
0.03544687 0.04215256 0.0074368683 -0.038068887 0.0056635733 0.033657856 0.002623281 0.007890051
0.009708066 0.022339 0.016402042 -0.01718143 0.011047958 -0.030898847 -0.009270244 0.019634357
7.6532255e-05 -0.010240484 0.007338456 -0.011072209 0.03050892 -0.011198491 -0.035840936 -0.023322085
0.010849143 0.022342192 -0.00034047046 0.03498811 0.008176105 0.021808827 0.026252037 -0.0107
0.025396544 0.014359567 -0.02014994 -0.0049175727 0.0050917002 0.025438167 -0.009292975 -0.009854863
0.0056637344 0.024403693 0.0016834015 0.018430833 -0.027243061 0.0336675 0.0031325212 -0.020411966
-0.0052029104 0.021447334 -0.02675544 0.02082691 -0.016729124 -0.0246663 -0.023975415 0.019498141
0.015190165 -0.0028466664 0.021628162 0.0115278335 -0.009079288 -0.02990613 -0.0022861916 -0.020117
0.00934794 0.034066793 -0.02341949 -0.007754219 0.0064996863 0.006077752 0.037492488 -0.019544067
-0.007324446 0.015609968 -0.024697823 -0.012562219 -0.01311856 0.022332605 0.008640437 0.020577762
0.016031995 0.008971445 0.0038999605 0.030344257 0.012541736 0.023269083 0.0393426 0.00883876
-0.01163802 -0.023698004 -0.023178093 0.007942421 0.0074305884 0.026502583 0.007462579 -0.0010342005
0.023833523 0.013303685 0.008763102 0.025989687 -0.057543255 0.00852737 -0.014936424 0.043539774
0.0026180092 0.024616806 0.0019475212 -0.0064956504 -0.039518874 -0.006660476 -0.007864257 -0.009324761
0.01567656 -0.016330166 0.028464453 -0.006012312 0.012552125 0.024210628 1.7443264e-05 -0.029100748
0.018457163 -0.003935831 0.02475898 0.0076589566 0.023765447 0.021317784 -0.00913952 -0.0051497263
0.0015497745 -0.0017937601 -0.012474022 0.010121322 -0.016973712 -0.013606883 0.016136212 0.022560822
-0.01650947 -0.024969716 -0.003855924 -0.034119107 -0.0063189627 0.01611725 -0.0091056 0.02665144
-0.028116073 0.0019040264 -0.0014298718 0.0138155185 0.029670205 0.03754703 0.022630114 -0.030066526
-0.008654733 -0.012021509 0.0035726917 -0.000571674 -0.04916998 -0.023532799 0.0106164245 -0.008709542
0.00455789 -0.011921821 2.8362783e-06 -0.008681728 -0.0067537446 -0.0064882147 -0.02962078 -0.004619386
-0.00965114 -0.033757363 0.022452323 -0.0061418205 0.016669465 -0.014570831 0.020351289 0.004973311
0.006261995 0.008666026 -0.016636064 -0.009580853 -0.011182073 -0.0059173177 2.8829581e-05 0.00661416
0.020191055 -0.0012457765 0.02470325 0.003731227 -0.012213558 -0.0049239136 0.0022721596 0.040483333
0.012243013 -0.007385779 0.008450378 0.0037336869 0.045595553 0.042802107 -0.017598448 -0.04236372
-0.02379626 -0.0151935145 -0.003909706 -0.037062764 -0.007883405 -0.0019213746 0.00643329 -0.0010671015
-0.0045101475 -0.020897128 -0.04446145 7.530201e-06 0.019149605 0.013219343 0.052438803 -0.008420696
0.017045299 0.011370635 -0.003813932 -0.016057918 -0.039797306 -0.016580101 -0.013296996 -0.0046685315
-0.0022249436 -0.019878004 -0.026961438 -0.0040803 0.037048366 0.009295776 0.020758316 -0.01240539
-0.013960677 -0.029447256 0.00020637905 0.029437708 0.04086289 -0.022617392 -0.018015224 -0.045487113
0.0018225029 0.0010301813 0.009065635 -0.00044496273 0.00435847 0.022122005 -0.008607734 0.0054304195
-0.023552977 0.037148774 0.00091674994 0.07406674 0.03201025 -0.008569967 -0.0063829143 0.010396901
00000000: bd30 113d 2aa8 2c3d f9b0 f33b 1fee 1bbd
00000010: 7f95 b93b d2dc 093d 5aeb 2b3b 4645 013c
00000020: 940e 1f3c 4700 b73c 935d 863c 12c0 8cbc
00000030: 7f02 353c 941f fdbc 39e2 17bc 3bd8 a03c
00000040: f17f a038 b4c7 27bc 6e77 f03b 3668 35bc
00000050: d8ed f93c e079 37bc f2cd 12bd f50d bfbc
00000060: 9bc0 313c f906 b73c 2c81 b2b9 b14f 0f3d
00000070: 12f5 053c 6da8 b23c 830e d73c 0e4f 2fbc
00000080: 6a0c d03c 6444 6b3c 7d11 a5bc 9723 a1bb
00000090: 47d8 a63b b463 d03c 9041 18bc 4b76 21bc
000000a0: d996 b93b 41ea c73c 95a5 dc3a 42fc 963c
000000b0: d72c dfbc efe6 093d fc4a 4d3b ff36 a7bc
000000c0: 2d7d aabb 52b2 af3c 392e dbbc 329d aa3c
000000d0: 840b 89bc fb10 cabc 1768 c4bc 91ba 9f3c
000000e0: 2be0 783c 238f 3abb 8b2d b13c 3ddf 3c3c
000000f0: 4bc1 14bc b3fd f4bc eed3 15bb 68cc a4bc
00000100: 1a28 193c 9f89 0b3d 3bda bfbc 1b17 febb
00000110: 52fb d43b e127 c73b b991 193d e11a a0bc
00000120: e801 f0bb f4c0 7f3c 1753 cabc c4d1 4dbc
00000130: 3bef 56bc def2 b63c 9f90 0d3c b292 a83c
00000140: 8855 833c f8fc 123c 7b96 7f3b 8594 f83c
00000150: da7b 4d3c ce9e be3c b525 213d 72d0 103c
00000160: 65ad 3ebc 5122 c2bc fcdf bdbc ee20 023c
00000170: 4b7c f33b f21b d93c a688 f43b 038e 87ba
00000180: 853e c33c b3f7 593c 1d93 0f3c 53e8 d43c
00000190: 7ab2 6bbd 62b6 0b3c e7b7 74bc c356 323d
000001a0: e892 2b3b 2fa9 c93c f843 ff3a 77d9 d4bb
000001b0: 8bde 21bd 1f40 dabb 16d9 00bc e2c6 18bc
000001c0: 216c 803c d7c6 85bc 492e e93c ee02 c5bb
000001d0: 6ea7 4d3c 5e55 c63c 2053 9237 b164 eebc
000001e0: 7a33 973c 25f8 80bb 58d3 ca3c fcf7 fa3b
000001f0: c1af c23c a2a2 ae3c edbd 15bc 09bf a8bb
00000200: ce21 cb3a 9a1c ebba d75f 4cbc e7d3 253c
00000210: 740c 8bbc 67ef 5ebc 1730 843c 79d1 b83c
00000220: de3e 87bc 4a8d ccbc abb3 7cbb 7ac0 0bbd
00000230: 4d0f cfbb 5308 843c a82f 15bc 1f54 da3c
00000240: ae53 e6bc 8690 f93a 896a bbba 7c5a 623c
00000250: ee0e f33c eaca 193d ca62 b93c 134e f6bc
00000260: 95cc 0dbc ddf5 44bc d223 6a3b 65dc 15ba
00000270: 7666 49bd dbc7 c0bc 83f0 2d3c 78b2 0ebc
00000280: 5a5a 953b be53 43bc e456 3e36 ce3d 0ebc
00000290: 844e ddbb 179b d4bb 47a7 f2bc 385e 97bb
000002a0: d11f 1ebc 2945 0abd efed b73c 5341 c9bb
000002b0: 678e 883c 7fba 6ebc bfb7 a63c 28f7 a23b
000002c0: 6c31 cd3b f3fb 0d3c 5b48 88bc 03f9 1cbc
000002d0: 0335 37bc 0fe6 c1bb 0ed7 f137 98bb d83b
000002e0: b667 a53c 5349 a3ba 785e ca3c 9a87 743b
000002f0: 601b 48bc c858 a1bb 83e8 143b dad1 253d
00000300: eb96 483c 6804 f2bb 7473 0a3c dfb0 743b
00000310: 67c2 3a3d 4351 2f3d 9f2a 90bc 9485 2dbd
00000320: 60f0 c2bc 38ee 78bc fe1c 80bb 20cf 17bd
00000330: 6629 01bc a2d6 fbba 59ce d23b fcdd 8bba
00000340: dcc9 93bb 7430 abbc 361d 36bd efab fc36
00000350: a2df 9c3c f195 583c 12ca 563d f5f6 09bc
00000360: 95a2 8b3c e64b 3a3c 29f3 79bb e58b 83bc
00000370: 8002 23bd fed2 87bc a5db 59bc 7bfa 98bb
00000380: 5cd0 11bb 32d7 a2bc 3cde dcbc 0ab4 85bb
00000390: 07c0 173d 4f4d 183c 580d aa3c fa3f 4bbc
000003a0: 53bb 64bc 5f3b f1bc 7467 5839 5927 f13c
000003b0: d95f 273d 1c48 b9bc aa94 93bc b250 3abd
000003c0: 0de1 ee3a 2607 873a 0788 143c e349 e9b9
000003d0: 7fd1 8e3b 3539 b53c 7407 0dbc a9f1 b13b
000003e0: 2cf2 c0bc 5029 183d 0c52 703a 4eb0 973d
000003f0: 2e1d 033d 0c69 0cbc c427 d1bb c357 2a3c

action_model._discrete_distribution.branches.1.bias f4 [3]
-0.007041134 0.0030378415 0.0043996153
00000000: 50b9 e6bb 8616 473b a62a 903b

exp_avg f4 [128, 22]
0.000112410686 0.00018032659 0.0001734556 0.00021587414 0.00013072268 0.00021370457 -1.613778e-05 0.00014497888
-1.0630771e-05 0.00020701913 -4.6870887e-06 -0.00012311475 -5.7741286e-06 6.375914e-05 0.0002152386 5.9860204e-06
0.00027916423 -0.00013940949 1.684231e-07 0.00029736938 -6.343028e-05 4.0893585e-05 4.0192892e-05 9.3030496e-05
7.456935e-05 0.00010272561 5.9594826e-05 9.90709e-05 2.9651785e-05 2.6814007e-05 1.7730174e-05 8.011643e-05
8.612122e-06 0.00013015886 1.0609469e-05 -7.163996e-05 -0.00019607213 -1.8479539e-05 -0.0004588158 -8.76704e-06
-3.0946305e-07 -0.00041484297 0.00016086933 -0.00018694102 -7.092233e-05 -0.00017317868 5.07975e-06 -0.00013113131
-0.0001457337 -0.00025120587 1.2433325e-05 -0.00015669207 -7.4008305e-05 -0.00054159464 3.61116e-06 0.00028727992
4.448667e-06 -0.00027715368 -0.00036576024 7.6309836e-05 0.00054273027 5.5856726e-06 -1.2976142e-07 0.0004773609
0.0001626829 -4.8925518e-05 -0.00019135253 -0.00031797835 -0.00014484643 -0.00025473247 -0.00023066325 -0.0003732964
-5.5274504e-06 -0.00012269068 -3.079984e-05 -0.00046078186 -1.6053982e-06 0.00015299217 -1.9777299e-06 -0.00022652093
-0.00019301886 9.2733026e-05 0.0007483369 0.000106453335 5.7687544e-08 0.00065281655 2.0846746e-05 -6.3814194e-05
9.03505e-05 0.00011138485 0.00016298082 0.00014364641 0.00019670748 0.00017535848 -1.497692e-06 1.0263899e-05
1.16712135e-05 3.6618243e-05 -4.349925e-07 -9.891737e-07 -5.358755e-07 1.6162545e-05 1.46925795e-05 7.698894e-06
3.236287e-05 -1.0356384e-06 1.5630784e-08 5.0538853e-05 -4.311761e-05 6.342585e-06 -3.9518833e-05 -9.558835e-05
-5.2777723e-05 -8.382314e-05 -3.132067e-05 -9.3672206e-05 -2.151042e-05 -2.8210525e-07 -1.9749365e-05 -0.00011217673
-6.247528e-06 -6.065005e-05 -7.696477e-06 -3.299954e-05 0.00010216082 7.144295e-05 0.0007028886 4.336675e-05
2.244953e-07 0.0006496678 -0.0001229585 2.0213658e-05 0.0002191621 0.00013477751 0.00015531821 5.7344074e-05
0.00021330419 0.000108847744 3.0871703e-05 -0.0001000372 5.42875e-05 -0.00013448573 8.966439e-06 0.000101334415
1.1045953e-05 -2.6250087e-05 -0.0001302938 -6.736842e-05 -0.0007042784 -2.204235e-05 -3.221948e-07 -0.0006612023
0.00020261183 -2.8192222e-05 -2.7828878e-06 5.6440895e-06 -9.639545e-06 8.742012e-06 -3.591136e-05 -1.17970485e-05
3.060814e-06 3.3422297e-05 -9.279505e-07 1.5629292e-05 8.889894e-07 3.8738188e-05 1.0951662e-06 -3.6341706e-05
-5.0766575e-05 -1.0936054e-05 -9.17106e-05 -6.948074e-05 -3.1944452e-08 -8.714155e-05 3.7174475e-05 -8.354266e-06
7.946101e-05 0.00015817164 6.262934e-05 0.0001400571 0.00014141145 0.00021411332 -1.0223028e-05 0.00010491918
4.143268e-06 0.000252567 -2.9691953e-06 -7.989388e-05 -3.6578194e-06 0.00012888183 0.00011966768 -3.7444006e-05
-0.00015266586 -4.2195634e-06 1.06693406e-07 -0.00011205752 -0.00013389731 -4.034293e-06 1.3099169e-05 -9.546162e-05
7.884284e-06 -0.00010268799 3.0328312e-05 -0.00011893776 1.3005616e-05 -0.0001592844 -6.716052e-05 -0.00035068867
3.7773777e-06 8.293902e-05 4.6534324e-06 -0.00018335119 -9.6731936e-05 0.0001410663 0.0008343096 5.043835e-05
-1.3573408e-07 0.00076917064 0.00018399367 -0.000110156994 -3.0397434e-05 -8.339501e-06 -8.231755e-05 -3.707003e-05
-0.0002094771 -0.00011439348 3.5250564e-06 -3.3551296e-05 6.77906e-07 -5.9260827e-05 1.0238255e-06 7.448943e-06
1.2612744e-06 3.2039836e-05 -1.5431451e-05 -2.1037966e-05 -8.223466e-05 0.00015630944 -3.6789515e-08 -7.376142e-05
-7.752988e-05 6.167227e-05 7.8170484e-07 -1.1204409e-05 1.4159967e-05 3.4767172e-06 3.425746e-05 1.0286458e-06
1.018384e-05 2.5929516e-05 3.031996e-06 -8.961557e-05 2.9578143e-06 0.00010126035 3.6437982e-06 -0.00010779448
00000000: 07be eb38 0d16 3d39 a2e1 3539 465c 6239
00000010: 9a12 0939 e215 6039 9e5f 87b7 7905 1839
00000020: d05a 32b7 4613 5939 c945 9db6 5d18 01b9
00000030: 63bf c1b6 6db6 8538 acb1 6139 86db c836
00000040: ca5c 9239 732e 12b9 cad7 3434 3ee8 9b39
00000050: df05 85b8 2785 2b38 ca94 2838 5e19 c338
00000060: 1d62 9c38 646e d738 75f5 7938 49c4 cf38
00000070: b9bc f837 a4ee e037 42bb 9437 2e04 a838
00000080: c87c 1037 417b 0839 53ff 3137 693d 96b8
00000090: b698 4db9 8204 9bb7 378d f0b9 2616 13b7
000000a0: 4724 a6b4 487f d9b9 08af 2839 9905 44b9
000000b0: 23bc 94b8 4c97 35b9 b872 aa36 4b80 09b9
000000c0: 18d0 18b9 48b4 83b9 b998 5037 b54d 24b9
000000d0: e834 9bb8 cdf9 0dba 4257 7236 0f9e 9639
000000e0: c245 9536 f04e 91b9 82c3 bfb9 8808 a038
000000f0: 0346 0e3a 906c bb36 8c54 0bb4 4c46 fa39
00000100: dc95 2a39 6035 4db8 cea5 48b9 55b6 a6b9
00000110: ebe1 17b9 9d8d 85b9 32de 71b9 ffb6 c3b9
00000120: 7078 b9b6 87a6 00b9 142f 01b8 1895 f1b9
00000130: 1079 d7b5 866c 2039 24b9 04b6 4086 6db9
00000140: 1b65 4ab9 aa79 c238 0a2c 443a b33f df38
00000150: 20c4 7733 c721 2b3a 0ce0 ae37 fcd3 85b8
00000160: 8e7a bd38 4997 e938 d5e5 2a39 ca9f 1639
00000170: 4343 4e39 6fe0 3739 4e04 c9b5 1c33 2c37
00000180: 7bcf 4337 8a96 1938 ea88 e9b4 c0c3 84b5
00000190: 15d9 0fb5 cd94 8737 2680 7637 7f2a 0137
000001a0: 5ebd 0738 4400 8bb5 7544 8632 aef9 5338
000001b0: 2ed9 34b8 64d2 d436 06c1 25b8 9b76 c8b8
000001c0: a65d 5db8 35ca afb8 505e 03b8 e271 c4b8
000001d0: 4671 b4b7 4074 97b4 70ab a5b7 6c40 ebb8
000001e0: dba1 d1b6 7f62 7eb8 1e20 01b7 fc68 0ab8
000001f0: 2c3f d638 a4d3 9538 0e42 383a b1e4 3538
00000200: cc0c 7134 784e 2a3a 6cee 00b9 8090 a937
00000210: e1ce 6539 1053 0d39 eadc 2239 bb84 7038
00000220: 68aa 5f39 3045 e438 3d7c 0138 10cb d1b8
00000230: c2b2 6338 bd04 0db9 906e 1637 8083 d438
00000240: 0252 3937 a233 dcb7 7a9f 08b9 2548 8db8
00000250: 539f 38ba 96e7 b8b7 1efa acb4 8954 2dba
00000260: 3374 5439 567e ecb7 a6c1 3ab6 5c62 bd36
00000270: 88b9 21b7 a8aa 1237 879f 16b8 f0eb 45b7
00000280: 6268 4d36 eb2e 0c38 4618 79b5 a61b 8337
00000290: e3a2 6e35 d07a 2238 a0fd 9235 9c6d 18b8
000002a0: 32ee 54b8 ff79 37b7 c154 c0b8 30b6 91b8
000002b0: 4c33 09b3 c3bf b6b8 caeb 1b38 4d29 0cb7
000002c0: 4ea4 a638 e0da 2539 df57 8338 4bdc 1239
000002d0: d947 1439 9b83 6039 9283 2bb7 0e08 dc38
000002e0: 6706 8b36 f86a 8439 6342 47b6 b38c a7b8
000002f0: dc78 75b6 7424 0739 19f6 fa38 320d 1db8
00000300: ee14 20b9 c695 8db6 521f e533 6c00 ebb8
00000310: c966 0cb9 505e 87b6 81c4 5b37 9132 c8b8
00000320: be46 0437 325a d7b8 8e69 fe37 396e f9b8
00000330: b232 5a37 9505 27b9 88d8 8cb8 a3dc b7b9
00000340: db7e 7d36 8cef ad38 ae24 9c36 f641 40b9
00000350: 90dc cab8 32eb 1339 92b5 5a3a c48d 5338
00000360: 4dbe 11b4 2ba2 493a 6dee 4039 1604 e7b8
00000370: fefd feb7 e2e9 0bb7 e6a1 acb8 a47b 1bb8
00000380: 15a7 5bb9 88e6 efb8 0290 6c36 6eb9 0cb8
00000390: 58f9 3535 d48e 78b8 606a 8935 eff1 f936
000003a0: 0f49 a935 8362 0638 ca72 81b7 b07a b0b7
000003b0: 6675 acb8 ffe6 2339 8002 1eb3 5cb0 9ab8
000003c0: 8a97 a2b8 0c56 8138 59d6 5135 92fa 3bb7
000003d0: 9890 6d37 8c51 6936 abaf 0f38 0010 8a35
000003e0: 42db 2a37 3683 d937 4b79 4b36 feef bbb8
000003f0: dd7e 4636 bd5b d438 fa87 7436 b90f e2b8

exp_avg_sq f4 [128, 22]
2.538025e-07 5.8571675e-07 2.572071e-07 5.783163e-07 3.4120993e-07 7.49666e-07 4.5384138e-07 8.44006e-07
1.6536222e-07 8.709541e-07 3.26612e-08 9.207755e-07 9.757922e-08 8.722057e-07 1.3654828e-06 3.0919022e-08
7.847734e-06 1.6770719e-06 1.3823182e-12 6.5527015e-06 1.4191753e-06 2.3721875e-06 2.315464e-07 4.6577793e-07
2.955814e-07 4.92206e-07 1.90955e-08 2.8663405e-07 4.693286e-07 6.556281e-07 1.4092175e-08 4.1042426e-07
8.044225e-08 4.1566489e-07 1.9862478e-09 3.3089006e-07 4.20059e-07 2.2700942e-08 3.9982147e-06 5.513427e-07
1.0051737e-12 3.4507295e-06 2.1814563e-07 7.7491666e-07 8.210367e-07 1.0933514e-06 9.2607416e-07 1.0973386e-06
6.210416e-07 1.1455732e-06 1.6241549e-07 5.951211e-07 2.4316654e-07 1.1688468e-06 1.15507515e-08 8.218487e-07
2.0254664e-08 9.55283e-07 1.253428e-06 9.796017e-08 1.1169288e-05 6.63948e-07 2.4428847e-12 9.519777e-06
6.396205e-07 1.954064e-06 4.6640653e-07 5.775385e-07 4.7818725e-07 5.502406e-07 4.8584104e-07 6.9628794e-07
1.4892694e-08 2.4919134e-07 7.658722e-08 5.10201e-07 1.693034e-08 3.3961996e-07 3.6565627e-08 3.295703e-07
5.304837e-07 7.0247836e-08 4.9742275e-06 1.583614e-07 1.2030996e-12 4.174047e-06 3.8791978e-07 9.539851e-07
9.6314665e-08 1.0783679e-07 2.1210741e-07 2.0706831e-07 2.1506061e-07 2.1915007e-07 9.544622e-08 1.2924893e-07
6.4236964e-08 1.103311e-07 1.7583929e-08 1.194163e-07 1.1655325e-08 7.5471014e-08 1.3216201e-07 1.6557965e-09
1.08181794e-07 2.8270202e-09 9.130088e-14 1.1208154e-07 7.829047e-08 1.3135528e-07 7.525382e-08 4.160253e-07
1.7016987e-07 4.636773e-07 2.3492468e-08 4.0451994e-07 3.8677592e-07 7.0310324e-07 1.0526749e-08 6.1964295e-07
8.405838e-08 7.6540607e-07 2.7187095e-09 5.6046093e-07 8.9860663e-07 3.4617173e-08 6.893379e-06 5.578274e-07
1.2749261e-12 5.664976e-06 7.012938e-07 2.0726966e-06 2.7995022e-06 3.0542462e-06 3.281358e-06 3.5318408e-06
2.2341362e-06 2.7143562e-06 2.5503673e-06 3.275766e-06 3.7599676e-07 1.5590773e-06 2.992663e-07 3.0980775e-06
1.3649301e-07 1.9592537e-06 3.0414024e-06 8.140664e-08 9.716174e-06 8.745033e-07 2.6107129e-12 9.035258e-06
1.1479625e-06 4.2178795e-06 3.514326e-08 7.5277136e-08 3.14355e-08 7.611146e-08 2.2038044e-08 6.538623e-08
7.92764e-08 1.3027777e-07 1.344863e-08 8.6530164e-08 9.392421e-09 1.3411164e-07 5.2293005e-09 1.1574807e-07
1.915813e-07 3.1848615e-09 6.0356973e-07 2.302596e-07 1.2848086e-13 5.107041e-07 2.3830812e-07 3.0864055e-07
1.0111533e-07 2.0748179e-07 1.7028334e-07 2.6392954e-07 1.5420684e-07 2.9956828e-07 6.106566e-08 2.3678949e-07
6.642015e-08 3.0027346e-07 1.5948817e-08 4.0393132e-07 2.3449003e-08 3.7401787e-07 6.0675535e-07 1.141184e-08
2.5791137e-06 1.8601074e-07 4.716047e-13 2.1455928e-06 3.357963e-07 8.391995e-07 2.826205e-07 5.609968e-07
6.380888e-08 3.6528365e-07 1.5979322e-07 6.161613e-07 7.0553355e-08 4.5524652e-07 1.2721604e-07 8.776745e-07
7.990423e-09 6.3437955e-07 5.8440012e-08 7.714667e-07 1.0077758e-06 1.05335396e-07 7.91507e-06 4.3761656e-07
1.7409703e-12 6.5979016e-06 5.850796e-07 1.4051723e-06 1.5621362e-06 1.4635107e-06 1.3142062e-06 1.2112951e-06
1.5874776e-06 1.5518491e-06 2.6257828e-07 4.239509e-07 2.9162047e-07 5.734431e-07 8.1549073e-10 3.6870387e-07
2.7310408e-08 3.7207502e-07 5.290188e-07 1.7801455e-08 2.0377604e-06 2.1272798e-07 7.1858865e-13 1.9140853e-06
3.626627e-07 8.6897677e-07 1.7008719e-07 2.7750852e-07 2.2931566e-07 3.7986248e-07 5.6243493e-08 2.2855293e-07
6.406048e-07 7.7989694e-07 1.06672395e-07 3.555838e-07 5.7795187e-08 5.517842e-07 2.2139645e-07 5.524895e-07
00000000: 5a42 8834 263a 1d35 4616 8a34 983d 1b35
00000010: 892f b734 a83c 4935 7ca7 f334 a78f 6235
00000020: 6c8e 3134 83cb 6935 5f47 0c33 362b 7735
00000030: be8c d133 8521 6a35 a245 b735 d3cb 0433
00000040: c3a9 0337 c017 e135 438b c22b 47df db36
00000050: 7e7a be35 df31 1f36 fd9e 7834 0810 fa34
00000060: 66b0 9e34 2420 0435 7307 a432 afe2 9934
00000070: 08f8 fb34 6cfe 2f35 0b1a 7232 4858 dc34
00000080: 98bf ac33 8c28 df34 717e 0831 2fa5 b134
00000090: 7884 e134 e6ff c232 6728 8636 fbff 1335
000000a0: 3377 8d2b 1593 6736 6a3b 6a34 de03 5035
000000b0: 3665 5c35 45bf 9235 5597 7835 4448 9335
000000c0: a7b5 2635 98c1 9935 6e64 2e34 69c0 1f35
000000d0: 8e8c 8234 45e1 9c35 be70 4632 039d 5c35
000000e0: 7afc ad32 4637 8035 753b a835 2c5e d233
000000f0: ba63 3b37 293a 3235 19e7 2b2c 22b7 1f37
00000100: 63b2 2b35 9022 0336 6d66 fa34 2508 1b35
00000110: c75c 0035 3fb4 1335 be6a 0235 8be8 3a35
00000120: c3da 7f32 99c8 8534 4578 a433 bff4 0835
00000130: 366e 9132 0355 b634 550c 1d33 ccef b034
00000140: 9066 0e35 28db 9633 4ae8 a636 0d0a 2a34
00000150: 3b52 a92b ca0e 8c36 4a43 d034 ae0a 8035
00000160: 8cd5 ce33 e793 e733 a4bf 6334 8156 5e34
00000170: 69eb 6634 834f 6b34 1df8 cc33 adc7 0a34
00000180: a5f2 8933 2aef ec33 780b 9732 e738 0034
00000190: a93c 4832 a112 a233 6be8 0d34 2992 e330
000001a0: 9251 e833 7745 4231 6097 cd29 7ab1 f033
000001b0: a420 a833 aa0a 0d34 3a9b a133 155a df34
000001c0: f0b7 3634 53ef f834 7ccc c932 cc2c d934
000001d0: 14a6 cf34 e3bc 3c35 22d9 3432 8a55 2635
000001e0: 9583 b433 4e76 4d35 0bd4 3a31 9572 1635
000001f0: c737 7135 fcad 1433 ad4d e736 9bbd 1535
00000200: 0e6e b32b c615 be36 8b40 3c35 a818 0b36
00000210: 15df 3b36 8df7 4c36 4d35 5c36 9004 6d36
00000220: 2bee 1536 4928 3636 fa26 2b36 3bd5 5b36
00000230: 9adc c934 7d41 d135 d9aa a034 91e8 4f36
00000240: ea8e 1234 b97b 0336 e51a 4c36 c6d1 ae33
00000250: a602 2337 69bf 6a35 6cb6 372c 2396 1737
00000260: b113 9a35 4f87 8d36 6cf0 1633 0ba8 a133
00000270: b303 0733 b872 a333 2c4e bd32 766a 8c33
00000280: a93e aa33 7be2 0b34 b30b 6732 76d2 b933
00000290: 4e5c 2132 5400 1034 6aad b331 2d91 f833
000002a0: 77b5 4d34 addc 5a31 ff04 2235 473d 7734
000002b0: 16a8 102a 5217 0935 a3e1 7f34 3cb3 a534
000002c0: be24 d933 29c8 5e34 21d7 3634 33b2 8d34
000002d0: 0e94 2534 5ad4 a034 3423 8333 3340 7e34
000002e0: dda2 8e33 4535 a134 d2ff 8832 e6db d834
000002f0: e76c c932 a0cc c834 e9df 2235 ce0d 4432
00000300: d614 2d36 3eba 4734 b3be 042b 01fd 0f36
00000310: 7e47 b434 5a45 6135 11bb 9734 6897 1635
00000320: 4e07 8933 341c c434 a093 2b34 4866 2535
00000330: 1e83 9733 9b68 f434 e198 0834 5599 6b35
00000340: 4146 0932 3b4a 2a35 79ff 7a33 ca16 4f35
00000350: ea42 8735 bf34 e233 f7ca 0437 90f1 ea34
00000360: 1105 f52b 8b63 dd36 5d0e 1d35 5a99 bc35
00000370: 97aa d135 d86d c435 c863 b035 c893 a235
00000380: 5111 d535 2149 d035 7cf8 8c34 5e9b e334
00000390: 0390 9c34 b6ee 1935 0f29 6030 46f2 c534
000003a0: 3998 ea32 9ac1 c734 e501 0e35 d0e9 9832
000003b0: 75c0 0836 396a 6434 c543 4a2b bc73 0036
000003c0: fbb3 c234 a143 6935 36a1 3634 7bfc 9434
000003d0: cf39 7634 e7ef cb34 6090 7133 2768 7534
000003e0: 07f6 2b35 1c5a 5135 c513 e533 11e7 be34
000003f0: 7b3a 7833 521e 1435 feb8 6d34 ca4e 1435
