results/CurveRoad1.0/CarAgent.onnx (onnx, 83292 bytes, 7 tensors)

network_body._body_endoder.seq_layers.0.weight f4 [128, 22]
0	0xbe220410	-0.15821862
1	0x3d526c81	0.05137301
2	0xbebdc473	-0.3706394
3	0x3e7595e6	0.23982963
4	0x3e55d613	0.20882444
5	0xbeb58874	-0.35455668
6	0xbd30ffbf	-0.04321265
7	0xbe5abcd3	-0.21361093
8	0xbe61cf32	-0.22051695
9	0xbd84c033	-0.064819716
10	0x3d1eb59e	0.038747422
11	0xbe194acf	-0.14969943
12	0xbea8b29a	-0.32948762
13	0x3dd3c685	0.10340599
14	0xbd9e1c0b	-0.077201925
15	0x3cc0ac3f	0.023519633
16	0x3ea7d4b6	0.32779473
17	0xbeaf0e49	-0.34190586
18	0x3e28b63d	0.16475768
19	0xbef6b54b	-0.4818519
20	0xbe81b040	-0.2532978
21	0x3c86c634	0.016451932
22	0xbe828ef2	-0.25499684
23	0x3dcbcd8f	0.099513166
24	0xbedba1a3	-0.42896757
25	0x3e6e479f	0.23269509
26	0x3d80bcf3	0.06286039
27	0x3efaf8c7	0.49017927
28	0xbd5a3ffe	-0.053283684
29	0xbdaf2890	-0.085526586
30	0x3e185b03	0.14878468
31	0x3e9e2dbb	0.30894265
32	0xbd141e89	-0.036161933
33	0xbdbdffdf	-0.09277319
34	0x3e115c75	0.14195426
35	0x3e83acc4	0.25717747
36	0x3c6ab192	0.014324563
37	0x3db3839f	0.08765339
38	0xbe84f99e	-0.25971693
39	0x3ec9bed2	0.39403397
40	0x3cb7d89b	0.022442153
41	0x3e565623	0.20931296
42	0x3cf6b20e	0.0301142
43	0xbdefcbfc	-0.11708829
44	0x3da3aa81	0.079915054
45	0x3e753cf7	0.23949037
46	0xbdca1b8a	-0.09868534
47	0xbed7c663	-0.42143545
48	0xbe9ec18a	-0.31007034
49	0xbdafb5ca	-0.085795954
50	0x3daa3e0b	0.08312615
51	0x3ece287e	0.40265268
52	0x3c76fe5e	0.015075294
53	0x3e5666b5	0.20937617
54	0x3eacd042	0.33752638
55	0xbe1e0dba	-0.15434924
56	0x3dcb12d0	0.099156976
57	0x3d22c797	0.039741125
58	0xbe929182	-0.2862664
59	0x3b9926ab	0.004673799
60	0x3e54e027	0.20788632
61	0xbecaaea3	-0.39586362
62	0xbe07e54f	-0.13271068
63	0xbe21308d	-0.15741177
64	0x3bdb3437	0.006689574
65	0x3e5feda2	0.21867993
66	0xbe152f64	-0.1456886
67	0xbe014dd0	-0.1262734
68	0xbc6660d7	-0.014061174
69	0xbe9c348c	-0.3050884
70	0xbe87e60e	-0.26542705
71	0xbe1465f6	-0.1449202
72	0xbee48405	-0.44631973
73	0xbed9461a	-0.42436296
74	0x3d7c4787	0.06159165
75	0x3df85091	0.12124742
76	0xbe727dba	-0.23680773
77	0xbc959568	-0.018259719
78	0x3e6aad83	0.22917752
79	0xbe4ed7b5	-0.20199473
80	0xbe423bc3	-0.1896811
81	0xbce36203	-0.027756697
82	0x3e247a7e	0.16062352
83	0xbbe446c2	-0.006966443
84	0x3e8dafb0	0.276731
85	0x3d39f090	0.045395434
86	0xbe45a29b	-0.1930031
87	0xbd42a4fa	-0.047520615
88	0xbdefca5f	-0.11708521
89	0x3c297538	0.0103428885
90	0xbd87b8f2	-0.066270724
91	0x3eb16ae8	0.34651875
92	0xbd125de9	-0.03573409
93	0x3e0cf9f8	0.1376723
94	0x3d105b04	0.03524305
95	0xbee8d8ff	-0.45478055
96	0xbd80862d	-0.06275592
97	0x3cc1898c	0.023625158
98	0x3e658c78	0.22416866
99	0xbddad614	-0.106853634
100	0x3ce3d195	0.027809897
101	0x3e88b6d8	0.26702
102	0xba6cbf73	-0.00090312137
103	0x3d6e7640	0.05821824
104	0xbe317f3d	-0.17333694
105	0x3ddfd246	0.10928778
106	0x3e19edc3	0.15032105
107	0x3c639393	0.013890165
108	0xbeccdc3d	-0.40011778
109	0xbe14efeb	-0.14544646
110	0xbdf70228	-0.12060958
111	0xbea62ebc	-0.3245753
112	0x3dc7f6c4	0.09763864
113	0x3d66033d	0.056155432
114	0x3e09dfef	0.1346433
115	0x3d9d987f	0.07695102
116	0xbf030a74	-0.51187825
117	0xbe9ae0cf	-0.3024964
118	0xbea8c405	-0.3296205
119	0xbe6d2627	-0.23159085
120	0x3d88fa3d	0.06688354
121	0xbe019478	-0.12654293
122	0x3e2cc664	0.16872555
123	0x3db864f0	0.09003627
124	0x3eaedb1d	0.34151545
125	0x3ea422cf	0.32057807
126	0xbdee4e48	-0.11636025
127	0xbdbf5ae1	-0.09343506
128	0xbe0e0ba5	-0.1387163
129	0x3e9c857a	0.30570585
130	0x3ef32c53	0.47494754
131	0x3b71e521	0.0036910253
132	0xbd540b2e	-0.051768474
133	0x3e4e1b9d	0.20127721
134	0x3ec4c7a1	0.38433555
135	0x3dab2164	0.08355978
136	0x3e2ca0a3	0.16858153
137	0x3b97460a	0.0046165036
138	0x3e13fe23	0.14452414
139	0x3d89cdba	0.06728692
140	0xbd49bcf4	-0.049252465
141	0x3ea1a493	0.31570873
142	0x3d9904a6	0.0747159
143	0x3d66ddcb	0.056363862
144	0xbd712e15	-0.058881838
145	0x3ca167db	0.019702842
146	0x3e99d419	0.3004463
147	0xbdc7edd6	-0.097621605
148	0xbba279f9	-0.004958388
149	0x3dd32b7e	0.1031103
150	0x3c39b9bc	0.011335786
151	0x3d0a5ac3	0.033777963
152	0xbda7b367	-0.08188515
153	0x3e36a9d0	0.17838216
154	0x3e79c666	0.24392089
155	0xbee53add	-0.44771472
156	0xbe6a5fd2	-0.22888115
157	0xbe9488f2	-0.2901073
158	0xbc86e0fa	-0.016464699
159	0xbd3ac0be	-0.04559397
160	0x3e6e932a	0.23298326
161	0x3e5b15f0	0.21395087
162	0xbe372175	-0.17883857
163	0xbe30226f	-0.17200635
164	0x3e982458	0.29715228
165	0x3e1134b9	0.14180268
166	0x3ece7aab	0.40327963
167	0xbd0fb49b	-0.03508435
168	0xba8c5c7d	-0.0010708716
169	0x3e004884	0.12527663
170	0x3df3f96e	0.11912809
171	0x3e931ae6	0.2873146
172	0x3d5c4c7d	0.053783882
173	0xbd9beb89	-0.07613284
174	0xbe819e67	-0.25316164
175	0xbe146209	-0.14490522
176	0xbdfb490a	-0.122697905
177	0x3ed12314	0.40847075
178	0x3f05f12e	0.52321136
179	0x3e9a3a0d	0.30122414
180	0xbe6442dc	-0.2229113
181	0xbdb5a745	-0.08869795
182	0xbdbd021f	-0.0922892
183	0xbe41d88b	-0.18930261
184	0x3c25c19a	0.010116959
185	0xbc03b5a8	-0.008038916
186	0x3e89dfcb	0.26928553
187	0xbc394a7a	-0.0113092605
188	0xbe1ef136	-0.15521702
189	0x3f09e862	0.53870213
190	0x3d25e884	0.040504947
191	0xbe62c826	-0.22146663
192	0xbe0196a9	-0.12655129
193	0x3d2c44cd	0.0420578
194	0xbe927d13	-0.2861105
195	0xbea66850	-0.3250146
196	0x3b3a0e49	0.0028389862
197	0xbe68b63e	-0.2272577
198	0x3d8115e2	0.06303002
199	0xbdca9619	-0.0989191
200	0xbe92be06	-0.286606
201	0x3e402acd	0.18766327
202	0x3cb66c21	0.022268357
203	0x3e36e630	0.17861247
204	0xbdde8131	-0.10864485
205	0xbd5035bd	-0.0508325
206	0x3ed5efff	0.41784665
207	0x3df1d5cd	0.118083574
208	0x3df01859	0.11723394
209	0xbc8584d1	-0.016298683
210	0x3d1e14cd	0.038594056
211	0xbe58f3b4	-0.21186715
212	0xbeaf1df6	-0.34202546
213	0xbe581369	-0.21101154
214	0xbdee799a	-0.116442874
215	0x3e94dfb4	0.29076922
216	0x3df1f8c7	0.11815029
217	0xbdbfedac	-0.09371504
218	0xbba57138	-0.005048897
219	0x3e296b5d	0.16544862
220	0x3ed40787	0.41411993
221	0xbe3f49f5	-0.18680556
222	0x3e0bf6d8	0.13668382
223	0xbd9f8685	-0.077893294
224	0xbe9a2fc6	-0.30114573
225	0xbe6f4224	-0.23365074
226	0x3e177763	0.14791636
227	0xbe8a9079	-0.2706335
228	0xbdd398f5	-0.103319086
229	0xbeea2b6d	-0.45736256
230	0xbf138d9e	-0.57637966
231	0x3d8f5b5c	0.06999847
232	0xbd2dc846	-0.042427324
233	0xbe1391a1	-0.14411022
234	0x3d9d602d	0.0768436
235	0x3e20c635	0.1570061
236	0x3e1c30e5	0.15253027
237	0xbce3fff5	-0.02783201
238	0xbe2e4667	-0.17019044
239	0x3df47a07	0.11937337
240	0x3ed9dde1	0.42552093
241	0x3cf1b091	0.029503139
242	0x3c50d1d9	0.012745344
243	0xbd2fa8fd	-0.04288577
244	0x3e10796e	0.14108822
245	0xbcc09c2e	-0.023511972
246	0xbeb19eff	-0.34691617
247	0xbea1e978	-0.31623435
248	0x3e9fcf18	0.31212687
249	0xbe3720ad	-0.17883559
250	0x3e20bdca	0.15697399
251	0xbe174d04	-0.14775473
252	0xbdaf8489	-0.08570201
253	0xbed4aba1	-0.41537192
254	0xbe03b907	-0.12863551
255	0x3eace39a	0.33767396

network_body._body_endoder.seq_layers.0.bias f4 [128]
0	0xbd1f3585	-0.0388694
1	0x3dd8fdcc	0.10595283
2	0xbc85e2bb	-0.016343465
3	0xbd91fb0b	-0.07127961
4	0x3d183707	0.037161853
5	0xbd84beca	-0.064817026
6	0xbd6c4100	-0.057679176
7	0xbca27401	-0.019830706
8	0xbc215490	-0.009846821
9	0xbb036607	-0.0020049827
10	0xbdcd57d8	-0.100265205
11	0xbd3cdfa3	-0.046111714
12	0xbd6f165e	-0.05837094
13	0xbd9b10da	-0.075715736
14	0xbd2c9caf	-0.042141613
15	0xbdc0340c	-0.09384927
16	0xbd34fc86	-0.044186138
17	0x3d920d7b	0.071314774
18	0xbdc08c59	-0.09401769
19	0xbe1280f2	-0.14307001
20	0xbd72ce25	-0.059278626
21	0x3ca91f16	0.020644706
22	0xbdc77459	-0.097389884
23	0x3c7fe81c	0.015619304
24	0xbd1fa5eb	-0.03897659
25	0x3ca78bde	0.020452436
26	0xbaa93c63	-0.0012911673
27	0x3b120225	0.002227911
28	0xbdf5bb96	-0.1199867
29	0xbdb01fda	-0.08599825
30	0xbcdbdff9	-0.026840197
31	0x3a79077f	0.0009499713
32	0xbdcba29d	-0.099431254
33	0xbd51a811	-0.05118567
34	0x3daf2ce7	0.08553486
35	0xbda568b0	-0.08076608
36	0xbdcc3c96	-0.09972493
37	0xbdf62e0c	-0.120205015
38	0xbd6861df	-0.056733962
39	0xbc9d8705	-0.019229421
40	0xbce6436b	-0.02810832
41	0xbd0bad5b	-0.03410087
42	0xbd85812b	-0.065187775
43	0x3c448cf7	0.011996499
44	0xbc61c4b0	-0.013779804
45	0xbc0dead2	-0.008661943
46	0xbbc60fca	-0.0060443627
47	0x3a05a1de	0.00050976675
48	0xbd126fe7	-0.03575125
49	0xbe0d5ae5	-0.13804205
50	0xbc7bc2c2	-0.015366258
51	0x3c0661d0	0.008202031
52	0x3ca63de2	0.02029318
53	0xbd08cc92	-0.03339822
54	0x3d203a48	0.03911808
55	0x3cadb989	0.021206634
56	0xbdca2595	-0.098704495
57	0x3d75264c	0.059850976
58	0x3d3a7287	0.045519378
59	0xbce12378	-0.027482733
60	0x3d1e40c7	0.038635995
61	0x3cee45b3	0.02908597
62	0xbd2e00c3	-0.042481195
63	0x3d3b7f1d	0.04577552
64	0x3bb96fab	0.005659064
65	0xbd9fa176	-0.07794468
66	0x3c6ccb7c	0.014452811
67	0xbd275bb8	-0.040858954
68	0xbda2f46e	-0.079567775
69	0x3d1162f7	0.03549477
70	0xbdb0dcde	-0.08635877
71	0x395f568c	0.00021299178
72	0xbdb324fb	-0.08747288
73	0xbd51287a	-0.051063992
74	0xbd15ae9b	-0.03654347
75	0xbcabbbc1	-0.020963551
76	0xbd67589b	-0.056480985
77	0xbd1dfb23	-0.03856958
78	0xbcac833a	-0.021058667
79	0xbd69deda	-0.057097293
80	0xbd54a803	-0.05191804
81	0x3bfb9a58	0.0076783113
82	0xbd7d301c	-0.06181346
83	0x3d39889d	0.0452963
84	0xbd4ca887	-0.049965408
85	0xbcaa8063	-0.020813173
86	0xbd27f11e	-0.04100143
87	0xbe003a57	-0.12522255
88	0xbd466451	-0.048435513
89	0x3d2da7b0	0.042396247
90	0xbd412bc1	-0.047160868
91	0xbd735aaa	-0.059412636
92	0x3c0d26a3	0.008615169
93	0x3c00cc2f	0.007861181
94	0xbbea33e7	-0.0071473005
95	0xbddc0f39	-0.10745091
96	0xbd224db1	-0.039624874
97	0xbd1ab9ef	-0.037774976
98	0xbd9d521e	-0.07681678
99	0xbd112985	-0.035439987
100	0xbcc0e6f4	-0.023547627
101	0x3c40c2de	0.01176521
102	0xbcfe615b	-0.031052282
103	0x3df939d6	0.121692345
104	0xbcce4c3c	-0.025182836
105	0xbcabebde	-0.020986494
106	0x3d0eecac	0.034893677
107	0x3da6998d	0.08134756
108	0x3d107264	0.03526534
109	0xbd5d2544	-0.053990617
110	0xbe084d86	-0.13310823
111	0x3d2595e1	0.04042614
112	0x3b96a818	0.004597675
113	0xbdaec14d	-0.08532963
114	0xbd55f92a	-0.052239574
115	0xbdb570a7	-0.08859377
116	0xbd72e84e	-0.059303574
117	0x3bfa3669	0.0076358807
118	0x3bfcf03e	0.007719069
119	0x3d1de2af	0.03854626
120	0xbe1ba10b	-0.15198152
121	0xbb6a1e07	-0.0035723464
122	0xbd82a905	-0.06379894
123	0xbd2e6de1	-0.042585257
124	0xbdb16407	-0.08661657
125	0x3b9c79bf	0.0047752555
126	0xbdb4184b	-0.08793696
127	0xbd37814d	-0.044801045

network_body._body_endoder.seq_layers.2.weight f4 [128, 128]
0	0x3ded0cb1	0.11574686
1	0x3d25c425	0.04047026
2	0x3d6e35b8	0.0581567
3	0xbe128e7d	-0.14312167
4	0x3d84de6e	0.064877376
5	0xbe2a50f4	-0.16632444
6	0x3d8d1dd2	0.068904534
7	0xbde7f78b	-0.11326512
8	0x3cf2bc6e	0.029630866
9	0xbc9e2bac	-0.019307934
10	0x3d71c3c9	0.059024606
11	0xbb646218	-0.0034848507
12	0xbb67a266	-0.00353446
13	0x3dacd5db	0.08439227
14	0xbe33cd59	-0.17558803
15	0xbdc24f76	-0.09487812
16	0xbe01bd04	-0.1266976
17	0xbd02484d	-0.031807233
18	0x3dc2a3a8	0.09503871
19	0xbd8b24bc	-0.06794116
20	0xbd0192ec	-0.031634256
21	0x3e2b1866	0.16708526
22	0xbe4c0ac8	-0.19925988
23	0xbdc9502a	-0.09829743
24	0xbdb605ed	-0.08887849
25	0x3cb74aa6	0.022374462
26	0xbd3f691c	-0.0467311
27	0x3d3113a7	0.043231633
28	0xbd300b23	-0.04297937
29	0xbdd80a75	-0.105488695
30	0xbc8a571c	-0.01688724
31	0xbd75f61b	-0.060049158
32	0xbc96b445	-0.018396506
33	0x3d7658f8	0.06014344
34	0xbd852a32	-0.06502189
35	0xbcacaa4f	-0.021077303
36	0x3d501de4	0.050809756
37	0xbda9f8ae	-0.08299385
38	0x3ddc2084	0.10748389
39	0xbc9cf615	-0.01916031
40	0x3c31a1c6	0.010841792
41	0xbe21f6ee	-0.15816852
42	0xbda9f108	-0.08297926
43	0xbcfb39e8	-0.03066726
44	0xbb970ebe	-0.0046099117
45	0x3d8429a6	0.06453256
46	0x3c75f53c	0.015012082
47	0xbdfd72b2	-0.12375392
48	0xbdb3a650	-0.08771956
49	0x3e111023	0.14166312
50	0x3dd84681	0.105603226
51	0xbda5ea09	-0.08101279
52	0x3d9a292a	0.07527383
53	0xbde505f3	-0.11182775
54	0xbd71a9dc	-0.05899988
55	0xbdb5dabf	-0.08879613
56	0x3d69ca37	0.057077613
57	0xbceb632c	-0.028733812
58	0x3de05778	0.10954183
59	0xbe203b8b	-0.15647714
60	0xbd9a6136	-0.07538073
61	0xbd969d92	-0.07354273
62	0xbc8409d3	-0.016117966
63	0xbd8c5ed3	-0.06854024
64	0xbd0432b9	-0.032274935
65	0x3d3d5421	0.04622281
66	0xbcbc346c	-0.022974215
67	0x3d8e53d2	0.06949581
68	0xbd4f79df	-0.050653335
69	0x3e25e3e1	0.1620021
70	0x3db021dd	0.08600209
71	0x3c51aa65	0.012796973
72	0xbd3d8ec4	-0.04627873
73	0xbcd3f21f	-0.025872288
74	0x3bd943e3	0.006630407
75	0xbdfaca15	-0.12245575
76	0x3d0aa3c6	0.033847593
77	0xbd2d182d	-0.042259384
78	0xbd36aae9	-0.044596586
79	0x3e16c459	0.14723338
80	0x3d32ab60	0.043620467
81	0x3dc14ee5	0.09438876
82	0x3d4515ae	0.04811638
83	0xbdef678e	-0.11689673
84	0xbd84c8da	-0.06483622
85	0x3b8010fd	0.003908275
86	0xbda1cc31	-0.079002745
87	0x3bcd67e1	0.006268487
88	0xbdba8c53	-0.09108796
89	0xbc526092	-0.012840407
90	0x3c3dc9f7	0.011583797
91	0xbdb4280b	-0.087967
92	0x3daf84bb	0.08570238
93	0x3e19598c	0.14975566
94	0xbda9deba	-0.08294435
95	0xbda1d473	-0.079018496
96	0xbdb16bf8	-0.086631715
97	0xbce450bc	-0.027870528
98	0x3d7dbc3f	0.061947104
99	0x3a958a09	0.0011408936
100	0x3d1f9011	0.03895575
101	0xbe2403a9	-0.16017021
102	0x3d3780c3	0.04480053
103	0xbce7a8ab	-0.02827867
104	0x3d2716fc	0.040793404
105	0x3cbb0988	0.022831693
106	0xbd3b899b	-0.045785528
107	0xbc15dd34	-0.009146977
108	0x3dd63a19	0.104603
109	0xbdcc5799	-0.099776454
110	0xbccd0efc	-0.02503156
111	0x3d1c4e3e	0.038160555
112	0xbcef01a5	-0.029175589
113	0xbc6b46ac	-0.014360111
114	0xbd3ade23	-0.045622002
115	0xbc8ee63b	-0.017443767
116	0xb8d8f15c	-0.00010344639
117	0xbcb902f9	-0.022584425
118	0xbc88d476	-0.016702872
119	0xbe323217	-0.1740192
120	0x3e080ed1	0.13286902
121	0x3d7224e6	0.05911722
122	0x3dcb0f70	0.09915054
123	0x3dcc9a3d	0.09990356
124	0x3ca106b8	0.019656524
125	0xbd9fbd2c	-0.077997535
126	0xbd2e5e54	-0.042570427
127	0xbd8f6eee	-0.0700358
128	0xbd9e7e4b	-0.07738932
129	0x3cdf8cfb	0.027288904
130	0xbe354782	-0.1770306
131	0xbd524838	-0.051338404
132	0xbd7d77ce	-0.061881833
133	0x3db2f843	0.087387584
134	0xbe24043a	-0.16017237
135	0x3da4566c	0.08024296
136	0xbcf2b159	-0.029625582
137	0xbe0f240b	-0.13978593
138	0xbcbf7790	-0.023372442
139	0x3cf868b1	0.030323358
140	0x3e96705b	0.29382595
141	0xbd25dcf6	-0.040493928
142	0xbd9874ce	-0.07444154
143	0x3c0defe8	0.008663155
144	0xbd54fdc1	-0.05199981
145	0x3e1febdf	0.15617321
146	0xbe60329b	-0.21894304
147	0xbd104522	-0.03522218
148	0xbb662dc1	-0.0035122486
149	0xbe390c52	-0.18071106
150	0xbd342041	-0.043976072
151	0xbda651c6	-0.08121066
152	0x3da7f033	0.08200111
153	0x3c9490ac	0.018135391
154	0x3b1b3578	0.0023682993
155	0x3dacb72a	0.08433373
156	0xbd0a8289	-0.033815894
157	0xbe177e70	-0.14794326
158	0x3ced34df	0.028955875
159	0xbe1b76b6	-0.15182003
160	0xbe2d7b10	-0.16941476
161	0xbb09ca6c	-0.0021025194
162	0x3d8be3c4	0.06830552
163	0x3d83ed3f	0.064417355
164	0xbe3a4c11	-0.1819308
165	0xbe06915d	-0.13141389
166	0xbe47a051	-0.1949475
167	0x3ca2e3b6	0.019883972
168	0x3e38d7b1	0.1805103
169	0xbe8db293	-0.27675304
170	0xbd289fd3	-0.041168045
171	0xbca33ad8	-0.01992552
172	0xbde8d0fc	-0.113679856
173	0xbd768318	-0.060183614
174	0x3cdd047b	0.026979676
175	0x3cb9b073	0.022667145
176	0xbda0fede	-0.07861112
177	0x3e0afb92	0.13572529
178	0xbda55fdb	-0.080749236
179	0xbe7cd0bd	-0.24689002
180	0xbcc89cd4	-0.024488844
181	0xbc12117b	-0.0089153005
182	0xbcf1314e	-0.029442456
183	0xbd4667a9	-0.0484387
184	0x3d51ec1b	0.05125056
185	0xbe130f1e	-0.14361235
186	0x3e444df3	0.1917036
187	0xbdfa182e	-0.12211643
188	0x394dd6d4	0.00019630353
189	0xbc2e9b85	-0.010657196
190	0xbd4d06da	-0.050055362
191	0x3cc566ad	0.024096811
192	0x3e43126a	0.19049993
193	0xbd6bdc67	-0.05758324
194	0xbd9e5087	-0.07730203
195	0xbd8c64f4	-0.06855193
196	0x3d7986d7	0.06091961
197	0x3dd82105	0.10553173
198	0x3ce5478f	0.027988223
199	0xbdd7bc05	-0.10533909
200	0xbcd6de03	-0.02622891
201	0xbd765f44	-0.060149446
202	0xbd6a7ecc	-0.05724983
203	0xbcb6e594	-0.022326268
204	0x3e0ae734	0.1356476
205	0xbd71ac1f	-0.059002038
206	0x3d54c6d6	0.051947437
207	0xbe25198e	-0.1612303
208	0xbddc7eb3	-0.107663535
209	0x3d2b7934	0.041863635
210	0x3e111f2d	0.14172049
211	0x3c9ba8a7	0.019001318
212	0x3d612314	0.054965094
213	0x3e0a518b	0.13507669
214	0xbda6a19a	-0.08136292
215	0xbe26bbee	-0.16282627
216	0xbe209dfd	-0.15685268
217	0xbd99e037	-0.07513469
218	0x3b1a4e79	0.0023545309
219	0x3c878652	0.016543541
220	0xbd86505f	-0.06558298
221	0x3de4c3ea	0.1117018
222	0xbe0dc945	-0.1384631
223	0xbd89a087	-0.06720071
224	0x3e562058	0.20910776
225	0xbd91b0bf	-0.0711379
226	0x3d627f70	0.055297315
227	0xbdb5dd2e	-0.08880077
228	0x3ccc3e3b	0.024932018
229	0xbd56e0e8	-0.05246058
230	0xbc406990	-0.011743918
231	0xbc30950d	-0.010777724
232	0xbd9bc23b	-0.07605406
233	0xbd96d00d	-0.07363901
234	0xbdcdea08	-0.100544035
235	0x3c256ec4	0.010097209
236	0xbc17bece	-0.0092618
237	0xbea94a7d	-0.33064643
238	0xbc332947	-0.010935134
239	0x3c5cb8a7	0.013471759
240	0xbd03917c	-0.032121167
241	0xbde0cbe2	-0.109763876
242	0xbdffa6d3	-0.12482991
243	0xbdcd2fd1	-0.10018886
244	0x3b65aaad	0.0035044358
245	0xbd86ff57	-0.06591671
246	0x3d9f652b	0.07782968
247	0xbc05d090	-0.008167401
248	0x3dee54cc	0.116372675
249	0x3c6dc863	0.014513108
250	0x3d49df04	0.04928495
251	0x3d4c6310	0.04989916
252	0xbd3aa48c	-0.04556708
253	0xbcd5e69d	-0.026110942
254	0x3d87d432	0.0663227
255	0x3d2752a4	0.040850297

network_body._body_endoder.seq_layers.2.bias f4 [128]
0	0xbcd28d4f	-0.025702147
1	0xbc3b6f72	-0.011440145
2	0x3c9d0a45	0.019169936
3	0x3c91d15c	0.017800026
4	0xbdc461f0	-0.095889926
5	0xbd748663	-0.059698474
6	0xbc94ff42	-0.018188123
7	0x3daaf505	0.08347515
8	0xbbc3d8be	-0.0059767654
9	0xbc98820c	-0.018616699
10	0xbd70400a	-0.058654822
11	0xbbaa02b9	-0.005188313
12	0x3d079930	0.033105075
13	0xbdd06f41	-0.1017747
14	0xbd64cbb4	-0.05585833
15	0xbc8f2347	-0.017472876
16	0xbc008946	-0.007845229
17	0xbd6cfe7b	-0.05785988
18	0xbcb8eb65	-0.022573182
19	0xbd381320	-0.044940114
20	0xbd0879f8	-0.033319443
21	0xbd35c3f5	-0.044376332
22	0x3cff74b1	0.031183572
23	0xbb2c3553	-0.00262769
24	0xbd5cd7f4	-0.053916886
25	0xbcd58495	-0.026064197
26	0x3d25d869	0.040489588
27	0xbcff5abc	-0.031171195
28	0xbc3084bd	-0.010773835
29	0xbcff1d04	-0.031141765
30	0xbda374c7	-0.07981258
31	0xbc787ea4	-0.015166912
32	0x3caf4532	0.0213953
33	0xbce162d8	-0.027512953
34	0xbd15e62c	-0.036596462
35	0xbc89ed8c	-0.016836904
36	0xbd104522	-0.03522218
37	0xbc72246d	-0.014779192
38	0xbd8f97ab	-0.0701135
39	0x3ac593d5	0.0015073965
40	0x3cb1b9fd	0.021695131
41	0xbd7770a1	-0.060410146
42	0xbdd0b031	-0.10189856
43	0xbcf3bf3e	-0.029754277
44	0xbb29758e	-0.0025857422
45	0xbc2e5cbf	-0.01064223
46	0xbc2a8fa3	-0.010410222
47	0xbd425b0a	-0.047450103
48	0xbda21a03	-0.079151176
49	0x3aead177	0.0017915209
50	0x3d920f04	0.0713177
51	0x3d4aacd4	0.049481228
52	0xbd3f9cf3	-0.046780538
53	0xbd9d3b35	-0.076773085
54	0xbd0eb6f5	-0.03484245
55	0xbd3b5ffe	-0.045745842
56	0xbbdef8fd	-0.006804584
57	0xbdd127e8	-0.1021269
58	0xbd84618b	-0.06463917
59	0xbd912f4f	-0.070891015
60	0xbd9c11a9	-0.07620556
61	0x3bf904c1	0.0075994437
62	0xbd31eb1e	-0.043437116
63	0x3ce96d97	0.02849464
64	0xbc77a607	-0.015115268
65	0xbd4f959e	-0.050679795
66	0xbcff8be4	-0.031194635
67	0xbd00e6f1	-0.031470243
68	0xbabed130	-0.0014558192
69	0xbd3ab784	-0.04558517
70	0xbcf4da21	-0.029889168
71	0x3b36a7cc	0.002787101
72	0xbd2f2ce5	-0.042767424
73	0xbd4ae473	-0.049534272
74	0xbd047a64	-0.032343283
75	0xbd93d111	-0.072176106
76	0x3ddf511f	0.109041445
77	0xbd4ac3e1	-0.04950321
78	0xbdd8dfd1	-0.105895646
79	0xbcfa31ca	-0.03054132
80	0x3d5e2cd6	0.054241978
81	0x3c0ca0ce	0.008583261
82	0x3b7fd090	0.0039034225
83	0xbbe884f0	-0.0070959255
84	0xbb9e2e0a	-0.0048272656
85	0x3d13a6fb	0.036047917
86	0x3cab913e	0.02094328
87	0xbcb4080a	-0.02197649
88	0xbd2390d2	-0.039933033
89	0x3aaf4c6f	0.0013374219
90	0x3cb6ef3d	0.022330875
91	0xb7f4befc	-2.9176e-05
92	0xbda8d979	-0.082446046
93	0xbd369e8e	-0.044584803
94	0x3c4a5e2f	0.012351557
95	0xbceb4490	-0.028719217
96	0x3c8a547e	0.016885992
97	0xbdd64b49	-0.10463578
98	0xbd4626b3	-0.04837675
99	0x3d3f656a	0.046727575
100	0xbdad3a17	-0.084583454
101	0xbcf800c5	-0.030273804
102	0xbd733692	-0.059378214
103	0xbdcdbaa7	-0.10045367
104	0xbc986f84	-0.018607862
105	0xbdb8f152	-0.09030403
106	0xbd20d9b1	-0.039270107
107	0x3df8c6b4	0.121472746
108	0xbd469bf4	-0.048488572
109	0xbd43c442	-0.047794588
110	0xbd3e8e40	-0.04652238
111	0xbd268e74	-0.040663198
112	0xbd9dada1	-0.07699133
113	0xbca106e4	-0.019656606
114	0xbd7d35f9	-0.06181905
115	0xbcee6e54	-0.029105343
116	0xbd17c69e	-0.03705465
117	0x3cac5d32	0.021040533
118	0xbd87e288	-0.06635004
119	0xbd89c72a	-0.06727441
120	0xbb89c4ff	-0.004204392
121	0xbc337ee9	-0.010955551
122	0xbc9fe820	-0.019519866
123	0xbd84178a	-0.06449802
124	0xbd3c83d4	-0.04602416
125	0x3c7fa074	0.01560222
126	0xbd3514e8	-0.04420939
127	0xbdba21ef	-0.090885036

action_model._continuous_distribution.log_sigma f4 [1, 2]
0	0xbe88121f	-0.26576325
1	0xbea2771b	-0.31731495

action_model._continuous_distribution.mu.weight f4 [2, 128]
0	0x3bee390f	0.0072699855
1	0x3bdabf72	0.006675654
2	0x3c0fe509	0.008782634
3	0xbc388fd6	-0.011264762
4	0x3ca295db	0.019846847
5	0x3c0e3047	0.008678502
6	0xb8bed450	-9.099452e-05
7	0x3bc5bc87	0.006034437
8	0x3ccfde69	0.025374608
9	0x3c02ac14	0.007975597
10	0x3bff034e	0.0077823764
11	0x3d18f127	0.037339356
12	0xbd917520	-0.07102418
13	0x3c10bb6e	0.008833749
14	0xbc550089	-0.013000616
15	0x3d307adb	0.043085914
16	0x3ccfbd89	0.025358932
17	0x3d217144	0.03941466
18	0xbc1b5026	-0.009479558
19	0x3d19dbfe	0.037563317
20	0x3cab81f7	0.020935996
21	0xbc53c21d	-0.012924698
22	0xbcca50c1	-0.02469671
23	0x3c0734f6	0.008252373
24	0x3d5be91c	0.053689107
25	0xbd37d588	-0.044881374
26	0xbd293bee	-0.04131692
27	0xbaa59f39	-0.0012635953
28	0x3cdf2334	0.027238466
29	0x3ca829c0	0.02052772
30	0xbd1b437a	-0.037906148
31	0x3ccd70df	0.025078235
32	0xb993ddd5	-0.00028203303
33	0xbbeb86c1	-0.007187695
34	0xbcdf1a26	-0.027234148
35	0xbb3dfb14	-0.0028988766
36	0xbc08b209	-0.008343228
37	0xbca9a2bc	-0.02070748
38	0x3be98dff	0.007127523
39	0x3d100009	0.035156284
40	0xbc3d54d2	-0.011555867
41	0x3a211874	0.00061453064
42	0xbba19323	-0.00493087
43	0x3cf8efec	0.030387841
44	0x3cb06cf2	0.021536324
45	0xbc5bc1de	-0.013412921
46	0x3cb1c5dd	0.021700794
47	0x3aac7f0e	0.0013160424
48	0xbb9d1c22	-0.0047946135
49	0x3adffef1	0.0017089528
50	0xbc45c692	-0.012071269
51	0x3b7fc311	0.003902618
52	0x3aee4073	0.0018177166
53	0x3c58ab12	0.01322438
54	0x3bf6cdd0	0.007531859
55	0x3d259b48	0.04043129
56	0x3cd7142f	0.026254741
57	0x3c5ad4e6	0.013356423
58	0x3bff47ea	0.0077905552
59	0x3ac582b0	0.0015068855
60	0xb93c149a	-0.00017936752
61	0x3ceaedb6	0.028677803
62	0x3c99e528	0.018786028
63	0x3cfe3117	0.031029267
64	0x3cf651fd	0.030068392
65	0x3b5e9f5c	0.0033969497
66	0x3ca8e67a	0.020617712
67	0x3c620249	0.01379449
68	0x3d22756a	0.039662756
69	0x3c7665f5	0.015038957
70	0x3d71daa1	0.05904639
71	0x3c81d5f2	0.015849087
72	0x3d484cf7	0.048901524
73	0x3cd917f9	0.026500689
74	0x3cd6c682	0.026217703
75	0x3c7f6b38	0.015589528
76	0xbcf80b93	-0.030278957
77	0x3b65dce6	0.0035074293
78	0x3cb7914c	0.02240815
79	0x3cc1e3c5	0.02366818
80	0xbc4f33b7	-0.012646607
81	0xbc37849e	-0.011201052
82	0x3bb92f9c	0.0056514274
83	0x3cb2cdc1	0.021826627
84	0xbc057541	-0.008145631
85	0x3bffbe1a	0.0078046443
86	0xbc0fd5e4	-0.008779023
87	0x3d484846	0.04889705
88	0x3c18efce	0.009334518
89	0x3c705b93	0.0146702705
90	0xbd37802d	-0.044799972
91	0x3c6fb9db	0.014631714
92	0xbc02a09c	-0.007972863
93	0x3c7ca521	0.015420229
94	0x3d68d9b2	0.056848235
95	0x3cacb22b	0.02108105
96	0x3d3d3d6c	0.046201155
97	0x3c0f30c5	0.008739655
98	0x3cac9bbc	0.021070354
99	0x3c366b24	0.011133943
100	0x3b77edf9	0.0037831052
101	0x3a4b148d	0.0007746898
102	0x3b706bd9	0.0036685376
103	0x3ba4d4fe	0.0050302735
104	0xba07e6be	-0.00051842246
105	0xbc8cf43b	-0.017206302
106	0x3d10d680	0.035360813
107	0x3bc588f7	0.0060282904
108	0x3b99eb0d	0.0046972097
109	0x3c1a172d	0.00940494
110	0x3cbf4848	0.023349896
111	0x3bee0129	0.007263322
112	0x3ccf697b	0.025318852
113	0x3c9c5673	0.019084191
114	0x3d2c9ae5	0.042139906
115	0x3ba0814a	0.004898225
116	0xbc2a2e39	-0.010386997
117	0x3ca18af5	0.01971958
118	0xbc3ad123	-0.011402401
119	0x3bd7e70a	0.0065888213
120	0x3d57521b	0.052568536
121	0x3c29ee37	0.010371736
122	0xbc345aa1	-0.011007936
123	0xbc42d5ca	-0.011891792
124	0x3c1500f2	0.009094464
125	0x3c094e82	0.008380534
126	0xbbb332a1	-0.005468682
127	0xbbae9622	-0.005327956
128	0xbdce6872	-0.10078515
129	0xbcf45f73	-0.02983067
130	0x3d283b6e	0.0410723
131	0x3cdb744c	0.026788853
132	0xbd8f9c32	-0.07012214
133	0xbd2d5c49	-0.042324338
134	0xbdaeded3	-0.08538594
135	0x3d7d31e9	0.061815176
136	0xbdea8fcb	-0.114532076
137	0xbd8e62ab	-0.06952413
138	0xbc9c4b86	-0.019078981
139	0xbdffce48	-0.12490517
140	0x3c916119	0.017746495
141	0xbc979dd0	-0.018507868
142	0xbd4a49ae	-0.049386673
143	0x3d51cc87	0.051220443
144	0xbdc7fc45	-0.097649135
145	0xbd4927aa	-0.049110092
146	0xbdbd9af2	-0.09258069
147	0xbdc6377e	-0.09678553
148	0xbdb7c41c	-0.08972952
149	0xbda337eb	-0.0796965
150	0x3cdfc726	0.027316641
151	0xbdfe0be4	-0.12404612
152	0xbdb2f15e	-0.087374434
153	0xbd81392c	-0.06309733
154	0x3c8992c5	0.016793618
155	0xbd9a93b4	-0.075477034
156	0xbdb27c8e	-0.08715163
157	0xbd8d0de5	-0.06887416
158	0xbd0b5ebb	-0.03402589
159	0xbda7c207	-0.08191305
160	0xbdfc7d1d	-0.12328551
161	0xbe13f4c2	-0.14448836
162	0xbda55c9d	-0.08074305
163	0xbd9c9be8	-0.07646924
164	0xbdda783d	-0.10667465
165	0xbbbf05a4	-0.00582953
166	0xbd9de8a0	-0.07710385
167	0xbded8d06	-0.11599164
168	0x3ce80d5b	0.02832668
169	0x3c41914c	0.011814427
170	0xbcb1d42e	-0.02170762
171	0xbdf45d21	-0.119318254
172	0xbdb350b9	-0.08755631
173	0xbd9c3ce1	-0.07628799
174	0xbe04bf54	-0.12963611
175	0xbc6d16e1	-0.014470787
176	0xbd372ce2	-0.044720538
177	0xbda626f8	-0.081129014
178	0x3d7d06c5	0.061774034
179	0x3d65e26a	0.05612413
180	0xbd8f6a5c	-0.07002708
181	0xbdbfe71c	-0.093702525
182	0xbd55065b	-0.052008014
183	0x3d45502d	0.048172165
184	0xbdcea71b	-0.100904666
185	0xbc04b0cb	-0.008098791
186	0xbd73acd9	-0.059491012
187	0xbbb13a19	-0.005408537
188	0xbaf45f04	-0.001864404
189	0xbe0eb8e2	-0.13937715
190	0xbdd2f686	-0.10300927
191	0x3d1039d6	0.035211407
192	0xbde9e5f8	-0.11420816
193	0xbd4e317d	-0.050340164
194	0x3cd64e19	0.026160287
195	0xbdccc1fd	-0.09997938
196	0xbdc54354	-0.096319824
197	0xbdce5736	-0.10075228
198	0xbe0986a0	-0.13430262
199	0xbdac72d3	-0.084203385
200	0xbdcb77e2	-0.09934975
201	0xbd8b79d8	-0.06810349
202	0xbd997a10	-0.07493985
203	0xbd15dca0	-0.036587358
204	0x3d75b3d0	0.059985936
205	0xbd482fd0	-0.048873723
206	0xbd281e7d	-0.0410447
207	0xbd57fc60	-0.052730918
208	0xbdcf1227	-0.10110884
209	0xbd93e233	-0.072208785
210	0xbde70b05	-0.11281399
211	0xbdb46c0d	-0.088096716
212	0xbde148b9	-0.11000199
213	0x3d3faf34	0.046797946
214	0x3cc5da48	0.024151936
215	0xbdcb0c69	-0.099144764
216	0xbdce7bb3	-0.100821875
217	0xbdd9d580	-0.10636425
218	0x3c8ea409	0.017412202
219	0xbc8fdd8b	-0.017561695
220	0xbd4e99dd	-0.050439704
221	0xbdb27370	-0.08713424
222	0xbdfdc54b	-0.12391146
223	0xbd922a39	-0.071369596
224	0xbdf89b5b	-0.12139007
225	0xbd31f310	-0.043444693
226	0xbd3c59ff	-0.045984264
227	0x3da06aba	0.078328565
228	0xbd34ea4e	-0.044168763
229	0xbde7a400	-0.113105774
230	0x3cb1b7c3	0.02169407
231	0xbd2722f0	-0.040804803
232	0xbcb725c9	-0.022356885
233	0xbcea2b09	-0.028584974
234	0xbd9a486c	-0.075333446
235	0x3db10c41	0.08644915
236	0xbc42a845	-0.011880939
237	0xbd86bee4	-0.06579378
238	0xbd3582d2	-0.044314213
239	0xbd63bddc	-0.055600986
240	0x3cb54fa0	0.022132695
241	0xbdd0c05e	-0.10192941
242	0xbd9f3218	-0.077732265
243	0xbd231125	-0.039811272
244	0xbd8e5b02	-0.06950952
245	0xbe013a38	-0.12619865
246	0xbdc03987	-0.093859725
247	0xbd89d391	-0.06729806
248	0xbdb216e1	-0.0869577
249	0xbdb439ba	-0.08800073
250	0xbaa777a2	-0.0012776742
251	0xbcc9d72f	-0.02463874
252	0xbdc6391a	-0.0967886
253	0x3d164f7a	0.03669689
254	0xbcf6727c	-0.030083887
255	0xbd80a773	-0.062819384

action_model._continuous_distribution.mu.bias f4 [2]
0	0xbcdff04d	-0.027336264
1	0x3e1aabb9	0.1510457
