results/Test5.0/CarAgent/CarAgent-75878.pt (torch, 490591 bytes, 36 tensors)

network_body._body_endoder.seq_layers.0.weight f4 [128, 22]
000000 b5 af 18 be dd 53 a1 3d 1c a8 c7 be 1e 08 85 3e
       -0.14910777 0.07877324 -0.38995445 0.25982755
000010 6e 31 8d 3e eb b0 a3 be ba 78 6e bd 9a 87 52 be
       0.27576774 -0.31970915 -0.058220603 -0.2055954
000020 6e b0 49 be 8b 98 01 bd 6d e2 a5 3c 2c 5a 24 be
       -0.19696209 -0.031639617 0.02024957 -0.16050023
000030 9a 66 a4 be 32 9f 01 3e ca 5a 83 bd a2 da 25 3d
       -0.3210953 0.12658384 -0.06413801 0.040491708
000040 b8 cd 9d 3e 45 92 a9 be a3 30 32 3e 7d 09 ff be
       0.30821013 -0.33119407 0.17401366 -0.49811926
000050 70 46 69 be de 3a bc 3c 1f 6c 53 be b4 49 d3 3d
       -0.22780776 0.022977289 -0.20646714 0.10316792
000060 1e d4 ca be fb 01 6e 3e c0 ee b5 3c 38 c5 ea 3e
       -0.39614958 0.23242943 0.022208571 0.4585359
000070 e4 8b 0c bd f0 78 aa bd 63 23 15 3e ea 91 8e 3e
       -0.034313098 -0.08323848 0.1456428 0.278457
000080 c2 6b b0 3b c5 2c 99 bd ff 34 f3 3d 20 5d 68 3e
       0.0053839395 -0.07479242 0.118753426 0.22691774
000090 89 92 96 b9 9b f0 7a 3d 0b ed 7d be 62 fd af 3e
       -0.00028719407 0.061264616 -0.24797456 0.34373003
0000a0 2e 40 16 3c 02 4b 57 3e 96 2d 31 3d 51 69 f5 bd
       0.009170575 0.21024707 0.043256365 -0.11982978
0000b0 55 60 80 3d 7f a6 81 3e 5a a5 04 be df 7e d3 be
       0.06268374 0.2532234 -0.12953702 -0.41307732
0000c0 7e c6 91 be c1 54 60 bd dc 93 c1 3d a0 f2 d4 3e
       -0.2847175 -0.054768328 0.0945203 0.41591358
0000d0 38 d1 ba 3c 21 01 73 3e ce ba 96 3e e0 94 32 be
       0.022804841 0.237309 0.29439396 -0.17439604
0000e0 81 7c e7 3d c0 cf 5f 3d a1 fc 90 be ec 9e 92 39
       0.11303044 0.054641485 -0.2831774 0.00027965696
0000f0 8f 26 6b 3e e7 03 d8 be ab 65 01 be 8d c7 02 be
       0.22963928 -0.42190477 -0.1263644 -0.12771435
000100 ee 23 d5 3b 3e d1 65 3e fe 14 1a be 8b c2 f6 bd
       0.0065045273 0.22443101 -0.1504707 -0.12048825
000110 a8 11 2c bc 6d f6 95 be ad c1 85 be 08 ae fa bd
       -0.010502256 -0.2928957 -0.26124325 -0.12240225
000120 00 d1 ed be 77 38 d3 be 7f 6d 39 3d 08 81 00 3e
       -0.46448517 -0.41254017 0.04527044 0.12549222
000130 2a c4 24 be 9f a8 c6 3c 1d 9d 68 3e 27 6d 42 be
       -0.16090456 0.024250327 0.22716184 -0.18986951
000140 0a c8 4c be d9 6f 2d 3c 57 95 28 3e 24 b1 36 3b
       -0.19998184 0.010585749 0.16463219 0.002787658
000150 4e 0f 93 3e 91 ae 5d 3d f3 81 51 be 75 46 08 bd
       0.28722614 0.054121558 -0.20459728 -0.033270318
000160 68 41 cd bd a0 28 a4 3c 40 7f c6 bd bb 22 ad 3e
       -0.10022241 0.020038903 -0.0969224 0.3381556
000170 65 d6 df bc 7e d4 0b 3e 12 f2 aa 3d a5 9a d8 be
       -0.027323911 0.13655278 0.083469525 -0.42305484
000180 fe 0d 4b bd b9 9b cd 3c 2a 9e 89 3e 28 a6 97 bd
       -0.04957389 0.025098668 0.26878482 -0.07404739
000190 8f 50 bf 3c ff a5 8b 3e c3 a1 7e bb 98 cf a6 3d
       0.023353843 0.27275082 -0.0038853742 0.08145064
0001a0 5f 04 30 be 3f a1 ec 3d 67 ca 22 3e 7c 1c b7 3c
       -0.17189167 0.11554193 0.15897523 0.02235245
0001b0 c3 1f cd be fc 4f 06 be 0a 7c b1 bd d5 a8 96 be
       -0.40063295 -0.13116449 -0.08666237 -0.29425684
0001c0 1b 25 1f 3e e6 7a c1 3d d3 5c 0f 3e 88 0f c3 3d
       0.15541498 0.09447269 0.14000253 0.09524447
0001d0 d9 5e 03 bf 46 11 93 be d2 a8 a3 be a3 9e 5e be
       -0.513166 -0.28724116 -0.31964737 -0.21740203
0001e0 13 b9 fa 3d 3e d8 b8 bd 4c e5 41 3e 5f 67 d9 3d
       0.12242331 -0.0902562 0.18935126 0.106154196
0001f0 91 f4 9f 3e 50 9a a0 3e 35 90 0a be 5a cb bc bd
       0.31241277 0.3136773 -0.13531573 -0.09218474
000200 36 67 f2 bd 4d 2d 97 3e 38 70 ef 3e b0 0d ac 3c
       -0.11836092 0.2952675 0.46765304 0.02100262
000210 57 0d 22 bd 1e 8b 57 3e f1 01 d1 3e f6 27 c5 3d
       -0.039563503 0.21049163 0.40821794 0.096267626
000220 bb 42 5b 3e 41 48 c8 3c 11 a0 cb 3d b1 11 43 3d
       0.21412174 0.024448516 0.099426396 0.047624294
000230 92 d0 2c bd 15 49 a6 3e c0 dc fa 3d 12 88 af 3d
       -0.042191096 0.32477632 0.12249136 0.08570875
000240 7e 44 4e bd e4 ed d3 3c e8 ae 94 3e 5d 0a ee bd
       -0.050358288 0.025870271 0.29039693 -0.116230704
000250 3a db a2 bc 2a 60 f9 3d 2a 4c 8d 3c cb 4f d3 3c
       -0.019879926 0.12176545 0.017248232 0.025794884
000260 23 ac b6 bd 51 11 39 3e 8f 50 88 3e 39 04 e1 be
       -0.08919551 0.18073012 0.2662396 -0.43948534
000270 91 fc 71 be f6 cf 94 be 8b fb 7e 3d b2 d4 ee bc
       -0.23631503 -0.29064912 0.06225161 -0.029154155
000280 b1 04 53 3e 5e d7 4e 3e c1 5a 16 be e4 8a 21 be
       0.20607258 0.20199344 -0.14683057 -0.15775639
000290 b5 c0 9a 3e ee eb 15 3e 44 5e cb 3e d2 a2 c9 bc
       0.3022515 0.14640781 0.39720356 -0.024613772
0002a0 11 23 72 3b 4d 31 f4 3d 9a 14 18 3e 9d 5f 96 3e
       0.003694717 0.11923466 0.14851609 0.29369822
0002b0 24 14 82 3d ed 32 41 bd e6 dd 7e be bb 9e 14 be
       0.06351498 -0.047167707 -0.24889335 -0.14513676
0002c0 89 26 53 be 4a 19 bc 3e 06 5e 03 3f 0f 66 8e 3e
       -0.20620169 0.36738044 0.51315343 0.2781224
0002d0 3a a4 aa be 97 3c 15 be 7b b6 22 bd ae 69 2c be
       -0.3332842 -0.14573894 -0.03972481 -0.16837189
0002e0 3c 62 00 bc 18 b5 0b bd d6 05 84 3e aa 89 99 bc
       -0.007835921 -0.03410825 0.25785702 -0.018742401
0002f0 29 29 29 be 32 fe 05 3f 19 fd 89 3c 45 c6 3d be
       -0.16519608 0.52340996 0.01684432 -0.18532665
000300 99 b0 fd bd 93 5b 2c 3d ac df 93 be e6 86 b2 be
       -0.12387199 0.04207952 -0.28881586 -0.34868544
000310 5d 29 39 3c 71 e9 6b be c4 b5 f7 3c 1f b2 be bd
       0.011301366 -0.2303827 0.03023804 -0.09311318
000320 8b 50 9d be d4 87 4b 3e 3d 53 53 bc 19 0d 4b 3e
       -0.30725512 0.19876033 -0.0128982635 0.19829215
000330 ff 76 b1 bd fa 0b d0 bc d1 41 d4 3e 69 3f 18 3e
       -0.08665275 -0.025396336 0.41456464 0.14867939
000340 7e 68 ac 3d c3 7f 66 bc 2f 09 0f 3d e7 67 3d be
       0.08418368 -0.014068547 0.034920868 -0.18496667
000350 42 8a b8 be f9 ac 38 be ba a5 e7 bd 31 cb 7b 3e
       -0.36042982 -0.18034734 -0.11310907 0.2458923
000360 39 e8 13 3e c1 5b 94 bd e9 e5 d6 bc 5d 35 39 3e
       0.14444055 -0.07244063 -0.026232677 0.18086763
000370 50 2b c7 3e 57 e2 46 be d1 a3 00 3e 52 88 a4 bd
       0.38900232 -0.1942228 0.12562491 -0.080338135
000380 99 6e aa be 2b 3e 7a be a7 c0 35 3e 93 02 82 be
       -0.33287504 -0.24437778 0.17749272 -0.2539259
000390 aa 0a 91 bd ef 85 e9 be d3 d8 0b bf 3f 7a ba 3d
       -0.07082112 -0.45609996 -0.5462772 0.09105348
0003a0 cb 83 e8 bc 09 52 05 be ae 01 6f 3d ee db 0c 3e
       -0.028383156 -0.13019575 0.05835121 0.13755772
0003b0 09 b1 30 3e 76 c6 b2 bd e0 19 1b be 4f 83 07 3e
       0.17255034 -0.0872926 -0.1514659 0.13233684
0003c0 f6 cc d6 3e 1f 3b 38 3d 76 79 95 3d 04 36 42 bd
       0.41953248 0.044978257 0.072985575 -0.047414795
0003d0 c9 a1 0a 3e 3f ee 05 bd dd 09 82 be 32 c3 a0 be
       0.13538279 -0.032697912 -0.2539815 -0.31398922
0003e0 d6 d9 8d 3e 2f 40 47 be fc 25 3b 3e 04 6a 1c be
       0.27705258 -0.19458078 0.18276209 -0.15274817
0003f0 1a 71 7e bd 5b 2a ce be a8 ae e5 bd a0 60 b0 3e
       -0.06211958 -0.4026669 -0.11214954 0.3444872

network_body._body_endoder.seq_layers.0.bias f4 [128]
000000 d5 98 f2 bc 96 cf bd 3d 02 c9 23 bc 8f f7 78 bd
       -0.029613892 0.092681095 -0.0099966545 -0.060782965
000010 19 aa 3b 3d 74 1d 36 bd 1a 09 54 bd 9a 78 25 bc
       0.045816515 -0.044461682 -0.051766492 -0.010099554
000020 5f a1 4d bc 0d f3 c6 3c 5e fe a6 bd 9a 70 2f bd
       -0.012550681 0.024285818 -0.081539854 -0.042831995
000030 6f a7 6f bd 5d a3 3b bd 5e 3f 41 bd ba 79 a6 bd
       -0.058509286 -0.045810092 -0.047179572 -0.08128686
000040 55 30 38 bd 9a 8f 73 3d 3a dd 50 bd b1 0c fd bd
       -0.044967968 0.05946312 -0.050992228 -0.12355936
000050 46 1c 87 bd d7 7c 2e 3d 1f 3a 96 bd 84 1c cf 3c
       -0.065971896 0.042599525 -0.073353045 0.025282152
000060 e4 1b 60 bc 8e 7b c9 3c e8 f9 94 3c 0f 6b 03 bb
       -0.013678525 0.024595048 0.01818557 -0.0020052826
000070 de 19 b6 bd 13 5a b1 bd 35 06 9c bc b6 2f 29 3c
       -0.088916525 -0.086597584 -0.019045928 0.010326317
000080 a3 fe 98 bd 3d 72 7f bc c8 80 89 3d 07 d6 6b bd
       -0.07470443 -0.015591201 0.06714016 -0.05757716
000090 8e a1 a8 bd c9 69 ce bd 76 ae 56 bd 54 09 28 3c
       -0.08233939 -0.10078771 -0.052412473 0.01025613
0000a0 b7 69 5b bc ca e1 31 bd 2d b1 b3 bc 5b ad 16 3c
       -0.013391904 -0.04342822 -0.02193507 0.009196605
0000b0 47 83 bf 3a 0a 2c 0c bc 97 3e 61 bb 35 2d 90 39
       0.0014611267 -0.008555422 -0.0034369582 0.00027499502
0000c0 29 b5 1f bd 2a 47 ec bd fd 52 35 ba b4 84 17 3d
       -0.038991127 -0.11537011 -0.0006916968 0.03699179
0000d0 57 6a 1c bc 8c 4a 13 bd 90 56 fe 3c a0 fb 04 3d
       -0.009546838 -0.035959765 0.031047136 0.03246653
0000e0 d1 5b a3 bd 8d 26 6f 3d 3e 28 6a 3d fc 45 90 bb
       -0.07976497 0.058386374 0.057167284 -0.004402874
0000f0 6b 49 36 3d 63 8a c6 3c 61 64 a5 bc 03 1f 2e 3d
       0.04450361 0.02423591 -0.020189466 0.042510044
000100 04 6b 9f bc 4f af 97 bd 91 2d 71 3c 03 f7 35 bd
       -0.019460209 -0.07406484 0.0147203365 -0.04442502
000110 05 14 6e bd 46 f5 22 3d 6f e7 5d bd 3b f1 e5 3c
       -0.05812456 0.039784692 -0.05417579 0.02806913
000120 d9 62 62 bd 90 13 f7 bc af 47 6d bc b4 00 ca ba
       -0.05527005 -0.030160695 -0.014482423 -0.0015411587
000130 39 61 4d bd 88 98 9e bc 44 06 d3 bc 11 53 11 bd
       -0.050141547 -0.019359842 -0.025759824 -0.03547961
000140 5d 34 55 bd 11 00 4f 3b f6 15 53 bd 26 b3 c0 3c
       -0.05205189 0.0031585733 -0.051534615 0.023522925
000150 9e 70 49 bd 4d d6 f4 bc b4 38 45 bd fb 03 c0 bd
       -0.049179666 -0.029887343 -0.04814978 -0.09375759
000160 37 c6 63 bd 61 e0 35 3d 25 e2 24 bd c1 64 5b bd
       -0.055608954 0.044403438 -0.04025473 -0.053562883
000170 5b 85 43 3c a7 bc b5 3c ad ff 3c 3c a7 2f d4 bd
       0.01193365 0.022184683 0.011535567 -0.103606515
000180 b2 51 32 bd 8c ca b2 bc 29 c9 6c bd dc 84 18 bc
       -0.043534942 -0.021825098 -0.05780903 -0.00930902
000190 90 3e 0e 3c 9e 4b 98 3b 66 05 83 bc 84 83 de 3d
       0.008681908 0.004647686 -0.015993785 0.10864928
0001a0 ba dd 17 3c c9 dd 7d bb e1 ac e0 3c c0 54 ab 3d
       0.009269172 -0.003873693 0.027426185 0.08365774
0001b0 68 4d 12 3d c3 ef 25 bd 37 57 f1 bd 13 c9 c3 3c
       0.03571835 -0.040511858 -0.11784213 0.02389959
0001c0 43 cc 59 bb b7 d3 ad bd 66 f6 bf bc d6 b6 48 bd
       -0.0033233322 -0.08487647 -0.023432922 -0.04900249
0001d0 03 28 e6 bc cc f4 10 3d 7d de 8e 3c f8 4e 06 3d
       -0.028095251 0.035389706 0.017440075 0.032790154
0001e0 9a 57 03 be 72 f4 0a bb 83 cb 57 bd c7 07 b6 bc
       -0.12826386 -0.002120283 -0.05268432 -0.022220505
0001f0 79 99 8f bd 67 2b b7 3c 25 40 9f bd 1d 44 fd bc
       -0.070116945 0.022359563 -0.077759065 -0.030916268

network_body._body_endoder.seq_layers.2.weight f4 [128, 128]
000000 c8 bf da 3d 2d e7 0f 3c 94 2d a9 3d 3b d6 ea bd
       0.106811106 0.008783144 0.082606465 -0.114666425
000010 67 c4 06 3d 17 d7 23 be f4 52 a1 3d 55 01 c4 bd
       0.032902148 -0.16000019 0.0787715 -0.095705666
000020 55 f0 bc 3c bf b7 c5 bc 45 ed 8f 3d 5a 43 80 bc
       0.023063818 -0.024135469 0.070276774 -0.015657116
000030 f0 18 a7 3c 15 f6 69 3d 24 68 34 be b3 56 94 bd
       0.020397633 0.057119448 -0.17617851 -0.07243099
000040 cb 94 e0 bd 1a c5 91 bd 90 fe b5 3d 80 6f 9d bd
       -0.1096588 -0.07117672 0.088864446 -0.076872826
000050 1d 72 e6 bc 0c 94 0e 3e 3d f9 48 be 59 7d b0 bd
       -0.028130585 0.13923663 -0.19626327 -0.08617658
000060 6b 76 0f be 18 c5 45 3c 8b bf 9f bd e1 20 92 3d
       -0.14010017 0.012070917 -0.07800206 0.071351774
000070 98 24 1b bd 33 1a a4 bd 04 1b 72 bc 09 fb 7b bd
       -0.037876695 -0.080128096 -0.014776949 -0.061518703
000080 28 16 c0 3b 97 39 25 3d 4c fc 84 bd 10 df 22 bc
       0.005862016 0.040338125 -0.06493434 -0.009940878
000090 93 c4 9a 3d 8d 9d 9e bd 19 28 e7 3d 9e c2 3d bc
       0.07557025 -0.07744894 0.11286945 -0.011582045
0000a0 d5 96 32 3c b2 cf 1a be b5 f5 96 bd 26 d6 a6 bc
       0.010900219 -0.15118292 -0.07371084 -0.020365786
0000b0 7b 8d 77 ba af ba 83 3d db ed 3a 3d db 0c f0 bd
       -0.00094433845 0.064320914 0.045636993 -0.11721202
0000c0 db 38 bf bd c5 47 0f 3e 5b 0f df 3d ef 17 ad bd
       -0.09337016 0.13992222 0.10891601 -0.084518306
0000d0 17 c8 b7 3d 6c 24 b6 bd 1a 5a 45 bd 15 54 ab bd
       0.08973711 -0.08893666 -0.04818163 -0.08365647
0000e0 2a 7e 84 3d b6 1c a8 bc 79 47 08 3e af 2d 31 be
       0.064693764 -0.020521503 0.13308515 -0.17302583
0000f0 0e a2 97 bd b3 99 af bd 3a 10 4b ba 54 6a 8a bd
       -0.07403956 -0.08574238 -0.00077462534 -0.06758562
000100 52 c8 e6 bc 3f 46 74 3d 57 54 ca bc 98 3b c8 3d
       -0.028171692 0.059637304 -0.02469842 0.097769916
000110 f4 15 62 bd 9a 6f 29 3e 85 ba a5 3d 84 84 ad 3b
       -0.055196717 0.16546479 0.080922164 0.005295338
000120 4d f6 81 bc 0c da fc bc 65 55 83 bc b4 81 d4 bd
       -0.015864516 -0.030865692 -0.01603193 -0.103763014
000130 34 78 0c 3d 2e 88 2c bd 42 05 e8 bc 8f 4f 22 3e
       0.034294322 -0.04212206 -0.02832282 0.15850662
000140 f2 4c 32 3d eb f1 b9 3d b8 c4 9f 3d 63 38 d8 bd
       0.043530412 0.09079345 0.07801193 -0.1055763
000150 84 dc 37 bd 29 28 c8 3b 22 e9 9a bd 64 56 d6 3c
       -0.044888034 0.006108303 -0.07563998 0.026164241
000160 44 6f f8 bd 28 f3 90 bc 0d ac ec 3c 24 c4 b4 bd
       -0.12130597 -0.017694071 0.028890634 -0.08826473
000170 ea ec da 3d 3c 0b 16 3e 46 22 99 bd b9 bc 8a bd
       0.10689719 0.14652723 -0.0747724 -0.06774277
000180 79 fd 83 bd e3 37 30 bd df d9 8b 3d fa 93 34 ba
       -0.064448304 -0.043022048 0.06828665 -0.00068885053
000190 06 c9 d9 3c ec 77 1f be e1 9d 50 3d 16 cc 25 bd
       0.026585113 -0.1557309 0.050931815 -0.040477835
0001a0 8c 51 41 3d 37 a2 31 3d 98 71 4b bd 01 d0 11 3c
       0.04719691 0.04336759 -0.04966888 0.00889969
0001b0 dd 93 ad 3d e4 f3 c9 bd cf 50 69 bb ce 61 ea 3c
       0.08475468 -0.098609716 -0.0035601144 0.02861109
0001c0 9a 48 61 bc 91 a9 84 3c 7c 2c 04 bd 17 2c 7f 3a
       -0.01375022 0.016194137 -0.032268986 0.0009734048
0001d0 ca 88 65 3c 11 43 37 bd 90 01 8e 3c 11 c4 2b be
       0.014009664 -0.044741694 0.01733473 -0.16774012
0001e0 fe af 11 3e 70 3c 36 3d 89 34 ce 3d a8 31 da 3d
       0.14227292 0.04449123 0.10068614 0.106540024
0001f0 69 eb f8 3c 74 7a a0 bd 86 a3 1a bd ce 06 6d bd
       0.03038569 -0.07835856 -0.037753604 -0.057867818
000200 c5 be 66 bd 10 fd 69 bb 5d 40 2a be 06 a3 32 bd
       -0.056334276 -0.0035703816 -0.16626115 -0.043612503
000210 38 4d 81 bd 90 12 c5 3d d9 e7 2c be 68 7a ac 3d
       -0.063135564 0.09622681 -0.16885318 0.08421785
000220 c8 2d 7c bd ad 50 1a be 6a 81 c2 bb 2b c5 fb 3c
       -0.061567098 -0.15069838 -0.0059358375 0.030733665
000230 7a ca 98 3e 6e 10 0d bd e4 89 95 bd f7 da 9e 3c
       0.29841977 -0.034439497 -0.07301691 0.01939152
000240 37 a1 c5 bc c3 99 04 3e a4 2e 52 be e4 26 e7 bb
       -0.024124725 0.1294928 -0.20525604 -0.0070541967
000250 9f 07 05 bc 6e 6b 28 be f0 08 37 bd dd 80 8d bd
       -0.008119493 -0.16447231 -0.044686258 -0.06909344
000260 e3 8a b2 3d f8 73 42 3d 21 56 32 bd 0a 99 bf 3d
       0.08717897 0.047473878 -0.04353917 0.09355362
000270 39 78 94 bc 22 a1 16 be 67 95 34 3d dc 02 21 be
       -0.018123733 -0.14709905 0.044087794 -0.15723747
000280 a7 95 20 be b1 ca 07 3c 8d ea 60 3d a5 8d a2 3d
       -0.15682088 0.0082880715 0.054911185 0.07937173
000290 a5 79 20 be e7 d4 02 be 9a 26 4b be 76 50 37 3c
       -0.15671404 -0.12776528 -0.19838944 0.011188617
0002a0 86 31 3a 3e e7 de 7d be 38 0c 7f bc a3 8e 8f bc
       0.18182954 -0.24792062 -0.015566878 -0.01752407
0002b0 17 47 d6 bd 05 6f 6d bd 58 35 fb 3c 2b be 97 3c
       -0.10462778 -0.057967205 0.030665085 0.018523296
0002c0 e6 57 ab bd d1 f3 e9 3d a7 2a a9 bd 69 7d 6c be
       -0.08366375 0.114234574 -0.082600884 -0.23094715
0002d0 fe a6 10 bd 37 f5 55 3c d0 2a 08 bd 67 a9 4f bd
       -0.035315506 0.013058952 -0.033243954 -0.050698664
0002e0 16 c3 1b 3d 67 f4 1a be a1 31 46 3e 5e 1c 1e be
       0.038027845 -0.15132295 0.1935487 -0.15440509
0002f0 41 47 97 bc 63 32 2a bd 4b 99 48 bd 89 03 01 3d
       -0.018466594 -0.04155196 -0.048974317 0.031497512
000300 c5 5f 40 3e a0 5f 7b bd ab 74 a6 bd eb 22 88 bd
       0.18786533 -0.061370492 -0.081277214 -0.06647285
000310 f7 8b 36 3d 46 7c e1 3d 99 06 18 3d e6 de b3 bd
       0.044567075 0.110100314 0.037115667 -0.08782749
000320 64 5b 93 b9 95 bf 86 bd f0 c7 97 bd e4 a9 9b bc
       -0.00028106116 -0.0657951 -0.07411182 -0.019001909
000330 55 6b 02 3e 01 d3 c6 bd 3c 7a 76 3d 99 14 11 be
       0.12736256 -0.097082146 0.060175166 -0.14168014
000340 be 9f f2 bd 83 f3 45 3d 99 71 0f 3e 24 39 75 3c
       -0.11846875 0.048327934 0.14008178 0.014967237
000350 31 00 64 3d 79 29 ed 3d a8 af b5 bd 1e b4 20 be
       0.055664245 0.11580176 -0.088713944 -0.15693709
000360 dc f7 3e be 44 69 70 bd 29 3d e0 3c e7 52 8b 3c
       -0.18649238 -0.05869414 0.027372913 0.017007304
000370 3a 65 40 bd 2a f3 dc 3d 51 02 12 be 76 ea 87 bd
       -0.046971537 0.10788567 -0.14258696 -0.06636517
000380 ce b5 5e 3e dc b1 be bd d7 f4 a9 3d f6 f5 84 bd
       0.2174904 -0.09311268 0.082986526 -0.06492226
000390 95 d8 68 bd 7c aa 95 bd 8b 09 6b bc b5 16 4a bd
       -0.056847174 -0.07307908 -0.014345537 -0.04933806
0003a0 e7 07 a9 bd 3c 8a 76 bd 3b f7 a5 bd d6 b9 7a 3b
       -0.082534604 -0.060190424 -0.08103796 0.003825774
0003b0 e7 1c cb bc 52 61 9f be 34 11 d1 bb 6b aa bf bc
       -0.024794055 -0.31128937 -0.0063802246 -0.023396691
0003c0 35 da 05 bd 80 77 e2 bd b9 98 f8 bd 09 01 be bd
       -0.0326788 -0.11057949 -0.121385045 -0.09277541
0003d0 74 d1 c8 3b e3 9b 95 bd 31 8a 9a 3d 2a c0 27 bc
       0.0061284844 -0.07305124 0.07545889 -0.010238687
0003e0 c5 89 05 3e 48 7b 3a 3c 71 0c 9f 3d 20 50 2f 3d
       0.13040836 0.011381932 0.07766045 0.042801023
0003f0 58 af 45 bd 3e 9d 0d bc 94 53 6c 3d fe 22 25 3d
       -0.048262924 -0.0086434465 0.057696894 0.040316574

network_body._body_endoder.seq_layers.2.bias f4 [128]
000000 19 50 c5 bc 4d 73 83 bc c8 78 b9 3c 7f 63 10 3c
       -0.024086045 -0.01604619 0.0226406 0.008812784
000010 97 0e d2 bd cd 5d 36 bd b5 a0 11 bd e4 59 85 3d
       -0.10256689 -0.04452305 -0.035553653 0.06511286
000020 7e 6a 02 bd 9a b1 18 bd dc f1 30 bd 62 56 b6 bc
       -0.03183984 -0.03727875 -0.043199405 -0.022257987
000030 57 1e dd 3c 0b ea ea bd 11 60 35 bd 24 ed db bc
       0.026992006 -0.114704214 -0.04428107 -0.026846476
000040 6c 33 1a bd 01 de 46 bd 98 d7 08 bd c1 16 51 bd
       -0.037646696 -0.048551563 -0.03340873 -0.05104709
000050 06 09 4d bd 0c ea 6b bd fe 7a 03 3d 28 bc 87 bc
       -0.050057434 -0.05759625 0.032099716 -0.016569212
000060 ec 49 dd bc d2 fd b9 bc 51 06 31 3d f7 d1 6c bd
       -0.027012788 -0.022704039 0.043218914 -0.057817426
000070 a0 45 af bc 4a ae de bc 71 23 8e bd 26 18 40 bc
       -0.021395504 -0.027182717 -0.06940354 -0.011724507
000080 c8 de 82 3b 39 e9 a3 bc 08 9a ca bc eb 4a 18 bd
       0.0039938428 -0.02000867 -0.024731651 -0.037180822
000090 f7 66 1e bd 97 30 70 bb 8e 0d c9 bd 80 0d 51 bc
       -0.038672414 -0.0036650056 -0.098170385 -0.012759566
0000a0 99 2e 34 3c 3a f6 67 bd 92 46 c1 bd 8a 9f 02 bd
       0.010997438 -0.056631304 -0.09437288 -0.03189043
0000b0 2d 25 be bc bc 90 00 bd 6c d8 eb bc af e0 0f bd
       -0.023211086 -0.03138803 -0.028789721 -0.035126384
0000c0 93 f5 b3 bd 29 75 7f bc 66 c5 3d 3d dc be 49 3d
       -0.08787074 -0.015591898 0.046330832 0.049254283
0000d0 cc c7 4c bd 95 ce b9 bd 71 05 19 bd 52 cf 33 bd
       -0.04999523 -0.090726055 -0.037358705 -0.043898888
0000e0 35 cb 92 bc 18 a0 a9 bd 7e 09 bc bd 7e b8 5d bd
       -0.017919162 -0.082824886 -0.09181498 -0.054131024
0000f0 a8 49 00 bd ff 48 21 bc 48 50 81 bd 6c af 10 3d
       -0.031320244 -0.009844064 -0.063141406 0.035323545
000100 c1 45 ff bc e0 1b 1f bd 1a 04 de bc f3 59 51 bd
       -0.031161191 -0.038844943 -0.027101565 -0.051111173
000110 db 7a c0 bc 04 67 87 bd 46 6b 54 bd 10 09 3b 3b
       -0.023496082 -0.066114455 -0.051860116 0.0028539337
000120 28 a8 23 bd 2d 9a 68 bd 18 8d f0 bc 17 50 85 bd
       -0.03995529 -0.05678766 -0.029364154 -0.065094166
000130 72 3f c8 3d 1d e3 15 bd 40 e8 c9 bd 90 82 92 bc
       0.09777726 -0.036593545 -0.09858751 -0.017884523
000140 4b 4b e2 3c ad f3 13 bb 77 d8 84 bb 1b e6 60 bc
       0.027623793 -0.0022575662 -0.004054125 -0.013726736
000150 b4 c1 44 bc 3e 12 3f 3d ab 47 c5 3c 04 c6 1b bd
       -0.012009073 0.046648256 0.024082026 -0.03803064
000160 1a 44 61 bd 5e 0f 96 bc 42 79 c7 3c b1 d0 59 bb
       -0.054996587 -0.018317875 0.024349812 -0.0033235962
000170 aa 23 a2 bd 00 ac 68 bd c4 ff c5 bc c0 3f 4b bd
       -0.07916959 -0.056804657 -0.02416981 -0.049621344
000180 72 78 91 3a 00 76 d4 bd ce 2f 4c bd 32 f8 ef 3c
       0.0011098518 -0.10374069 -0.049850278 0.029293153
000190 0a c2 ab bd 2a 05 e1 bc 6c c0 7b bd 75 42 b4 bd
       -0.083866194 -0.027468283 -0.061462805 -0.08801738
0001a0 36 e0 e9 3b cb 78 af bd 90 fc 25 bd 98 ac cb 3d
       0.0071373237 -0.08567961 -0.040524065 0.09945029
0001b0 c4 e6 04 bd ef 8f 7d bd b5 1a 65 bd d1 1f 43 bd
       -0.032446638 -0.061904844 -0.055933673 -0.047637764
0001c0 95 26 81 bd af 22 f9 bc 91 29 60 bd ec a1 f7 bc
       -0.06306187 -0.030412046 -0.05472714 -0.030228578
0001d0 e5 62 97 bd 0b f6 0d 3c 84 5b 89 bd 92 40 95 bd
       -0.073919095 0.008664618 -0.06706908 -0.072877064
0001e0 c2 bb f1 bb b4 37 ec bc 94 27 a4 bb ed 2d 95 bd
       -0.007377119 -0.028835155 -0.005009601 -0.0728415
0001f0 c6 af 6c bd d6 82 a3 3c af 27 42 bd f3 73 b5 bd
       -0.057784818 0.019959848 -0.047401126 -0.08860006

action_model._continuous_distribution.log_sigma f4 [1, 2]
000000 99 46 4b be 43 7a 8a be
       -0.1985115 -0.27046403

action_model._continuous_distribution.mu.weight f4 [2, 128]
000000 ed c3 90 3c 06 90 df bc f8 6d f7 3b f1 6c f5 bc
       0.01767155 -0.027290355 0.007550951 -0.029959174
000010 5b f7 93 3c 6d f5 b1 3a da 8e b1 bb 61 e1 76 3c
       0.018062284 0.0013577171 -0.0054186406 0.015068383
000020 54 be fa 3b 44 4e a5 3c 79 7c 26 bb 9c 36 df 3c
       0.0076520834 0.020178922 -0.0025403781 0.02724772
000030 ab ed a3 bd b3 20 40 ba c3 84 8c bc 26 bd 39 3d
       -0.08004316 -0.00073290913 -0.01715315 0.0453464
000040 e2 9c 6d 3c 90 84 28 3d d4 d0 39 3c 72 ae 90 3c
       0.014502736 0.041142046 0.011341292 0.017661307
000050 c6 d2 b4 3c f8 b0 84 3a d4 95 06 bd 6a c8 d5 3b
       0.02207316 0.0010123542 -0.03285773 0.0065241354
000060 03 6a 07 3d 11 de 53 bd 21 36 50 bd 49 d5 dc bb
       0.033060085 -0.05172545 -0.05083287 -0.0067392928
000070 4c 2f 9b 3c 61 73 5f 3c 6f d1 5a bd af c4 48 3c
       0.018943451 0.013638348 -0.053422388 0.012253924
000080 99 8b 92 bc 03 6d a7 bc 3c 8c b6 bc 6c e3 b8 bb
       -0.017888831 -0.020437723 -0.022283666 -0.005642345
000090 aa 09 de bc e2 42 1d bc 68 9f 6e 3b 0f 7a bf 3c
       -0.027104218 -0.009598466 0.0036410931 0.023373632
0000a0 f8 06 1c ba f6 72 4c 3c ac ef 3b bc 93 02 66 3c
       -0.0005951966 0.012478581 -0.011470716 0.0140387
0000b0 19 12 08 3c 23 8b f9 bb 7a a6 dd 3c 64 e5 3a 3c
       0.008305096 -0.0076154633 0.027056921 0.01140723
0000c0 67 6c 14 bc 6d ea 65 3c a7 65 81 bc 71 31 19 3b
       -0.009059048 0.014032942 -0.015795542 0.0023375417
0000d0 03 7e 1e bb f0 49 47 3c bc 6c cf bb d1 5e 67 3d
       -0.0024183996 0.012163624 -0.006330101 0.05648691
0000e0 66 e6 7e 3c 32 06 1f 3d f3 bb e1 3b 33 a0 9f 3b
       0.015557861 0.038824268 0.0068888604 0.004871392
0000f0 68 16 ca bb 15 0f 1b bc af 75 05 b9 30 2c 70 3d
       -0.006167222 -0.009464045 -0.00012727709 0.05863589
000100 29 5a ef 3c 96 bb db bc c3 ed 0d 3d 99 78 0c 3c
       0.029217796 -0.026822846 0.034650575 0.008573675
000110 64 0f cf 3c fc 11 f0 3b b8 14 24 3d c0 f8 66 37
       0.025275894 0.0073263627 0.04005882 1.3766985e-05
000120 70 55 b4 3c ae 5c db 3c 36 74 17 3d 6a e6 4c 3c
       0.022013396 0.026777592 0.03697606 0.012506107
000130 93 f9 a1 bc 81 78 e5 bb 23 25 8c 3c ba 80 2a 3c
       -0.019772327 -0.0070028906 0.017107552 0.010406667
000140 90 69 93 3a 31 47 cc bc fc 57 83 bc 6e d5 15 3c
       0.001124667 -0.02493629 -0.016033165 0.009145124
000150 e0 03 04 bd a0 65 7e 3c 4d a1 0e bc 36 db 24 3d
       -0.032230258 0.015527159 -0.008705449 0.04024812
000160 a2 cc 48 3b ea a1 95 ba 57 fa 87 bd 5c 30 05 bc
       0.0030639549 -0.0011416052 -0.066395454 -0.008129206
000170 8e 48 0f bc c9 84 10 3c 49 1d 27 3d 94 69 d2 3b
       -0.008745326 0.008820721 0.040799413 0.0064212773
000180 93 11 0e 3d 7f c8 09 3c 5f bf c1 3c ce b2 10 3d
       0.03468473 0.008409618 0.023650823 0.03532677
000190 2c a0 8c ba 5a 1c 83 bc d9 8e 2f bc 6e e3 21 bc
       -0.0010728887 -0.01600473 -0.01071521 -0.009880884
0001a0 9a ae 8b bc bf e1 05 bc a1 ac 93 3c f9 13 34 3c
       -0.01705103 -0.008171498 0.018026652 0.01099109
0001b0 55 e5 81 3c 06 64 86 bb 93 bb c9 3b 57 a4 89 3b
       0.015856424 -0.004101279 0.006156394 0.004200499
0001c0 6f 58 8b 3c 3b 73 ec 39 cf 51 02 3d a6 06 0c bc
       0.017009942 0.0004509928 0.0318163 -0.008546507
0001d0 20 84 1b 3a a9 9b 28 bc 77 e6 8f bb 4c 7e 19 bc
       0.0005932469 -0.0102910185 -0.004391487 -0.00936849
0001e0 aa 1a 47 3d b7 af 84 3b bc 3a e3 bc b7 89 8b 3b
       0.048609413 0.004049267 -0.027737968 0.0042583602
0001f0 ff 74 1b 3a 4b a4 15 3d e8 df 58 3c 28 d7 51 3c
       0.00059302145 0.036533635 0.013236977 0.012807645
000200 a2 00 c8 bd cd 24 c0 bc 96 4a 18 3d dc 19 fc 3b
       -0.09765746 -0.023455048 0.037180506 0.0076935124
000210 44 f6 44 bd 4b 9a 59 bd df a9 98 bd 55 d2 51 3d
       -0.04808642 -0.05312566 -0.07454275 0.05122598
000220 da 81 b6 bd 70 7a 9b bd 51 00 aa bc 95 ff ce bd
       -0.08911486 -0.075917125 -0.020752104 -0.10107342
000230 ee de 15 3c 2c 9c f3 bb 6f b6 40 bd f1 f4 88 3c
       0.009147389 -0.0074343886 -0.047048982 0.01671836
000240 13 c4 93 bd ad 92 48 bd a4 fc 94 bd 69 7c bc bd
       -0.072151326 -0.048968006 -0.0727475 -0.09203417
000250 35 9e 8c bd 6a a6 94 bd 5c 20 ec 3c 8c 8d ce bd
       -0.06866113 -0.072583035 0.028824024 -0.10085592
000260 c3 1f a4 bd 70 23 6d bd ca c5 2a 3c d5 cd 5e bd
       -0.080138706 -0.057895124 0.010423133 -0.054395515
000270 b8 5d a8 bd be 7b 86 bd 65 a0 01 bd 76 ff 98 bd
       -0.082210004 -0.06566571 -0.031647105 -0.074706
000280 4a fd da bd 9a 79 17 be 78 e2 88 bd 94 f7 80 bd
       -0.10692842 -0.14792481 -0.066838205 -0.06297222
000290 b9 7d 9f bd 9d 9a 84 3b d1 79 03 bd bb bf bd bd
       -0.077876516 0.0040467517 -0.032098595 -0.09265085
0002a0 33 45 fc 3c 51 58 72 3c e6 d5 a1 bc 97 08 d4 bd
       0.030794716 0.014791564 -0.019755315 -0.10353201
0002b0 9f 1d ad bd 0d 6c 68 bd 0b 70 ee bd f0 0b a4 bb
       -0.084529154 -0.05674367 -0.11642464 -0.005006306
0002c0 18 7d 0c bd b3 51 96 bd 08 c7 52 3d fe 2a 5d 3d
       -0.034298986 -0.07339802 0.051459342 0.05399608
0002d0 af a0 82 bd 6a af 8f bd 6d 5e 3a bd 28 43 56 3c
       -0.06378304 -0.070158795 -0.045500208 0.013077535
0002e0 74 2d c3 bd 3e 34 68 bc 5c 82 2b bd 0e db 2b bc
       -0.09530154 -0.014172612 -0.041872367 -0.010489238
0002f0 d9 5c 29 bb b4 c7 e7 bd bb 84 a4 bd 6c 4a a2 3c
       -0.0025842695 -0.11317387 -0.08033129 0.019810878
000300 c3 78 ce bd ea 36 30 bd 8d 77 8d 3c a6 07 a2 bd
       -0.10081627 -0.04302112 0.01726892 -0.07911615
000310 67 c3 9b bd e4 1c 9c bd e9 6c fd bd d0 dc 8b bd
       -0.076056294 -0.07622698 -0.123742886 -0.06829226
000320 f3 86 b5 bd 70 05 76 bd 09 41 98 bd bf e0 d0 bc
       -0.0886363 -0.06006378 -0.074342795 -0.025497792
000330 e9 40 7d 3d 24 45 5b bd 0e 41 db bc 11 2f 40 bd
       0.06182948 -0.053532735 -0.026764419 -0.046919886
000340 d1 7b eb bd 10 1f 2f bd 1e 1a c8 bd a9 84 a4 bd
       -0.114982255 -0.042754233 -0.097706065 -0.080331154
000350 27 20 bd bd 5a 56 5a 3d 9e 4d e0 3c d1 c5 c3 bd
       -0.09234648 0.053305008 0.02738076 -0.09559215
000360 51 00 ad bd 7e 44 a7 bd 40 01 38 b8 a3 9b f7 ba
       -0.08447326 -0.08167361 -4.3870183e-05 -0.0018890988
000370 34 a1 53 bd 16 b1 8e bd 03 c2 ca bd ea 66 3b bd
       -0.051667407 -0.0696737 -0.09900286 -0.045752443
000380 68 3f df bd fc 4f ef bc a7 44 ba bc 35 47 55 3d
       -0.10900766 -0.029212944 -0.022737814 0.05206986
000390 62 cc 00 bd f9 55 dd bd 94 26 96 3c b5 95 05 bd
       -0.031444915 -0.108074136 0.018328942 -0.032613475
0003a0 ed 23 a0 bc b2 c8 c3 bc 65 5a 99 bd db 55 97 3d
       -0.01954838 -0.02389941 -0.074879445 0.073894225
0003b0 47 80 ad 39 5e b5 5e bd 15 68 06 bd 20 e6 47 bd
       0.00033092705 -0.054372184 -0.032814104 -0.04880345
0003c0 01 26 6f bb b5 6e bd bd 23 0f 84 bd 45 84 e4 bc
       -0.0036491158 -0.09249631 -0.064481996 -0.027895102
0003d0 fa e2 29 bd 52 8d f1 bd c2 d2 9d bd 91 c8 52 bd
       -0.041476227 -0.11794533 -0.077062145 -0.051460806
0003e0 f7 9f ad bd cf 58 9e bd 5a 86 b5 3a 23 86 ba bb
       -0.084777765 -0.07731783 0.0013849244 -0.00569226
0003f0 63 40 a4 bd a0 c2 2d 3c 65 d9 fd bc 36 d1 a0 bd
       -0.08020093 0.010605484 -0.03098745 -0.07852404

action_model._continuous_distribution.mu.bias f4 [2]
000000 a5 1c 8a bc 62 46 fa 3d
       -0.016859362 0.12220456

exp_avg f4 [128, 22]
000000 1d 1e b4 b6 38 0e 10 b8 1e f0 57 b6 26 cd 11 b8
       -5.3679237e-06 -3.4345518e-05 -3.2177263e-06 -3.4761753e-05
000010 28 3e b0 b5 d2 09 18 b8 b0 9b 57 30 50 3a 30 b8
       -1.3131112e-06 -3.624877e-05 7.843779e-10 -4.2015978e-05
000020 04 00 00 00 7a 4d 4f b8 79 26 8a 2a 20 2d 9b b8
       6e-45 -4.94248e-05 2.454042e-13 -7.399381e-05
000030 04 00 00 00 96 9f 90 b8 7a 1f d8 38 e0 86 35 b0
       6e-45 -6.89618e-05 0.000103055456 -6.6039085e-10
000040 10 8c 9c 3a 00 00 00 00 76 68 1b b9 7a d8 d1 39
       0.0011943597 0.0 -0.00014820867 0.00040024874
000050 2c d0 68 39 24 8a 35 bb 01 9b 89 b8 8e ce c5 b8
       0.00022202794 -0.0027700746 -6.561541e-05 -9.432166e-05
000060 a8 3e 34 37 6a 1d 26 b8 7c 0a cf b6 a6 44 83 b8
       1.0743424e-05 -3.9604878e-05 -6.1703013e-06 -6.2593535e-05
000070 0f f2 ff 30 28 0c ab b7 04 00 00 00 e0 fc 59 b8
       1.8622489e-09 -2.039045e-05 6e-45 -5.197234e-05
000080 ae dc ab ad 0c 9a 53 37 04 00 00 00 3a 5d 89 b7
       -1.953845e-11 1.2612447e-05 6e-45 -1.6375085e-05
000090 a2 a9 a3 b9 8f 92 95 b2 77 5f 5b bb 00 00 00 00
       -0.0003121617 -1.741253e-08 -0.003347365 0.0
0000a0 00 38 8a 32 1d ab 9f bb 68 9d 60 ba 49 dc 4c ba
       1.609078e-08 -0.004872693 -0.0008568377 -0.00078148075
0000b0 d3 ef d9 37 c4 a3 15 b8 f2 c3 f7 b7 47 59 13 b8
       2.5980093e-05 -3.5676887e-05 -2.9535939e-05 -3.5130677e-05
0000c0 54 21 bd b7 fd c0 66 b8 ff 17 51 b3 1f 02 d0 b7
       -2.2546075e-05 -5.5016008e-05 -4.868343e-08 -2.479652e-05
0000d0 04 00 00 80 48 6a 60 b8 5d 78 8b ac 3e c1 4a b8
       -6e-45 -5.3504744e-05 -3.9639806e-12 -4.8340524e-05
0000e0 04 00 00 80 6f 19 f6 b8 d1 8a d3 b9 08 f0 0d 32
       -6e-45 -0.000117349315 -0.00040348482 8.261857e-09
0000f0 a0 37 99 bb 00 00 00 00 d6 ad 25 b9 f5 fc bb bb
       -0.0046758205 0.0 -0.00015800385 -0.005736942
000100 2d 14 3c ba a4 be 8f bb 0c 3b 65 b7 05 00 ef b7
       -0.0007174637 -0.00438674 -1.3663212e-05 -2.849103e-05
000110 ba f8 4d b8 71 f9 4f b8 a3 fa 74 b8 64 e6 4f b8
       -4.9107453e-05 -4.9584956e-05 -5.8407557e-05 -4.9567214e-05
000120 be 1c 5f b3 e8 51 2f b7 04 00 00 80 aa 2c 90 b7
       -5.1947374e-08 -1.0449883e-05 -6e-45 -1.7186936e-05
000130 75 35 54 ae c7 5e 3c b7 04 00 00 80 c4 0d dd b7
       -4.82507e-11 -1.122774e-05 -6e-45 -2.6351663e-05
000140 11 6d 80 b9 23 8b e7 b2 d6 49 ac ba 00 00 00 00
       -0.00024495323 -2.6955211e-08 -0.0013144563 0.0
000150 c8 76 5d b8 4a 13 03 bb fb cd c3 b9 a2 a6 ad ba
       -5.280113e-05 -0.002000051 -0.00037346766 -0.0013248513
000160 26 3c 0f b9 d2 f2 51 b8 43 c0 d1 b8 20 06 ee b7
       -0.0001365995 -5.0055627e-05 -0.00010001708 -2.8374663e-05
000170 b6 e5 2f b8 90 66 a3 36 be 31 24 33 d2 7f 40 38
       -4.1937186e-05 4.8697184e-06 3.8229466e-08 4.589541e-05
000180 04 00 00 80 ae bb 91 38 7b 1a d5 2c 88 63 f4 38
       -6e-45 6.949097e-05 6.056764e-12 0.00011653366
000190 04 00 00 80 1e 44 e7 38 fc 6c 10 b9 40 bf 38 30
       -6e-45 0.00011027626 -0.0001377351 6.721059e-10
0001a0 b5 93 16 bb 00 00 00 00 c0 56 76 39 38 69 d5 ba
       -0.0022976224 0.0 0.00023492705 -0.0016281968
0001b0 08 cf a4 b9 f7 88 89 3b 25 56 62 38 ad 83 0e 38
       -0.00031434768 0.0041972357 5.3962827e-05 3.397807e-05
0001c0 8d 46 ee 38 36 d9 66 38 ee 21 92 38 e0 8d 14 38
       0.000113618655 5.5038567e-05 6.9681424e-05 3.541808e-05
0001d0 9d 81 ec b2 56 c4 f3 b7 04 00 00 00 80 7b 1e b8
       -2.7532957e-08 -2.9059283e-05 6e-45 -3.7785154e-05
0001e0 f2 01 11 ae 6b a6 83 b8 04 00 00 00 2e c8 1a b8
       -3.297091e-11 -6.2775645e-05 6e-45 -3.6902893e-05
0001f0 05 7f c3 39 a3 e6 2d 32 64 86 4a 3b 00 00 00 00
       0.00037287935 1.0122366e-08 0.0030902857 0.0
000200 41 4a bc b8 6c 76 46 3b 67 8f 06 3a 7c b3 95 ba
       -8.9783694e-05 0.0030282987 0.0005133063 -0.0011421288
000210 5c 2a a8 39 0c 6d aa 39 eb 39 07 3a 82 88 ce 39
       0.00032075017 0.00032506173 0.0005158472 0.00039393088
000220 3c 71 b6 39 13 e0 aa 39 41 bc 14 34 80 68 49 38
       0.0003479811 0.00032591875 1.385206e-07 4.8019458e-05
000230 04 00 00 80 00 16 4e 37 5c ad 0b 2d 38 fb 2d 38
       -6e-45 1.2283679e-05 7.939729e-12 4.148038e-05
000240 04 00 00 80 c4 06 b1 38 d8 31 32 38 c4 e9 b7 b2
       -6e-45 8.441278e-05 4.2484928e-05 -2.1410308e-08
000250 69 38 e9 3b 00 00 00 00 e8 1d dd 38 e4 4e 29 3c
       0.0071173203 0.0 0.00010543672 0.01033375
000260 c2 b4 37 3a 45 01 89 3b 0c 97 66 b7 21 2a af b5
       0.0007007831 0.0041810595 -1.3744237e-05 -1.3050777e-06
000270 08 14 0f 35 58 17 d1 36 b8 5e 40 35 38 c0 f3 36
       5.33008e-07 6.231403e-06 7.166341e-07 7.2643415e-06
000280 0c 0f af 30 76 59 0d 37 04 00 00 00 0e 27 27 37
       1.2737202e-09 8.425084e-06 6e-45 9.963069e-06
000290 49 9a bf a9 f4 d4 8d 37 04 00 00 00 b3 63 92 37
       -8.508868e-14 1.6907674e-05 6e-45 1.7450982e-05
0002a0 5e d3 aa b6 3c 56 59 31 aa ef c5 b9 00 00 00 00
       -5.091001e-06 3.1626675e-09 -0.00037753332 0.0
0002b0 58 08 10 38 9f 9d 80 b9 4d ba 67 b8 28 f1 1c 3a
       3.4340046e-05 -0.000245315 -5.5248198e-05 0.0005986863
0002c0 27 01 23 37 2e 09 e9 37 b0 8e 73 b6 9c 43 b9 37
       9.715825e-06 2.7780039e-05 -3.6292877e-06 2.2085202e-05
0002d0 76 c7 97 b6 7c 16 be 37 32 b1 c1 30 bd 56 11 38
       -4.523371e-06 2.2660235e-05 1.409296e-09 3.4651475e-05
0002e0 04 00 00 80 95 52 1d 38 73 1a 72 a7 8b 08 14 38
       -6e-45 3.7508627e-05 -3.3598585e-15 3.5293906e-05
0002f0 04 00 00 00 da 52 00 38 f9 71 ec b7 f7 78 17 32
       6e-45 3.059474e-05 -2.8186465e-05 8.816861e-09
000300 55 94 38 ba 00 00 00 00 72 33 85 38 be c0 38 b9
       -0.0007041146 0.0 6.351517e-05 -0.0001761941
000310 1d 75 83 b8 b7 fa 92 3a 28 1b 01 b7 6d 75 71 b8
       -6.268381e-05 0.0011213635 -7.695322e-06 -5.756824e-05
000320 e0 70 24 b8 6e cb 88 b8 58 0b af b8 e0 ed c3 b8
       -3.920577e-05 -6.522877e-05 -8.346763e-05 -9.342632e-05
000330 ed 7f 91 b3 7b b9 1b b8 04 00 00 80 22 cc 51 b8
       -6.775358e-08 -3.7127622e-05 -6e-45 -5.0019597e-05
000340 ed cb bb 2b 83 64 39 b8 04 00 00 80 9a 55 58 b8
       1.334375e-12 -4.4201046e-05 -6e-45 -5.1578136e-05
000350 78 71 87 38 08 8f a6 32 6a e5 d0 ba 00 00 00 00
       6.458437e-05 1.9389987e-08 -0.0015937511 0.0
000360 85 a6 b8 b8 10 8e 45 bb 31 ba 16 b9 c8 b8 15 bb
       -8.8048204e-05 -0.003014449 -0.00014374476 -0.0022845734
000370 f7 6a cc 38 52 54 5e 39 0c 76 5d 39 2d a9 83 39
       9.747402e-05 0.00021202982 0.00021120178 0.00025112313
000380 0d 8f 0e 39 4c 4a 72 39 12 56 ab 33 8d cf 14 39
       0.00013595466 0.00023106596 7.978464e-08 0.00014191699
000390 04 00 00 00 51 5a 26 39 19 ac 10 2e 24 53 15 39
       6e-45 0.00015864639 3.2894663e-11 0.0001424072
0003a0 04 00 00 00 60 48 46 39 49 76 2b 39 13 b8 20 32
       6e-45 0.00018909713 0.00016351895 9.355079e-09
0003b0 5f 26 80 3b 00 00 00 00 e3 2a 9d 39 f9 fc fa 3b
       0.003910824 0.0 0.00029977327 0.007659551
0003c0 ff 5a 45 3a 3d b0 eb 3b f2 3c 85 35 d4 4f 5c b5
       0.0007528513 0.00719264 9.92701e-07 -8.207255e-07
0003d0 04 f1 20 36 f0 74 83 b4 ea 3b f0 35 6c b3 2d b5
       2.3982147e-06 -2.4485735e-07 1.7898831e-06 -6.4708615e-07
0003e0 23 92 64 30 2c 8c 28 b6 04 00 00 80 f2 d8 49 b6
       8.315359e-10 -2.5115542e-06 -6e-45 -3.0077613e-06
0003f0 2f b5 d7 27 50 6d e6 b4 04 00 00 80 88 f4 9f b4
       5.9870927e-15 -4.2920374e-07 -6e-45 -2.9793978e-07

exp_avg_sq f4 [128, 22]
000000 a4 48 74 30 69 b1 cd 33 2a 6e 93 32 48 cf fb 33
       8.886991e-10 9.578327e-08 1.716315e-08 1.17258026e-07
000010 2a b9 2f 32 c5 c4 f5 33 40 98 00 34 1a a9 95 34
       1.0228442e-08 1.1444494e-07 1.1976317e-07 2.787645e-07
000020 f6 8f bc 2c 5c a3 f9 33 22 e4 c8 34 e2 4f 13 35
       5.3592642e-12 1.1624681e-07 3.7418891e-07 5.487801e-07
000030 bb d0 bd 2c fb 7c bc 33 80 13 48 37 db c7 39 2c
       5.394877e-12 8.777166e-08 1.1925469e-05 2.6401023e-12
000040 d7 a5 c0 39 00 00 00 00 aa 75 45 35 f0 7e 3f 39
       0.00036744654 0.0 7.355944e-07 0.00018262467
000050 04 89 41 38 b2 68 35 39 e0 66 91 34 bc 37 3a 35
       4.614239e-05 0.00017300507 2.7083206e-07 6.9371504e-07
000060 d6 3a 19 35 31 27 89 35 7b 0f 21 34 14 7c 0d 35
       5.708256e-07 1.0218702e-06 1.4999925e-07 5.270715e-07
000070 89 28 92 35 70 6c d2 35 46 d0 61 32 8a 76 b0 34
       1.0889645e-06 1.5677779e-06 1.314408e-08 3.2868803e-07
000080 3b 81 5e 35 c4 be b3 35 4f bf 16 32 56 66 75 34
       8.28895e-07 1.3392059e-06 8.774648e-09 2.2854633e-07
000090 45 c1 a2 37 4c ae c0 2c 64 97 73 3a 00 00 00 00
       1.9401903e-05 5.476319e-12 0.00092922733 0.0
0000a0 47 0f c9 35 8d 3c 36 3a 4e bd 38 38 9f 98 a3 39
       1.4980113e-06 0.0006951772 4.4045322e-05 0.00031203494
0000b0 e1 7e 0a 35 a6 10 8b 35 3b 14 5b 35 cc 79 c0 35
       5.159364e-07 1.0361152e-06 8.1613297e-07 1.4340562e-06
0000c0 ed 95 4b 33 84 64 e5 34 25 e4 f0 35 73 71 22 36
       4.7400977e-08 4.272771e-07 1.7947792e-06 2.4205917e-06
0000d0 cc 59 a7 32 64 c8 92 34 c9 b5 2a 36 d9 21 58 36
       1.9482194e-08 2.7340423e-07 2.5437787e-06 3.220621e-06
0000e0 19 d2 a4 32 35 41 88 34 8b e1 63 38 00 5c 84 2c
       1.9187654e-08 2.5379418e-07 5.433107e-05 3.7618797e-12
0000f0 9a dc 3f 3a 00 00 00 00 7e 3d 18 36 c7 af 96 3a
       0.0007318944 0.0 2.2685558e-06 0.0011496478
000100 f7 a8 a0 38 d8 af 64 3a 02 18 6f 34 ca ba af 34
       7.660867e-05 0.00087237125 2.2267344e-07 3.2732197e-07
000110 46 0a 99 34 38 81 d5 34 fb 5d 04 34 99 74 85 34
       2.8505946e-07 3.976836e-07 1.2327648e-07 2.4858016e-07
000120 62 f7 1c 34 82 d4 9f 34 f7 56 90 32 4c b9 e3 33
       1.461863e-07 2.9770678e-07 1.6803353e-08 1.06042165e-07
000130 14 f8 8c 34 34 83 df 34 31 a7 92 32 cf 34 c0 33
       2.6257533e-07 4.163245e-07 1.7072667e-08 8.9503025e-08
000140 9e ed 3d 37 95 ad 8d 2b 9a aa 80 39 00 00 00 00
       1.1320602e-05 1.0066831e-12 0.0002454117 0.0
000150 69 e3 16 35 c7 ea e2 39 bf c5 e6 37 21 49 67 39
       5.621028e-07 0.00043281002 2.751022e-05 0.0002205712
000160 f0 c8 9b 34 8d 74 6f 35 fb 08 97 35 5c d9 de 35
       2.90172e-07 8.920404e-07 1.125299e-06 1.6603549e-06
000170 e4 d4 ea 34 36 7d 80 35 6e ae bc 35 c8 25 08 36
       4.3740795e-07 9.573184e-07 1.4057857e-06 2.028757e-06
000180 3b a8 ab 30 0b fc d3 34 39 a2 b1 35 78 80 04 36
       1.2489701e-09 3.9485198e-07 1.3234741e-06 1.9744311e-06
000190 9c 53 8b 30 fd 65 99 34 18 3b f2 37 2b 67 1e 2d
       1.0137344e-09 2.8572677e-07 2.8876166e-05 9.004168e-12
0001a0 1e 09 75 3a 00 00 00 00 49 9c 0c 36 80 fe ec 39
       0.0009347367 0.0 2.0952596e-06 0.00045203045
0001b0 ca 57 a9 38 4b e9 05 3a c7 21 5e 34 17 9b fb 34
       8.0749e-05 0.0005108311 2.0687649e-07 4.6865236e-07
0001c0 be 00 ec 34 98 57 3a 35 0f 81 7d 34 f1 9f ff 34
       4.3958966e-07 6.9417865e-07 2.3609412e-07 4.7613824e-07
0001d0 22 62 8c 34 b1 23 1a 35 4f fc ba 33 b0 6b 9f 34
       2.6148433e-07 5.742141e-07 8.7071946e-08 2.969441e-07
0001e0 de 14 5e 34 b4 6a 14 35 be 08 b9 33 ef e5 a5 34
       2.0682953e-07 5.528957e-07 8.616324e-08 3.0900944e-07
0001f0 97 62 35 37 ae 90 55 2c 1f 5b 9f 3a 00 00 00 00
       1.0811395e-05 3.0349434e-12 0.0012157894 0.0
000200 ab 6b 93 35 15 07 d9 3a 86 df 45 38 2b 4b bc 39
       1.0983689e-06 0.0016557897 4.7176633e-05 0.0003591416
000210 90 34 66 35 4c 5e 2d 36 28 9b 34 36 e1 f6 93 36
       8.5758165e-07 2.5833897e-06 2.6912403e-06 4.409682e-06
000220 10 e3 ae 35 c6 d6 42 36 63 ff 54 36 62 5d a7 36
       1.3030094e-06 2.9033267e-06 3.1739116e-06 4.987859e-06
000230 7f 80 07 33 db 9f a3 35 69 e2 47 36 f5 40 a3 36
       3.1549003e-08 1.219097e-06 2.9785099e-06 4.8653405e-06
000240 89 35 0b 33 c3 58 75 35 89 9e 9c 38 a7 39 32 2d
       3.241215e-08 9.139878e-07 7.468189e-05 1.013093e-11
000250 f8 b1 f3 3a 00 00 00 00 e8 b5 cb 36 86 a8 a4 3a
       0.0018592468 0.0 6.071048e-06 0.0012562431
000260 ab 73 27 39 a2 4c f8 3a 82 6b 4f 32 e4 8b af 33
       0.00015969451 0.0018943737 1.207343e-08 8.1745185e-08
000270 d4 11 59 33 43 6f 05 34 8d 84 a1 32 4d ef a9 33
       5.0540464e-08 1.2427067e-07 1.8803144e-08 7.913204e-08
000280 3d 40 a7 34 2c 89 cc 34 72 06 5a 32 4b f4 76 33
       3.1152913e-07 3.8097767e-07 1.2690736e-08 5.749852e-08
000290 06 6d de 34 64 43 fc 34 1d 09 3c 32 89 07 58 33
       4.1430047e-07 4.698769e-07 1.0945112e-08 5.0298272e-08
0002a0 f2 9c 9f 36 02 f8 a8 2b d4 b4 77 39 00 00 00 00
       4.75684e-06 1.2005954e-12 0.0002362312 0.0
0002b0 dd fc 91 34 4e c0 8d 39 80 1d 01 38 2d 3d 92 38
       2.7192337e-07 0.00027036894 3.078347e-05 6.9732174e-05
0002c0 7d 1d 86 34 81 15 7f 35 ac 97 08 36 03 c8 22 36
       2.49809e-07 9.5026195e-07 2.0353864e-06 2.4256303e-06
0002d0 11 f1 a6 35 3e df ec 35 0a 52 30 35 bb 6e 9f 35
       1.2438123e-06 1.7648342e-06 6.568449e-07 1.187865e-06
0002e0 ba 04 97 2c e5 3e d5 34 60 76 b5 34 57 00 4b 35
       4.292203e-12 3.9720103e-07 3.3800006e-07 7.562389e-07
0002f0 e7 bb d9 27 67 63 8e 34 cb 08 a2 36 ed c9 d1 2c
       6.0433323e-15 2.6521886e-07 4.829e-06 5.9625555e-12
000300 32 a7 57 3a 00 00 00 00 59 e2 b6 35 7c 9f 7c 39
       0.0008226513 0.0 1.3625933e-06 0.00024092005
000310 d0 30 34 38 70 52 87 39 21 22 05 35 56 18 8c 35
       4.2960804e-05 0.00025810627 4.9596025e-07 1.0437896e-06
000320 42 3e 7a 35 c5 c3 c9 35 68 69 76 34 2c 57 3a 35
       9.3222855e-07 1.5032643e-06 2.2948882e-07 6.941725e-07
000330 52 7d ab 35 9f 79 fe 35 c8 9e ee 2f 2f 35 b2 34
       1.2776966e-06 1.8959871e-06 4.340477e-10 3.319378e-07
000340 ec 7c 9f 35 f2 03 fb 35 28 54 42 2f 9b d6 83 34
       1.188278e-06 1.8702106e-06 1.7674096e-10 2.4556797e-07
000350 31 ca 02 38 ff 81 d8 2c 66 7f 26 3a 00 00 00 00
       3.118272e-05 6.1535217e-12 0.00063513813 0.0
000360 0f fd 00 36 94 90 25 3a d2 97 4f 38 dc ad 18 3a
       1.9220786e-06 0.00063157943 4.949404e-05 0.0005824247
000370 36 96 94 34 15 cb e4 34 7f bd a0 34 f8 c7 fd 34
       2.767644e-07 4.261607e-07 2.99402e-07 4.727042e-07
000380 35 16 c7 33 29 78 85 34 e1 bd 7c 34 7b 4f fa 34
       9.270699e-08 2.4860609e-07 2.3538406e-07 4.6623958e-07
000390 77 45 d9 32 00 6b 2b 34 0b f9 32 34 df 94 e6 34
       2.5293714e-08 1.5964542e-07 1.6668143e-07 4.2949156e-07
0003a0 f4 1d d6 32 49 6b 28 34 13 6a 40 37 63 e6 ea 2b
       2.49265e-08 1.568525e-07 1.1468789e-05 1.6690645e-12
0003b0 49 71 12 3a 00 00 00 00 bf 66 50 35 54 62 6d 3a
       0.0005586339 0.0 7.7635553e-07 0.00090554846
0003c0 1b 13 5c 38 f1 c0 9f 39 1d 95 58 2f a8 04 e5 32
       5.246988e-05 0.00030470596 1.9698061e-10 2.6661226e-08
0003d0 12 bb 8b 31 43 10 16 33 0c bc 97 30 69 c1 09 33
       4.0667e-09 3.4939386e-08 1.1040142e-09 3.2073704e-08
0003e0 22 57 b9 31 08 d0 7c 33 dd ab 89 2a b6 78 59 33
       5.3941145e-09 5.8862526e-08 2.4455343e-13 5.0634036e-08
0003f0 ae 71 69 31 68 42 90 33 84 c9 ee 26 49 28 3d 33
       3.3970582e-09 6.717602e-08 1.6569188e-15 4.404163e-08

exp_avg f4 [128]
000000 25 e2 a1 b9 00 e8 0f 33 16 95 ac b9 0c b1 e6 b8
       -0.00030876804 3.3505785e-08 -0.00032917474 -0.00011000232
000010 2f 4d 00 3a b0 22 44 b9 7b 54 66 39 b0 08 96 38
       0.0004894314 -0.00018704939 0.0002196598 7.1541755e-05
000020 42 c0 0a 39 24 58 40 b9 56 b7 23 3a 20 13 61 b4
       0.00013232327 -0.00018343382 0.0006245276 -2.0961716e-07
000030 8e a2 c6 b9 36 5b bf b7 2e 0f 4b 37 40 ac 2f 39
       -0.00037886616 -2.2811448e-05 1.2103277e-05 0.00016753469
000040 24 fc a8 38 72 46 2d 3a 17 a1 08 39 72 05 e2 39
       8.057829e-05 0.00066099234 0.00013029981 0.00043110136
000050 cb cc 53 38 8e 24 04 3a a2 ed d9 b8 a8 d1 88 b9
       5.049705e-05 0.00050408475 -0.00010391629 -0.00026096147
000060 bd ad ca 38 94 73 fe 39 09 0f b2 39 32 e7 ac 39
       9.664472e-05 0.00048532768 0.00033962008 0.0003297865
000070 b3 80 e6 b9 0c 5f b0 b6 76 fc 5a 38 bf 2b ba 38
       -0.00043964907 -5.2562737e-06 5.2210373e-05 8.8773195e-05
000080 98 89 05 b7 fd 24 5e b9 7d ea 42 39 82 5b 4b 39
       -7.959454e-06 -0.00021185349 0.00018588635 0.00019393678
000090 d0 15 39 37 8a de da ba 51 4d a6 ba e7 5e e5 b9
       1.1031938e-05 -0.0016698402 -0.0012687837 -0.0004374899
0000a0 a8 4a f8 38 79 58 13 39 11 9d e7 39 34 1e 29 ba
       0.00011839467 0.00014051971 0.00044176777 -0.0006451339
0000b0 43 3e 29 39 54 49 48 3a 38 1a 8a 38 c2 5f f4 b8
       0.0001614029 0.0007640321 6.5852364e-05 -0.00011652663
0000c0 2e bd 82 b9 8b 44 8e 39 ae c3 cf 39 e7 7c da 39
       -0.00024936482 0.0002713542 0.0003962791 0.0004167326
0000d0 3e e3 ed 37 38 a8 86 b9 b5 64 a6 ba 06 81 c5 39
       2.835842e-05 -0.00025683804 -0.0012694808 0.00037670898
0000e0 b9 77 99 b8 37 0f 97 ba 0c 26 81 39 4f 06 f0 39
       -7.3179086e-05 -0.001152492 0.00024633144 0.00045781067
0000f0 25 c0 a4 b9 ed c9 35 38 1f ff 47 b9 e5 42 87 3a
       -0.00031423676 4.334182e-05 -0.00019073159 0.0010319619
000100 e1 91 4c b8 c0 56 a8 ba 18 f0 08 3a 04 ec 5d ba
       -4.877325e-05 -0.0012843236 0.0005223765 -0.000846565
000110 84 c7 dc b9 08 d1 b7 39 d2 04 15 39 e9 eb 8d 38
       -0.0004211032 0.0003506022 0.00014211543 6.7673456e-05
000120 1c fe 82 b9 3a 1d 10 38 46 fb dc 39 a6 7d 24 ba
       -0.00024984858 3.4359495e-05 0.00042148883 -0.00062748266
000130 9c 76 fa 39 a4 8b 8d 39 b0 cb 81 b9 e0 75 02 37
       0.00047772087 0.00026997656 -0.00024756556 7.776049e-06
000140 4f 8e 51 39 ee 34 1d 3a 68 a5 1e 39 5f 29 ef b9
       0.00019984807 0.0005996962 0.00015129673 -0.00045616456
000150 08 2b 2c ba cf b3 e9 b9 d3 7b 87 38 2b 79 41 3a
       -0.00065676915 -0.0004457519 6.460366e-05 0.0007380421
000160 41 24 b4 b9 4b 4f 78 3a 54 44 87 b7 59 fe e3 b7
       -0.00034359287 0.0009472265 -1.6125072e-05 -2.7178949e-05
000170 b7 dd 12 39 c1 9d 92 38 a9 a9 16 ba f8 fc a5 b8
       0.0001400624 6.9912065e-05 -0.0005747327 -7.914932e-05
000180 6c 82 93 b9 1c 0e e9 39 3f e9 0f 3a 9a 08 ad 39
       -0.00028135197 0.00044451735 0.00054897735 0.0003300354
000190 5c e6 3f 39 3a 33 d4 38 c0 f5 3a 38 e2 78 a4 39
       0.00018300995 0.000101184894 4.457473e-05 0.00031370582
0001a0 89 28 16 ba 33 6b 50 38 cb 83 da 39 e5 51 d6 b9
       -0.0005728086 4.96909e-05 0.00041678394 -0.00040878277
0001b0 6c 66 88 39 59 7c 4f 3a 88 0b bd b9 eb 97 7e b9
       0.00026016252 0.00079149526 -0.0003605748 -0.00024279921
0001c0 4b a3 bb ba 95 f9 f8 39 86 74 ed b9 4c bc 13 3a
       -0.0014315633 0.000474882 -0.0004529098 0.00056356634
0001d0 18 e3 ff b9 7c a8 61 38 78 35 7f 36 10 3e 33 39
       -0.00048806588 5.3801094e-05 3.8029084e-06 0.0001709389
0001e0 2b 38 cf 38 02 04 32 b8 16 cd 5c 39 79 d0 1a b6
       9.880991e-05 -4.244224e-05 0.00021057235 -2.3069135e-06
0001f0 e3 a3 7f b9 04 1b f4 39 43 96 92 39 9e 47 50 ba
       -0.00024379748 0.00046559435 0.00027959244 -0.0007945242
