results/CurveRoad1.3/CarAgent.onnx (onnx, 83842 bytes, 7 tensors)

network_body._body_endoder.seq_layers.0.weight f4 [128, 22]
0.14278646 -0.3394647 0.07789021 0.2014291 -0.14267793 -0.07706656 0.43310738 0.17667885
0.21380901 0.053349566 0.017562114 0.111700736 -0.073486365 -0.17631806 -0.1276387 0.3287705
0.21051836 -0.042826887 -0.16464166 -0.120312735 0.15868933 -0.1712216 -0.047283363 0.10804319
0.2386914 0.1139008 0.11739654 -0.17315957 -0.007668624 -0.15996614 0.1195743 -0.009481448
-0.18251787 0.16027518 0.11457178 -0.11196739 -0.07256062 -0.07730217 -0.009829714 -0.1166078
-0.2665908 -0.35397282 -0.02778178 -0.034064565 0.11590442 0.054240562 -0.1884019 -0.2730747
-0.02418427 -0.33210024 0.0054928297 -0.3080559 0.036938686 -0.00444835 0.09884037 -0.009288573
0.091637835 -0.3060615 -0.35885954 -0.016943712 -0.045059 0.11680574 0.07579251 -0.40555063
0.09888795 0.06809868 -0.091219075 0.73742974 0.08133949 -0.068555 0.15917464 -0.15053628
-0.13738893 0.081598245 0.24470232 0.19871663 -0.12515597 -0.311405 -0.07109692 0.031415362
0.055849906 -0.10561472 0.040177878 0.017517395 -0.21017726 0.041290835 -0.2649019 -0.084926076
0.091557816 -0.14380936 0.09433432 0.103895165 0.48672026 -0.315241 0.29205167 0.5651275
0.12008925 0.24597761 -0.019725706 -0.30828384 0.24755168 0.11064075 -0.18864271 -0.2865662
-0.28441313 0.10442809 0.11077466 0.22716692 0.18606459 0.13759458 -0.3132574 0.3339433
-0.26782504 -0.17989722 0.055580255 0.10272928 0.30018786 -0.06491039 -0.30455816 0.06839824
0.035855122 0.24789876 0.021965338 -0.047718037 0.025153508 0.28685442 -0.25614396 0.2859267
0.27082112 0.17149574 -0.26607904 -0.051592533 -0.1736788 0.13518101 -0.07489357 0.06502659
0.032644354 0.30212316 -0.03153932 -0.027982362 0.06925181 0.058394525 0.20237353 -0.19432004
-0.2489957 -0.26765174 0.13012427 0.13983072 -0.053238146 -0.113709494 0.36402494 -0.1192845
0.274079 -0.09644557 0.07512031 -0.10149793 0.045470178 0.07962705 -0.1413046 -0.20265529
0.2581447 -0.32014763 -0.07409406 0.14429359 0.24923465 0.12689954 0.28664774 -0.30685276
0.18653712 -0.11591402 -0.6091305 0.14685053 0.03444534 -0.2069711 0.25965038 -0.15165453
0.24627759 -0.28344545 0.05092736 0.07368533 -0.32484743 -0.30542275 -0.005572887 0.057573263
-0.06395395 -0.047356516 0.10172299 0.15521169 -0.11250489 0.09375344 -0.05241921 0.22095665
-0.15821336 0.14953318 0.042275738 0.12682922 0.48210293 0.16956413 -0.052768327 -0.24387845
0.08257973 0.16603899 0.14885059 -0.27518243 0.27376795 0.08906269 0.13616979 -0.014262022
-0.21255879 -0.518636 0.13742521 -0.034096852 -0.19511323 -0.12016436 0.26795813 -0.092044376
-0.03006023 0.22479247 0.15928718 0.03856754 0.36402667 0.16533142 -0.31941676 0.1081415
-0.122577384 0.15639132 -0.0951586 0.09694224 0.11024685 0.24113913 0.14025019 -0.015966492
0.08886475 0.030082049 0.11340957 0.1478529 -0.025509808 0.506221 0.03251252 -0.11982506
-0.03142263 0.27663308 -0.55680287 0.20419876 -0.0012896457 -0.36536884 -0.17805798 -0.1418146
0.40118736 0.29087052 0.10667339 -0.15979576 0.083536305 0.26861402 0.1434306 0.07719913
00000000: 9d36 123e 51ce adbe e784 9f3d 6e43 4e3e
00000010: 2a1a 12be 13d5 9dbd 40c0 dd3e 4deb 343e
00000020: c0f0 5a3e 1385 5a3d 6cde 8f3c 5bc3 e43d
00000030: 0580 96bd b98c 34be b8b3 02be 9b54 a83e
00000040: 2092 573e 3f6b 2fbd d397 28be 8666 f6bd
00000050: 757f 223e b754 2fbe 33ac 41bd bf45 dd3d
00000060: 856b 743e d344 e93d 996d f03d be50 31be
00000070: 1549 fbbb 2ace 23be 5fe3 f43d 1358 1bbc
00000080: f7e5 3abe 2d1f 243e 9ca4 ea3d 294f e5bd
00000090: aa9a 94bd 9a50 9ebd cf0c 21bc 12d0 eebd
000000a0: 977e 88be ed3b b5be 9e96 e3bc 4987 0bbd
000000b0: 4c5f ed3d 5a2b 5e3d 6dec 40be 72d0 8bbe
000000c0: 171e c6bc 0b09 aabe 32fd b33b 81b9 9dbe
000000d0: 054d 173d 77c3 91bb d26c ca3d 192f 18bc
000000e0: 9eac bb3d 18b4 9cbe 70bc b7be 8acd 8abc
000000f0: c98f 38bd d937 ef3d 1a39 9b3d 55a4 cfbe
00000100: c485 ca3d 5277 8b3d 11d1 babd 32c8 3c3f
00000110: 5295 a63d 9066 8cbd adfe 223e 2f26 1abe
00000120: afaf 0cbe fb1c a73d 3f93 7a3e 5f7c 4b3e
00000130: e328 00be 7a70 9fbe 439b 91bd 65ad 003d
00000140: dfc2 643d 884c d8bd 8f91 243d a480 8f3c
00000150: b538 57be 9420 293d 39a1 87be b9ed adbd
00000160: aa82 bb3d c342 13be 5a32 c13d fdc6 d43d
00000170: 6633 f93e 4567 a1be cc87 953e 32ac 103f
00000180: 5af1 f53d 8ee1 7b3e ce97 a1bc 61d7 9dbe
00000190: 307e 7d3e 9e97 e23d 8e2b 41be ceb8 92be
000001a0: 999e 91be 65de d53d d3dd e23d 729e 683e
000001b0: b787 3e3e 98e5 0c3e 4663 a0be 9efa aa3e
000001c0: 5d20 89be fa36 38be 1fa8 633d bb63 d23d
000001d0: 39b2 993e bdef 84bd 0cef 9bbe 6014 8c3d
000001e0: d2dc 123d 2cd9 7d3e a7f0 b33c fd73 43bd
000001f0: bb0e ce3c 95de 923e 4d25 83be fc64 923e
00000200: 11a9 8a3e 949c 2f3e 833b 88be b152 53bd
00000210: dbd8 31be e46c 0a3e cd61 99bd a92c 853d
00000220: 16b6 053d e3af 9a3e 602f 01bd 443b e5bc
00000230: e5d3 8d3d 192f 6f3d 023b 4f3e d5fb 46be
00000240: bbf8 7ebe a609 89be 4c3f 053e c92f 0f3e
00000250: 3e10 5abd 86e0 e8bd 7a61 ba3e 6f4b f4bd
00000260: 1554 8c3e 4185 c5bd add8 993d 26de cfbd
00000270: f03e 3a3d 8213 a33d 27b2 10be de84 4fbe
00000280: 8b2b 843e 64ea a3be a0be 97bd b3c1 133e
00000290: 5e37 7f3e f4f1 013e 7ec3 923e ce1b 9dbe
000002a0: 9603 3f3e 5464 edbd faef 1bbf fc5f 163e
000002b0: 8f16 0d3d 3bf0 53be e5f0 843e 534b 1bbe
000002c0: 3130 7c3e c31f 91be 3599 503d 56e8 963d
000002d0: 6752 a6be 5f60 9cbe c49c b6bb f1d1 6b3d
000002e0: 4afa 82bd e8f8 41bd 2554 d03d d0ef 1e3e
000002f0: f768 e6bd ce01 c03d 87b5 56bd 7642 623e
00000300: af02 22be 3a1f 193e 5329 2d3d 85df 013e
00000310: 32d6 f63e 38a2 2d3e 9a23 58bd 46bb 79be
00000320: 901f a93d 2006 2a3e 4a6c 183e b6e4 8cbe
00000330: 502b 8c3e 8066 b63d 1870 0b3e 42ab 69bc
00000340: 03a9 59be 54c5 04bf 32b9 0c3e 24a9 0bbd
00000350: c3cb 47be bb18 f6bd cf31 893e c381 bcbd
00000360: df40 f6bc ff2f 663e 2e1c 233e fff8 1d3d
00000370: b461 ba3e a44c 293e 988a a3be 4a79 dd3d
00000380: da09 fbbd 0c25 203e 83e2 c2bd a789 c63d
00000390: 1ac9 e13d 2ded 763e bf9d 0f3e 29cc 82bc
000003a0: b9fe b53d a16e f63c 4743 e83d c066 173e
000003b0: f2f9 d0bc b397 013f d92b 053d d766 f5bd
000003c0: 04b5 00bd daa2 8d3e a28a 0ebf 7b19 513e
000003d0: 5409 a9ba a011 bbbe d554 36be d937 11be
000003e0: 6e68 cd3e fbec 943e 9477 da3d 80a1 23be
000003f0: 1515 ab3d c787 893e 79df 123e 941a 9e3d

network_body._body_endoder.seq_layers.0.bias f4 [128]
-0.014266305 0.0005421004 -0.015024416 -0.037141893 -0.00736864 -0.015116248 -0.0054949196 -0.014965605
0.003855349 -0.020928968 0.0026481762 -0.005577933 -0.022363812 -0.01189667 -0.043946955 -0.030136848
0.037570994 -0.009798503 -0.020340139 0.004047317 0.024904402 -0.05649783 -0.009456409 -0.001021331
0.00021194333 0.0011265823 -0.022159522 -0.016072636 -0.030585835 -0.02853856 -0.007998533 0.0308919
-0.0055809575 0.0075193876 -0.008171741 -0.008994972 2.7019909e-05 -0.013264919 -0.02044038 -0.00056025625
-0.02469083 -0.0027498286 -0.009150086 -0.0029987209 -0.021077508 0.030674964 -0.038348984 -0.028747959
0.012698761 -0.024473827 -0.031724054 -0.03728914 -0.019236919 -0.004345042 -0.0074708406 0.022864375
0.002066008 0.015834646 -0.029579252 -0.012570934 0.00011336507 0.0030049947 -0.0054292986 0.0005266595
0.012603475 0.0036461412 -0.015028911 -0.011541072 0.007894747 0.010069557 -0.0053378115 -0.050502453
-0.00865863 -0.037414867 -0.034197815 -0.011284611 -0.024705557 -0.031356454 0.009713735 -0.010363587
0.020703789 -0.044911854 -0.014401257 -0.032522347 -0.025569037 -0.028668655 -0.029050035 -0.017262211
-0.0090692155 -0.017976189 -0.0025796501 -0.027888352 0.014883205 -0.013039317 -0.001167324 -0.004100752
-0.0044079996 -0.039691467 -0.040857647 -0.025299711 -0.018990543 -0.009290241 -0.031269863 -0.015814282
-0.02064433 -0.014802656 -0.052012622 0.015302094 -0.045794062 -0.017034514 -0.00549946 -0.03026142
-0.0029954715 -0.014240199 -0.00072491233 0.0077834167 -0.008091957 -0.008303092 -0.000585477 -0.041936744
-0.018440241 -0.024041606 -0.032058243 -0.029277721 -0.01877834 -0.0010305606 0.0053722863 -0.019519696
00000000: 38bd 69bc be1b 0e3a f828 76bc 1922 18bd
00000010: a274 f1bb 24aa 77bc ba0e b4bb 4c32 75bc
00000020: 06aa 7c3b 3a73 abbc 068d 2d3b 18c7 b6bb
00000030: 5034 b7bc 40ea 42bc b901 34bd 8de1 f6bc
00000040: 0be4 193d e689 20bc 5da0 a6bc 5b9f 843b
00000050: 5104 cc3c 456a 67bd 0eef 1abc 2ede 85ba
00000060: 1b3d 5e39 d4a9 933a e387 b5bc c3aa 83bc
00000070: 258f fabc b3c9 e9bc 470c 03bc 0311 fd3c
00000080: 77e0 b6bb 3265 f63b c4e2 05bc a65f 13bc
00000090: d0a8 e237 1a55 59bc 9572 a7bc 29de 12ba
000000a0: 6c44 cabc 7836 34bb 3eea 15bc 3086 44bb
000000b0: bdaa acbc 104a fb3c d313 1dbd d780 ebbc
000000c0: 770e 503c 567d c8bc 15f1 01bd 7fbc 18bd
000000d0: be96 9dbc db60 8ebb f4cd f4bb 124e bb3c
000000e0: dd65 073b a9b7 813c 3050 f2bc 52f6 4dbc
000000f0: 69be ed38 72ef 443b 42e8 b1bb 850f 0a3a
00000100: ce7e 4e3c 19f4 6e3b d23b 76bc c416 3dbc
00000110: f858 013c c9fa 243c cfe8 aebb a9db 4ebd
00000120: eddc 0dbc 5540 19bd 0213 0cbd 17e3 38bc
00000130: 4f63 cabc a06f 00bd 5c26 1f3c 09cc 29bc
00000140: fe9a a93c 7ef5 37bd 40f3 6bbc 2736 05bd
00000150: 2876 d1bc 87da eabc 57fa edbc 7b69 8dbc
00000160: 0c97 14bc cd42 93bc 590f 29bb 1d76 e4bc
00000170: b0d8 733c dca2 55bc e500 99ba 9a5f 86bb
00000180: fb70 90bb 8593 22bd 595a 27bd 5741 cfbc
00000190: 0e92 9bbc 1836 18bc d414 00bd f48c 81bc
000001a0: 4c1e a9bc d786 72bc 300b 55bd a2b5 7a3c
000001b0: 8e92 3bbd f78b 8bbc d034 b4bb cce6 f7bc
000001c0: ac4f 44bb b94f 69bc 0b08 3eba 080c ff3b
000001d0: 2194 04bc b109 08bc b27a 19ba ddc5 2bbd
000001e0: fd0f 97bc e7f2 c4bc 814f 03bd d5d7 efbc
000001f0: 09d5 99bc e013 87ba 010a b03b c5e7 9fbc

network_body._body_endoder.seq_layers.2.weight f4 [128, 128]
0.119758755 -0.06426464 0.012059115 -0.076159246 -0.05835242 -0.0123221595 0.0667944 0.0030831674
-0.07374886 -0.046988722 0.11790893 0.024563229 0.017722685 0.056737326 -0.009419149 0.08986273
-0.16089208 0.031739607 -0.08827713 -0.015135031 0.039310172 0.003950726 -0.06555219 0.1091616
0.19084801 -0.02316822 0.122560725 0.0894088 0.028107962 -0.017179612 0.10435179 0.0113469
0.07350279 -0.0031088798 0.09120248 -0.13409312 -0.026392246 0.05957945 -0.1358172 0.11528124
0.15835631 -0.053738818 -0.1051681 0.16983806 -0.241397 0.10835745 0.09717457 -0.028258618
0.023744 -0.03293493 -0.014455852 -0.115042254 0.11774247 0.0003655489 0.08556725 0.11139687
0.053410713 -0.023594346 -0.1001502 0.16372578 0.032881584 -0.013012406 0.016323596 -0.0033178036
-0.1403095 -0.03126944 0.048644464 0.03078724 0.05509767 0.07527395 -0.1306484 0.16348606
0.043769527 0.074057974 -0.0054349857 0.11160131 0.16461633 0.020260718 -0.034373544 -0.007480951
-0.12515827 -0.06713949 -0.00841621 -0.0358836 0.024741631 -0.00019132318 -0.23948932 -0.10002294
-0.12940769 -0.03382687 0.029283702 -0.029678611 0.015043074 0.0052356604 -0.12567835 0.038593106
-0.07465508 0.106227346 0.0760121 -0.088094145 -0.15309434 0.0063724853 0.072159044 0.00073545054
-0.0021636714 0.16342035 0.055337936 -0.16912289 -0.036167737 -0.03568224 0.037537158 -0.061359137
-0.2083936 -0.006964024 -0.019511795 0.09055147 -0.048295185 -0.1230841 0.050780524 -0.2000398
0.024000198 -0.0073864143 -0.023751283 0.07974643 -0.09349573 -0.06007832 0.043012645 -0.13059777
0.15744409 -0.056419294 -0.101779915 0.049017686 0.041663423 -0.06254783 -0.007712329 0.13547467
0.0761989 0.06738123 0.09071913 -0.005097429 -0.02294856 0.08546464 0.033859316 -0.11779666
0.034708392 -0.23839301 0.0268697 -0.0120541435 0.094984815 0.0022491636 -0.058607087 -0.091523044
0.041891955 0.0043243426 -0.010119001 0.036512077 0.121117316 -0.025374733 -0.033699967 0.09880513
-0.019314066 0.13309045 -0.10104801 -0.12016724 0.055806164 0.031791106 -0.12444285 0.025864491
0.06516873 -0.099747434 0.14324953 -0.08822103 0.06400879 0.12772834 -0.04257825 0.0677276
-0.055323195 0.0701315 0.09066636 0.017115233 -0.33390027 -0.22034486 0.004708782 0.08396602
-0.06678186 -0.040313084 -0.14962482 -0.04456406 -0.009915146 0.006368116 -0.22926074 -0.13028172
0.031718332 -0.12911393 -0.023106458 0.017901836 0.0102556115 0.11980894 -0.09196954 -0.08272724
0.061763097 0.054665584 0.119367786 -0.031268854 -0.03695752 -0.08327996 -0.062058445 0.019513259
0.094816454 0.1437254 -0.08229514 0.057608973 0.056629717 -0.1002295 0.1420019 0.014736021
-0.029846963 0.03541645 0.15436201 -0.019282196 -0.114547566 0.06484636 0.029965576 -0.025591876
-0.013740619 -0.091655105 -0.12926471 -0.102912076 -0.12958045 -0.10710485 0.08602079 0.050515715
0.034144167 -0.048994828 0.010369859 -0.022387575 0.04846556 0.02209139 0.0131835025 -0.08842646
-0.016456515 -0.017772363 -0.014180093 0.088787824 0.028848158 0.008980915 0.079815224 -0.05484942
-0.1481036 0.06246765 -0.04894779 0.08793397 -0.10977573 0.15272562 -0.14690335 -0.06975897
00000000: 1444 f53d 2e9d 83bd 9893 453c 61f9 9bbd
00000010: f202 6fbd e2e2 49bc 81cb 883d f70e 4a3b
00000020: a409 97bd 3f77 40bd 3d7a f13d d338 c93c
00000030: 2a2f 913c 6665 683d c652 1abc f309 b83d
00000040: e5c0 24be 6401 023d a4ca b4bd ecf8 77bc
00000050: b403 213d 1775 813b 3a40 86bd 1e90 df3d
00000060: a96d 433e 47cb bdbc 1e01 fb3d f61b b73d
00000070: ab42 e63c 42bc 8cbc 64b6 d53d 59e8 393c
00000080: a188 963d 59be 4bbb 5ec8 ba3d b54f 09be
00000090: 8d34 d8bc 9509 743d aa13 0bbe 9218 ec3d
000000a0: 2828 223e 3c1d 5cbd 5f62 d7bd 07ea 2d3e
000000b0: c630 77be 83ea dd3d 7603 c73d 9e7e e7bc
000000c0: c782 c23c c7e6 06bd 3dd8 6cbc 469b ebbd
000000d0: f722 f13d 25a7 bf39 e23d af3d 0b24 e43d
000000e0: 31c5 5a3d ee48 c1bc 8c1b cdbd bba7 273e
000000f0: d7ae 063d fd31 55bc 10b9 853c 826f 59bb
00000100: 4bad 0fbe 6214 00bd 6b3f 473d 8635 fc3c
00000110: 18ae 613d 3b29 9a3d b2c8 05be e468 273e
00000120: ad47 333d b5ab 973d f717 b2bb 3a8f e43d
00000130: 2f91 283e cef9 a53c 46cb 0cbd c422 f5bb
00000140: 7d29 00be 6e80 89bd 25e4 09bc affa 12bd
00000150: f6ae ca3c ed9d 48b9 b03c 75be d4d8 ccbd
00000160: 7383 04be 0b8e 0abd 60e4 ef3c 8f20 f3bc
00000170: 3a77 763c e78f ab3b d3b1 00be ce13 1e3d
00000180: c3e4 98bd b98d d93d 3bac 9b3d b46a b4bd
00000190: c3c4 1cbe 48d0 d03b 1fc8 933d 40cb 403a
000001a0: 62cc 0dbb aa57 273e 08aa 623d 8d2e 2dbe
000001b0: 9f24 14bd 8a27 12bd 90c0 193d b853 7bbd
000001c0: 2265 55be 7832 e4bb 33d7 9fbc 0d73 b93d
000001d0: 2cd1 45bd 8413 fcbd 3dff 4f3d 3cd7 4cbe
000001e0: 109c c43c bc09 f2bb 0d92 c2bc 1952 a33d
000001f0: b07a bfbd af14 76bd 072e 303d 6cbb 05be
00000200: 0639 213e eb17 67bd fd71 d0bd c5c6 483d
00000210: 44a7 2a3d 1419 80bd b4b7 fcbb dfb9 0a3e
00000220: 2b0e 9c3d 2cff 893d f4ca b93d 5508 a7bb
00000230: 9efe bbbc 1608 af3d 11b0 0a3d 603f f1bd
00000240: 632a 0e3d 4c1d 74be d81d dc3c be7e 45bc
00000250: 6687 c23d b466 133b fc0d 70bd 6f70 bbbd
00000260: e696 2b3d 37b3 8d3b 2bca 25bc b08d 153d
00000270: 5b0c f83d acde cfbc fa08 0abd 585a ca3d
00000280: 8838 9ebc dd48 083e 42f2 cebd 3e1a f6bd
00000290: 0195 643d 6437 023d e5db febd c5e1 d33c
000002a0: 2f77 853d 6248 ccbd 01b0 123e 3aad b4bd
000002b0: 0a17 833d 38cb 023e 8866 2ebd c5b4 8a3d
000002c0: 939a 62bd 1ba1 8f3d 49af b93d 3f35 8c3c
000002d0: faf4 aabe 15a2 61be 204c 9a3b 60f6 ab3d
000002e0: eec4 88bd 551f 25bd 4037 19be ce88 36bd
000002f0: 2373 22bc a1ab d03b 54c3 6abe 9268 05be
00000300: 15eb 013d 7136 04be c149 bdbc dfa6 923c
00000310: 2707 283c 645e f53d 875a bcbd e66c a9bd
00000320: 4dfb 7c3d 05e9 5f3d 1977 f43d c513 00bd
00000330: c560 17bd af8e aabd ff30 7ebd 45da 9f3c
00000340: 212f c23d c02c 133e 5b8a a8bd 63f7 6b3d
00000350: 90f4 673d 2045 cdbd f268 113e 5a6f 713c
00000360: 9e81 f4bc d710 113d 1311 1e3e b2f5 9dbc
00000370: ea97 eabd 2bce 843d 5e7a f53c 0ea6 d1bc
00000380: 5520 61bc acb5 bbbd f85d 04be 91c3 d2bd
00000390: bdb0 04be ca59 dbbd ab2b b03d 91e9 4e3d
000003a0: c1da 0b3d cdae 48bd 57e6 293c 2666 b7bc
000003b0: d383 463d 01f9 b43c 9eff 573c ef18 b5bd
000003c0: d0cf 86bc 5997 91bc 9f53 68bc 64d6 b53d
000003d0: f952 ec3c b024 133c 2a76 a33d c9a9 60bd
000003e0: 78a8 17be 14de 7f3d 7a7d 48bd ba16 b43d
000003f0: 19d2 e0bd 1b64 1c3e d56d 16be cadd 8ebd

network_body._body_endoder.seq_layers.2.bias f4 [128]
-0.005248967 -0.015974429 -0.032921147 -0.0072068274 -0.0049405694 -0.009350342 -0.011720346 -0.012354694
-0.039730944 -0.012196521 -0.0077646095 -0.011731439 -0.005048692 -0.0005985367 -0.016149348 -0.0032880486
-0.020023843 -0.004873473 0.014455401 -0.017015273 -0.03272699 -0.012523843 -0.010133014 -0.012830414
-0.021027222 -0.025772361 -0.014125634 0.011918783 -0.0019797767 -0.008304051 -0.013264016 -0.005533107
-0.017110398 -0.014527666 -0.0089109475 0.003099747 -0.0108596925 0.009726841 -0.037608184 0.011763007
-0.012291107 -0.017601397 -0.00901712 -0.03452285 -0.00026806127 -0.011382365 -0.006558275 -0.011053648
0.0036178688 0.016881455 0.0036027143 -0.01694412 -0.0013962736 0.00883212 -0.023417106 -0.05226399
0.0002758013 -0.031363096 -0.008341402 0.015901467 0.008130954 -0.0060943817 -0.016370814 -0.016727889
-0.044713713 -0.01149761 -0.021294836 -0.015891364 -0.013095223 -0.012541532 -0.013153202 -0.002010364
-0.035789195 -0.012040528 -0.00060515845 -0.010113073 -0.010532397 -0.015905218 -0.007827604 -0.014993228
-0.011776224 -0.005627688 -0.006737019 -0.0072043124 -0.025461346 0.001012119 -0.021469032 -0.011843274
-0.0044098496 0.0072598383 -0.014247955 -0.01049523 -0.011640342 -0.006108303 -0.015057203 -0.008893452
-0.007273608 -0.0033188076 -0.021448903 -0.020806653 0.020578949 0.0024159045 -0.011840943 -0.0020207048
-0.030596498 -0.0112187425 -0.0023714597 -0.010297394 -0.011806103 -0.018458594 -0.008974092 -0.008694811
-0.0042668045 -0.019171398 -0.0051068263 -0.008039727 -0.008458676 -0.017093545 -0.03260127 -0.007664808
0.0004187495 -0.01143327 -0.024943268 0.0005034274 -0.008842827 0.006244122 -0.012494664 -0.020586578
00000000: 87ff abbb cedc 82bc 53d8 06bd 4027 ecbb
00000010: 80e4 a1bb 2d32 19bc b206 40bc 586b 4abc
00000020: eabc 22bd ebd3 47bc 446e febb 3935 40bc
00000030: 806f a5bb 1ee7 1cba a34b 84bc 4d7c 57bb
00000040: 0b09 a4bc a8b1 9fbb 59d6 6c3c 9d63 8bbc
00000050: bc0c 06bd ce30 4dbc f104 26bc a836 52bc
00000060: 4841 acbc 8f20 d3bc 346f 67bc 0047 433c
00000070: 24bf 01bb b70d 08bc 5151 59bc 114f b5bb
00000080: 1b2b 8cbc 7305 6ebc 39ff 11bc 2025 4b3b
00000090: daec 31bc 545d 1f3c 0a0b 1abd a1b9 403c
000000a0: a460 49bc ce30 90bc 8bbc 13bc d567 0dbd
000000b0: 938a 8cb9 197d 3abc cce6 d6bb 5c1a 35bc
000000c0: c419 6d3b fa4a 8a3c 841b 6c3b 65ce 8abc
000000d0: 2b03 b7ba 99b4 103c 3bd5 bfbc c412 56bd
000000e0: 6d99 9039 9776 00bd 60aa 08bc cb43 823c
000000f0: b137 053c 61b3 c7bb 161c 86bc ed08 89bc
00000100: ba25 37bd 7960 3cbc 8272 aebc 9b2e 82bc
00000110: 598d 56bc ff7a 4dbc 8780 57bc 50c0 03bb
00000120: b197 12bd a245 45bc 7fa3 1eba 4db1 25bc
00000130: 1390 2cbc a94b 82bc 5a3f 00bc 28a6 75bc
00000140: 10f1 40bc 7868 b8bb 36c2 dcbb 2712 ecbb
00000150: 5094 d0bc 14a9 843a d3df afbc 4b0a 42bc
00000160: 8080 90bb f0e3 ed3b 4170 69bc 2ff4 2bbc
00000170: 22b7 3ebc 2928 c8bb 7db2 76bc d7b5 11bc
00000180: 7257 eebb 5a80 59bb 9cb5 afbc b772 aabc
00000190: 2f95 a83c 2754 1e3b 8400 42bc cd6d 04bb
000001a0: 82a5 fabc d1ce 37bc 7e6a 1bbb 67b6 28bc
000001b0: 636e 41bc 7a36 97bc 1208 13bc ae74 0ebc
000001c0: 8dd0 8bbb 560d 9dbc 2a57 a7bb 0fb9 03bc
000001d0: 4296 0abc c307 8cbc e988 05bd 1229 fbbb
000001e0: 9b8b db39 9c52 3bbc d355 ccbc 71f8 033a
000001f0: 81e1 10bc 7e9b cc3b 6bb6 4cbc 2fa5 a8bc

action_model._continuous_distribution.log_sigma f4 [1, 3]
-0.049929444 -0.06005304 -0.0038440882
00000000: d182 4cbd 2dfa 75bd 19ed 7bbb

action_model._continuous_distribution.mu.weight f4 [3, 128]
-0.0027737566 0.02058328 0.010713927 -0.006655549 0.0047132354 0.003790785 0.005163691 0.009622316
0.013519939 -0.00079409336 -0.0030510055 0.019125337 0.02404285 -0.0004006286 -0.006336962 -0.011298263
0.037378073 -0.00043543446 -0.0186595 0.013102937 0.011308929 -0.010189133 0.025664767 -0.0059498725
0.0075151767 0.028769612 0.011776568 0.0049678064 0.0042307866 -0.010259857 -0.0036297506 -0.0059693214
0.0063749626 -0.013463589 0.020383473 -0.00767611 0.012504985 0.03334324 0.011221085 0.008647976
0.010685201 0.003970283 -0.0071974234 -0.0004993092 -0.0027896338 0.020250635 0.023617469 0.008059502
-0.016669033 -0.0073082256 0.0029544611 0.0039764894 -0.019282924 -0.042352866 0.007835879 0.015781024
-0.0029310833 0.0074396753 0.0024198312 -0.00955741 0.022096692 0.0060118455 0.050289158 0.010073655
0.005480377 0.0025216085 0.010945145 0.007716867 0.0368593 0.006158517 0.018374601 -0.02693397
-0.0016156964 0.0033599199 0.01700303 -0.011823287 -0.007503393 0.011233582 -0.0120040625 0.02828842
0.03951431 0.013002762 -0.011471641 0.00093824527 0.017952772 0.002153248 -0.003899349 0.023907354
0.011284898 -0.016225338 -0.005376033 0.017445322 -0.0018111742 -0.007737932 0.016886204 0.018007431
-0.0027188559 -0.00011053681 0.015473208 0.02376011 0.00013423552 -0.0073141195 -0.0072260215 0.019823039
0.015690848 -0.004017969 -0.023933869 0.020285204 0.0009080358 0.021772295 -0.0048806337 -0.010319034
0.00695813 0.009361383 -0.0074109677 0.000237192 -0.010639939 -0.002205609 0.014078403 0.0006950734
0.0032775444 0.00085806014 0.015589047 -0.0007255898 -0.021133946 -0.006790694 -0.008748329 0.015990175
-0.0010680364 -0.0027782354 -0.0059112282 0.0040472257 -0.00021667095 0.01169778 -0.0016014944 0.0025920116
-0.017033355 -0.011167398 0.016242722 0.011420039 0.011570636 0.029113073 -0.004906235 0.0021173232
-0.0006355631 -0.0013262167 -0.021375908 0.0032649303 0.00095378474 -0.016266687 -0.0022797543 -0.0005129923
0.0052216942 0.005778347 -0.0069598104 0.011898772 0.006486109 0.008225956 -0.034489352 -0.0114593115
0.0006171153 0.0020754943 -0.014909757 0.035419893 -0.0046674847 0.0071171126 -0.003155941 0.027434217
0.003955292 -0.0011304138 0.0044351094 -0.0017514387 0.02147897 -0.002268118 0.004226254 0.010800894
0.0046366556 -0.009085005 0.01846951 -0.006506116 -0.0025344703 -0.031155782 -0.004362883 0.0037584982
-0.022464965 -0.008111587 -0.009762257 0.021755172 0.010672269 0.014008513 -0.0056566913 -0.020787274
-0.010548641 0.012665102 -0.0072233155 -0.021721069 -0.019636871 0.014496078 -0.004933174 -0.0032364295
-0.027883856 0.003949238 0.019537697 -0.0148985805 -0.0063265334 -0.018202877 0.001442959 -0.01154997
0.0027859074 0.02333997 0.004410628 -0.0049129473 -0.023568915 0.018929927 -0.006247568 -0.0019477587
0.009934693 0.015035184 0.004135155 0.003145236 0.0097036455 -0.038510635 0.0100907525 -0.008781969
-0.0023639533 0.00070317474 -0.0072565787 0.010223406 0.017068192 0.0038068686 -0.012404462 -0.0040208097
0.0071382946 -0.0095846625 -0.00906825 -0.015142407 -0.002110292 -0.0067187897 0.000666821 -0.031534955
0.0063707335 -0.00019657418 -0.017732292 0.015646668 0.0036990852 0.0022547166 -0.004036244 -0.0017480829
0.015754985 -4.4998862e-05 0.01272745 0.012103093 -0.024112117 -0.0013340733 0.01001684 -0.00049444963
00000000: eac7 35bb 449e a83c 7889 2f3c cb16 dabb
00000010: 7c71 9a3b d26e 783b 2e34 a93b eba6 1d3c
00000020: bc82 5d3c b42a 50ba 61f3 47bb bdac 9c3c
00000030: 83f5 c43c 760b d2b9 4aa6 cfbb 5a1c 39bc
00000040: c019 193d 064b e4b9 cfdb 98bc b3ad 563c
00000050: 1649 393c 52f0 26bc eb3e d23c 26f7 c2bb
00000060: df41 f63b 40ae eb3c 82f2 403c fbc8 a23b
00000070: 69a2 8a3b f618 28bc 1ce1 6dbb 4c9a c3bb
00000080: 10e5 d03b 6396 5cbc 3efb a63c e187 fbbb
00000090: b5e1 4c3c ec92 083d a4d8 373c 3eb0 0d3c
000000a0: fb10 2f3c 2619 823b 5dd8 ebbb 13e4 02ba
000000b0: 4ad2 36bb a9e4 a53c 6c79 c13c 000c 043c
000000c0: 7f8d 88bc d779 efbb a29f 413b 364d 823b
000000d0: 39f7 9dbc 337a 2dbd 0f62 003c 3547 813c
000000e0: 6b17 40bb 85c8 f33b 0896 1e3b af96 1cbc
000000f0: 1f04 b53c 04ff c43b 01fc 4d3d f90b 253c
00000100: bc94 b33b 9241 253b 4453 333c c6dd fc3b
00000110: c7f9 163d 63cd c93b 5586 963c a1a4 dcbc
00000120: c6c5 d3ba 1a32 5c3b f049 8b3c 76b6 41bc
00000130: 06df f5bb 0f0d 383c b0ac 44bc 1ebd e73c
00000140: c2d9 213d 8909 553c 8df3 3bbc 93f4 753a
00000150: b111 933c 821d 0d3b 388c 7fbb 5bd9 c33c
00000160: 4be4 383c 00eb 84bc 6f29 b0bb 7ee9 8e3c
00000170: ec64 edba 7a8e fdbb f054 8a3c 5284 933c
00000180: d52e 32bb ffcf e7b8 5783 7d3c 90a4 c23c
00000190: 93c1 0c39 48ab efbb 43c8 ecbb ed63 a23c
000001a0: 188a 803c 2ba9 83bb f610 c4bc 282d a63c
000001b0: 4009 6e3a d05b b23c b9ed 9fbb 2a11 29bc
000001c0: 0601 e43b 7c60 193c b4d7 f2bb beb6 7839
000001d0: 2453 2ebc fb8b 10bb 1aa9 663c 9635 363a
000001e0: 12cc 563b 71ef 603a 3469 7f3c 8235 3eba
000001f0: 1921 adbc 7884 debb 2755 0fbc d4fd 823c
00000200: 5bfd 8bba 0e13 36bb fab2 c1bb 979e 843b
00000210: 2a32 63b9 0ca8 3f3c 3ce9 d1ba bdde 293b
00000220: 8989 8bbc 76f7 36bc 750f 853c 1e1b 3b3c
00000230: c492 3d3c 8a7e ee3c 7bc4 a0bb cac2 0a3b
00000240: eb9b 26ba 73d4 adba 871c afbc 71f8 553b
00000250: 6907 7a3a b741 85bc ee67 15bb 557a 06ba
00000260: bf1a ab3b 4a58 bd3b 1f0f e4bb 11f3 423c
00000270: 6d89 d43b 29c6 063c b544 0dbd d6bf 3bbc
00000280: e8c5 213a 0405 083b 0e48 74bc 7314 113d
00000290: b3f1 98bb ab36 e93b e7d3 4ebb b9bd e03c
000002a0: 659b 813b 652a 94ba 6554 913b 8890 e5ba
000002b0: aaf4 af3c b5a4 14bb 637c 8a3b 3cf6 303c
000002c0: 16ef 973b 46d9 14bc 5f4d 973c 4231 d5bb
000002d0: 5b19 26bb 693a ffbc 84f6 8ebb 2351 763b
000002e0: 7208 b8bc 76e6 04bc e0f1 1fbc e737 b23c
000002f0: beda 2e3c f683 653c c45b b9bb 134a aabc
00000300: 35d4 2cbc 4a81 4f3c 90b1 ecbb 62f0 b1bc
00000310: 81dd a0bc f580 6d3c 76a6 a1bb 471a 54bb
00000320: af6c e4bc 9c68 813b 850d a03c 2d19 74bc
00000330: cf4e cfbb 331e 95bc ab21 bd3a 163c 3dbc
00000340: c593 363b 7733 bf3c 0887 903b cafc a0bb
00000350: 9913 c1bc ef12 9b3c 66b8 ccbb f04b ffba
00000360: 1fc5 223c 2256 763c 3280 873b 4e20 4e3b
00000370: 0afc 1e3c 54bd 1dbd af53 253c 3fe2 0fbc
00000380: 8eec 1abb 4255 383a 98c8 edbb 1380 273c
00000390: 98d2 8b3c a87c 793b 163c 4bbc ffc0 83bb
000003a0: 5be8 e93b fd08 1dbc ff92 14bc dc17 78bc
000003b0: d34c 0abb 4b29 dcbb 9acd 2e3a cc2a 01bd
000003c0: 96c1 d03b 7b1f 4eb9 5043 91bc 712d 803c
000003d0: 5a6c 723b dec3 133b 7842 84bb ee1f e5ba
000003e0: 9910 813c 29bd 3cb8 cb86 503c 0d4c 463c
000003f0: c686 c5bc 12dc aeba ac1d 243c f49d 01ba

action_model._continuous_distribution.mu.bias f4 [3]
-0.009386983 0.007638226 0.0021652333
00000000: dccb 19bc 154a fa3b 96e6 0d3b
