results/CurveRoad1.3/CarAgent/CarAgent-4608.onnx (onnx, 83842 bytes, 7 tensors)

network_body._body_endoder.seq_layers.0.weight f4 [128, 22]
-0.10773068 0.4939476 -0.033543136 -0.086901 0.05294188 -0.09729072 -0.038321927 0.01146905
0.05086461 -0.23703274 0.16709377 0.3017795 0.36039722 -0.271448 0.30129716 -0.15096645
0.22453277 0.057991296 -0.12951936 0.15113696 -0.21329686 -0.3542919 0.16616176 0.045322027
0.43609384 -0.2927362 0.039016366 -0.07499113 -0.07862081 0.23861219 0.041711308 0.04243395
0.12116385 0.019418297 0.23234273 -0.080149524 -0.002445454 -0.21154422 -0.24738201 -0.4837953
-0.24083924 -0.2199764 -0.09671063 0.12416206 -0.028754627 0.35703385 0.13205163 0.52288324
0.21191953 0.28406525 0.07609686 0.14952922 0.1320529 0.0051496867 -0.24500118 -0.0012779478
0.10907123 -0.4291494 -0.15699708 0.0063919234 0.31194714 -0.3656153 0.28696588 0.27538893
-0.01654019 0.20004107 -0.3752778 0.18030128 0.024217116 -0.061018728 -0.08785887 -0.14107746
-0.04414796 -0.15202275 0.24587828 -0.08462471 -0.087562755 -0.56927484 0.3339612 0.02956951
-0.21026848 -0.26919374 -0.2537294 -0.045900475 -0.20571855 0.15320846 -0.026475566 0.17803927
-0.06591717 0.15233457 -0.16254216 0.19187641 -0.010301067 -0.0029387537 0.06340097 -0.30655426
0.026165117 -0.23912941 -0.16442037 0.025496362 -0.06764101 -0.24278323 -0.41984603 -0.09061504
-0.20237854 0.26687452 0.05536078 -0.5581309 0.26989302 -0.018819759 -0.041085035 0.26104575
0.07234679 0.08097036 -0.48334062 0.25308117 0.08900998 -0.18007952 0.19542614 -0.071040176
0.016849956 0.33527836 0.033758514 0.19818808 -0.15743119 0.14627492 0.037910506 0.14929843
-0.16425294 -0.15872955 -0.23218125 0.44315377 0.06431546 -0.023126878 -0.23717867 -0.27816346
0.4006465 0.16559094 -0.32896638 0.04787914 0.27160287 0.3672877 0.08646575 0.02346895
0.540244 0.30018693 0.037079923 -0.2233676 -0.12272979 0.05496785 -0.22198842 0.16613238
-0.08491084 -0.3275667 -0.2957824 0.10298257 -0.0037356005 0.018219475 0.048680924 0.6325462
-0.08453801 -0.11996134 0.12223183 0.24153377 -0.039973218 -0.21909066 0.36125442 0.08246566
0.052131884 -0.12885424 -0.06645662 -0.034007434 0.18273987 -0.019289197 0.12566255 0.08319032
0.103727885 0.2758216 0.051896658 -0.046304557 0.31481197 0.21686833 0.33294755 0.03452737
-0.18031809 0.04817954 0.04250459 -0.17322944 0.36294118 -0.0010267484 -0.37212145 0.070542194
0.18145815 -0.26115718 -0.16933669 -0.10682834 -0.09383263 0.15530798 0.028281977 0.48307982
-0.286548 0.0074395943 0.07016342 -0.045170527 0.3213919 0.08543489 -0.12293018 -0.054925546
-0.13322246 0.20539688 -0.026725208 0.24185973 0.009662613 -0.12892987 -0.101457685 0.12321365
-0.17634052 -0.58328164 0.26178423 -0.29032874 -0.06621665 -0.16661213 -0.3187289 0.10967166
-0.22489594 -0.40850714 -0.40160504 0.009383796 -0.16525742 0.47157514 -0.00031018083 -0.08214978
-0.31768492 -0.03901602 -0.06209761 -0.16374387 -0.15984586 -0.029247059 -0.12655854 0.044335086
-0.025298113 -0.14990644 0.048301738 -0.013635248 0.009852262 -0.11870266 0.43602782 0.1306502
0.02739702 -0.20412017 -0.20911348 0.016828574 -0.16152763 -0.54878646 -0.092067316 -0.04384534
00000000: e7a1 dcbd b3e6 fc3e 8764 09bd 27f9 b1bd
00000010: 96d9 583d 5b40 c7bd 74f7 1cbd afe8 3b3c
00000020: 6957 503d b6b8 72be a11a 2b3e d882 9a3e
00000030: fc85 b83e 3bfb 8abe 9f43 9a3e f396 1abe
00000040: ebeb 653e 4888 6d3d b9a0 04be a6c3 1a3e
00000050: 7e6a 5abe bf65 b5be 4f26 2a3e 97a3 393d
00000060: b147 df3e 85e1 95be a0cf 1f3d f394 99bd
00000070: f203 a1bd c156 743e 7ad9 2a3d 39cf 2d3d
00000080: c124 f83d 1f13 9f3c 41eb 6d3e 6f25 a4bd
00000090: e943 20bb 0c9f 58be b651 7dbe 04b4 f7be
000000a0: 909e 76be 7e41 61be 3910 c6bd ae48 fe3d
000000b0: d38e ebbc 24cd b63e 8b38 073e addb 053f
000000c0: 6f01 593e 0071 913e acd8 9b3d 301e 193e
000000d0: e038 073e b4be a83b 97e1 7abe d080 a7ba
000000e0: bd60 df3d 78b9 dbbe d8c3 20be 5773 d13b
000000f0: 89b7 9f3e ee31 bbbe 31ed 923e c7ff 8c3e
00000100: 4b7f 87bc 91d7 4c3e 6924 c0be e6a0 383e
00000110: f962 c63c c6ee 79bd 5aef b3bd 9c76 10be
00000120: 7ed4 34bd daab 1bbe 84c7 7b3e b84f adbd
00000130: 1a54 b3bd ffbb 11bf f6fc aa3e c23b f23c
00000140: 9f50 57be c3d3 89be d2e8 81be 2302 3cbd
00000150: e2a7 52be aee2 1c3e 49e3 d8bc ed4f 363e
00000160: 95ff 86bd 98fd 1b3e 7471 26be 407b 443e
00000170: cec5 28bc 1b98 40bb 5ed8 813d aef4 9cbe
00000180: 3a58 d63c 57de 74be d05d 28be bfdd d03c
00000190: 5f87 8abd 2b9c 78be 0ff6 d6be 6194 b9bd
000001a0: 523c 4fbe c7a3 883e fcc1 623d abe1 0ebf
000001b0: 6b2f 8a3e e52b 9abc c848 28bd caa7 853e
000001c0: 8e2a 943d cad3 a53d 6c78 f7be db93 813e
000001d0: dd4a b63d c466 38be ca1d 483e 837d 91bd
000001e0: eb08 8a3c 9ba9 ab3e 5e46 0a3d d1f1 4a3e
000001f0: a435 21be 18c9 153e 0c48 1b3d b0e1 183e
00000200: ec31 28be 008a 22be ecc0 6dbe 0de5 e23e
00000210: d3b7 833d 9474 bdbc f7de 72be 716b 8ebe
00000220: 8a21 cd3e ac90 293e 486e a8be eb1c 443d
00000230: 880f 8b3e 220d bc3e f514 b13d f541 c03c
00000240: 6e4d 0a3f 1ab2 993e 1ee1 173d 7aba 64be
00000250: c259 fbbd f825 613d ef50 63be 9b1e 2a3e
00000260: bce5 adbd d3b6 a7be ca70 97be 87e8 d23d
00000270: fad0 74bb 0241 953c a665 473d 8cee 213f
00000280: 4422 adbd 4bae f5bd af54 fa3d a154 773e
00000290: f5ba 23bd 4d59 60be 57f6 b83e c2e3 a83d
000002a0: 3e88 553d 5ef2 03be 691a 88bd 614b 0bbd
000002b0: 2920 3b3e 6104 9ebc afad 003e b05f aa3d
000002c0: 496f d43d 7d38 8d3e 9791 543d d9a9 3dbd
000002d0: 092f a13e bb12 5e3e 1a78 aa3e 926c 0d3d
000002e0: 4ea5 38be e957 453d 4b19 2e3d 0f63 31be
000002f0: 6dd3 b93e f693 86ba b486 bebe 6d78 903d
00000300: 2ad0 393e 65b6 85be 9966 2dbe d1c8 dabd
00000310: 522b c0bd 0e09 1f3e 9baf e73c 3d56 f73e
00000320: 6bb6 92be d7c7 f33b d7b1 8f3d bb04 39bd
00000330: 7b8d a43e 7df8 ae3d d1c2 fbbd 9cf9 60bd
00000340: 786b 08be 8f53 523e d3ee dabc 14aa 773e
00000350: f04f 1e3c 3106 04be 0cc9 cfbd 7057 fc3d
00000360: 9c92 34be f251 15bf 9508 863e f8a5 94be
00000370: 989c 87bd 5f9c 2abe 6f30 a3be 899b e03d
00000380: 1f4b 66be d927 d1be 2d9f cdbe 7ebe 193c
00000390: 3e39 29be 4c72 f13e c49f a2b9 253e a8bd
000003a0: 99a7 a2be 43cf 1fbd 105a 7ebd 79ac 27be
000003b0: a2ae 23be 8797 efbc 9098 01be b598 353d
000003c0: fd3d cfbc 1381 19be 0bd8 453d 6066 5fbc
000003d0: 626b 213c 611a f3bd 0a3f df3e 2bc9 053e
000003e0: b76f e03c e104 51be d821 56be 14dc 893c
000003f0: 8067 25be 457d 0cbf ca8d bcbd 2c97 33bd

network_body._body_endoder.seq_layers.0.bias f4 [128]
-0.0036642603 -0.0049884194 6.045412e-05 -0.004349488 -0.0063014096 -0.004993095 0.0039517167 -0.0045121834
0.0010766608 -0.009600435 -0.00034637772 0.0055545913 -0.004680616 -0.02564837 -0.0059050494 -0.000555586
-0.0015118172 -0.018657774 -0.0012460595 -0.00057394133 0.00052594166 -0.008995572 -0.027174016 -0.011004367
0.00012372425 -0.0092543755 -0.013031473 -0.006103484 -0.003613496 -0.0044842386 -0.0018258601 -0.0027003414
-0.008263346 -0.004644765 -0.00659231 0.0015893028 -0.009336168 -0.0055072634 -0.0031837055 -0.0055308435
-0.0035719473 0.0041465387 -0.017268164 0.000209034 -0.005425614 -0.002258059 -0.0025938593 -0.008185059
0.00021806982 -0.003086584 1.2534987e-05 -0.0069710766 0.008442932 0.00041124332 -0.00025314547 -0.006548767
-0.002874316 -0.0036969555 0.006476445 -0.00077352684 -0.018637735 -0.006294248 -0.003649222 -0.0076273493
-0.015133966 0.0035405504 -0.0068595987 0.0012100203 -0.0012604614 -0.010765302 -0.0075637028 0.012637014
-0.01014249 -0.012822017 0.0010552197 -0.0046368567 -0.002012424 -0.0049558813 0.0046039606 0.0012277095
-0.0061835125 -0.010241384 -0.023967521 0.00050373847 -0.013115466 -0.013183506 0.013255017 -0.030435342
-0.0014353183 0.00075594865 0.0035154708 0.0055220374 -0.013917945 -0.008968784 0.0022085141 -0.002001944
0.0006739681 0.0028792843 -0.0029130727 -0.0007952465 -0.020004574 -0.009708957 0.0014586834 -0.0061001615
-0.0043190555 -0.0035385957 0.00013071367 0.0057649575 8.648207e-06 -0.0052413535 0.0020129005 0.021849124
0.0050586667 -0.00874991 0.004594773 -0.016292054 0.0054136245 0.00022932305 -0.011733625 0.006294273
0.0037307732 0.0010126304 -0.0040684263 0.00014527155 0.002875838 -0.014209887 -0.00574634 -0.0051731286
00000000: 1624 70bb e575 a3bb 1e90 7d38 2686 8ebb
00000010: 0e7c cebb 1e9d a3bb 677d 813b f0da 93bb
00000020: be1e 8d3a 254b 1dbc 089a b5b9 4a03 b63b
00000030: da5f 99bb 881c d2bc 257f c1bb bfa4 11ba
00000040: 2b28 c6ba 30d8 98bc d252 a3ba 8d74 16ba
00000050: 59df 093a 2a62 13bc 0b9c debc a94b 34bc
00000060: fabb 0139 aa9f 17bc f681 55bc bcff c7bb
00000070: 67d0 6cbb 85f0 92bb b351 efba 36f8 30bb
00000080: fc62 07bc 1d33 98bb 4e04 d8bb 2750 d03a
00000090: baf6 18bc 4676 b4bb b7a5 50bb 143c b5bb
000000a0: 5517 6abb b0df 873b f775 8dbc 2330 5b39
000000b0: 59c9 b1bb f2fb 13bb bdfd 29bb a01a 06bc
000000c0: aca9 6439 4948 4abb 5c4d 5237 a16d e4bb
000000d0: 3954 0a3c 259c d739 9cb8 84b9 0a97 d6bb
000000e0: 055f 3cbb 9f48 72bb 5c38 d43b 82c6 4aba
000000f0: 2aae 98bc fb3f cebb c927 6fbb d8ee f9bb
00000100: 74f4 77bc 9408 683b 7cc6 e0bb 8b99 9e3a
00000110: 1136 a5ba f360 30bc f0d8 f7bb 7a0b 4f3c
00000120: b02c 26bc 7013 52bc 4c4f 8a3a c6f0 97bb
00000130: dfe2 03bb f264 a2bb d2dc 963b 18eb a03a
00000140: 109f cabb 7acb 27bc 8957 c4bc 510d 043a
00000150: 40e2 56bc a2ff 57bc 922b 593c 8a53 f9bc
00000160: 4a21 bcba db2a 463a d063 663b 35f2 b43b
00000170: 1808 64bc cef1 12bc b8bc 103b 0c33 03bb
00000180: 3cad 303a 60b2 3c3b 40e9 3ebb 1778 50ba
00000190: a2e0 a3bc 5112 1fbc 4b31 bf3a dde3 c7bb
000001a0: dd86 8dbb c9e7 67bb 2f10 0939 f8e7 bc3b
000001b0: c417 1137 a9bf abbb deea 033b effc b23c
000001c0: 2cc3 a53b c85b 0fbc c08f 963b ea76 85bc
000001d0: c664 b13b 7076 7039 643e 40bc 3040 ce3b
000001e0: fd7f 743b 3dba 843a 6f50 85bb 0954 1839
000001f0: 8e78 3c3b 96d0 68bc cb4b bcbb 5983 a9bb

network_body._body_endoder.seq_layers.2.weight f4 [128, 128]
0.037564836 0.042546827 0.11887648 0.06839457 0.03925138 0.029245533 -0.07412508 0.10107037
0.06993326 0.00038545107 -0.03223 -0.17107302 0.01856437 -0.07344991 0.04284899 -0.094042644
0.060547296 0.06360569 0.14614378 0.06092939 -0.07850922 0.03784884 -0.124982044 -0.038928553
0.040230528 -0.02887134 0.023134617 0.006163464 0.030225448 0.058891237 -0.0017703341 -0.007915742
0.15183216 0.022971997 0.0241424 -0.03768291 0.01880149 0.013019505 0.0625704 -0.04417176
-0.032621294 0.13096571 -0.03302175 0.07761577 -0.21492995 -0.009423379 -0.037880216 -0.17855705
0.07046774 -0.05971652 -0.02908147 -0.022349013 0.10560179 0.0145803 0.12065604 0.08615823
0.09333798 -0.16850135 0.14617151 -0.047752228 0.018811299 -0.014885124 -0.032634463 -0.20873381
0.06793519 0.10920272 0.06604344 -0.074571975 -0.016436411 0.12385769 0.050549146 0.055414848
-0.013473036 -0.012978286 0.119664274 0.04393593 -0.017180422 0.13601716 -0.0842877 -0.050222516
0.08237156 0.041505028 -0.09639069 0.0142525025 0.07596466 0.07527273 0.16153127 -0.052559655
-0.043876328 -0.12936965 -0.13317195 -0.015596334 0.014447796 -0.04238668 -0.0071918275 0.028625142
-0.047068626 -0.02515553 0.026201313 -0.02446103 0.02405354 0.065430716 -0.0063924147 -0.079837106
-0.24045892 0.015321821 -0.07585773 -0.013888816 -0.038040586 -0.01431369 0.23388983 0.0052653626
0.1052706 -0.0041735508 0.079985864 -0.20408778 -0.0905913 0.07624734 0.073248506 0.036809687
-0.039513525 0.022066949 0.04988369 -0.022116672 -0.092310555 0.06414411 0.038109403 -0.06743857
0.134368 0.1166823 0.016466135 -0.060672052 0.01752198 -0.14684662 0.022714648 -0.10842712
-0.18620299 -0.177511 -0.1205722 -0.15067227 -0.047959995 -0.10340133 -0.10030891 0.12329549
0.03873381 0.008415583 0.019205056 -0.07493523 0.060508057 -0.058760986 0.007823982 0.07481739
-0.105185896 0.113090456 -0.07008535 0.05898021 -0.07353716 -0.035642575 0.049630657 -0.07638018
0.050568223 0.04534213 -0.01611191 0.040431757 -0.021036 -0.037415415 0.004300613 0.09425375
0.15728484 -0.14802186 -0.0001940199 -0.07625667 0.02335771 -0.043290958 0.07070177 -0.06818928
-0.102381125 0.14211215 -0.062062338 -0.15606672 0.048409168 0.048084274 0.1928043 0.0134134395
-0.05063254 0.23686947 -0.11041635 0.1116345 0.08653896 -0.025073396 -0.015962359 -0.0886398
-0.22644268 -0.006204352 0.06993942 -0.016341774 -0.016293952 0.055341456 0.02790326 -0.08050279
-0.10325074 -0.0015101456 0.012672713 0.085205525 0.0016017964 0.086914584 -0.08515928 -0.14058524
-0.08773711 0.02624283 0.062198106 -0.11039466 -0.06415346 -0.14277124 0.008565546 -0.14079003
-0.10719033 0.088802025 0.021646341 0.17417915 -0.16369386 -0.028615382 -0.010760076 -0.16067547
0.010877202 -0.09279239 0.09537736 0.0210984 -0.024936508 0.027587682 -0.038082182 0.19446559
-0.025249923 0.13179475 0.09590606 -0.09056113 0.17965393 -0.0057846764 0.04641504 -0.04658841
0.133809 -0.085037 0.054848965 -0.18150796 0.10967194 0.06490058 0.14141367 0.06623089
0.09171844 0.02700088 0.018751336 -0.084672645 -0.04988441 -0.19752873 -0.12171031 -0.025402084
00000000: 96dd 193d 9545 2e3d 8375 f33d 7412 8c3d
00000010: 0ec6 203d 5494 ef3c e4ce 97bd fbfd ce3d
00000020: 2b39 8f3d 5e16 ca39 9b03 04bd c42d 2fbe
00000030: 4e14 983c e86c 96bd 6c82 2f3d 6e99 c0bd
00000040: 7100 783d b343 823d b7a6 153e 1991 793d
00000050: 71c9 a0bd 6307 1b3d 96f6 ffbd 8c73 1fbd
00000060: c4c8 243d 9783 ecbc cf84 bd3c e2f6 c93b
00000070: 5c9b f73c f037 713d 8e0a e8ba 07b1 01bc
00000080: e479 1b3e c52f bc3c 48c6 c53c 6559 1abd
00000090: 9505 9a3c c34f 553c e924 803d 73ed 34bd
000000a0: e89d 05bd e01b 063e d141 07bd 04f5 9e3d
000000b0: 9916 5cbe 8464 1abc 4928 1bbd a9d7 36be
000000c0: 6451 903d 4f99 74bd 433c eebc 4715 b7bc
000000d0: c045 d83d 36e2 6e3c 841a f73d ba73 b03d
000000e0: fc27 bf3d 9e8b 2cbe fcad 153e d797 43bd
000000f0: 271a 9a3c bce0 73bc b7ab 05bd 51be 55be
00000100: 9b21 8b3d ada5 df3d c841 873d 31b9 98bd
00000110: a7a5 86bc 1aa9 fd3d 9f0c 4f3d aefa 623d
00000120: 02be 5cbc e0a2 54bc 8b12 f53d 29f6 333d
00000130: f5bd 8cbc 1548 0b3e 089f acbd 20b6 4dbd
00000140: 6cb2 a83d 2d01 2a3d 7b68 c5bd 5483 693c
00000150: 5c93 9b3d 9728 9a3d 7468 253e cb48 57bd
00000160: aab7 33bd 7a79 04be 3a5e 08be c487 7fbc
00000170: 73b6 6c3c a89d 2dbd 6ca9 ebbb 467f ea3c
00000180: 08cb 40bd f812 cebc 23a4 d63c 7f62 c8bc
00000190: ee0b c53c 8a00 863d 7677 d1bb a381 a3bd
000001a0: dd3a 76be 6008 7b3c 4c5b 9bbd eb8d 63bc
000001b0: 72d0 1bbd f883 6abc d180 6f3e 1089 ac3b
000001c0: 1d98 d73d 48c2 88bb a1cf a33d 63fc 50be
000001d0: ee87 b9bd 9127 9c3d 5003 963d c1c5 163d
000001e0: efd8 21bd bfc5 b43c d752 4c3d 062e b5bc
000001f0: 510d bdbd fd5d 833d 9b18 1c3d 3c1d 8abd
00000200: c497 093e 21f7 ee3d fde3 863c 4283 78bd
00000210: 418a 8f3c f65e 16be 1214 ba3c 0a0f debd
00000220: ffab 3ebe 72c5 35be 8fee f6bd d549 1abe
00000230: b371 44bd 14c4 d3bd c26e cdbd 5982 fc3d
00000240: 58a7 1e3d 83e1 093c ec53 9d3c a477 99bd
00000250: 4cd7 773d 5caf 70bd 2930 003c dc39 993d
00000260: b46b d7bd f89b e73d e888 8fbd 3c95 713d
00000270: a79a 96bd f3fd 11bd 8449 4b3d 366d 9cbd
00000280: a020 4f3d abb8 393d 20fd 83bc c59b 253d
00000290: b153 acbc e840 19bd 28ec 8c3b 1c08 c13d
000002a0: 470f 213e 0b93 17be d271 4bb9 752c 9cbd
000002b0: ab58 bf3c dc51 31bd 17cc 903d d2a6 8bbd
000002c0: 32ad d1bd d985 113e 1435 7ebd f4cf 1fbe
000002d0: b148 463d 04f4 443d 7e6e 453e 0bc4 5b3c
000002e0: 1164 4fbd e98d 723e f821 e2bd a1a0 e43d
000002f0: 573b b13d b966 cdbc 7ec3 82bc c988 b5bd
00000300: 97e0 67be e04d cbbb 663c 8f3d 2fdf 85bc
00000310: e57a 85bc b9ad 623d 6195 e43c a6de a4bd
00000320: 2075 d3bd 14f0 c5ba 36a1 4f3c 3c80 ae3d
00000330: 5ef3 d13a 4600 b23d fd67 aebd 94f5 0fbe
00000340: 84af b3bd 34fb d63c 71c3 7e3d 9816 e2bd
00000350: e462 83bd a032 12be 8156 0c3c 432b 10be
00000360: 9b86 dbbd d6dd b53d ab53 b13c 055c 323e
00000370: 5d9f 27be ce6a eabc 084b 30bc 1c88 24be
00000380: 4b36 323c f009 bebd 3555 c33d 8dd6 ac3c
00000390: a647 ccbc 90ff e13c 10fc 1bbd fd21 473e
000003a0: edd8 cebc 34f5 063e 656a c43d 1d78 b9bd
000003b0: 33f7 373e 628d bdbb b21d 3e3d 7dd3 3ebd
000003c0: 3a05 093e e127 aebd 4fa9 603d 39dd 39be
000003d0: af9b e03d 98ea 843d bfce 103e 10a4 873d
000003e0: e1d6 bb3d f330 dd3c 679c 993c da68 adbd
000003f0: 9853 4cbd f944 4abe 4143 f9bd 0818 d0bc

network_body._body_endoder.seq_layers.2.bias f4 [128]
-0.004875755 -0.0015102649 -0.0052359058 -0.0059921555 -0.008303258 -0.008458064 -0.0035769143 -0.0068372698
-0.0055772434 -0.005507435 -0.006294848 -0.007076497 -0.0051958635 -0.0067763682 -0.0028202392 -0.0037101312
0.00016246141 -0.0026114748 -0.004365048 -0.0046630385 -0.0090107815 -0.0023602585 -0.0037038324 -0.0038202489
-0.0117463255 -0.004454922 -0.009472182 -0.0042573526 -0.0048841815 -0.005640251 -0.005910976 -0.002929226
-0.00952869 0.00018935902 0.0013537005 -0.0036167982 -0.0065732272 0.0015709422 -0.0044733887 -0.0021678142
-0.014762833 -0.0056166505 -0.00872798 -0.00523101 -0.006749689 -0.002145472 -0.0041642655 -0.0052384264
-0.0073967003 -0.004620795 -0.008501979 -0.008012986 -0.009388951 -0.0070396783 -0.0039813234 -0.006910656
-0.00711645 -0.0045207706 -0.0078555625 -0.0052540484 -0.0040457784 -0.0073895766 -0.010119625 -0.006758374
-0.006520944 -0.012947611 4.47422e-05 -0.003926632 -0.002697837 -0.007712641 -0.006594956 -0.008968725
-0.0047885333 -0.006395567 -0.0042029014 -0.006767054 -0.00023068492 -0.004221325 -0.0022537627 -0.0040589995
-0.0013700515 -0.0064279246 -0.0052235904 -0.0019588924 -0.0065441374 -0.005290933 -0.002265976 -0.0030606606
-0.002219152 -0.008195364 -0.002024071 -0.005103225 -0.00037504899 0.0018892944 -0.0056913868 -0.007027162
-0.0068169474 -0.0089618545 -0.01130067 -0.0022047423 -0.005640717 -0.006141334 -0.00065085554 -0.002741994
-0.0069915876 -0.008308706 -0.004866414 -0.0007526922 -0.005301165 -0.0066186986 -0.009913548 -0.007462303
-0.0068011926 -0.007943703 -0.012628774 -0.0025701858 -0.008612008 -0.006889984 -0.0033253008 -0.004465902
-0.0012779727 -0.009065976 -0.0049667615 -0.008041649 -0.0021611936 -0.0064488887 -0.008214584 -0.012071009
00000000: ccc4 9fbb 15f4 c5ba f691 abbb d859 c4bb
00000010: 630a 08bc b193 0abc aa6a 6abb 2d0b e0bb
00000020: 4fc1 b6bb b777 b4bb 0345 cebb f6e1 e7bb
00000030: 1042 aabb 4c0c debb c3d3 38bb ac25 73bb
00000040: 675a 2a39 4725 2bbb ad08 8fbb 67cc 98bb
00000050: f5a1 13bc 91ae 1abb ffbb 72bb 245d 7abb
00000060: a973 40bc 98fa 91bb 3631 1bbc 4381 8bbb
00000070: 7c0b a0bb dbd1 b8bb dcb0 c1bb 42f8 3fbb
00000080: 391e 1cbc ad8e 4639 a76e b13a ce07 6dbb
00000090: 3a64 d7bb 13e8 cd3a 8195 92bb e311 0ebb
000000a0: cfdf 71bc e10b b8bb cdff 0ebc e468 abbb
000000b0: 7f2c ddbb 0c9b 0cbb 6474 88bb 1ba7 abbb
000000c0: 0560 f2bb 0a6a 97bb e24b 0bbc e648 03bc
000000d0: 1dd4 19bc 1aad e6bb c375 82bb c972 e2bb
000000e0: 1c31 e9bb f922 94bb 9eb4 00bc 272a acbb
000000f0: 7392 84bb 4324 f2bb c9cc 25bc 5a75 ddbb
00000100: a5ad d5bb 3722 54bc 92a9 3b38 faaa 80bb
00000110: 32ce 30bb 52ba fcbb 801a d8bb 8ff1 12bc
00000120: 21e9 9cbb e891 d1bb 7eb8 89bb 2abe ddbb
00000130: 03e4 71b9 0a53 8abb ddb3 13bb 5b01 85bb
00000140: 4d93 b3ba 57a1 d2bb a72a abbb c360 00bb
00000150: 3470 d6bb 905f adbb c580 14bb 5d95 48bb
00000160: 316f 11bb d945 06bc 47a6 04bb f438 a7bb
00000170: 39a2 c4b9 33a2 f73a d07e babb 1b44 e6bb
00000180: b360 dfbb bed4 12bc 7226 39bc 707d 10bb
00000190: c4d5 b8bb 3e3d c9bb 2d9e 2aba 07b3 33bb
000001a0: b019 e5bb 3d21 08bc 7076 9fbb 5250 45ba
000001b0: 65b5 adbb abe1 d8bb 6f6c 22bc 5686 f4bb
000001c0: 8adc debb 4e26 02bc ebe8 4ebc 9070 28bb
000001d0: 6119 0dbc 60c5 e1bb 4aed 59bb b456 92bb
000001e0: a681 a7ba 7689 14bc 37c0 a2bb 1fc1 03bc
000001f0: d0a2 0dbb 3351 d3bb 7696 06bc 7bc5 45bc

action_model._continuous_distribution.log_sigma f4 [1, 3]
-0.02247691 -0.030327437 -0.017880725
00000000: 7f21 b8bc 3f71 f8bc 997a 92bc

action_model._continuous_distribution.mu.weight f4 [3, 128]
0.0056030583 0.025964411 0.0057366192 0.03538321 -0.012400518 -0.004604478 0.0006836816 -0.027127676
0.006691851 -0.0010022408 -0.00014594044 0.028621752 -0.011978063 -0.0070526227 0.021182327 0.03769568
-0.010878546 7.827453e-05 0.011404175 0.020432604 2.9170333e-06 0.018832482 -0.024874562 0.005522092
0.0035099757 -0.007836377 0.0027566457 0.0020979147 0.01855778 -0.010067863 0.016324382 0.016864697
0.0070652817 0.009049216 9.743261e-05 0.0123511655 0.006313316 -0.008504028 -0.034286123 -0.00043752842
0.00090498826 0.016724255 0.01459096 0.0043755975 0.011670826 0.008762673 -0.025329921 0.011634376
0.034355678 -0.009351785 -0.008585067 -0.0026807827 -0.0026824102 0.023306068 -0.008248726 -0.002671683
0.0014914313 -0.0022844018 -0.0075300653 -0.010308094 0.020468641 -0.0027517602 0.008325782 0.01274065
-0.014874251 -0.0046304995 -0.013239339 -0.038034175 0.024620434 0.00694104 -0.014755153 -0.0049525937
-0.018303886 0.0038761585 0.02095483 0.00200933 -3.5190777e-05 0.040671665 -0.03362275 -0.0058234967
0.002440419 -0.01703752 -0.016497029 0.0009561353 -0.015910365 -0.0040479265 0.006695912 0.009295445
0.02572531 0.0066824104 0.029807841 -0.00904661 0.00021349802 0.0022080445 0.014124752 -0.021145402
0.018338973 -0.0010226672 -0.0025900246 -0.004684466 -0.0062106615 0.0010404058 -0.014858499 0.010223674
-0.005569533 -0.007744725 0.009037588 -0.004163944 -0.002916946 0.015129823 0.0030127997 -0.0017122221
-0.013172036 -0.004060604 -0.0029447344 -0.048886973 0.001277531 -0.006135332 -0.0132594425 -0.019022567
-0.010262245 0.010442132 0.026028363 -0.009978943 0.019629087 -0.02925568 -0.011005406 0.0016371044
0.01530729 0.024137659 0.008914182 -0.010153695 0.0049553127 0.0033487817 -0.020535806 0.016231457
-0.026513783 -0.0028960137 -0.010968172 -0.01386035 0.0149371205 -0.017912844 0.00681665 -0.015907519
-0.0043773027 0.00012062111 0.009510164 -0.01119684 0.0097533045 0.002319276 -0.0024504783 -0.010894867
-0.0059535075 0.010207584 0.0068259933 -0.020758778 0.0065029743 0.012886656 -0.030793248 0.016254231
-0.0028067532 0.013377988 0.002906399 0.009184939 -0.021075122 0.022531511 -0.015061367 5.8044363e-05
0.000106980384 -0.02334261 0.030594273 0.0024326686 -0.011971875 0.0012239418 0.008720057 -0.0015085991
0.0143372435 0.013195262 -0.0042312015 0.010951434 -0.0057291803 0.010792512 -0.005099706 -0.019256908
0.008271151 0.0013266576 0.005823364 0.013594012 -0.012840236 0.016550506 -0.008639464 -0.010658974
-0.02152533 0.0077005406 -0.018965887 0.0008021971 -0.010665726 0.0031971962 -0.006855267 0.0027616492
-0.021491565 0.008867652 0.01869228 -0.0034774623 0.000105764695 -0.019587327 -0.021072373 -0.01476198
-0.017600767 0.038279362 -0.020020884 -0.004203945 0.00405166 0.017432142 0.023784878 -0.005603957
-0.040444292 -0.011611707 -0.02433961 0.0005462476 -0.00053145376 -0.007500758 -0.018801328 -0.015525534
-0.014165153 0.006873542 -0.018095432 -0.017339094 0.0118912915 0.013759762 0.0046755485 -0.006242596
-0.0103048785 -0.004442497 -0.027327226 0.007755052 0.000706675 0.012562654 0.003857219 -0.008592777
-0.0110590095 -0.0042559775 0.006146448 -0.033940732 -0.010783331 -0.006966916 0.001213686 0.01416212
0.0073805912 0.005204673 0.0006452207 -0.002388559 0.02488098 0.033400435 0.00019978447 -0.0024383178
00000000: dc99 b73b 51b3 d43c 40fa bb3b fced 103d
00000010: 8b2b 4bbc 29e1 96bb 1839 333a dc3a debc
00000020: 5147 db3b 9f5d 83ba 9707 19b9 2a78 ea3c
00000030: a33f 44bc b019 e7bb 8f86 ad3c c966 1a3d
00000040: ee3b 32bc 5127 a438 94d8 3a3c 4762 a73c
00000050: 40c2 4336 9446 9a3c bdc5 cbbc aaf2 b43b
00000060: 9f07 663b 2664 00bc d7a8 343b 2b7d 093b
00000070: 7c06 983c aef3 24bc b6ba 853c d527 8a3c
00000080: e183 e73b 2a43 143c bc54 cc38 8b5c 4a3c
00000090: efdf ce3b 7b54 0bbc 9b6f 0cbd 1264 e5b9
000000a0: bc3c 6d3a 4e01 893c ec0e 6f3c 2c61 8f3b
000000b0: fe36 3f3c 5091 0f3c b280 cfbc 1c9e 3e3c
000000c0: 8ab8 0c3d 3b38 19bc 61a8 0cbc 12b0 2fbb
000000d0: 60cb 2fbb 5eec be3c aa25 07bc 6717 2fbb
000000e0: 217c c33a e7b5 15bb c4be f6bb 48e3 28bc
000000f0: daad a73c e056 34bb dc68 083c 29be 503c
00000100: 21b3 73bc 72bb 97bb d0e9 58bc b9c9 1bbd
00000110: cbb0 c93c aa71 e33b 99bf 71bc 5e49 a2bb
00000120: 08f2 95bc 2607 7e3b 77a9 ab3c f7ae 033b
00000130: cf99 13b8 5597 263d 02b8 09bd 08d3 bebb
00000140: 70ef 1f3b 4592 8bbc c724 87bc 27a5 7a3a
00000150: 7456 82bc 78a4 84bb 6269 db3b ec4b 183c
00000160: e3bd d23c 1ff8 da3b 932f f43c 3c38 14bc
00000170: 70de 5f39 d7b4 103b 816b 673c 1f39 adbc
00000180: 9d3b 963c 040b 86ba 67bd 29bb 2680 99bb
00000190: ce82 cbbb 3a5e 883a 1071 73bc 3281 273c
000001a0: a180 b6bb 76c7 fdbb 6412 143c b271 88bb
000001b0: 3c2a 3fbb 14e3 773c 6472 453b a46c e0ba
000001c0: 86cf 57bc d10e 85bb 72fc 40bb b53d 48bd
000001d0: d472 a73a e50a c9bb 223e 59bc 37d5 9bbc
000001e0: fa22 28bc 7a15 2b3c 6f39 d53c b87e 23bc
000001f0: 2ecd a03c 9ca9 efbc 0550 34bc 1c94 d63a
00000200: 6dcb 7a3c 57bc c53c ca0c 123c af5b 26bc
00000210: 2d60 a23b 3c77 5b3b b53a a8bc d5f7 843c
00000220: 6f33 d9bc 0ccb 3dbb d9b3 33bc 8516 63bc
00000230: d3ba 743c f5bd 92bc 345e df3b 7c50 82bc
00000240: 7a6f 8fbb f7f5 fc38 85d0 1b3c f372 37bc
00000250: 53cc 1f3c fffe 173b 3498 20bb 6280 32bc
00000260: a415 c3bb b63d 273c 95ac df3b 500e aabc
00000270: e716 d53b 8e22 533c 1f42 fcbc 9827 853c
00000280: 81f1 37bb 592f 5b3c 4979 3e3b 6d7c 163c
00000290: bca5 acbc 0194 b83c f4c3 76bc a974 7338
000002a0: a85a e038 0039 bfbc d7a0 fa3c 686d 1f3b
000002b0: af25 44bc ac6c a03a 92de 0e3c 30bc c5ba
000002c0: c2e6 6a3c f130 583c e4a5 8abb a56d 333c
000002d0: d9bb bbbb 14d3 303c 6f1b a7bb aac0 9dbc
000002e0: b983 073c 3ee3 ad3a ebd1 be3b 6bb9 5e3c
000002f0: da5f 52bc ed94 873c 8a8c 0dbc faa2 2ebc
00000300: e455 b0bc d154 fc3b 595e 9bbc 894a 523a
00000310: 4cbf 2ebc 0d88 513b 26a2 e0bb c9fc 343b
00000320: 140f b0bc a149 113c 8d20 993c 23e6 63bb
00000330: fdcd dd38 9a75 a0bc f89f acbc 3bdc 71bc
00000340: 7c2f 90bc d2ca 1c3d d602 a4bc 3fc1 89bb
00000350: cac3 843b dacd 8e3c 81d8 c23c 66a1 b7bb
00000360: eaa8 25bd 073f 3ebc dd63 c7bc 0e32 0f3a
00000370: 4251 0bba ebc8 f5bb 3e05 9abc cf5e 7ebc
00000380: f514 68bc 733b e13b df3c 94bc b70a 8ebc
00000390: b1d3 423c a070 613c 5835 993b b18e ccbb
000003a0: cbd5 28bc 5e92 91bb 59dd dfbc 171e fe3b
000003b0: 2840 393a 97d3 4d3c 65c9 7c3b b8c8 0cbc
000003c0: d930 35bc ba75 8bbb 2568 c93b 7005 0bbd
000003d0: 91ac 30bc ba4a e4bb 8b14 9f3a 3d08 683c
000003e0: e3d8 f13b f68b aa3b 0724 293a 5f89 1cbb
000003f0: 32d3 cb3c e5ce 083d 3c7d 5139 2fcc 1fbb

action_model._continuous_distribution.mu.bias f4 [3]
0.00021488042 0.0011453328 0.0006172726
00000000: 8651 6139 fe1e 963a 77d0 213a
