results/CurveRoad1.3/CarAgent/CarAgent-3456.onnx (onnx, 83842 bytes, 7 tensors)

network_body._body_endoder.seq_layers.0.weight f4 [128, 22]
0	0x3e9cc86c	0.3062166
1	0xbe2a7000	-0.16644287
2	0xbdd26614	-0.10273376
3	0x3da535a9	0.080668755
4	0x3ea5fae2	0.3241797
5	0x3ede711f	0.4344568
6	0xbd9756be	-0.07389592
7	0x3ecf4e92	0.40489632
8	0xbea29eaf	-0.3176169
9	0xbe84978f	-0.2589688
10	0x3dec0b7c	0.11525628
11	0x3dd8e073	0.10589685
12	0xbe21416d	-0.15747614
13	0xbe8dad5e	-0.2767133
14	0xbea784d1	-0.32718518
15	0xbe875caf	-0.264379
16	0xbdedf257	-0.11618488
17	0xbd5d3950	-0.054009736
18	0x3d850ab4	0.06496182
19	0x3deb1185	0.11477951
20	0x3e6ba0c0	0.2301054
21	0x3edb00c7	0.4277403
22	0xbdb8ffe5	-0.09033183
23	0xbe9b3b9e	-0.30318922
24	0xbd068a3c	-0.032846674
25	0xbdc0c050	-0.09411681
26	0x3d9fcf54	0.078032166
27	0x3dac298b	0.08406361
28	0x3e708293	0.2348731
29	0x3ec08f1d	0.37609187
30	0x3e99e963	0.30060872
31	0x3e1f921e	0.15583083
32	0x3ece8d9c	0.40342414
33	0x3e0cba71	0.13742997
34	0x3e92db63	0.28683004
35	0x3eb07a68	0.3446839
36	0xbe436675	-0.19082053
37	0xbdae32e8	-0.08505803
38	0x3ddb4d1f	0.10708069
39	0xbf26e645	-0.65195113
40	0x3dc0edda	0.094203666
41	0xbeacc53c	-0.33744228
42	0x3ef1da2b	0.4723676
43	0xbe5ce871	-0.21573044
44	0xbdddb80c	-0.1082612
45	0xbe039b4b	-0.12852208
46	0x3d096f5d	0.03355347
47	0x3e42858f	0.18996261
48	0x3e872152	0.2639261
49	0xbdddfc0e	-0.10839091
50	0xbdfdfc7f	-0.124016754
51	0xbe3a3bb6	-0.1818684
52	0x3ce00d56	0.02735011
53	0xbd581f42	-0.052764185
54	0x3e9075cb	0.2821487
55	0x3c447c0a	0.011992464
56	0xbe7c151d	-0.24617429
57	0xbe7c0ac4	-0.24613482
58	0x3e625b88	0.22105229
59	0xbd153952	-0.036431618
60	0xbee67ac0	-0.45015526
61	0x3e287a13	0.16452818
62	0xbe03692a	-0.12833086
63	0xbe481070	-0.1953752
64	0x3d7ee911	0.06223399
65	0x3dbeb23d	0.0931134
66	0xbe0c8fe3	-0.13726763
67	0x3de7ea22	0.11323954
68	0xbe926209	-0.2859042
69	0xbdb1f473	-0.08689203
70	0xbf076d1b	-0.52900857
71	0x3cd07d18	0.025450274
72	0x3e875938	0.26435256
73	0xbe6ec20b	-0.23316209
74	0xbe4f1dc5	-0.202262
75	0xbeca941d	-0.39566126
76	0xbdbb330a	-0.09140594
77	0x3e149adb	0.14512198
78	0x3d9704b8	0.07373947
79	0xbe797757	-0.24361931
80	0x3cf748da	0.030186106
81	0x3dcce996	0.100054905
82	0xbe31a6ce	-0.17348787
83	0xbdf10215	-0.11767975
84	0xbe258857	-0.16165291
85	0x3d80adcf	0.06283151
86	0xbdd6a31e	-0.10480331
87	0x3ed75877	0.4205968
88	0x3db31db4	0.087459
89	0xbd9df63b	-0.0771298
90	0x3d85324f	0.06503736
91	0xbc33c474	-0.010972131
92	0xbdbe0e5b	-0.09280082
93	0xbe251f58	-0.16125238
94	0x3e4a37c1	0.19747831
95	0x3d14aec8	0.036299497
96	0xbd306741	-0.04306722
97	0x3d89be6c	0.06725773
98	0xbe84846f	-0.2588229
99	0xbe7db488	-0.24775898
100	0x3e532900	0.20621109
101	0x3dee625f	0.116398565
102	0xbeb2755e	-0.3485517
103	0xbe8313b6	-0.25600976
104	0xbe36a13d	-0.17834945
105	0x3e08bbd4	0.133529
106	0x3c83898a	0.016056795
107	0xbd2266e7	-0.039648917
108	0x3e33b48f	0.17549346
109	0x3ee4fb66	0.44723052
110	0x3e56990a	0.20956817
111	0xbe84a97e	-0.25910562
112	0xbefcffcb	-0.49413905
113	0xbeacc07c	-0.33740604
114	0x3ed3eb71	0.41390565
115	0xbd784469	-0.060612116
116	0x3c5b58d2	0.013387876
117	0xbdacf67f	-0.08445453
118	0xbdb75779	-0.08952231
119	0x3e925113	0.2857748
120	0xbe1b8a92	-0.15189579
121	0xbb0bfe38	-0.0021361243
122	0x3e8cabda	0.27474862
123	0x3e47fe50	0.19530606
124	0xbebf36fe	-0.37346643
125	0x3dc97224	0.09836224
126	0x3e9e9fc7	0.30981275
127	0xbceb2cc4	-0.02870787
128	0x3d9f512a	0.07779153
129	0x3cc01ca2	0.023451153
130	0x3ec62168	0.38697362
131	0xbcb3691e	-0.02190071
132	0x3e67c14f	0.22632335
133	0xbbcffcca	-0.0063472735
134	0x3caf85b1	0.021426054
135	0x3e959794	0.29217207
136	0x3e6b018a	0.22949806
137	0x3e5d2c1c	0.21598858
138	0xbdb551f3	-0.08853521
139	0xbe05fd90	-0.13085008
140	0xbe97e0f1	-0.29663804
141	0xbc919230	-0.017769903
142	0xbea0cfb6	-0.3140847
143	0xbd05b395	-0.032641966
144	0x3d32ca97	0.043650236
145	0xbecb3f2d	-0.39696637
146	0x3cdd4dd2	0.027014647
147	0xbe4dc492	-0.20094517
148	0x3d1c6b0c	0.038188025
149	0xbdf8f1a5	-0.12155465
150	0x3ce5823f	0.028016208
151	0x3d334b5e	0.043773048
152	0xbe35b797	-0.17745815
153	0xbe7ac26c	-0.24488229
154	0xbeb16bc3	-0.34652528
155	0xbe0d85e1	-0.13820602
156	0xbda020c9	-0.07818753
157	0x3e5afb42	0.2138491
158	0x3e84979a	0.25896913
159	0xbe79a29a	-0.24378434
160	0xbdc69f5a	-0.09698363
161	0x3d95a692	0.073071614
162	0x3d550843	0.052009832
163	0xbe82102e	-0.2540297
164	0x3dd77c1c	0.10521719
165	0x3d2e5b55	0.04256757
166	0xbd156f2f	-0.036482986
167	0xbe99fe32	-0.30076748
168	0x3d0841bb	0.03326581
169	0xbd642720	-0.055701375
170	0xbd9c38c2	-0.07628013
171	0x3e6364e9	0.22206463
172	0x3b392ad0	0.0028254278
173	0xbdc996a2	-0.09843184
174	0xbd992c59	-0.07479162
175	0xbcdca9c2	-0.026936416
176	0xbc8acd4d	-0.016943598
177	0xbc548d9e	-0.012973217
178	0xbac1bb87	-0.0014780619
179	0xbdf04456	-0.11731784
180	0xbea8b115	-0.32947603
181	0xbd144948	-0.0362027
182	0xbe869e25	-0.2629253
183	0x3d5765af	0.052587207
184	0x3e512dec	0.20427674
185	0x3d2cfc35	0.04223271
186	0x3e0d8b3b	0.13822643
187	0xbdd98f0b	-0.106229864
188	0xbb5bc51e	-0.003353424
189	0x3eb440ab	0.35205588
190	0x3d5a9732	0.053366847
191	0xbc4397e8	-0.011938073
192	0x3d808d73	0.06276979
193	0xbaa54f36	-0.0012612108
194	0xbf02c925	-0.5108817
195	0x3e8c73bb	0.27432045
196	0xbdb48e46	-0.08816199
197	0x3e10b14c	0.14130133
198	0x3dc824cf	0.09772646
199	0x3e49b77f	0.19698904
200	0x3e5e958b	0.21736734
201	0xbe43bdb3	-0.19115333
202	0xbe017d07	-0.1264535
203	0xbd081ac9	-0.03322867
204	0xbe4b720a	-0.19867721
205	0x3e929236	0.28627175
206	0xbe474fe5	-0.19464071
207	0x3eb9b7a0	0.36272907
208	0x3e3e24aa	0.18568674
209	0x3ecaed5e	0.39634222
210	0xbe99c587	-0.30033514
211	0xbda157fb	-0.07878109
212	0xbd3a1f30	-0.0454399
213	0x3e319217	0.17340885
214	0x3dacdd7e	0.08440684
215	0xbe49504c	-0.19659537
216	0x3dc193e0	0.09452033
217	0x3e3cdb3d	0.18443008
218	0xbdc968e2	-0.09834458
219	0x3e81f01a	0.25378495
220	0x3e366ed1	0.1781571
221	0x3eb13a40	0.34614754
222	0xbd43ced7	-0.04780468
223	0x3eb3d0e9	0.35120323
224	0x3e823e4a	0.25438148
225	0xbe906d75	-0.2820851
226	0x3ec0496f	0.37556025
227	0x3ed0fad9	0.40816382
228	0xbdb6d2c5	-0.0892692
229	0x3e5e2dc7	0.2169715
230	0x3e49b0dd	0.19696374
231	0xbe088038	-0.13330162
232	0x3bafe6ba	0.005368081
233	0x3e971ba4	0.29513276
234	0x3f06fa0e	0.52725303
235	0xbee99b0e	-0.4562611
236	0xbe1c805c	-0.1528334
237	0x3e4f95e2	0.2027202
238	0xbddf4393	-0.10901561
239	0xbe69543c	-0.22786039
240	0x3c309e89	0.010779985
241	0xbe226908	-0.15860379
242	0xbd56000e	-0.052246146
243	0xbe025a39	-0.1272973
244	0x3e3b38e8	0.18283427
245	0x3ec841d0	0.3911271
246	0x3da8f58f	0.082499616
247	0x3df08505	0.117441215
248	0xbdc32683	-0.0952883
249	0xbe0184bc	-0.1264829
250	0xbd3a430f	-0.04547411
251	0x3d74a971	0.059731904
252	0x3f21af48	0.6315808
253	0x3e592821	0.21206714
254	0xbb11e8c5	-0.0022263986
255	0xbe556561	-0.20839454

network_body._body_endoder.seq_layers.0.bias f4 [128]
0	0xbb07c0ca	-0.0020714276
1	0xbbbcb969	-0.0057594073
2	0xbc3023e6	-0.010750746
3	0xbb58162c	-0.00329722
4	0xbc28c62e	-0.010301156
5	0xbb65f817	-0.00350905
6	0x3b8dbada	0.004325253
7	0xbc19407d	-0.009353754
8	0xb9ed61f8	-0.00045277155
9	0xbc07510d	-0.00825907
10	0xbc10c4ea	-0.0088360105
11	0x3b729f49	0.003702121
12	0xb9a3f01e	-0.00031268684
13	0xbc3b52c1	-0.011433304
14	0x3c097679	0.0083900625
15	0xba39387a	-0.00070656056
16	0x3b8b31a4	0.004247861
17	0xbc1600ce	-0.009155465
18	0xbba9c3ab	-0.005180796
19	0xb9fde075	-0.00048423154
20	0xbb2e87aa	-0.0026631155
21	0x3ba6603a	0.005077389
22	0xbb443c1e	-0.002994306
23	0xbc0b96e5	-0.008519863
24	0xbac0036c	-0.0014649457
25	0xbc3ffe84	-0.011718396
26	0xb99b3f62	-0.00029611128
27	0x3a565635	0.0008176298
28	0xbbddfa9b	-0.0067742593
29	0xbc0cab82	-0.0085858125
30	0xbb4471ae	-0.0029974985
31	0x3b8d21c1	0.0043070023
32	0xbb0d4ffa	-0.0021562562
33	0x3bc0bb6e	0.0058817184
34	0xbb5ffd1b	-0.0034177962
35	0xbae0748f	-0.0017124581
36	0xbc4160c9	-0.011802861
37	0xbc29da0b	-0.010366927
38	0xbb0e9ee8	-0.0021762196
39	0x3a911972	0.0011070205
40	0xbbb87767	-0.0056294682
41	0x3a1100e9	0.00055314467
42	0x3b484042	0.0030555879
43	0x3b1b46cc	0.0023693321
44	0xbb26c3b6	-0.0025446243
45	0xbb2fc329	-0.0026819205
46	0xbb997f65	-0.004684376
47	0xbb0551fb	-0.0020343054
48	0xbbb411aa	-0.00549527
49	0xbc9e06e2	-0.019290391
50	0xbc7f2db0	-0.015574858
51	0xbbac61c1	-0.0052606766
52	0xbcb16d68	-0.021658614
53	0xbbf15c84	-0.007365765
54	0x3bc10a44	0.0058911163
55	0x3add9f92	0.0016908518
56	0xbb97b26a	-0.004629423
57	0xbc5eee1f	-0.013606577
58	0xbc138e52	-0.0090061
59	0x3b899064	0.004198121
60	0xbbc66e33	-0.0060556172
61	0xba445b59	-0.00074904185
62	0xba7c9d40	-0.0009636469
63	0xb9b6609e	-0.0003478573
64	0x3aa729a7	0.0012753502
65	0xbc09c198	-0.008407973
66	0xbbc9b672	-0.0061557824
67	0x3b3fd0a9	0.0029268658
68	0xbb7f29d5	-0.0038934846
69	0xbb900c1a	-0.004395974
70	0xbc492992	-0.012277978
71	0x3b23a260	0.002496861
72	0xbd47ce34	-0.048780635
73	0xbb812c00	-0.003942013
74	0xbbb2bcb7	-0.0054546255
75	0xbc401bf0	-0.011725411
76	0xbbf68df3	-0.007524246
77	0xba72a345	-0.00092558964
78	0xbb7052ba	-0.0036670403
79	0xbc1fce20	-0.009753734
80	0xbaffab7a	-0.001950606
81	0xbba04af6	-0.0048917485
82	0x3a15bf7b	0.0005712432
83	0xbaf19306	-0.0018430657
84	0x3b4b2885	0.0030999493
85	0x3c268a27	0.010164774
86	0x3b81a49c	0.0039563905
87	0xbd0095e0	-0.031392932
88	0x3a4f4a69	0.00079075113
89	0xbbf9ccba	-0.0076232823
90	0x394c5fc3	0.0001949063
91	0xbc2647af	-0.010148927
92	0xbbbe2473	-0.005802685
93	0x3a5b66e5	0.00083695195
94	0xbbeb727c	-0.0071852785
95	0xbbbba64f	-0.0057266126
96	0xba2c1090	-0.00065637473
97	0xbb93db33	-0.0045122146
98	0xbaa35353	-0.0012460746
99	0xbba8f560	-0.005156204
100	0xbbd75f45	-0.0065726363
101	0xb8b75cc5	-8.7434e-05
102	0x3aa859b8	0.0012844121
103	0xbc31db6d	-0.010855538
104	0xbbc3e9db	-0.0059788055
105	0x3bb3a309	0.005482082
106	0x3baecfa6	0.005334812
107	0x3a06128b	0.00051144575
108	0x3b6ba871	0.0035958553
109	0xbccbdc80	-0.024885416
110	0xbbd46cfc	-0.0064827185
111	0xba902c1d	-0.0010999475
112	0xbba9fa2e	-0.0051872944
113	0xbbef76b2	-0.0073078508
114	0x3c3a4d07	0.011370904
115	0xba565c0a	-0.0008177167
116	0xba2725ad	-0.00063761586
117	0xbb4c3087	-0.0031156854
118	0xbb95c070	-0.0045700595
119	0xba4b7e50	-0.00077626575
120	0x3b671cf5	0.0035265062
121	0xbbf9773d	-0.0076130913
122	0xbbfe40d8	-0.007759195
123	0x3bd02352	0.0063518668
124	0x3b5cd778	0.0033697765
125	0xbc2b4f63	-0.010455939
126	0xbba2dce6	-0.004970181
127	0x3ac7ac18	0.0015233783

network_body._body_endoder.seq_layers.2.weight f4 [128, 128]
0	0x3ccf6fbe	0.025321838
1	0x3d345bad	0.04403274
2	0x3c5a3399	0.013317966
3	0x3d570602	0.052495964
4	0x3d90a0f5	0.0706195
5	0xbe227b86	-0.15867433
6	0xbcc91eee	-0.024550881
7	0x3c57c524	0.013169561
8	0x3e14b0d9	0.14520587
9	0x3c341bcd	0.010992956
10	0x3e101e43	0.14074044
11	0x3c82b02a	0.015953142
12	0x3d760dc8	0.060071737
13	0xbc43a6d1	-0.011941628
14	0x3c1f41dc	0.009720292
15	0xbdad21e4	-0.0845373
16	0x3ae22764	0.0017254171
17	0xbdbe435c	-0.092901915
18	0x3d827214	0.06369415
19	0x3dd05813	0.10173049
20	0xbe0b2c11	-0.13591029
21	0xbd9e2767	-0.07722359
22	0x3c9c2624	0.019061156
23	0x3cf99d14	0.030470408
24	0x3d1ca69e	0.038244836
25	0x3b8cb328	0.004293818
26	0x3d7bfab4	0.061518386
27	0xbd1106ea	-0.035406984
28	0x3d0a7d4d	0.033810902
29	0x3d727900	0.059197426
30	0xbc9c8190	-0.019104749
31	0xbe1365f6	-0.14394364
32	0x3d0dd9ea	0.034631647
33	0xbd985fb2	-0.074401274
34	0x3b676e1a	0.0035313428
35	0xbddb78eb	-0.10716423
36	0xbdc7ec92	-0.09761919
37	0x3dc6f792	0.09715189
38	0x3dbd0e3c	0.092312306
39	0x3da1fb55	0.07909266
40	0x3de76cb2	0.11300029
41	0xbdb2275b	-0.08698913
42	0x3da0cb74	0.078513056
43	0x3cdfff85	0.02734352
44	0x3dc6e961	0.09712482
45	0x3ca5171c	0.020152621
46	0x3b93d6b7	0.00451168
47	0xbdb4c6ae	-0.08826958
48	0x3e26f594	0.16304618
49	0x3dbf9191	0.093539365
50	0xbe121ec8	-0.14269555
51	0x3d7e8af9	0.062144253
52	0x3e1ee304	0.15516287
53	0xbddc1731	-0.10746611
54	0xbdc4bdf4	-0.09606543
55	0xbd9a13e2	-0.075233236
56	0xbc84a7cc	-0.016193293
57	0x3d01d956	0.03170141
58	0xbd51a9a0	-0.051187158
59	0x3df26488	0.11835581
60	0xbe2e6c7d	-0.17033572
61	0xbcbef229	-0.02330883
62	0x3dd7ce51	0.105373986
63	0xbd89e92b	-0.067339264
64	0xbd899a3d	-0.06718872
65	0xbc1da6bb	-0.009622271
66	0x3deb5c85	0.11492256
67	0xbc1bb8e5	-0.0095045315
68	0x3daab5c5	0.08335451
69	0x3ce74b2a	0.028234083
70	0x3df8f6d6	0.12156455
71	0x3d2d7dcc	0.042356297
72	0x3d58f599	0.052968595
73	0x3d62e931	0.05539817
74	0x3d90a42a	0.07062562
75	0x3c9b297b	0.018940678
76	0x388d58bb	6.739931e-05
77	0xbe134cfb	-0.14384834
78	0xbdab4742	-0.08363201
79	0x3d352169	0.044221316
80	0x3da9723e	0.08273743
81	0xbd58d20a	-0.052934684
82	0x3e06337f	0.13105582
83	0x3d3b2a97	0.045694914
84	0x3d760038	0.060058802
85	0x3e1170da	0.14203206
86	0x3d90a208	0.07062155
87	0xbd40a397	-0.04703101
88	0x3d8e6bb3	0.06954136
89	0x3de8edcc	0.11373481
90	0x3d0ce374	0.034396604
91	0x3dcad1b1	0.09903277
92	0xbd1b6251	-0.03793556
93	0xbd305711	-0.043051783
94	0xbd85ef4c	-0.06539783
95	0xbdcb1cca	-0.099176005
96	0xbd463cfc	-0.048398003
97	0x3c6d1bca	0.014471957
98	0x3cf837a3	0.030299967
99	0xbc879560	-0.01655072
100	0x3dff79b9	0.12474389
101	0x3d8ac74e	0.067762956
102	0x3df28543	0.11841824
103	0x3d28d38f	0.041217383
104	0xbe4ab729	-0.19796433
105	0xbe64934b	-0.22321813
106	0x3d36d45d	0.04463612
107	0x3c9990f5	0.018745879
108	0x3df5fcf9	0.12011141
109	0xbd86d622	-0.06583811
110	0x3de7fc2b	0.11327394
111	0x3e810549	0.25199345
112	0x3dd12c07	0.10213476
113	0xba7adc06	-0.0009569529
114	0xbd470e1d	-0.048597444
115	0x3c9a3dc4	0.01882828
116	0x3e22c400	0.1589508
117	0xbd755d46	-0.059903406
118	0x3be579f3	0.007003063
119	0x3e156dfd	0.14592738
120	0xbd3a737a	-0.045520283
121	0x3c3ad2ce	0.011402799
122	0xbde986d7	-0.11402672
123	0xbe821c8f	-0.25412413
124	0x3b3bd3e3	0.002866023
125	0xbe25273f	-0.16128252
126	0x3d3e72c5	0.04649617
127	0x3d0ac8e5	0.033882994
128	0x3cecc2a7	0.028901411
129	0xbde5faed	-0.11229501
130	0x3cb9f4b7	0.022699697
131	0xbc24ca86	-0.010058051
132	0xbe12d106	-0.14337549
133	0xbd1155e3	-0.0354823
134	0xbcc66362	-0.024217311
135	0xbe378764	-0.17922741
136	0x3d3f2c7f	0.046673294
137	0x3d89dae1	0.06731201
138	0xbb654c7f	-0.0034988222
139	0x3b6d71f2	0.0036231247
140	0x3ea0fa90	0.31441164
141	0xbd3ef63d	-0.04662155
142	0xbe0d7bce	-0.13816759
143	0x3df3f027	0.1191104
144	0xb9c045bb	-0.00036673047
145	0x3e235c30	0.15953135
146	0x3c1be8d7	0.009515963
147	0xbdd3f9fb	-0.10350414
148	0xbdba8549	-0.091074534
149	0x3d999339	0.074987836
150	0xbe038bb1	-0.12846257
151	0xbdfad2ce	-0.12247239
152	0x3dcd5ad8	0.10027093
153	0xbe46b5fb	-0.19405358
154	0xbc481bef	-0.012213691
155	0x3cc7f9a0	0.024411023
156	0x3d82edf5	0.06393043
157	0xbc355bcf	-0.011069252
158	0x3d7c06c8	0.061529905
159	0xbe05f127	-0.13080274
160	0x3de09bc7	0.10967212
161	0xbce74380	-0.028230429
162	0x3d1c325f	0.038133975
163	0x3cb17ff6	0.021667462
164	0xbd7aa82e	-0.061195545
165	0x3cf59cdd	0.029982025
166	0x3d405fcd	0.046966363
167	0x3e19d451	0.15022399
168	0x3d43da07	0.04781535
169	0x3b81d08b	0.003961628
170	0x3d26954d	0.040669728
171	0x3b6aa739	0.003580524
172	0xbc904fad	-0.017616117
173	0x3e18107f	0.14850043
174	0x3da17317	0.0788328
175	0xbdddd434	-0.1083149
176	0xbd13dc70	-0.036098897
177	0xbd6b039a	-0.05737648
178	0x3d8002cd	0.06250534
179	0x3cb9a534	0.022661783
180	0x3de4eef0	0.11178386
181	0x3c2a3f7e	0.010391114
182	0x3d8e6803	0.069534324
183	0xbc4bb7c6	-0.012433952
184	0xbddcfb65	-0.10790137
185	0xbd7a01ae	-0.061036758
186	0xbd8d2974	-0.06892672
187	0x3e20679c	0.15664524
188	0xbd310e83	-0.04322673
189	0x3d71fa79	0.05907676
190	0xbe5f3c1e	-0.21800277
191	0xbd61b0bb	-0.055100184
192	0x39d79c2d	0.00041124356
193	0x3e1cc1b1	0.15308262
194	0xbd474148	-0.04864624
195	0x3dca242c	0.098701805
196	0x3b720b96	0.0036933175
197	0xbd57edd9	-0.052717064
198	0xbdc304a9	-0.09522373
199	0x3ca8def9	0.020614134
200	0xbdab6d79	-0.083704896
201	0xbd8631bc	-0.06552455
202	0x3e4bd062	0.1990371
203	0xbe1ff522	-0.15620854
204	0xbb9ea20f	-0.0048410962
205	0x3de29e03	0.110652946
206	0xbc21a97d	-0.009867069
207	0x3d364435	0.04449864
208	0x3e0e5f20	0.13903475
209	0xbc8aa706	-0.016925346
210	0x3e026b9b	0.1273636
211	0x3ddf6638	0.109081686
212	0x3d1f9691	0.03896195
213	0x3e151c98	0.14561689
214	0x3d935420	0.0719378
215	0xbdbd6139	-0.092470594
216	0xbd5d048f	-0.053959426
217	0xbac371a7	-0.001491119
218	0xbc39a2f7	-0.011330358
219	0x3d757370	0.059924543
220	0x3dc3b303	0.09555628
221	0xbd666313	-0.05624683
222	0xbd990f22	-0.074735895
223	0xbda47bd8	-0.08031434
224	0x3c099b8d	0.008398903
225	0x3c99f1cb	0.018792054
226	0xbda78a75	-0.081807055
227	0xbe1bf5e7	-0.15230523
228	0xbce1ad24	-0.02754838
229	0x3e006f9c	0.12542576
230	0x3d5a3692	0.0532747
231	0xbcc07967	-0.02349539
232	0xbe0192b5	-0.1265362
233	0x3dc59e26	0.09649305
234	0xbd9896be	-0.07450627
235	0xbcbd56d7	-0.023112698
236	0xbb30e599	-0.002699232
237	0xbcf51c2e	-0.029920664
238	0x3d0c5110	0.034256995
239	0x3de62bb6	0.11238806
240	0xbcb9d667	-0.022685243
241	0x3d21b150	0.03947574
242	0x3d6346a9	0.05548731
243	0xbcc151e1	-0.023598613
244	0xbd86fa56	-0.065907165
245	0x3cb30f29	0.021857815
246	0xbc422de3	-0.011851761
247	0xbc7938dc	-0.01521131
248	0xbd488147	-0.048951413
249	0x3e29f75c	0.16598266
250	0x3e1ce755	0.15322621
251	0x3dd961a2	0.10614325
252	0x3d0ed8ac	0.034874603
253	0x3c8e3ae8	0.017362073
254	0x3dd81133	0.105501555
255	0x3ce380e2	0.027771417

network_body._body_endoder.seq_layers.2.bias f4 [128]
0	0x3ac33a00	0.0014894605
1	0xbb93d33c	-0.004511265
2	0xbab82710	-0.0014049727
3	0xbc01bb22	-0.007918151
4	0xbb120211	-0.0022279064
5	0xbc0592d2	-0.0081526805
6	0xbb11aea2	-0.0022229333
7	0xbbea3e17	-0.007148515
8	0xb9cd6caa	-0.00039181608
9	0x3b0a7d5a	0.0021131844
10	0xbc1019bf	-0.008795201
11	0xbbade24c	-0.0053065177
12	0xbb9f5074	-0.0048618857
13	0xbb4d212b	-0.0031300287
14	0xbb9e7f9e	-0.0048369905
15	0x3aceed7b	0.0015787327
16	0xb9908a24	-0.00027568743
17	0xbb87f6a9	-0.004149277
18	0xbc198898	-0.009370945
19	0xbad55979	-0.0016277275
20	0xbb88e982	-0.004178227
21	0xbb39671e	-0.0028290222
22	0x3a0ba0be	0.00053263817
23	0x3a75237b	0.00093512953
24	0xbb70e0ce	-0.0036755088
25	0xbba1c647	-0.0049369666
26	0xbbc90b48	-0.006135378
27	0x3af5ea20	0.0018761791
28	0xbbb1787b	-0.0054159737
29	0xbbcdcbf5	-0.006280417
30	0xbb820013	-0.003967294
31	0xbb83691b	-0.0040103323
32	0xbbf59745	-0.0074948394
33	0xbbdb43ee	-0.0066914475
34	0xba1b3a0d	-0.0005921431
35	0xbbea1ad1	-0.00714431
36	0xbb35448f	-0.0027659272
37	0xbbc9746c	-0.006147912
38	0xbaccb143	-0.0015616793
39	0xbc6725af	-0.014108106
40	0xbbadbb0b	-0.0053018383
41	0xbbc9d428	-0.006159324
42	0xbc2888a5	-0.010286485
43	0xb9a24a3a	-0.0003095435
44	0xbc1de659	-0.009637439
45	0xbc109da4	-0.008826647
46	0xbbf9b1b0	-0.007620059
47	0xbbe43ad2	-0.0069650197
48	0xbaff1feb	-0.0019464468
49	0xbc1809e1	-0.009279699
50	0x3b801756	0.003909032
51	0xba6d94f0	-0.0009063026
52	0xbbc03914	-0.0058661792
53	0xbbfcdfc6	-0.0077171056
54	0xbb957192	-0.004560658
55	0xbb9de5ea	-0.0048186677
56	0xbb4e1c96	-0.0031450144
57	0x3b68a897	0.0035500878
58	0xbb80585c	-0.0039167833
59	0x3adaa6f2	0.0016681834
60	0xb9589ed6	-0.00020658536
61	0xbb2778c7	-0.0025554167
62	0x3a1bf6bc	0.0005949547
63	0xbacb6262	-0.0015516991
64	0xb9b867b2	-0.00035172474
65	0xbbddedf9	-0.0067727533
66	0x3a518a82	0.00079933566
67	0xbb94126e	-0.0045187986
68	0xbb6caf84	-0.0036115358
69	0xbb60a5dd	-0.003427855
70	0xbbf2a632	-0.007405066
71	0xbbb50f9e	-0.0055255434
72	0xbab1a2b0	-0.0013552513
73	0xbb5dcbd7	-0.0033843422
74	0xbbcd33c8	-0.0062622763
75	0xbc0dbc74	-0.008650888
76	0xbbfb26b4	-0.007664526
77	0xbb692c38	-0.0035579335
78	0xbb9aa323	-0.0047191544
79	0xbb439df1	-0.002984878
80	0xbbe67eda	-0.007034165
81	0xbb1ed0a5	-0.0024233249
82	0xbbdc7248	-0.0067274906
83	0xbbaa08c0	-0.0051890314
84	0xbbe95bdd	-0.0071215467
85	0xba258f56	-0.0006315609
86	0x39b6f464	0.0003489583
87	0xbc08b514	-0.008343954
88	0xbbe7e755	-0.0070771375
89	0xbbdbed11	-0.00671161
90	0xbbde329e	-0.0067809364
91	0x3b0ccb97	0.0021483654
92	0xbc064da0	-0.008197218
93	0xbb8694a7	-0.004107076
94	0xbbad28da	-0.005284411
95	0xbbb690d2	-0.005571463
96	0xbacfd354	-0.0015855827
97	0xbbf0e21c	-0.007351173
98	0xbb9ba371	-0.0047497083
99	0xbaa66977	-0.0012696226
100	0xbbaed396	-0.0053352816
101	0xbbb1eb66	-0.005429673
102	0xbbf6e029	-0.007534046
103	0xbb79ff3e	-0.003814652
104	0xbbebc8ac	-0.007195553
105	0xbba9e270	-0.005184464
106	0xbb5fa935	-0.0034127955
107	0x3aa5d6a3	0.0012652468
108	0xbbaf55a1	-0.005350784
109	0xbc067685	-0.008206968
110	0xbc0fa54b	-0.008767436
111	0xbbcf94d4	-0.0063348804
112	0x3ad45f99	0.0016202807
113	0xbbc61dcc	-0.0060460325
114	0xbb0f438e	-0.0021860334
115	0xbbe90d4d	-0.0071121813
116	0x394d6c6f	0.00019590718
117	0x3a8870a8	0.0010409551
118	0xbbbded2a	-0.0057960944
119	0xbbfc93d0	-0.0077080503
120	0xbc01f10a	-0.007931003
121	0xbc17ec8b	-0.009272705
122	0xbba4c8ea	-0.0050288336
123	0xbbdb56d4	-0.0066937003
124	0xbadf2e13	-0.0017027281
125	0xba2ffb17	-0.00067131355
126	0xbb84e868	-0.0040560253
127	0xbacc5d84	-0.0015591835

action_model._continuous_distribution.log_sigma f4 [1, 3]
0	0xbc035b9f	-0.00801745
1	0xbd258bd7	-0.040416565
2	0xbd079d45	-0.03310897

action_model._continuous_distribution.mu.weight f4 [3, 128]
0	0x3c890a54	0.016728558
1	0xbc0c1788	-0.008550532
2	0x3c335d9f	0.010947614
3	0x3b921cfa	0.0044590207
4	0x3ac96c4e	0.001536736
5	0x3a07a84d	0.000517492
6	0xbb866c86	-0.0041022925
7	0xbcf412ca	-0.029794116
8	0x3cd309f5	0.025761584
9	0xbab1140c	-0.0013510003
10	0xbb29ce1a	-0.00259102
11	0xbbd6f0f8	-0.0065594874
12	0xbbd91ad8	-0.0066255145
13	0xbc98f7fa	-0.018672932
14	0xbcc32da2	-0.02382547
15	0x3d3ae5f1	0.045629445
16	0xbc4fff34	-0.0126951225
17	0x3c13085d	0.008974162
18	0xba37cff1	-0.00070118817
19	0x3902068f	0.0001240021
20	0xbcc033bf	-0.023462174
21	0xbaeb09ab	-0.0017931958
22	0x3cd4553c	0.02591955
23	0xbc9bc146	-0.019013058
24	0xbce5128a	-0.027962942
25	0x3c158719	0.009126448
26	0xbc56cc77	-0.013110272
27	0xbcb092d5	-0.02155439
28	0xbc68feb3	-0.014220881
29	0xbaf7faa4	-0.0018919301
30	0x3c23eaea	0.010004738
31	0x3aa6a9d8	0.0012715412
32	0xbc36431c	-0.011124399
33	0xbbb5d592	-0.005549141
34	0xb9faa3c6	-0.00047805737
35	0x3bcec881	0.006310523
36	0x3b235cd9	0.0024927168
37	0xbbe66b2b	-0.0070318184
38	0x3c089ecc	0.008338641
39	0xbbfc1496	-0.0076928837
40	0xbc208ffe	-0.009799955
41	0xbc680fa8	-0.014163889
42	0xba6fbe6b	-0.0009145501
43	0x3bacbe90	0.0052717403
44	0xbbc44620	-0.005989805
45	0xbc321670	-0.010869607
46	0xba2a69b4	-0.00065007363
47	0x3c3909cc	0.01129384
48	0xbba60012	-0.0050659264
49	0x3b629ad7	0.0034577155
50	0xbd2741d1	-0.04083425
51	0xbb774833	-0.0037732243
52	0xbbf7ea05	-0.007565739
53	0x3cb73e7e	0.022368666
54	0xbca1ca56	-0.019749802
55	0x3cbd322f	0.023095218
56	0xbc8ffc4a	-0.017576355
57	0x3ba0f421	0.004911915
58	0x3bb60263	0.0055544837
59	0x3ce4e932	0.027943227
60	0x3ca2b487	0.019861473
61	0xbcc7d3cd	-0.024392987
62	0x3c293c22	0.010329278
63	0xbc78aa83	-0.015177372
64	0x3d1e810f	0.0386973
65	0xbc33134e	-0.010929896
66	0xbd0e6331	-0.034762565
67	0xbcd878d8	-0.02642481
68	0x3be14605	0.006874802
69	0x3c3d5b7b	0.011557455
70	0x3c4cfb33	0.012511062
71	0xbc1afcea	-0.0094597135
72	0x3c899e57	0.016799135
73	0xbc35bec2	-0.0110928435
74	0xbca48e61	-0.020087423
75	0x3c945522	0.018107
76	0x3d26979a	0.040671922
77	0xbc31c431	-0.010849998
78	0x3c1d81c6	0.00961346
79	0x3a633455	0.0008667161
80	0xbbe94513	-0.00711883
81	0x3c9cc1d8	0.0191354
82	0xbbfddf1a	-0.007747543
83	0xbb09bd28	-0.0021017287
84	0xbadd2aa7	-0.0016873673
85	0x39263bde	0.00015853296
86	0x398c8740	0.0002680365
87	0xbb267aad	-0.002540271
88	0xbb338425	-0.0027391997
89	0xbc187d8a	-0.009307275
90	0x3c855c73	0.016279435
91	0x3ca6b8e8	0.020351842
92	0x3c9729cd	0.01845255
93	0x3c54e4fd	0.012994048
94	0x3b79bb03	0.0038105852
95	0x3bbea7f0	0.0058183596
96	0x3c243545	0.010022466
97	0x39befef5	0.00036429582
98	0xbcb27e84	-0.021788843
99	0x3c9391be	0.018013831
100	0xbb8ecf65	-0.0043582194
101	0xbc067532	-0.0082066525
102	0x3c0ebfc7	0.0087127155
103	0xbada504d	-0.0016656012
104	0xbc2b82f4	-0.010468233
105	0x3b64778b	0.0034861292
106	0x3c920f65	0.017829606
107	0x3cfa5363	0.03055734
108	0x3c2a3137	0.01038771
109	0x3a12799b	0.00055875786
110	0x3ba02ab3	0.0048879026
111	0xbbc80180	-0.0061036944
112	0xbcddbdca	-0.027068038
113	0xbcb01f67	-0.021499349
114	0xbd56baa7	-0.0524241
115	0xbaedfb2e	-0.0018156522
116	0x3c4964c5	0.012292092
117	0xb9f2457e	-0.00046209613
118	0x3b70071a	0.0036625327
119	0xbc0a7109	-0.008449801
120	0x3c2b31ea	0.010448912
121	0xbbdb8afb	-0.0066999174
122	0xbb98c4d2	-0.0046621347
123	0xbb68d179	-0.0035525246
124	0x3ae980e1	0.0017814898
125	0x3cf52818	0.029926345
126	0xbcb54dc7	-0.022131814
127	0xbc8a8c64	-0.016912647
128	0xbcd4b22f	-0.02596387
129	0xbbafb90f	-0.005362637
130	0xbd0251de	-0.031816356
131	0x3c4e9886	0.012609607
132	0xba548cdf	-0.00081081496
133	0xb91e64bc	-0.0001510558
134	0x3a87077b	0.0010301912
135	0x3ba9452d	0.005165717
136	0x3c94de72	0.018172476
137	0x3d0256a3	0.031820904
138	0xbcce4b81	-0.025182487
139	0xbc68d345	-0.014210527
140	0xbcdfdebc	-0.027327888
141	0x3d090a2d	0.03345697
142	0x3c3161b3	0.010826516
143	0xbbf62211	-0.0075113853
144	0xbd0e1be9	-0.034694586
145	0xbc260a1d	-0.010134247
146	0xbbfc72e4	-0.0077041257
147	0x3a3ae082	0.0007128791
148	0x3c4e99f3	0.012609947
149	0x3d0326ab	0.0320193
150	0x3b29ea17	0.0025926882
151	0xbb1be5d9	-0.0023788123
152	0x3bceb6bf	0.006308406
153	0xbc053c1a	-0.008132005
154	0x3af2bbf4	0.0018519149
155	0xbc31e2ac	-0.010857265
156	0xbb7644e1	-0.0037577676
157	0x3c70876f	0.014680727
158	0xbba7dcd0	-0.0051227584
159	0xbb71251c	-0.00367958
160	0x3a85d4a7	0.001021047
161	0x3d19d708	0.037558585
162	0xb98d3d04	-0.00026939076
163	0x3c86f75b	0.01647537
164	0x3cbed607	0.023295416
165	0xbbd8f1c0	-0.0066206157
166	0x3b9e3043	0.0048275306
167	0x3bf7baeb	0.007560124
168	0x3cc2b1bb	0.02376639
169	0x3c326bfb	0.010890002
170	0xbbd8b98d	-0.0066139163
171	0x3ae6ab0e	0.0017598586
172	0x3b16f7b3	0.0023035824
173	0xbb582711	-0.003298227
174	0xba4fdf7e	-0.0007929726
175	0xbd167485	-0.036732215
176	0xbad395fa	-0.0016142719
177	0xbc84091c	-0.016117625
178	0xbca467de	-0.020069059
179	0x3b42ae10	0.00297058
180	0x3cd5a2b0	0.026078552
181	0x3c4f6a77	0.012659661
182	0xbc5aa137	-0.013344101
183	0xbc09f1ea	-0.008419493
184	0x3bc76612	0.006085166
185	0x3cfa7d1b	0.030577233
186	0xbbce96d0	-0.0063045993
187	0x3be012ab	0.006838163
188	0x3c85d823	0.016338414
189	0xbd1c0bf5	-0.03809734
190	0xbcd4cd22	-0.025976721
191	0x3c4ae420	0.012383491
192	0x3cfc9c4a	0.030836243
193	0x3bbc873f	0.0057534273
194	0x3ad1f62d	0.0016018801
195	0xbcaaa63c	-0.02083122
196	0x3c446712	0.0119874645
197	0xbba5f84f	-0.005065001
198	0xbcb25fc9	-0.02177419
199	0x3c567dd7	0.013091526
200	0x3b639d9d	0.0034731396
201	0xbc849d11	-0.016188176
202	0x3acf411d	0.0015812252
203	0x3b90ce22	0.004419104
204	0xbce5ce2b	-0.02805241
205	0xbbcba694	-0.006214926
206	0x3acbbb27	0.0015543447
207	0x3cb720df	0.022354541
208	0x3c8739c6	0.01650704
209	0xb8322b68	-4.2478932e-05
210	0x3c58775c	0.013212051
211	0x3ca18945	0.019718776
212	0xbc094c00	-0.008379936
213	0x38cf601e	9.8884324e-05
214	0x389473ed	7.078783e-05
215	0xbb55f60f	-0.0032647883
216	0x3b907e32	0.004409575
217	0xbb0deaca	-0.0021654838
218	0x3c3839e6	0.011244273
219	0xbc9b8078	-0.018982157
220	0x3c7e05b6	0.015504291
221	0xbbd07351	-0.006361403
222	0xbc0a8dc6	-0.008456653
223	0xbbe06507	-0.006847981
224	0xbaa39e42	-0.0012483078
225	0x3c7f5914	0.015585203
226	0x3cb12969	0.021626191
227	0xba1a0782	-0.00058757525
228	0x3bf12f79	0.0073603955
229	0xbc80a2c6	-0.015702616
230	0x3a8fbc84	0.0010966216
231	0x3d1f8ae0	0.0389508
232	0xbc33ec5c	-0.010981645
233	0xbb0104bd	-0.0019686662
234	0xbb2f6bc7	-0.002676712
235	0x3c1b7ca9	0.0094901705
236	0x3d0ca81e	0.034340017
237	0xbb992f02	-0.004674793
238	0xbbe2f2ac	-0.0069259014
239	0x3c272a37	0.010202936
240	0x3a9006f2	0.0010988398
241	0xbbb417b6	-0.0054959906
242	0xbd0473bc	-0.032336935
243	0x3c67eb5a	0.014155233
244	0x3bff0802	0.007782937
245	0xb93d2236	-0.00018037189
246	0x3b9bbff5	0.0047531077
247	0x3b5a5b6d	0.0033318654
248	0x3c8d231e	0.01722866
249	0x3b0cf773	0.0021509796
250	0xba99fbb6	-0.0011747989
251	0x3c50402e	0.012710614
252	0xb99d83e0	-0.00030043628
253	0x399acb3e	0.00029524596
254	0x3cbb118b	0.022835514
255	0x3caf0e4f	0.021369128

action_model._continuous_distribution.mu.bias f4 [3]
0	0x3b927781	0.0044698124
1	0xba3e9348	-0.00072698714
2	0xbb1c1b7b	-0.002382009
