results/CurveRoad1.3/CarAgent/CarAgent-80517.pt (torch, 492127 bytes, 36 tensors)

network_body._body_endoder.seq_layers.0.weight f4 [128, 22]
000000 d6 3a 26 be 06 af 32 be b6 fe ff bd a0 a4 9c be
       -0.16233382 -0.17449579 -0.12499754 -0.3059435
000010 cd 73 80 be 97 1e 7a be 08 62 a6 bd ba 07 c7 3e
       -0.2508835 -0.24425732 -0.08124167 0.38873082
000020 c5 af ae 3d 59 8b a3 be 3a d5 36 bd bb ee 09 bf
       0.08529619 -0.3194225 -0.044636942 -0.538799
000030 fd 25 90 3c 2f c4 76 bd d6 b1 3f 3e 24 27 56 be
       0.01759624 -0.06024569 0.18720183 -0.20913368
000040 ff a1 4a 3e 9d c4 57 bb b0 3c 11 bf 67 4c 2d be
       0.19788359 -0.0032923587 -0.56733227 -0.16923676
000050 6e 91 2d 3f 97 7e 1a 3c e2 03 a4 3e 29 98 e2 3e
       0.67800033 0.009429595 0.32034212 0.44256714
000060 9d ca 54 3e cd 1b 77 be 43 bd 0a 3e 91 09 df 3c
       0.20780416 -0.24131699 0.1354876 0.027226241
000070 47 e6 c1 bd e0 f5 2b be f5 24 e8 be 95 b1 d5 3e
       -0.0946775 -0.16793013 -0.45340696 0.41737047
000080 f7 a0 51 3e 87 79 8b 3e bc 95 fd 3e bf 25 90 3e
       0.2047156 0.27241156 0.495283 0.28153798
000090 e6 b6 0b bd 78 dd ae bd b0 94 0e 3d 39 ed e7 3e
       -0.034109972 -0.085383356 0.03480977 0.45298174
0000a0 10 a1 00 be dc 60 25 bd 0c 9f e1 3e e1 9c 37 3c
       -0.1256144 -0.040375575 0.44066656 0.011206836
0000b0 b7 2a d0 be 49 7f 9f 3a c5 5d 29 be eb e3 dc bd
       -0.4065759 0.0012168671 -0.16539676 -0.107856594
0000c0 f3 4e c5 be 6b 42 89 be de fe 94 3e 89 20 80 be
       -0.38536796 -0.26808485 0.29100698 -0.25024822
0000d0 82 2e b0 3e 74 6f 1d 3e d1 31 37 3c 29 87 c5 3d
       0.34410483 0.15374547 0.011181311 0.096449204
0000e0 ce 43 09 3d 37 30 28 be 0d bf 15 ba c8 d3 74 3d
       0.03351193 -0.16424643 -0.0005712368 0.059772283
0000f0 a2 bd 4e 3e 26 6f 05 3e 4d b3 77 3e f9 cd 8a 3c
       0.20189527 0.13030681 0.24189492 0.016943919
000100 30 70 9e bb 02 f8 0d bd cd 21 78 3e 4b e0 f9 3d
       -0.004835151 -0.034660347 0.24231644 0.122009836
000110 fd 80 31 be 8b f7 d2 be d9 cd 17 3e be 5b 8d 3e
       -0.17334361 -0.41204485 0.14824618 0.27609056
000120 ea 1e 9b 3d 0a ab 10 3d ee 48 c6 3c 96 f3 85 be
       0.07574256 0.035319366 0.024204697 -0.26162404
000130 f4 b9 9e bd f2 fa b1 3e be 73 96 be e0 66 8c be
       -0.077503115 0.3476177 -0.2938518 -0.27422237
000140 da 05 47 bd c1 fd d1 bc 83 b5 a9 be 75 01 11 3e
       -0.048589565 -0.025633695 -0.33146295 0.14160712
000150 bb 1e 4a 3d a1 fe d0 bd c5 de eb 3e 35 06 2f 3e
       0.049345713 -0.102048166 0.46068397 0.17092212
000160 af 4f e4 be bd 66 b4 3e 6b 86 4e be 5d 8e 03 3e
       -0.44592044 0.35234633 -0.20168464 0.12847276
000170 e4 63 96 bd 0c 89 bc 3d 6c 2f f9 bc 18 1f ce 3e
       -0.073432714 0.09205827 -0.03041812 0.40258098
000180 2b cf 4a be 34 b5 96 3e e7 27 50 3e 49 7e f6 bc
       -0.19805591 0.29435122 0.20327722 -0.030089514
000190 f1 d1 4c be 74 18 aa 3e ee 20 17 3d b9 df 3d 3e
       -0.20001961 0.3322178 0.03689664 0.18542375
0001a0 7e 3b 0a be 4e cb bd 3d 95 c8 41 3e e0 4a 84 3e
       -0.13499257 0.09267293 0.18924172 0.25838375
0001b0 fe 37 ac bd a2 56 bb 3d 06 ec dd 3c 03 74 cc 3e
       -0.08409117 0.09147383 0.027090084 0.3993226
0001c0 1a 99 dc be 33 97 39 3e c7 48 97 be 77 81 27 be
       -0.43085557 0.18124084 -0.29547712 -0.1635798
0001d0 b6 fd 3c 3d 21 a1 23 3e 58 03 2e 3e 7e ba 6f 3e
       0.046140395 0.15979435 0.16993463 0.23410985
0001e0 f8 55 4a 3e 55 c5 53 bd 0a d8 8b 3d d2 27 06 bb
       0.19759357 -0.051701862 0.068283156 -0.0020470512
0001f0 6f 8d 98 3d b4 ba 89 3e a8 f8 50 be a6 58 4a 3e
       0.07448851 0.26900256 -0.20407355 0.19760379
000200 5e 0f 55 be 52 58 3b 3e 5c 87 f3 3e c1 20 e7 3e
       -0.20806643 0.1829541 0.47564209 0.45142177
000210 3c f1 fe 3d f9 99 6a 3d ca f1 4d be fb b3 61 3d
       0.124483556 0.057275746 -0.20111766 0.055103283
000220 34 14 68 be 75 b1 bc 3e 70 34 03 be a6 b4 94 be
       -0.22663957 0.3685414 -0.12812972 -0.29044074
000230 35 1f 09 3f d0 b9 14 bf d3 e5 b4 3e e2 71 7d 3d
       0.53563243 -0.5809603 0.35331592 0.061876185
000240 d2 2c 83 bd 82 30 ac be 42 39 31 3e e9 ac d4 3d
       -0.06405033 -0.3363076 0.17306998 0.103845425
000250 e7 83 79 be 71 6d ac 3d 87 1b 97 3b df 23 fd 3c
       -0.24366723 0.08419312 0.004611436 0.030900894
000260 ad d3 1c be 57 26 09 be 38 28 bc 3d ae 93 91 bb
       -0.15315123 -0.13393532 0.091873586 -0.0044426536
000270 7f 21 bc 3e 4d be 21 be d4 c8 5d 3e e4 e4 57 3d
       0.36744305 -0.1579525 0.21658641 0.05270852
000280 6c 4c bb bd a0 1f c3 bc cb d0 68 be bf 11 2c bd
       -0.09145436 -0.02381879 -0.22735898 -0.04200911
000290 25 28 6f 3e a3 6b 2b 3e ec 0d 07 3e b4 f5 27 be
       0.23355158 0.16740279 0.13188905 -0.16402322
0002a0 ee 70 e9 3c 45 3f 5d 3e 12 83 4a 3d 94 92 1e 3e
       0.028496232 0.21606167 0.049441405 0.15485603
0002b0 88 fa 4c 3d 9c 51 ba 3d 82 42 26 3f 07 5a eb 3c
       0.050043613 0.09097597 0.6494523 0.028729452
0002c0 24 8f 26 bf 87 1b d4 be 34 4e ca 3c 3f 17 eb 3d
       -0.65062165 -0.41427252 0.024695493 0.11479043
0002d0 5e b5 dd 3d 42 2d 2d bd 0a 60 3b 3e 49 33 fd 3c
       0.10825609 -0.04227949 0.18298355 0.030908244
0002e0 56 71 43 be ec ae dc 3d ed 55 96 be d0 02 ae 3e
       -0.19086203 0.10775551 -0.2936243 0.3398652
0002f0 7a 71 66 be 2b b4 c6 3d 69 bf 0c 3d 10 32 06 3f
       -0.22504225 0.09702333 0.03436223 0.5242014
000300 73 6b 4a bd 02 e5 5f 3e e3 21 44 be a4 b8 23 be
       -0.049418878 0.21864703 -0.19153552 -0.15988404
000310 3f 2a cd be d6 80 96 3c 05 d7 14 3e fd c5 75 be
       -0.40071294 0.01837198 0.14535148 -0.24001308
000320 b8 ac 6b be 47 a8 ed bb d3 f4 ac bd 31 7a b6 bd
       -0.23015106 -0.0072527262 -0.08445134 -0.08910025
000330 c1 14 ec 3d e7 ff 7a be 90 85 f2 3d 6a 65 10 bc
       0.11527396 -0.24511681 0.11841881 -0.0088132415
000340 ae e3 02 3f 8d 17 79 be b3 be 09 3f 98 03 e6 be
       0.5112866 -0.2432539 0.5380661 -0.44924617
000350 06 68 88 3e f5 e3 63 be bb ea 3a be 40 b9 b9 be
       0.26641864 -0.22254927 -0.18253605 -0.36274147
000360 41 c2 7d be 59 b3 70 3e 38 46 d0 3c c4 f4 9a 3e
       -0.24781133 0.23505916 0.025424108 0.30264866
000370 5e ee b3 3d 78 b5 b9 be 6e 80 78 3e 7a 32 53 3e
       0.08785699 -0.36271262 0.24267742 0.20624724
000380 bf c2 98 3e cf 3a b8 be 99 61 ce bd c7 53 2e bd
       0.2983608 -0.35982367 -0.10077209 -0.042560365
000390 9f 5e f2 3d 77 08 2a be 76 3f fe 3d 19 67 7e be
       0.11834454 -0.16604792 0.12414448 -0.24844016
0003a0 ba a1 3d be f3 12 e0 be fd 30 0f 3e 6c 17 f2 bc
       -0.18518725 -0.43764457 0.13983531 -0.029552184
0003b0 ad 23 bb bd f3 e2 89 3d 9d 6f ff bb c8 aa 2f be
       -0.09137664 0.0673274 -0.0077952878 -0.17154992
0003c0 89 a7 44 3e d8 5c 02 bd de 58 98 be f9 f1 ac 3e
       0.19204535 -0.031826824 -0.297553 0.3377836
0003d0 cc 82 78 3e 15 0c 92 bc ab cb 44 3c ba 00 74 3e
       0.24268645 -0.017828027 0.012011449 0.23828402
0003e0 05 d3 39 be f3 a1 c5 be 8f f0 de 3e c9 d0 77 3e
       -0.18146904 -0.3860012 0.43542907 0.24200739
0003f0 ed 33 c7 bc 52 00 cc 3c 20 5c 8c bd c9 a1 d2 3d
       -0.024316752 0.024902496 -0.06853509 0.10284764

network_body._body_endoder.seq_layers.0.bias f4 [128]
000000 d3 f0 f3 bd 0e 41 27 bb a5 b8 c2 bd 7f 31 37 bc
       -0.11911168 -0.0025520953 -0.095078744 -0.011181234
000010 2d f8 b0 3d e7 69 de bc 55 6c d0 bc f5 5c 93 3b
       0.08641086 -0.027150108 -0.025442282 0.0044971653
000020 e3 67 a0 bc f4 43 36 bd f3 91 5a bd 9b 70 30 3d
       -0.019580787 -0.0444984 -0.053361844 0.04307614
000030 30 3d 45 3c 89 86 f2 3c bd 8b eb bc cc a4 96 3b
       0.012038514 0.029605167 -0.028753156 0.004597282
000040 c3 f7 ef bb 40 9d 8a bc e6 d7 ec bd 4d 16 c7 3c
       -0.0073232367 -0.016920686 -0.11564617 0.024302626
000050 ea e2 e1 bc 40 40 3a bd 57 81 2c bc 00 e9 e3 bc
       -0.027574021 -0.04547143 -0.010528884 -0.027821064
000060 09 41 3d bd e9 60 87 bc c7 23 35 bc 0d 04 89 bd
       -0.0462046 -0.016525703 -0.011055893 -0.06690226
000070 94 65 22 3d eb be 0a bd 62 e3 69 bd 02 c2 3e bc
       0.039647654 -0.03387348 -0.057101615 -0.011642935
000080 56 0d 95 bd a4 c3 19 bd 37 a0 a7 bc cf c8 25 bb
       -0.07277934 -0.037540093 -0.020462139 -0.0025296693
000090 ce de 88 bb 14 d5 7d bc c2 c6 2e bd d4 db 99 bc
       -0.004176951 -0.015492696 -0.04267002 -0.01878158
0000a0 0f 38 79 bc e4 f7 17 bd 15 99 41 bd 7d 80 fc 3a
       -0.015211119 -0.03710164 -0.04726513 0.0019264367
0000b0 6c fa 07 bd 8a e7 a2 3c ad d7 71 bd e5 4b 8c bd
       -0.033197805 0.019885797 -0.059043575 -0.06850413
0000c0 5a 96 83 bc 21 4c 02 3d 5e ad 38 bc b4 50 0e bd
       -0.016062904 0.031810883 -0.011271803 -0.034744933
0000d0 01 84 20 bd cd 5b a8 3c f7 a3 6c bb 30 c3 91 bd
       -0.03918839 0.020551587 -0.0036108473 -0.07117307
0000e0 ea ea a5 ba ec 09 d4 3a a0 a3 00 bd 78 19 e2 3b
       -0.0012658511 0.0016177273 -0.031406045 0.006900009
0000f0 8d 6c 72 3c 09 17 15 bc 81 26 2b 3d 5d f2 6b bd
       0.014796388 -0.00909973 0.041784767 -0.057604183
000100 28 42 ee ba bf 35 84 bd 02 01 d4 bd ad 83 96 bd
       -0.0018177675 -0.06455564 -0.10351755 -0.07349334
000110 23 8c 01 be dd ce fd bc bd 7c 27 bd de 49 44 bd
       -0.12651114 -0.03098243 -0.040890444 -0.047922008
000120 63 2f 15 3d 1a 1f 7e bc 07 70 80 bd 32 2b 61 bd
       0.036422145 -0.015510345 -0.062713675 -0.054972835
000130 f8 6c ab bc 65 b2 ae bd ca a8 2c bc 06 ca 8d bd
       -0.020925984 -0.0853012 -0.010538289 -0.069232985
000140 dd d4 9b bd 85 3b 0e bd df 3f 1b bd 65 58 c9 bc
       -0.0760896 -0.03472473 -0.03790271 -0.024578283
000150 bb 3c d3 bc 6d dc a7 3b 92 4a 74 bd e4 ce 5c 3c
       -0.025785794 0.0051227123 -0.05964143 0.013477061
000160 bf 9d da bd 3c af b4 bd f8 36 9a bd 97 f3 b4 bd
       -0.10674619 -0.08822486 -0.07530016 -0.088355236
000170 24 b2 17 bd 2c b0 0d bd 3b e1 1a bd 4e 59 31 bd
       -0.037035123 -0.03459184 -0.037812453 -0.04329806
000180 f8 b9 14 bc 0f d3 57 bd c0 01 ac bb 14 67 52 bd
       -0.0090775415 -0.052691516 -0.005249232 -0.051367834
000190 13 3f eb bc 20 58 2c bd a0 5d d5 bc 3b 1f 72 3c
       -0.0287166 -0.04207623 -0.02604562 0.014777954
0001a0 3b 03 0e 3d c9 06 1c 3d 70 f5 4d bc 60 83 1e bd
       0.03467105 0.03809241 -0.012570724 -0.038699508
0001b0 d2 2e 18 bd ae 52 ea bc 40 43 3b 3c 1c 3b 8d bd
       -0.037154026 -0.028603878 0.011429608 -0.0689604
0001c0 de f0 47 bd 2f 5c 65 bd 66 e3 d3 bd bd a0 f5 bb
       -0.048813693 -0.055996116 -0.10346107 -0.007495968
0001d0 45 4f 6f bd 3e 35 bc 3c 28 40 87 bd 28 34 70 bd
       -0.058425207 0.022974607 -0.06604034 -0.05864349
0001e0 e7 8e 50 bd 20 b9 be bc 02 45 8f bc d7 9e cd bd
       -0.050917532 -0.023281634 -0.01748896 -0.10040062
0001f0 25 63 ab 3c ca c5 7f bd 36 b3 af bc c2 e3 38 3c
       0.0209213 -0.062444486 -0.02144776 0.01128477

network_body._body_endoder.seq_layers.2.weight f4 [128, 128]
000000 67 24 4a 3d 01 84 2e 3d 39 32 cb bc 4e 42 a3 bc
       0.049351122 0.042606357 -0.024804221 -0.019929077
000010 e4 8b 56 bd dd ed 04 be b9 82 e2 bd 77 b5 c7 3c
       -0.052379504 -0.12981363 -0.110600896 0.024378521
000020 84 ad 18 bc d6 c7 e9 3c d3 83 94 3b cc 26 e2 bd
       -0.009318713 0.028537672 0.0045323162 -0.11042556
000030 89 3a 3b 3d 0b 6c 29 3c 15 86 f2 bd a4 5e 55 3d
       0.04571012 0.010340701 -0.1184198 0.05209221
000040 e3 40 9d bd 80 58 93 3c fd d9 0f be df 58 13 3d
       -0.07678392 0.017986536 -0.14048 0.035973426
000050 63 4c dd bd bf 65 2c 3c 6e 71 a0 be 50 3b 4b bd
       -0.10805585 0.010522305 -0.3133654 -0.04961711
000060 b0 9c 70 bd 12 79 6d 3d 3c 4e c3 bd c4 43 a3 bd
       -0.05874318 0.05797679 -0.095364064 -0.0797191
000070 47 9f 82 bc df cd c4 3d b0 20 97 3c 8c 83 c6 bc
       -0.01594509 0.09609579 0.018448204 -0.024232648
000080 a0 84 38 3d 98 32 5f bd c2 7e 14 3c 26 0c b8 bc
       0.045048356 -0.05449161 0.009063425 -0.02246673
000090 1c 74 a6 bd 7a 90 c6 bc 74 7b a3 3d b3 a3 26 3d
       -0.08127615 -0.024238814 0.07982531 0.04068346
0000a0 f4 e3 98 3d 97 24 39 3d 75 2e 24 bd 95 d8 d5 3c
       0.074653536 0.04520091 -0.040083367 0.02610425
0000b0 92 b6 fa bc 0a fe dd 3c d9 f1 b4 3d b4 4b 9a 3d
       -0.030604634 0.027098674 0.08835191 0.075339705
0000c0 a5 22 a4 3d 61 76 61 3c 38 93 98 bd bf 1e c9 3d
       0.080144204 0.013761134 -0.07449955 0.098203175
0000d0 a0 c7 49 3d 6e 38 08 be 0e a7 63 bb 56 fb 0e 3d
       0.049262643 -0.13302776 -0.0034737024 0.03490766
0000e0 6e d1 82 bc 6d 17 0d 3e cf 47 ae 3d 0e 5b 2c 3d
       -0.015969004 0.13778467 0.0850979 0.042079024
0000f0 31 e1 3e bb 02 51 e6 bd 56 1d 40 3c 02 a4 a6 3c
       -0.0029125924 -0.1124592 0.011725744 0.020341877
000100 6e 39 4a 3d 38 71 a5 3d d0 f9 41 be b3 1c a2 bc
       0.049371175 0.080782354 -0.18942952 -0.019789075
000110 98 3d 53 ba 85 14 58 3e f7 cd f4 3d 1d 78 96 bd
       -0.00080581894 0.21101578 0.11953347 -0.073471285
000120 5e c2 2e 3c 9d 3d 73 be e3 ad 85 bd 7b 8f 30 bc
       0.010666458 -0.23753972 -0.06527307 -0.010776396
000130 70 73 4c 3d 93 e9 5f bd 59 b0 9e 3d 86 e6 a9 bd
       0.049914777 -0.054666113 0.077484794 -0.08295922
000140 42 61 5a bd 52 fe 0f 3d ec 55 3b bd 09 ed 6e be
       -0.05331541 0.035154648 -0.04573624 -0.23332609
000150 8f 26 ea 3d a0 1c 1b be c9 22 ab bd 33 6b cd 3d
       0.11433136 -0.15147638 -0.08356244 0.10030212
000160 f8 f7 14 3e 37 b5 74 bc 77 aa de bc f4 d4 4a 3c
       0.14547718 -0.014935783 -0.027180893 0.012379874
000170 0c f1 95 3b 1c 15 ff 3d d7 73 ee bd 96 ae 59 3d
       0.004575854 0.12455198 -0.116431884 0.053145014
000180 3b 53 5d bd f8 43 9a 3d 1c ce 9e bd 66 7a 88 bc
       -0.054034453 0.07532495 -0.07754156 -0.016659927
000190 a0 ae dd bc c0 aa f9 bd a5 70 05 be 22 b4 5a bd
       -0.027060807 -0.12190771 -0.13031252 -0.053394444
0001a0 b7 91 f1 bd 92 84 00 3e 83 7f 49 3d 46 74 1c 3e
       -0.11795371 0.12550572 0.04919387 0.1527873
0001b0 dd f2 ad bd 48 65 8a bc 8a 48 da bd 68 68 c7 3c
       -0.08493588 -0.016893998 -0.10658367 0.024341777
0001c0 72 e6 66 bd 7d 74 91 bd 45 33 43 bd 36 ef 33 bd
       -0.056372114 -0.071022965 -0.047656316 -0.0439293
0001d0 1a c9 09 bd 3c d9 0d be 64 eb d3 bd c4 ff 98 3c
       -0.03363905 -0.138524 -0.103476316 0.018676646
0001e0 0e b9 6d bd d5 ce d4 3c ad c8 b5 bd 50 22 cd bd
       -0.05803781 0.025977531 -0.088761665 -0.1001631
0001f0 6d 12 9e bc ba cd 7c bd 07 36 2d 3d 1e 2e a6 bc
       -0.019295895 -0.061719634 0.042287853 -0.020285662
000200 2a 0b 09 3e 30 97 b6 3c 8e 69 22 be 39 64 f2 bc
       0.13383165 0.022288889 -0.15860578 -0.029588806
000210 83 e9 19 3d 58 82 23 3d 7f 93 83 3d 67 28 4c bd
       0.03757621 0.039919227 0.06424617 -0.04984322
000220 50 36 a7 bc 45 2e c0 bc e3 ea 60 3d b7 ce 5d 3d
       -0.02041164 -0.023459563 0.054911505 0.054152217
000230 0c 16 0f 3d da 6a 44 3c ad 53 9a 3d 79 7f e4 bd
       0.034933135 0.011988366 0.07535491 -0.11157126
000240 4c 6c 98 bd 85 9e fb bd da eb 2f 3d cc b4 8b 3d
       -0.07442531 -0.122860946 0.042949535 0.06821594
000250 74 86 4d be 6f 2f 8e 3b 51 ae 77 3d 1e c2 72 3c
       -0.20070821 0.0043391506 0.060468975 0.014816789
000260 12 27 a2 bd c9 ac 6d 3d 6f 59 42 be b1 b6 49 bd
       -0.07917608 0.05802611 -0.18979429 -0.049246494
000270 b8 25 c4 3c 77 8b 52 3d da 72 bb 3d 17 60 e6 bd
       0.023943767 0.051402535 0.091527656 -0.112487964
000280 b3 27 86 bd 5e 48 c0 3d 28 cd a9 bd be d0 3c 3c
       -0.06550541 0.09388803 -0.082910836 0.011524377
000290 48 d7 6a be 60 cf a9 bd dd 65 be bd 8c 44 fe bd
       -0.22933686 -0.08291507 -0.09296773 -0.12415418
0002a0 39 c2 2d bd c9 d7 ba 3d 49 ed 22 3d 0b 4a 22 3d
       -0.042421553 0.09123189 0.039777074 0.039621394
0002b0 4d 68 18 be 52 87 20 be 1c 53 2e 3c 93 6c 2f 3e
       -0.14883538 -0.1567662 0.010639932 0.17131262
0002c0 01 27 90 3d e0 53 2b bd 5e 69 8d bd 2a fb 90 3d
       0.070386894 -0.041828036 -0.06904863 0.07079156
0002d0 70 7d da 3c 78 28 0a be 3a a5 cb bc 07 69 95 bc
       0.026671141 -0.13492 -0.02485906 -0.018238558
0002e0 39 b5 46 3d 6c d6 65 bc cf be fc bd 6a ae 04 bc
       0.04851267 -0.014028173 -0.12341081 -0.008098224
0002f0 00 16 bf bc 2e b1 02 3d e7 58 7b 3d c6 49 26 bd
       -0.02332592 0.031907253 0.06136408 -0.0405977
000300 23 64 9c 3d 4b fa b2 bd e2 e4 a4 bd 21 aa f0 bc
       0.07636287 -0.08739146 -0.080514684 -0.029377999
000310 ca f2 bc 3d 6d 62 72 3d 33 66 8c 3b 77 db af bd
       0.09225996 0.059175897 0.004284644 -0.085867815
000320 7e b7 a2 bd 14 7f 09 bd 9b 25 35 bc 07 c3 9a 3d
       -0.079451546 -0.033568457 -0.011056329 0.0755673
000330 2f dd c5 bb 9e ae d3 3b 76 31 89 3d c5 9a 1a be
       -0.00603833 0.006460025 0.06698887 -0.15098102
000340 41 1c 37 bb 2f 4a 5b bd 14 45 1c 3d fc 12 1c 3e
       -0.0027940425 -0.053537544 0.038151816 0.15241617
000350 b8 70 3e 3d d7 a1 f3 bc dd 98 b5 bd a6 68 55 be
       0.046494216 -0.029740257 -0.08867047 -0.20840701
000360 9c 7c 78 bd 08 67 82 bd 0b 4f d9 bd 1a 13 17 be
       -0.06066571 -0.06367308 -0.106107794 -0.1475338
000370 5c c3 0c be f4 e6 a3 3d 6b e9 e2 3d e6 7d 80 3c
       -0.13746399 0.08003035 0.11079677 0.015685033
000380 75 ce c3 bd 18 60 26 be a9 57 88 bd 77 0c 07 bc
       -0.09560863 -0.16247594 -0.06657345 -0.008242718
000390 aa 73 c5 bd ab 93 9a 3d a1 28 0a be 1d b4 a2 3d
       -0.09641202 0.07547697 -0.13492061 0.0794451
0003a0 eb 5c ec 3d 50 99 4f be 0f 9f 48 3c e6 e3 b5 bc
       0.1154116 -0.20273328 0.012244954 -0.022203397
0003b0 86 fc b7 bc 5a 0f a0 3c 52 a1 de bc e4 55 e5 bd
       -0.02245928 0.01953857 -0.027176533 -0.11198023
0003c0 e2 1f 14 bd 6f 81 35 be 56 29 bc bd 99 47 d7 bd
       -0.03616322 -0.17725156 -0.09187572 -0.10511703
0003d0 67 a3 fc bc 9e be e6 bd 87 c9 51 3c e7 13 c2 bb
       -0.030839635 -0.11266826 0.0128043955 -0.0059227827
0003e0 74 6b da bd a5 12 2e be 97 a8 15 be 6a 17 ca 3d
       -0.10665026 -0.169993 -0.14615093 0.09867747
0003f0 05 86 65 3c 9d d7 e5 bd 81 40 ef 3a 27 d5 d2 bd
       0.0140090035 -0.112227656 0.0018253477 -0.10294562

network_body._body_endoder.seq_layers.2.bias f4 [128]
000000 e2 7f 83 bd 9e 96 59 bb a9 4e fe bc 30 af 26 bd
       -0.06420876 -0.0033201347 -0.031043367 -0.040694416
000010 85 61 e7 bc d0 92 05 bc 6b 0c 48 bd a9 88 f2 bc
       -0.028244743 -0.008152679 -0.048839968 -0.02960618
000020 13 38 89 bc 36 82 80 bd 46 ab 5f bd a6 6a 7e bc
       -0.016750371 -0.06274836 -0.0546067 -0.015528357
000030 75 55 f9 bc de 47 6f bb 64 70 8e bd 6c 10 5a bd
       -0.030436257 -0.0036511342 -0.069550306 -0.053238317
000040 dd 5e 74 bc 70 b1 35 bd 0d 9f bc bb 24 54 07 bd
       -0.014915195 -0.04435867 -0.005756265 -0.033039227
000050 b9 bd 2b bd 86 51 76 bd 52 e4 c9 bc f5 4a cf bc
       -0.04192898 -0.06013634 -0.024645004 -0.025304297
000060 fc 2a af bd f1 fa 42 bd 6f 1a 7a 3c ee 7f c0 bc
       -0.085531205 -0.047602598 0.015265091 -0.023498502
000070 71 33 ee 3c c3 54 da bb a1 40 09 bd 5f 38 2b bd
       0.029077264 -0.0066629364 -0.0335089 -0.041801807
000080 16 9d 0b bc 8a 36 ac bc 7c 19 f7 bc 61 7a 61 bc
       -0.008521339 -0.0210221 -0.03016352 -0.013762088
000090 f0 1c af bc c5 e4 a5 bc d6 d5 03 bd 11 32 4a bd
       -0.021376103 -0.020250687 -0.03218635 -0.049364153
0000a0 40 28 ee bc 77 1c 5b bd 8e 7f b3 bc 4d e9 5f bd
       -0.029071927 -0.053493943 -0.021911409 -0.054665852
0000b0 02 b1 79 bd 97 a6 61 bc a6 ad 80 3a ec 06 96 bc
       -0.060959823 -0.013772628 0.0009817376 -0.018313847
0000c0 28 f0 60 bd 55 88 14 bc 82 8c 61 bb 07 30 04 3c
       -0.05491653 -0.009065707 -0.0034416025 0.008068091
0000d0 2c 22 13 bd 11 1d 1b bd b3 48 24 bd 2c 63 f0 bc
       -0.03592126 -0.037869517 -0.040108394 -0.029344164
0000e0 58 22 9c bc 2a f4 7c bb 7d 20 34 bd ef 4f 1d bd
       -0.019059345 -0.0038597682 -0.043976296 -0.03840631
0000f0 cc e5 59 bd 45 06 d5 3b 8a 78 02 bd 72 af aa bd
       -0.053197667 0.0065009915 -0.031853236 -0.08334245
000100 c5 c3 c7 bc 6d 67 45 bd 2b 92 66 3c 3e 9c b9 bc
       -0.024385342 -0.048194338 0.014072935 -0.02265751
000110 c4 ce 94 bd db 6d 28 bd 46 c3 c2 bc 75 98 01 bd
       -0.07266 -0.04112039 -0.023774754 -0.031639535
000120 c0 e3 53 bd 08 72 a7 bc ff 6c 26 bd 39 b2 e1 bc
       -0.05173087 -0.020440117 -0.04063129 -0.027550803
000130 06 26 33 bd df ef 5e bd 90 08 38 bd 51 74 49 bd
       -0.043737434 -0.054427978 -0.04493004 -0.049183194
000140 31 0f e5 bc 5f b5 52 bd 39 53 b1 bc 9b 8c 9b bb
       -0.027961345 -0.0514425 -0.021646129 -0.004746986
000150 0d cd 5d bc 4e 55 87 bd c3 89 d0 bc 0a 98 1e bc
       -0.013537657 -0.066080675 -0.025456315 -0.009679804
000160 44 b1 dd bc 8c 45 a7 bc db f5 9b bc 4c a5 14 bc
       -0.027062066 -0.020418905 -0.019038131 -0.009072613
000170 c7 4e 24 bc 4a f3 81 3b 9e 14 37 bd 8d 41 b6 bd
       -0.010028548 0.00396577 -0.044697396 -0.088992216
000180 08 c8 d2 bb 6e 86 2b bd c7 25 5d 3b 63 44 6c bc
       -0.006432537 -0.04187625 0.003374444 -0.014420602
000190 b8 96 a3 bd 02 7c 3f bd 14 b4 8a bd 6c ec 0f bd
       -0.07987732 -0.046749122 -0.067726284 -0.03513758
0001a0 b1 14 13 bd 6d b8 c1 bc 0d 38 18 bd 47 39 44 bb
       -0.035908405 -0.023647511 -0.03716283 -0.0029941367
0001b0 1d 48 66 bd ed 6c 24 bd 89 05 83 bd 89 59 12 bd
       -0.056221116 -0.040142942 -0.0639754 -0.03572992
0001c0 48 72 6e bc 67 9f 37 bd 94 49 8d bc 03 dd 1b bd
       -0.014553614 -0.044829752 -0.017246999 -0.03805257
0001d0 95 5a 54 bd a7 9d 4a bd c8 8e c1 3c 1f 5d 82 bd
       -0.0518442 -0.049466755 0.023627654 -0.06365418
0001e0 19 4f 52 ba 34 de b1 bc c2 6e 3d bd 89 c3 c0 bc
       -0.0008022651 -0.0217124 -0.046248205 -0.023530738
0001f0 72 14 16 bc 9b e9 e6 bc 65 91 65 3d da e9 9f bd
       -0.009160148 -0.028187564 0.056046862 -0.078082755

action_model._continuous_distribution.log_sigma f4 [1, 3]
000000 b2 40 20 be 42 b0 3a be a0 0b 37 be
       -0.1564968 -0.182313 -0.17875528

action_model._continuous_distribution.mu.weight f4 [3, 128]
000000 c4 41 13 3c fe b5 90 39 7e c3 e8 3b 97 18 92 bc
       0.008987848 0.00027601415 0.0071033826 -0.017833991
000010 e8 7c 3a bd fd 8e 03 bc a1 0b 3e 3c 07 e0 83 bc
       -0.045529276 -0.0080296965 0.011599452 -0.016098035
000020 b7 42 10 3b 15 7d fb 3a 3f 00 39 bc 96 54 05 3d
       0.0022012421 0.0019187058 -0.011291563 0.03255137
000030 af a6 57 3c 19 ab 44 bb 56 35 55 3c 8f 34 65 3c
       0.013162299 -0.0030009209 0.013013205 0.013989582
000040 e0 eb 40 3c 6e 59 b6 bb b8 36 9a 3c 5d c3 01 3d
       0.011774987 -0.00556486 0.01882492 0.031680454
000050 cc 66 cf 3b 7b 00 46 bc eb af 96 3c 7f b1 d7 bb
       0.006329393 -0.0120850755 0.018394431 -0.0065824385
000060 c4 3a ee 3c 7a fd 39 3c 74 e6 34 3d 12 1e 2d 3c
       0.029080756 0.011351937 0.04416509 0.010566251
000070 a7 3f 0d bd 45 12 cf 3c 43 86 d1 b9 8f f0 18 3c
       -0.03448453 0.025277266 -0.0003996362 0.009334697
000080 df 40 5e 3a 9e 95 93 3c eb 90 89 bc e4 ab 70 3c
       0.00084782945 0.018015679 -0.016792735 0.014689419
000090 9a 87 c2 3c 7e 7f 05 3d b4 c3 03 bc bc dc 86 b9
       0.0237463 0.03259229 -0.008042265 -0.00025722932
0000a0 a3 1d 60 3a ee 3f ac 3b f1 ad 04 3c ce bb a2 3c
       0.0008549338 0.0052566445 0.0080981115 0.019864943
0000b0 7c ac 7a 3c 68 76 b3 3c ee 6c 98 3c 13 91 5a 3c
       0.015299913 0.021907046 0.01860663 0.013340252
0000c0 c9 e0 a5 bb 03 25 32 3c b4 65 84 3c 5a 18 d0 3c
       -0.005062197 0.010873082 0.016161777 0.025402237
0000d0 75 d9 b5 3b 37 b8 46 3c 46 11 11 3c 84 32 2d 3c
       0.0055496045 0.012128881 0.008854216 0.010571126
0000e0 0c 11 f3 3c ef 97 ab b9 82 44 87 bb 90 c7 48 3c
       0.029671215 -0.0003272886 -0.00412804 0.012254611
0000f0 fa cf fd b8 d0 85 d0 bb fa 11 b4 bc 2d 42 9f bb
       -0.00012102719 -0.006363608 -0.021981228 -0.0048601837
000100 ee 93 03 b9 ef 59 99 3c ce 72 f9 38 0f 32 66 3c
       -0.00012548242 0.018719641 0.00011894629 0.014050021
000110 91 7c 07 3c a1 83 ac bb e9 ac 89 bc e6 d1 6f 3b
       0.008269445 -0.005264715 -0.016806083 0.0036593615
000120 6c 61 b5 3c c5 e4 1b 3d 91 c0 dd 3c fd 79 76 bd
       0.022141181 0.03805997 0.027069362 -0.06017493
000130 81 89 11 3d e2 5b c8 bb 2f 55 e5 3c 3a f1 d9 3c
       0.035531525 -0.006114469 0.02799472 0.026604284
000140 92 0e 5e 3c c7 83 9d 3c 8c 56 32 3d f6 36 32 3b
       0.0135532785 0.019227875 0.04353957 0.0027193404
000150 ad d8 8d bd ac c9 4a 3c ab b4 91 3b 65 aa 66 3c
       -0.06926093 0.012377184 0.004446586 0.014078711
000160 b9 59 88 3c 5e 0b 30 3c 2d 38 98 3c c9 0d 9a 3c
       0.016644346 0.010744898 0.018581474 0.018805401
000170 52 68 22 3c 56 60 86 bd 36 af b6 39 56 4a 79 3b
       0.009912567 -0.06561343 0.00034844287 0.0038038692
000180 00 01 c7 bc 5a 49 f1 3c 7c 22 02 3d 09 6d 92 3c
       -0.024292469 0.029453922 0.031771168 0.017874258
000190 62 bb c6 3c b7 e2 b0 3c a7 1e 74 3c 73 93 aa bc
       0.024259273 0.021592481 0.014899886 -0.020822262
0001a0 26 f4 6a bc 5f 69 08 bb b1 0a 17 bc a5 84 7e 3c
       -0.014340436 -0.002081476 -0.009218858 0.015534555
0001b0 1f 2b 30 3c 43 64 aa 3b d2 a0 31 3a b8 b6 c1 bc
       0.010752468 0.0051999404 0.0006775978 -0.023646697
0001c0 07 5d bb 3c 46 31 60 3b fe 83 c6 bb 81 e1 2c 3d
       0.022871507 0.0034209057 -0.006058215 0.042207245
0001d0 34 99 4e 3c ed 90 65 3c 96 7e 68 bc b3 6b 5d 3b
       0.012609769 0.014011604 -0.014190337 0.0033786118
0001e0 dc 5d 18 3c a8 83 a7 3c bb e5 56 bc b6 ce 04 bc
       0.009299722 0.02044852 -0.013116295 -0.008105924
0001f0 60 c9 b4 3c ec 2e c7 bc 7a 29 ef 3b b1 41 50 3c
       0.02206868 -0.024314366 0.0072986456 0.012710975
000200 d3 23 c7 bc c8 b5 91 bb aa 44 30 3c 62 0c b8 bc
       -0.024309075 -0.004446719 0.010758558 -0.022466842
000210 73 bf 6d bc ff a7 20 bd 66 d2 35 bd 0f 2d 0f bd
       -0.014510977 -0.039222714 -0.044390105 -0.03495508
000220 20 a1 6f 3a f7 7e a9 bc 22 83 27 bc 83 36 57 bd
       0.0009141136 -0.020690424 -0.010224136 -0.05254222
000230 7c f6 b9 bc 11 de ea bb 7b 4e b0 bc 9d bc 5f bc
       -0.02270054 -0.0071675857 -0.021521797 -0.013655809
000240 12 de 96 bd 5c 40 84 bd 8b 60 b2 ba 39 fb 52 bc
       -0.07366575 -0.06457588 -0.0013609094 -0.012877279
000250 85 86 66 bd af 0b ef bc da 65 f7 3c 66 e6 2c bd
       -0.05628063 -0.029180376 0.030199934 -0.042211913
000260 a4 c6 b6 bc 1c 9d 59 bd 5b 85 1f bd 34 fe ff 3b
       -0.022311516 -0.053128347 -0.038945537 0.007812286
000270 16 9c 94 3a 89 92 67 bd 8c 9c 57 bc 9d 38 69 bd
       0.0011338021 -0.05653623 -0.013159882 -0.056938756
000280 d4 1f c0 bc 1a 80 1f bd 44 55 3d bd dc 9e 85 ba
       -0.023452677 -0.038940527 -0.046223894 -0.0010194439
000290 a6 1c 3b bd 79 43 37 bd 67 87 99 bc 5b 4d 0f bd
       -0.04568162 -0.04474208 -0.018741323 -0.03498588
0002a0 9e 12 12 3c 8c 85 46 bd 32 f7 8d bd 24 a0 36 bd
       0.0089155715 -0.048467204 -0.069319144 -0.044586316
0002b0 d5 6d 4f bd ec 89 6c bd 18 fd 92 bd c4 8f 8a bd
       -0.050641853 -0.05774872 -0.0717718 -0.06765702
0002c0 dd 16 4b bc 0d 86 e4 bb cd bd c3 bc 72 90 33 3d
       -0.012395588 -0.006973988 -0.023894215 0.043838926
0002d0 37 da 48 bd 4d 96 63 37 6a 6b 48 bd 90 75 40 bd
       -0.04903623 1.3565249e-05 -0.048930563 -0.046987116
0002e0 53 05 b4 bc f7 8b a8 3c 45 b3 5a bd 29 5e 3a bd
       -0.021975195 0.020574553 -0.05339362 -0.045499954
0002f0 24 58 69 3b 44 5e ca bc b0 f8 86 bd 51 a9 ae bb
       0.0035605514 -0.024703152 -0.06590402 -0.0053302427
000300 4c 57 40 bd 4e c9 e6 bb 37 09 3c 3d 89 c4 b6 bc
       -0.046958253 -0.0070430404 0.045907225 -0.022310512
000310 21 31 e0 bc f7 f3 33 bb 71 05 74 bd 7c 35 31 bd
       -0.027367176 -0.0027458647 -0.0595755 -0.043263897
000320 3b e9 00 bd 56 43 98 bc 8a 15 58 bd 04 2f 88 bd
       -0.031472426 -0.018586796 -0.052754916 -0.066495925
000330 57 e1 0c bc d9 38 6d bd 7c 99 d2 bc cf 50 14 bd
       -0.008598647 -0.057915542 -0.025707953 -0.036209878
000340 4f b3 35 bd b7 3d 8a bd d9 18 be 3a 30 db 4a 3d
       -0.044360455 -0.067500524 0.0014503255 0.04952544
000350 16 d6 95 bc 98 4a 3b bd a6 64 7a bd a5 6e 72 bd
       -0.01829056 -0.045725435 -0.061131142 -0.05918755
000360 a6 0d b6 39 50 3c 8b bd 7d 79 fb 3c 73 d5 e7 bc
       0.00034723914 -0.06798613 0.030697579 -0.028300023
000370 5d 0e be bd 5b a2 f5 bc b6 5a 69 bd 77 ee f2 bc
       -0.09280083 -0.029984644 -0.056971274 -0.029654725
000380 7c 64 87 3a 6a 4c 1b bd 52 e5 4a bd 56 3f 80 bd
       0.0010329629 -0.03791467 -0.049535103 -0.0626208
000390 df 95 1e bd 0c b7 e8 bc 7b 2c 2a bd a5 a9 6c bd
       -0.038717147 -0.028407596 -0.041546326 -0.057778973
0003a0 23 64 84 bd f2 63 ac bc fc de 9f 3c a4 7b 11 bd
       -0.06464412 -0.021043751 0.019515507 -0.035518304
0003b0 1e d8 e3 bc cf 35 94 bc bb 9a 18 bd 63 28 5e bb
       -0.027813014 -0.018092064 -0.037256937 -0.0033898584
0003c0 da 7a 71 bd ac 8e 1e 3c 44 a8 dd 3c bd 06 12 bd
       -0.05895505 0.00967757 0.027057774 -0.035650957
0003d0 e4 5c 19 bd c2 1c 62 bd 2a f3 65 3d e1 49 a1 bc
       -0.037442103 -0.055203207 0.056140102 -0.019688549
0003e0 29 23 be 3c 95 c5 41 bd 15 70 ad 3c d5 c5 79 bd
       0.023210125 -0.04730757 0.021171609 -0.060979683
0003f0 f5 0f 2c bd e2 a0 ce bc 02 96 9f 3d 3f ce c0 bc
       -0.042007405 -0.0252232 0.077922836 -0.023535846

action_model._continuous_distribution.mu.bias f4 [3]
000000 23 ec a1 3b 7a d9 bf 3d 22 9c 90 bc
       0.00494148 0.09367652 -0.017652575

exp_avg f4 [128, 22]
000000 f8 5e 7d 0f 4d 1e dd 36 46 9c 4c 10 21 d0 f0 36
       1.24921534e-29 6.5898407e-06 4.0352295e-29 7.1767868e-06
000010 7f 4f 04 10 15 d0 f0 36 a1 01 00 00 b8 1b 21 37
       2.609365e-29 7.1767813e-06 5.84e-43 9.602802e-06
000020 04 00 00 00 a8 1b 21 37 ee 00 00 80 7c 07 1f 37
       6e-45 9.602787e-06 -3.34e-43 9.478881e-06
000030 04 00 00 00 64 3c 03 37 63 7d 8b b7 22 33 6d b2
       6e-45 7.822269e-06 -1.6628479e-05 -1.3806842e-08
000040 f0 65 22 ba 51 e1 9c 8c 37 75 8e 37 e4 c6 f5 b9
       -0.00061949994 -2.4171213e-31 1.6982302e-05 -0.00046878227
000050 1c fa c8 aa df 1c a2 ab 14 80 9e 11 21 fe 09 b7
       -3.5700685e-13 -1.1518806e-12 2.500694e-28 -8.225005e-06
000060 2b 0a 29 11 90 48 16 b7 8b a2 95 11 92 48 16 b7
       1.3334883e-28 -8.9575915e-06 2.360823e-28 -8.957593e-06
000070 a1 01 00 80 a6 15 49 b7 04 00 00 00 a3 15 49 b7
       -5.84e-43 -1.1985574e-05 6e-45 -1.1985571e-05
000080 61 01 00 80 66 7d 46 b7 04 00 00 00 d6 cc 23 b7
       -4.95e-43 -1.1830916e-05 6e-45 -9.763249e-06
000090 d4 19 ae 37 ec 07 94 32 e2 b1 4a 3a 31 3b 48 0b
       2.0754444e-05 1.723307e-08 0.0007732195 3.856313e-32
0000a0 82 ce b1 b7 a7 61 19 3a 37 8f 27 2d 5d 9d 1e 2d
       -2.1196207e-05 0.0005851038 9.524651e-12 9.016202e-12
0000b0 f4 1a 78 10 97 4a d9 35 c7 89 1d 10 28 a5 ec 35
       4.893014e-29 1.6189468e-06 3.106893e-29 1.7631437e-06
0000c0 88 2d 58 10 1d a5 ec 35 91 21 00 80 e3 51 1e 36
       4.2633565e-29 1.7631424e-06 -1.2041e-41 2.35915e-06
0000d0 04 00 00 80 d8 51 1e 36 8a 09 00 00 e2 46 1c 36
       -6e-45 2.3591474e-06 3.422e-42 2.328707e-06
0000e0 04 00 00 80 f0 f6 00 36 55 13 89 b6 dc 17 69 b1
       -6e-45 1.9217223e-06 -4.0851687e-06 -3.3919525e-09
0000f0 6b 96 1f b9 49 1d 0e 8d 09 fe 8b 36 f0 85 f1 b8
       -0.00015219457 -4.379238e-31 4.1720964e-06 -0.00011516723
000100 5f f3 43 a9 92 77 3d aa f4 ff 82 11 31 20 34 b8
       -4.350979e-14 -1.6828056e-13 2.0668127e-28 -4.2945325e-05
000110 2d c8 5d 8f 55 2b 44 b8 0d b6 a9 10 4b 2b 44 b8
       -1.0934694e-29 -4.6770398e-05 6.693924e-29 -4.677036e-05
000120 04 00 00 80 a3 3d 83 b8 04 00 00 00 99 3d 83 b8
       -6e-45 -6.2580475e-05 6e-45 -6.25804e-05
000130 04 00 00 00 1e 8c 81 b8 04 00 00 00 2a d0 55 b8
       6e-45 -6.177298e-05 6e-45 -5.0977025e-05
000140 91 42 e3 38 84 39 c1 33 af 4a 84 3b 5e 9b 24 86
       0.000108366025 8.997725e-08 0.0040372233 -3.0959118e-35
000150 9d 18 e8 b8 91 36 48 3b 9e 21 ec ac 82 7e 9f ac
       -0.00011067207 0.0030550102 -6.7112557e-12 -4.533097e-12
000160 e5 ef bf 11 e8 29 9f b6 b8 07 41 12 0e 57 ad b6
       3.0282333e-28 -4.743448e-06 6.0909576e-28 -5.1659363e-06
000170 94 96 4d 12 04 57 ad b6 51 36 00 00 9e ef e7 b6
       6.4872196e-28 -5.1659317e-06 1.9485e-41 -6.9122316e-06
000180 04 00 00 00 5f ef e7 b6 1f 05 00 00 fe f0 e4 b6
       6e-45 -6.912203e-06 1.837e-42 -6.8229847e-06
000190 04 00 00 00 d3 ed bc b6 8e d1 48 37 8b ba 2a 32
       6e-45 -5.630523e-06 1.196972e-05 9.937717e-09
0001a0 80 ca e9 39 6d 77 62 0d 91 15 4d b7 7a e9 b0 39
       0.00044592097 6.978538e-31 -1.22239735e-05 0.0003374329
0001b0 93 8c 93 ad c6 5e 55 ad 9d d3 fd 11 70 d3 4f 38
       -1.6774393e-11 -1.2128692e-11 4.0046779e-28 4.9549562e-05
0001c0 e0 f6 dd 11 2e 56 62 38 59 2d 2a 12 29 56 62 38
       3.50198e-28 5.396286e-05 5.3698437e-28 5.396284e-05
0001d0 17 33 00 00 57 6c 97 38 04 00 00 00 51 6c 97 38
       1.8328e-41 7.220421e-05 6e-45 7.2204166e-05
0001e0 73 01 00 00 2d 78 95 38 04 00 00 80 a0 b1 76 38
       5.2e-43 7.127258e-05 -6e-45 5.8816397e-05
0001f0 88 1a 03 b9 76 f1 de b3 cb a2 98 bb ed 7d 4b 0d
       -0.00012503017 -1.0381602e-07 -0.0046580783 6.270578e-31
000200 ea e4 05 39 a1 00 67 bb a1 8d 25 ae db ff 18 ae
       0.00012769146 -0.0035248178 -3.7642448e-11 -3.4788044e-11
000210 7e 2b a9 10 50 fe b2 38 56 cc 0c 11 a1 ef c2 38
       6.6725757e-29 8.535071e-05 1.1107019e-28 9.295275e-05
000220 49 3e 24 11 96 ef c2 38 15 00 00 80 6e 6a 02 39
       1.2956512e-28 9.295267e-05 -3e-44 0.00012437414
000230 04 00 00 80 62 6a 02 39 04 00 00 80 96 bb 00 39
       -6e-45 0.00012437397 -6e-45 0.00012276912
000240 04 00 00 80 f1 77 d4 38 01 d5 61 b9 b8 02 40 b4
       -6e-45 0.000101312886 -0.00021537022 -1.7882383e-07
000250 bb 75 03 bc 5f 2b 12 88 fe a2 66 39 46 f4 c6 bb
       -0.008023675 -4.398626e-34 0.00021995229 -0.0060716
000260 c9 72 88 2d a0 f2 90 ab f2 fb 0e 12 98 d4 c9 b4
       1.5512385e-11 -1.0299157e-12 4.5117846e-28 -3.759385e-07
000270 5f 6a e8 11 9e ce db b4 a2 78 24 12 c0 ce db b4
       3.6668702e-28 -4.0942263e-07 5.1897967e-28 -4.094236e-07
000280 ec 06 00 00 f2 0d 13 b5 04 00 00 00 16 0e 13 b5
       2.483e-42 -5.478206e-07 6e-45 -5.4782265e-07
000290 75 05 00 00 74 28 11 b5 04 00 00 00 3a 94 ef b4
       1.958e-42 -5.4075576e-07 6e-45 -4.4625068e-07
0002a0 90 a2 7e 35 42 88 58 30 ba 3b 14 38 87 eb 61 0c
       9.4858933e-07 7.8773976e-10 3.5341574e-05 1.7404246e-31
0002b0 50 08 82 b5 1e 57 e0 37 90 bc 10 2c dc 05 f0 2b
       -9.688174e-07 2.6743448e-05 2.0568304e-12 1.7054652e-12
0002c0 de 64 47 10 4e 6c 17 38 2f 50 b9 11 fb e8 24 38
       3.9323535e-29 3.6102072e-05 2.923727e-28 3.9317627e-05
0002d0 42 1f 32 11 f5 e8 24 38 0c 00 00 80 d5 a7 5c 38
       1.4051356e-28 3.9317605e-05 -1.7e-44 5.2608393e-05
0002e0 04 00 00 00 c5 a7 5c 38 04 00 00 80 ed ce 59 38
       6e-45 5.2608335e-05 -6e-45 5.1929546e-05
0002f0 04 00 00 80 02 be 33 38 de 0b bf b8 ca 6f a2 b3
       -6e-45 4.2853884e-05 -9.1098e-05 -7.564047e-08
000300 26 6c 5e bb 04 28 c9 87 ab 1c c3 38 3a 4f 28 bb
       -0.0033938973 -3.0266638e-34 9.3036644e-05 -0.0025681988
000310 72 20 4d ad 74 c9 73 ad 3e 00 b3 11 c6 4f 60 b7
       -1.1660105e-11 -1.3857682e-11 2.824137e-28 -1.3370014e-05
000320 e8 08 ab 11 69 4a 74 b7 b4 c3 d6 11 5f 4a 74 b7
       2.6984532e-28 -1.4560858e-05 3.3883858e-28 -1.4560849e-05
000330 7f 15 00 80 56 6f a3 b7 04 00 00 00 46 6f a3 b7
       -7.711e-42 -1.9482959e-05 6e-45 -1.948293e-05
000340 a5 0e 00 00 6f 53 a1 b7 04 00 00 00 95 21 85 b7
       5.253e-42 -1.9231547e-05 6e-45 -1.5870473e-05
000350 1e 81 0d 38 96 9f f0 32 57 be a4 3a 8f 6b e5 8c
       3.373727e-05 2.8012249e-08 0.0012568933 -3.534777e-31
000360 e4 83 10 b8 89 53 79 3a e6 7f 83 ac 78 97 0d ac
       -3.4455108e-05 0.0009511044 -3.7374435e-12 -2.0121387e-12
000370 6d 69 69 8f 82 60 11 39 ae 0b a6 90 53 53 1e 39
       -1.1508091e-29 0.0001386423 -6.549345e-29 0.00015099095
000380 74 03 01 90 4b 53 1e 39 04 00 00 80 5e d8 53 39
       -2.5443424e-29 0.00015099083 -6e-45 0.00020203131
000390 04 00 00 00 51 d8 53 39 04 00 00 80 8f 1c 51 39
       6e-45 0.00020203112 -6e-45 0.00019942432
0003a0 04 00 00 80 be 90 2c 39 26 6b b7 b9 1c f3 9b b4
       -6e-45 0.00016457119 -0.00034984312 -2.9047885e-07
0003b0 9f 8a 55 bc 2e f8 68 87 48 52 bb 39 d0 96 21 bc
       -0.013033538 -1.7526674e-34 0.00035728724 -0.009862617
0003c0 00 b4 38 2a c0 59 7c ad 2d cc 20 11 9c 2d 0e 39
       1.6404933e-13 -1.434447e-11 1.2684691e-28 0.00013559166
0003d0 09 fb 25 12 7c d7 1a 39 cf 46 ef 11 75 d7 1a 39
       5.2374244e-28 0.00014766859 3.775119e-28 0.00014766848
0003e0 04 00 00 80 0f 2f 4f 39 04 00 00 00 ff 2e 4f 39
       -6e-45 0.00019758589 6e-45 0.00019758566
0003f0 04 00 00 00 a1 82 4c 39 04 00 00 00 ab c4 28 39
       6e-45 0.00019503619 6e-45 0.00016094993

exp_avg_sq f4 [128, 22]
000000 4c 4f 7f 30 0b 96 9a 31 5c 6c 1b 31 c8 f8 d4 31
       9.2881147e-10 4.499048e-09 2.2617064e-09 6.198295e-09
000010 cd 69 b5 30 a9 f3 a1 31 48 03 39 30 5c 96 b1 31
       1.3199554e-09 4.7134177e-09 6.730727e-10 5.168472e-09
000020 03 29 ad 2f 7a 01 9e 31 51 e1 fe 2d 7e d1 8d 31
       3.1497657e-10 4.598573e-09 2.8976517e-11 4.1274566e-09
000030 cd ec 36 2f f6 e3 df 31 16 0a cb 34 65 db 7b 28
       1.6636932e-10 6.5160703e-09 3.7819035e-07 1.39808726e-14
000040 97 d1 8b 38 dd 18 c4 34 5f bc df 32 66 49 a0 38
       6.667076e-05 3.6525935e-07 2.6046278e-08 7.643066e-05
000050 0c 98 a8 34 bb 67 00 38 0b b2 2e 34 67 9e 83 34
       3.1403067e-07 3.0614185e-05 1.6269784e-07 2.4515904e-07
000060 92 4c 51 34 63 51 95 34 02 1b 74 34 76 5e a0 34
       1.9492498e-07 2.781263e-07 2.2734096e-07 2.9871052e-07
000070 b5 e6 85 31 b3 e2 bd 33 f5 a5 b7 31 27 91 ec 33
       3.897038e-09 8.842235e-08 5.344868e-09 1.10160094e-07
000080 03 02 53 31 f2 20 9e 33 53 e2 fe 2e 0a 52 ba 33
       3.0705685e-09 7.363441e-08 1.1590786e-10 8.676223e-08
000090 ba b0 56 35 6a f9 a9 29 02 03 ee 38 2d c8 53 32
       7.9978383e-07 7.548374e-14 0.000113492846 1.2327331e-08
0000a0 ec dc a3 34 79 68 e5 38 7c 18 52 35 71 0d ee 38
       3.0521858e-07 0.000109390305 7.8266726e-07 0.00011351228
0000b0 3d 99 13 33 2f 85 8b 33 9b 4d 59 33 65 19 b4 33
       3.4365474e-08 6.496918e-08 5.059483e-08 8.3865224e-08
0000c0 16 3f 01 33 03 c1 84 33 4d cf 44 33 23 6f b8 33
       3.009253e-08 6.1818376e-08 4.5823345e-08 8.588383e-08
0000d0 31 07 f7 31 ae a5 35 33 ed 3b a7 32 c6 ed 95 33
       7.1894637e-09 4.229303e-08 1.946861e-08 6.981604e-08
0000e0 af e5 04 2e 08 c8 16 33 6f a0 00 36 b5 dd 38 29
       3.0217325e-11 3.5106524e-08 1.916687e-06 4.1048508e-14
0000f0 6a ef 2f 39 cf 57 5f 35 59 7e 32 34 40 79 87 39
       0.00016778489 8.320175e-07 1.6623507e-07 0.00025839545
000100 8b e2 93 35 cc 22 13 39 f3 81 1c 34 46 a2 9e 34
       1.1018286e-06 0.00014031975 1.4575907e-07 2.9547863e-07
000110 fd 76 8b 34 b7 99 d6 34 ac f5 96 34 bc 3f dd 34
       2.5977343e-07 3.9972448e-07 2.8118427e-07 4.121083e-07
000120 c7 b0 6a 32 1f c9 2b 34 53 71 43 32 13 4e 43 34
       1.3660787e-08 1.5998783e-07 1.1376261e-08 1.8189193e-07
000130 f8 5b 85 31 ad 06 09 34 b8 fd dd 29 3c 98 08 34
       3.881265e-09 1.2761548e-07 9.858385e-14 1.272137e-07
000140 0d c8 29 35 c6 3c 93 2a 81 e0 6a 39 bb 87 3d 28
       6.324852e-07 2.6154616e-13 0.00022399613 1.05210394e-14
000150 0a 6d 00 35 8b 8b e4 38 b7 af 42 35 97 35 dc 38
       4.784239e-07 0.00010897879 7.252633e-07 0.000105003994
000160 f5 7a cd 34 67 82 24 35 13 8e 12 35 fa 45 51 35
       3.8273689e-07 6.128452e-07 5.4595984e-07 7.7960397e-07
000170 e6 bf d5 34 4b a5 2a 35 07 e6 02 34 08 c3 e7 34
       3.9813966e-07 6.357047e-07 1.2190877e-07 4.3169007e-07
000180 9b 52 8b 32 59 50 a2 34 29 60 4a 33 7b 6b b5 34
       1.6219294e-08 3.0233312e-07 4.7119247e-08 3.379208e-07
000190 23 a4 63 2e 4c 79 80 34 6e ee 05 37 08 44 03 2b
       5.1759607e-11 2.3930113e-07 7.9829315e-06 4.663496e-13
0001a0 23 a9 9a 3a d7 f2 ec 36 48 56 88 35 3c b9 b3 3a
       0.0011799674 7.0616184e-06 1.0157901e-06 0.001371182
0001b0 b1 69 93 36 db e2 2a 3a af 53 12 34 32 52 90 34
       4.3932455e-06 0.00065187895 1.3627754e-07 2.6881895e-07
0001c0 9d 8a 41 34 05 c1 ac 34 03 e5 3a 34 ac 72 a5 34
       1.8024953e-07 3.2177937e-07 1.7405914e-07 3.081708e-07
0001d0 e4 d5 5b 33 53 92 84 34 54 d2 1e 32 f4 33 53 34
       5.1184443e-08 2.469338e-07 9.2446335e-09 1.9669807e-07
0001e0 6b 6b 94 32 01 30 61 34 00 2c 9b 2d 6a f4 26 34
       1.7278316e-08 2.0972222e-07 1.7641e-11 1.5548872e-07
0001f0 9d de 41 36 4b c8 41 2b d3 16 3c 3a c4 5a 8e 36
       2.888882e-06 6.8845336e-13 0.0007175032 4.2424963e-06
000200 1c 96 34 35 d0 a4 2a 3a 63 1e dd 35 69 ca 83 39
       6.7273663e-07 0.00065095443 1.6474627e-06 0.00025137074
000210 93 be fc 31 16 58 ba 33 a8 e3 90 32 e8 29 eb 33
       7.355831e-09 8.677323e-08 1.6867332e-08 1.0950663e-07
000220 fc ea 3d 32 24 f6 dd 33 73 5c 85 30 1b ae 2e 34
       1.1054677e-08 1.0335887e-07 9.703299e-10 1.6268352e-07
000230 20 0a 6a 2d bd cb 29 34 3c 83 f1 2f fc 68 30 34
       1.3303608e-11 1.5813471e-07 4.3930892e-10 1.642947e-07
000240 e5 d0 57 29 d3 bf f7 33 c6 23 06 35 e2 03 92 2b
       4.7920777e-14 1.15367264e-07 4.997095e-07 1.0375002e-12
000250 ac 18 2b 3a 44 dc b1 2a 41 76 0f 35 1e a9 c3 39
       0.0006526809 3.1594356e-13 5.3443733e-07 0.000373193
000260 fc 4c ac 33 68 5a 4d 37 3d 3f 78 34 43 1d b2 34
       8.0233775e-08 1.22400015e-05 2.3119806e-07 3.3176374e-07
000270 88 56 8d 34 47 2a c2 34 7a a9 ab 34 35 ca d7 34
       2.6326256e-07 3.6166077e-07 3.1974542e-07 4.0193996e-07
000280 2f 91 e3 32 1e eb 11 34 d9 6d 88 32 cf 73 15 34
       2.64923e-08 1.3589712e-07 1.5882437e-08 1.3918837e-07
000290 1f 9d 02 32 09 33 db 33 6f c1 93 2e 80 26 d8 33
       7.602721e-09 1.02072654e-07 6.719147e-11 1.0065287e-07
0002a0 8b 39 09 36 e7 88 cb 29 b3 78 98 39 6c 9f cc 35
       2.0448085e-06 9.03876e-14 0.00029081627 1.5245582e-06
0002b0 78 df c9 34 9c 5f d7 39 81 d4 9e 35 71 c3 80 39
       3.7601762e-07 0.0004107923 1.1833764e-06 0.00024559678
0002c0 5c 44 37 31 c0 16 0c 33 5b 0c 49 33 5c 1e 95 33
       2.6668863e-09 3.261698e-08 4.6810197e-08 6.9438755e-08
0002d0 08 5f bf 32 eb 77 5a 33 ed b4 06 30 62 94 0c 33
       2.2278542e-08 5.0866145e-08 4.9006027e-10 3.2731243e-08
0002e0 84 3e 36 2d 7f fe 17 33 bb 13 9e 2f 6a 17 02 33
       1.03593835e-11 3.538889e-08 2.8754052e-10 3.028928e-08
0002f0 d6 fc 96 28 bf 17 fd 32 31 d7 d5 33 73 96 ae 29
       1.6762995e-14 2.9463875e-08 9.9577285e-08 7.753251e-14
000300 e5 a5 8b 38 b1 7a 8f 2d 6a 59 f5 33 bc 48 f6 37
       6.658937e-05 1.6311704e-11 1.1424966e-07 2.9359355e-05
000310 00 78 18 34 c5 bc ae 37 30 03 90 33 27 7c 02 34
       1.4199759e-07 2.0830319e-05 6.706102e-08 1.215236e-07
000320 79 96 c0 33 80 6b 20 34 27 ff 86 33 ad fe ff 33
       8.9680675e-08 1.494027e-07 6.286273e-08 1.1920688e-07
000330 b1 89 4e 33 76 5f fe 33 af 88 ab 30 78 0a 8b 33
       4.8088342e-08 1.1845161e-07 1.2480735e-09 6.474596e-08
000340 df 67 b7 32 74 b8 d2 33 5c f9 20 2e f0 92 7f 33
       2.1351239e-08 9.812439e-08 3.6601264e-11 5.9505453e-08
000350 b8 22 0b 36 0e 6a 5d 2a e5 59 a6 39 4a 42 fe 35
       2.0732823e-06 1.9665538e-13 0.00031728964 1.8943767e-06
000360 00 0f 91 34 dc bb c8 39 f0 04 a5 35 0e 88 3b 39
       2.701927e-07 0.0003828694 1.2294895e-06 0.00017884394
000370 df 38 72 30 33 1b d7 33 ab f4 ab 31 d9 ed 02 34
       8.8119906e-10 1.0016665e-07 5.0045705e-09 1.2193722e-07
000380 db 48 72 31 53 dd 00 34 a1 22 6f 2e b8 d0 5f 34
       3.5257048e-09 1.2001446e-07 5.4373065e-11 2.0844425e-07
000390 3e 97 bc 2d 3c 0c 5d 34 1f df fa 2d c0 af 61 34
       2.144029e-11 2.058668e-07 2.8520795e-11 2.1018695e-07
0003a0 76 d8 68 28 cc b2 1c 34 04 23 29 35 8b 18 a1 2b
       1.29255246e-14 1.4593678e-07 6.300836e-07 1.144655e-12
0003b0 ce e9 62 3a 17 a7 08 2a d8 d0 36 35 92 54 02 3a
       0.00086560554 1.2137197e-13 6.810419e-07 0.00049717084
0003c0 ee 09 2f 33 b3 62 10 37 48 90 1e 33 6d 2d 82 34
       4.0754394e-08 8.606049e-06 3.6918465e-08 2.4247439e-07
0003d0 52 e7 94 34 68 c8 f2 34 c9 ad 30 34 73 1d c5 34
       2.7735456e-07 4.5221827e-07 1.64545e-07 3.6715537e-07
0003e0 19 3a a1 2e a3 90 91 34 a7 c5 a4 2e b4 4e 98 34
       7.3317526e-11 2.7113592e-07 7.492967e-11 2.836947e-07
0003f0 7f ae ea 2d 71 7a 8a 34 90 e5 68 23 ac 0c 5b 34
       2.6680212e-11 2.579359e-07 1.2625357e-17 2.0400574e-07

exp_avg f4 [128]
000000 c2 64 14 38 17 37 39 b8 4a d3 11 37 4f c4 71 b9
       3.5379788e-05 -4.4158744e-05 8.691868e-06 -0.00023056682
000010 33 a1 d5 b7 23 79 8b 39 1f 3f f0 39 56 73 07 b6
       -2.5466643e-05 0.000266024 0.00045823396 -2.0183702e-06
000020 dc 3d 4b 39 64 89 96 b8 62 20 43 3a 3a d5 3e 3a
       0.00019382633 -7.1781484e-05 0.0007443485 0.0007279698
000030 c2 6f 0f 3a 42 55 18 38 1b 62 81 3a 21 7f 94 37
       0.00054716703 3.6319027e-05 0.0009871157 1.7702174e-05
000040 3a 5a e7 35 7e 3c 14 b8 ff 0c 05 3a b8 6e a3 35
       1.72371e-06 -3.5342287e-05 0.0005075484 1.217667e-06
000050 8c c6 40 36 62 2c 16 b9 a1 6f 6a b9 e6 99 74 b9
       2.87258e-06 -0.00014321649 -0.00022357564 -0.00023326985
000060 14 89 51 39 18 8c bf 36 20 04 ab b6 49 d5 54 b9
       0.00019982859 5.7085526e-06 -5.0966773e-06 -0.0002029735
000070 e0 a4 01 3a 4e e5 33 3a 07 4d 03 ba ff 2d 15 37
       0.0004945528 0.0006862477 -0.00050087314 8.891801e-06
000080 99 35 1a 37 fe 90 19 38 e7 4e 68 b9 77 06 9b 37
       9.1915945e-06 3.6613077e-05 -0.00022154638 1.848045e-05
000090 f5 1e ad 3a 6e e6 83 b9 5f df 9a 37 b7 fe 86 b9
       0.0013208078 -0.0002515795 1.8462246e-05 -0.0002574825
0000a0 65 67 41 39 9d e7 2e 3a d6 ce bc b9 67 20 a6 37
       0.00018444432 0.00066720863 -0.0003601226 1.980383e-05
0000b0 f8 ca 44 35 e0 d4 62 36 19 ff 88 b6 88 c0 44 b9
       7.331105e-07 3.3800534e-06 -4.082813e-06 -0.0001876374
0000c0 f9 54 54 b8 1a 52 29 3a 0c 57 20 b9 48 85 ca b9
       -5.0623876e-05 0.00064590725 -0.00015291217 -0.00038627745
0000d0 df fd fe b5 80 6f 92 37 a5 01 f0 36 34 bc 40 3a
       -1.8998361e-06 1.7456478e-05 7.152749e-06 0.0007352263
0000e0 28 bb ab 39 a4 19 b0 b7 d8 86 0e b7 53 a0 a4 39
       0.00032755104 -2.0992775e-05 -8.495255e-06 0.00031399968
0000f0 73 76 41 3a cd 49 04 3a d4 3a 59 39 1d c2 00 3a
       0.0007380016 0.00050463976 0.00020716648 0.00049117376
000100 71 35 3d 3a 87 e2 ad 35 88 ae bb 37 22 92 08 b9
       0.0007217741 1.2955433e-06 2.237341e-05 -0.0001302441
000110 87 bb 32 39 56 13 fd 39 c3 2f 2a 38 f2 24 21 b8
       0.00017045262 0.00048270327 4.057564e-05 -3.84198e-05
000120 f9 f6 71 34 23 bc df b7 26 e0 86 39 3c 02 5e b7
       2.2534722e-07 -2.667128e-05 0.00025725475 -1.3232751e-05
000130 79 b4 9e b8 22 1a e2 38 b0 0e 34 39 c0 0e 89 38
       -7.567643e-05 0.000107813874 0.00017171609 6.5354165e-05
000140 bc b2 26 38 41 af 09 b9 0e b0 2f 3a 92 42 19 3a
       3.9743943e-05 -0.00013130625 0.00067019544 0.00058464066
000150 99 8c be 37 82 5c 3e ba ed 63 47 39 bb f3 4c b9
       2.2715236e-05 -0.00072617095 0.00019015344 -0.00019545753
000160 d4 10 c2 b9 f8 61 5a 39 76 df 94 b7 79 1f 7c b7
       -0.000370151 0.00020826596 -1.7747032e-05 -1.5027698e-05
000170 1a 0f 72 b9 2e 33 63 37 26 60 9a b6 77 15 1a 3a
       -0.00023084544 1.3542171e-05 -4.600751e-06 0.00058778323
000180 e9 27 ed 36 dc ba 67 39 bc 0a ff 39 02 0b 66 36
       7.0677966e-06 0.00022099487 0.00048645388 3.4279078e-06
000190 b6 65 78 b8 5d c8 72 3a a7 79 ce b7 a0 79 f6 b7
       -5.9222533e-05 0.0009261424 -2.4613762e-05 -2.9382121e-05
0001a0 60 73 9a 38 dc d8 a2 39 e5 b5 5e 39 d4 79 fe 36
       7.3647825e-05 0.0003106062 0.00021239331 7.5839725e-06
0001b0 cf ff 85 3a 62 a4 01 3a b3 2a e7 b9 aa 89 c1 b8
       0.0010223332 0.00049454544 -0.00044091567 -9.228599e-05
0001c0 66 a9 e9 38 11 db 16 b8 ae 65 5f b9 84 e1 90 38
       0.00011141859 -3.596681e-05 -0.00021304816 6.908461e-05
0001d0 1e 04 8d b8 1a 24 65 39 44 93 ad b8 15 b7 a2 b7
       -6.724171e-05 0.0002185259 -8.276713e-05 -1.939716e-05
0001e0 73 e3 e5 39 a7 c7 60 b7 90 0d 22 35 78 b9 b7 39
       0.00043847747 -1.3397926e-05 6.036944e-07 0.00035042665
0001f0 88 0d 93 b7 67 77 50 b5 1d cc a6 38 e4 1e f3 b7
       -1.7530067e-05 -7.765979e-07 7.953516e-05 -2.8982242e-05
