results/CurveRoad1.3/CarAgent/CarAgent-12672.onnx (onnx, 83842 bytes, 7 tensors)

network_body._body_endoder.seq_layers.0.weight f4 [128, 22]
000000 7a 9f 68 3d 60 0d 83 bd 9c f7 d0 3d 54 55 c7 bd
       0.056792714 -0.063990355 0.10203478 -0.09733072
000010 e7 f9 18 3f ec fd 6a be 01 59 3e be 28 fe e8 3d
       0.5975632 -0.22948426 -0.1858864 0.113766015
000020 3a 94 7a 3e d6 2f ec 3c b4 c8 c2 3a fa 3a f1 3e
       0.24470606 0.028831404 0.001486084 0.47115308
000030 5d cf 6b 3e 6e 62 bd be 56 86 9f 3e 7b 59 ad 3c
       0.23028322 -0.36989158 0.31157178 0.021160832
000040 d0 ab 8a be 92 96 02 3e cb 6a 19 3e 80 2d 57 be
       -0.27084208 0.1275275 0.14982145 -0.2101345
000050 73 08 a7 be 52 c0 82 3d f7 ef 78 be 5d 9b 4d 3e
       -0.32623634 0.063843384 -0.2431029 0.20078798
000060 89 e2 78 3d 2f 1c 40 3e ff ff 99 be 29 13 b5 3d
       0.060762916 0.18760751 -0.30078122 0.08841545
000070 dc b1 01 be 01 67 1e be d6 9b 9d 3e 66 28 88 bb
       -0.12665504 -0.1546898 0.30782956 -0.0041552065
000080 36 10 85 3e 29 14 24 be 42 30 af bd d1 1f b0 3c
       0.2598893 -0.16023315 -0.08554126 0.021499546
000090 50 08 19 bd 40 e0 b7 3e 2b 1c 26 3e 63 34 42 be
       -0.037361443 0.35913277 0.16221683 -0.18965296
0000a0 79 b5 79 be 6e f3 e2 be 2f dd 0e be b4 fe 6f be
       -0.24385633 -0.44326347 -0.13951562 -0.23437005
0000b0 cb 27 a9 3d 99 1d 36 3e 56 09 90 bd 0d d0 b8 bd
       0.08259543 0.17784728 -0.07033031 -0.090240575
0000c0 f7 78 dc be 2a 78 37 3e 6b ef 16 3d df 68 6d be
       -0.4306104 0.17916933 0.03684942 -0.23184536
0000d0 4c 13 b9 3d 25 c7 22 3d 5f 7b 38 be 2b 17 14 be
       0.09036884 0.0397407 -0.18015812 -0.14461963
0000e0 82 84 07 3d 72 b6 a8 3d 17 f1 32 3d 29 d7 be bd
       0.033085354 0.08237924 0.043686952 -0.09318382
0000f0 2a ea 43 be e2 50 c7 3d b0 e4 21 be 01 cc 19 3e
       -0.19132295 0.09732224 -0.15809894 0.15019228
000100 a8 59 4d bc bf 89 0b bf c7 4b 0a be 16 9f ca 3d
       -0.012533583 -0.5450706 -0.1350547 0.098936245
000110 f4 f6 b8 be 3b ef 80 3e ed aa 69 bd 46 f6 24 bd
       -0.3612591 0.25182518 -0.057047773 -0.040273927
000120 3f 7b 30 be c4 14 8e 3e 7c 2b 9d bb 99 4e 25 3e
       -0.17234515 0.27750218 -0.0047964435 0.16143264
000130 b6 0b e3 bd 4a be 39 bd 5c 69 74 be fa be 2d bd
       -0.11086218 -0.04534749 -0.23868316 -0.042418458
000140 fa 8a 2d be 5a 88 17 be 5c e0 5b 3d 74 55 4d bd
       -0.16947547 -0.14798108 0.053680763 -0.050130323
000150 78 4f 59 be d3 b3 91 bc ed c3 af 3e ad 17 d2 bd
       -0.21221721 -0.017785942 0.34329167 -0.10258422
000160 d7 eb 7c bd 50 b7 14 3e 95 d1 f3 bd 7d 4c 47 3e
       -0.061748352 0.14523053 -0.11905209 0.19462772
000170 11 a5 b4 be f1 60 1d be 3c c7 ea 3e c1 80 a4 3e
       -0.35282186 -0.15369011 0.4585513 0.3212948
000180 75 ae 50 bc 6f 2a 71 3e ed 36 8b 3d 5b 55 73 bd
       -0.012736906 0.23551343 0.06797586 -0.059407573
000190 ac ed 95 3d b2 69 b8 bb 2e 1a 3d be fb e4 1e be
       0.07320723 -0.0056278342 -0.18467018 -0.15517037
0001a0 52 ca 3a 3e af 2c b9 bd 11 9c 3d be 17 4c b4 3d
       0.18241242 -0.09041726 -0.18516566 0.088035755
0001b0 4e 0a 2e be 2f 23 3a 3e 28 4c d4 3d 42 d0 8b 3e
       -0.16996118 0.18177484 0.10366088 0.27307326
0001c0 08 b3 3d 3c 24 cc 6a bd c1 6e 88 3d e7 4a 97 be
       0.011578329 -0.05732359 0.0666175 -0.29549333
0001d0 be 64 c9 3d bd cd f6 bd c6 e1 a4 3e f2 33 87 be
       0.09833668 -0.1205096 0.322035 -0.2640682
0001e0 27 d6 94 3e cb fb 45 be 18 5a ac bd e9 4c 69 3e
       0.29069635 -0.19334333 -0.084156215 0.22783245
0001f0 be b8 ca bc 23 59 0a bf 44 1e ab 3b d7 bd cc 3d
       -0.024746295 -0.5404226 0.005222114 0.099971466
000200 0c 4a f5 bd 37 28 84 be a4 ef 13 3d b4 49 e1 be
       -0.11977014 -0.25811931 0.03611721 -0.44001544
000210 45 b2 64 3d c7 b9 b6 3d 6c bd 36 bd 33 31 56 3e
       0.055834074 0.08922153 -0.04461424 0.20917206
000220 e3 c5 0a 3f 99 46 01 be 84 6b 5e bc bc 05 51 be
       0.542082 -0.12624587 -0.013575438 -0.20412344
000230 ba 36 07 be 52 67 71 be 6a 7b 03 3f 48 cd 01 3e
       -0.1320447 -0.2357457 0.5136019 0.12675965
000240 87 e1 7d be 85 5b ac be 84 a8 a0 be e8 dd 8e 3d
       -0.24793063 -0.33663574 -0.31378567 0.06975919
000250 1e ba 71 bc 02 3d 89 3e 44 e2 74 3e 80 e7 29 3e
       -0.014753846 0.26804358 0.23914438 0.16592216
000260 3f a2 fa 3e 07 c2 48 bd a7 31 3c be 2c 51 7a 3e
       0.4895191 -0.049013164 -0.18378316 0.24445027
000270 33 cd 6a 3e 20 9f d6 bd b8 ec ed bd 81 ff 5c be
       0.2292984 -0.104795694 -0.11617416 -0.21581842
000280 e9 a8 38 be cf df d2 be 87 a7 0d be 27 8a 25 be
       -0.18033184 -0.41186377 -0.13833438 -0.16165982
000290 01 8a c0 3e 60 71 07 bd ed 28 25 3e 83 1a 01 3e
       0.3760529 -0.033067107 0.16128893 0.1260777
0002a0 c2 da 97 be 73 ca e7 bd 93 19 13 bb 12 e9 8c 3e
       -0.29659086 -0.11317911 -0.0022445663 0.2752157
0002b0 8d e5 89 bd 7a 98 25 be 67 bf 4e be 0a 52 1d 3e
       -0.067332365 -0.16171446 -0.20190202 0.15363327
0002c0 67 a9 c3 3d 0a 2a c0 bd 4b 79 32 be 56 20 8b be
       0.09553795 -0.09383018 -0.17429082 -0.27173108
0002d0 f6 c0 ca 3d 5a ec 54 be c6 b0 ad bc 00 26 9b be
       0.09900086 -0.20793286 -0.021202456 -0.3030243
0002e0 4a b7 22 bd 82 7a a6 bd a7 59 fe bd 46 41 5d 3c
       -0.03972558 -0.08128835 -0.124194436 0.013504332
0002f0 6d cf 92 bd 73 d8 e7 bd f0 9b 23 be 80 5e b1 bd
       -0.071684696 -0.11320581 -0.15977454 -0.086606026
000300 f3 b7 1e 3e 06 42 a2 3e b2 f7 b1 bc aa 08 19 bc
       0.15499859 0.31690997 -0.021724556 -0.009340445
000310 29 3d 06 be cd c9 fa 3e c7 dc 79 bd 84 80 1b be
       -0.13109268 0.48982087 -0.061001565 -0.15185744
000320 ee 97 59 3d fd 2c 39 3e 9b 98 0f 3e cb ab cf bd
       0.053123407 0.18083568 0.14023058 -0.10140189
000330 4f 86 54 3e 67 6c 81 bd 75 f0 fc be 7d 4b 3a bb
       0.2075436 -0.06319504 -0.49402204 -0.0028426342
000340 62 d0 46 3e cb 52 4e 3e 07 3c 5a 3e 81 fd 22 3e
       0.19415429 0.2014877 0.21311961 0.15917017
000350 3a 7b 8a 3e 43 f1 d4 bd c2 35 80 3e b0 2f b2 bd
       0.2704714 -0.103975795 0.25041014 -0.08700502
000360 48 40 73 be fb 47 30 3d ca 22 5c be 8b 96 7b 3d
       -0.2375499 0.043037396 -0.21497646 0.061422866
000370 6a 8c 9a 3e 10 46 38 3d 1a 3e 3a be 80 36 4f 3e
       0.30185252 0.04498869 -0.18187752 0.20235634
000380 cc 05 4e bd e7 ee 71 3e 0c 5b 50 bd 4c f2 45 3d
       -0.050298497 0.2362629 -0.05086808 0.048326775
000390 b6 41 19 bf 46 90 7c 3e 80 d2 3b 3e 71 1a 71 3d
       -0.5986589 0.24664411 0.18342018 0.058863107
0003a0 33 0b 84 3c aa eb 08 3d 1e 56 84 be ad 85 81 3e
       0.016118621 0.03342787 -0.25846952 0.252973
0003b0 8b be e5 bd 00 29 03 3f 63 4b 05 be c7 a7 6d bd
       -0.11217984 0.51234436 -0.13017039 -0.058021333
0003c0 dc 6e 1e 3f 2e 34 79 be 06 1b b4 bd 35 58 3e be
       0.6188791 -0.24336311 -0.08794217 -0.18588336
0003d0 a4 38 4d 3c 47 6a 23 be cd f9 21 be 8a aa 84 3c
       0.012525711 -0.1595851 -0.15817948 0.0161946
0003e0 94 e6 1c be 55 bf b4 3d 26 00 28 bd 17 6c 85 3e
       -0.15322334 0.08825556 -0.041015767 0.26059029
0003f0 b0 34 06 3d 3b fe 49 be a1 93 33 3d 09 1b c8 bd
       0.03276509 -0.19725887 0.04384196 -0.097707815

network_body._body_endoder.seq_layers.0.bias f4 [128]
000000 5f 5d 5e bc ac a9 29 bd b3 8d 77 3b c0 39 22 bc
       -0.013572066 -0.041421577 0.0037773668 -0.009901464
000010 1a 9f da bb fd 46 c5 bb 31 ec 1f 3a a3 bb c0 bb
       -0.0066717984 -0.0060204254 0.0006100564 -0.005881743
000020 04 87 1a ba f5 a8 ad bc 2c f0 33 3c 5e 26 c7 3c
       -0.00058947527 -0.021198729 0.010982554 0.024310287
000030 cc 31 eb bc 81 40 ef ba 6f c8 9c bc 96 57 8a bc
       -0.028710268 -0.0018253477 -0.019138543 -0.016887467
000040 78 8b 84 bb 34 04 db bb 06 e5 b0 39 88 01 25 bc
       -0.0040449463 -0.0066838507 0.00033739972 -0.010071166
000050 be 2a 8b bc fa e2 19 bb 39 e9 6d bc 8c 7c 1f 3b
       -0.016988155 -0.0023481236 -0.014520937 0.002433571
000060 c0 04 b7 bc f9 c0 c3 bc 58 f7 2e bc 4e 39 07 bc
       -0.022341132 -0.023895727 -0.0106790885 -0.008253409
000070 3f 53 b6 39 85 e9 b7 bb 60 b3 5f 3b 33 7e 0e 3c
       0.00034775768 -0.0056125545 0.0034134015 0.00869708
000080 72 4a 5c bc 91 0f da bc 96 83 03 bc 45 35 a1 bc
       -0.0134454835 -0.02661875 -0.008026978 -0.019678721
000090 69 de 05 bc 01 85 1f bc d5 b9 bf bc 2a 84 ee bb
       -0.0081707025 -0.0097363 -0.023404041 -0.007278939
0000a0 c3 f7 e1 bb f5 68 0e bc 88 6a 5a bc 6a 61 55 3c
       -0.0068959906 -0.008692016 -0.013331063 0.013023714
0000b0 b4 0c c7 bc 5d b4 1d 3c 49 77 e7 ba a0 5f a5 39
       -0.02429805 0.0096255215 -0.0017659451 0.000315425
0000c0 52 8e 47 bc bd 24 0a bc 38 95 88 bc 4f fb b9 3a
       -0.012179928 -0.008431611 -0.016672716 0.0014189276
0000d0 37 8f 17 bc 7c 76 0a bd 7f d7 f6 bb a7 0c b9 bb
       -0.009250454 -0.0338044 -0.0075330134 -0.00564726
0000e0 03 cc 92 3c a3 96 df bb 2e c5 f1 bb db 82 bd 3b
       0.017919546 -0.006823377 -0.007378242 0.0057834215
0000f0 e8 77 07 bb 5c 13 8b bc 8e 59 46 bc 11 20 33 bc
       -0.0020670835 -0.016977005 -0.012106312 -0.010932938
000100 fd 0a 24 bc 27 22 d5 bb f5 5c f9 3b c2 8f 88 bc
       -0.010012385 -0.0065043154 0.0076099583 -0.016670112
000110 89 b9 32 bc db 5d 8c ba 98 2d ef ba 4b 69 0d bc
       -0.010908493 -0.0010709123 -0.0018247841 -0.008631061
000120 4c f4 05 bc 54 e5 17 bc 74 fd 2f 3c 3e 74 3d ba
       -0.008175921 -0.009270985 0.01074158 -0.0007227099
000130 9b e4 b2 bb 21 bf ba bb 97 b5 7a bc c5 ce 43 bc
       -0.005459381 -0.005699054 -0.015302083 -0.011951153
000140 7f 20 9d bb 70 2a 33 bc 00 4a d5 39 bd 11 e8 3b
       -0.0047951336 -0.010935411 0.0004068166 0.0070821927
000150 04 d0 dd bc 3b 13 da ba 50 51 c5 bb 29 04 24 3b
       -0.027076729 -0.0016637811 -0.006021656 0.0025026894
000160 62 ea 41 3c eb 20 83 bb 32 5b cb 3b 86 66 c1 3b
       0.011835666 -0.004001727 0.0062059397 0.0059021143
000170 a9 a8 af 3c 45 51 19 bc f1 a0 bf bb 1a 55 69 bb
       0.021442728 -0.009357755 -0.005848043 -0.0035603703
000180 f7 1c f6 3b cd 1c d1 bb fc 9f 90 bc 23 70 15 bc
       0.007510777 -0.006381607 -0.017654411 -0.009120974
000190 9a 25 ae 3b 72 c8 08 3b 0f 6c c6 bc bc 97 e6 bb
       0.005314541 0.0020871428 -0.024221448 -0.007037131
0001a0 9d 22 8d bb 2a 0d 56 3b a7 45 f2 3b 5e f6 08 bd
       -0.0043071047 0.0032661655 0.007393557 -0.03343808
0001b0 c8 23 8b bb e8 90 b0 bc 3c 58 ba bc c6 4b e1 bb
       -0.004246209 -0.021553472 -0.022747152 -0.006875488
0001c0 77 f3 3f 3c 69 f9 1b 3c 6b 20 d1 3b 9e 9d bf bc
       0.011715761 0.009519913 0.0063820384 -0.023390587
0001d0 c7 c8 25 bb 54 f7 bc bb 0e 32 c6 3b 24 83 b8 ba
       -0.0025296675 -0.0057667885 0.0060484475 -0.0014077169
0001e0 de 09 1a ba 6d 21 d4 ba ee 57 b7 ba 24 45 48 bd
       -0.0005876104 -0.0016184278 -0.0013987997 -0.048894063
0001f0 8b 1d 03 bd b0 1d 2f 3a 3f fa 0e 3b 65 7e 84 3b
       -0.032010596 0.0006680144 0.0021816639 0.0040433877

network_body._body_endoder.seq_layers.2.weight f4 [128, 128]
000000 f6 20 8b bd 80 de 13 3c c5 bf 57 bd 04 20 c9 3d
       -0.06793396 0.009025216 -0.05267312 0.098205596
000010 4d e8 fe bd 81 e9 f2 bc b6 7b 54 bc fb 5b 44 3d
       -0.124466516 -0.029652359 -0.012968948 0.047939282
000020 ae 6d e4 bc ee 6e fb bd ef 97 0c 3d c1 f8 03 3d
       -0.02788433 -0.122770175 0.034324583 0.032219652
000030 7f 59 fc 3d 83 81 b9 ba 8b c6 1b 3d ab b0 20 3d
       0.123217575 -0.0014152977 0.038031142 0.039230984
000040 b5 1f a5 bd 91 ad fb 3c 84 ff ee bc 06 79 3f be
       -0.08062688 0.030722411 -0.029174574 -0.1869851
000050 ba fc 27 3e 9b 62 96 bc 6b 26 49 3b c3 a7 a1 3d
       0.16405001 -0.018357566 0.0030693065 0.07893326
000060 12 1b c0 3d 74 a8 01 be 7a 24 36 3d bf 70 a2 bd
       0.09380163 -0.12661916 0.04446838 -0.07931661
000070 cd cf de 3c f6 e2 d7 3d 4d a3 66 3d f0 db 40 3e
       0.027198697 0.10541336 0.05630808 0.188339
000080 36 1b ff 3d b7 f3 1b 3e 28 d8 e1 3c 63 67 be bd
       0.12456362 0.15229689 0.027568892 -0.09297063
000090 8c 62 2d 3e 61 06 86 3c ac 01 87 3d 91 b5 bc bd
       0.16932124 0.016360464 0.06592116 -0.092143185
0000a0 83 9e e2 bd 7d 70 97 3d 23 26 80 be af 47 ca 3d
       -0.1106539 0.07394502 -0.25029096 0.09876954
0000b0 53 40 c0 bc c3 aa a4 3d 64 d2 10 3c 62 b8 d4 bd
       -0.023468172 0.08040383 0.0088392235 -0.10386731
0000c0 65 70 6a 3d 79 4e bb bd 70 fa fb bb a5 4b 99 bd
       0.057236094 -0.09145827 -0.0076897666 -0.07485131
0000d0 fd f0 b9 3d fa af 39 bd f5 e7 9b 3a 48 07 10 3e
       0.09079168 -0.04533384 0.001189469 0.14065278
0000e0 4e aa ee 3d 72 3e 75 3d bc 2b 13 bd 99 6b 40 bd
       0.11653577 0.059874006 -0.03593038 -0.046977613
0000f0 1c ea 07 bd a0 df bb bb 1a 32 85 3d 7d 44 9c 3d
       -0.03318225 -0.0057334453 0.06503697 0.076302506
000100 d6 a8 07 bd 35 9e af 3d 91 44 2f be fc c5 b6 3d
       -0.03312 0.085750975 -0.17116 0.08924481
000110 f4 b2 09 3e f5 da cb 3a a8 fc 93 bd 84 c2 4c 3d
       0.13447171 0.0015552925 -0.07225925 0.049990192
000120 13 62 2a bc fc 93 ef 3d f5 d3 c8 3d 21 65 5f bc
       -0.010399359 0.11698148 0.098060526 -0.013634951
000130 1a a8 8f 3d ec 37 d2 bc 89 88 be 3b 96 8e e5 3b
       0.07014485 -0.025661431 0.005814616 0.007005523
000140 d8 3e 2a bb 4a 35 5a be d9 23 ab bc ea 9d 0d be
       -0.00259774 -0.2130939 -0.020891117 -0.1382977
000150 8f b8 66 bd 84 4b ad bd 60 77 21 3e c7 f8 d8 3d
       -0.056328353 -0.08461669 0.15768194 0.105943255
000160 d3 83 18 be 0c ed df bc 25 d0 c0 bd 7e fc 47 bd
       -0.14894037 -0.027334712 -0.094147004 -0.04882478
000170 4a a1 25 3c 20 a6 8d bc fa 83 a5 3b 90 0c 05 3e
       0.010109255 -0.017291129 0.005051133 0.12993073
000180 0b 1a ce 3c f6 cc 5a 3d 12 6a a6 3d 3d 28 02 3d
       0.025158903 0.053418122 0.081257 0.031776655
000190 b4 17 6c 3e 72 16 f1 bd c6 b4 04 3e 35 a8 85 bd
       0.23055917 -0.11771859 0.12959585 -0.065262236
0001a0 8f 9f 60 bd 63 ab a1 3c 9f b2 78 3c b9 f6 6a bd
       -0.054839667 0.019735044 0.015179305 -0.0573642
0001b0 39 f6 b9 3c 9c 9d 97 bd bf 7d 86 bd db 3f 42 bd
       0.022700416 -0.074031085 -0.06566953 -0.04742418
0001c0 bf e6 26 be a3 a6 3e be 12 bc 1c be 88 56 52 3c
       -0.1629896 -0.18618254 -0.15306118 0.0128380135
0001d0 8b c1 d7 bc e5 c3 a6 bc 6d c7 94 bd 74 78 ce bd
       -0.026337406 -0.020357082 -0.072646 -0.10081568
0001e0 aa 21 63 bc eb 4a 13 3d 4d a4 68 be b9 e7 51 3d
       -0.013863007 0.03596012 -0.22718926 0.05124638
0001f0 03 d4 08 be 4c f3 ea bc 42 2d 2b bd b0 78 14 be
       -0.13362126 -0.028680466 -0.041791208 -0.14499164
000200 c5 44 bb 3d 4b cc 02 be 24 f5 99 bd ba 4f ec bb
       0.09143976 -0.12773244 -0.0751746 -0.0072116526
000210 80 a9 75 3d 58 2d 1e be 3a 97 6e 3e e8 a0 85 bb
       0.0599761 -0.15446985 0.23299876 -0.0040780194
000220 95 d2 a1 3d a9 ed d1 bc 15 f4 28 be 94 37 b3 bd
       0.079014935 -0.02562602 -0.1649936 -0.08750835
000230 b8 10 b1 3d f5 24 4a bd 79 8f a5 bc 02 9e 7a bd
       0.08645767 -0.04935165 -0.020210015 -0.061185844
000240 7b 6e 89 3c 22 f2 2a be 3e 9b 6c bd 42 c2 29 3c
       0.016776314 -0.16693929 -0.057765238 0.010361256
000250 28 b9 c5 3b b9 be e0 bd ba a3 81 3d 2c f6 7f be
       0.0060340352 -0.109738775 0.063300565 -0.24996251
000260 14 44 05 bd 07 53 e2 bb f6 df 24 3e 29 3c e6 3d
       -0.032535627 -0.0069068703 0.1610106 0.112419434
000270 f2 ff a2 3d c7 b4 46 3d 47 98 99 bd c5 21 eb 3d
       0.07958974 0.048512246 -0.07499748 0.114810504
000280 d0 4b 20 be df 79 73 3c 6b 9c b7 3d 6c 50 db 3d
       -0.1565392 0.014860599 0.08965381 0.10708699
000290 15 47 d1 3c 28 c9 94 3c 48 03 7a 3d fb dc 04 bc
       0.02554659 0.018162325 0.061038285 -0.0081093265
0002a0 7f 3e 05 be 8e c5 29 3e 5c b2 79 3d b6 92 bd bd
       -0.13012122 0.16579267 0.060961112 -0.092564985
0002b0 93 72 8a bd 11 7c eb bd 8f 91 0e be d3 11 49 bc
       -0.067601345 -0.11498273 -0.13922714 -0.012272316
0002c0 88 d3 d1 bd ec 44 b0 bd 12 ca 35 3e ce 99 80 be
       -0.102454245 -0.08606896 0.17752865 -0.25117344
0002d0 f7 96 3b 3e 44 99 87 bb c6 d9 f5 bd 8c b6 a1 3d
       0.18319307 -0.0041381437 -0.120044276 0.07896146
0002e0 fc 25 b6 bd e3 69 6f 3d 42 66 85 3d 1f d3 66 bc
       -0.08893964 0.05845059 0.06513645 -0.014088421
0002f0 c4 b3 66 3d 3d 4f 43 bd 16 e2 48 bd 6c ff 02 3e
       0.05632378 -0.04768299 -0.049043737 0.12792748
000300 09 a5 7c be cb c6 ac 3a cb 74 07 3d 3e bc 60 bc
       -0.24672331 0.0013181804 0.033070367 -0.013716755
000310 45 25 c9 bd 7a d8 1b bd fa c0 f2 bd 66 ea 01 3c
       -0.09821562 -0.038048245 -0.118532136 0.00792942
000320 76 f1 0b 3e c5 4a f2 3c 18 c9 df 3d 7b 73 04 3e
       0.13666329 0.029576669 0.109270275 0.12934677
000330 91 09 34 3c 1d 90 f9 bc 75 5b b8 3c 4f 36 54 bd
       0.010988609 -0.030464226 0.022504548 -0.051809605
000340 2b c4 6b bd f9 ba 08 bd 9c 8a 30 3d 33 e2 b9 bd
       -0.057560127 -0.033381436 0.04310094 -0.09076347
000350 4b cc f1 bb 89 e7 40 be ca fc 67 3e 69 fe 64 3d
       -0.00737909 -0.18838324 0.22655025 0.055906687
000360 03 34 62 3d 17 d6 eb 3d f0 67 87 bd 2b c2 d2 bd
       0.055225383 0.11515444 -0.066116214 -0.10290941
000370 53 24 6b bc 52 8d f0 bd 4e df 42 3d f8 62 5e bc
       -0.014351922 -0.11745705 0.04757624 -0.013573401
000380 c6 db 91 3d 36 ad a0 3c bc 52 02 bc 5d 14 11 3e
       0.071219966 0.019613843 -0.007954296 0.14167924
000390 f7 84 25 3d 7d 0a 1c ba 0b 0c 6d be 83 d0 f9 bd
       0.04041001 -0.00059524906 -0.23149125 -0.121979736
0003a0 fd 87 52 bd ea 14 47 bd d0 6c ad bd fa 13 a2 bd
       -0.05139922 -0.04860393 -0.0846802 -0.079139665
0003b0 b7 e6 78 bd c3 4f a7 3c dd f8 f8 3c d4 0a 89 bd
       -0.0607669 0.020423776 0.030392105 -0.066915184
0003c0 2d 2f 3f 3d 75 5e ec 3c 95 6f 30 bd 84 1b b4 bd
       0.04667585 0.028853634 -0.043075163 -0.08794311
0003d0 dd 01 91 3d d5 9d 1b 3c 33 27 0e bd 4f 62 19 3d
       0.070804335 0.009498079 -0.034705352 0.03744727
0003e0 a0 13 81 3b 77 d1 66 3e 12 d6 28 bd 5d 5e a9 bd
       0.003939107 0.22540842 -0.04121978 -0.082699515
0003f0 4d 7a eb bc 98 68 09 bc f5 81 8c bd 17 ad 78 bd
       -0.028744841 -0.0083867535 -0.06860725 -0.060711946

network_body._body_endoder.seq_layers.2.bias f4 [128]
000000 78 b5 66 bc 4d 4b 8e bc 16 7d c5 bc 04 8d fb ba
       -0.014081351 -0.01736989 -0.024107497 -0.0019191806
000010 d4 e2 be bb 27 bc 4a bc 68 dd cb bb 59 db 09 bc
       -0.00582538 -0.012373961 -0.006221462 -0.008414113
000020 fd 0d 20 bb 3f 82 75 ba fe c1 8d bc 4d 34 c9 bb
       -0.00244224 -0.00093654165 -0.017304417 -0.006140268
000030 e4 e6 9d 3b d9 be 30 bc 40 95 91 bc b3 20 6c bc
       0.004818784 -0.010787689 -0.017771363 -0.014412093
000040 94 ed cc bb 88 01 24 bc 95 e2 46 3b 8e 79 62 bc
       -0.0062539075 -0.010010131 0.0030347456 -0.013822926
000050 ef c9 85 bc 2b b4 89 bc 14 6b f4 bb 31 d4 8e bc
       -0.016331641 -0.016809544 -0.007459054 -0.017435165
000060 bd 97 ff ba ce 2f a6 bc 62 ef 90 bc 94 d0 9d b9
       -0.0019500178 -0.020286467 -0.017692272 -0.00030100776
000070 b2 f2 7d bc 7f 6a 4e bc 95 c3 82 bc 10 f8 f4 bb
       -0.015499758 -0.012598633 -0.015962401 -0.0074758604
000080 9a 33 c0 ba 5c 26 3d bc 7a a4 c7 3a d0 ea bb bb
       -0.0014663816 -0.01154479 0.0015231513 -0.005734779
000090 2d 7b 5d bc bf f3 ad bb 29 32 50 bc 84 76 3c bc
       -0.013518137 -0.005308598 -0.012707272 -0.011502866
0000a0 b2 c1 99 bb ed ba 20 3a b8 78 01 3b 0f 69 7f ba
       -0.0046922797 0.000613137 0.0019755792 -0.0009743133
0000b0 2b 15 a0 bc 87 2d 5f bc a5 71 64 bc b6 d0 19 bc
       -0.019541344 -0.013621694 -0.013943111 -0.0093881395
0000c0 2d 0b 6a bc 13 03 9f bc 7e b5 97 bc 1e ac 6f bc
       -0.014284891 -0.019410646 -0.01851916 -0.014628438
0000d0 a7 e8 b3 3b 0d 77 a6 3a fe e6 45 bc 27 a1 cf bb
       0.005490381 0.0012700275 -0.012078999 -0.0063363495
0000e0 e4 77 14 bc 4f da 40 bc b2 10 4e bc 2e 85 5f bb
       -0.009061787 -0.011770799 -0.012577223 -0.003410648
0000f0 40 92 86 bc a0 24 54 bc b8 1d 62 bc 16 91 82 bc
       -0.01642716 -0.012948185 -0.013801031 -0.015938323
000100 2f 1a 6f bc 9a 9b 46 3b 64 a2 27 3b e2 47 71 bc
       -0.014593645 0.0030305148 0.002557897 -0.014726611
000110 f0 89 0f bc c1 24 02 bc 5a ba 6f ba 1a 15 a4 bb
       -0.008760914 -0.007943333 -0.0009144895 -0.0050073983
000120 59 28 46 3b 8c 2d db bb 19 4a 38 bc da 4f 0f bc
       0.0030236451 -0.006688779 -0.011248135 -0.008747065
000130 4b 83 8c bc 0e c0 34 bc 8c b9 6f bc 88 76 83 bc
       -0.01715245 -0.0110321175 -0.01463164 -0.016047731
000140 71 b0 ae bb 03 84 26 bc 36 9f f2 bb 58 66 92 bc
       -0.005331092 -0.01016331 -0.0074042333 -0.017871067
000150 f5 df 1d bc f7 f3 17 bc 4d e5 d9 bb ef 23 11 bc
       -0.009635915 -0.009274474 -0.0066496492 -0.008858665
000160 84 51 2c bc 9b ba 15 bc 24 34 5c bc 8a e0 91 bc
       -0.010517482 -0.0091387285 -0.013440166 -0.017807264
000170 17 54 c4 3a 3c 1f 63 bc 0b aa d9 3a 79 28 29 bc
       0.0014978674 -0.013862427 0.0016606463 -0.010324591
000180 0e a5 61 ba 81 4a 49 bc 65 12 db bb bc cd 41 bc
       -0.0008607664 -0.0122858295 -0.0066855424 -0.011828836
000190 c3 99 f7 bb 31 c8 03 3b 1a 20 26 bc c9 83 30 ba
       -0.0075561716 0.0020108337 -0.01013949 -0.00067335047
0001a0 32 80 5e bc fa e5 bd bc 6a bc 90 ba 81 4f de ba
       -0.013580369 -0.02318095 -0.001104248 -0.001696095
0001b0 0c a1 51 bc 88 e6 ae bb 76 80 50 b9 a5 9b 85 bb
       -0.012794744 -0.00533754 -0.00019884281 -0.004077392
0001c0 2b 81 73 bc 22 2e 93 bc 41 ab 12 bc 27 07 8f bc
       -0.014862339 -0.017966334 -0.008951963 -0.017459465
0001d0 35 c2 ba bb ef 19 d6 3a 86 91 81 bc 06 f4 52 bb
       -0.005699421 0.0016334633 -0.015816461 -0.0032188906
0001e0 b7 65 6a bb 4c 10 14 bc 6b ef 08 bc b8 85 26 bc
       -0.0035766193 -0.009037089 -0.008357863 -0.010163717
0001f0 65 3b 5b bc 72 43 b0 bc a3 f5 2f bc de c8 ad bb
       -0.01338086 -0.021516535 -0.010739717 -0.0053034863

action_model._continuous_distribution.log_sigma f4 [1, 3]
000000 c8 b7 8a bc a4 6f 2a 3c 2c d5 19 3c
       -0.016933337 0.010402594 0.009389203

action_model._continuous_distribution.mu.weight f4 [3, 128]
000000 65 60 2b 3c ff 7f 05 3b 7a 23 1d 3c d5 4d ac bc
       0.010459994 0.002037048 0.009590978 -0.021033207
000010 35 6b 18 bc d9 b4 9b 3b 86 34 d8 39 4d 43 c8 3b
       -0.009302904 0.0047517833 0.00041237863 0.0061115385
000020 12 35 26 bb d1 7b 4a b9 81 69 8a 3b e4 f5 c2 bb
       -0.0025361222 -0.00019310346 0.004224003 -0.0059497226
000030 86 6b 2c bd 99 01 d6 bc ca f7 0e 3a 45 cc 92 3b
       -0.04209473 -0.026123809 0.00054537936 0.004479917
000040 ba 5d b4 3b e9 1b a2 bc 02 fe 0a 3d 25 5b 8e bb
       0.005504337 -0.0197887 0.033933647 -0.0043443614
000050 65 d4 7f 3c 47 2c 03 bc b6 b1 08 3c a5 ad 8f 3b
       0.015614604 -0.008006162 0.008343151 0.0043847137
000060 c3 da 13 3a b2 4d 36 3c 36 82 71 3c 46 2d 08 3a
       0.0005640203 0.011126922 0.014740517 0.00051947345
000070 6f 04 84 3c 56 c8 be 3a 2b 7e 19 bc 48 14 84 bc
       0.016115395 0.0014555554 -0.00936846 -0.016122952
000080 10 26 9f 3c 68 25 ae bc 38 a6 70 3c db ba 81 3a
       0.01942733 -0.021258071 0.014688067 0.0009897606
000090 05 31 b6 b9 f0 98 c9 3b f5 ac 84 bc 71 c4 9e 3b
       -0.00034750268 0.006152265 -0.016195754 0.004845195
0000a0 a9 c2 0c 38 4e 88 32 3a cb a6 7b bc 69 3a 99 bc
       3.3559892e-05 0.0006810472 -0.015359591 -0.01870461
0000b0 af a2 37 bb 57 0f 83 bb ba f5 a7 b9 08 5a e0 bc
       -0.002802055 -0.0039996314 -0.00032035803 -0.02738668
0000c0 c4 c9 50 3b 8f 20 e7 bb 3b 92 4b 3b 7d b5 4c bc
       0.0031858543 -0.007053442 0.0031062502 -0.012494442
0000d0 d7 05 06 3b a9 49 69 39 77 a3 a6 bc a3 2a 4a bc
       0.0020450258 0.00022248052 -0.020341618 -0.012339267
0000e0 e3 dd cd bb dd 08 c1 bc b0 27 3f bc 27 80 92 3c
       -0.0062825545 -0.023563797 -0.011667177 0.017883373
0000f0 a1 e3 2c 3c df 3c cc 37 4d c5 e9 bb 17 1c 09 bb
       0.010552318 2.434704e-05 -0.007134116 -0.0020921284
000100 f8 d0 34 3c 01 e8 4a bc 75 8d 69 bc 77 e3 ed bb
       0.01103615 -0.012384416 -0.014254917 -0.007259782
000110 18 25 3b 3c 43 9c 31 bc c1 4b 0f ba 4c d8 8f 3c
       0.011422418 -0.010840478 -0.00054663053 0.017559193
000120 80 11 15 3d cf a4 d8 3b 5e 43 f5 3b e9 9a 0f bc
       0.036393642 0.0066114436 0.0074848374 -0.008764961
000130 73 f5 4f 3c 45 0a 2d bb a3 00 fd bb 1c 0c ff bb
       0.012692797 -0.0026403826 -0.007721023 -0.007783426
000140 0c 73 fb ba f6 e7 90 3c b6 5c ab ba 26 1b ec 3a
       -0.0019184067 0.017688733 -0.0013073895 0.0018013462
000150 dd f7 5f 3c 84 2d ae 39 0b 8e 18 bc 0e 44 c6 bc
       0.013669935 0.00033221778 -0.009311209 -0.024202373
000160 d1 a8 42 39 14 3e ac bc bf ef 3e bc bf 49 d9 bb
       0.00018564171 -0.021025695 -0.01165384 -0.0066311057
000170 6f 9c b9 bb fb 32 34 3c 3e 27 8b 39 3b 79 09 bc
       -0.0056644003 0.010998483 0.00026541384 -0.00839072
000180 da bc a1 3a aa 9f db bc a0 31 e8 bb 42 1c 91 bb
       0.0012339607 -0.026809532 -0.007085994 -0.0044284174
000190 a5 6d 95 ba 3c 1e b9 ba de a2 fe bb ae 85 af b9
       -0.0011400474 -0.001412339 -0.00777088 -0.000334782
0001a0 9d 15 02 bc d0 68 12 bc 4f f3 88 3c b8 da a3 3b
       -0.007939723 -0.008936122 0.016717581 0.0050004385
0001b0 bc 0c e6 39 d1 13 04 bc 30 1b cb 3b 87 4c 0e b9
       0.00043878506 -0.008061365 0.0061983094 -0.00013570684
0001c0 d1 82 94 bb 4c 01 a2 3c db 67 cb bc e4 eb 08 bc
       -0.004532196 0.019776009 -0.024829796 -0.008357022
0001d0 64 c8 75 3b e2 8f b3 bc a5 a5 f2 3a e1 27 86 3c
       0.0037503475 -0.021919195 0.0018512501 0.016376438
0001e0 fc 6e ed b9 f8 e6 ea 3b 43 23 31 bc c9 b8 47 3b
       -0.00045286852 0.007168647 -0.01081163 0.003047513
0001f0 8e 06 97 bc 66 34 09 3c e5 86 c7 3b 85 2e cc 3b
       -0.018435743 0.008374309 0.0060890787 0.0062311315
000200 06 20 bc 3b 9e e1 3c bc 95 83 1e 3c fc 17 7b 3a
       0.005741122 -0.011528401 0.009674926 0.0009578464
000210 6e 57 2e 3c ac c2 79 3c 28 a2 91 39 2f 52 39 3c
       0.010640962 0.015244167 0.0002777737 0.011311098
000220 72 e0 1c bd df df ec 37 fc 48 c0 bb d8 2d c3 bb
       -0.038299985 2.823764e-05 -0.0058680754 -0.0059563927
000230 a0 e5 70 3c 93 bc fd 3b 92 3c 01 3b b7 f1 0e 3c
       0.014703184 0.007743427 0.001971994 0.0087246215
000240 93 0d 21 bc 5f 75 d6 3b 5f 30 9e 3b de a3 04 3c
       -0.0098298965 0.0065447534 0.0048275436 0.00809571
000250 79 ca ad bc ca 2f 8d 3b dd 43 ce bc b6 ab dc 3b
       -0.02121471 0.0043086754 -0.025178844 0.0067343367
000260 10 da c5 38 7b 5c 0b 3b aa 9d 6d 3b 87 2e 56 ba
       9.434309e-05 0.002126484 0.0036257305 -0.0008170385
000270 85 09 cd ba 6e 3b bf ba a2 7d 06 bc 26 0a ac bc
       -0.0015643096 -0.0014589855 -0.008208664 -0.021000933
000280 8a 93 f7 bb a6 2f c3 ba 13 57 08 3d 09 b0 39 3b
       -0.00755543 -0.001489152 0.033286165 0.0028333685
000290 ca 3a 13 3b 14 1b c7 3b b2 e5 c5 3c ac 76 c5 bb
       0.002246546 0.006076226 0.024157379 -0.0060261097
0002a0 45 16 13 39 85 10 bb ba 5b 07 19 3c a6 45 9b 3c
       0.00014027308 -0.0014271891 0.009340133 0.01895411
0002b0 f4 e0 9e 3a b5 76 86 3c 10 16 07 3a 78 0f e6 3b
       0.0012121485 0.016414026 0.0005153129 0.007020887
0002c0 1c ef 27 3c 6a c3 85 ba ac 1e 7a 3b 69 bf cb 3b
       0.010249879 -0.0010205333 0.0038165255 0.006217886
0002d0 02 be a4 b9 c4 99 06 39 28 b5 53 bb bf 4c 1b 3c
       -0.00031422084 0.00012836518 -0.0032304022 0.009478747
0002e0 c3 40 68 bc c8 7d 2a bc fc 37 9d b9 5c 66 db bc
       -0.014175597 -0.010405965 -0.00029987085 -0.026782207
0002f0 fd 65 85 bc 47 62 69 b8 71 38 19 3c 5a 09 c3 3b
       -0.016283983 -5.5643057e-05 0.009351836 0.0059520425
000300 7c 18 99 3b ff c5 c4 bb 75 76 a5 bc fc be 36 3b
       0.004672108 -0.0060050483 -0.020198086 0.0027884832
000310 8f a4 d7 3b 4f 1f 3f 3b c0 71 21 3a eb e4 f8 bb
       0.006580896 0.0029162948 0.00061586127 -0.0075956485
000320 6e ac d5 bc 23 9a df 3c 8f 27 64 3b 4f c8 a7 3b
       -0.026083197 0.027295178 0.0034813618 0.005120314
000330 d5 e4 ee 3c cd 57 55 3b bd e5 14 3d 2a 97 17 bc
       0.02916185 0.0032553554 0.036351908 -0.009252349
000340 63 a3 23 3b 76 f2 83 3a a1 2f 9a bb 22 54 34 bc
       0.0024969212 0.0010066766 -0.004705385 -0.011006387
000350 e2 71 18 3c 3a 94 23 ba da 2f 25 3d 87 77 25 bb
       0.0093044955 -0.0006240044 0.040328838 -0.0025248246
000360 e9 dc fd b8 12 8e 47 3d c1 de 8e 3b a7 04 51 3b
       -0.00012105128 0.048719473 0.0043600504 0.0031893642
000370 8b f3 2b 3c 03 44 ad 3a 01 72 e1 b9 c3 be aa 3b
       0.010495077 0.0013219122 -0.00043000284 0.005210729
000380 8b 14 f8 3a 95 6d a8 bb b3 b4 76 3b 86 b2 08 bc
       0.0018927021 -0.0051400163 0.0037644326 -0.008343345
000390 d7 69 d3 3b 25 d0 8f b9 4c bd 88 3b e0 d0 ea bb
       0.006451826 -0.00027430165 0.0041729566 -0.007166013
0003a0 5d 1a e9 39 9e f9 f3 3b dd da 09 3c c3 d7 23 bc
       0.00044460865 0.007445528 0.0084139975 -0.010000172
0003b0 e6 fe c9 bb 20 4c f8 3b de e0 02 3d a6 bc 34 b9
       -0.0061644195 0.007577434 0.03195273 -0.00017236415
0003c0 b3 1f 33 bc 9b b3 71 3c e4 f9 ab bb f5 5c 06 3c
       -0.010932851 0.014752294 -0.005248295 0.008200874
0003d0 3e 41 00 bc b5 3a 1a bc fd d3 e6 bb 96 cb 82 bc
       -0.007828055 -0.009413411 -0.007044314 -0.015966218
0003e0 e4 16 8b 38 8e 95 1d bc f7 3e 44 3c f5 43 3d 3b
       6.6323e-05 -0.009618176 0.011977903 0.0028879617
0003f0 56 b7 32 bc 45 81 b5 ba 84 82 21 3b 84 2c 7e bb
       -0.0109079685 -0.001384773 0.0024644444 -0.0038783858

action_model._continuous_distribution.mu.bias f4 [3]
000000 50 bc 11 3c 16 45 ba ba db 54 13 3c
       0.008894995 -0.0014211263 0.008992399
