results/CurveRoad1.3/CarAgent/CarAgent-4608.pt (torch, 492066 bytes, 36 tensors)

network_body._body_endoder.seq_layers.0.weight f4 [128, 22]
000000 e7 a1 dc bd b3 e6 fc 3e 87 64 09 bd 27 f9 b1 bd
       -0.10773068 0.4939476 -0.033543136 -0.086901
000010 96 d9 58 3d 5b 40 c7 bd 74 f7 1c bd af e8 3b 3c
       0.05294188 -0.09729072 -0.038321927 0.01146905
000020 69 57 50 3d b6 b8 72 be a1 1a 2b 3e d8 82 9a 3e
       0.05086461 -0.23703274 0.16709377 0.3017795
000030 fc 85 b8 3e 3b fb 8a be 9f 43 9a 3e f3 96 1a be
       0.36039722 -0.271448 0.30129716 -0.15096645
000040 eb eb 65 3e 48 88 6d 3d b9 a0 04 be a6 c3 1a 3e
       0.22453277 0.057991296 -0.12951936 0.15113696
000050 7e 6a 5a be bf 65 b5 be 4f 26 2a 3e 97 a3 39 3d
       -0.21329686 -0.3542919 0.16616176 0.045322027
000060 b1 47 df 3e 85 e1 95 be a0 cf 1f 3d f3 94 99 bd
       0.43609384 -0.2927362 0.039016366 -0.07499113
000070 f2 03 a1 bd c1 56 74 3e 7a d9 2a 3d 39 cf 2d 3d
       -0.07862081 0.23861219 0.041711308 0.04243395
000080 c1 24 f8 3d 1f 13 9f 3c 41 eb 6d 3e 6f 25 a4 bd
       0.12116385 0.019418297 0.23234273 -0.080149524
000090 e9 43 20 bb 0c 9f 58 be b6 51 7d be 04 b4 f7 be
       -0.002445454 -0.21154422 -0.24738201 -0.4837953
0000a0 90 9e 76 be 7e 41 61 be 39 10 c6 bd ae 48 fe 3d
       -0.24083924 -0.2199764 -0.09671063 0.12416206
0000b0 d3 8e eb bc 24 cd b6 3e 8b 38 07 3e ad db 05 3f
       -0.028754627 0.35703385 0.13205163 0.52288324
0000c0 6f 01 59 3e 00 71 91 3e ac d8 9b 3d 30 1e 19 3e
       0.21191953 0.28406525 0.07609686 0.14952922
0000d0 e0 38 07 3e b4 be a8 3b 97 e1 7a be d0 80 a7 ba
       0.1320529 0.0051496867 -0.24500118 -0.0012779478
0000e0 bd 60 df 3d 78 b9 db be d8 c3 20 be 57 73 d1 3b
       0.10907123 -0.4291494 -0.15699708 0.0063919234
0000f0 89 b7 9f 3e ee 31 bb be 31 ed 92 3e c7 ff 8c 3e
       0.31194714 -0.3656153 0.28696588 0.27538893
000100 4b 7f 87 bc 91 d7 4c 3e 69 24 c0 be e6 a0 38 3e
       -0.01654019 0.20004107 -0.3752778 0.18030128
000110 f9 62 c6 3c c6 ee 79 bd 5a ef b3 bd 9c 76 10 be
       0.024217116 -0.061018728 -0.08785887 -0.14107746
000120 7e d4 34 bd da ab 1b be 84 c7 7b 3e b8 4f ad bd
       -0.04414796 -0.15202275 0.24587828 -0.08462471
000130 1a 54 b3 bd ff bb 11 bf f6 fc aa 3e c2 3b f2 3c
       -0.087562755 -0.56927484 0.3339612 0.02956951
000140 9f 50 57 be c3 d3 89 be d2 e8 81 be 23 02 3c bd
       -0.21026848 -0.26919374 -0.2537294 -0.045900475
000150 e2 a7 52 be ae e2 1c 3e 49 e3 d8 bc ed 4f 36 3e
       -0.20571855 0.15320846 -0.026475566 0.17803927
000160 95 ff 86 bd 98 fd 1b 3e 74 71 26 be 40 7b 44 3e
       -0.06591717 0.15233457 -0.16254216 0.19187641
000170 ce c5 28 bc 1b 98 40 bb 5e d8 81 3d ae f4 9c be
       -0.010301067 -0.0029387537 0.06340097 -0.30655426
000180 3a 58 d6 3c 57 de 74 be d0 5d 28 be bf dd d0 3c
       0.026165117 -0.23912941 -0.16442037 0.025496362
000190 5f 87 8a bd 2b 9c 78 be 0f f6 d6 be 61 94 b9 bd
       -0.06764101 -0.24278323 -0.41984603 -0.09061504
0001a0 52 3c 4f be c7 a3 88 3e fc c1 62 3d ab e1 0e bf
       -0.20237854 0.26687452 0.05536078 -0.5581309
0001b0 6b 2f 8a 3e e5 2b 9a bc c8 48 28 bd ca a7 85 3e
       0.26989302 -0.018819759 -0.041085035 0.26104575
0001c0 8e 2a 94 3d ca d3 a5 3d 6c 78 f7 be db 93 81 3e
       0.07234679 0.08097036 -0.48334062 0.25308117
0001d0 dd 4a b6 3d c4 66 38 be ca 1d 48 3e 83 7d 91 bd
       0.08900998 -0.18007952 0.19542614 -0.071040176
0001e0 eb 08 8a 3c 9b a9 ab 3e 5e 46 0a 3d d1 f1 4a 3e
       0.016849956 0.33527836 0.033758514 0.19818808
0001f0 a4 35 21 be 18 c9 15 3e 0c 48 1b 3d b0 e1 18 3e
       -0.15743119 0.14627492 0.037910506 0.14929843
000200 ec 31 28 be 00 8a 22 be ec c0 6d be 0d e5 e2 3e
       -0.16425294 -0.15872955 -0.23218125 0.44315377
000210 d3 b7 83 3d 94 74 bd bc f7 de 72 be 71 6b 8e be
       0.06431546 -0.023126878 -0.23717867 -0.27816346
000220 8a 21 cd 3e ac 90 29 3e 48 6e a8 be eb 1c 44 3d
       0.4006465 0.16559094 -0.32896638 0.04787914
000230 88 0f 8b 3e 22 0d bc 3e f5 14 b1 3d f5 41 c0 3c
       0.27160287 0.3672877 0.08646575 0.02346895
000240 6e 4d 0a 3f 1a b2 99 3e 1e e1 17 3d 7a ba 64 be
       0.540244 0.30018693 0.037079923 -0.2233676
000250 c2 59 fb bd f8 25 61 3d ef 50 63 be 9b 1e 2a 3e
       -0.12272979 0.05496785 -0.22198842 0.16613238
000260 bc e5 ad bd d3 b6 a7 be ca 70 97 be 87 e8 d2 3d
       -0.08491084 -0.3275667 -0.2957824 0.10298257
000270 fa d0 74 bb 02 41 95 3c a6 65 47 3d 8c ee 21 3f
       -0.0037356005 0.018219475 0.048680924 0.6325462
000280 44 22 ad bd 4b ae f5 bd af 54 fa 3d a1 54 77 3e
       -0.08453801 -0.11996134 0.12223183 0.24153377
000290 f5 ba 23 bd 4d 59 60 be 57 f6 b8 3e c2 e3 a8 3d
       -0.039973218 -0.21909066 0.36125442 0.08246566
0002a0 3e 88 55 3d 5e f2 03 be 69 1a 88 bd 61 4b 0b bd
       0.052131884 -0.12885424 -0.06645662 -0.034007434
0002b0 29 20 3b 3e 61 04 9e bc af ad 00 3e b0 5f aa 3d
       0.18273987 -0.019289197 0.12566255 0.08319032
0002c0 49 6f d4 3d 7d 38 8d 3e 97 91 54 3d d9 a9 3d bd
       0.103727885 0.2758216 0.051896658 -0.046304557
0002d0 09 2f a1 3e bb 12 5e 3e 1a 78 aa 3e 92 6c 0d 3d
       0.31481197 0.21686833 0.33294755 0.03452737
0002e0 4e a5 38 be e9 57 45 3d 4b 19 2e 3d 0f 63 31 be
       -0.18031809 0.04817954 0.04250459 -0.17322944
0002f0 6d d3 b9 3e f6 93 86 ba b4 86 be be 6d 78 90 3d
       0.36294118 -0.0010267484 -0.37212145 0.070542194
000300 2a d0 39 3e 65 b6 85 be 99 66 2d be d1 c8 da bd
       0.18145815 -0.26115718 -0.16933669 -0.10682834
000310 52 2b c0 bd 0e 09 1f 3e 9b af e7 3c 3d 56 f7 3e
       -0.09383263 0.15530798 0.028281977 0.48307982
000320 6b b6 92 be d7 c7 f3 3b d7 b1 8f 3d bb 04 39 bd
       -0.286548 0.0074395943 0.07016342 -0.045170527
000330 7b 8d a4 3e 7d f8 ae 3d d1 c2 fb bd 9c f9 60 bd
       0.3213919 0.08543489 -0.12293018 -0.054925546
000340 78 6b 08 be 8f 53 52 3e d3 ee da bc 14 aa 77 3e
       -0.13322246 0.20539688 -0.026725208 0.24185973
000350 f0 4f 1e 3c 31 06 04 be 0c c9 cf bd 70 57 fc 3d
       0.009662613 -0.12892987 -0.101457685 0.12321365
000360 9c 92 34 be f2 51 15 bf 95 08 86 3e f8 a5 94 be
       -0.17634052 -0.58328164 0.26178423 -0.29032874
000370 98 9c 87 bd 5f 9c 2a be 6f 30 a3 be 89 9b e0 3d
       -0.06621665 -0.16661213 -0.3187289 0.10967166
000380 1f 4b 66 be d9 27 d1 be 2d 9f cd be 7e be 19 3c
       -0.22489594 -0.40850714 -0.40160504 0.009383796
000390 3e 39 29 be 4c 72 f1 3e c4 9f a2 b9 25 3e a8 bd
       -0.16525742 0.47157514 -0.00031018083 -0.08214978
0003a0 99 a7 a2 be 43 cf 1f bd 10 5a 7e bd 79 ac 27 be
       -0.31768492 -0.03901602 -0.06209761 -0.16374387
0003b0 a2 ae 23 be 87 97 ef bc 90 98 01 be b5 98 35 3d
       -0.15984586 -0.029247059 -0.12655854 0.044335086
0003c0 fd 3d cf bc 13 81 19 be 0b d8 45 3d 60 66 5f bc
       -0.025298113 -0.14990644 0.048301738 -0.013635248
0003d0 62 6b 21 3c 61 1a f3 bd 0a 3f df 3e 2b c9 05 3e
       0.009852262 -0.11870266 0.43602782 0.1306502
0003e0 b7 6f e0 3c e1 04 51 be d8 21 56 be 14 dc 89 3c
       0.02739702 -0.20412017 -0.20911348 0.016828574
0003f0 80 67 25 be 45 7d 0c bf ca 8d bc bd 2c 97 33 bd
       -0.16152763 -0.54878646 -0.092067316 -0.04384534

network_body._body_endoder.seq_layers.0.bias f4 [128]
000000 16 24 70 bb e5 75 a3 bb 1e 90 7d 38 26 86 8e bb
       -0.0036642603 -0.0049884194 6.045412e-05 -0.004349488
000010 0e 7c ce bb 1e 9d a3 bb 67 7d 81 3b f0 da 93 bb
       -0.0063014096 -0.004993095 0.0039517167 -0.0045121834
000020 be 1e 8d 3a 25 4b 1d bc 08 9a b5 b9 4a 03 b6 3b
       0.0010766608 -0.009600435 -0.00034637772 0.0055545913
000030 da 5f 99 bb 88 1c d2 bc 25 7f c1 bb bf a4 11 ba
       -0.004680616 -0.02564837 -0.0059050494 -0.000555586
000040 2b 28 c6 ba 30 d8 98 bc d2 52 a3 ba 8d 74 16 ba
       -0.0015118172 -0.018657774 -0.0012460595 -0.00057394133
000050 59 df 09 3a 2a 62 13 bc 0b 9c de bc a9 4b 34 bc
       0.00052594166 -0.008995572 -0.027174016 -0.011004367
000060 fa bb 01 39 aa 9f 17 bc f6 81 55 bc bc ff c7 bb
       0.00012372425 -0.0092543755 -0.013031473 -0.006103484
000070 67 d0 6c bb 85 f0 92 bb b3 51 ef ba 36 f8 30 bb
       -0.003613496 -0.0044842386 -0.0018258601 -0.0027003414
000080 fc 62 07 bc 1d 33 98 bb 4e 04 d8 bb 27 50 d0 3a
       -0.008263346 -0.004644765 -0.00659231 0.0015893028
000090 ba f6 18 bc 46 76 b4 bb b7 a5 50 bb 14 3c b5 bb
       -0.009336168 -0.0055072634 -0.0031837055 -0.0055308435
0000a0 55 17 6a bb b0 df 87 3b f7 75 8d bc 23 30 5b 39
       -0.0035719473 0.0041465387 -0.017268164 0.000209034
0000b0 59 c9 b1 bb f2 fb 13 bb bd fd 29 bb a0 1a 06 bc
       -0.005425614 -0.002258059 -0.0025938593 -0.008185059
0000c0 ac a9 64 39 49 48 4a bb 5c 4d 52 37 a1 6d e4 bb
       0.00021806982 -0.003086584 1.2534987e-05 -0.0069710766
0000d0 39 54 0a 3c 25 9c d7 39 9c b8 84 b9 0a 97 d6 bb
       0.008442932 0.00041124332 -0.00025314547 -0.006548767
0000e0 05 5f 3c bb 9f 48 72 bb 5c 38 d4 3b 82 c6 4a ba
       -0.002874316 -0.0036969555 0.006476445 -0.00077352684
0000f0 2a ae 98 bc fb 3f ce bb c9 27 6f bb d8 ee f9 bb
       -0.018637735 -0.006294248 -0.003649222 -0.0076273493
000100 74 f4 77 bc 94 08 68 3b 7c c6 e0 bb 8b 99 9e 3a
       -0.015133966 0.0035405504 -0.0068595987 0.0012100203
000110 11 36 a5 ba f3 60 30 bc f0 d8 f7 bb 7a 0b 4f 3c
       -0.0012604614 -0.010765302 -0.0075637028 0.012637014
000120 b0 2c 26 bc 70 13 52 bc 4c 4f 8a 3a c6 f0 97 bb
       -0.01014249 -0.012822017 0.0010552197 -0.0046368567
000130 df e2 03 bb f2 64 a2 bb d2 dc 96 3b 18 eb a0 3a
       -0.002012424 -0.0049558813 0.0046039606 0.0012277095
000140 10 9f ca bb 7a cb 27 bc 89 57 c4 bc 51 0d 04 3a
       -0.0061835125 -0.010241384 -0.023967521 0.00050373847
000150 40 e2 56 bc a2 ff 57 bc 92 2b 59 3c 8a 53 f9 bc
       -0.013115466 -0.013183506 0.013255017 -0.030435342
000160 4a 21 bc ba db 2a 46 3a d0 63 66 3b 35 f2 b4 3b
       -0.0014353183 0.00075594865 0.0035154708 0.0055220374
000170 18 08 64 bc ce f1 12 bc b8 bc 10 3b 0c 33 03 bb
       -0.013917945 -0.008968784 0.0022085141 -0.002001944
000180 3c ad 30 3a 60 b2 3c 3b 40 e9 3e bb 17 78 50 ba
       0.0006739681 0.0028792843 -0.0029130727 -0.0007952465
000190 a2 e0 a3 bc 51 12 1f bc 4b 31 bf 3a dd e3 c7 bb
       -0.020004574 -0.009708957 0.0014586834 -0.0061001615
0001a0 dd 86 8d bb c9 e7 67 bb 2f 10 09 39 f8 e7 bc 3b
       -0.0043190555 -0.0035385957 0.00013071367 0.0057649575
0001b0 c4 17 11 37 a9 bf ab bb de ea 03 3b ef fc b2 3c
       8.648207e-06 -0.0052413535 0.0020129005 0.021849124
0001c0 2c c3 a5 3b c8 5b 0f bc c0 8f 96 3b ea 76 85 bc
       0.0050586667 -0.00874991 0.004594773 -0.016292054
0001d0 c6 64 b1 3b 70 76 70 39 64 3e 40 bc 30 40 ce 3b
       0.0054136245 0.00022932305 -0.011733625 0.006294273
0001e0 fd 7f 74 3b 3d ba 84 3a 6f 50 85 bb 09 54 18 39
       0.0037307732 0.0010126304 -0.0040684263 0.00014527155
0001f0 8e 78 3c 3b 96 d0 68 bc cb 4b bc bb 59 83 a9 bb
       0.002875838 -0.014209887 -0.00574634 -0.0051731286

network_body._body_endoder.seq_layers.2.weight f4 [128, 128]
000000 96 dd 19 3d 95 45 2e 3d 83 75 f3 3d 74 12 8c 3d
       0.037564836 0.042546827 0.11887648 0.06839457
000010 0e c6 20 3d 54 94 ef 3c e4 ce 97 bd fb fd ce 3d
       0.03925138 0.029245533 -0.07412508 0.10107037
000020 2b 39 8f 3d 5e 16 ca 39 9b 03 04 bd c4 2d 2f be
       0.06993326 0.00038545107 -0.03223 -0.17107302
000030 4e 14 98 3c e8 6c 96 bd 6c 82 2f 3d 6e 99 c0 bd
       0.01856437 -0.07344991 0.04284899 -0.094042644
000040 71 00 78 3d b3 43 82 3d b7 a6 15 3e 19 91 79 3d
       0.060547296 0.06360569 0.14614378 0.06092939
000050 71 c9 a0 bd 63 07 1b 3d 96 f6 ff bd 8c 73 1f bd
       -0.07850922 0.03784884 -0.124982044 -0.038928553
000060 c4 c8 24 3d 97 83 ec bc cf 84 bd 3c e2 f6 c9 3b
       0.040230528 -0.02887134 0.023134617 0.006163464
000070 5c 9b f7 3c f0 37 71 3d 8e 0a e8 ba 07 b1 01 bc
       0.030225448 0.058891237 -0.0017703341 -0.007915742
000080 e4 79 1b 3e c5 2f bc 3c 48 c6 c5 3c 65 59 1a bd
       0.15183216 0.022971997 0.0241424 -0.03768291
000090 95 05 9a 3c c3 4f 55 3c e9 24 80 3d 73 ed 34 bd
       0.01880149 0.013019505 0.0625704 -0.04417176
0000a0 e8 9d 05 bd e0 1b 06 3e d1 41 07 bd 04 f5 9e 3d
       -0.032621294 0.13096571 -0.03302175 0.07761577
0000b0 99 16 5c be 84 64 1a bc 49 28 1b bd a9 d7 36 be
       -0.21492995 -0.009423379 -0.037880216 -0.17855705
0000c0 64 51 90 3d 4f 99 74 bd 43 3c ee bc 47 15 b7 bc
       0.07046774 -0.05971652 -0.02908147 -0.022349013
0000d0 c0 45 d8 3d 36 e2 6e 3c 84 1a f7 3d ba 73 b0 3d
       0.10560179 0.0145803 0.12065604 0.08615823
0000e0 fc 27 bf 3d 9e 8b 2c be fc ad 15 3e d7 97 43 bd
       0.09333798 -0.16850135 0.14617151 -0.047752228
0000f0 27 1a 9a 3c bc e0 73 bc b7 ab 05 bd 51 be 55 be
       0.018811299 -0.014885124 -0.032634463 -0.20873381
000100 9b 21 8b 3d ad a5 df 3d c8 41 87 3d 31 b9 98 bd
       0.06793519 0.10920272 0.06604344 -0.074571975
000110 a7 a5 86 bc 1a a9 fd 3d 9f 0c 4f 3d ae fa 62 3d
       -0.016436411 0.12385769 0.050549146 0.055414848
000120 02 be 5c bc e0 a2 54 bc 8b 12 f5 3d 29 f6 33 3d
       -0.013473036 -0.012978286 0.119664274 0.04393593
000130 f5 bd 8c bc 15 48 0b 3e 08 9f ac bd 20 b6 4d bd
       -0.017180422 0.13601716 -0.0842877 -0.050222516
000140 6c b2 a8 3d 2d 01 2a 3d 7b 68 c5 bd 54 83 69 3c
       0.08237156 0.041505028 -0.09639069 0.0142525025
000150 5c 93 9b 3d 97 28 9a 3d 74 68 25 3e cb 48 57 bd
       0.07596466 0.07527273 0.16153127 -0.052559655
000160 aa b7 33 bd 7a 79 04 be 3a 5e 08 be c4 87 7f bc
       -0.043876328 -0.12936965 -0.13317195 -0.015596334
000170 73 b6 6c 3c a8 9d 2d bd 6c a9 eb bb 46 7f ea 3c
       0.014447796 -0.04238668 -0.0071918275 0.028625142
000180 08 cb 40 bd f8 12 ce bc 23 a4 d6 3c 7f 62 c8 bc
       -0.047068626 -0.02515553 0.026201313 -0.02446103
000190 ee 0b c5 3c 8a 00 86 3d 76 77 d1 bb a3 81 a3 bd
       0.02405354 0.065430716 -0.0063924147 -0.079837106
0001a0 dd 3a 76 be 60 08 7b 3c 4c 5b 9b bd eb 8d 63 bc
       -0.24045892 0.015321821 -0.07585773 -0.013888816
0001b0 72 d0 1b bd f8 83 6a bc d1 80 6f 3e 10 89 ac 3b
       -0.038040586 -0.01431369 0.23388983 0.0052653626
0001c0 1d 98 d7 3d 48 c2 88 bb a1 cf a3 3d 63 fc 50 be
       0.1052706 -0.0041735508 0.079985864 -0.20408778
0001d0 ee 87 b9 bd 91 27 9c 3d 50 03 96 3d c1 c5 16 3d
       -0.0905913 0.07624734 0.073248506 0.036809687
0001e0 ef d8 21 bd bf c5 b4 3c d7 52 4c 3d 06 2e b5 bc
       -0.039513525 0.022066949 0.04988369 -0.022116672
0001f0 51 0d bd bd fd 5d 83 3d 9b 18 1c 3d 3c 1d 8a bd
       -0.092310555 0.06414411 0.038109403 -0.06743857
000200 c4 97 09 3e 21 f7 ee 3d fd e3 86 3c 42 83 78 bd
       0.134368 0.1166823 0.016466135 -0.060672052
000210 41 8a 8f 3c f6 5e 16 be 12 14 ba 3c 0a 0f de bd
       0.01752198 -0.14684662 0.022714648 -0.10842712
000220 ff ab 3e be 72 c5 35 be 8f ee f6 bd d5 49 1a be
       -0.18620299 -0.177511 -0.1205722 -0.15067227
000230 b3 71 44 bd 14 c4 d3 bd c2 6e cd bd 59 82 fc 3d
       -0.047959995 -0.10340133 -0.10030891 0.12329549
000240 58 a7 1e 3d 83 e1 09 3c ec 53 9d 3c a4 77 99 bd
       0.03873381 0.008415583 0.019205056 -0.07493523
000250 4c d7 77 3d 5c af 70 bd 29 30 00 3c dc 39 99 3d
       0.060508057 -0.058760986 0.007823982 0.07481739
000260 b4 6b d7 bd f8 9b e7 3d e8 88 8f bd 3c 95 71 3d
       -0.105185896 0.113090456 -0.07008535 0.05898021
000270 a7 9a 96 bd f3 fd 11 bd 84 49 4b 3d 36 6d 9c bd
       -0.07353716 -0.035642575 0.049630657 -0.07638018
000280 a0 20 4f 3d ab b8 39 3d 20 fd 83 bc c5 9b 25 3d
       0.050568223 0.04534213 -0.01611191 0.040431757
000290 b1 53 ac bc e8 40 19 bd 28 ec 8c 3b 1c 08 c1 3d
       -0.021036 -0.037415415 0.004300613 0.09425375
0002a0 47 0f 21 3e 0b 93 17 be d2 71 4b b9 75 2c 9c bd
       0.15728484 -0.14802186 -0.0001940199 -0.07625667
0002b0 ab 58 bf 3c dc 51 31 bd 17 cc 90 3d d2 a6 8b bd
       0.02335771 -0.043290958 0.07070177 -0.06818928
0002c0 32 ad d1 bd d9 85 11 3e 14 35 7e bd f4 cf 1f be
       -0.102381125 0.14211215 -0.062062338 -0.15606672
0002d0 b1 48 46 3d 04 f4 44 3d 7e 6e 45 3e 0b c4 5b 3c
       0.048409168 0.048084274 0.1928043 0.0134134395
0002e0 11 64 4f bd e9 8d 72 3e f8 21 e2 bd a1 a0 e4 3d
       -0.05063254 0.23686947 -0.11041635 0.1116345
0002f0 57 3b b1 3d b9 66 cd bc 7e c3 82 bc c9 88 b5 bd
       0.08653896 -0.025073396 -0.015962359 -0.0886398
000300 97 e0 67 be e0 4d cb bb 66 3c 8f 3d 2f df 85 bc
       -0.22644268 -0.006204352 0.06993942 -0.016341774
000310 e5 7a 85 bc b9 ad 62 3d 61 95 e4 3c a6 de a4 bd
       -0.016293952 0.055341456 0.02790326 -0.08050279
000320 20 75 d3 bd 14 f0 c5 ba 36 a1 4f 3c 3c 80 ae 3d
       -0.10325074 -0.0015101456 0.012672713 0.085205525
000330 5e f3 d1 3a 46 00 b2 3d fd 67 ae bd 94 f5 0f be
       0.0016017964 0.086914584 -0.08515928 -0.14058524
000340 84 af b3 bd 34 fb d6 3c 71 c3 7e 3d 98 16 e2 bd
       -0.08773711 0.02624283 0.062198106 -0.11039466
000350 e4 62 83 bd a0 32 12 be 81 56 0c 3c 43 2b 10 be
       -0.06415346 -0.14277124 0.008565546 -0.14079003
000360 9b 86 db bd d6 dd b5 3d ab 53 b1 3c 05 5c 32 3e
       -0.10719033 0.088802025 0.021646341 0.17417915
000370 5d 9f 27 be ce 6a ea bc 08 4b 30 bc 1c 88 24 be
       -0.16369386 -0.028615382 -0.010760076 -0.16067547
000380 4b 36 32 3c f0 09 be bd 35 55 c3 3d 8d d6 ac 3c
       0.010877202 -0.09279239 0.09537736 0.0210984
000390 a6 47 cc bc 90 ff e1 3c 10 fc 1b bd fd 21 47 3e
       -0.024936508 0.027587682 -0.038082182 0.19446559
0003a0 ed d8 ce bc 34 f5 06 3e 65 6a c4 3d 1d 78 b9 bd
       -0.025249923 0.13179475 0.09590606 -0.09056113
0003b0 33 f7 37 3e 62 8d bd bb b2 1d 3e 3d 7d d3 3e bd
       0.17965393 -0.0057846764 0.04641504 -0.04658841
0003c0 3a 05 09 3e e1 27 ae bd 4f a9 60 3d 39 dd 39 be
       0.133809 -0.085037 0.054848965 -0.18150796
0003d0 af 9b e0 3d 98 ea 84 3d bf ce 10 3e 10 a4 87 3d
       0.10967194 0.06490058 0.14141367 0.06623089
0003e0 e1 d6 bb 3d f3 30 dd 3c 67 9c 99 3c da 68 ad bd
       0.09171844 0.02700088 0.018751336 -0.084672645
0003f0 98 53 4c bd f9 44 4a be 41 43 f9 bd 08 18 d0 bc
       -0.04988441 -0.19752873 -0.12171031 -0.025402084

network_body._body_endoder.seq_layers.2.bias f4 [128]
000000 cc c4 9f bb 15 f4 c5 ba f6 91 ab bb d8 59 c4 bb
       -0.004875755 -0.0015102649 -0.0052359058 -0.0059921555
000010 63 0a 08 bc b1 93 0a bc aa 6a 6a bb 2d 0b e0 bb
       -0.008303258 -0.008458064 -0.0035769143 -0.0068372698
000020 4f c1 b6 bb b7 77 b4 bb 03 45 ce bb f6 e1 e7 bb
       -0.0055772434 -0.005507435 -0.006294848 -0.007076497
000030 10 42 aa bb 4c 0c de bb c3 d3 38 bb ac 25 73 bb
       -0.0051958635 -0.0067763682 -0.0028202392 -0.0037101312
000040 67 5a 2a 39 47 25 2b bb ad 08 8f bb 67 cc 98 bb
       0.00016246141 -0.0026114748 -0.004365048 -0.0046630385
000050 f5 a1 13 bc 91 ae 1a bb ff bb 72 bb 24 5d 7a bb
       -0.0090107815 -0.0023602585 -0.0037038324 -0.0038202489
000060 a9 73 40 bc 98 fa 91 bb 36 31 1b bc 43 81 8b bb
       -0.0117463255 -0.004454922 -0.009472182 -0.0042573526
000070 7c 0b a0 bb db d1 b8 bb dc b0 c1 bb 42 f8 3f bb
       -0.0048841815 -0.005640251 -0.005910976 -0.002929226
000080 39 1e 1c bc ad 8e 46 39 a7 6e b1 3a ce 07 6d bb
       -0.00952869 0.00018935902 0.0013537005 -0.0036167982
000090 3a 64 d7 bb 13 e8 cd 3a 81 95 92 bb e3 11 0e bb
       -0.0065732272 0.0015709422 -0.0044733887 -0.0021678142
0000a0 cf df 71 bc e1 0b b8 bb cd ff 0e bc e4 68 ab bb
       -0.014762833 -0.0056166505 -0.00872798 -0.00523101
0000b0 7f 2c dd bb 0c 9b 0c bb 64 74 88 bb 1b a7 ab bb
       -0.006749689 -0.002145472 -0.0041642655 -0.0052384264
0000c0 05 60 f2 bb 0a 6a 97 bb e2 4b 0b bc e6 48 03 bc
       -0.0073967003 -0.004620795 -0.008501979 -0.008012986
0000d0 1d d4 19 bc 1a ad e6 bb c3 75 82 bb c9 72 e2 bb
       -0.009388951 -0.0070396783 -0.0039813234 -0.006910656
0000e0 1c 31 e9 bb f9 22 94 bb 9e b4 00 bc 27 2a ac bb
       -0.00711645 -0.0045207706 -0.0078555625 -0.0052540484
0000f0 73 92 84 bb 43 24 f2 bb c9 cc 25 bc 5a 75 dd bb
       -0.0040457784 -0.0073895766 -0.010119625 -0.006758374
000100 a5 ad d5 bb 37 22 54 bc 92 a9 3b 38 fa aa 80 bb
       -0.006520944 -0.012947611 4.47422e-05 -0.003926632
000110 32 ce 30 bb 52 ba fc bb 80 1a d8 bb 8f f1 12 bc
       -0.002697837 -0.007712641 -0.006594956 -0.008968725
000120 21 e9 9c bb e8 91 d1 bb 7e b8 89 bb 2a be dd bb
       -0.0047885333 -0.006395567 -0.0042029014 -0.006767054
000130 03 e4 71 b9 0a 53 8a bb dd b3 13 bb 5b 01 85 bb
       -0.00023068492 -0.004221325 -0.0022537627 -0.0040589995
000140 4d 93 b3 ba 57 a1 d2 bb a7 2a ab bb c3 60 00 bb
       -0.0013700515 -0.0064279246 -0.0052235904 -0.0019588924
000150 34 70 d6 bb 90 5f ad bb c5 80 14 bb 5d 95 48 bb
       -0.0065441374 -0.005290933 -0.002265976 -0.0030606606
000160 31 6f 11 bb d9 45 06 bc 47 a6 04 bb f4 38 a7 bb
       -0.002219152 -0.008195364 -0.002024071 -0.005103225
000170 39 a2 c4 b9 33 a2 f7 3a d0 7e ba bb 1b 44 e6 bb
       -0.00037504899 0.0018892944 -0.0056913868 -0.007027162
000180 b3 60 df bb be d4 12 bc 72 26 39 bc 70 7d 10 bb
       -0.0068169474 -0.0089618545 -0.01130067 -0.0022047423
000190 c4 d5 b8 bb 3e 3d c9 bb 2d 9e 2a ba 07 b3 33 bb
       -0.005640717 -0.006141334 -0.00065085554 -0.002741994
0001a0 b0 19 e5 bb 3d 21 08 bc 70 76 9f bb 52 50 45 ba
       -0.0069915876 -0.008308706 -0.004866414 -0.0007526922
0001b0 65 b5 ad bb ab e1 d8 bb 6f 6c 22 bc 56 86 f4 bb
       -0.005301165 -0.0066186986 -0.009913548 -0.007462303
0001c0 8a dc de bb 4e 26 02 bc eb e8 4e bc 90 70 28 bb
       -0.0068011926 -0.007943703 -0.012628774 -0.0025701858
0001d0 61 19 0d bc 60 c5 e1 bb 4a ed 59 bb b4 56 92 bb
       -0.008612008 -0.006889984 -0.0033253008 -0.004465902
0001e0 a6 81 a7 ba 76 89 14 bc 37 c0 a2 bb 1f c1 03 bc
       -0.0012779727 -0.009065976 -0.0049667615 -0.008041649
0001f0 d0 a2 0d bb 33 51 d3 bb 76 96 06 bc 7b c5 45 bc
       -0.0021611936 -0.0064488887 -0.008214584 -0.012071009

action_model._continuous_distribution.log_sigma f4 [1, 3]
000000 7f 21 b8 bc 3f 71 f8 bc 99 7a 92 bc
       -0.02247691 -0.030327437 -0.017880725

action_model._continuous_distribution.mu.weight f4 [3, 128]
000000 dc 99 b7 3b 51 b3 d4 3c 40 fa bb 3b fc ed 10 3d
       0.0056030583 0.025964411 0.0057366192 0.03538321
000010 8b 2b 4b bc 29 e1 96 bb 18 39 33 3a dc 3a de bc
       -0.012400518 -0.004604478 0.0006836816 -0.027127676
000020 51 47 db 3b 9f 5d 83 ba 97 07 19 b9 2a 78 ea 3c
       0.006691851 -0.0010022408 -0.00014594044 0.028621752
000030 a3 3f 44 bc b0 19 e7 bb 8f 86 ad 3c c9 66 1a 3d
       -0.011978063 -0.0070526227 0.021182327 0.03769568
000040 ee 3b 32 bc 51 27 a4 38 94 d8 3a 3c 47 62 a7 3c
       -0.010878546 7.827453e-05 0.011404175 0.020432604
000050 40 c2 43 36 94 46 9a 3c bd c5 cb bc aa f2 b4 3b
       2.9170333e-06 0.018832482 -0.024874562 0.005522092
000060 9f 07 66 3b 26 64 00 bc d7 a8 34 3b 2b 7d 09 3b
       0.0035099757 -0.007836377 0.0027566457 0.0020979147
000070 7c 06 98 3c ae f3 24 bc b6 ba 85 3c d5 27 8a 3c
       0.01855778 -0.010067863 0.016324382 0.016864697
000080 e1 83 e7 3b 2a 43 14 3c bc 54 cc 38 8b 5c 4a 3c
       0.0070652817 0.009049216 9.743261e-05 0.0123511655
000090 ef df ce 3b 7b 54 0b bc 9b 6f 0c bd 12 64 e5 b9
       0.006313316 -0.008504028 -0.034286123 -0.00043752842
0000a0 bc 3c 6d 3a 4e 01 89 3c ec 0e 6f 3c 2c 61 8f 3b
       0.00090498826 0.016724255 0.01459096 0.0043755975
0000b0 fe 36 3f 3c 50 91 0f 3c b2 80 cf bc 1c 9e 3e 3c
       0.011670826 0.008762673 -0.025329921 0.011634376
0000c0 8a b8 0c 3d 3b 38 19 bc 61 a8 0c bc 12 b0 2f bb
       0.034355678 -0.009351785 -0.008585067 -0.0026807827
0000d0 60 cb 2f bb 5e ec be 3c aa 25 07 bc 67 17 2f bb
       -0.0026824102 0.023306068 -0.008248726 -0.002671683
0000e0 21 7c c3 3a e7 b5 15 bb c4 be f6 bb 48 e3 28 bc
       0.0014914313 -0.0022844018 -0.0075300653 -0.010308094
0000f0 da ad a7 3c e0 56 34 bb dc 68 08 3c 29 be 50 3c
       0.020468641 -0.0027517602 0.008325782 0.01274065
000100 21 b3 73 bc 72 bb 97 bb d0 e9 58 bc b9 c9 1b bd
       -0.014874251 -0.0046304995 -0.013239339 -0.038034175
000110 cb b0 c9 3c aa 71 e3 3b 99 bf 71 bc 5e 49 a2 bb
       0.024620434 0.00694104 -0.014755153 -0.0049525937
000120 08 f2 95 bc 26 07 7e 3b 77 a9 ab 3c f7 ae 03 3b
       -0.018303886 0.0038761585 0.02095483 0.00200933
000130 cf 99 13 b8 55 97 26 3d 02 b8 09 bd 08 d3 be bb
       -3.5190777e-05 0.040671665 -0.03362275 -0.0058234967
000140 70 ef 1f 3b 45 92 8b bc c7 24 87 bc 27 a5 7a 3a
       0.002440419 -0.01703752 -0.016497029 0.0009561353
000150 74 56 82 bc 78 a4 84 bb 62 69 db 3b ec 4b 18 3c
       -0.015910365 -0.0040479265 0.006695912 0.009295445
000160 e3 bd d2 3c 1f f8 da 3b 93 2f f4 3c 3c 38 14 bc
       0.02572531 0.0066824104 0.029807841 -0.00904661
000170 70 de 5f 39 d7 b4 10 3b 81 6b 67 3c 1f 39 ad bc
       0.00021349802 0.0022080445 0.014124752 -0.021145402
000180 9d 3b 96 3c 04 0b 86 ba 67 bd 29 bb 26 80 99 bb
       0.018338973 -0.0010226672 -0.0025900246 -0.004684466
000190 ce 82 cb bb 3a 5e 88 3a 10 71 73 bc 32 81 27 3c
       -0.0062106615 0.0010404058 -0.014858499 0.010223674
0001a0 a1 80 b6 bb 76 c7 fd bb 64 12 14 3c b2 71 88 bb
       -0.005569533 -0.007744725 0.009037588 -0.004163944
0001b0 3c 2a 3f bb 14 e3 77 3c 64 72 45 3b a4 6c e0 ba
       -0.002916946 0.015129823 0.0030127997 -0.0017122221
0001c0 86 cf 57 bc d1 0e 85 bb 72 fc 40 bb b5 3d 48 bd
       -0.013172036 -0.004060604 -0.0029447344 -0.048886973
0001d0 d4 72 a7 3a e5 0a c9 bb 22 3e 59 bc 37 d5 9b bc
       0.001277531 -0.006135332 -0.0132594425 -0.019022567
0001e0 fa 22 28 bc 7a 15 2b 3c 6f 39 d5 3c b8 7e 23 bc
       -0.010262245 0.010442132 0.026028363 -0.009978943
0001f0 2e cd a0 3c 9c a9 ef bc 05 50 34 bc 1c 94 d6 3a
       0.019629087 -0.02925568 -0.011005406 0.0016371044
000200 6d cb 7a 3c 57 bc c5 3c ca 0c 12 3c af 5b 26 bc
       0.01530729 0.024137659 0.008914182 -0.010153695
000210 2d 60 a2 3b 3c 77 5b 3b b5 3a a8 bc d5 f7 84 3c
       0.0049553127 0.0033487817 -0.020535806 0.016231457
000220 6f 33 d9 bc 0c cb 3d bb d9 b3 33 bc 85 16 63 bc
       -0.026513783 -0.0028960137 -0.010968172 -0.01386035
000230 d3 ba 74 3c f5 bd 92 bc 34 5e df 3b 7c 50 82 bc
       0.0149371205 -0.017912844 0.00681665 -0.015907519
000240 7a 6f 8f bb f7 f5 fc 38 85 d0 1b 3c f3 72 37 bc
       -0.0043773027 0.00012062111 0.009510164 -0.01119684
000250 53 cc 1f 3c ff fe 17 3b 34 98 20 bb 62 80 32 bc
       0.0097533045 0.002319276 -0.0024504783 -0.010894867
000260 a4 15 c3 bb b6 3d 27 3c 95 ac df 3b 50 0e aa bc
       -0.0059535075 0.010207584 0.0068259933 -0.020758778
000270 e7 16 d5 3b 8e 22 53 3c 1f 42 fc bc 98 27 85 3c
       0.0065029743 0.012886656 -0.030793248 0.016254231
000280 81 f1 37 bb 59 2f 5b 3c 49 79 3e 3b 6d 7c 16 3c
       -0.0028067532 0.013377988 0.002906399 0.009184939
000290 bc a5 ac bc 01 94 b8 3c f4 c3 76 bc a9 74 73 38
       -0.021075122 0.022531511 -0.015061367 5.8044363e-05
0002a0 a8 5a e0 38 00 39 bf bc d7 a0 fa 3c 68 6d 1f 3b
       0.000106980384 -0.02334261 0.030594273 0.0024326686
0002b0 af 25 44 bc ac 6c a0 3a 92 de 0e 3c 30 bc c5 ba
       -0.011971875 0.0012239418 0.008720057 -0.0015085991
0002c0 c2 e6 6a 3c f1 30 58 3c e4 a5 8a bb a5 6d 33 3c
       0.0143372435 0.013195262 -0.0042312015 0.010951434
0002d0 d9 bb bb bb 14 d3 30 3c 6f 1b a7 bb aa c0 9d bc
       -0.0057291803 0.010792512 -0.005099706 -0.019256908
0002e0 b9 83 07 3c 3e e3 ad 3a eb d1 be 3b 6b b9 5e 3c
       0.008271151 0.0013266576 0.005823364 0.013594012
0002f0 da 5f 52 bc ed 94 87 3c 8a 8c 0d bc fa a2 2e bc
       -0.012840236 0.016550506 -0.008639464 -0.010658974
000300 e4 55 b0 bc d1 54 fc 3b 59 5e 9b bc 89 4a 52 3a
       -0.02152533 0.0077005406 -0.018965887 0.0008021971
000310 4c bf 2e bc 0d 88 51 3b 26 a2 e0 bb c9 fc 34 3b
       -0.010665726 0.0031971962 -0.006855267 0.0027616492
000320 14 0f b0 bc a1 49 11 3c 8d 20 99 3c 23 e6 63 bb
       -0.021491565 0.008867652 0.01869228 -0.0034774623
000330 fd cd dd 38 9a 75 a0 bc f8 9f ac bc 3b dc 71 bc
       0.000105764695 -0.019587327 -0.021072373 -0.01476198
000340 7c 2f 90 bc d2 ca 1c 3d d6 02 a4 bc 3f c1 89 bb
       -0.017600767 0.038279362 -0.020020884 -0.004203945
000350 ca c3 84 3b da cd 8e 3c 81 d8 c2 3c 66 a1 b7 bb
       0.00405166 0.017432142 0.023784878 -0.005603957
000360 ea a8 25 bd 07 3f 3e bc dd 63 c7 bc 0e 32 0f 3a
       -0.040444292 -0.011611707 -0.02433961 0.0005462476
000370 42 51 0b ba eb c8 f5 bb 3e 05 9a bc cf 5e 7e bc
       -0.00053145376 -0.007500758 -0.018801328 -0.015525534
000380 f5 14 68 bc 73 3b e1 3b df 3c 94 bc b7 0a 8e bc
       -0.014165153 0.006873542 -0.018095432 -0.017339094
000390 b1 d3 42 3c a0 70 61 3c 58 35 99 3b b1 8e cc bb
       0.0118912915 0.013759762 0.0046755485 -0.006242596
0003a0 cb d5 28 bc 5e 92 91 bb 59 dd df bc 17 1e fe 3b
       -0.0103048785 -0.004442497 -0.027327226 0.007755052
0003b0 28 40 39 3a 97 d3 4d 3c 65 c9 7c 3b b8 c8 0c bc
       0.000706675 0.012562654 0.003857219 -0.008592777
0003c0 d9 30 35 bc ba 75 8b bb 25 68 c9 3b 70 05 0b bd
       -0.0110590095 -0.0042559775 0.006146448 -0.033940732
0003d0 91 ac 30 bc ba 4a e4 bb 8b 14 9f 3a 3d 08 68 3c
       -0.010783331 -0.006966916 0.001213686 0.01416212
0003e0 e3 d8 f1 3b f6 8b aa 3b 07 24 29 3a 5f 89 1c bb
       0.0073805912 0.005204673 0.0006452207 -0.002388559
0003f0 32 d3 cb 3c e5 ce 08 3d 3c 7d 51 39 2f cc 1f bb
       0.02488098 0.033400435 0.00019978447 -0.0024383178

action_model._continuous_distribution.mu.bias f4 [3]
000000 86 51 61 39 fe 1e 96 3a 77 d0 21 3a
       0.00021488042 0.0011453328 0.0006172726

exp_avg f4 [128, 22]
000000 00 00 00 00 60 0e cc 33 00 00 00 00 1c 3b de 33
       0.0 9.502105e-08 0.0 1.03484325e-07
000010 00 00 00 00 2c 3b de 33 00 00 00 00 36 ad 14 34
       0.0 1.0348444e-07 0.0 1.3846588e-07
000020 00 00 00 00 54 ad 14 34 00 00 00 00 c2 c1 12 34
       0.0 1.384663e-07 0.0 1.3667798e-07
000030 00 00 00 00 54 37 f2 33 20 ba 80 b4 20 ee 5a af
       0.0 1.1279067e-07 -2.3977282e-07 -1.9911583e-10
000040 b8 dd 15 b7 00 00 00 00 d8 76 83 34 58 cf e2 b6
       -8.932715e-06 0.0 2.4487122e-07 -6.759463e-06
000050 5a e5 87 aa 05 2a 8c 29 00 00 00 00 f6 2d f4 37
       -2.4139962e-13 6.224538e-14 0.0 2.9108469e-05
000060 00 00 00 00 d2 f6 04 38 00 00 00 00 d2 f6 04 38
       0.0 3.170112e-05 0.0 3.170112e-05
000070 00 00 00 00 27 e9 31 38 00 00 00 00 08 e9 31 38
       0.0 4.241723e-05 0.0 4.2417116e-05
000080 00 00 00 00 e9 9c 2f 38 00 00 00 00 e7 eb 10 38
       0.0 4.1869385e-05 0.0 3.4551977e-05
000090 b0 08 9a b8 fc f9 82 b3 74 55 33 bb 00 00 00 00
       -7.3449104e-05 -6.0990686e-08 -0.0027364166 0.0
0000a0 47 50 9d 38 18 b4 07 bb 90 66 a4 2e 5a e8 85 ae
       7.501296e-05 -0.002070671 7.476075e-11 -6.089414e-11
0000b0 00 00 00 00 ca 25 aa 32 00 00 00 00 60 4d b9 32
       0.0 1.980779e-08 0.0 2.157202e-08
0000c0 00 00 00 00 5c 4d b9 32 00 00 00 00 e8 f0 f7 32
       0.0 2.1572014e-08 0.0 2.8864136e-08
0000d0 00 00 00 00 c4 f0 f7 32 00 00 00 00 92 bc f4 32
       0.0 2.8864072e-08 0.0 2.849109e-08
0000e0 00 00 00 00 08 f7 c9 32 70 a9 56 b3 1e 8b 36 ae
       0.0 2.3511816e-08 -4.997986e-08 -4.150557e-11
0000f0 3c ec f9 b5 00 00 00 00 08 3c 5b 33 50 1e bd b5
       -1.8620699e-06 0.0 5.104451e-08 -1.4090419e-06
000100 8d 04 a2 29 4a 8d 8b a9 00 00 00 00 5e 85 cd b7
       7.1950346e-14 -6.19735e-14 0.0 -2.4500008e-05
000110 00 00 00 00 88 d3 df b7 00 00 00 00 8e d3 df b7
       0.0 -2.6682173e-05 0.0 -2.6682184e-05
000120 00 00 00 00 6f be 15 b8 00 00 00 00 64 be 15 b8
       0.0 -3.5701723e-05 0.0 -3.5701683e-05
000130 00 00 00 00 36 cf 13 b8 00 00 00 00 36 f4 f3 b7
       0.0 -3.524051e-05 0.0 -2.9081577e-05
000140 d2 a5 81 38 fa 7d 5c 33 fc f0 16 3b 00 00 00 00
       6.182086e-05 5.1337317e-08 0.0023031821 0.0
000150 41 68 84 b8 dc 6f e4 3a fe a3 e7 ad 7c e5 14 2e
       -6.313669e-05 0.0017428356 -2.6334487e-11 3.3855127e-11
000160 00 00 00 00 20 6b 7a b6 00 00 00 00 a8 5c 88 b6
       0.0 -3.7315258e-06 0.0 -4.0639025e-06
000170 00 00 00 00 b0 5c 88 b6 00 00 00 00 50 74 b6 b6
       0.0 -4.063906e-06 0.0 -5.4375632e-06
000180 00 00 00 00 78 74 b6 b6 00 00 00 00 18 22 b4 b6
       0.0 -5.4375814e-06 0.0 -5.368387e-06
000190 00 00 00 00 c0 a5 94 b6 60 05 1e 37 d0 12 06 32
       0.0 -4.4300396e-06 9.418785e-06 7.804104e-09
0001a0 88 f0 b7 39 00 00 00 00 48 5c 21 b7 b8 31 8b 39
       0.0003508369 0.0 -9.617834e-06 0.0002654919
0001b0 8a bd 8f 2c 1a 8f 3e ae 00 00 00 00 c0 39 ad b7
       4.0853475e-12 -4.3328098e-11 0.0 -2.0650099e-05
0001c0 00 00 00 00 92 a7 bc b7 00 00 00 00 93 a7 bc b7
       0.0 -2.2489377e-05 0.0 -2.248938e-05
0001d0 00 00 00 00 21 6d fc b7 00 00 00 00 1e 6d fc b7
       0.0 -3.0091558e-05 0.0 -3.0091553e-05
0001e0 00 00 00 00 fa 2b f9 b7 00 00 00 00 b1 9f cd b7
       0.0 -2.9703591e-05 0.0 -2.4512266e-05
0001f0 3f 8f 5a 38 fe cc 39 33 1a 73 fe 3a 00 00 00 00
       5.210866e-05 4.326011e-08 0.0019412965 0.0
000200 fe 34 5f b8 90 8b c0 3a cc 8e 03 ad d5 4f 2c ad
       -5.3216696e-05 0.001469003 -7.478195e-12 -9.794794e-12
000210 00 00 00 00 56 78 6a 36 00 00 00 00 a4 5a 7f 36
       0.0 3.4938762e-06 0.0 3.805072e-06
000220 00 00 00 00 a6 5a 7f 36 00 00 00 00 10 d6 aa 36
       0.0 3.8050725e-06 0.0 5.091315e-06
000230 00 00 00 00 0f d6 aa 36 00 00 00 00 ab a2 a8 36
       0.0 5.0913145e-06 0.0 5.025727e-06
000240 00 00 00 00 9c 29 8b 36 08 eb 13 b7 b2 77 fb b1
       0.0 4.147367e-06 -8.816605e-06 -7.3186692e-09
000250 f0 34 ac b9 00 00 00 00 05 10 17 37 a9 4f 82 b9
       -0.00032845838 0.0 9.004031e-06 -0.00024854884
000260 f3 54 fd 2b f5 f6 6a 2c 00 00 00 00 70 99 7c 37
       1.8000309e-12 3.3390489e-12 0.0 1.5056095e-05
000270 00 00 00 00 9a 8c 89 37 00 00 00 00 8c 8c 89 37
       0.0 1.6397145e-05 0.0 1.639712e-05
000280 00 00 00 00 98 0b b8 37 00 00 00 00 88 0b b8 37
       0.0 2.1939908e-05 0.0 2.1939879e-05
000290 00 00 00 00 9c ac b5 37 00 00 00 00 42 ec 95 37
       0.0 2.1657259e-05 0.0 1.78722e-05
0002a0 90 5a 1f b8 3c 73 07 b3 a4 85 b9 ba 00 00 00 00
       -3.7992897e-05 -3.1536942e-08 -0.0014154208 0.0
0002b0 36 be 22 38 14 63 8c ba fe 82 1c 2e 00 73 59 ab
       3.8800958e-05 -0.001071068 3.5586638e-11 -7.725348e-13
0002c0 00 00 00 00 d1 b2 82 b5 00 00 00 00 ec 56 8e b5
       0.0 -9.737797e-07 0.0 -1.0605122e-06
0002d0 00 00 00 00 ee 56 8e b5 00 00 00 00 98 74 be b5
       0.0 -1.0605124e-06 0.0 -1.4190036e-06
0002e0 00 00 00 00 98 74 be b5 00 00 00 00 d4 fe bb b5
       0.0 -1.4190036e-06 0.0 -1.400675e-06
0002f0 00 00 00 00 be 23 9b b5 9f e5 24 36 44 38 0c 31
       0.0 -1.1558802e-06 2.4571561e-06 2.0404665e-09
000300 94 fa bf 38 00 00 00 00 e0 67 28 b6 a0 45 91 38
       9.1542635e-05 0.0 -2.5094414e-06 6.9271075e-05
000310 c8 35 49 aa 41 e0 64 2b 00 00 00 00 66 ca fb 37
       -1.7871045e-13 8.1313087e-13 0.0 3.001578e-05
000320 00 00 00 00 ca 1b 09 38 00 00 00 00 ca 1b 09 38
       0.0 3.2689226e-05 0.0 3.2689226e-05
000330 00 00 00 00 c9 74 37 38 00 00 00 00 c2 74 37 38
       0.0 4.3739365e-05 0.0 4.373934e-05
000340 00 00 00 00 f6 15 35 38 00 00 00 00 0f 70 15 38
       0.0 4.3174216e-05 0.0 3.562873e-05
000350 c9 d5 9e b8 53 12 87 b3 49 ec 38 bb 00 00 00 00
       -7.573848e-05 -6.2897605e-08 -0.0028217009 0.0
000360 5c 37 a2 38 c0 ee 0b bb 8e 57 ff 2d 3a f1 4f ae
       7.7350735e-05 -0.0021352023 2.9029026e-11 -4.7280603e-11
000370 00 00 00 00 4c 89 fb 37 00 00 00 00 61 f8 08 38
       0.0 2.9985466e-05 0.0 3.2656248e-05
000380 00 00 00 00 5b f8 08 38 00 00 00 00 52 45 37 38
       0.0 3.2656226e-05 0.0 4.369516e-05
000390 00 00 00 00 3e 45 37 38 00 00 00 00 58 e8 34 38
       0.0 4.3695087e-05 0.0 4.313173e-05
0003a0 00 00 00 00 50 4a 15 38 48 ae 9e b8 50 e5 86 b3
       0.0 3.5593577e-05 -7.5664895e-05 -6.281573e-08
0003b0 54 bd 38 bb 00 00 00 00 72 0e a2 38 6e cb 0b bb
       -0.002818902 0.0 7.7274526e-05 -0.002133097
0003c0 76 a1 70 2e e7 51 43 ad 00 00 00 00 f8 28 c1 b4
       5.4713088e-11 -1.1102653e-11 0.0 -3.597886e-07
0003d0 00 00 00 00 68 5d d2 b4 00 00 00 00 78 5d d2 b4
       0.0 -3.918351e-07 0.0 -3.9183556e-07
0003e0 00 00 00 00 e4 bc 0c b5 00 00 00 00 08 bd 0c b5
       0.0 -5.2428936e-07 0.0 -5.242914e-07
0003f0 00 00 00 00 ec eb 0a b5 00 00 00 00 90 48 e5 b4
       0.0 -5.175232e-07 0.0 -4.270737e-07

exp_avg_sq f4 [128, 22]
000000 00 00 00 00 6e 68 06 2d 00 00 00 00 b9 6a 1f 2d
       0.0 7.640206e-12 0.0 9.061801e-12
000010 00 00 00 00 b8 6a 1f 2d 00 00 00 00 86 b4 8e 2d
       0.0 9.0618e-12 0.0 1.62237e-11
000020 00 00 00 00 96 b4 8e 2d 00 00 00 00 f6 0b 8b 2d
       0.0 1.6223727e-11 0.0 1.5807782e-11
000030 00 00 00 00 02 62 3d 2d ef f4 55 2e ee dc 2c 24
       0.0 1.0765168e-11 4.8648138e-11 3.748369e-17
000040 11 00 91 33 00 00 00 00 01 28 5f 2e bf 0e 26 33
       6.752101e-08 0.0 5.073986e-11 3.86633e-08
000050 7a 99 49 1d ef a2 63 20 00 00 00 00 f7 6d 2a 34
       2.6681474e-21 1.9281558e-19 0.0 1.5872489e-07
000060 00 00 00 00 49 24 4a 34 00 00 00 00 45 24 4a 34
       0.0 1.8825916e-07 0.0 1.8825911e-07
000070 00 00 00 00 48 f3 b4 34 00 00 00 00 5c f3 b4 34
       0.0 3.3704623e-07 0.0 3.370468e-07
000080 00 00 00 00 cd 4f b0 34 00 00 00 00 69 23 70 34
       0.0 3.2840617e-07 0.0 2.2364624e-07
000090 10 a6 87 35 02 27 5d 2b 50 dc b7 3a 00 00 00 00
       1.0106614e-06 7.8569107e-13 0.001402745 0.0
0000a0 47 7b 8d 35 b7 8f 52 3a 59 61 2b 24 98 34 88 27
       1.0541197e-06 0.00080322794 3.716217e-17 3.7804605e-15
0000b0 00 00 00 00 46 e9 1b 2a 00 00 00 00 ee eb 38 2a
       0.0 1.3847698e-13 0.0 1.6424337e-13
0000c0 00 00 00 00 eb eb 38 2a 00 00 00 00 37 89 a5 2a
       0.0 1.6424333e-13 0.0 2.94051e-13
0000d0 00 00 00 00 46 89 a5 2a 00 00 00 00 d9 4a a1 2a
       0.0 2.940514e-13 0.0 2.865128e-13
0000e0 00 00 00 00 70 ae 5b 2a dd 2f 78 2b 1a e7 45 21
       0.0 1.9511628e-13 8.8173723e-13 6.7052057e-19
0000f0 bd 32 a8 30 00 00 00 00 d7 6d 81 2b e8 9f 40 30
       1.223803e-09 0.0 9.196488e-13 7.0076434e-10
000100 a5 b4 07 1a 2f e9 95 1d 00 00 00 00 77 af 38 34
       2.806327e-23 3.9681078e-21 0.0 1.7200169e-07
000110 00 00 00 00 d1 0c 5b 34 00 00 00 00 cf 0c 5b 34
       0.0 2.0400627e-07 0.0 2.0400624e-07
000120 00 00 00 00 32 16 c4 34 00 00 00 00 3c 16 c4 34
       0.0 3.6523994e-07 0.0 3.6524023e-07
000130 00 00 00 00 4b 0f bf 34 00 00 00 00 de 1c 82 34
       0.0 3.558765e-07 0.0 2.423539e-07
000140 e0 fe 92 35 b1 32 6f 2b 8c 3d c7 3a 00 00 00 00
       1.0952026e-06 8.4980205e-13 0.0015200838 0.0
000150 f8 50 99 35 a8 2c 64 3a 02 4f 4b 24 39 6d 68 27
       1.1422953e-06 0.0008704164 4.408553e-17 3.2255677e-15
000160 00 00 00 00 a7 03 35 34 00 00 00 00 1b b2 56 34
       0.0 1.6858267e-07 0.0 1.9995097e-07
000170 00 00 00 00 15 b2 56 34 00 00 00 00 4b 30 c0 34
       0.0 1.9995089e-07 0.0 3.5797925e-07
000180 00 00 00 00 58 30 c0 34 00 00 00 00 fb 42 bb 34
       0.0 3.5797962e-07 0.0 3.48802e-07
000190 00 00 00 00 58 0d 7f 34 d4 12 90 35 e9 0a 73 2b
       0.0 2.375358e-07 1.0734316e-06 8.6346083e-13
0001a0 99 47 c3 3a 00 00 00 00 a9 44 96 35 89 a3 5f 3a
       0.0014898657 0.0 1.1195854e-06 0.00085311435
0001b0 7b 6f 69 24 a0 a8 bd 27 00 00 00 00 35 5a 83 33
       5.061825e-17 5.264086e-15 0.0 6.1165714e-08
0001c0 00 00 00 00 1a cb 9b 33 00 00 00 00 18 cb 9b 33
       0.0 7.254694e-08 0.0 7.2546925e-08
0001d0 00 00 00 00 09 76 0b 34 00 00 00 00 15 76 0b 34
       0.0 1.2988325e-07 0.0 1.2988342e-07
0001e0 00 00 00 00 c8 e2 07 34 00 00 00 00 db 13 b9 33
       0.0 1.2655357e-07 0.0 8.6183455e-08
0001f0 d8 17 d1 34 92 70 b0 2a 2c b4 0d 3a 00 00 00 00
       3.8946632e-07 3.1341992e-13 0.0005405571 0.0
000200 54 15 da 34 57 48 a2 39 8c 9e 8b 23 57 47 d7 26
       4.0621183e-07 0.00030952945 1.5137557e-17 1.4937959e-15
000210 00 00 00 00 04 a5 e5 31 00 00 00 00 fa 2f 08 32
       0.0 6.6835373e-09 0.0 7.9271505e-09
000220 00 00 00 00 f8 2f 08 32 00 00 00 00 27 d2 73 32
       0.0 7.927149e-09 0.0 1.4192245e-08
000230 00 00 00 00 35 d2 73 32 00 00 00 00 f3 91 6d 32
       0.0 1.4192257e-08 0.0 1.3828401e-08
000240 00 00 00 00 5b c9 21 32 8a c7 36 33 c6 0d 2a 29
       0.0 9.417216e-09 4.2556657e-08 3.775953e-14
000250 12 be 77 38 00 00 00 00 73 a3 3e 33 21 dc 0d 38
       5.9066406e-05 0.0 4.438648e-08 3.382203e-05
000260 64 72 59 22 ce fa c7 25 00 00 00 00 58 8a 06 34
       2.9469542e-18 3.469095e-16 0.0 1.2530052e-07
000270 00 00 00 00 0e 93 1f 34 00 00 00 00 0c 93 1f 34
       0.0 1.4861527e-07 0.0 1.4861524e-07
000280 00 00 00 00 80 d8 8e 34 00 00 00 00 8b d8 8e 34
       0.0 2.6607086e-07 0.0 2.6607117e-07
000290 00 00 00 00 14 2f 8b 34 00 00 00 00 d4 91 3d 34
       0.0 2.592502e-07 0.0 1.7655049e-07
0002a0 e4 2a 56 35 d5 98 2c 2b ab 24 91 3a 00 00 00 00
       7.9783626e-07 6.131877e-13 0.001107355 0.0
0002b0 57 60 5f 35 9a 38 26 3a 1e 12 38 24 04 9a 46 27
       8.3214167e-07 0.0006340832 3.9913986e-17 2.7561512e-15
0002c0 00 00 00 00 90 84 9e 2f 00 00 00 00 67 03 bc 2f
       0.0 2.8834224e-10 0.0 3.4199418e-10
0002d0 00 00 00 00 64 03 bc 2f 00 00 00 00 b7 4d 28 30
       0.0 3.419941e-10 0.0 6.1228483e-10
0002e0 00 00 00 00 cb 4d 28 30 00 00 00 00 30 fd 23 30
       0.0 6.1228594e-10 0.0 5.9658856e-10
0002f0 00 00 00 00 b1 5a df 2f 0f 56 fc 30 9e 87 d8 26
       0.0 4.0627904e-10 1.8359873e-09 1.502477e-15
000300 a4 02 2b 36 00 00 00 00 d1 97 03 31 50 d8 c3 35
       2.5482523e-06 0.0 1.9149307e-09 1.4591587e-06
000310 77 13 05 20 3a 31 17 23 00 00 00 00 ac 03 1d 34
       1.1271979e-19 8.1961505e-18 0.0 1.46231e-07
000320 00 00 00 00 ed 3a 3a 34 00 00 00 00 e9 3a 3a 34
       0.0 1.7344037e-07 0.0 1.7344031e-07
000330 00 00 00 00 21 b5 a6 34 00 00 00 00 28 b5 a6 34
       0.0 3.1051698e-07 0.0 3.1051718e-07
000340 00 00 00 00 09 6f a2 34 00 00 00 00 71 3c 5d 34
       0.0 3.025564e-07 0.0 2.0604217e-07
000350 69 f1 79 35 8a d8 4b 2b 76 63 a9 3a 00 00 00 00
       9.3111026e-07 7.2420596e-13 0.0012923318 0.0
000360 5d 58 82 35 d1 fc 41 3a d4 13 33 24 54 40 56 27
       9.711472e-07 0.00074000383 3.8831233e-17 2.9733338e-15
000370 00 00 00 00 8c f8 3c 34 00 00 00 00 df 21 60 34
       0.0 1.7599285e-07 0.0 2.0873948e-07
000380 00 00 00 00 de 21 60 34 00 00 00 00 ed a2 c8 34
       0.0 2.0873946e-07 0.0 3.7371447e-07
000390 00 00 00 00 f9 a2 c8 34 00 00 00 00 19 7e c3 34
       0.0 3.737148e-07 0.0 3.6413329e-07
0003a0 00 00 00 00 a2 21 85 34 04 68 96 35 17 3c 7a 2b
       0.0 2.4797652e-07 1.1206143e-06 8.8901233e-13
0003b0 f2 dc cb 3a 00 00 00 00 7d df 9c 35 f3 77 69 3a
       0.0015553518 0.0 1.1687949e-06 0.00089061185
0003c0 7b bf 7f 24 99 56 8d 27 00 00 00 00 90 9a 82 2f
       5.54565e-17 3.922925e-15 0.0 2.3756686e-10
0003d0 00 00 00 00 cb e7 9a 2f 00 00 00 00 c7 e7 9a 2f
       0.0 2.8177136e-10 0.0 2.8177125e-10
0003e0 00 00 00 00 8e aa 0a 30 00 00 00 00 98 aa 0a 30
       0.0 5.044648e-10 0.0 5.0446536e-10
0003f0 00 00 00 00 8c 1c 07 30 00 00 00 00 d2 05 b8 2f
       0.0 4.915328e-10 0.0 3.347354e-10

exp_avg f4 [128]
000000 22 f1 08 35 4b de 23 39 98 5e e4 33 9c ec 09 b9
       5.101484e-07 0.00015627702 1.0634284e-07 -0.00013153482
000010 40 15 a8 b7 da 81 e8 b8 62 5b 9d 37 1c 86 a9 38
       -2.0037056e-05 -0.00011086809 1.8758412e-05 8.083528e-05
000020 34 6c af b6 a6 f9 28 39 02 cf 28 39 70 a1 01 b6
       -5.228003e-06 0.0001611473 0.00016098845 -1.9316467e-06
000030 54 43 5f b7 db d4 42 38 ac 30 e1 b2 e6 6e 13 38
       -1.3307512e-05 4.645144e-05 -2.621558e-08 3.5150813e-05
000040 36 d1 7b 37 87 62 fe 38 b0 2a bc 35 af 61 16 39
       1.5009477e-05 0.00012130016 1.4019515e-06 0.00014341505
000050 a3 d7 6b 36 00 fc 2d b8 4c 73 14 b5 c0 70 b2 38
       3.5143246e-06 -4.1481107e-05 -5.5302075e-07 8.508703e-05
000060 10 82 f4 31 ae f2 82 b5 a0 aa 9c b6 82 00 99 b6
       7.116121e-09 -9.756384e-07 -4.6690257e-06 -4.5598144e-06
000070 ac 66 85 2d 90 32 ae 37 a0 49 7f 33 96 aa 41 37
       1.5165945e-11 2.0765961e-05 5.9438776e-08 1.1543414e-05
000080 70 90 3a b8 36 ed 1e 39 73 73 48 b9 53 25 82 b3
       -4.4480374e-05 0.00015156422 -0.00019116495 -6.060386e-08
000090 26 4b da b8 ea d6 3b b6 8b 25 45 38 40 f6 c8 34
       -0.000104090475 -2.7990268e-06 4.7003425e-05 3.7432073e-07
0000a0 4c 2e 5d 37 f3 fd 61 30 3e 43 46 37 de ea a0 35
       1.3183406e-05 8.2215407e-10 1.1817376e-05 1.1989284e-06
0000b0 84 45 00 b9 5c d6 29 38 0a 80 cc b6 a1 d8 03 37
       -0.00012232928 4.0492378e-05 -6.0945795e-06 7.858646e-06
0000c0 fe 2d bb b5 60 c0 ab 38 00 ce e1 33 20 d1 d8 b4
       -1.3945971e-06 8.189748e-05 1.051485e-07 -4.0385294e-07
0000d0 78 07 4f b7 f6 03 34 39 c8 72 e4 b0 7c 41 0d 34
       -1.23399e-05 0.00017167613 -1.6621806e-09 1.3155471e-07
0000e0 94 e8 40 b6 02 3f 20 37 25 10 79 b2 8a 02 fe 36
       -2.8745608e-06 9.551413e-06 -1.4497378e-08 7.5700855e-06
0000f0 12 5d 62 b8 80 84 0f 38 90 c2 83 39 d7 00 87 b8
       -5.3969277e-05 3.4217257e-05 0.00025131227 -6.437458e-05
000100 af c4 2a b7 6a f5 92 b6 3a 43 10 39 bd 87 38 af
       -1.0178584e-05 -4.379709e-06 0.00013757954 -1.6782926e-10
000110 24 00 00 2f 0f f7 b5 38 34 85 67 b6 73 a1 c5 b2
       1.1641582e-10 8.676771e-05 -3.4499217e-06 -2.3007237e-08
000120 88 2a 97 b8 37 7c f5 b8 c0 9e 75 b8 01 69 17 b7
       -7.208163e-05 -0.00011705647 -5.85604e-05 -9.0247495e-06
000130 e4 f5 1f b6 f4 53 09 b7 3c bd dc b8 57 c4 96 38
       -2.3835973e-06 -8.185383e-06 -0.00010525665 7.1891285e-05
000140 e2 ad 0f b9 fc 5a 5c 38 20 77 57 b8 60 2f fc 35
       -0.00013702319 5.2536823e-05 -5.137094e-05 1.8789251e-06
000150 e4 28 1f b9 ee 03 35 b6 0f 2a 66 b2 9a 58 84 32
       -0.00015178655 -2.697339e-06 -1.3397325e-08 1.5407114e-08
000160 15 14 94 38 62 ee ad 37 f3 0b a7 37 e0 1d 61 b5
       7.0609305e-05 2.0734213e-05 1.9913516e-05 -8.3862506e-07
000170 0e 52 ee b3 1c c4 23 b8 f2 27 f8 b4 3c c7 e0 b6
       -1.1097664e-07 -3.904487e-05 -4.6222664e-07 -6.698914e-06
000180 70 09 15 39 45 eb ab 38 c4 77 60 b6 40 58 24 37
       0.00014213263 8.197738e-05 -3.3448314e-06 9.795709e-06
000190 7c 2c 4b b8 fc 09 d3 b8 8c b9 56 34 78 f5 87 b8
       -4.84404e-05 -0.00010063124 1.9997805e-07 -6.483024e-05
0001a0 48 4e 91 b0 79 c1 af 33 c8 ec e0 b6 59 ad bd 36
       -1.0572387e-09 8.184265e-08 -6.703285e-06 5.6528193e-06
0001b0 93 80 70 39 80 a0 5a 33 40 ae 9d 38 a0 90 da 36
       0.00022936081 5.0903054e-08 7.5188e-05 6.513743e-06
0001c0 26 57 ce 38 c9 f1 01 37 d2 c7 cb af e5 a0 63 31
       9.839078e-05 7.745294e-06 -3.7067466e-10 3.3124306e-09
0001d0 1d 47 ec 36 a6 55 b2 30 6c e0 ff b3 09 97 03 36
       7.0416268e-06 1.2975547e-09 -1.1915185e-07 1.9608435e-06
0001e0 8c c6 c4 37 73 4b 8c 38 b4 54 6d 39 82 e9 06 39
       2.3457476e-05 6.689774e-05 0.00022633636 0.00012866224
0001f0 59 64 d6 36 ed 14 a9 b6 a7 16 18 b7 08 fd c8 b7
       6.389379e-06 -5.0390286e-06 -9.06518e-06 -2.3959685e-05

exp_avg_sq f4 [128]
000000 bf 23 72 2f 65 84 99 36 96 70 8c 2c c8 5b a6 36
       2.2022471e-10 4.575168e-06 3.991539e-12 4.9578703e-06
000010 2a 0d a3 36 b5 a2 ec 35 24 db 4e 34 08 61 72 36
       4.859311e-06 1.7630724e-06 1.9264968e-07 3.611729e-06
000020 a4 c9 0e 32 f5 6e 8d 36 fd 37 aa 36 7b 49 eb 31
       8.311336e-09 4.2150446e-06 5.0729127e-06 6.847754e-09
000030 10 38 3b 33 6f 0c 00 35 db 35 3e 2a a4 de cf 34
       4.359032e-08 4.770181e-07 1.6894075e-13 3.8718747e-07
000040 c2 85 1f 36 bf c3 45 35 d3 9d d9 32 b5 fe 90 36
       2.3770704e-06 7.3673067e-07 2.5333895e-08 4.321186e-06
000050 e5 a3 71 32 c4 c1 7f 36 2d a2 36 30 90 22 a5 36
       1.4065312e-08 3.8110747e-06 6.644168e-10 4.921407e-06
000060 1a bc cb 29 1d 15 af 30 45 d6 ae 35 37 05 3c 32
       9.0476414e-14 1.2738927e-09 1.3026371e-06 1.0944226e-08
000070 85 8b 8d 2e 22 d4 6f 35 c8 f6 99 2c eb 8b 71 32
       6.436721e-11 8.934313e-07 4.3759198e-12 1.405986e-08
000080 d5 c6 fa 36 c1 65 79 36 09 61 a4 36 88 6f a1 2b
       7.4737277e-06 3.716312e-06 4.8988773e-06 1.1470694e-12
000090 de 79 a8 36 f8 3d 21 33 38 0e dc 34 dc 26 0a 33
       5.0209774e-06 3.7542094e-08 4.098854e-07 3.216597e-08
0000a0 bd 0c 80 34 f4 b6 1b 30 e8 b0 6c 35 26 40 91 2f
       2.3851126e-07 5.6648664e-10 8.8174284e-07 2.6420927e-10
0000b0 7f 61 2e 37 32 ae 56 35 23 4a b7 31 6b 43 8c 31
       1.0393908e-05 7.99747e-07 5.3344293e-09 4.082201e-09
0000c0 57 d2 05 31 68 fc a9 36 84 74 dc 2e 13 32 c3 31
       1.9473612e-09 5.0659764e-06 1.0025139e-10 5.6809397e-09
0000d0 cc 2a 5c 35 99 f1 fe 36 6d 68 5b 2e dd 73 55 2e
       8.2018664e-07 7.5979156e-06 4.9887584e-11 4.85335e-11
0000e0 42 53 b6 34 f6 f2 61 32 38 5a 87 28 8e 61 c6 33
       3.396072e-07 1.3151967e-08 1.5027137e-14 9.2378386e-08
0000f0 7f be 25 35 3d b8 85 36 d9 0f 03 37 38 40 63 36
       6.17445e-07 3.985157e-06 7.811898e-06 3.3863016e-06
000100 71 fd ce 33 9b f8 51 31 93 68 8c 36 d6 1d 86 2e
       9.638723e-08 3.0554819e-09 4.184499e-06 6.0989144e-11
000110 46 94 da 2d 2b 30 b6 34 47 b2 72 31 b2 89 95 29
       2.4849577e-11 3.3935189e-07 3.5316974e-09 6.6408156e-14
000120 33 38 61 36 cd 3c c7 36 d0 32 c1 34 7e 3a 47 32
       3.3560325e-06 5.9377403e-06 3.5986022e-07 1.1596624e-08
000130 47 f0 a7 32 e9 25 8c 33 de 48 06 36 a2 d5 bf 35
       1.9550624e-08 6.526154e-08 2.000997e-06 1.4292784e-06
000140 80 e1 42 36 04 d5 de 35 61 91 e7 34 2a d8 26 30
       2.903951e-06 1.6602285e-06 4.313288e-07 6.0697636e-10
000150 5f e0 6b 36 3a 5d 84 31 74 86 2b 28 d8 20 86 2b
       3.514833e-06 3.8523043e-09 9.521562e-15 9.530389e-13
000160 03 c4 bb 35 c2 2d fc 34 91 04 89 33 57 8b 85 31
       1.3989633e-06 4.697195e-07 6.38039e-08 3.8866506e-09
000170 7f c5 33 2d 54 4e be 35 ab 4f d3 2e dc 49 ec 32
       1.0218825e-11 1.41789e-06 9.609321e-11 2.7507603e-08
000180 17 6f 86 37 f3 e4 76 35 24 c4 02 33 b1 be 71 35
       1.6025775e-05 9.1975306e-07 3.0446373e-08 9.005699e-07
000190 27 b8 84 35 b4 b6 bb 35 57 a4 ac 2c 0e 8d ed 35
       9.888362e-07 1.3985759e-06 4.9067794e-12 1.7698928e-06
0001a0 ce 08 9f 29 06 33 8d 2b ad 39 7d 34 c9 67 90 31
       7.062546e-14 1.0032814e-12 2.3583443e-07 4.2027506e-09
0001b0 b5 7d ca 36 45 f0 68 2f 59 97 5f 35 81 58 b8 32
       6.0347033e-06 2.1185638e-10 8.3294213e-07 2.1460666e-08
0001c0 16 0a 89 36 ea 47 d3 31 77 72 43 2f 7d 18 00 27
       4.0840923e-06 6.149084e-09 1.7775813e-10 1.7776844e-15
0001d0 c8 a2 bc 32 22 8d 81 2e ec 9d c8 2c a8 19 10 32
       2.1960105e-08 5.891311e-11 5.7018747e-12 8.387737e-09
0001e0 53 13 ae 33 55 cd 16 36 1c 14 c2 36 18 33 cb 35
       8.1060215e-08 2.247126e-06 5.7839916e-06 1.5139549e-06
0001f0 ef fb 84 32 0e f2 26 34 81 2a f8 32 d3 a3 44 35
       1.5481389e-08 1.5548014e-07 2.8890328e-08 7.3254085e-07
