results/CurveRoad1.3/CarAgent/CarAgent-6336.onnx (onnx, 83842 bytes, 7 tensors)

network_body._body_endoder.seq_layers.0.weight f4 [128, 22]
0	0x3e482566	0.19545516
1	0x3df06dde	0.117397055
2	0x3e768f6d	0.2407815
3	0x3ee8c002	0.4545899
4	0x3e119c2d	0.14219733
5	0x3ecf6d68	0.40513158
6	0xbe906241	-0.28199962
7	0x3e76c645	0.24099071
8	0x3c7c7524	0.015408788
9	0xbe530d02	-0.20610431
10	0xbf2cce17	-0.6750197
11	0x3f19939e	0.5999087
12	0x3d29dfb2	0.041473098
13	0x3e5ae19c	0.21375126
14	0xbe4da49d	-0.20082326
15	0x3e7f6a8f	0.24942993
16	0xbddee3cf	-0.10883295
17	0xbddfac6c	-0.10921559
18	0xbc8bb78a	-0.017055292
19	0xbde4c4b1	-0.111703284
20	0xbebd16fa	-0.36931592
21	0xbe1cf4f2	-0.15327814
22	0x3ed0b5e8	0.40763783
23	0xbd57945d	-0.052631725
24	0x3e960fbf	0.29308888
25	0x3ebc8c09	0.36825588
26	0xbe18b237	-0.14911734
27	0xbe041537	-0.12898718
28	0xbd9290e8	-0.07156545
29	0x3d93ae18	0.0721094
30	0xbe6ebed1	-0.23314978
31	0x3e049417	0.12947117
32	0xbe100f18	-0.14068258
33	0x3b02f194	0.0019980418
34	0xbd898763	-0.06715276
35	0xbd990590	-0.07471764
36	0xbeae5a9e	-0.3405351
37	0x3e4060b0	0.18786883
38	0xbe16607d	-0.14685245
39	0x3e236340	0.1595583
40	0x3e064190	0.13110948
41	0xbcaf2f83	-0.02138496
42	0xbe107d25	-0.14110239
43	0xbec7f088	-0.39050698
44	0xbdf50821	-0.11964441
45	0x3dee1bc0	0.11626387
46	0x3dce6103	0.10077097
47	0x3cca6aea	0.024709184
48	0x3d093b51	0.033503834
49	0xbe5e2895	-0.21695168
50	0xbd8916c5	-0.06693796
51	0x3efc1a66	0.4923889
52	0xbecf8b0c	-0.40535772
53	0x3e88ad31	0.26694635
54	0x3bdd1168	0.0067464598
55	0xbda48921	-0.08033968
56	0x3d3d1565	0.04616298
57	0x3e3b3d99	0.18285216
58	0x3e6a6d0c	0.2289316
59	0x3e8201fb	0.25392136
60	0xbe06bbf3	-0.13157634
61	0x3e6f99d4	0.23398525
62	0xbe2cae1f	-0.16863297
63	0x3eaa562e	0.33268875
64	0xbe50eac7	-0.2040206
65	0x3e78e31d	0.24305387
66	0xbd4b3f63	-0.049620997
67	0xbe1d7eff	-0.15380476
68	0x3d9bb86c	0.07603535
69	0x3da75b01	0.081716545
70	0x3cd3cf4e	0.025855687
71	0x3ca5d65c	0.020243816
72	0xbd9770fe	-0.073945984
73	0x3c96736e	0.018365588
74	0xbec84df2	-0.39121968
75	0xbee92955	-0.45539346
76	0xbe3e8fef	-0.18609594
77	0xbda02a5d	-0.0782058
78	0x3d551e92	0.052031107
79	0x3ec269dd	0.37971392
80	0x3cccb9c9	0.024990933
81	0xbeaef59f	-0.3417177
82	0x3deab130	0.11459577
83	0x3dcedc7f	0.1010065
84	0x3d8bfe7d	0.06835649
85	0x3c0c81be	0.008575855
86	0xbe38fb2c	-0.18064564
87	0xbd360974	-0.04444261
88	0x3f3187cc	0.69347835
89	0xbdc2cefa	-0.09512134
90	0x3e5a0658	0.21291482
91	0xbe08e20c	-0.1336748
92	0xbe9441a4	-0.2895633
93	0xbd933e7c	-0.07189652
94	0xbdb7853f	-0.089609616
95	0xbcc4c3ec	-0.024019204
96	0xbe8c3707	-0.27385733
97	0x3ea3098c	0.3184322
98	0xbe70ba44	-0.23508555
99	0xbe87fbdb	-0.26559338
100	0x3ce6350e	0.02810147
101	0xbd9e7e1c	-0.07738897
102	0xbd0d53c5	-0.034503717
103	0xbd20f24e	-0.03929358
104	0x3dca0efe	0.09866141
105	0x3dbb1db3	0.09136524
106	0xbed46038	-0.4147966
107	0xbe32416f	-0.17407773
108	0xbdb765e2	-0.089549795
109	0xbd2c63e8	-0.042087466
110	0xbecc47c5	-0.39898506
111	0x3e2c21a3	0.16809706
112	0x3e35e0db	0.17761557
113	0xbe220304	-0.15821463
114	0x3d4aa75f	0.049476024
115	0xbc80cb46	-0.015721928
116	0xbe60a9cc	-0.21939772
117	0x3d715a68	0.05892411
118	0xbd8b9e6a	-0.068173245
119	0xbe409b11	-0.18809153
120	0xbc6dd51a	-0.014516139
121	0x3dc61024	0.09671047
122	0x3e520077	0.2050799
123	0xbc374ce0	-0.011187762
124	0xbcd1c326	-0.02560575
125	0xbdba4628	-0.090954125
126	0xbd8bdab9	-0.068288274
127	0xbe3d865c	-0.18508285
128	0xbd9fe9f9	-0.078082986
129	0x3ccb5b13	0.024823701
130	0x3e5579c2	0.20847228
131	0xbe09e36f	-0.13465665
132	0x3d7762a9	0.060396824
133	0xbe38e33b	-0.18055432
134	0x3e6ea9e5	0.23306997
135	0xbeb28ea0	-0.3487444
136	0x3eac1e40	0.3361683
137	0xbbc21dfa	-0.0059239836
138	0x3d96251d	0.073312975
139	0x3ea82ed6	0.32848233
140	0x3dad9da1	0.08477331
141	0x3ea2cfff	0.31799313
142	0x3e964fe1	0.29357818
143	0x3eeb5f97	0.45971367
144	0x3e809e65	0.25120845
145	0x3e7699cc	0.24082106
146	0xbe1a1364	-0.1504646
147	0x3e0cf0ec	0.1376378
148	0x3dded6e4	0.10880831
149	0x3d2d5f73	0.042327356
150	0xbdf98d6d	-0.12185178
151	0xbce1ff98	-0.027587697
152	0xbc4f1e19	-0.012641453
153	0xbe5bb195	-0.21454461
154	0x3d88b28c	0.0667468
155	0x3e26996e	0.16269466
156	0xbeaebce1	-0.34128478
157	0xbdb2e537	-0.087351255
158	0xbe036374	-0.12830907
159	0x3cefadb3	0.02925763
160	0x3dc9cbb5	0.09853307
161	0x3dc2d4f0	0.09513271
162	0x3e9a556a	0.3014329
163	0x3d15d221	0.036577348
164	0x3e7c5749	0.24642672
165	0xbe72e492	-0.23720005
166	0xbdd42364	-0.10358313
167	0x3e66c689	0.22536673
168	0x3e8d3afd	0.27584067
169	0x3ca1d2ee	0.0197539
170	0x3eba82a1	0.36427787
171	0xbc250908	-0.010072954
172	0x3d27eed4	0.04099925
173	0x3e68f94f	0.22751354
174	0x3e88c886	0.26715487
175	0x3ce0c338	0.027436838
176	0xbda1010c	-0.07861528
177	0x3ed70a87	0.4200022
178	0x3e33e429	0.17567505
179	0x3d38bf59	0.04510436
180	0x3e415aaf	0.1888225
181	0xbeb21aaa	-0.34785968
182	0xbec3ad26	-0.3821804
183	0x3b8745a9	0.004128177
184	0xbdbefe0f	-0.093258016
185	0x3bc74f06	0.0060824184
186	0xbe8577ec	-0.26068056
187	0xbe43fadb	-0.19138663
188	0xbd3921a5	-0.0451981
189	0x3cbfb109	0.023399847
190	0x3e05da39	0.13071527
191	0xbe1d30b2	-0.15350607
192	0xbe84b45a	-0.25918847
193	0xbe327e75	-0.17431052
194	0xbe2851c7	-0.16437446
195	0xbb1673ac	-0.002295713
196	0x3e4ecf72	0.20196322
197	0x3e12c83d	0.14334197
198	0xbe75b451	-0.23994567
199	0x3e541ae1	0.20713378
200	0xbba8c968	-0.0051509626
201	0xbedc7b2f	-0.43062732
202	0x3e6ceb16	0.23136553
203	0xbd830794	-0.0639793
204	0xbec04c2e	-0.3755812
205	0x3cae339b	0.021264842
206	0xbd8f9202	-0.07010271
207	0xbd1ccff9	-0.038284276
208	0x3d15840c	0.036502883
209	0xbe6aee8b	-0.2294256
210	0x3ea82a4b	0.32844767
211	0xbe95b035	-0.29235998
212	0x3d096268	0.033541113
213	0x3e5d663b	0.21621029
214	0xbc723f11	-0.014785544
215	0x3ea23cf2	0.31687123
216	0xbdbe8e7e	-0.09304522
217	0xbd27133b	-0.040789824
218	0xbdee927a	-0.11649032
219	0xbe127e81	-0.1430607
220	0x3cfd5d7d	0.030928368
221	0xbe31cdff	-0.17363738
222	0x3e2833aa	0.16425958
223	0xbde77d90	-0.11303246
224	0xbdc356e7	-0.0953806
225	0x3e8f2936	0.2796113
226	0xbf274fb3	-0.65355986
227	0xbd9b3841	-0.07579089
228	0x3e2df48f	0.16987823
229	0xbe8a45bf	-0.27006337
230	0xbdc4d515	-0.09610955
231	0xbd04f873	-0.032463502
232	0x3ea61037	0.32434246
233	0x3e7c7d11	0.24657084
234	0xbe0703cf	-0.13185047
235	0xbeb0cd20	-0.34531498
236	0x3e9981eb	0.29981932
237	0x3ee910e7	0.45520708
238	0x3eaf11cd	0.34193268
239	0xbe43bae8	-0.19114268
240	0x3e8c618e	0.27418178
241	0xbe455133	-0.19269256
242	0xbedf366c	-0.43596208
243	0xbee6328b	-0.44960436
244	0xbe7a5f62	-0.24450448
245	0x3eaa53e0	0.33267117
246	0xbea63dc7	-0.32469007
247	0x3e1621b6	0.14661297
248	0xbe649295	-0.22321542
249	0xbe49cb93	-0.19706564
250	0x3d873025	0.0660098
251	0x3ebb2864	0.36554253
252	0xbe07644b	-0.13221852
253	0xbdc2f638	-0.09519619
254	0x3ec640ed	0.3872141
255	0xbe325968	-0.17416918

network_body._body_endoder.seq_layers.0.bias f4 [128]
0	0xbc083f53	-0.008315879
1	0x3bc9df3f	0.006160646
2	0xbc90a299	-0.017655658
3	0x3b92897f	0.004471957
4	0xbc35239d	-0.011055854
5	0xbbd4ec90	-0.006497927
6	0x3b34c835	0.0027585153
7	0xb9b8c7a6	-0.00035243965
8	0xbcd287d5	-0.025699535
9	0xbca41b86	-0.020032655
10	0xbab037c9	-0.001344436
11	0xbad5c5f4	-0.0016309605
12	0xbbcd8021	-0.0062713777
13	0xbc1bacd9	-0.009501659
14	0xbbe569a9	-0.007001121
15	0xbc2d514f	-0.0105784675
16	0xbc12ed0f	-0.008967652
17	0xbc1786fe	-0.009248493
18	0xbc72ddb4	-0.014823366
19	0xbb08ef74	-0.0020894678
20	0xbbbcc955	-0.0057613053
21	0x3bdb281e	0.006688132
22	0xbb0bb2c9	-0.002131628
23	0xbbd794c1	-0.006579012
24	0xbc7c9a6d	-0.015417677
25	0x3c55f1f0	0.013058171
26	0xbd017e5b	-0.031614643
27	0x3c207e48	0.009795733
28	0xbb1ea838	-0.0024209153
29	0x3a822508	0.0009929249
30	0xbc15be88	-0.0091396645
31	0xbb644b4a	-0.0034834915
32	0xbbc5ddf5	-0.006038422
33	0x3b8b3b7d	0.004249035
34	0xbbfff6f9	-0.007811424
35	0xbcb4af53	-0.022056257
36	0xbacd2b97	-0.001565325
37	0xbc04d629	-0.0081077
38	0x3c0b83dc	0.008515324
39	0xbbd2d05c	-0.00643353
40	0xbb8a3e42	-0.0042188475
41	0xbc8e3065	-0.01735706
42	0xbc619a8d	-0.013769758
43	0xbb2aa779	-0.0026039763
44	0xbbd630ac	-0.006536564
45	0x3c0707c3	0.008241597
46	0xbbb07767	-0.0053853276
47	0xbb39012b	-0.0028229456
48	0xbae152c3	-0.0017190803
49	0xbc107e92	-0.008819239
50	0x3bfaa7d2	0.0076494003
51	0xbbe727ee	-0.0070543205
52	0x3bab4a2f	0.0052273492
53	0xbb998716	-0.004685293
54	0x39d2407c	0.00040102366
55	0xbd2a40cd	-0.041565705
56	0xbb360dab	-0.0027779143
57	0xbc4e1911	-0.0125792185
58	0xbb9f9ebb	-0.004871217
59	0xbc682e77	-0.014171234
60	0xbbffff15	-0.0078123906
61	0xbb3514dc	-0.0027630841
62	0xbb177662	-0.0023111333
63	0xbca21c38	-0.019788846
64	0xbae6e59c	-0.0017616036
65	0xbbdf8387	-0.006821099
66	0x3b7ae4a2	0.0038283248
67	0xbc97677c	-0.018481962
68	0x3ad900d0	0.0016556028
69	0xbc5f50c5	-0.013630097
70	0xbc22f81a	-0.009946847
71	0xbbf1b437	-0.0073762196
72	0xbc92881f	-0.017887173
73	0xbc363126	-0.011120116
74	0xbbb93000	-0.005651474
75	0xbabe8ce6	-0.0014537841
76	0xbba59e55	-0.005054275
77	0xbc0b4170	-0.008499488
78	0x3b8288ca	0.0039835917
79	0xbbee8bdd	-0.0072798566
80	0xbabb264a	-0.0014278379
81	0xbc0cab5d	-0.008585778
82	0x3a272808	0.00063765096
83	0xbc39bba9	-0.011336246
84	0xbb94e294	-0.004543612
85	0xbc28cabd	-0.010302243
86	0xbc62f826	-0.0138531085
87	0xbca62bb8	-0.020284519
88	0xbc5e5928	-0.013571061
89	0xbbb4b0d9	-0.005514246
90	0xbcb6ea9c	-0.022328667
91	0xbc13508c	-0.008991372
92	0xbb9329df	-0.0044910754
93	0xbcad11b8	-0.021126613
94	0x3b797fc8	0.0038070548
95	0x39bd78e0	0.00036138948
96	0xbaa2bf49	-0.0012416627
97	0xbc14d9b3	-0.009085107
98	0xbad52a09	-0.0016263138
99	0xbc167381	-0.009182812
100	0x3ccb832a	0.024842817
101	0xbc2714be	-0.010197816
102	0xbc603d66	-0.0136865135
103	0xbb6db5fb	-0.00362718
104	0xbbfaf4a0	-0.007658556
105	0xbbad7161	-0.005293057
106	0xbb8e7d4a	-0.0043484317
107	0xbcf35521	-0.029703679
108	0x3b20e726	0.0024551838
109	0xbbc9bd50	-0.006156601
110	0xbbeb43ac	-0.007179698
111	0xbbccb20f	-0.006246812
112	0x3bf5b407	0.0074982676
113	0xbc4213a1	-0.0118455
114	0xbbca2226	-0.0061686216
115	0xbb1df28a	-0.0024100863
116	0xbb8961df	-0.0041925753
117	0xbc5f4a99	-0.013628625
118	0xbcad6dbd	-0.021170491
119	0x3b5034b3	0.0031769692
120	0xbc879b53	-0.016553557
121	0x3c5e6b43	0.013575378
122	0xbd4158aa	-0.047203697
123	0xbbc8fab9	-0.006133404
124	0xbbd3b408	-0.0064606704
125	0xbb55aab6	-0.0032602972
126	0xbb883f58	-0.004157942
127	0x3a8f23cc	0.0010920702

network_body._body_endoder.seq_layers.2.weight f4 [128, 128]
0	0x3d8a7c80	0.06762028
1	0xbe4255e1	-0.18978073
2	0xbda1b73e	-0.07896279
3	0x3d7e9b10	0.062159598
4	0x3d9a2234	0.07526055
5	0xbb5082f0	-0.0031816326
6	0x3e289c2f	0.1646583
7	0xbe68d1af	-0.22736238
8	0xbe0469c9	-0.12930979
9	0xbd071b5d	-0.03298508
10	0x3dbe8254	0.09302202
11	0xbc2c059f	-0.010499387
12	0x3d972d0a	0.073816374
13	0xbdfd8946	-0.123796985
14	0x3da81ec7	0.08208995
15	0x3d95fac9	0.07323224
16	0x3deff2d9	0.117162414
17	0xbe0c6b13	-0.1371272
18	0x3d789a77	0.060694184
19	0xbd4ccbd1	-0.049999062
20	0xbd8b72cc	-0.06809005
21	0x3d6bc3ea	0.057559885
22	0xbce2023c	-0.027588956
23	0xbdb80063	-0.08984449
24	0xbd4b7b21	-0.04967797
25	0x3db75489	0.08951671
26	0xbcdf2dfa	-0.027243603
27	0xbdb59c69	-0.088677235
28	0x3c6235ba	0.013806755
29	0x3d559abf	0.05214953
30	0xbd997211	-0.074924596
31	0x3df14970	0.11781585
32	0x3d00d986	0.031457447
33	0xbe042b16	-0.12907061
34	0xbdac63e7	-0.08417492
35	0xbd0f9f6c	-0.035064146
36	0x3d9770d5	0.07394568
37	0xbbe6e3f2	-0.007046216
38	0x3d944c98	0.072411716
39	0xbde1b2a3	-0.110204004
40	0x3e074072	0.13208178
41	0x3d04214a	0.03225831
42	0xbd4be1c9	-0.049775872
43	0xbdbe4743	-0.09290936
44	0xbdaf7b2a	-0.085684136
45	0x3d9a2286	0.07526116
46	0x3c00bd97	0.007857702
47	0xbd89f975	-0.06737033
48	0xbda8fc24	-0.08251217
49	0xbbfebbfe	-0.0077738753
50	0xbdd54496	-0.10413472
51	0xbcbb0a09	-0.022831934
52	0x3e0457c2	0.12924102
53	0xbcd2d9fe	-0.025738712
54	0x3dc4f362	0.09616734
55	0xbbc1bf72	-0.0059127146
56	0x3d510cd0	0.05103761
57	0x3dba6d7a	0.09102912
58	0xbdcf91ed	-0.10135255
59	0x3d4911de	0.049089305
60	0xbd983f86	-0.07433991
61	0x3d7aab3c	0.061198458
62	0xbd402103	-0.046906482
63	0x3d0ccad9	0.034373138
64	0xbc9dd781	-0.0192678
65	0x3da25f87	0.07928377
66	0x3bb0f477	0.005400236
67	0xbd89ccaa	-0.0672849
68	0x3c68f42e	0.014218373
69	0xbda6ed31	-0.081507094
70	0xbe87d3ec	-0.2652887
71	0x3e69a39a	0.22816315
72	0xbd98fdf7	-0.07470315
73	0x3e6b0f1f	0.22954987
74	0x3dbf13ec	0.09329972
75	0x3e00993a	0.12558451
76	0x3cfd8536	0.030947309
77	0xbd8b39a1	-0.06798101
78	0xbca85ef1	-0.020553084
79	0xbd2c73a2	-0.042102464
80	0x3dc6c127	0.0970481
81	0xbd1369f9	-0.035989735
82	0xbdd73ad7	-0.1050927
83	0x3e209610	0.15682244
84	0x3e831324	0.2560054
85	0xbdddc647	-0.10828834
86	0xbdbe6668	-0.09296876
87	0x3d3a34c8	0.045460492
88	0xbc87fcae	-0.01659998
89	0xbd84caeb	-0.06484016
90	0x3d40e653	0.047094654
91	0x3dd1a320	0.10236192
92	0x3c4eb429	0.012616196
93	0xbd66133b	-0.056170683
94	0x3cd70e28	0.026251867
95	0x3c565c51	0.013083533
96	0x3ca8bea7	0.020598723
97	0xbd5f0a62	-0.05445326
98	0xbd9cd18e	-0.07657157
99	0x3d0f206f	0.03494304
100	0xbe05ca39	-0.13065423
101	0x3da2a62f	0.07941853
102	0x3c8d45ff	0.01724529
103	0xbd9268a2	-0.071488634
104	0xbd7bf7a2	-0.061515458
105	0x3dbac2d6	0.09119193
106	0xba81e2ea	-0.0009909545
107	0xbe0b59cf	-0.13608478
108	0xbd3fd130	-0.046830356
109	0x3cae1be0	0.021253526
110	0x3b4e8c25	0.0031516638
111	0x3e32b2bb	0.17450993
112	0x3dec51c8	0.11539036
113	0x3e5af61a	0.21382943
114	0xbd3ea5ac	-0.046544716
115	0xbe609d16	-0.21934924
116	0x3cb403ea	0.021974523
117	0x3df3f96b	0.11912807
118	0x3d43b0c0	0.047775984
119	0xbd1bea37	-0.03806516
120	0xbcbdeb0d	-0.02318337
121	0x3e4031e4	0.18769032
122	0xbca234db	-0.019800594
123	0x3d204d2b	0.039136093
124	0x3c1b0dd0	0.009463742
125	0x3e05b5c4	0.1305762
126	0x3db7063e	0.089367375
127	0x3cd4413f	0.025910018
128	0xbd1928a4	-0.037392274
129	0x3dcc3866	0.09971695
130	0xbe25012f	-0.16113733
131	0x3d0f2848	0.034950525
132	0x3d46e784	0.048560634
133	0xbde001e1	-0.109378584
134	0xbd9d32a0	-0.076756716
135	0xbd10641a	-0.035251714
136	0x3d8cb410	0.06870282
137	0x3c25b740	0.010114491
138	0x3e02fae4	0.1279102
139	0xbdc80f91	-0.09768594
140	0x3ccdddec	0.025130235
141	0x3e257b71	0.1616037
142	0xbd5a3c65	-0.053280253
143	0x3dfad5f5	0.1224784
144	0x3d99f386	0.075171515
145	0x3e204fab	0.15655391
146	0x3e2d881f	0.16946457
147	0xbd6cfa84	-0.057856098
148	0x3cd4f79a	0.025996972
149	0xbe0f120f	-0.13971733
150	0xbc8653fe	-0.016397472
151	0xbd035ee3	-0.032072913
152	0x3e2b77ab	0.16744868
153	0xbc595926	-0.013265884
154	0xbd22b98f	-0.039727744
155	0x3ca41be8	0.020032838
156	0xbdf22ba4	-0.1182473
157	0x3cde2f30	0.02712211
158	0xbd32548b	-0.043537658
159	0xbda2ff98	-0.07958907
160	0xbc8f1741	-0.017467143
161	0xbd4e74f7	-0.050404515
162	0x3c98fef1	0.018676253
163	0xbd766203	-0.060152065
164	0xba07cdb1	-0.0005180492
165	0xbe0c141b	-0.13679545
166	0x3de337f3	0.11094656
167	0xbdfa020d	-0.122074224
168	0x3d4d5cc9	0.050137315
169	0x3d04d9bd	0.032434214
170	0xbca44d06	-0.020056259
171	0xbc9f11ab	-0.019417604
172	0x3dbe58c9	0.09294278
173	0x3d862fd3	0.065520905
174	0xbdf464c4	-0.11933282
175	0xba0f5102	-0.0005467088
176	0x3e45b8f6	0.19308838
177	0xbe56237c	-0.20911974
178	0x3d54866f	0.05188602
179	0x3def2554	0.11677042
180	0xbc91ba18	-0.017788932
181	0xbda28f4e	-0.079374894
182	0x3e8ce56a	0.2751878
183	0x3e3491d3	0.17633753
184	0xba5f4e49	-0.00085184403
185	0x3e497b81	0.19676019
186	0xbd833ca2	-0.06408049
187	0xbcc92ec9	-0.024558442
188	0xbe487814	-0.19577056
189	0x3d7daf77	0.061934914
190	0x3e19bd34	0.15013582
191	0xbd6a5c4e	-0.057216935
192	0x3daac1f3	0.08337774
193	0x3db860a9	0.090028115
194	0x3d057b37	0.03258821
195	0x3d254633	0.04035015
196	0xbc31b565	-0.0108464705
197	0xbdaee13b	-0.08539053
198	0xbe0e0ffb	-0.13873284
199	0xbc9674bd	-0.018366212
200	0xbd74cbab	-0.059764545
201	0xbd9297cf	-0.071578614
202	0x3e08463c	0.13308042
203	0x3e118755	0.14211781
204	0xbe0faa0b	-0.1402971
205	0x3d9b62a8	0.075871766
206	0x3d5f35f8	0.054494828
207	0xbc89b87c	-0.016811602
208	0xbc4453fc	-0.011982914
209	0xbd1e30cf	-0.038620766
210	0xbdd582f8	-0.10425371
211	0x3dadf8f5	0.084947504
212	0xbd03775f	-0.032096263
213	0x3d757683	0.059927475
214	0xbd561ed1	-0.052275483
215	0x3ccff6f0	0.025386304
216	0x3cb0cc79	0.021581875
217	0x3e3b412e	0.18286583
218	0xbd3338ea	-0.04375545
219	0x3c919214	0.01776985
220	0x3cf66881	0.030079128
221	0x3dc5e13a	0.09662099
222	0x3d159f49	0.03652886
223	0x3db00b19	0.08595867
224	0x3b594149	0.0033150485
225	0xbdbcd1df	-0.09219717
226	0x3e27acda	0.16374531
227	0xbd2f5b7d	-0.04281186
228	0xbc3bde95	-0.011466642
229	0xbd1e63ce	-0.0386694
230	0xbd2c9bd2	-0.04214079
231	0xbdc2e974	-0.09517184
232	0xbde8bd21	-0.113641985
233	0xbda79dab	-0.0818437
234	0xba38f170	-0.000705502
235	0xbd141964	-0.036157027
236	0xbe171ef6	-0.14757904
237	0xbccb7451	-0.024835737
238	0xbb0893be	-0.0020840014
239	0x3c85ae71	0.016318532
240	0xbe01b1c3	-0.12665467
241	0xbd9a875b	-0.07545348
242	0xbb745a77	-0.0037285367
243	0x3c98bd9f	0.018645106
244	0x3e1e9de8	0.15489924
245	0xbcc81f67	-0.024429036
246	0xbdc4ee65	-0.09615783
247	0x3d171001	0.036880497
248	0xbbf3389b	-0.0074225194
249	0x3db36ee9	0.08761389
250	0xbd777ec9	-0.060423646
251	0x3db25033	0.08706703
252	0x3dc611a1	0.09671331
253	0xbd88cc35	-0.066795744
254	0x3b59d293	0.0033237084
255	0x3c5b4285	0.013382559

network_body._body_endoder.seq_layers.2.bias f4 [128]
0	0xbc366b95	-0.011134048
1	0xbbc1de76	-0.005916412
2	0xbcb76121	-0.022385182
3	0xbaa35e24	-0.0012463969
4	0x3a090bc8	0.0005227891
5	0x3a9bd216	0.0011888172
6	0xbbde951c	-0.0067926776
7	0xbc627d61	-0.013823838
8	0xbc1ba48a	-0.009499678
9	0xbc70b336	-0.014691165
10	0xbb824272	-0.003975206
11	0xbbae981a	-0.0053281905
12	0xbc49e117	-0.012321732
13	0xbb0ceffa	-0.0021505342
14	0xbc3297cf	-0.010900452
15	0xbc5f0610	-0.013612285
16	0x3aa4ac85	0.0012563622
17	0xbb299dbd	-0.0025881373
18	0xbbd28a21	-0.0064251577
19	0xbb78d983	-0.0037971444
20	0xbc00d42a	-0.007863084
21	0xbb913908	-0.0044318475
22	0xbc3b587f	-0.011434673
23	0xbc43df62	-0.011955114
24	0xbc2a5d3d	-0.010398206
25	0xbc17f8c0	-0.009275615
26	0xbc61a36f	-0.013771876
27	0xba07ef88	-0.0005185534
28	0xbc43d7b4	-0.011953283
29	0xbc5274a0	-0.012845188
30	0xbc51f505	-0.012814765
31	0xbbc22aed	-0.0059255273
32	0xbc3c6e54	-0.011500914
33	0x3ab3b317	0.0013709989
34	0xbc410fad	-0.011783523
35	0xb9efcec1	-0.00045739676
36	0xbbdf2949	-0.0068103415
37	0xbc0565d0	-0.00814195
38	0xbc3206b2	-0.010865854
39	0xbb901ee0	-0.004398212
40	0xbc27ce06	-0.010241991
41	0xbbd77411	-0.0065751155
42	0xbbb1a495	-0.005421231
43	0x39efcdf6	0.00045739085
44	0xbb46b811	-0.0030322114
45	0xba281456	-0.00064117217
46	0xbb342c87	-0.002749236
47	0xbb646098	-0.0034847613
48	0xbc064180	-0.008194327
49	0xbc1d76b7	-0.009610823
50	0xbbae04ce	-0.0053106314
51	0x3b2eeb04	0.0026690373
52	0xbba6186b	-0.005068829
53	0xbc5d4b6f	-0.013506754
54	0xbc327660	-0.010892481
55	0xbc470654	-0.012147505
56	0xbb79cec7	-0.0038117634
57	0xbb62f70e	-0.003463212
58	0xbbfc22f7	-0.007694598
59	0xbb87b127	-0.0041409913
60	0xbbb9a589	-0.0056654853
61	0xbb8e8404	-0.0043492336
62	0xbb9a8f01	-0.0047167544
63	0x39a37dda	0.0003118355
64	0xbc2f143e	-0.010685978
65	0xbc1a617b	-0.009422655
66	0x3b23f1d7	0.0025015974
67	0xbb656d53	-0.003500779
68	0x3af4f403	0.0018688444
69	0xbc2c10b9	-0.010502034
70	0xbb1d81ab	-0.0024033587
71	0xbb980882	-0.004639686
72	0xbc2dcd5e	-0.010608045
73	0xbbd43ab0	-0.0064767227
74	0xbc318211	-0.010834233
75	0xbc205e43	-0.009788099
76	0x3a485a48	0.00076428475
77	0xbb8b7455	-0.004255811
78	0xbc581979	-0.013189667
79	0xba38c13e	-0.00070478383
80	0xbc41a3b8	-0.011818819
81	0xbbd1214b	-0.0063821427
82	0xbbb3d6cf	-0.0054882537
83	0xbac8e568	-0.0015327157
84	0xbb22b6e4	-0.002482825
85	0xba3b69aa	-0.0007149229
86	0xbba580f3	-0.0050507723
87	0xbbdcec14	-0.00674201
88	0xbba089f1	-0.0048992564
89	0xbb0735a7	-0.0020631345
90	0xbc3fc94f	-0.011705711
91	0xbba86569	-0.005139042
92	0xbb965af4	-0.004588479
93	0xbb5ea8a8	-0.0033975039
94	0xbc2d27bb	-0.0105685545
95	0xbb812399	-0.003941011
96	0xbb3c9b63	-0.002877914
97	0xbc235058	-0.009967886
98	0xbc016f4a	-0.007900069
99	0xbbad51fb	-0.005289314
100	0xbb453ec7	-0.0030097233
101	0x39198490	0.000146406
102	0x3b19d13e	0.0023470665
103	0xba83d7d2	-0.0010058826
104	0xbbf4651a	-0.0074583413
105	0xbc0518d4	-0.008123595
106	0xbc2df7af	-0.010618134
107	0xbbadcbd3	-0.0053038388
108	0xbb9865ce	-0.004650808
109	0xbbbdaea7	-0.0057886424
110	0xbc1234a0	-0.00892368
111	0x396b97bc	0.00022467872
112	0xbb5874f5	-0.0033028696
113	0xbb950725	-0.004547971
114	0xbbefcdbc	-0.0073182266
115	0xbc139723	-0.009008202
116	0xbc2b0c24	-0.010439906
117	0x3aeef3d6	0.0018230628
118	0xbb236de5	-0.0024937328
119	0xbc180c2a	-0.009280244
120	0xbbbf4656	-0.005837242
121	0xbb81f7ab	-0.003966292
122	0xbbca7061	-0.0061779474
123	0xbb204bcc	-0.002445924
124	0xbc1c5364	-0.009541366
125	0xbbf846cc	-0.007576799
126	0xba9ae689	-0.0011817972
127	0x3b7f328e	0.0038940045

action_model._continuous_distribution.log_sigma f4 [1, 3]
0	0xbd1bf6bb	-0.038077097
1	0x3ac04660	0.0014669411
2	0xbd7d23aa	-0.06180159

action_model._continuous_distribution.mu.weight f4 [3, 128]
0	0xba8e098a	-0.0010836583
1	0x3b800754	0.0039071236
2	0xbb5dae20	-0.003382571
3	0x3b91e9f2	0.0044529373
4	0xbc176023	-0.009239229
5	0xbc183436	-0.009289792
6	0xbab6e2dd	-0.0013953109
7	0xbba16733	-0.0049256324
8	0x3cd44d40	0.025915742
9	0xbb97ead8	-0.00463615
10	0x3bcf58ca	0.006327723
11	0x3d053252	0.032518692
12	0x3ba35bde	0.0049853167
13	0xbc8541db	-0.016266754
14	0x3a0f1425	0.0005458019
15	0xbbf2bce0	-0.0074077696
16	0x39adc024	0.00033140287
17	0xbc32e05d	-0.01091775
18	0x3c944de4	0.018103547
19	0xbbe1dc75	-0.0068927356
20	0xb7305afa	-1.05116e-05
21	0xbc9bae48	-0.019004002
22	0xbb5de404	-0.0033857832
23	0x3be1147f	0.0068688984
24	0x3c613677	0.013745896
25	0x3c0e4989	0.008684524
26	0xba3bcc01	-0.0007163883
27	0x394d3e2a	0.00019573481
28	0xbc7ec1de	-0.015549151
29	0xbb9e000f	-0.0048217843
30	0xbc6eb1c2	-0.014568748
31	0x3b821c22	0.003970639
32	0xbc260001	-0.010131837
33	0x3adadd2e	0.0016697997
34	0xbbdbccc2	-0.0067077586
35	0xb8485ad8	-4.776832e-05
36	0xbcbfba0e	-0.023404147
37	0x3c7beb44	0.015375916
38	0xbc896508	-0.016771808
39	0x3c598e75	0.013278593
40	0xbc1c3492	-0.009534018
41	0xbc05d612	-0.008168714
42	0xbc8961fe	-0.01677036
43	0xbce3d8a0	-0.027813256
44	0xbb52bcae	-0.003215592
45	0xb96e9e8a	-0.00022756509
46	0xbb848443	-0.004044087
47	0x39e39005	0.00043404117
48	0x3c5cbccd	0.013472748
49	0xbbdfceaf	-0.0068300585
50	0x3b9e2e40	0.004827291
51	0x39267cb9	0.00015877456
52	0x3c3e9f61	0.011634679
53	0xbad39cc4	-0.0016144742
54	0xbc190bd1	-0.009341196
55	0xbb7800a4	-0.0037842179
56	0xbc49dbf2	-0.012320505
57	0x3b946fcc	0.004529929
58	0xbb380a2d	-0.0028082237
59	0x3d476eb1	0.048689548
60	0xbc2175eb	-0.009854774
61	0xbba7c429	-0.0051198197
62	0xbb5cb7b1	-0.0033678825
63	0xbc54ae0e	-0.012980951
64	0x3c5c0d5e	0.013430921
65	0x3c4e88ca	0.012605855
66	0xbc82e230	-0.015976995
67	0x3b193195	0.00233755
68	0x3b8fe172	0.004390889
69	0x3c77ac6c	0.015116792
70	0xbce8c691	-0.028414996
71	0x3c676ba2	0.014124783
72	0xbbead519	-0.0071665165
73	0x3b945575	0.004526789
74	0x3bcad05a	0.006189388
75	0xbc295db5	-0.010337283
76	0xbc64c08f	-0.013961925
77	0xbc4da019	-0.012550377
78	0xbc1d8f44	-0.009616677
79	0x3cfedc73	0.031110978
80	0x3c08844a	0.008332321
81	0x3b8a3317	0.004217516
82	0x3bbcc8bd	0.0057612346
83	0x3c7540ab	0.014969031
84	0x3c092a92	0.008371966
85	0xbbb12ca7	-0.0054069343
86	0x3bb7b5aa	0.005606373
87	0x3b2c4f24	0.0026292289
88	0xb99e31f9	-0.0003017334
89	0xbafa760c	-0.0019108667
90	0xb997c420	-0.0002894709
91	0x3ad4676d	0.001620514
92	0x3c124e58	0.008929811
93	0xba16be35	-0.0005750389
94	0x3b1eb159	0.0024214594
95	0x399cf327	0.000299358
96	0x3ba939a1	0.0051643406
97	0x3c8136c1	0.015773179
98	0xbbcdb479	-0.0062776175
99	0x3c7f1396	0.0155686345
100	0x3bacc769	0.005272795
101	0xbba1b2b8	-0.004934635
102	0x3ccc8c97	0.024969382
103	0x3b6d2c29	0.0036189652
104	0xbb87b5f6	-0.0041415645
105	0x3d04972c	0.03237073
106	0x3c013ac0	0.007887542
107	0x39d87c0a	0.00041291147
108	0x3cdaf9fe	0.026730534
109	0xbc957fb1	-0.018249365
110	0xbba4d42c	-0.0050301757
111	0x3b9d6a1b	0.0048039085
112	0xb92d1432	-0.00016506089
113	0xbc738f86	-0.014865762
114	0x3c8815ce	0.01661196
115	0xbc151606	-0.009099489
116	0x3c03c930	0.008043572
117	0x3cd835f6	0.026392918
118	0xb8462c01	-4.724786e-05
119	0xbb393c29	-0.0028264618
120	0x3b2c5bf8	0.0026299935
121	0x3ad5fd5c	0.0016326117
122	0x3ce02695	0.027362147
123	0x3c39ce47	0.011340684
124	0xbc35b226	-0.011089837
125	0xbbdf9109	-0.0068227095
126	0x3c29761c	0.010343101
127	0x399d7cb4	0.00030038285
128	0x3be8d9fa	0.007106063
129	0xba328e20	-0.00068113394
130	0xba8c487a	-0.0010702752
131	0xbd0972e2	-0.033556826
132	0x3cc17bec	0.02361866
133	0x3c96e674	0.018420435
134	0xbb0ab90c	-0.0021167425
135	0xb989b400	-0.00026264787
136	0x3ca5fe81	0.020262958
137	0xbac2af7d	-0.0014853325
138	0xbbb320bc	-0.0054665487
139	0x3ce0c97c	0.027439825
140	0xbcc219e0	-0.023693979
141	0xbc500184	-0.012695674
142	0xbba0ec8e	-0.004911012
143	0xbbbaea8c	-0.0057042297
144	0x3d05fedf	0.032713767
145	0xbcc0c3e0	-0.0235309
146	0xbb17000e	-0.0023040804
147	0xbbea5610	-0.0071513727
148	0x399697e4	0.00028723397
149	0xbb819a03	-0.003955127
150	0xbad7c730	-0.0016462561
151	0x3b605a61	0.0034233558
152	0x3c32297f	0.010874151
153	0x3bac3ed8	0.005256515
154	0x399d1c43	0.0002996643
155	0xb8a3ede9	-7.81676e-05
156	0xbab71b8c	-0.0013970002
157	0xbbddcfce	-0.006769157
158	0xbb9c4ca8	-0.0047698803
159	0xbc7b96c6	-0.015355771
160	0xbd0fbb43	-0.035090696
161	0x39465901	0.00018915908
162	0x3ab41c6c	0.001374138
163	0xb9bf50f8	-0.00036490685
164	0x3c8bca96	0.017064374
165	0xbbb5fb98	-0.005553674
166	0xbc2cfddd	-0.010558573
167	0x3ca7245c	0.02040308
168	0x3a4309fb	0.0007440147
169	0xbc3b6969	-0.011438706
170	0xbba96824	-0.0051698852
171	0xbca5246c	-0.020158969
172	0xbacd43f7	-0.0015660514
173	0xba8af90e	-0.0010602789
174	0xbb15e77e	-0.0022873576
175	0xb955d4e2	-0.00020392568
176	0x3b7c5797	0.0038504356
177	0x3c0238dd	0.007948128
178	0xbca54847	-0.020176066
179	0x38e0689f	0.000107006395
180	0x3c4e68c4	0.01259822
181	0xbbab92e0	-0.0052360147
182	0x3c5589aa	0.01303331
183	0x3b8e1b2c	0.0043367352
184	0xbc6c8972	-0.014437066
185	0xbc95fa58	-0.01830785
186	0xbb076267	-0.0020658018
187	0x3c4a8190	0.012359992
188	0x3c3fd8a6	0.011709368
189	0xbc880d29	-0.016607838
190	0xbb0119bc	-0.0019699177
191	0x3cf0ea1d	0.029408509
192	0xbbd9e6f0	-0.0066498443
193	0xb992f664	-0.00028030865
194	0x3b8bceaa	0.0042665796
195	0x3bf1ba7e	0.007376968
196	0xb9a624d4	-0.00031689426
197	0x3c289c5c	0.010291185
198	0x3bb2399f	0.005438998
199	0x3c691f74	0.01422869
200	0xbd32da9f	-0.043665525
201	0x3c81e321	0.015855374
202	0xbb1677b0	-0.0022959523
203	0x3b87806c	0.004135182
204	0xbd1dc167	-0.03851452
205	0x3cac8f8a	0.021064539
206	0xbbc474f3	-0.0059953867
207	0x3c467ab5	0.012114217
208	0xbc8bb2e7	-0.01705308
209	0xbc5706a2	-0.01312414
210	0xb7952478	-1.7779166e-05
211	0x3b658503	0.0035021908
212	0xbd09eb6b	-0.033671778
213	0xbce89594	-0.028391637
214	0x3cc149d8	0.023594782
215	0x3c90d1c5	0.01767815
216	0x3c32357c	0.0108770095
217	0x3b81142f	0.0039391736
218	0x3bf009ab	0.0073253713
219	0x3ae2a923	0.0017292838
220	0xbafa9500	-0.0019117892
221	0xb9714bd4	-0.00023011799
222	0xbce49a35	-0.027905563
223	0xb84147ba	-4.6081586e-05
224	0x3c588b96	0.013216874
225	0xbb58edee	-0.0033100802
226	0xbc089ecb	-0.00833864
227	0xbca362c3	-0.019944554
228	0x3b7680f7	0.003761349
229	0x3bc553c7	0.00602195
230	0xbc0ecb4b	-0.008715461
231	0x3c45034e	0.012024714
232	0x3d1e1351	0.03859264
233	0xbbeb6581	-0.007183731
234	0x3bd53bb4	0.0065073613
235	0xb88fc48b	-6.85538e-05
236	0x3bf9cbe4	0.0076231826
237	0x3b931166	0.004488158
238	0x3c112e9b	0.008861209
239	0x3a38ece3	0.0007054342
240	0x3a368ed7	0.0006964034
241	0xbc178f4c	-0.009250473
242	0x3c0d7b45	0.008635347
243	0x3af30ee4	0.0018543866
244	0x3becbcc5	0.0072246515
245	0x3cc495f7	0.02399729
246	0xb7f9f92a	-2.979914e-05
247	0x3c5a5fff	0.013328551
248	0x3a34eef8	0.0006902064
249	0x3ba78454	0.0051122103
250	0xbc033832	-0.0080090035
251	0xbbc05033	-0.0058689355
252	0x3c13ee62	0.009029003
253	0x3cdfb82f	0.027309505
254	0x3c361148	0.011112519
255	0x39037a24	0.00012538634

action_model._continuous_distribution.mu.bias f4 [3]
0	0xbb6dc697	-0.00362817
1	0xbb98a237	-0.0046580094
2	0xbb0d46ab	-0.0021557014
