results/Test4.3/CarAgent/CarAgent-54930.pt (torch, 490591 bytes, 36 tensors)

network_body._body_endoder.seq_layers.0.weight f4 [128, 22]
000000 9f 03 ff bc 94 e5 22 be c7 3a 63 3e cb 55 41 3e
       -0.031129656 -0.1590789 0.2219039 0.18880384
000010 9e e9 38 3e 00 b9 31 3c 81 f4 cc 3e de 51 06 be
       0.18057868 0.01084733 0.40030292 -0.13117167
000020 0a 93 8b 3e 49 e6 fe 3b 97 43 56 3e 84 3e 99 3d
       0.2726062 0.007778917 0.20924221 0.07482627
000030 f5 14 16 3e 21 98 77 3e 8e ea 24 3e ca c8 6b 3d
       0.14656432 0.24179126 0.161051 0.057564534
000040 b6 15 35 3e ce b7 09 3f 05 24 9f be bd b6 98 be
       0.17684063 0.5379609 -0.31082168 -0.29826918
000050 4e 1e 31 be 53 6a 58 bd b1 8e f3 3c 45 98 c7 be
       -0.17296717 -0.052835774 0.029731127 -0.3898336
000060 00 df 23 bd 86 98 a8 3d 73 8f f6 be 16 1a 9d 3c
       -0.04000759 0.082322165 -0.48156318 0.019177478
000070 f5 84 6e 3e a4 2d df 3a af 8b 8c bb fc b5 26 be
       0.23292907 0.0017027152 -0.0042891125 -0.16280359
000080 2b 14 0d 3e 98 54 b8 3d 3a b6 c5 3d 1a f2 e1 3d
       0.13777225 0.0900051 0.096538976 0.11032505
000090 09 2d c8 3e 51 38 28 3d 00 5e 1b be c1 f3 4e be
       0.3909686 0.041069333 -0.15172577 -0.20210172
0000a0 c9 71 22 3d 21 7a ee 3e f2 db d9 3d af c7 ad 3e
       0.039659295 0.46577552 0.10637654 0.3394141
0000b0 3c 29 06 be 12 d7 41 3d d2 85 a3 3e 69 47 31 3e
       -0.13101667 0.047324248 0.31938034 0.17312397
0000c0 0b d6 3e 3e 24 19 36 bd cd 67 dd be 3c f3 e9 3d
       0.18636338 -0.04445757 -0.43243256 0.114233464
0000d0 fa 8f 7d be 8a 17 7a bc 5b 82 e1 3c e8 44 a7 be
       -0.24761954 -0.015264401 0.027527979 -0.3266976
0000e0 92 30 d3 3e 28 44 c9 3d 8a 33 98 3e 6e b6 95 be
       0.41247994 0.09827453 0.2972682 -0.29240745
0000f0 13 38 f3 3d ee a9 4e bd ff cb ba 3e 2e 4e 7c 3e
       0.1187593 -0.050455026 0.36483762 0.24639198
000100 4a 3c ca bd d4 4a e7 3e 42 4a 8d 3e 6c da fb 3d
       -0.098747805 0.45174277 0.27595717 0.1229752
000110 60 6b 3a bc 8d e2 25 be e9 9b 82 3e a0 92 8c 3e
       -0.011378139 -0.16199704 0.25509575 0.27455616
000120 b4 96 b4 3e 69 9c d1 3e 15 7a f4 3c 40 d1 d9 3d
       0.35271227 0.40939644 0.02984337 0.106356144
000130 f0 f1 a4 bd c0 45 09 3e 4b 62 d5 3e ac c3 18 bd
       -0.080539584 0.13405514 0.41676554 -0.037295982
000140 94 ce 6c be ec 97 be be a4 b4 53 be 7d 17 87 bc
       -0.23125678 -0.37225282 -0.20674378 -0.016490692
000150 6a c4 6f 3c 8e 67 87 be b5 52 34 3e 9f 3d 8a be
       0.014634231 -0.26446193 0.17609675 -0.27000138
000160 8a 21 95 3d 28 b8 5d 3e a9 b8 30 3d 79 0b 7c 3c
       0.07281788 0.21652281 0.043144856 0.015383595
000170 46 a3 43 3e ef 6a 03 be 1b 1c 41 be 77 c5 9a 3e
       0.19105253 -0.1283376 -0.18858378 0.3022878
000180 03 31 c6 3e 8c cc 0b 3d d4 a5 91 3b b3 1f 11 bd
       0.38709268 0.034130618 0.004444817 -0.03543062
000190 c0 71 b6 3e 78 91 82 3e ad bd d1 be d4 21 78 bd
       0.3563366 0.2550161 -0.40965024 -0.060579136
0001a0 e5 63 93 3e 1c c3 11 be 4a b1 c4 3e 07 56 6b be
       0.2878715 -0.14234585 0.3841651 -0.22982036
0001b0 ec 97 72 bd 4d c1 5a be d4 05 45 3e f8 59 31 be
       -0.059226915 -0.21362801 0.19240505 -0.17319477
0001c0 29 56 b2 ba 9a af 0e 3f 57 81 ab 3e c8 21 35 3e
       -0.0013606 0.55736697 0.33497116 0.17688668
0001d0 d3 47 9c bc f4 d6 6e be 24 1e 30 be c0 28 8a 3e
       -0.019077217 -0.23324186 -0.17198998 0.26984215
0001e0 76 7b c8 bd 1c 4b 6b bd 2d 95 61 3e 91 0f e3 bd
       -0.09789173 -0.057444677 0.22029562 -0.110869534
0001f0 12 e9 7d be 88 9f 1c be f0 89 51 3e 5e 70 49 be
       -0.2479594 -0.15295231 0.20462775 -0.19671771
000200 2b d6 ce 3e 25 57 af 3c a1 0f 99 be ab 8b 92 3e
       0.40397772 0.021403858 -0.29894736 0.28622183
000210 16 63 8f be 32 3f ed 3d a1 1e ca 3c a6 a1 70 3e
       -0.28005284 0.11584319 0.024672808 0.23499164
000220 9f 00 80 3e 3b 2d 46 bd 43 af 90 3e d4 91 a1 3d
       0.25000474 -0.04838298 0.28258714 0.07889143
000230 2d e8 41 bc 2f 25 9c 3e 92 e3 42 3e ae 69 7b 3e
       -0.01183514 0.3049712 0.19032124 0.24552032
000240 e3 4f 65 bb 6f c7 92 3e 22 f6 68 bc bb 92 67 3e
       -0.0034990243 0.2866778 -0.014218839 0.22614567
000250 b1 ae 2f bd a7 44 a2 be ce 41 a8 3d 24 28 d9 3d
       -0.042891208 -0.31693003 0.08215676 0.10603359
000260 2e 59 77 be 67 65 0f bd 5e 70 22 be 15 c2 07 3f
       -0.24155113 -0.035008814 -0.15863177 0.5303052
000270 92 da 9e 3e 7a c2 bb 3a bc b0 3f be 3e dd 9f 3e
       0.3102613 0.0014324926 -0.18719763 0.31223482
000280 58 42 2f be 3e 57 de 3d 12 7f 44 be 21 6c ba bd
       -0.17115152 0.10856484 -0.19189098 -0.09102655
000290 cb 10 45 bd 95 0c 62 be 28 1b b3 bc f3 d7 d8 bd
       -0.04811172 -0.22075112 -0.021863535 -0.10588064
0002a0 3a 6a 86 3e 47 24 e7 be da 3e 94 3e 52 6a 62 3e
       0.2625292 -0.45144865 0.28954202 0.2211087
0002b0 a8 ad 71 3e 0d 52 14 bd f3 77 8d bd 86 75 bb bc
       0.23601401 -0.036211062 -0.06907644 -0.022883188
0002c0 78 c1 0f 3e ad b2 55 3d dd 96 21 3e 50 a2 1e be
       0.14038646 0.05217235 0.15780206 -0.15491605
0002d0 9f 36 07 bc 0b 9e b5 bb ff 99 e8 3d fc bb 8d 3e
       -0.008252769 -0.005542522 0.113574974 0.27682483
0002e0 cf c6 7e 3e 16 b9 95 bd 90 71 8a be a5 3a eb be
       0.24880527 -0.07310693 -0.27039766 -0.4594318
0002f0 c3 f9 c9 bd 77 77 6b be 9c 08 09 3e 0a 60 b6 be
       -0.098620914 -0.22994791 0.1338219 -0.35620147
000300 5e 96 99 3e 43 38 05 bf 2f 66 ca 3e 9c 62 0c be
       0.29997534 -0.52038974 0.39531085 -0.13709491
000310 37 b5 32 bc 54 fc 89 be 58 8b d9 be 65 e1 c9 3c
       -0.010907463 -0.26950324 -0.42489123 0.02464361
000320 ff 60 8c bd bb e7 f7 3c 97 b2 d5 3e dd 78 1b be
       -0.06854438 0.030261865 0.41737816 -0.15182824
000330 35 51 10 be d4 5d 48 be fc e7 65 be 37 d2 0c bd
       -0.14093478 -0.19567043 -0.22451776 -0.034380164
000340 e7 65 b3 3e df ec 6c be 31 53 c3 3e 1d 50 21 3e
       0.35038683 -0.23137234 0.38149408 0.15753217
000350 7a e3 fd 3e d2 9f 99 3e 1a 77 68 3e 5f 30 ae bd
       0.49587613 0.30004746 0.22701684 -0.0850532
000360 5a 97 5e 3e a0 09 a7 3d 14 d6 5c 3e 6f 66 04 3c
       0.21737424 0.08156133 0.2156604 0.008081063
000370 56 5c 88 3e 71 49 cc 3d 77 d1 cc bd a9 c3 3e 3e
       0.26632947 0.09974945 -0.1000089 0.18629326
000380 aa a7 94 bd 5f 74 6e bd 20 7e 28 bd 2c dc 2f be
       -0.07258542 -0.05821645 -0.041135907 -0.17173833
000390 88 bc 93 be 8a fb db 3d 64 cf f2 3d 4f 0d f3 3c
       -0.28854775 0.10741337 0.11855963 0.029669432
0003a0 ce 84 96 bd a8 4b 8e 3e 38 15 47 be b6 37 01 be
       -0.07349549 0.27792096 -0.19441688 -0.12618908
0003b0 1a ef ac 3e 72 7f f4 3d 15 50 f4 bd a7 85 a9 be
       0.3377617 0.11938371 -0.11929337 -0.3310978
0003c0 a8 86 f3 be 3a 92 70 3d e4 ae 13 3e 3a a5 da 3c
       -0.47563672 0.058733203 0.14422184 0.026690114
0003d0 d2 04 77 3e 84 d0 8d be c8 01 48 3d 0c 83 bd be
       0.24122933 -0.27698147 0.048829824 -0.37014043
0003e0 8c a5 06 bd 29 c9 45 bd 1b fd c3 3e 88 a3 40 3e
       -0.03287272 -0.048287544 0.38279042 0.18812382
0003f0 86 87 8f bd f9 be dd 3d 8a 79 1f 3e d4 a5 24 bb
       -0.07008271 0.10827441 0.15573707 -0.0025123255

network_body._body_endoder.seq_layers.0.bias f4 [128]
000000 be 31 e6 bc 2d b7 58 bd fe a0 0a bd a7 25 5e 3c
       -0.02809989 -0.052909065 -0.03384494 0.013558782
000010 31 5d c7 3d 40 5e 26 3d a7 b0 a5 bc fb 65 d9 bc
       0.09734572 0.040617228 -0.020225836 -0.026537886
000020 ac cd c6 bc ab a2 a7 3d f3 78 4c 3d 87 33 e3 3c
       -0.024267994 0.08185323 0.049920034 0.027734531
000030 c4 7b 97 bd 30 65 96 bd c2 7d aa bd 92 2b a4 3d
       -0.07396653 -0.07343519 -0.08324768 0.08016123
000040 8c 03 99 bd 7e 1c 23 3d 28 f4 97 ba d0 25 e9 ba
       -0.0747138 0.039822094 -0.001159315 -0.0017787758
000050 1d 26 fa bb a3 23 4e 3d 8a bf 5c bd f1 f1 8b bd
       -0.007633938 0.050326955 -0.053893603 -0.06833256
000060 3a d0 eb 3c 24 64 24 bc 2e fc 8f bd fe c2 81 3c
       0.028785814 -0.010033641 -0.07030521 0.01584005
000070 c0 eb 1d bd a9 32 2d bc e2 0b af bb 2c 57 3f bd
       -0.038554907 -0.01057116 -0.0053419927 -0.046713993
000080 a8 a5 34 bd e3 18 4c 3d fc 9d 5c bd be 63 95 bc
       -0.044103295 0.04982842 -0.053861603 -0.018236037
000090 5d 29 04 bd 98 cc e3 3c 71 54 11 bd c0 d0 33 bc
       -0.03226601 0.027807519 -0.03548092 -0.010975063
0000a0 43 2c 57 3d 37 cf 4c 39 02 77 24 bc 8d 5c a5 bc
       0.052532446 0.0001953215 -0.010038139 -0.020185733
0000b0 b0 8c c0 3a 84 ff 72 3c f0 8f 29 bd 39 93 1a 3c
       0.0014690366 0.0148314275 -0.041397035 0.009434515
0000c0 07 5f bc 3c 25 a3 13 3d ce 00 20 bd 27 09 d7 bb
       0.022994531 0.03604426 -0.039063267 -0.0065623703
0000d0 8c d4 72 bc 18 3b df bc bf 9d 36 bd 24 fa 1d bd
       -0.014821183 -0.027249858 -0.044584032 -0.03856863
0000e0 76 b5 32 3d eb db 71 3c 3e 34 8c bd 98 a6 08 bd
       0.043630086 0.014761905 -0.06845902 -0.033362
0000f0 bd 4e 86 bd 16 96 1b 3d be 7c fe 3c 9d 51 33 bd
       -0.06557987 0.03798493 0.031065341 -0.043779004
000100 83 bd c3 3c 0b b4 2b bc 05 99 22 bd 68 98 86 3c
       0.023894077 -0.010479937 -0.039696712 0.016430095
000110 3d 07 a2 3b f4 f4 a3 3b 67 af 07 bd 75 5a 74 bd
       0.0049447105 0.005003566 -0.03312626 -0.05965658
000120 de 04 66 3c b2 8a 0d bb 44 b1 db bc 5a 79 8d bc
       0.014039246 -0.0021597561 -0.026817925 -0.017269779
000130 f8 c3 29 bc 38 8b 01 3d 11 ba b2 bd 44 68 47 bd
       -0.010361664 0.03162691 -0.087268956 -0.04868342
000140 0f 80 bb 3c a9 35 99 3a 33 1a 94 3d 24 7d 94 bc
       0.022888212 0.0011688966 0.072315596 -0.018126078
000150 a3 ca 88 3a 23 dc 11 3d a0 c2 4c bc 09 71 db 3c
       0.0010436367 0.03561033 -0.012497574 0.026787298
000160 4f 4a 76 bd d2 0b 42 bd 9f 5f e7 3c 76 98 46 3d
       -0.06012946 -0.047374554 0.028243838 0.04848524
000170 b2 2c ab bc 69 1b 6a 3c 01 5e 0b 3d 08 89 46 bd
       -0.020895336 0.014288762 0.034025196 -0.048470527
000180 f2 19 b1 ba c5 fd a0 bd 33 b0 48 3d a8 e6 aa 3d
       -0.0013511761 -0.07860903 0.04899616 0.083447754
000190 72 06 03 3b f2 cd 04 3b 35 79 12 bb eb 2f 31 bd
       0.0019992855 0.0020264355 -0.0022350077 -0.04325859
0001a0 bb c5 a2 bd 1a 02 54 3c 06 c2 fa bc 17 b3 c6 bc
       -0.0794787 0.012939954 -0.030610096 -0.024255319
0001b0 7e c6 29 3d d1 fc cd bb 55 cf 5f 3d 23 cb 2a bd
       0.041449063 -0.0062862416 0.054641087 -0.041697633
0001c0 56 7a 19 bb 2a 44 d0 bc a3 ef 38 bc 00 bd 63 bb
       -0.0023418865 -0.025423128 -0.011287603 -0.0034750104
0001d0 38 a5 1b bd 7d 76 a0 3b c9 0e 7a bc b2 3c 1a 3d
       -0.03799936 0.0048969374 -0.015262314 0.03765554
0001e0 bd bf 44 bd b4 73 26 3d 34 6f 9f bd 1e 7c 22 bd
       -0.04803442 0.040637687 -0.07784882 -0.03966915
0001f0 4d 38 14 3d 06 aa 59 3c 0b fa 85 bc 10 f8 bd bc
       0.036186505 0.013285166 -0.016354581 -0.023189574

network_body._body_endoder.seq_layers.2.weight f4 [128, 128]
000000 6b de 79 3d d9 2c b3 3c 7f 48 b9 3a 75 80 f2 bb
       0.06100313 0.021871971 0.0014135985 -0.007400567
000010 78 12 b1 3d 41 e6 f2 bd 4f 51 cc 3d a8 78 49 bd
       0.08646101 -0.11860324 0.09976446 -0.049187332
000020 1b e0 22 3e 5d 3f 99 3c 68 af 41 be 15 8e 43 bc
       0.15905802 0.018706972 -0.18914568 -0.01193573
000030 0b c0 a6 be ba 53 bc bc 18 8d c1 3c c5 63 5d be
       -0.32568392 -0.022989143 0.023626849 -0.2162009
000040 0c ba a7 bd db bb 4e bc 5c 62 54 3d be 7c 9f 3c
       -0.081897825 -0.01261803 0.051851615 0.019468661
000050 42 1f d4 bd e5 bf 2b be 16 0e cd bd bd d9 0b be
       -0.103575245 -0.1677242 -0.10012452 -0.1365728
000060 6f 47 7b 3d 58 c3 91 bd c8 c8 a2 3c 99 f0 63 bb
       0.06134742 -0.07117337 0.01987113 -0.0034780859
000070 90 6b 70 bc f6 bf a5 3c cb e1 01 3e a5 e8 81 3d
       -0.014674082 0.020233136 0.1268379 0.063432015
000080 97 c5 5d 3d e6 ed 86 bc bb 1d 3b bc 3c 37 3c be
       0.054143514 -0.01647086 -0.0114206625 -0.18380445
000090 0a e4 16 bd 44 8d a7 3d b5 6a 1a bd 26 ec 12 bd
       -0.03683857 0.08181241 -0.03769942 -0.03586974
0000a0 b3 75 30 3e 01 02 f6 3d db 7d 3e bd 92 54 c2 bd
       0.17232399 0.12012101 -0.046506744 -0.09488787
0000b0 7d ba a1 bd 5b 02 84 3d a6 4e 7e bb 60 48 8c bd
       -0.07896898 0.06445762 -0.0038804202 -0.06849742
0000c0 b5 06 c7 bd 19 40 21 bd 86 ff 31 be a2 ed f9 3d
       -0.09718076 -0.03936777 -0.1738263 0.12203528
0000d0 41 85 d5 bb 98 f6 9a bd cc c0 71 3d 51 19 cf bd
       -0.0065161292 -0.07566565 0.059021756 -0.101122506
0000e0 13 99 b8 3d a4 9c b7 bd e0 9c c5 3c eb f1 0a 3d
       0.090135716 -0.08965424 0.024122655 0.033922117
0000f0 2d 89 62 bc 5a 5c 16 bd 8a 54 86 3e 88 65 07 be
       -0.013826651 -0.036709167 0.26236373 -0.13222325
000100 45 61 90 bd 36 e7 23 bb 45 9f 1b bd 5f 8e b6 bc
       -0.07049803 -0.0025009639 -0.037993688 -0.022284685
000110 e8 ca 9e 3c 75 82 ef 3d 94 d2 c1 3d 96 7b b1 bd
       0.019383863 0.116948046 0.09463993 -0.0866615
000120 dc 30 10 3a 34 52 92 3d 8c e5 64 bd 1c c9 22 3e
       0.00055004447 0.07144585 -0.055882975 0.1589703
000130 ae 49 9c bc 6b f7 41 3e 81 af e1 3c 1f 02 db bd
       -0.019078102 0.18942039 0.027549507 -0.10693764
000140 89 8b 03 be 1a d0 0b 3d cc 58 37 3e 52 88 71 bd
       -0.12846197 0.034134008 0.17904967 -0.058967896
000150 ab 71 90 bc 40 a1 28 bd b8 a1 61 3e 89 00 6e be
       -0.017632326 -0.041169405 0.22034347 -0.23242392
000160 be 9d ae 3c c2 93 8e bd bb e5 a1 3d cd 7b 77 3c
       0.021315452 -0.06961776 0.07905146 0.0151052
000170 0e 98 3f 3d 80 bf cd bc 88 bd 59 3d 60 fb 60 bc
       0.04677587 -0.025115728 0.053159267 -0.0137318075
000180 fe a9 22 3d 35 68 2c 3d c5 d6 74 3d 87 93 5f bc
       0.0397129 0.042091567 0.059775133 -0.013646013
000190 28 88 01 be 80 2d b2 3c 8e 69 42 3e 60 dd c5 bd
       -0.12649596 0.021750212 0.18985578 -0.096613646
0001a0 7c 2e 82 3d 6f a3 9e bc 56 8d 59 bd 9f 68 cf bc
       0.063565224 -0.01936504 -0.053113304 -0.025318442
0001b0 8a 5c c2 bb 49 fe 00 be 67 c0 28 3e b4 2a c3 bb
       -0.0059314417 -0.12597002 0.16479646 -0.0059560183
0001c0 e1 90 cb 3d e1 ec 6e bc df 4b ad 3c 2e 2f be bd
       0.09939743 -0.0145828435 0.021154342 -0.092863426
0001d0 73 6e f5 3d bf 2c b2 bd 07 63 b0 3d 93 e7 e6 bd
       0.11983957 -0.08699941 0.08612638 -0.11274638
0001e0 97 76 b4 3c 71 42 0c 3e 72 18 56 3d 84 3f b6 bd
       0.022029204 0.1369722 0.052269407 -0.088988334
0001f0 05 de df bd 0a fe b3 bc b6 3b e0 3c 0c 5b 0c bd
       -0.10931019 -0.021971721 0.027372222 -0.034266517
000200 4b 70 7c 3c cf 03 37 3e 6f 6f 80 bd b0 a5 48 be
       0.015407632 0.17872547 -0.06271254 -0.19594455
000210 94 9b 10 3c 3d df 45 3d bc 91 fe bc 45 8d 61 3d
       0.008826155 0.0483086 -0.031075351 0.055066366
000220 bd 1b 1c 3d 50 7c 06 3e 26 97 c1 3d ed 4b dd 3d
       0.03811239 0.13133359 0.094526574 0.10805497
000230 ba 54 30 be 20 22 1c be 4f 0d 90 be 38 44 6a be
       -0.1721982 -0.15247393 -0.28135154 -0.22877586
000240 e4 55 7f bd a5 5e 9a 3d 75 47 c3 3d 8d 81 54 3d
       -0.06233777 0.07537583 0.09535114 0.05188136
000250 69 03 ae bb 11 e9 80 3d d2 84 b5 3d ab 68 89 3c
       -0.005310465 0.06294454 0.08863224 0.016773542
000260 db df b0 bd b9 44 87 bb 86 2b 7a 3d e9 a2 17 3e
       -0.08636447 -0.0041280654 0.061076663 0.14808239
000270 82 f7 3c 3d 94 57 32 bd b3 23 67 3d 6d eb 0d be
       0.04613448 -0.043540552 0.05643053 -0.13859339
000280 23 84 ec bd e6 ac 45 bd 64 23 c1 3c 11 41 44 be
       -0.115486406 -0.048260592 0.023576446 -0.19165446
000290 d9 d0 88 bd e6 f5 e0 3d 3b 50 b9 bc da 29 88 3c
       -0.066804595 0.109844014 -0.022621265 0.016621519
0002a0 95 74 e9 bc 28 ab cb bc a4 8b b6 3c f3 7a af bb
       -0.028497973 -0.024861887 0.022283383 -0.005355233
0002b0 80 fb 02 be 81 bc a4 bd f6 a6 c6 bd 41 fc 8c bb
       -0.12791252 -0.08043767 -0.09699814 -0.004302532
0002c0 ce 3f ad 3d 8d 33 68 bc e7 5f 96 bd 33 c7 84 3d
       0.084594354 -0.014172447 -0.07342511 0.06483307
0002d0 ef 3d 8a bd 60 8d b3 bc 5e ee 22 3d 09 1d 88 bd
       -0.06750094 -0.021917999 0.039778106 -0.06646163
0002e0 16 a6 ca 3c c5 30 be bd 87 6f b7 bd 44 73 2a bd
       0.0247374 -0.09286646 -0.08956819 -0.041613832
0002f0 7c 4c 38 bc 4a 1c b1 bc c2 10 a2 3d 17 00 3f 3b
       -0.011248704 -0.021619935 0.079133525 0.002914434
000300 66 00 14 be 3f 50 b2 3d 42 15 75 bd 3e bb 7a 3c
       -0.14453277 0.08706712 -0.059834726 0.015303431
000310 12 21 72 3c ec 32 a0 3c 91 60 07 3d 15 20 fe 3d
       0.014778392 0.019555531 0.033051077 0.12408463
000320 a8 60 ce bb fb 24 43 bd 1c 09 e1 3d 6f d7 a8 bd
       -0.0062981434 -0.04764269 0.109880656 -0.08244216
000330 da 76 e7 ba 2a 8a 90 bd ac 4f ed bc bd 29 96 bd
       -0.0017659322 -0.07057603 -0.028968655 -0.0733218
000340 b3 dd 79 3e 4d 0b c7 3d e4 ee 36 3d de 41 29 be
       0.24400978 0.09718952 0.044661418 -0.16529033
000350 27 5a 4d be dd 05 b1 bd 3b 51 5f 3e 91 f3 24 be
       -0.20053922 -0.086436965 0.2180833 -0.16108538
000360 d5 99 a0 bb 7f 64 8c 3d ab 1f 1c 3e 0b f1 b8 3c
       -0.0049011507 0.068551056 0.15246455 0.022575876
000370 34 a9 e9 bb c6 79 3f 3d bc 13 56 3d ef 61 2a be
       -0.0071307663 0.04674699 0.052264914 -0.16638921
000380 df 9e 8b 3b d9 46 e5 bc d7 6d 9e bc ac 6b eb bb
       0.0042608823 -0.027987884 -0.019339485 -0.0071844663
000390 55 09 3f 3e 51 a1 b8 3b 2a b7 07 bd 2a 39 33 bc
       0.18655904 0.005634465 -0.033133663 -0.010938922
0003a0 b8 6e 4a 3c c2 0e 5b 3e 46 04 f7 3b 60 4d 12 bc
       0.012355499 0.21392348 0.007538351 -0.00892958
0003b0 b4 76 f8 3d 2d e0 f0 3c 82 b3 92 3e 93 43 5c bd
       0.12132016 0.02940377 0.2865258 -0.05377538
0003c0 66 d4 f4 3d 25 d6 02 bd da 83 65 3d 9b f0 ad bd
       0.11954574 -0.031942505 0.056033947 -0.084931575
0003d0 89 54 b7 3d eb 21 46 bd 04 e2 a3 bd e8 96 04 bc
       0.08951671 -0.04837219 -0.080020934 -0.0080926195
0003e0 9c ad 85 3d 5a c0 e7 3d 14 eb 0c be f7 ae 4d be
       0.06527254 0.11315985 -0.1376155 -0.20086275
0003f0 b3 af be bd e1 1a f1 3c 97 77 98 bd 98 39 3f be
       -0.09310856 0.029431762 -0.07444685 -0.18674314

network_body._body_endoder.seq_layers.2.bias f4 [128]
000000 36 6a 13 bc 47 a4 51 3c 3a 12 b2 3c de 19 70 bd
       -0.008997491 0.012795514 0.021737207 -0.05861842
000010 32 a7 03 3d 93 11 a1 bc d8 d9 62 bd 01 07 b1 3c
       0.03214187 -0.0196617 -0.055383533 0.021609785
000020 89 5c 44 bd 5d bd 36 3c 9e 85 37 bd 47 51 06 3c
       -0.04793981 0.011153546 -0.04480516 0.008198089
000030 02 af 45 bd ab 17 3e bd 48 bb 9d 3c 6e 99 44 bc
       -0.048262604 -0.04640929 0.019254342 -0.011999471
000040 3a f9 c6 bc fb 1e 75 bc d5 09 0f bd 48 a5 7c bd
       -0.024288762 -0.014961 -0.034921486 -0.061681062
000050 1b f8 09 3d 5c 3c 17 bc f8 3b df 3c 51 34 24 bb
       0.033683877 -0.009230699 0.027250275 -0.0025055597
000060 73 4c ea bc cf ee 64 3c 40 7e b4 bd 3a 6a 6a 3d
       -0.028600907 0.013972952 -0.08813143 0.05723021
000070 50 83 e3 3c c4 30 91 bc 64 a6 56 bd bf 3f ee bc
       0.027772576 -0.017723449 -0.052404776 -0.02908313
000080 0f 26 ff bc 91 0e 37 bb 0d 8b 35 bc 44 97 3f 3a
       -0.031146077 -0.0027932266 -0.011080516 0.0007308612
000090 46 39 48 3d 60 3a 97 bd 2d 1d 50 bd 12 43 8a bd
       0.048882745 -0.07384181 -0.050809074 -0.06751074
0000a0 bc 09 44 bd f6 75 40 3d 6a 95 f7 3c ed d4 18 bd
       -0.047860846 0.046987496 0.030222613 -0.037312437
0000b0 f9 13 16 bd 67 eb 7b 3a 58 ff 3c bd db ec 99 bc
       -0.03664014 0.0009609968 -0.046141952 -0.0187897
0000c0 74 f3 04 3d 19 98 49 3d 55 8b 12 bd 63 c3 12 bd
       0.032458737 0.049217317 -0.03577741 -0.035830867
0000d0 9d 86 31 bd e1 f4 1a bd 56 ae 4a 3d 1b 0c 84 3c
       -0.043341268 -0.03783119 0.049482666 0.016119054
0000e0 45 d8 ee 3c 4f 25 48 3d 98 40 97 3c 33 38 9e bb
       0.02915586 0.048863705 0.018463418 -0.004828477
0000f0 50 eb 05 bd b3 a4 98 bd 52 5f ab 3b f0 ff 13 3c
       -0.032695115 -0.07453289 0.005229869 0.009033188
000100 1b ae 8a bd fa e3 7b 3d 7d 33 cb bc 21 86 09 bd
       -0.06771489 0.061496712 -0.024804825 -0.03357518
000110 2f e8 90 3d ed 66 ae bd 09 88 52 bd 23 a7 d3 3c
       0.070755355 -0.08515725 -0.051399264 0.025836533
000120 1b 37 54 bd 76 89 eb bb ce a3 fa 3b 29 b4 e3 bc
       -0.051810365 -0.0071880175 0.0076489216 -0.027795868
000130 01 a0 aa ba 92 9b f7 bc 9f 01 85 bd 9f a7 0a 3c
       -0.0013017656 -0.030225549 -0.0649445 0.008462816
000140 e7 77 0f bb 47 9c 01 bd 96 cb ec 3c 5a 88 d1 3c
       -0.0021891536 -0.03164318 0.028905671 0.025577713
000150 5b d1 de bc 2a 58 10 bd 5b 78 3a 3b 95 86 9b 3c
       -0.027199438 -0.03524033 0.0028453085 0.018985072
000160 43 35 36 3d 22 03 3a bd 23 78 d2 3c ef 70 95 bd
       0.044484388 -0.045413144 0.025692051 -0.07296931
000170 d0 5b 33 bd 96 fb dc bb fe 74 6d bd 1d 31 81 bc
       -0.04378873 -0.0067438586 -0.0579729 -0.01577049
000180 86 e8 76 bd 38 a1 a5 bb e0 38 96 3c d1 b7 05 3d
       -0.060280345 -0.005054619 0.018337667 0.032646004
000190 de 8b 14 bd 10 14 b8 bc 20 25 19 bd 56 b5 a9 38
       -0.0362662 -0.022470504 -0.03738892 8.0923244e-05
0001a0 f3 d0 b8 bb 1c d0 af 3c 19 ad af bc 48 7b 62 bd
       -0.005640143 0.021461539 -0.021444844 -0.05529335
0001b0 4c 14 79 3c 7d 14 45 bd 87 35 08 bd d3 84 f8 bc
       0.015202593 -0.048115242 -0.033254173 -0.030336773
0001c0 61 05 63 3b b6 88 dd bb 0f 76 14 3c ae 2c 16 bd
       0.0034640657 -0.006760682 0.0090613505 -0.036663704
0001d0 32 c2 ee 3c ea 70 f8 bc 17 61 f0 3c ef 2f 38 ba
       0.029145334 -0.03032728 0.029343171 -0.00070261856
0001e0 ed a2 89 bc 93 08 44 3d 86 9e 5e bc e6 10 4d bc
       -0.016801322 0.04785974 -0.0135876 -0.012516236
0001f0 0b 89 99 bc 68 31 6b 3c 4c 94 df bc a2 7a 19 bd
       -0.018742105 0.014355041 -0.027292393 -0.037470467

action_model._continuous_distribution.log_sigma f4 [1, 2]
000000 22 6b 16 be ad 12 95 bd
       -0.14689305 -0.07278953

action_model._continuous_distribution.mu.weight f4 [2, 128]
000000 a8 23 70 bc 1f 26 84 3c 2b 22 4b ba 98 14 90 ba
       -0.014656939 0.016131459 -0.0007748927 -0.0010992466
000010 8a b9 93 bc e6 76 ab bc b4 8f 13 bc e6 62 8f 3c
       -0.018032808 -0.020930719 -0.009006429 0.017503213
000020 48 fd dc 3c 5a 4a 01 3c 17 17 ac 3c 76 68 0e 3d
       0.026976243 0.007891262 0.021007104 0.03476759
000030 4e e4 7c bc be 65 26 bb 28 b6 42 3d 9a b3 5c 3c
       -0.015435291 -0.0025390233 0.047537 0.013470555
000040 42 0d 07 bd 85 88 73 3b c8 99 69 3c 50 66 3f 3a
       -0.032971628 0.003716023 0.014257856 0.00073013175
000050 0c 66 2e bc 87 4e a7 3c f9 34 08 3c 68 30 c0 bb
       -0.010644447 0.020423187 0.008313411 -0.0058651455
000060 18 60 10 bc 52 ed 96 3c de 61 8e 3a 40 40 35 bd
       -0.008811973 0.01842371 0.0010862907 -0.044250727
000070 6b e0 e4 bb 9a 35 c6 bb d1 36 92 3b 73 35 cd 3c
       -0.0069847605 -0.0060488703 0.004462101 0.0250499
000080 4a a5 d1 b9 35 41 b4 3c d4 e9 5f 3c b3 0b 0a 3b
       -0.00039986736 0.02200375 0.013666589 0.0021064102
000090 67 b4 c9 bc 9a 9e a9 bc 8c 24 3b b9 39 9f 67 bc
       -0.024622155 -0.02070551 -0.00017847324 -0.014137083
0000a0 67 2a 81 bc 3a 8d b6 bb 06 c3 ec bb f3 63 fc bb
       -0.01576729 -0.0055710347 -0.007225397 -0.0077023446
0000b0 dd 08 87 bc 4d bc 8e bc 49 62 f2 bc 8d f7 c1 ba
       -0.016483719 -0.017423773 -0.029587882 -0.0014798507
0000c0 a3 0f 31 3d dd 39 f8 ba 15 c2 74 bc 4b b4 29 bc
       0.043227803 -0.0018938143 -0.014938851 -0.010357927
0000d0 c7 b2 48 bb 1a 13 a7 b8 24 4b ea 3b 6c 3d 31 3d
       -0.0030624138 -7.9667385e-05 0.0071500707 0.043271467
0000e0 87 0d 96 bc da 42 51 bc da 49 81 3a cf 5f 17 bc
       -0.018316997 -0.012772286 0.0009863928 -0.009239151
0000f0 a5 25 92 3c 37 8c da bb de 26 d4 3c 83 86 12 bd
       0.017840216 -0.006669547 0.02589744 -0.03577281
000100 9b 75 a8 bc 45 d1 7f bc 16 0c 90 3c ff 18 79 bc
       -0.020563891 -0.015613859 0.017583888 -0.015203713
000110 4f 10 c9 bc 79 02 33 bc 9b 05 23 bc 30 7c 37 bb
       -0.02454391 -0.0109258825 -0.009950067 -0.0027997606
000120 77 a7 69 3c 99 6e 26 bc 18 03 3e 3c 6f 7c ac 3b
       0.014261118 -0.0101582045 0.011597417 0.005263857
000130 0a dc 2a bc f3 4c c4 bc b9 65 dd 3b 37 c1 6b 3b
       -0.010428438 -0.023962473 0.006756511 0.003597332
000140 e8 12 1e bc 8d b2 e2 bb 92 c8 11 b9 88 57 6f 3c
       -0.009648062 -0.0069182576 -0.00013902996 0.014608271
000150 3c 79 33 3c d3 92 34 bb c6 aa 07 3c 75 62 10 bc
       0.0109541975 -0.0027553334 0.008280462 -0.0088125365
000160 1c 52 75 3c 83 e9 ff bb 3f af 8f 3c 54 5b 5b bc
       0.01497319 -0.007809819 0.017539619 -0.013388474
000170 ab 69 5f bc f1 5f 4a 3b 6e 8f 95 bc 57 0d 0f bc
       -0.013636033 0.003087994 -0.01825687 -0.008731208
000180 b5 e5 1a bb 51 92 5b 3c d2 31 8f 3c c3 ec d8 3c
       -0.0023635451 0.013401584 0.01747981 0.026480084
000190 35 22 93 bb 6d 27 c7 3c ef 66 2e bd 34 14 10 3d
       -0.004490162 0.024310792 -0.042578634 0.035175517
0001a0 f0 61 e7 ba 19 c8 2d 3d da 40 5b bb e5 4a 7e bb
       -0.0017653089 0.042427156 -0.0033455403 -0.0038801965
0001b0 a7 f6 1d 3d 7f e5 53 bb 4f 2f fe bc 28 f0 e9 bb
       0.038565304 -0.0032332835 -0.031028418 -0.0071392246
0001c0 3d 66 91 3d fb c9 08 3c 35 67 f5 3c 8c 0f 09 bd
       0.070995785 0.008348937 0.02995644 -0.033462092
0001d0 a7 3f bb 3c 5c 4e 0a bd e5 df 09 3d 99 36 ca bc
       0.0228575 -0.033766136 0.033660788 -0.024684237
0001e0 9d 95 b6 bb c8 25 ab bc be c6 6e bb c0 37 82 bb
       -0.0055720345 -0.020892039 -0.0036434378 -0.003973931
0001f0 6b 52 a1 3b d6 9a 76 bc d3 0f 5b bb 72 8a 45 bc
       0.004923155 -0.015051564 -0.003342618 -0.012056934
000200 9d 8a 46 bd 5b 83 6c bd 45 c7 2d 3d e7 57 86 b9
       -0.048472036 -0.057742458 0.042426366 -0.00025623964
000210 60 b0 4c 3d 93 d4 75 b9 86 64 8e 3b e5 3a 79 bd
       0.04997289 -0.00023444211 0.0043454794 -0.06084718
000220 e6 87 ca bd 91 5a 2e 3d b0 01 c2 bd 34 cf 6f 3c
       -0.09889202 0.04256684 -0.09472978 0.014636803
000230 13 6e 1c bc 29 8b 1e bd 4e 18 e2 b7 d7 71 c4 bb
       -0.009547728 -0.038706932 -2.6952617e-05 -0.005995016
000240 fc fd 49 bd 13 9a 0b bd 61 28 8f 3a 58 03 fc bd
       -0.049314484 -0.034082484 0.0010922068 -0.12305325
000250 20 8d 61 3d 54 37 08 3d 08 e6 61 bd 88 00 cf 3b
       0.055066228 0.03325589 -0.055151016 0.006317202
000260 90 21 d0 bc 0c b2 4a bd 3a e2 89 bd cf 8e 86 bc
       -0.025406629 -0.049486205 -0.067326024 -0.016425518
000270 c1 e6 c0 3c 66 76 ee bb 85 99 ae bd 7f d2 40 bc
       0.023547532 -0.007277298 -0.08525375 -0.011768936
000280 00 68 9f bc 8d 25 0b 3d e2 2a a0 bc b3 2e c1 3b
       -0.01945877 0.033971358 -0.019551698 0.0058954596
000290 ce ee 97 3c ae de 1d bd 11 10 24 bc 55 0a ab bc
       0.018546488 -0.038542442 -0.010013596 -0.02087895
0002a0 21 ca a6 bd fa df 7f 3d 02 2d 2e 3d 7d 95 98 bc
       -0.08144022 0.06246946 0.04252339 -0.018625969
0002b0 e8 e8 a4 bd b5 4e 57 3d 57 fb 75 bd b6 ee a1 3b
       -0.08052236 0.052565295 -0.06005415 0.0049417866
0002c0 07 d8 e5 3c d0 32 49 3d 23 5d b2 bd 4e 53 52 3c
       0.028057111 0.049120724 -0.08709171 0.012837244
0002d0 2a 7a 08 3c 06 7e 52 3c bb 34 52 3d 2b 68 f0 bb
       0.008329907 0.012847429 0.05131982 -0.0073366365
0002e0 cd 94 37 3c fe ea 27 3d 84 b0 97 bd ad 4a 09 3d
       0.01120491 0.04099559 -0.074067146 0.033518482
0002f0 89 3f c0 bd 4f be e4 ba 57 c6 4c bd 99 7f 16 bd
       -0.09387118 -0.0017451736 -0.04999384 -0.03674278
000300 48 fe 3f bd a1 ab 52 3d 71 f1 70 3c 43 c7 80 bc
       -0.04687336 0.05143321 0.014706002 -0.015720015
000310 7f 1b dc 3c 35 5c 6c bd df 3a a2 bc 6c d9 0d 3d
       0.02686858 -0.057705123 -0.019803463 0.034631178
000320 45 93 86 bc 85 c9 72 3c 7e d5 02 3d 33 04 8b bc
       -0.016427645 0.014818554 0.031941883 -0.016969776
000330 5d 17 6b bd fd 50 a7 bc 67 fc 99 bd 97 8e 65 3d
       -0.057395328 -0.02042436 -0.07518845 0.056044187
000340 ff c5 de bb 46 14 8e ba f6 07 72 bd d6 a6 84 bd
       -0.0067985053 -0.0010839782 -0.059089623 -0.06477134
000350 a0 b3 91 bc 26 e0 d1 3b d9 36 2f 3d 02 61 2c 3c
       -0.017785847 0.0064048944 0.042776916 0.010521175
000360 51 07 a5 bd c9 82 93 bd db 8b 2a 3d 7b 16 43 bd
       -0.08058036 -0.0720268 0.041637283 -0.04762886
000370 f1 00 ac bb d8 9a 51 3c 73 e4 0b bd 3c 5a ae bd
       -0.0052491357 0.012793265 -0.034153413 -0.085133046
000380 16 d2 bb bc b3 d9 23 bd 77 84 93 bd 99 cd 8c bd
       -0.022927325 -0.040002536 -0.07203 -0.06875152
000390 ed 4a ba bc 54 8d 63 bb 47 07 8b bd 06 35 50 bc
       -0.022740806 -0.003472169 -0.067884974 -0.012707954
0003a0 a0 18 29 bc ab 72 59 3d 35 2b e5 3b 3c ad f7 39
       -0.010320812 0.05308787 0.006993676 0.0004724058
0003b0 24 cf 82 3d 2a ea b1 bd a0 d5 98 bd 64 2b ca bd
       0.06387165 -0.086872414 -0.07462621 -0.09871557
0003c0 08 ae 9f bb e1 a5 e0 3c 7b 7b f3 3c 97 57 9c bd
       -0.004873041 0.027422847 0.029721966 -0.07633894
0003d0 81 30 77 bc f4 98 c3 3c 7c 90 cb 3c 92 47 62 3c
       -0.015087248 0.023876645 0.024849169 0.013811009
0003e0 75 06 f0 bc 10 43 af 3d 13 31 26 bd 89 c6 f4 3c
       -0.029299954 0.08557713 -0.040574145 0.029879825
0003f0 9c 9b ec bb 0d a3 c1 3c a2 6e e2 3c e0 94 87 bd
       -0.0072206985 0.023637319 0.027640644 -0.066201925

action_model._continuous_distribution.mu.bias f4 [2]
000000 00 35 a1 3b 70 1f 50 3d
       0.004919648 0.05081123

exp_avg f4 [128, 22]
000000 04 00 00 00 b0 b2 cb b7 04 00 00 80 7c a3 d2 b7
       6e-45 -2.4282694e-05 -6e-45 -2.511008e-05
000010 c4 a4 ac 28 4e a3 e8 b7 04 00 00 00 95 79 01 b8
       1.9167292e-14 -2.77326e-05 6e-45 -3.086923e-05
000020 50 66 0c 29 4a b9 51 b8 71 27 4d 3a eb 6c 09 3a
       3.1174987e-14 -5.0002047e-05 0.00078260066 0.00052423653
000030 de c9 f6 30 5c b1 c8 b8 60 1e b8 ba 4f c3 9a 35
       1.795623e-09 -9.569779e-05 -0.0014047138 1.1530736e-06
000040 45 de a3 3b 00 00 00 00 50 70 30 37 5c ea bf 3b
       0.005000862 0.0 1.0516567e-05 0.0058567952
000050 4c 5f 88 3a b8 98 6b 3a 04 00 00 00 78 dc 9f b6
       0.0010404377 0.00089872954 6e-45 -4.764235e-06
000060 04 00 00 00 08 30 ac b6 96 51 9b ad 78 62 af b6
       6e-45 -5.131591e-06 -1.7657691e-11 -5.2268697e-06
000070 04 00 00 00 b8 c3 da b6 41 e9 f4 ad 7d 15 a5 b7
       6e-45 -6.519691e-06 -2.7843174e-11 -1.9679539e-05
000080 8e 29 97 b9 db a2 85 b9 16 e1 5e b5 f7 58 b5 b7
       -0.00028831925 -0.00025489074 -8.302899e-07 -2.1618309e-05
000090 10 3c 89 b8 20 f1 b0 31 9c c4 32 ba 00 00 00 00
       -6.5438566e-05 5.149687e-09 -0.0006819458 0.0
0000a0 6c 4e 6d 38 77 1c 8c 3a 76 04 f0 3a a0 58 0f 3a
       5.657824e-05 0.0010689636 0.0018311876 0.0005468223
0000b0 04 00 00 80 38 82 4e b7 04 00 00 80 58 e1 48 b7
       -6e-45 -1.2308876e-05 -6e-45 -1.1973396e-05
0000c0 65 41 30 2d 8e e1 75 b7 04 00 00 80 30 7b 52 b7
       1.0018962e-11 -1.4655654e-05 -6e-45 -1.2545657e-05
0000d0 3c 69 80 2d b3 90 25 b8 68 53 6a ba 6a 58 27 ba
       1.4598649e-11 -3.9473827e-05 -0.000893882 -0.0006383719
0000e0 92 4d fe 34 18 67 3f 37 82 3b 89 3a aa a4 66 b5
       4.7367627e-07 1.14084905e-05 0.0010470005 -8.5921295e-07
0000f0 1a 56 60 3b 00 00 00 00 c6 a6 0a b9 36 e8 53 3b
       0.0034231008 0.0 -0.00013222834 0.0032334453
000100 87 ce 96 3b dd 83 88 bb 04 00 00 00 4a 23 7b 37
       0.0046022567 -0.00416611 6e-45 1.4968982e-05
000110 04 00 00 00 9d 01 8e 37 bf 04 12 2e 59 5a 84 37
       6e-45 1.692847e-05 3.3200772e-11 1.5777698e-05
000120 04 00 00 80 34 51 cd 37 6f d6 33 2e 9a ac bf 37
       -6e-45 2.4475718e-05 4.0890343e-11 2.2849348e-05
000130 9c 20 22 ba f5 5d a5 b9 55 07 15 b6 1e 95 e6 38
       -0.0006184669 -0.00031541256 -2.2206998e-06 0.0001099503
000140 6c 75 1a b9 11 f1 34 b5 0f 32 75 bb 00 00 00 00
       -0.00014730328 -6.7406023e-07 -0.003741387 0.0
000150 74 e6 34 39 63 9f 25 bb 02 44 18 bb ed 65 0a 3b
       0.00017251988 -0.0025272004 -0.0023233895 0.0021117881
000160 04 00 00 80 10 34 c0 b6 04 00 00 00 8a 4d d4 b6
       -6e-45 -5.7281068e-06 6e-45 -6.327119e-06
000170 08 54 eb a7 db 95 ce b6 04 00 00 00 ba 92 11 b7
       -6.531671e-15 -6.156724e-06 6e-45 -8.676836e-06
000180 cb 03 64 a8 99 0b 03 b7 2e 59 bd 37 cd 95 f9 b6
       -1.2657365e-14 -7.810909e-06 2.2572083e-05 -7.4382174e-06
000190 a5 96 ec b2 da a0 68 b7 eb 83 88 38 80 74 55 b0
       -2.7542521e-08 -1.3865729e-05 6.509557e-05 -7.7654505e-10
0001a0 8e 97 63 3a 00 00 00 00 8a 2c fa b7 9c 64 48 3a
       0.0008681946 0.0 -2.9823063e-05 0.00076443865
0001b0 5f 6e f8 39 48 15 15 ba 04 00 00 00 6a 1b 2c 37
       0.0004738448 -0.000568707 6e-45 1.0258382e-05
0001c0 04 00 00 80 7a 5c 75 37 a5 c9 80 28 f7 99 07 37
       -6e-45 1.4624669e-05 1.4298304e-14 8.082475e-06
0001d0 04 00 00 80 95 f2 e3 37 cf 0c 11 29 a0 98 17 37
       -6e-45 2.717347e-05 3.2207577e-14 9.035837e-06
0001e0 8a 37 28 ba 5a f8 84 b9 5b 4b 02 33 a3 ae e7 38
       -0.00064169674 -0.00025362038 3.033652e-08 0.00011047467
0001f0 7e 3d 86 3a c8 fb 8f b5 92 fb 82 3b 00 00 00 00
       0.0010241715 -1.0727608e-06 0.0039972747 0.0
000200 6e 91 29 b9 7c b3 0d 3b 10 38 3c ba ce c4 e2 bb
       -0.00016171273 0.0021621874 -0.0007179985 -0.0069204336
000210 04 00 00 00 a8 5f ce 36 04 00 00 80 d8 9a e9 36
       6e-45 6.1504143e-06 -6e-45 6.9619673e-06
000220 0d 77 44 2d f8 c2 d7 36 04 00 00 00 1c 37 26 37
       1.1167745e-11 6.4301967e-06 6e-45 9.907202e-06
000230 00 40 8d 2d d0 c0 87 36 9d 8a c8 39 37 14 98 39
       1.6058266e-11 4.04576e-06 0.00038250248 0.0002900676
000240 69 e8 a0 b5 ee d0 54 b7 71 5a da b9 64 8e a7 34
       -1.1988569e-06 -1.268483e-05 -0.00041647584 3.1209777e-07
000250 3c 39 3a 3a 00 00 00 00 58 76 9f 37 9a 3a 11 3a
       0.00071038655 0.0 1.9009385e-05 0.00055400433
000260 62 5a 09 ba 50 59 83 3a 04 00 00 80 2b 16 50 36
       -0.00052396033 0.0010021124 -6e-45 3.1007319e-06
000270 04 00 00 80 8b 4c 77 36 f1 7c e6 aa a3 f5 4f 36
       -6e-45 3.6850422e-06 -4.0942903e-13 3.0988383e-06
000280 04 00 00 80 1a b2 bb 36 fe 67 41 ab 0c 4b 6a 36
       -6e-45 5.593768e-06 -6.871169e-13 3.49124e-06
000290 9e 0b a1 b8 de a6 16 b8 8e 3a 6a b4 06 69 33 37
       -7.679242e-05 -3.5918194e-05 -2.181425e-07 1.0693684e-05
0002a0 64 bf 2d 38 17 ea 8e b3 d6 25 61 b8 00 00 00 00
       4.142466e-05 -6.654971e-08 -5.3679418e-05 0.0
0002b0 e4 7f b8 35 d0 04 3d 38 2c 28 24 39 8c c1 74 b9
       1.3746289e-06 4.5065593e-05 0.00015655224 -0.00023341755
0002c0 04 00 00 80 b8 d2 c8 35 04 00 00 80 4c d7 e5 35
       -6e-45 1.4962488e-06 -6e-45 1.7124489e-06
0002d0 a8 18 bf a9 64 76 d0 35 04 00 00 80 ae c6 25 36
       -8.486381e-14 1.5531664e-06 -6e-45 2.4702563e-06
0002e0 df a1 53 aa 25 f4 ec 35 b9 cb a5 b6 a8 0e 82 35
       -1.8796725e-13 1.7654426e-06 -4.9410996e-06 9.69002e-07
0002f0 37 c9 47 b3 07 cf 13 36 f8 5f 7c b7 c4 f5 a1 31
       -4.6516302e-08 2.2025213e-06 -1.5042715e-05 4.713657e-09
000300 8d a2 6f b8 00 00 00 00 01 a3 aa 36 70 b4 5c 38
       -5.7133428e-05 0.0 5.085371e-06 5.2620133e-05
000310 e6 17 38 b8 31 bd 94 b7 04 00 00 00 68 02 11 b5
       -4.3891276e-05 -1.7731074e-05 6e-45 -5.402021e-07
000320 04 00 00 80 70 ec aa b4 a6 31 30 ad 08 01 5e b5
       -6e-45 -3.1836998e-07 -1.0015466e-11 -8.2702945e-07
000330 04 00 00 80 40 35 0c 34 a3 dc 2b ad ac 23 aa b5
       -6e-45 1.3057888e-07 -9.769216e-12 -1.2676369e-06
000340 32 8a 64 b8 7e 87 b7 b7 d9 8d 6c 34 48 14 2b 37
       -5.448814e-05 -2.1878393e-05 2.2030817e-07 1.0197116e-05
000350 aa f8 bd 37 a0 bf 3f b1 68 2d b3 b9 00 00 00 00
       2.2646349e-05 -2.7903084e-09 -0.0003417537 0.0
000360 2f a2 49 37 7a 5b cb 38 bc a5 92 38 1f 3c d8 b8
       1.2018295e-05 9.696833e-05 6.992693e-05 -0.00010310881
000370 04 00 00 80 75 58 40 38 04 00 00 00 72 41 51 38
       -6e-45 4.585875e-05 6e-45 4.9890434e-05
000380 84 09 80 a3 f4 a0 51 38 04 00 00 80 1c 41 8c 38
       -1.3881818e-17 4.9979382e-05 -6e-45 6.687848e-05
000390 5f ed 3c a4 39 88 5a 38 08 50 8f 37 a7 19 8e 38
       -4.0967063e-17 5.2102117e-05 1.7084196e-05 6.775866e-05
0003a0 74 02 a0 ae be 54 6d 38 8b b8 45 3a d0 4e 29 b2
       -7.2763934e-11 5.6584126e-05 0.00075424527 -9.855015e-09
0003b0 2c 83 77 bb 00 00 00 00 c4 04 10 38 b9 7c 80 bb
       -0.0037767394 0.0 3.4336714e-05 -0.003921118
0003c0 14 be 40 3a a0 23 14 3a 04 00 00 00 4a a0 1a 38
       0.00073525426 0.00056510605 6e-45 3.6865742e-05
0003d0 04 00 00 00 29 e3 28 38 8a b3 f0 ad 57 f6 27 38
       6e-45 4.026588e-05 -2.7364572e-11 4.0045325e-05
0003e0 04 00 00 80 dc b2 62 38 7e 60 30 ae 29 b5 64 38
       -6e-45 5.4049175e-05 -4.010347e-11 5.4528155e-05
0003f0 7c b2 d6 37 a7 35 a2 38 70 9d 10 b3 30 dc 43 38
       2.5593901e-05 7.7347555e-05 -3.36708e-08 4.669669e-05

exp_avg_sq f4 [128, 22]
000000 be 45 87 25 39 c2 d6 33 00 83 0c 25 0e b5 02 34
       2.3466026e-16 1.00004804e-07 1.2187449e-16 1.2173061e-07
000010 bb 38 24 29 0c 57 f6 33 b2 ff a0 30 7a ca 75 34
       3.646452e-14 1.14711014e-07 1.1714205e-09 2.2891064e-07
000020 7d d7 81 29 af de 3a 34 72 6f ee 35 e4 b4 0f 36
       5.766132e-14 1.7403612e-07 1.7764817e-06 2.1413953e-06
000030 eb d1 d8 2b a2 87 29 34 ca 00 cb 37 e6 75 6d 2d
       1.5405987e-12 1.5788694e-07 2.4199853e-05 1.3498069e-11
000040 9c 6d a2 3a 00 00 00 00 81 00 c9 35 c6 35 3f 3a
       0.0012392285 0.0 1.4975814e-06 0.00072940846
000050 fd da 46 39 f5 41 15 3a 7a 41 1f 30 8b f9 17 35
       0.00018964331 0.0005693727 5.793691e-10 5.6615016e-07
000060 99 b5 09 2f 7f b9 35 35 6c 3b c6 33 47 34 3c 35
       1.2524594e-10 6.7697687e-07 9.230902e-08 7.011153e-07
000070 f3 ff 6d 33 94 3c b4 35 a5 e2 26 34 73 9f 80 35
       5.5413647e-08 1.3428676e-06 1.5542408e-07 9.583149e-07
000080 07 b0 0e 36 ff 9d a0 36 9f ff d5 35 52 da 24 36
       2.126211e-06 4.7867647e-06 1.5944132e-06 2.4564984e-06
000090 79 4a 49 39 92 e8 ce 2d f3 87 e7 3a 00 00 00 00
       0.00019196597 2.352277e-11 0.0017664417 0.0
0000a0 21 73 23 37 67 1f 04 3c 9d 34 00 3a 7c ab 53 3b
       9.742363e-06 0.0080641275 0.00048906525 0.0032298258
0000b0 d0 17 28 31 1b d6 04 34 d0 f9 c4 30 09 80 1d 34
       2.4460753e-09 1.2371349e-07 1.4331878e-09 1.4668343e-07
0000c0 08 25 28 33 bb 82 2c 34 47 4a 00 32 17 5a 9d 34
       3.9149228e-08 1.6066308e-07 7.467469e-09 2.9309078e-07
0000d0 8f f3 1c 33 b0 d6 2c 34 49 1a e3 35 85 f6 1b 36
       3.6543096e-08 1.6096851e-07 1.6920468e-06 2.3240293e-06
0000e0 af 62 d0 33 08 ac 59 34 74 ab 7b 38 c9 1d e1 2c
       9.703705e-08 2.0272284e-07 6.000274e-05 6.3981914e-12
0000f0 ee 5b d8 39 00 00 00 00 51 bd 05 36 0f e5 dd 39
       0.00041267223 0.0 1.992874e-06 0.00042323067
000100 7f ef d5 38 37 f0 42 3a 8b 7c a6 31 e1 34 cb 34
       0.00010201241 0.00074363075 4.8453948e-09 3.785017e-07
000110 33 b0 c5 2f fa c6 cc 34 b9 b2 54 34 5f 1d 1d 35
       3.5959288e-10 3.8142736e-07 1.9809058e-07 5.85298e-07
000120 75 c7 80 31 25 59 42 35 dc e0 b0 34 f1 5f 5a 35
       3.747966e-09 7.2400354e-07 3.294616e-07 8.135094e-07
000130 b0 35 70 36 55 5a a8 36 60 92 46 35 01 f2 a7 35
       3.5794037e-06 5.017306e-06 7.397375e-07 1.2512902e-06
000140 bd dd e6 38 64 53 20 2e 1d 73 22 3b 00 00 00 00
       0.000110085566 3.6453854e-11 0.002478785 0.0
000150 ef 23 bb 36 95 ff 45 3b 38 1e c6 39 18 77 fe 3a
       5.5772175e-06 0.0030212153 0.00037788018 0.0019414155
000160 67 15 92 24 47 05 a9 32 0d dd c7 23 fd 73 d8 32
       6.3353664e-17 1.967659e-08 2.1669242e-17 2.5198455e-08
000170 45 4c 6c 27 1b 76 ba 32 82 b2 17 2e be 37 5a 33
       3.2792925e-15 2.1706958e-08 3.4491972e-11 5.0807778e-08
000180 f9 03 06 29 c8 92 0f 33 cb d8 b0 32 32 ff 44 34
       2.9757423e-14 3.342828e-08 2.0587683e-08 1.8346762e-07
000190 53 e8 c3 2e d4 65 3a 33 72 03 00 37 06 b0 6f 2b
       8.9088424e-11 4.3399112e-08 7.630197e-06 8.515414e-13
0001a0 c4 74 47 37 00 00 00 00 f4 10 f0 34 be f1 0d 39
       1.1888511e-05 0.0 4.471582e-07 0.00013536864
0001b0 bf 80 2c 37 44 fa f6 38 b1 c4 f6 2d b1 8b ab 35
       1.0281975e-05 0.0001177681 2.805431e-11 1.2781148e-06
0001c0 4d a2 32 2f 27 4a d9 35 4f 07 72 2d 1d ea b9 35
       1.6246667e-10 1.6189341e-06 1.375773e-11 1.385171e-06
0001d0 d8 e8 09 34 2f fd 61 36 e0 13 a7 2d 1c 4f b4 35
       1.2843827e-07 3.3674985e-06 1.8994528e-11 1.3434069e-06
0001e0 a3 f3 8c 37 80 52 c3 37 57 4e c5 2e 46 e0 92 35
       1.6802753e-05 2.3284229e-05 8.972439e-11 1.094312e-06
0001f0 da f0 2b 3a 7e c4 9f 2e 48 b2 89 3b 00 00 00 00
       0.0006559022 7.265387e-11 0.004202161 0.0
000200 14 84 b3 37 e3 fd 0d 3b d0 da 43 3a 0f fa 06 3c
       2.1399966e-05 0.002166622 0.0007471265 0.00823833
000210 31 3b 6c 30 81 b4 54 33 b6 1c cb 2f 11 36 63 33
       8.5940416e-10 4.9524264e-08 3.6945885e-10 5.290173e-08
000220 88 30 b6 32 2b f0 97 33 6d b9 f6 30 70 cd cf 33
       2.1209658e-08 7.075172e-08 1.7951557e-09 9.6765575e-08
000230 29 dc 10 33 59 d4 cb 33 66 c8 f4 34 13 48 2b 35
       3.3727847e-08 9.49155e-08 4.559435e-07 6.3807346e-07
000240 bf 61 39 34 ca e7 80 34 b8 03 9b 37 1f 76 42 2c
       1.7265027e-07 2.4010507e-07 1.8479172e-05 2.7634629e-12
000250 2a dd 79 39 00 00 00 00 1b ea 48 35 9e 9a 24 3a
       0.0002382888 0.0 7.4846474e-07 0.0006279143
000260 98 7b 76 38 c9 2f 8b 39 8c ec a5 2a 29 0a 3f 32
       5.8766076e-05 0.0002654775 2.9474025e-13 1.1119973e-08
000270 b9 87 a3 29 d5 b8 71 32 33 9c 0a 2e 94 a4 52 32
       7.262198e-14 1.4070072e-08 3.15163e-11 1.22610295e-08
000280 23 c0 ac 2f 9d cb eb 32 56 b1 90 2e 31 45 94 32
       3.142314e-10 2.7450193e-08 6.579863e-11 1.7260932e-08
000290 ba e0 a0 33 4c fe 16 34 ff 2e 83 32 bd 60 20 33
       7.491458e-08 1.4062351e-07 1.5271779e-08 3.7340886e-08
0002a0 8d 29 89 36 7f 4e 29 2b 97 97 d7 37 00 00 00 00
       4.0877553e-06 6.0149796e-13 2.5700587e-05 0.0
0002b0 40 8e 73 34 e5 43 0e 39 79 07 17 37 8c 64 a1 38
       2.2682889e-07 0.00013567468 9.002041e-06 7.6958066e-05
0002c0 3d 68 7f 28 5d ca a4 32 e0 7d 2d 26 68 bd d1 32
       1.4177947e-14 1.9184137e-08 6.0192025e-16 2.4416934e-08
0002d0 77 f8 11 2b ed 42 b7 32 fb 82 34 2e ee 96 50 33
       5.185916e-13 2.1334438e-08 4.1043596e-11 4.8566044e-08
0002e0 95 c5 3d 2c f5 e9 0e 33 41 e8 76 30 57 28 0b 34
       2.6968195e-12 3.3274734e-08 8.982433e-10 1.296006e-07
0002f0 2d d4 29 31 26 99 36 33 0f f1 af 36 70 b1 82 2b
       2.4713345e-09 4.2514465e-08 5.2434693e-06 9.286304e-13
000300 92 05 b3 36 00 00 00 00 71 ee d8 34 8e 43 57 39
       5.335264e-06 0.0 4.0406624e-07 0.00020529164
000310 34 2e 45 37 87 f2 03 39 0c 92 f0 30 cb 1f cc 34
       1.17528725e-05 0.00012583482 1.7503807e-09 3.8021093e-07
000320 a5 f2 0b 2e 84 d9 e3 34 3e f4 10 34 3b 39 0d 35
       3.1820453e-11 4.2440308e-07 1.34999e-07 5.2609875e-07
000330 81 b9 c5 2f 55 f0 41 35 ec 39 37 34 f5 13 53 35
       3.59659e-10 7.224783e-07 1.7064275e-07 7.8632667e-07
000340 4e 1d 47 34 ef 7c ef 35 5a ba 55 36 a9 64 84 36
       1.854398e-07 1.7843248e-06 3.1847944e-06 3.945625e-06
000350 5c d5 01 39 5b 08 cf 2d 54 c0 fe 3a 00 00 00 00
       0.00012381881 2.3536886e-11 0.001943598 0.0
000360 6f 4b f1 36 cc 11 2a 3c 17 b8 59 3a 47 7e 17 3b
       7.1911413e-06 0.01038022 0.00083053246 0.0023116039
000370 26 71 a8 21 db 57 09 33 40 d5 81 21 cb 81 29 33
       1.1414073e-18 3.1977702e-08 8.797827e-19 3.9466425e-08
000380 e2 be 80 20 65 f4 17 33 ad 4d 5a 2e ca 04 a3 33
       2.181036e-19 3.5379703e-08 4.963645e-11 7.59115e-08
000390 e1 0f ba 20 4f 7e 42 33 f0 bb 15 35 25 9a 34 35
       3.1520133e-19 4.5284022e-08 5.578031e-07 6.7279535e-07
0003a0 1d 3a 04 27 f6 6a 33 33 bd 23 44 37 07 61 3d 2c
       1.8350183e-15 4.1773966e-08 1.1690831e-05 2.6912376e-12
0003b0 21 1d 95 39 00 00 00 00 9e 36 07 35 da ee 26 39
       0.00028441197 0.0 5.03709e-07 0.00015919973
0003c0 88 f3 2d 38 13 f7 3f 39 d7 20 5f 31 33 9d a7 34
       4.147322e-05 0.00018307222 3.2469438e-09 3.1220551e-07
0003d0 6f d4 af 30 14 09 a7 34 ce da 6e 34 05 07 0b 35
       1.2793303e-09 3.111278e-07 2.2245078e-07 5.179175e-07
0003e0 07 f6 52 31 5f e2 12 35 ca 28 b4 34 2b 97 4d 35
       3.0698872e-09 5.471865e-07 3.355729e-07 7.658843e-07
0003f0 9a ba 63 32 4d 05 8d 35 91 02 f2 35 43 d4 1a 36
       1.3255567e-08 1.0506861e-06 1.8031152e-06 2.307134e-06

exp_avg f4 [128]
000000 40 ca b7 37 bc 31 f7 38 b8 6d 90 b9 1b 70 bc 39
       2.190948e-05 0.000117871416 -0.00027547567 0.0003594168
000010 89 4c 82 b8 25 a2 b0 b9 40 1b 26 38 e8 2f 40 36
       -6.213139e-05 -0.00033690143 3.9602863e-05 2.8638115e-06
000020 20 bf 31 37 ef 08 d2 37 f2 04 96 38 60 32 49 39
       1.0594522e-05 2.503811e-05 7.1534785e-05 0.0001918762
000030 dc b8 1b 39 b0 19 2f b9 c8 b6 3e b9 18 9a ca 39
       0.00014850817 -0.0001669887 -0.00018187903 0.0003864325
000040 61 4f b9 38 db 52 21 39 25 a3 a5 b7 3b 6d 71 38
       8.836273e-05 0.00015385023 -1.9745503e-05 5.7560606e-05
000050 59 e5 ce 39 8a e6 4d 39 c8 ed 3c 39 1c 2c 82 39
       0.0003946226 0.00019636206 0.00018017658 0.00024828396
000060 90 b4 a1 b8 f8 77 55 37 f7 c6 98 b8 2f 09 55 b8
       -7.7107106e-05 1.2723722e-05 -7.284985e-05 -5.079171e-05
000070 22 df 03 38 b8 90 56 b8 4f 12 a3 36 d0 15 c9 b6
       3.1440642e-05 -5.1156356e-05 4.85991e-06 -5.992806e-06
000080 83 48 1c b9 91 c6 40 39 08 49 90 b8 72 bc 83 b9
       -0.00014904332 0.00018384519 -6.880058e-05 -0.0002512667
000090 0f 13 e3 b9 8b 88 b1 38 ce a5 e0 b8 e6 ba 6a b8
       -0.00043311014 8.465451e-05 -0.00010712036 -5.596401e-05
0000a0 48 7c 0f 39 1f 70 a0 37 28 32 39 39 fa ef 65 b8
       0.00013683841 1.9125697e-05 0.0001766166 -5.482135e-05
0000b0 03 f0 ab 39 a0 6b 49 35 e7 b8 a4 b8 fc e3 c3 b7
       0.00032794484 7.503495e-07 -7.85457e-05 -2.3351975e-05
0000c0 50 93 c0 39 b8 71 a3 b7 fd 35 63 37 58 11 5f 38
       0.0003673085 -1.9484069e-05 1.35428245e-05 5.3183496e-05
0000d0 0e f6 6a b7 94 f0 13 ba f0 15 d0 b7 d8 f9 53 38
       -1.4004776e-05 -0.0005643454 -2.4805748e-05 5.0539005e-05
0000e0 30 ad 26 38 92 e7 64 b9 0e 74 15 38 30 5c de 36
       3.9738778e-05 -0.00021830041 3.5632453e-05 6.6268476e-06
0000f0 68 5c b3 b8 d8 0b 1a b9 ca 4a 52 37 94 26 7e 39
       -8.552597e-05 -0.00014690997 1.2534389e-05 0.00024237699
000100 61 78 5b 39 e0 2a b7 37 1c 9f 6f 36 80 39 fd 36
       0.00020930312 2.1835265e-05 3.570639e-06 7.5466814e-06
000110 1a 68 01 b9 1e bf 9b 39 3e a9 30 b8 de a9 0c 38
       -0.0001234118 0.00029706297 -4.211929e-05 3.3536802e-05
000120 c3 f5 cb 38 e6 91 ce b9 92 b2 b1 b8 ff 89 8d b9
       9.725571e-05 -0.00039400085 -8.473279e-05 -0.0002699643
000130 16 8b 33 ba 45 e8 05 39 e5 5d 83 b9 7e 0a 9c b9
       -0.00068490335 0.00012770396 -0.00025056224 -0.00029762456
000140 db d0 87 37 bc 18 3c b9 f5 54 a1 39 58 d8 3c 39
       1.619051e-05 -0.00017938291 0.0003077161 0.00018009671
000150 ad 4a 2e b9 7f 6b 24 b9 c0 25 97 37 91 37 8c 39
       -0.00016621752 -0.00015680304 1.8018181e-05 0.0002674428
000160 62 f3 ce 37 a3 5b 3b 37 e4 20 6c b7 fe 41 bd b8
       2.4670448e-05 1.1167404e-05 -1.4074354e-05 -9.024514e-05
000170 80 b4 f0 b6 85 ab 98 39 9e 6e f5 b6 d4 3b 1b 39
       -7.1735703e-06 0.0002911949 -7.3144465e-06 0.0001480424
000180 d9 2f 5e b9 e6 11 99 39 ee 99 53 39 ab 1a 11 3a
       -0.00021189394 0.0002919577 0.00020179871 0.0005535285
000190 cd 13 ac b8 0b 33 a3 b9 28 9c b1 b9 cd 77 d5 38
       -8.205287e-05 -0.00031127813 -0.00033876416 0.00010178946
0001a0 18 b0 2a b6 ad ed 89 36 91 90 f0 b5 06 33 c3 b8
       -2.5434474e-06 4.1105873e-06 -1.7923468e-06 -9.3078284e-05
0001b0 fa ac 32 39 80 5c f0 38 78 7e 4f 38 39 42 9f b9
       0.00017039842 0.00011461321 4.947043e-05 -0.00030376183
0001c0 8e 2a 2f b9 8a 0d 3f b8 18 10 02 35 ee ef 70 39
       -0.00016705153 -4.5550558e-05 4.8452193e-07 0.00022977564
0001d0 74 87 04 b9 d7 87 6b b9 c3 eb 0c b9 a0 53 1d 39
       -0.00012638961 -0.0002246195 -0.00013439269 0.0001500384
0001e0 8c d7 e0 37 4a 28 88 36 bd 62 d1 37 e6 00 1c 3a
       2.6803253e-05 4.057806e-06 2.496072e-05 0.00059510616
0001f0 3f 78 8f 39 80 3c d4 34 d6 a3 c8 39 5d 47 d0 39
       0.00027364676 3.9532097e-07 0.0003826904 0.0003972602
