results/CurveRoad1.1/CarAgent/CarAgent-2880.pt (torch, 492066 bytes, 36 tensors)

network_body._body_endoder.seq_layers.0.weight f4 [128, 22]
000000 da 8e 3c 3d 18 73 f3 bc 12 65 9f 3e 6f b1 2b 3e
       0.04603467 -0.029717967 0.31131798 0.16766904
000010 58 76 04 3f 2e 7f b3 3d 12 db 24 3e f9 14 20 3e
       0.5174308 0.08764492 0.16099194 0.15633
000020 22 34 82 be 57 d4 8f bd 62 96 35 3e 3d 21 d7 3d
       -0.254304 -0.070229225 0.17733148 0.105043866
000030 4b d6 1f bd b2 9f 1a 3d 05 d1 8a bd 15 6c 29 be
       -0.039022725 0.037749954 -0.067781486 -0.16545136
000040 e9 00 83 3c 79 5b c1 3c e2 28 85 be 0b f9 5e be
       0.015991645 0.023603188 -0.26007754 -0.2177469
000050 de ae c5 3d ec cb 4c be e3 77 e5 bd e7 f8 69 3e
       0.09652494 -0.19999665 -0.11204507 0.22848855
000060 cc a3 41 3d 08 fb 2d 3f c2 79 a4 3e 65 53 3c bc
       0.04727535 0.6796117 0.32124144 -0.011494492
000070 ba 44 0f be a8 2a 8e 3a aa 2b 10 3e 16 df 8c 3e
       -0.13991061 0.0010846453 0.14079157 0.2751395
000080 a0 db 16 be b5 2b ed 3e fd be e3 3c 91 96 c4 3e
       -0.14732218 0.46322408 0.027801031 0.38396123
000090 d6 31 4e be d9 6d 9b bc bb f8 a0 be 8d 22 91 3e
       -0.20136198 -0.018973278 -0.31439766 0.28346673
0000a0 a1 d8 f7 3d 70 6d 7a be c6 2b b8 ba 19 64 0c 3e
       0.121018656 -0.2445581 -0.0014051131 0.13710059
0000b0 0d 1d 1b 3d bc 4d 9e 3e 4e 59 e2 38 7f 6b df 3d
       0.0378695 0.30918682 0.00010793154 0.10909175
0000c0 0b fd 30 be ff 44 5b 3d 67 45 b6 bc be d6 80 3d
       -0.17284028 0.053532597 -0.02224989 0.06290959
0000d0 56 be 3c be 9d 87 f4 bd 62 de d6 bd f7 8b 5e 3d
       -0.18431982 -0.11939929 -0.10491635 0.0543327
0000e0 75 4d 44 be b1 4c c0 3d 74 b2 12 3e 56 58 bd 3d
       -0.19170173 0.09389628 0.14325887 0.09245364
0000f0 fe 28 8f 3d b5 e4 20 3e 01 dd e6 3e 5b 4c ac 3d
       0.069902405 0.15712245 0.45090488 0.08413001
000100 07 73 a3 bd eb 58 23 be 4a 12 87 be a9 d4 45 bd
       -0.07980924 -0.15951888 -0.2638114 -0.04829851
000110 16 32 1c 3e f9 c7 82 bd 24 48 88 3e 99 cb bd 3d
       0.15253481 -0.06385798 0.2661754 0.09267349
000120 f3 c8 c5 bd 88 4a dd 3e 91 05 28 bd 45 a8 bc 3e
       -0.09657469 0.43220925 -0.041020934 0.3684713
000130 12 5e 19 bf 4e 21 4c be f4 85 aa be 5b 3a 5f be
       -0.59909165 -0.1993458 -0.33305323 -0.21799605
000140 84 87 68 3e 9f e6 c3 3d 3f dc 92 be d5 d6 6b bd
       0.22707945 0.09565472 -0.2868366 -0.057577927
000150 85 e2 a3 bd 7e f0 04 3d 61 6b 8c bd 28 4b 07 3d
       -0.080021895 0.032455914 -0.068564184 0.03303066
000160 0d 81 b7 bc ac ff 0d be f9 0d 93 3e e8 21 92 3e
       -0.022400403 -0.13867062 0.28721598 0.28541493
000170 6b f2 9e 3d a1 6a 77 be 15 94 3f be 55 9d bd be
       0.07761081 -0.2416177 -0.18708833 -0.37034097
000180 42 3a 6c 3e a3 02 36 3d 21 9e b9 3d 59 94 c1 bd
       0.23069099 0.04443611 0.09063364 -0.09452123
000190 ab bd 0d 3e cb 28 f9 3b df 7a 85 3e d0 b1 92 3d
       0.13841884 0.00760374 0.26070306 0.07162821
0001a0 5c 33 46 3e b7 5a af be 0d 27 98 be 63 94 55 be
       0.1935553 -0.34248897 -0.29717293 -0.20857386
0001b0 9b f1 46 be 16 b7 48 3e 73 a7 99 3e 58 95 4e be
       -0.19428103 0.19601092 0.30010566 -0.20174158
0001c0 d1 8d 3c bd 4e 59 2b 3e 4a 06 a0 3d 04 87 36 bd
       -0.046033684 0.16733286 0.078136995 -0.044562355
0001d0 d5 85 08 3e 87 64 d5 3c f9 8e 35 3e 8f 9b 53 3d
       0.13332303 0.026048912 0.17730321 0.051662024
0001e0 f9 67 8e 3d ef a7 48 be 18 f4 93 3d 02 1f 33 be
       0.06953425 -0.19595312 0.072242916 -0.17492297
0001f0 37 89 3d be 65 05 42 bd 4f 6e 85 bd 80 b1 bd 3e
       -0.18509375 -0.047368426 -0.0651518 0.37049484
000200 20 c8 39 be 4e 83 c2 be 74 61 34 3e c6 5f 85 be
       -0.18142748 -0.37990803 0.176153 -0.26049632
000210 a1 2b 90 bc a5 05 b3 3e 21 aa 4e bd 1b 61 43 3e
       -0.017598929 0.34965244 -0.050455216 0.19080012
000220 54 08 62 be 19 a3 98 3d 4c c6 b1 3e 0e 5f 60 3e
       -0.2207349 0.074529834 0.347216 0.2191126
000230 81 bf 03 be 13 1f af bb d4 fe f7 3e 62 7d db bb
       -0.12866022 -0.0053442805 0.48436606 -0.0066982964
000240 ac 14 7b bc eb 17 4d bd 60 4e 96 3c b3 27 d4 bd
       -0.015324753 -0.050071638 0.018347919 -0.103591345
000250 0d e9 26 3e a3 d9 a1 3e aa 70 8b be 15 ec 6f 3e
       0.1629984 0.31611356 -0.27234393 0.23429902
000260 07 dd cc 3e 93 38 60 3c 95 79 0b 3e c1 a3 99 3c
       0.4001238 0.013685363 0.13620599 0.018754842
000270 66 00 25 3e a3 9a aa 3d 5c f7 d8 bd aa 72 82 be
       0.16113433 0.08330276 -0.10594055 -0.25478107
000280 a4 d4 85 bb e3 bf d7 3d 62 b7 bb 3e b0 66 8f 3e
       -0.0040841866 0.10534646 0.36663347 0.28008032
000290 b8 d4 cd bd 58 c4 d2 3d 90 43 31 be 2a b3 84 3d
       -0.100503385 0.10291356 -0.1731093 0.06479485
0002a0 f0 41 3b be cd 02 52 bd 2a 23 3e be 9d 44 70 3d
       -0.18286872 -0.051272202 -0.18568102 0.058659185
0002b0 eb 31 e5 be 73 0f 26 be c1 cc 32 bb b1 0f 7c 3d
       -0.44764647 -0.16216831 -0.0027282687 0.061538402
0002c0 19 7b a3 be 78 34 04 3e bf d4 57 3e b0 7f 7e be
       -0.31929854 0.1291064 0.2107725 -0.24853396
0002d0 f6 59 0a 3e e7 b4 b7 bd 60 ac 0a 3b a6 fd 59 be
       0.1351088 -0.08970051 0.0021159872 -0.21288165
0002e0 f5 15 2f 3e f4 fa ea 3d b9 45 82 3d f8 9a 3b be
       0.1709822 0.11473647 0.06360955 -0.18320835
0002f0 8d 25 1b 3e d2 cf ae 3c 6d 9d 6d 3d 5c a3 51 be
       0.15151043 0.02133933 0.05801146 -0.20472473
000300 d1 8b 2a 3e 19 4f 9c be e9 51 ab bb ff a2 19 3d
       0.16654898 -0.30529097 -0.0052282703 0.03750896
000310 e2 4e f3 bd c3 d6 d2 bd af 3b 32 be 1c 90 fa bc
       -0.1188028 -0.10294869 -0.1740558 -0.030586295
000320 d7 d9 b8 3e c3 26 9f 3e f1 ea b8 bd 89 38 da 3d
       0.361037 0.3108426 -0.090291865 0.106553145
000330 40 ab b1 be 20 36 24 be 18 e1 73 be f5 27 02 bd
       -0.34700966 -0.16036272 -0.23816335 -0.031776387
000340 95 93 2d be 37 49 b2 bd c7 60 b5 3e 8d 7b a2 bd
       -0.1695083 -0.08705371 0.35425398 -0.07933722
000350 26 ff 26 3e ef 35 0d 3e 33 62 14 3e 70 ef 17 3d
       0.16308269 0.13790105 0.14490585 0.03709358
000360 4e ca 05 bd 57 7b 0c 3e fe 82 14 be 8e 81 7c be
       -0.032663636 0.13718925 -0.14503095 -0.24658796
000370 61 b9 15 be 39 25 fd 3c fe 1e 26 3e c6 93 af bc
       -0.14621498 0.030901538 0.1622276 -0.021432769
000380 11 64 9e be 28 a3 d4 3d 63 c8 e7 3e 48 4b 30 3d
       -0.3093572 0.10382682 0.4527007 0.043040544
000390 1e 3f de 3e a5 90 9c 3e 4b 5e 52 3e 66 a1 25 bc
       0.4340753 0.30579105 0.20543782 -0.010109281
0003a0 cd 09 b5 3d 8e e8 f8 3c 5b 5b 35 3d fc 35 6e 3d
       0.0883976 0.030384328 0.044276576 0.058156952
0003b0 c8 c9 8e 3e 3e 8d b1 3e c9 d0 b2 3e 0c d7 49 3e
       0.27888322 0.34678072 0.34924915 0.1971094
0003c0 cb ab 40 bd 4e 6d 42 bc 9e 6a 41 3d 8b 48 b7 3e
       -0.047038835 -0.011866881 0.04722082 0.35797533
0003d0 74 b1 ce bc de 95 df 3e 1b 3d 5d be 1c 2e b7 be
       -0.0252311 0.43669027 -0.21605341 -0.35777366
0003e0 11 f0 87 3e d1 8e 3f be 1d d3 a2 3e f8 bd 57 3e
       0.26550344 -0.18706824 0.31801692 0.21068561
0003f0 1b 9b 3e 3e 97 93 d2 bd 9a 82 ff 3e ac a4 d9 bb
       0.18613856 -0.10282057 0.4990433 -0.006641945

network_body._body_endoder.seq_layers.0.bias f4 [128]
000000 58 72 1d 3b 43 59 bf bb f2 d4 63 bb 3e 89 ac bc
       0.0024024453 -0.0058394982 -0.0034764376 -0.021061536
000010 b8 9f aa bb 73 bd 04 bb 0c 02 7f 3b b4 5b a2 bb
       -0.0052070282 -0.0020254522 0.0038911132 -0.0049547795
000020 db 41 2d bc cf 28 22 3a 5a 57 12 bb a6 49 29 bb
       -0.010574783 0.00061858905 -0.0022329898 -0.0025831251
000030 f2 62 fb bb 40 f0 25 bb 72 ff aa bb e4 1a 6d b9
       -0.0076717073 -0.0025320202 -0.0052184397 -0.00022612099
000040 07 2b 8e bb c9 17 92 bb 63 d2 9c 3a e8 07 3b 3a
       -0.0043386254 -0.004458402 0.0011964556 0.0007134662
000050 3e ec e2 3a bc 65 88 3a fa 40 fa bb 01 28 a1 ba
       0.0017312837 0.0010406296 -0.0076371403 -0.0012295247
000060 78 1e bb ba 40 ae 11 bb d8 78 69 ba 59 48 37 bc
       -0.0014276048 -0.0022229105 -0.0008906252 -0.011186683
000070 f8 af ce ba 88 27 6b ba 5a 26 f7 ba b2 a8 90 3b
       -0.0015768996 -0.0008970429 -0.0018856034 0.0044146413
000080 70 98 ea bb 8c e3 c5 bb 6e 56 95 ba 7d 4f 4e bc
       -0.0071592852 -0.0060390886 -0.0011393556 -0.012592194
000090 c0 27 64 bb fa 7b a0 ba cb d8 70 3b 7f 11 01 bb
       -0.0034813732 -0.0012243979 0.0036750312 -0.0019694266
0000a0 05 28 20 bb 74 ab 67 bb ff 9c ad bb 30 91 2c b9
       -0.0024437916 -0.0035349997 -0.0052982564 -0.00016457285
0000b0 df 7a 35 bb 51 a3 ef bb d3 0b 82 ba a9 52 9a 3b
       -0.0027691645 -0.00731317 -0.0009921737 0.004709561
0000c0 b8 14 a7 ba 8c cb 52 ba 7c b4 84 3b 60 38 80 bc
       -0.0012747264 -0.0008041195 0.0040498357 -0.015651882
0000d0 f3 8c 05 bd e8 7b 04 bc 0c 5d e4 ba 65 ea 35 bc
       -0.032605123 -0.008086182 -0.001742275 -0.011103247
0000e0 a4 fa ac bb d0 a0 e1 bb b3 ee 0f bb 32 8d 66 bb
       -0.005278902 -0.0068856254 -0.0021962344 -0.0035179374
0000f0 56 7a 07 bc f2 78 04 3b fe 69 48 ba 09 9f 57 bb
       -0.008268913 0.002021369 -0.00076451886 -0.0032901189
000100 f5 77 97 ba 28 69 4d 3b b9 b6 de bb 84 5e 7a 3b
       -0.0011556136 0.0031343196 -0.0067966846 0.0038203308
000110 e1 8e 23 bc be d6 e9 b9 17 e6 be bb 17 50 ed 3a
       -0.009982795 -0.00044601219 -0.0058257687 0.0018105534
000120 8b 83 82 bb 3b 3c 6d 3a f3 66 de bb 9a 37 aa ba
       -0.0039829663 0.00090498076 -0.006787175 -0.0012986541
000130 92 5f 2c bc 50 51 34 3b 8e 7e 59 39 f9 df 30 3b
       -0.010520833 0.0027514286 0.00020741878 0.0026988967
000140 71 df 79 bc 43 cb b2 bb b5 4a e0 3b 56 64 2d bb
       -0.0152510265 -0.0054563596 0.0068448433 -0.002645751
000150 af 9e c7 bb 9a 24 b7 ba 14 91 f7 ba c0 e3 1e bc
       -0.0060919146 -0.00139727 -0.0018887841 -0.0096978545
000160 1c 8e 07 bb 9e a5 67 bc 0d 28 0d 3b 3e c4 0e 3b
       -0.002068407 -0.014138607 0.0021538765 0.002178445
000170 10 d4 61 3b c6 fd ac 39 12 ee be bb ce 5e 96 bb
       0.0034458674 0.00032995472 -0.00582672 -0.0045889383
000180 88 b2 97 3b c6 d9 8c bc 9c 7f 31 bb 91 96 88 bb
       0.004629437 -0.017193686 -0.0027084118 -0.0041683395
000190 3c 52 f9 ba 16 3f 51 bc d2 71 a5 3b 5c 4c 98 bb
       -0.00190217 -0.0127713885 0.005048969 -0.0046477746
0001a0 04 71 e9 bb 69 5f e2 bb 31 a5 7d bb e4 31 e6 bb
       -0.007124068 -0.0069083464 -0.0038703198 -0.0070249904
0001b0 76 87 8c bb 31 a8 3d 3b 7a da 65 bb 29 b1 18 bb
       -0.004288609 0.0028939361 -0.003507285 -0.0023298955
0001c0 04 38 14 ba 6a 12 10 bb 9b 51 67 3b b2 c5 a4 3a
       -0.0005654099 -0.0021983632 0.0035296443 0.0012571125
0001d0 5f dd 35 bb f4 58 0f bc 69 93 46 bb 9e 2f 0b bb
       -0.0027750356 -0.008749235 -0.0030300266 -0.00212381
0001e0 23 74 43 bb 45 24 e6 ba 81 86 7e bb 1a 0d ca bb
       -0.0029823862 -0.0017558417 -0.0038837495 -0.0061661126
0001f0 c9 54 cf ba 4e 20 71 3a 41 00 de ba f4 f8 b6 3a
       -0.0015818115 0.0009198234 -0.0016937332 0.0013959692

network_body._body_endoder.seq_layers.2.weight f4 [128, 128]
000000 9b 23 bb 3d 71 c5 47 bd 43 c8 b0 bd 1e e2 ee 3c
       0.091376506 -0.04877228 -0.08631947 0.029160555
000010 dd 2c 03 3d f9 e1 4c bd f3 7e 47 3d 26 3f 13 3e
       0.032025207 -0.05002019 0.048705053 0.14379558
000020 71 c8 4a bd 3d 57 5c 3d f5 2f 93 3d 9c 2d 0a 3d
       -0.049507562 0.053794134 0.071868815 0.033734903
000030 fb 88 a7 3c 42 1e 72 bc 9c 96 f4 bc 48 f3 d2 bd
       0.02045106 -0.014777722 -0.029856972 -0.103003085
000040 6e 18 b5 bd e5 15 95 bd 64 1a 3b 3d e3 4e a9 bc
       -0.0884255 -0.07279567 0.045679465 -0.020667499
000050 7c e1 88 bc 75 50 33 be 24 fb 8b 3d 24 22 fc 3c
       -0.016709082 -0.1751116 0.06835011 0.030777998
000060 27 ec c1 3d 2e 44 ed 3d 13 65 96 bc 11 6a c4 3d
       0.094688706 0.1158527 -0.018358743 0.09590543
000070 f1 a9 1e 3e b9 63 fd 3c 0c 24 e8 bd aa bf bb bd
       0.15494515 0.03093134 -0.113350004 -0.091674164
000080 59 38 7f bd 6f 6f 6a 3d 12 a1 d4 3d f1 cd a2 3c
       -0.062309597 0.057235178 0.10382284 0.019873591
000090 b5 14 8a bd 39 8b ad 3d d0 26 26 bd 77 50 71 3d
       -0.06742231 0.0847382 -0.04056436 0.058914628
0000a0 ee 48 8c 3c a0 4a c0 3d 44 d3 f6 bc e3 20 04 3e
       0.01712462 0.093892336 -0.030130036 0.1290317
0000b0 b6 55 96 3d 85 92 94 bb 36 21 bf 3d ea 0f 8b 3b
       0.07340567 -0.004534068 0.09332506 0.0042438405
0000c0 15 58 91 bd 44 03 86 bd dd fd 09 bd 6c 62 86 3d
       -0.070968784 -0.065435916 -0.03368937 0.06561741
0000d0 de ce d9 bd 6d fe c1 bd 88 45 09 3e e9 1a 6d 3c
       -0.1063516 -0.09472356 0.1340543 0.014471748
0000e0 ce c9 92 3d 10 1d 8c bd 85 5e d7 3d 72 88 a4 bd
       0.071673974 -0.06841481 0.10516075 -0.080338374
0000f0 d3 77 c2 bd 1b f7 84 bd 74 ca a9 3c f5 d3 df bc
       -0.09495511 -0.06492444 0.02072642 -0.027322749
000100 ed 4d 97 bd 0a ca bd 3c c0 d1 9f 3d cd 45 9a 3d
       -0.0738791 0.023167629 0.078036785 0.07532845
000110 29 f6 da 3b 9d 7c bf 3d f8 7e 87 bd 5a 7a f0 3d
       0.0066821766 0.0934994 -0.06616014 0.11742087
000120 09 01 53 bd 93 48 e4 3d 5c 6e 32 3e 85 89 01 3d
       -0.05151466 0.11146655 0.17424911 0.03162529
000130 b8 9e c8 3c 5b 17 8c 3c f0 69 bc bd a6 a5 e7 bd
       0.024489745 0.01710098 -0.091998935 -0.11310892
000140 89 b8 b7 bd 90 6e ac bd e5 c5 88 3d 86 ef cd bd
       -0.08970744 -0.084195256 0.066783704 -0.10055451
000150 36 4c db 3d d0 f8 77 3d 17 99 b5 3d 76 b5 0b 3d
       0.107078955 0.06054002 0.0886709 0.0341086
000160 52 64 99 bc b5 b4 21 3d ae b8 85 3d ab 73 b5 3c
       -0.018724594 0.039478976 0.065293655 0.022149881
000170 d9 ae 69 3d 22 79 94 3d b0 42 8c 3d c0 51 7f bd
       0.057051513 0.07249667 0.06848657 -0.062333822
000180 ae e7 e5 3c a3 be cd bd de b4 46 3d 61 74 83 bc
       0.028064575 -0.10046127 0.048512332 -0.016046705
000190 99 b3 5f bd be 08 3c bc c0 2c 03 3d bd 1c 3a 3c
       -0.054614637 -0.011476694 0.0320251 0.011359391
0001a0 70 37 84 3e 12 f7 1c ba 8b 30 8f 3d 91 b5 87 3c
       0.25823545 -0.0005987744 0.06991681 0.01656607
0001b0 6e 68 91 3d 85 6e e5 3d 5f ce c5 3d 79 2e 27 be
       0.070999965 0.112027206 0.09658503 -0.16326322
0001c0 5f c3 94 bd e4 e3 19 3d c6 19 d3 bd dc 0c 46 bd
       -0.072638266 0.03757085 -0.1030765 -0.048352107
0001d0 da 1b 17 be 38 0f c3 bd f3 b3 ac bd 19 32 61 bd
       -0.14756718 -0.09524387 -0.0843276 -0.054979417
0001e0 10 04 85 bd 1c 7a 8e bd 8a d7 e6 3c 1a 10 2c bd
       -0.064949155 -0.06956884 0.028178949 -0.042007543
0001f0 0f a8 3b bd 2d d5 89 bc 4f cd 4e bd dd ae 91 3c
       -0.04581457 -0.016825283 -0.050488766 0.017783577
000200 3a 0c 00 be 35 c0 15 3c 9a a9 a3 bd 1a d3 8e 3d
       -0.12504664 0.009140064 -0.07991333 0.06973858
000210 e6 69 e2 bc 95 d7 1e bd c6 a6 51 3e b6 31 88 3c
       -0.027638387 -0.038779814 0.20473775 0.016625267
000220 00 35 51 bd 17 64 b3 3d 18 8e 45 bc a3 e7 d4 3c
       -0.051075935 0.08759325 -0.012057804 0.02598936
000230 9d 1b 0b 3d 5e ce cd 3d 64 eb d2 3c 9f f3 b8 3d
       0.03396188 0.10049127 0.025747009 0.09030842
000240 8c 41 60 3c 9a 11 51 3d aa 89 00 bd 45 7f 46 ba
       0.013687503 0.051042177 -0.031381287 -0.0007572065
000250 1a a5 ae 3d f7 28 87 bd e5 c1 07 3e 8f 15 39 3a
       0.085275844 -0.0659961 0.13257559 0.00070604024
000260 d6 21 60 bd e0 c1 b7 3d 89 80 99 bd b3 98 b5 3d
       -0.05471977 0.089725256 -0.07495219 0.08867016
000270 b4 93 97 3d 7a d2 a9 bd fd 35 34 be 9e 5c fd bd
       0.07401219 -0.08292098 -0.1759872 -0.12371181
000280 b0 06 43 bd 54 23 b4 bd e3 63 51 39 c1 c3 a2 bd
       -0.0476138 -0.08795801 0.00019969004 -0.07947493
000290 c3 45 95 3c c3 a5 2a bc 7c 11 e5 3c c9 1e 76 3c
       0.018221742 -0.010415497 0.027962439 0.015021988
0002a0 5e a8 97 3c bd 77 7f bd cf e1 cb 3c 01 c3 cf 3d
       0.0185129 -0.06237005 0.024887947 0.10144616
0002b0 46 3d 66 bd 25 23 c5 bc 98 4f a5 3c f7 24 69 bd
       -0.05621078 -0.02406461 0.020179555 -0.056920018
0002c0 ef 35 d6 bd 68 a0 bd 3c 55 43 4a 3d b2 5f 87 3c
       -0.10459506 0.023147777 0.04938062 0.016525123
0002d0 d8 d1 27 bd 2d c8 cb 3d 74 4f eb 3c c0 1d f6 bc
       -0.040971607 0.0995029 0.02872441 -0.030043483
0002e0 fa 29 54 bd 5c 70 7a bd ed 9a 00 be 7a 6a 08 bd
       -0.051797844 -0.06114231 -0.125591 -0.03330467
0002f0 2a fb f0 3d f9 e5 17 be 85 3e 4a 3c 0a 6c b0 bd
       0.11766656 -0.14833821 0.012344007 -0.08614357
000300 66 1c 2c bc 86 fe 80 bd b4 c1 fe 3d aa a9 d7 3d
       -0.010504818 -0.062985465 0.1243929 0.10530408
000310 ef 0a 94 bd a0 88 04 be 30 0a 4d 3d 8f 3c 1b 3d
       -0.07228648 -0.12942743 0.050058544 0.03789955
000320 d0 21 24 3d e1 5e 35 bd 56 03 8c bc 9b 03 00 bd
       0.04007131 -0.044279937 -0.017091434 -0.03125344
000330 49 bb 18 3e 77 99 85 bd 3b 44 0e 3d 10 59 7b bd
       0.14915194 -0.06523412 0.03473304 -0.061364233
000340 3d 92 ce bd 5b 06 01 be 4e 09 94 bc fa d3 35 3e
       -0.100864865 -0.1260008 -0.018070843 0.17756644
000350 fd 8e 12 3c ea c5 a4 bd fe e1 2b 3d 63 fc 95 bd
       0.008945224 -0.080455616 0.04196357 -0.073235296
000360 6c bc bb bd 43 cb 83 bd bd 2f 8a bd 93 14 88 3d
       -0.09166798 -0.064352535 -0.067473866 0.06644549
000370 16 a0 ab bd f5 18 0e bc 40 f8 17 3c 60 e3 1e be
       -0.08380143 -0.008672942 0.009275496 -0.15516424
000380 9a 03 ad ba 21 8d 60 3c ae c2 63 3d b1 f8 1b 3e
       -0.0013199926 0.013705523 0.055605583 0.15231587
000390 a3 a5 14 be cd f5 bd 3d c3 be 14 3e e7 cc 0b bd
       -0.1451631 0.092753984 0.14525895 -0.034130957
0003a0 a9 b3 53 3c 73 58 c3 bd 98 2d cb bd e8 8b dc bd
       0.012921252 -0.09538355 -0.09920806 -0.107688725
0003b0 ba d1 03 3c 45 1c 85 3d ab 9d 1b 3d d5 8c 94 bc
       0.008045608 0.064995326 0.03799216 -0.01813356
0003c0 35 8f f3 3c 51 d7 01 bd e8 03 91 bd 6f 34 10 be
       0.029731372 -0.031699482 -0.07080823 -0.14082502
0003d0 12 df d7 bd 69 44 80 bd fe 99 47 3d 90 74 1b bd
       -0.10540594 -0.06263048 0.048730843 -0.03795296
0003e0 5a f6 e3 bc 17 6e 1b be 3e d9 3a bd 27 d4 c1 bc
       -0.02782743 -0.15178715 -0.045617335 -0.023660732
0003f0 db 60 14 3d 3e e2 8e 3c b6 f5 c9 3d 39 b6 c2 bc
       0.03622518 0.017441865 0.09861319 -0.023768531

network_body._body_endoder.seq_layers.2.bias f4 [128]
000000 e9 12 4d bb 2d ce ca bb c8 5b a6 bb f0 6c 54 ba
       -0.003129179 -0.006189129 -0.005076859 -0.0008103391
000010 f3 e9 c2 bb 5f 71 53 3b 68 0d 57 3a f6 ce d4 bb
       -0.005948299 0.003226362 0.0008203597 -0.006494398
000020 b6 7c d5 bb f8 8e 2b bb 4f 9a 1e ba b9 a3 57 bb
       -0.006515111 -0.0026177745 -0.00060502155 -0.0032903983
000030 f4 f4 b4 39 c5 ad 87 bb 31 ee 8f bb 70 05 1b bb
       0.0003451478 -0.004140588 -0.0043924083 -0.0023654364
000040 98 4b 98 bb 1a ef 84 bb e3 23 b3 bb 34 7a 91 bb
       -0.0046476834 -0.0040568234 -0.0054669245 -0.0044396166
000050 d8 b3 0e 3a 5c b8 62 ba 9e 4b f3 bb 2d 4c 43 bb
       0.0005443669 -0.00086486875 -0.0074247858 -0.0029800043
000060 f5 00 89 bb cf 6b 2f bb 55 45 d3 bb 8f 78 bc bb
       -0.0041810223 -0.002676714 -0.006447474 -0.0057516764
000070 81 ed e1 bb cc f5 a4 bb a1 7f 30 ba 0d 7b d5 3a
       -0.0068947678 -0.005034184 -0.00067328854 0.0016287282
000080 2a fb d5 bb 4b cc c4 bb 17 91 1b bc 1c 7f 99 bb
       -0.006530185 -0.006005799 -0.009495041 -0.004684342
000090 96 3a 60 bb ee e3 d2 bb a1 17 c2 39 e0 d5 ed bb
       -0.0034214607 -0.0064358627 0.00037020168 -0.007258162
0000a0 95 36 9b 3a 4d a1 40 ba 69 12 d9 b9 27 22 74 bb
       0.0011841828 -0.00073482544 -0.00041403182 -0.0037251802
0000b0 08 40 6d bb 3e 91 1e bb b5 31 cd b9 26 9c a4 bb
       -0.0036201496 -0.0024195458 -0.00039137682 -0.005023497
0000c0 38 7a 25 bb 5b 0f ed bb c0 de 33 bb e0 25 39 3b
       -0.002524985 -0.0072344965 -0.0027446002 0.0028251335
0000d0 6e ed e3 bb f1 61 91 bb 61 16 54 bb a4 54 b0 bb
       -0.006955794 -0.0044367244 -0.0032361972 -0.0053811837
0000e0 8e 75 8e bb e5 ee 51 3a 67 b6 ba bb cf 87 b5 bb
       -0.0043475097 0.00080083153 -0.0056980136 -0.0055398713
0000f0 8a 78 b7 bb bc 29 e6 bb b9 5b 9c bb ae 49 c2 bb
       -0.005599086 -0.007024018 -0.0047716764 -0.0059291935
000100 fd ca 14 bb d2 f9 aa bb 41 9e fd ba f3 68 0d bc
       -0.0022703998 -0.005217769 -0.0019349532 -0.008630979
000110 6b ac b9 bb 03 71 c5 bb 2a 30 b4 bb a2 10 1b bb
       -0.005666306 -0.006025435 -0.0054989057 -0.0023661037
000120 61 9f 8e ba 7e f6 9e bb 5e 93 d8 bb 71 1c 65 bb
       -0.0010881239 -0.0048511615 -0.0066093644 -0.003495958
000130 74 a3 cb bb bd e7 62 bb 72 c5 c9 bb b9 80 e5 bb
       -0.0062145535 -0.003462299 -0.0061575705 -0.0070038703
000140 59 75 99 3a 50 62 c5 37 fb 18 94 bb d1 dc aa bb
       0.0011707946 2.353001e-05 -0.0045195795 -0.0052143116
000150 61 c1 15 bb 00 33 ef ba 31 18 24 bb 2b 41 ac bb
       -0.0022850859 -0.0018249452 -0.0025038833 -0.005256792
000160 4a 98 1d 3a 4a 84 e0 bb fc 8a f6 bb 63 ee dd bb
       0.00060117675 -0.0068517076 -0.0075238924 -0.0067728027
000170 25 72 6c ba 45 7f d7 bb 3f 92 f0 bb 0b ad 00 bc
       -0.00090196944 -0.006576451 -0.0073416526 -0.007853757
000180 15 9a 04 3a 45 a4 1a bb 06 73 35 bb a6 db e8 bb
       0.00050583604 -0.0023596447 -0.0027686968 -0.0071062623
000190 68 0d 00 bc 2b 66 9e bb 3e 15 0f bb 67 81 e0 bb
       -0.007815696 -0.0048339567 -0.002183273 -0.0068513635
0001a0 15 d8 a1 b9 26 95 83 bb e9 72 bc bb 9a 5d c3 bb
       -0.00030869307 -0.0040155826 -0.005751003 -0.005962086
0001b0 f2 af cc b8 07 03 49 bc 41 69 01 bc 12 4e c8 39
       -9.7602504e-05 -0.012268788 -0.00789863 0.0003820514
0001c0 20 18 28 bb 05 8a 04 bc 38 e0 27 bb 12 32 97 bb
       -0.0025649145 -0.008089547 -0.0025615823 -0.004614123
0001d0 5a 0e af bb d0 4d a2 36 ee be 26 bc f8 b3 54 bb
       -0.005342287 4.837035e-06 -0.010177357 -0.0032455903
0001e0 82 c7 bd bb ec d3 b5 bb ca 34 22 bc 62 dc 94 bb
       -0.0057916055 -0.0055489447 -0.009900281 -0.0045428732
0001f0 b4 1b 7c ba be 29 b0 bb e2 31 16 bc 00 ae c1 bb
       -0.0009617165 -0.00537607 -0.009167166 -0.005910635

action_model._continuous_distribution.log_sigma f4 [1, 3]
000000 b1 30 9c bb 6b 98 67 bb d0 6e c4 bb
       -0.0047665467 -0.003533865 -0.005994655

action_model._continuous_distribution.mu.weight f4 [3, 128]
000000 d7 ff c0 bc b6 fb 06 3c d5 51 4c 3c a4 d1 39 3b
       -0.023559494 0.0082387235 0.012470682 0.0028353715
000010 6c a5 20 3c 56 6d 98 bc 76 88 4b bd 00 59 cf 39
       0.009805065 -0.018606823 -0.049690686 0.00039548427
000020 da a3 a1 3a 83 72 33 bc 32 16 90 3c 3e ea bc bc
       0.0012332157 -0.010952595 0.017588709 -0.023060914
000030 b1 52 c4 bc 74 b7 5d bc 5a e8 f2 3b e3 d0 20 3d
       -0.023965212 -0.013532508 0.0074129524 0.03926171
000040 cb dc cf 3c 7b de bc 3c 20 d5 91 3c d0 42 5a 3c
       0.025373837 0.023055306 0.017801821 0.013321593
000050 7d 88 c4 bb 19 6a 06 bd e9 51 de ba ad c6 2b 3b
       -0.005997716 -0.032816026 -0.0016961667 0.002621095
000060 45 06 47 3c 0e 44 13 3a 26 3b 42 bc cf 6e 32 3c
       0.012147491 0.0005617746 -0.011854922 0.010890677
000070 80 b9 0a 3c ea 9d 12 3d 72 bd 1f bc 78 0c 39 3c
       0.008467078 0.03579513 -0.009749757 0.011294477
000080 a2 2d 41 bc 17 14 c2 3b 68 5d 50 3a ef 90 37 3c
       -0.011790665 0.005922805 0.0007948489 0.011203988
000090 ba 6c ae bc 30 eb 81 ba f2 32 14 3c 03 17 75 bc
       -0.02129208 -0.000991201 0.009045349 -0.0149591
0000a0 b4 26 7b bb d3 36 48 bd 0f 9a dc bc 29 a5 a1 3c
       -0.003832263 -0.04888041 -0.02692893 0.019732075
0000b0 82 af 71 3c 48 58 5c 39 94 89 a4 ba 14 c0 84 3c
       0.014751317 0.00021013722 -0.0012553209 0.016204871
0000c0 8f 25 2c 3c 50 1f 34 bc 38 22 1a 3d 2e b6 41 bc
       0.010507002 -0.010993794 0.03763029 -0.01182322
0000d0 39 aa 39 3c 6e 88 20 3c f9 51 a6 bc f2 85 9c 3c
       0.011332088 0.009798152 -0.02030276 0.019106839
0000e0 fa 20 e0 3c 77 20 16 3d b4 0f 11 3c 4a 0f 37 3c
       0.027359474 0.036652055 0.008853842 0.011173079
0000f0 4e 4d 97 bc 0a 22 d8 bc dd cd 0c 3d 58 9f 69 3b
       -0.018469479 -0.026383419 0.034376014 0.0035647955
000100 82 15 30 3c 69 3c 94 3c 13 2d e9 bc 79 fa 9f bc
       0.010747315 0.018095212 -0.028463876 -0.019528614
000110 35 87 66 3c 25 7e 4c 3c 2f 42 4c 3c 5c 0a 90 bb
       0.014070322 0.012481247 0.012466951 -0.004395766
000120 3d 75 19 bd ba 3d 25 3b 12 ea 2a 3c 87 9b b1 3b
       -0.037465323 0.0025213794 0.010431783 0.0054201516
000130 fd 6e b0 3b 41 b9 c4 3c f1 ec 5f bc fe 2b 24 3c
       0.0053843246 0.024014117 -0.013667331 0.010020254
000140 e1 04 1e bd f6 4c 62 3b cd 09 c7 39 06 3e 48 3c
       -0.03857887 0.0034530736 0.0003796354 0.012221819
000150 c5 01 dc bb 53 ed 75 3c 27 81 88 b9 52 f9 f4 bb
       -0.006714078 0.015010196 -0.00026036167 -0.0074760104
000160 83 da ed 3b bf 0f 1a bb 0d d9 b8 bb 20 e7 3d bb
       0.0072587146 -0.002350792 -0.005641109 -0.0028976873
000170 ca da ac bc b1 7a 9f 3b d2 1c be 3b f0 9f b7 3a
       -0.02110042 0.004866921 0.0058017755 0.0014009457
000180 83 93 41 3b a8 91 b0 bc 6f 0d d7 bb 31 64 25 bc
       0.0029537387 -0.02155383 -0.0065628807 -0.010094688
000190 a8 cd 89 bc 94 76 18 3d 74 1c df 39 e9 0e 19 3c
       -0.016821697 0.03722246 0.00042555074 0.009341934
0001a0 9d 59 97 3b 51 47 04 bc af 9e 52 3c 0a 09 31 3c
       0.004618837 -0.008073644 0.012855216 0.010805378
0001b0 25 92 ee bc e2 e1 10 3b 19 65 8d bc e5 9b 30 3d
       -0.029122422 0.0022107293 -0.017260121 0.043117423
0001c0 7e de a1 bb f9 3d 2e 3a 04 6d ee b8 27 8f 9d 3c
       -0.004939853 0.0006646808 -0.0001136903 0.0192333
0001d0 01 3c d2 bb a9 c2 04 bb a5 e2 8e b9 b4 3f d6 3c
       -0.0064158444 -0.0020257628 -0.00027253214 0.026153423
0001e0 23 aa e0 3b 4d 13 81 3c c4 24 62 3b 8a 80 0f 3d
       0.0068562194 0.015756274 0.0034506777 0.035034694
0001f0 30 41 91 3a 22 a6 ce 3c 41 4c 90 3b 0d d3 09 3c
       0.001108205 0.025225703 0.0044036214 0.008412135
000200 6d 39 ce bc f0 47 04 3c ad 98 2f bd 93 e4 1b bc
       -0.025173867 0.008073792 -0.042870212 -0.009514946
000210 06 20 a7 3c ae f5 02 3c 4a 47 26 3a 6c a0 cd 3c
       0.020401012 0.007993145 0.00063430204 0.02510091
000220 e6 95 14 bc 46 77 03 3c 18 c4 91 3b 81 db 78 3c
       -0.009068942 0.0080240425 0.004448425 0.015189053
000230 5c 12 af 39 5d 0d db 3c 20 ad ef ba e7 84 2c bc
       0.0003339228 0.02673977 -0.0018285848 -0.010529733
000240 85 f7 91 3b 88 d7 c0 bc 85 75 b0 3c b3 9b a7 3c
       0.0044545555 -0.023540273 0.021540413 0.020459985
000250 f8 7e 6b 3b 4d 05 ad bc 2b 18 5f 3c 3d c3 6e 3a
       0.0035933834 -0.021120692 0.013616602 0.0009108072
000260 da b1 99 3c be 24 9f b7 58 2d c2 3b 7b 0d 2c bc
       0.018761564 -1.8971386e-05 0.0059258156 -0.010501261
000270 02 9d 02 3c 72 c8 c8 bb 8e 1e 01 bc 7a e1 b7 bc
       0.007972004 -0.0061274106 -0.00788082 -0.022446383
000280 9a 02 d7 3b 4a 3b 0e 3c f3 c9 54 3b 33 1a 97 bc
       0.0065615894 0.008681128 0.0032469004 -0.01844511
000290 77 ed a6 3a 66 9c 1d 3c 98 ce fc 3a 38 df 8d bb
       0.0012735565 0.009619808 0.0019287644 -0.0043295883
0002a0 90 9f a5 3a bc 78 4c bb 77 c6 db 3b cb a1 59 bc
       0.0012636054 -0.0031199893 0.0067070085 -0.013283203
0002b0 ec df 5b bc 32 65 6e bc a1 33 0a b9 bf a5 d6 bc
       -0.013420086 -0.014550494 -0.00013179939 -0.02620208
0002c0 7b 1c e7 bb 68 df 4c bc 1e 2b 0c bc 16 22 cc ba
       -0.0070529557 -0.012504436 -0.008555202 -0.0015574123
0002d0 64 17 b9 bb 36 0b a5 3c e5 9b 12 3c a5 c7 5c 3c
       -0.0056485403 0.020146947 0.008948301 0.013475333
0002e0 c1 52 23 3b 04 0e 49 bd b9 55 b8 3b cc ae a4 bc
       0.0024921151 -0.049085632 0.0056254533 -0.02010288
0002f0 15 c9 2a 3d ba f5 65 3b eb a3 ea bb 5c b8 f3 bb
       0.041695673 0.0035089091 -0.007160654 -0.007437749
000300 e5 ea 0d bc 95 38 b2 3b 31 09 0a 3c f1 da 02 bb
       -0.00866196 0.005438874 0.008425043 -0.0019966925
000310 e8 8d 6e 3c ea c0 26 bd 0e 1d 81 3a cd 5f ca 3c
       0.0145602 -0.04071132 0.0009850578 0.024703884
000320 82 f5 38 3c e7 43 50 3c bb 3b 6d 3c 0b 26 36 3b
       0.011289002 0.012711502 0.014479573 0.0027793671
000330 ad 85 48 bc 77 53 b1 3b 9d cb 90 ba ac 4f dd bb
       -0.012238902 0.005411561 -0.001104701 -0.0067538824
000340 98 bd 1b bc 0b 87 0e ba 13 8d 17 bb a3 2b c8 bb
       -0.009505652 -0.0005436993 -0.0023124858 -0.0061087175
000350 9d 27 0f bb 97 9a 6e bc 10 0b 9e bc bb 3c 75 bb
       -0.002184368 -0.014563224 -0.019292384 -0.0037420231
000360 c0 f6 6b 3c b7 db a3 3c d3 17 2c bb b5 3e 05 3c
       0.0144020915 0.02000223 -0.0026259318 0.008132626
000370 0d 03 dd bc 67 d0 0d 3c 21 54 90 bb 43 ad 1f bc
       -0.026978994 0.008655644 -0.00440456 -0.009745899
000380 5d db 17 bd f4 60 77 3c a7 8d 27 3a fe 8a 31 3c
       -0.037074436 0.015098799 0.0006391652 0.010836361
000390 82 f7 b8 3b 9c f6 fd 3c 23 5b 05 39 7b cb b3 3b
       0.0056447396 0.031001382 0.0001271782 0.0054869032
0003a0 18 ba 19 3c 6a 99 b4 bb ea 6d f7 bb 74 77 0a 3c
       0.009382747 -0.0055114524 -0.0075509446 0.008451331
0003b0 e9 6d ee 3c f4 f8 fd b9 a8 fb da 3b ae 83 8b bc
       0.029105144 -0.00048441405 0.006682832 -0.017030563
0003c0 46 30 09 bc 6b c8 2f bb ec 95 cd 39 d9 21 97 3c
       -0.008373326 -0.002682234 0.00039212347 0.018448757
0003d0 f2 2a d5 bb f6 17 0d ba 62 ee 8e bb 61 40 34 3b
       -0.0065053636 -0.00053822936 -0.0043619135 0.0027504193
0003e0 9a 86 4a ba 1a 26 1e 3c 12 e0 1b 3b c4 78 20 bc
       -0.00077257457 0.009652639 0.002378468 -0.009794418
0003f0 4c b3 be b9 b6 e4 2b bc 82 64 04 3a 29 82 da bb
       -0.0003637321 -0.010491541 0.0005050377 -0.0066683483

action_model._continuous_distribution.mu.bias f4 [3]
000000 1f 8f f4 ba 2c a7 eb b9 03 4a 69 ba
       -0.0018658376 -0.00044947246 -0.0008899273

exp_avg f4 [128, 22]
000000 00 00 00 00 49 ab c4 b8 00 00 00 00 9c 2f d6 b8
       0.0 -9.377913e-05 0.0 -0.00010213183
000010 00 00 00 00 9f 2f d6 b8 00 00 00 00 50 4b 0f b9
       0.0 -0.00010213185 0.0 -0.00013665599
000020 00 00 00 00 55 4b 0f b9 00 00 00 00 fc 71 0d b9
       0.0 -0.00013665606 0.0 -0.0001348927
000030 00 00 00 00 1c 73 e9 b8 35 22 78 39 54 f3 52 34
       0.0 -0.000111317466 0.00023663866 1.9646296e-07
000040 10 71 10 3c 00 00 00 00 88 69 7d b9 d9 99 da 3b
       0.008816019 0.0 -0.00024167274 0.006671172
000050 c4 dd ea 2e e6 2d 2b ae 00 00 00 00 d2 18 68 b8
       1.06804815e-10 -3.8921665e-11 0.0 -5.5336226e-05
000060 00 00 00 00 e8 c4 7c b8 00 00 00 00 f9 c4 7c b8
       0.0 -6.0264865e-05 0.0 -6.0264927e-05
000070 00 00 00 00 5f 1b a9 b8 00 00 00 00 71 1b a9 b8
       0.0 -8.063646e-05 0.0 -8.063659e-05
000080 00 00 00 00 a4 ec a6 b8 00 00 00 00 48 c0 89 b8
       0.0 -7.9595746e-05 0.0 -6.568484e-05
000090 24 6a 12 39 f7 f7 f8 33 f6 75 aa 3b 00 00 00 00
       0.00013963185 1.15935045e-07 0.0052020503 0.0
0000a0 c4 87 15 b9 45 fd 80 3b 2a 40 e4 ad 00 3c 82 2b
       -0.00014260324 0.003936442 -2.5949094e-11 9.253709e-13
0000b0 00 00 00 00 19 ca a6 b6 00 00 00 00 1e a5 b5 b6
       0.0 -4.970713e-06 0.0 -5.4134425e-06
0000c0 00 00 00 00 28 a5 b5 b6 00 00 00 00 13 0c f3 b6
       0.0 -5.413447e-06 0.0 -7.24337e-06
0000d0 00 00 00 00 3a 0c f3 b6 00 00 00 00 02 e9 ef b6
       0.0 -7.2433877e-06 0.0 -7.1498807e-06
0000e0 00 00 00 00 33 fb c5 b6 c0 6e 52 37 05 ed 32 32
       0.0 -5.900301e-06 1.2542761e-05 1.0414856e-08
0000f0 29 fe f4 39 00 00 00 00 26 e9 56 b7 7a 63 b9 39
       0.0004672867 0.0 -1.2809678e-05 0.00035360066
000100 e0 56 f1 ac af 91 09 2c 00 00 00 00 94 af 9a 37
       -6.859277e-12 1.9549742e-12 0.0 1.843999e-05
000110 00 00 00 00 a6 76 a8 37 00 00 00 00 a8 76 a8 37
       0.0 2.008241e-05 0.0 2.0082414e-05
000120 00 00 00 00 08 69 e1 37 00 00 00 00 04 69 e1 37
       0.0 2.6871e-05 0.0 2.6870992e-05
000130 00 00 00 00 c2 80 de 37 00 00 00 00 9a 9d b7 37
       0.0 2.652442e-05 0.0 2.1888689e-05
000140 c8 2a 43 b8 84 eb 25 b3 4c 37 e3 ba 00 00 00 00
       -4.6531466e-05 -3.8631256e-08 -0.0017335205 0.0
000150 2e 51 47 38 db ef ab ba 7a 52 2a ae d2 93 10 2d
       4.75209e-05 -0.0013117747 -3.872678e-11 8.218275e-12
000160 00 00 00 00 d5 ca 06 b7 00 00 00 00 47 cc 12 b7
       0.0 -8.034248e-06 0.0 -8.74984e-06
000170 00 00 00 00 4b cc 12 b7 00 00 00 00 b8 6b 44 b7
       0.0 -8.749844e-06 0.0 -1.1707591e-05
000180 00 00 00 00 c7 6b 44 b7 00 00 00 00 e8 e2 41 b7
       0.0 -1.1707604e-05 0.0 -1.1556527e-05
000190 00 00 00 00 2d 00 20 b7 9a 10 aa 37 e1 99 90 32
       0.0 -9.536784e-06 2.027331e-05 1.6833782e-08
0001a0 60 fe 45 3a 00 00 00 00 c0 ae ad b7 ea d2 15 3a
       0.00075528584 0.0 -2.0704581e-05 0.00057153276
0001b0 80 38 99 ac 26 55 45 2c 00 00 00 00 a0 7f 7d b8
       -4.3547943e-12 2.804265e-12 0.0 -6.043876e-05
0001c0 00 00 00 00 e6 09 8a b8 00 00 00 00 e1 09 8a b8
       0.0 -6.5821965e-05 0.0 -6.582193e-05
0001d0 00 00 00 00 62 b3 b8 b8 00 00 00 00 5a b3 b8 b8
       0.0 -8.807216e-05 0.0 -8.8072105e-05
0001e0 00 00 00 00 99 51 b6 b8 00 00 00 00 51 74 96 b8
       0.0 -8.693635e-05 0.0 -7.174223e-05
0001f0 94 eb 1f 39 95 f6 07 34 2e 2e ba 3b 00 00 00 00
       0.00015251181 1.2662561e-07 0.0056817746 0.0
000200 f3 51 23 b9 85 e2 8c 3b 68 07 ea 2e 0f eb 19 ad
       -0.0001557542 0.004299464 1.06424036e-10 -8.749237e-12
000210 00 00 00 00 fe ca d3 b3 00 00 00 00 5e a8 e6 b3
       0.0 -9.862377e-08 0.0 -1.07408354e-07
000220 00 00 00 00 3c a8 e6 b3 00 00 00 00 88 50 1a b4
       0.0 -1.0740811e-07 0.0 -1.4371665e-07
000230 00 00 00 00 52 50 1a b4 00 00 00 00 b4 53 18 b4
       0.0 -1.4371588e-07 0.0 -1.4186554e-07
000240 00 00 00 00 54 68 fb b3 f4 9d 85 34 26 1f 63 2f
       0.0 -1.17070755e-07 2.4888107e-07 2.0656596e-10
000250 6c 8d 1b 37 00 00 00 00 02 74 88 b4 c8 6a eb 36
       9.271647e-06 0.0 -2.541638e-07 7.0159767e-06
000260 7a 01 78 2b 98 51 5d aa 00 00 00 00 f5 d1 3a b9
       8.810935e-13 -1.9657052e-13 0.0 -0.00017816557
000270 00 00 00 00 b8 75 4b b9 00 00 00 00 bc 75 4b b9
       0.0 -0.00019403442 0.0 -0.00019403448
000280 00 00 00 00 43 1e 88 b9 00 00 00 00 4a 1e 88 b9
       0.0 -0.00025962488 0.0 -0.00025962509
000290 00 00 00 00 b1 5c 86 b9 00 00 00 00 49 c2 5d b9
       0.0 -0.00025627532 0.0 -0.00021148579
0002a0 55 b5 eb 39 ac 67 c8 34 53 35 89 3c 00 00 00 00
       0.00044957796 3.7328334e-07 0.01674906 0.0
0002b0 ce b8 f0 b9 6d a7 4f 3c 58 4c 84 2e e8 c2 32 2d
       -0.00045914057 0.012674195 6.0162264e-11 1.01614064e-11
0002c0 00 00 00 00 8c 8e 1b 37 00 00 00 00 74 69 29 37
       0.0 9.271909e-06 0.0 1.0097738e-05
0002d0 00 00 00 00 78 69 29 37 00 00 00 00 d8 ad 62 37
       0.0 1.0097741e-05 0.0 1.3511126e-05
0002e0 00 00 00 00 e8 ad 62 37 00 00 00 00 20 c1 5f 37
       0.0 1.351114e-05 0.0 1.3336801e-05
0002f0 00 00 00 00 0e a6 38 37 6d 43 c4 b7 95 df a6 b2
       0.0 1.1005917e-05 -2.3396418e-05 -1.9426617e-08
000300 8e 7e 64 ba 00 00 00 00 33 70 c8 37 72 e7 2c ba
       -0.0008716368 0.0 2.3894105e-05 -0.00065957673
000310 38 87 f5 2b 75 ec 19 ac 00 00 00 00 3d 3c 3e 36
       1.7445828e-12 -2.1873868e-12 0.0 2.834727e-06
000320 00 00 00 00 d9 2d 4f 36 00 00 00 00 e2 2d 4f 36
       0.0 3.087209e-06 0.0 3.087211e-06
000330 00 00 00 00 3f 9b 8a 36 00 00 00 00 4a 9b 8a 36
       0.0 4.1307935e-06 0.0 4.1307985e-06
000340 00 00 00 00 53 d1 88 36 00 00 00 00 ec cf 61 36
       0.0 4.0774844e-06 0.0 3.364864e-06
000350 c6 03 f0 b6 e2 0e cc b1 54 b7 8b b9 00 00 00 00
       -7.1529967e-06 -5.9388734e-09 -0.00026648736 0.0
000360 21 1f f5 36 03 73 53 b9 48 55 dc aa a2 67 f0 2a
       7.305193e-06 -0.00020165373 -3.9139026e-13 4.2704474e-13
000370 00 00 00 00 2d eb 29 35 00 00 00 00 8e 0d 39 35
       0.0 6.329963e-07 0.0 6.8937595e-07
000380 00 00 00 00 93 0d 39 35 00 00 00 00 74 9b 77 35
       0.0 6.8937624e-07 0.0 9.2240884e-07
000390 00 00 00 00 8c 9b 77 35 00 00 00 00 8c 69 74 35
       0.0 9.224102e-07 0.0 9.1050674e-07
0003a0 00 00 00 00 3c b2 49 35 fe 61 d6 b5 aa 47 b6 b0
       0.0 7.51377e-07 -1.5972762e-06 -1.3262611e-09
0003b0 08 97 79 b8 00 00 00 00 8e f1 da 35 08 de 3c b8
       -5.9506885e-05 0.0 1.6312567e-06 -4.5029476e-05
0003c0 58 b1 95 2a ac c7 31 aa 00 00 00 00 54 bf f0 36
       2.6590774e-13 -1.5790033e-13 0.0 7.174831e-06
0003d0 00 00 00 00 58 18 03 37 00 00 00 00 5d 18 03 37
       0.0 7.813876e-06 0.0 7.813881e-06
0003e0 00 00 00 00 ea 68 2f 37 00 00 00 00 f7 68 2f 37
       0.0 1.045524e-05 0.0 1.0455252e-05
0003f0 00 00 00 00 72 25 2d 37 00 00 00 00 ad e2 0e 37
       0.0 1.0320322e-05 0.0 8.516637e-06

exp_avg_sq f4 [128, 22]
000000 00 00 00 00 26 7c c6 33 00 00 00 00 c5 6a eb 33
       0.0 9.242676e-08 0.0 1.09624615e-07
000010 00 00 00 00 c7 6a eb 33 00 00 00 00 df bc 52 34
       0.0 1.0962463e-07 0.0 1.9626485e-07
000020 00 00 00 00 f9 bc 52 34 00 00 00 00 d7 55 4d 34
       0.0 1.9626522e-07 0.0 1.9123341e-07
000030 00 00 00 00 94 d5 0b 34 ae fa 1d 35 55 7d 02 2b
       0.0 1.3023083e-07 5.8851845e-07 4.635921e-13
000040 89 20 56 3a 00 00 00 00 7f c5 24 35 21 39 f5 39
       0.00081683 0.0 6.1382156e-07 0.00046772606
000050 5d 48 d8 23 3a 8b 2a 27 00 00 00 00 5d 1e c1 33
       2.3449414e-17 2.3667714e-15 0.0 8.992786e-08
000060 00 00 00 00 6d 0d e5 33 00 00 00 00 70 0d e5 33
       0.0 1.06660856e-07 0.0 1.0666088e-07
000070 00 00 00 00 5e 0a 4d 34 00 00 00 00 73 0a 4d 34
       0.0 1.9095884e-07 0.0 1.9095914e-07
000080 00 00 00 00 c3 c8 47 34 00 00 00 00 c8 0d 08 34
       0.0 1.8606356e-07 0.0 1.2671e-07
000090 58 b5 19 35 47 8c 15 2b 97 56 50 3a 00 00 00 00
       5.726083e-07 5.313011e-13 0.0007947473 0.0
0000a0 23 51 20 35 f5 97 ee 39 e4 22 3f 24 b5 78 d2 27
       5.9722714e-07 0.00045508114 4.1446076e-17 5.841758e-15
0000b0 00 00 00 00 4d 86 85 30 00 00 00 00 9c 5e 9e 30
       0.0 9.715194e-10 0.0 1.1522903e-09
0000c0 00 00 00 00 9c 5e 9e 30 00 00 00 00 78 c4 0d 31
       0.0 1.1522903e-09 0.0 2.062988e-09
0000d0 00 00 00 00 88 c4 0d 31 00 00 00 00 18 22 0a 31
       0.0 2.0629916e-09 0.0 2.0101023e-09
0000e0 00 00 00 00 78 23 bc 30 3c 8d d4 31 57 0b e6 27
       0.0 1.3688881e-09 6.1860685e-09 6.385012e-15
0000f0 31 0c 10 37 00 00 00 00 ad b0 dd 31 6d f7 a4 36
       8.585907e-06 0.0 6.4520322e-09 4.916385e-06
000100 d2 ac 1d 21 89 f5 e9 24 00 00 00 00 df 28 a5 32
       5.3422395e-19 1.01463595e-16 0.0 1.9227114e-08
000110 00 00 00 00 07 e4 c3 32 00 00 00 00 0b e4 c3 32
       0.0 2.2804683e-08 0.0 2.280469e-08
000120 00 00 00 00 e9 5a 2f 33 00 00 00 00 02 5b 2f 33
       0.0 4.0828045e-08 0.0 4.0828134e-08
000130 00 00 00 00 31 dc 2a 33 00 00 00 00 6e b6 e8 32
       0.0 3.9781472e-08 0.0 2.7091314e-08
000140 77 74 03 34 3b b6 01 2a e2 2c 32 39 00 00 00 00
       1.2242695e-07 1.1520726e-13 0.00016992123 0.0
000150 52 1b 09 34 f7 0c cc 38 21 04 07 23 2c 14 f8 26
       1.2769058e-07 9.729893e-05 7.319239e-18 1.7213924e-15
000160 00 00 00 00 e4 ff 87 30 00 00 00 00 17 4e a1 30
       0.0 9.895271e-10 0.0 1.1736486e-09
000170 00 00 00 00 18 4e a1 30 00 00 00 00 1f 65 10 31
       0.0 1.1736487e-09 0.0 2.1012239e-09
000180 00 00 00 00 31 65 10 31 00 00 00 00 97 b1 0c 31
       0.0 2.1012279e-09 0.0 2.047363e-09
000190 00 00 00 00 34 a0 bf 30 d2 7d d8 31 bc 99 0d 28
       0.0 1.3942612e-09 6.3007315e-09 7.860408e-15
0001a0 af b7 12 37 00 00 00 00 b1 cc e1 31 3a 06 a8 36
       8.745045e-06 0.0 6.5716326e-09 5.007515e-06
0001b0 d0 aa 90 21 4f 4d 15 25 00 00 00 00 63 47 21 34
       9.803033e-19 1.2949883e-16 0.0 1.5020264e-07
0001c0 00 00 00 00 9f 49 3f 34 00 00 00 00 a2 49 3f 34
       0.0 1.7815044e-07 0.0 1.7815049e-07
0001d0 00 00 00 00 1c 3c ab 34 00 00 00 00 2e 3c ab 34
       0.0 3.1894967e-07 0.0 3.1895019e-07
0001e0 00 00 00 00 74 d8 a6 34 00 00 00 00 a1 3e 63 34
       0.0 3.10774e-07 0.0 2.1163807e-07
0001f0 bc 5d 80 35 da 92 84 2b 36 fd ad 3a 00 00 00 00
       9.564023e-07 9.419924e-13 0.0013274315 0.0
000200 99 e2 85 35 90 41 47 3a ce 14 a8 24 b0 a0 8a 28
       9.975221e-07 0.0007601017 7.289363e-17 1.5390765e-14
000210 00 00 00 00 a0 13 eb 2c 00 00 00 00 a2 68 0b 2d
       0.0 6.6812805e-12 0.0 7.924468e-12
000220 00 00 00 00 a2 68 0b 2d 00 00 00 00 ba 96 79 2d
       0.0 7.924468e-12 0.0 1.4187479e-11
000230 00 00 00 00 d8 96 79 2d 00 00 00 00 af 30 73 2d
       0.0 1.4187505e-11 0.0 1.3823761e-11
000240 00 00 00 00 11 9d 25 2d 92 1a 3b 2e 34 c1 37 24
       0.0 9.41404e-12 4.2542476e-11 3.984545e-17
000250 4b 9a 7d 33 00 00 00 00 ef 25 43 2e 40 37 11 33
       5.904648e-08 0.0 4.437156e-11 3.3810693e-08
000260 e1 5a 41 1d de 33 1e 21 00 00 00 00 68 71 54 33
       2.559032e-21 5.360113e-19 0.0 4.946324e-08
000270 00 00 00 00 ec f8 7b 33 00 00 00 00 f1 f8 7b 33
       0.0 5.8666885e-08 0.0 5.8666902e-08
000280 00 00 00 00 ce 8e e1 33 00 00 00 00 e2 8e e1 33
       0.0 1.0503355e-07 0.0 1.0503369e-07
000290 00 00 00 00 8e c6 db 33 00 00 00 00 fe aa 95 33
       0.0 1.0234099e-07 0.0 6.9694565e-08
0002a0 c2 16 a9 34 f6 86 9d 2a 71 2f e5 39 00 00 00 00
       3.1495262e-07 2.798245e-13 0.0004371363 0.0
0002b0 e1 5b b0 34 eb 3b 83 39 04 61 c9 23 23 36 9d 27
       3.2849405e-07 0.0002503091 2.1833551e-17 4.363495e-15
0002c0 00 00 00 00 4e 3b 64 2f 00 00 00 00 6d 59 87 2f
       0.0 2.0757548e-10 0.0 2.4619898e-10
0002d0 00 00 00 00 71 59 87 2f 00 00 00 00 25 52 f2 2f
       0.0 2.461991e-10 0.0 4.407791e-10
0002e0 00 00 00 00 3d 52 f2 2f 00 00 00 00 e4 1b ec 2f
       0.0 4.4077977e-10 0.0 4.2947967e-10
0002f0 00 00 00 00 8d ca a0 2f d2 a7 b5 30 0e 56 c6 26
       0.0 2.9247751e-10 1.3217181e-09 1.3762335e-15
000300 ca 37 f6 35 00 00 00 00 3c 77 bd 30 be fc 8c 35
       1.8344665e-06 0.0 1.3785448e-09 1.050437e-06
000310 80 33 3f 20 6a 82 c3 23 00 00 00 00 3d b3 04 2f
       1.6195369e-19 2.1197175e-17 0.0 1.2069008e-10
000320 00 00 00 00 40 64 1d 2f 00 00 00 00 41 64 1d 2f
       0.0 1.4314683e-10 0.0 1.4314684e-10
000330 00 00 00 00 57 e4 8c 2f 00 00 00 00 65 e4 8c 2f
       0.0 2.5628097e-10 0.0 2.5628136e-10
000340 00 00 00 00 c4 47 89 2f 00 00 00 00 0d fa 3a 2f
       0.0 2.4971147e-10 0.0 1.7005437e-10
000350 22 3d 53 30 57 1d 47 26 6c 28 8f 35 00 00 00 00
       7.684823e-10 6.9081757e-16 1.0666095e-06 0.0
000360 3c 52 5c 30 a8 f2 23 35 0d a6 8a 1f 05 50 db 22
       8.0152396e-10 6.1075343e-07 5.871998e-20 5.9444793e-18
000370 00 00 00 00 ec 7c 11 2c 00 00 00 00 01 8f 2c 2c
       0.0 2.0675085e-12 0.0 2.4522053e-12
000380 00 00 00 00 02 8f 2c 2c 00 00 00 00 15 78 9a 2c
       0.0 2.4522055e-12 0.0 4.390275e-12
000390 00 00 00 00 2a 78 9a 2c 00 00 00 00 62 82 96 2c
       0.0 4.390284e-12 0.0 4.277732e-12
0003a0 00 00 00 00 ad fe 4c 2c 54 98 67 2d bd 7f 6f 23
       0.0 2.9131517e-12 1.3164653e-11 1.2983266e-17
0003b0 18 f4 9c 32 00 00 00 00 89 8d 71 2d 31 bf 33 32
       1.8271791e-08 0.0 1.3730691e-11 1.0462643e-08
0003c0 90 cc a6 1c 30 15 34 20 00 00 00 00 fd 19 0c 30
       1.1037837e-21 1.5253603e-19 0.0 5.0968635e-10
0003d0 00 00 00 00 93 2b 26 30 00 00 00 00 94 2b 26 30
       0.0 6.045237e-10 0.0 6.0452376e-10
0003e0 00 00 00 00 1a c0 94 30 00 00 00 00 2a c0 94 30
       0.0 1.0823016e-09 0.0 1.0823034e-09
0003f0 00 00 00 00 e6 ef 90 30 00 00 00 00 d1 67 45 30
       0.0 1.0545562e-09 0.0 7.1815714e-10

exp_avg f4 [128]
000000 4b fc 03 ba c0 c2 9b b9 8b dd df b7 38 9f cf 38
       -0.0005034848 -0.00029709004 -2.6686836e-05 9.900186e-05
000010 5c eb 34 b8 05 20 aa b9 7e 23 0e b5 84 c0 7a ba
       -4.313454e-05 -0.00032448783 -5.295077e-07 -0.000956543
000020 34 ca 50 38 c2 55 7f 37 f2 10 64 36 02 91 21 38
       4.977938e-05 1.52191515e-05 3.398451e-06 3.852044e-05
000030 44 28 2d 3a 6b 62 f0 38 7c 9b 86 b6 40 da 83 38
       0.00066054263 0.000114624236 -4.011612e-06 6.287219e-05
000040 94 91 89 b7 5f 2f 85 b8 7a e4 24 b5 84 6f 45 3a
       -1.6399463e-05 -6.350758e-05 -6.142724e-07 0.0007531571
000050 b7 72 22 37 57 97 b0 b9 3f 16 0e 3a 60 8c 56 36
       9.682662e-06 -0.00033682093 0.0005420185 3.1970194e-06
000060 b6 e3 23 ae 66 af 9b b5 33 02 97 b9 f8 5a 30 b8
       -3.7264157e-11 -1.1599448e-06 -0.00028802603 -4.204639e-05
000070 98 58 b4 b9 c0 ad 76 38 1f 74 22 38 ad 7c 73 b8
       -0.00034398283 5.8812788e-05 3.8731956e-05 -5.8051828e-05
000080 5e 81 8a 39 1a 78 ac 33 74 a2 9b b2 cf 6f db b9
       0.00026417797 8.0312205e-08 -1.811825e-08 -0.0004185424
000090 c5 50 0f b8 34 0f 1f 3a 5d 70 e5 39 e4 33 60 39
       -3.416908e-05 0.0006067634 0.00043762 0.00021381635
0000a0 7a ec 4e 39 50 71 6e 38 0e 6c 8b b9 00 12 74 b9
       0.00019733785 5.6849152e-05 -0.00026592653 -0.00023276359
0000b0 e4 e7 07 b1 fd 6e 5c 38 61 65 dc 36 8c b2 83 ba
       -1.97769e-09 5.2555453e-05 6.568313e-06 -0.0010047718
0000c0 c5 e3 69 ba 04 87 91 b7 d9 6c 4c b8 fe 92 36 b9
       -0.0008922185 -1.7348219e-05 -4.8738762e-05 -0.00017411631
0000d0 52 2c 16 b7 78 9c 95 b9 ba e6 5a 3a d4 35 1b 37
       -8.951016e-06 -0.00028536073 0.0008350421 9.251253e-06
0000e0 d4 93 15 ba c2 57 11 b9 c4 06 dd 39 83 8e 25 b6
       -0.0005705927 -0.0001386097 0.00042157446 -2.4669869e-06
0000f0 a5 ea 5b b7 0a ae 8f 32 75 4f 03 ba a2 bb ca 3a
       -1.310805e-05 1.6726535e-08 -0.00050090934 0.0015467296
000100 08 15 b1 37 48 1c 04 38 1a 7d 31 3a 36 20 41 b9
       2.1109838e-05 3.149759e-05 0.0006770656 -0.00018417914
000110 e2 87 0d 38 3d b3 a5 b7 6e 28 93 ba be 57 2a 39
       3.374357e-05 -1.9752997e-05 -0.0011227259 0.0001624515
000120 38 bf 0c ba 8c b1 1b 39 3f 91 a9 ba 2c f4 2f b8
       -0.000536907 0.00014848093 -0.0012936963 -4.1950654e-05
000130 f6 69 f9 b8 3c b1 3b 38 1e 2b ab 37 0c e2 f1 b9
       -0.00011892982 4.4749337e-05 2.0404867e-05 -0.0004613552
000140 4f 3d 08 36 7c 51 45 38 7e 43 bc 36 e8 2a 10 ba
       2.0301266e-06 4.704435e-05 5.6106937e-06 -0.00054995576
000150 bc cf d6 37 76 2b 31 34 f4 42 57 2f 7d 6f aa 38
       2.5607522e-05 1.650022e-07 1.9577923e-10 8.126998e-05
000160 39 31 f4 39 fe 0a e7 37 71 e3 ec 36 a0 9d 52 b5
       0.0004657598 2.7542465e-05 7.0598257e-06 -7.846047e-07
000170 55 96 5a b9 ea 80 1d 3a ba 4b 01 3a 6f 38 e3 35
       -0.00020846103 0.00060082844 0.00049322436 1.6929242e-06
000180 c4 69 ab b7 c6 53 30 38 c0 25 6b b8 33 11 84 b7
       -2.043404e-05 4.203969e-05 -5.6063524e-05 -1.5743635e-05
000190 63 96 1e ba ce 41 91 38 a6 bf bd b8 ea 70 cb b7
       -0.0006049631 6.926396e-05 -9.0479196e-05 -2.4252065e-05
0001a0 02 64 9a ba 1b 37 7e 33 04 d8 99 39 8a aa 0c 39
       -0.0011779072 5.91891e-08 0.00029343378 0.00013414971
0001b0 b0 42 e4 38 dc 49 7d b0 61 a8 ad b5 3e 81 2a 3a
       0.00010884309 -9.2145824e-10 -1.2938509e-06 0.0006504244
0001c0 b4 87 30 3a b0 31 ef b7 0a 2a 97 ba 03 d4 c5 39
       0.00067340885 -2.8514158e-05 -0.0011532914 0.0003773273
0001d0 68 d7 bb b9 32 7c b6 b6 e2 67 97 37 2c 24 9e 39
       -0.0003582791 -5.438481e-06 1.8048977e-05 0.0003016306
0001e0 10 41 33 37 86 3b c7 39 44 9c dd 37 e5 47 81 39
       1.068438e-05 0.00038000586 2.641802e-05 0.00024658363
0001f0 bf 4f 38 ba 4a 89 32 38 23 41 9b 37 7e 54 30 ba
       -0.0007030926 4.2566367e-05 1.8507772e-05 -0.00067264575

exp_avg_sq f4 [128]
000000 e8 c9 32 36 71 f4 2d 36 a4 8c f0 32 21 c5 14 35
       2.6641592e-06 2.5921292e-06 2.8003633e-08 5.5421157e-07
000010 0a 02 f5 32 52 46 91 36 da bf 53 2f 9b 5c bf 35
       2.8522681e-08 4.329523e-06 1.9258498e-10 1.4257561e-06
000020 54 95 cd 31 52 10 6f 31 fe 0c 83 2e c7 65 7c 32
       5.983262e-09 3.4788354e-09 5.959498e-11 1.4691472e-08
000030 e0 d4 2f 36 43 84 00 34 96 1e 30 30 d2 12 84 36
       2.6200942e-06 1.1969045e-07 6.407189e-10 3.9360975e-06
000040 19 93 cc 31 ef 8b 72 32 04 54 7c 2e fd b4 75 35
       5.9539045e-09 1.4118071e-08 5.7372787e-11 9.1532985e-07
000050 5a 1f 33 30 f7 17 7b 34 16 ed 8b 35 3a d4 c8 34
       6.5164374e-10 2.3384915e-07 1.0425308e-06 3.7407318e-07
000060 62 a4 8a 2e bf 71 bf 2e bc 3e 53 35 fd 93 78 35
       6.304714e-11 8.70588e-11 7.8694916e-07 9.260255e-07
000070 59 e4 4e 36 25 48 eb 32 13 67 f3 31 45 83 bd 33
       3.0829308e-06 2.7390408e-08 7.083949e-09 8.824876e-08
000080 72 b5 eb 35 40 dd 8e 29 34 f9 b5 28 d2 9f 81 35
       1.7561672e-06 6.3444475e-14 2.0203111e-14 9.657763e-07
000090 d1 d7 a9 32 8b f9 61 35 0c 23 8e 35 3a 66 14 34
       1.9772331e-08 8.4182165e-07 1.0590024e-06 1.3820764e-07
0000a0 3d d3 32 35 36 fa 21 32 b9 85 2c 36 44 25 ad 34
       6.661756e-07 9.428325e-09 2.5707834e-06 3.2250875e-07
0000b0 f9 45 1a 2f e4 d3 2c 32 10 97 8a 2e e0 af e2 35
       1.4031078e-10 1.0059896e-08 6.3023475e-11 1.6889499e-06
0000c0 45 15 29 36 a6 d9 66 32 10 ee fe 34 a6 30 5c 34
       2.5195343e-06 1.34372495e-08 4.74844e-07 2.0506795e-07
0000d0 65 5b 3a 30 72 f9 fa 34 c0 ce 3c 37 23 a0 84 31
       6.7796285e-10 4.6747624e-07 1.1253811e-05 3.859911e-09
0000e0 09 c7 54 35 36 0a 79 33 b1 ea 14 36 0b 6a 50 2d
       7.926579e-07 5.7984117e-08 2.2190327e-06 1.1846977e-11
0000f0 f0 51 9f 30 b4 c4 dd 26 f1 7d 84 35 92 19 0c 37
       1.1592061e-09 1.5388272e-15 9.87142e-07 8.350604e-06
000100 79 0b 6c 31 96 08 d4 31 93 15 db 35 d0 cb c3 35
       3.4349041e-09 6.170988e-09 1.632305e-06 1.4587949e-06
000110 11 bc 16 31 bf 87 a1 32 2d e4 13 36 f9 82 98 35
       2.1934776e-09 1.8804597e-08 2.2037523e-06 1.1363e-06
000120 da a5 4c 36 e1 bc c7 34 5f 54 86 36 ea 9a a7 31
       3.0494907e-06 3.7204066e-07 4.0033333e-06 4.8779514e-09
000130 fe 4e 91 34 2b b2 8a 31 f6 03 48 32 d0 72 7c 35
       2.706583e-07 4.036584e-09 1.1642433e-08 9.404439e-07
000140 0e b0 2f 2d 86 ae c9 34 a3 82 0d 2f aa bd f7 35
       9.98669e-12 3.756615e-07 1.2870287e-10 1.8458134e-06
000150 95 f7 d8 31 e4 a7 3e 2d 0f 9d 4b 2d 85 d8 4b 35
       6.314574e-09 1.0837529e-11 1.1574088e-11 7.593847e-07
000160 1e 7d ad 35 29 f8 bf 34 cf fc 01 32 e5 c4 0d 31
       1.2925918e-06 3.5757083e-07 7.56627e-09 2.0630122e-09
000170 01 76 89 35 29 d3 e8 36 c6 79 0c 36 bb 9f 02 2d
       1.0241639e-06 6.938721e-06 2.0932507e-06 7.425112e-12
000180 da 18 41 31 06 95 37 35 95 1e d5 31 0e fb 17 33
       2.8099323e-09 6.838967e-07 6.2025927e-09 3.538576e-08
000190 d1 19 6d 35 9a e8 02 36 91 c2 e8 34 ae e1 0d 32
       8.832695e-07 1.9506901e-06 4.3354933e-07 8.258594e-09
0001a0 11 9f 15 37 01 3e 45 28 7c dd 8f 36 83 b4 8e 35
       8.918128e-06 1.0949142e-14 4.2875163e-06 1.063236e-06
0001b0 65 b2 74 34 ce bf f3 25 55 56 ef 2c fd de 0f 36
       2.278917e-07 4.2283752e-16 6.8023733e-12 2.1438457e-06
0001c0 e6 1a 00 36 62 d2 20 37 60 95 40 36 cc ef 84 36
       1.9089143e-06 9.585727e-06 2.8697177e-06 3.9618226e-06
0001d0 72 d1 80 35 9c 10 15 32 8f d2 3e 30 12 e2 bd 34
       9.5977e-07 8.676718e-09 6.942082e-10 3.536848e-07
0001e0 9c a3 f6 31 6f fd d1 35 33 d4 4e 35 e0 0b c7 35
       7.1781425e-09 1.5645472e-06 7.704977e-07 1.4830111e-06
0001f0 b5 fb 9a 36 85 2c 31 32 6c 83 e8 30 19 af 8f 35
       4.61886e-06 1.03128786e-08 1.6917574e-09 1.070529e-06
