results/RoadExt1.3/CarAgent/checkpoint.pt (torch, 503979 bytes, 56 tensors)

discrete_act_size_vector f4 [1, 2]
3.0 3.0
00000000: 0000 4040 0000 4040

network_body.observation_encoder.processors.0.normalizer.running_mean f4 [14]
0.028022727 0.24712494 0.05248808 0.27656925 0.049486138 0.267462 0.004136356 0.2607731
0.003087647 0.24549033 0.00048731783 0.2515148 0.000578934 0.22558147
00000000: eb8f e53c 520e 7d3e befd 563d 7c9a 8d3e
00000010: fab1 4a3d c7f0 883e 458a 873b 0d84 853e
00000020: 1f5a 4a3b d161 7b3e b17e ff39 8cc6 803e
00000030: 9ac3 173a d4fe 663e

network_body.observation_encoder.processors.0.normalizer.running_variance f4 [14]
13974.1455 14301.764 25514.658 20589.969 24131.697 20123.842 2114.2231 4160.498
1580.1105 3954.3174 250.87831 1554.9867 297.82825 1284.1045
00000000: 9558 5a46 0e77 5f46 5155 c746 f0db a046
00000010: 6587 bc46 af37 9d46 9223 0445 fc03 8245
00000020: 8983 c544 1425 7745 d9e0 7a43 935f c244
00000030: 04ea 9443 5883 a044

network_body.observation_encoder.processors.1.normalizer.running_mean f4 [8]
-0.6351702 -4.4950233e-05 2.862958 -0.76322734 0.47933382 7.9456673 13.279117 -0.28713024
00000000: 849a 22bf f288 3cb8 b43a 3740 de62 43bf
00000010: 3e6b f53e e842 fe40 4377 5441 bc02 93be

network_body.observation_encoder.processors.1.normalizer.running_variance f4 [8]
1.5015978e+06 1.2222687 1.5725622e+08 3.1083788e+06 19.062416 1.521237e+08 8.647267e+07 534503.25
00000000: ee4c b749 4d73 9c3f a2f8 154d 6bb8 3d4a
00000010: d47f 9841 9313 114d fcee a44c 747e 0249

network_body.processors.0.normalizer.running_mean f4 [14]
0.028022727 0.24712494 0.05248808 0.27656925 0.049486138 0.267462 0.004136356 0.2607731
0.003087647 0.24549033 0.00048731783 0.2515148 0.000578934 0.22558147
00000000: eb8f e53c 520e 7d3e befd 563d 7c9a 8d3e
00000010: fab1 4a3d c7f0 883e 458a 873b 0d84 853e
00000020: 1f5a 4a3b d161 7b3e b17e ff39 8cc6 803e
00000030: 9ac3 173a d4fe 663e

network_body.processors.0.normalizer.running_variance f4 [14]
13974.1455 14301.764 25514.658 20589.969 24131.697 20123.842 2114.2231 4160.498
1580.1105 3954.3174 250.87831 1554.9867 297.82825 1284.1045
00000000: 9558 5a46 0e77 5f46 5155 c746 f0db a046
00000010: 6587 bc46 af37 9d46 9223 0445 fc03 8245
00000020: 8983 c544 1425 7745 d9e0 7a43 935f c244
00000030: 04ea 9443 5883 a044

network_body.processors.1.normalizer.running_mean f4 [8]
-0.6351702 -4.4950233e-05 2.862958 -0.76322734 0.47933382 7.9456673 13.279117 -0.28713024
00000000: 849a 22bf f288 3cb8 b43a 3740 de62 43bf
00000010: 3e6b f53e e842 fe40 4377 5441 bc02 93be

network_body.processors.1.normalizer.running_variance f4 [8]
1.5015978e+06 1.2222687 1.5725622e+08 3.1083788e+06 19.062416 1.521237e+08 8.647267e+07 534503.25
00000000: ee4c b749 4d73 9c3f a2f8 154d 6bb8 3d4a
00000010: d47f 9841 9313 114d fcee a44c 747e 0249

network_body._body_endoder.seq_layers.0.weight f4 [128, 22]
0.37170047 -0.23451224 -0.11220701 0.14745241 0.085025534 0.084758885 0.2078613 0.031823713
0.075675845 -0.08182145 0.071662836 -0.3715679 0.036632907 -0.020361349 0.0637531 -0.6161239
-0.014171568 -0.20176785 0.20975432 0.16459416 0.03306971 -0.05225592 0.10347024 0.117627434
-0.07639302 0.0034355102 -0.0720357 -0.50083977 -0.032666378 0.20691203 0.11603813 -0.19896726
0.09209912 -0.09301911 -0.11571859 0.13228521 -0.23620708 -0.21852832 0.2053808 -0.05134459
-0.02031723 -0.29356498 -0.43039748 0.047621585 0.074091695 0.15145081 -0.23311771 0.43401653
-0.23306891 -0.22316425 -0.23431256 0.0676287 0.11454464 0.07444272 0.0914455 -0.22969611
-0.112785205 -0.041392885 -0.06797445 0.14353897 -0.019419719 0.07205403 0.36169204 0.39214918
-0.71747434 0.42253423 -0.28778902 0.17191471 0.08332931 -0.18100804 0.008309604 -0.15110661
-0.2999589 -0.030427113 -0.049050294 -0.14466387 0.30088118 0.20419976 -0.1389096 0.28205717
0.20376094 0.3078776 0.23679788 -0.04422138 -0.109996974 0.14763483 -0.18922596 0.21902145
0.15187421 -0.2957572 0.03125945 0.2864763 0.21470928 0.093485706 0.016949024 0.061699245
0.41653025 -0.21671502 0.19622605 0.013933662 0.26014853 0.027990254 0.022485627 -0.15781596
-0.35030618 -0.05165032 -0.14875157 -0.35201135 0.20946 0.14245889 0.26934287 -0.10847
-0.35177588 -0.18311267 -0.22314739 -0.020544088 0.38915664 -0.23137206 -0.21932869 0.22354952
0.08184477 0.33942324 -0.18837316 -0.24878119 -0.26589146 -0.100352414 0.5423917 0.0380329
-0.17983094 -0.05798602 0.39556134 0.03768368 0.40433612 0.3379313 -0.01303651 0.18531834
-0.02800779 0.060604792 -0.14047557 0.15552782 -0.14127985 0.19558729 -0.1756261 0.31015137
0.17208497 0.09728213 -0.16647051 0.17246988 0.31015655 0.15161206 -0.19234094 0.021629855
-0.39680043 0.059771232 0.23802958 0.16769442 -0.45399803 -0.060317606 -0.18023756 -0.18187526
0.29660955 0.07399067 -0.10056682 0.13149475 -0.167056 -0.25838146 -0.022665013 0.26647437
-0.22305058 -0.064465374 0.12896608 0.1138955 -0.24376445 0.16793147 -0.17097002 -0.32911697
-0.20576549 -0.20545973 0.41850698 0.41199914 -0.008022279 0.1631067 -0.18980853 -0.54671985
0.14264639 -0.07067575 0.36368805 0.22425905 -0.002159116 0.13409038 0.3103727 -0.11192936
0.039969746 0.080216385 -0.22694539 0.22196403 -0.120758586 -0.2681824 0.066612445 0.17309375
-0.123894356 -0.35568845 -0.17330034 -0.21249877 0.112857275 0.21155679 0.0064243465 -0.24217317
0.15466991 -0.108788036 0.47399217 0.03533346 0.044508565 0.61067516 0.033283316 -0.0941075
0.38679558 0.22081286 -0.1858664 0.5033782 -0.022396177 0.4349186 -0.19516532 0.22065997
0.091975436 0.13073148 0.12030356 -0.37210077 0.34711194 0.114192255 -0.4593959 0.034794133
-0.22503756 -0.025932472 -0.09166279 -0.11373046 -0.09695129 -0.08476572 -0.20911552 0.32956088
-0.06481058 -0.24164496 0.24378578 -0.2330339 -0.2370168 -0.15462528 -0.19073331 -0.22098295
0.019791326 0.48887116 0.04736635 0.041988097 -0.10706494 -0.1331407 0.20800032 0.1235553
00000000: 864f be3e fa23 70be cacc e5bd c4fd 163e
00000010: de21 ae3d 1196 ad3d 98d9 543e 9559 023d
00000020: f0fb 9a3d 0192 a7bd f7c3 923d 263e bebe
00000030: 630c 163d d8cc a6bc fc90 823d 4cba 1dbf
00000040: dd2f 68bc 3b9c 4ebe d6c9 563e 5f8b 283e
00000050: 1b74 073d 4e0a 56bd 35e8 d33d a7e6 f03d
00000060: f273 9cbd 4c26 613b 7487 93bd 0937 00bf
00000070: 2ecd 05bd bfe0 533e 66a5 ed3d 13be 4bbe
00000080: 779e bc3d ce80 bebd defd ecbd c675 073e
00000090: 45e0 71be e3c5 5fbe 584f 523e b44e 52bd
000000a0: 5270 a6bc 264e 96be 0f5d dcbe da0e 433d
000000b0: 63bd 973d ec15 1b3e 69b6 6ebe 6a37 de3e
000000c0: 9ea9 6ebe 2b85 64be a2ef 6fbe ea80 8a3d
000000d0: 6196 ea3d 6d75 983d c747 bb3d 7535 6bbe
000000e0: eefb e6bd 968b 29bd 3036 8bbd e1fb 123e
000000f0: 1a16 9fbc 1091 933d b32f b93e c7c7 c83e
00000100: 66ac 37bf 6856 d83e 1559 93be 690a 303e
00000110: 8fa8 aa3d 2c5a 39be 0125 083c b1bb 1abe
00000120: 3794 99be 4842 f9bc f6e8 48bd c422 14be
00000130: 190d 9a3e be19 513e 513e 0ebe cc69 903e
00000140: b5a6 503e 22a2 9d3e 257b 723e 7a21 35bd
00000150: 1846 e1bd 962d 173e 73c4 41be 2947 603e
00000160: ea84 1b3e 7d6d 97be e909 003d 06ad 923e
00000170: c0dc 5b3e 6f75 bf3d aed8 8a3c 59b8 7c3d
00000180: 7443 d53e 8bea 5dbe 7bef 483e 044a 643c
00000190: 3032 853e d14b e53c c733 b83c 829a 21be
000001a0: 555b b3be 498f 53bd 5552 18be d53a b4be
000001b0: af7c 563e bee0 113e 4fe7 893e 8525 debd
000001c0: f81b b4be e381 3bbe c080 64be 134c a8bc
000001d0: 8a3f c73e ccec 6cbe b397 60be 2aea 643e
000001e0: 3b9e a73d e2c8 ad3e e5e4 40be 7fc0 7ebe
000001f0: ed22 88be 9185 cdbd 2fda 0a3f 63c8 1b3d
00000200: 9a25 38be c082 6dbd 0487 ca3e 345a 1a3d
00000210: 2505 cf3e 5505 ad3e 1697 55bc 17c4 3d3e
00000220: 9870 e5bc bb3c 783d d4d8 0fbe af42 1f3e
00000230: aaab 10be 0948 483e 54d7 33be 29cc 9e3e
00000240: 0b37 303e da3b c73d 3f77 2abe f29b 303e
00000250: d7cc 9e3e 3140 1b3e 06f5 44be 1831 b13c
00000260: 6d29 cbbe aed2 743d 07be 733e 16b8 2b3e
00000270: 6e72 e8be 980f 77bd 3290 38be 823d 3abe
00000280: 35dd 973e 6c88 973d faf5 cdbd 8fa6 063e
00000290: ba10 2bbe 934a 84be faab b9bc 546f 883e
000002a0: 5f67 64be 6c06 84bd af0f 043e 0b42 e93d
000002b0: 639d 79be 3af6 2b3e c412 2fbe 0582 a8be
000002c0: 30b4 52be 0964 52be 8c46 d63e 8df1 d23e
000002d0: e06f 03bc 7105 273e 2b5d 42be d5f5 0bbf
000002e0: e511 123e 73be 90bd 5235 ba3e 2aa4 653e
000002f0: f57f 0dbb fd4e 093e 2ce9 9e3e 383b e5bd
00000300: 51b7 233d 7d48 a43d 5f64 68be 8a4a 633e
00000310: 4750 f7bd 344f 89be 1b6c 883d 7d3f 313e
00000320: 53bc fdbd cc1c b6be a575 31be 4799 59be
00000330: b721 e73d 58a2 583e 5383 d23b 3efc 77be
00000340: ca61 1e3e 43cc debd 1aaf f23e d1b9 103d
00000350: 9d4e 363d 3555 1c3f 1654 083d 6fbb c0bd
00000360: 120a c63e c41c 623e c353 3ebe 65dd 003f
00000370: 3078 b7bc a7ad de3e 6bd9 47be b0f4 613e
00000380: 9e5d bc3d 79de 053e b661 f63d fe83 bebe
00000390: a8b8 b13e a1dd e93d f035 ebbe 4b84 0e3d
000003a0: 3f70 66be 5670 d4bc b3b9 bbbd 84eb e8bd
000003b0: 668e c6bd a699 adbd 6122 56be 34bc a83e
000003c0: 69bb 84bd c771 77be fba2 793e 70a0 6ebe
000003d0: 88b4 72be 1756 1ebe 984f 43be 5b49 62be
000003e0: 6b21 a23c 524d fa3e 3803 423d b6fb 2b3d
000003f0: dd44 dbbd 0956 08be 09fe 543e 900a fd3d

network_body._body_endoder.seq_layers.0.bias f4 [128]
-0.20446734 0.20624205 0.14338379 0.13977298 -0.07750193 0.06846209 0.24738957 0.17058928
-0.10781246 0.082901254 0.018779486 0.18178906 0.2042305 -0.008706188 0.2893 0.07330562
0.09125845 -0.12864812 -0.20803933 -0.060701005 0.23264614 0.27223587 0.25597763 -0.058377914
0.01561712 0.0037038845 -0.16419546 -0.1085894 0.08708176 0.18512553 0.13875657 0.12074088
-0.22033833 0.03513149 0.2633203 -0.19536483 -0.00900619 0.30817622 0.16910926 -0.14570338
0.11247504 0.13368009 0.1797426 0.14031778 0.14641836 0.14434303 0.08909165 0.20044234
-0.2153219 -0.02635407 0.13776746 0.24758549 0.028665608 -0.07515973 0.07462844 0.30359772
0.21041472 0.13516675 -0.16548125 -0.07992042 0.13457564 -0.19143705 0.26741508 -0.15318422
-0.0033740895 0.067033105 -0.12901053 0.32049963 0.24801601 0.2499161 -0.005609827 0.21965334
0.24883977 -0.27357316 -0.11793422 -0.0667698 0.19153088 0.14313354 0.31279626 -0.20234637
-0.16177489 0.14929152 -0.13548592 0.21137677 -0.089254595 0.14892556 0.2431485 0.19979115
0.17500897 0.2682226 -0.2123334 -0.16820946 0.15637004 0.26628885 -0.031717677 0.22954638
0.08647554 0.30727416 0.17403758 0.13718823 -0.083382666 0.14837457 0.09578615 0.123396166
0.23532462 0.13098173 0.13450491 0.18680549 0.12580204 0.16635837 0.13598467 0.20564556
-0.20903699 -0.012376146 0.12742423 -0.052870702 -0.16375086 -0.074153654 -0.024075298 0.2157848
-0.22736901 0.17274559 0.22487664 -0.14191465 0.07126552 0.08873938 0.18108983 0.06980707
00000000: e35f 51be 1e31 533e 33d3 123e a620 0f3e
00000010: 55b9 9ebd da35 8c3d b153 7d3e f5ae 2e3e
00000020: c7cc dcbd 22c8 a93d 70d7 993c e926 3a3e
00000030: cd21 513e 66a4 0ebc 211f 943e 4221 963d
00000040: b6e5 ba3d 55bc 03be 4308 55be 9ea1 78bd
00000050: ca3a 6e3e 8062 8b3e 800f 833e ae1d 6fbd
00000060: f3de 7f3c dfbc 723b db22 28be 1f64 debd
00000070: ec57 b23d 8c91 3d3e 3416 0e3e ff46 f73d
00000080: 5fa0 61be 0ae6 0f3d ebd1 863e b80d 48be
00000090: b38e 13bc 46c9 9d3e fa2a 2d3e 4433 15be
000000a0: 5059 e63d 6fe3 083e 720e 383e 77af 0f3e
000000b0: b2ee 153e a9ce 133e af75 b63d c240 4d3e
000000c0: 587d 5cbe 7ee4 d7bc ea12 0d3e 0d87 7d3e
000000d0: 23d4 ea3c 58ed 99bd ccd6 983d 2971 9b3e
000000e0: f576 573e 2769 0a3e eb73 29be 51ad a3bd
000000f0: 32ce 093e 1308 44be a1ea 883e 53dc 1cbe
00000100: d41f 5dbb a748 893d 561b 04be 8718 a43e
00000110: e9f7 7d3e 02ea 7f3e a4d2 b7bb ceec 603e
00000120: dacf 7e3e c811 8cbe 7f87 f1bd 9bbe 88bd
00000130: ac20 443e 9991 123e d526 a03e e333 4fbe
00000140: 51a8 25be e0df 183e d2bc 0abe 2773 583e
00000150: 1dcb b6bd f17f 183e ecfb 783e 0d96 4c3e
00000160: 8d35 333e 7954 893e ed6d 59be 1a3f 2cbe
00000170: 781f 203e 0357 883e 65ea 01bd 350e 6b3e
00000180: 171a b13d 0a53 9d3e e836 323e 127b 0c3e
00000190: 88c4 aabd 81ef 173e 872b c43d 21b7 fc3d
000001a0: f0f8 703e 1320 063e a8bb 093e f049 3f3e
000001b0: 40d2 003e d959 2a3e 913f 0b3e c094 523e
000001c0: cb0d 56be 52c5 4abc 7f7b 023e f38e 58bd
000001d0: 4eae 27be dfdd 97bd 8f39 c5bc b1f6 5c3e
000001e0: 6cd3 68be 38e4 303e 1046 663e 1352 11be
000001f0: a8f3 913d febc b53d 9d6f 393e 02f7 8e3d

network_body._body_endoder.seq_layers.2.weight f4 [128, 128]
-0.07127931 0.12203518 -0.066816896 -0.085255876 -0.023883091 -0.21628994 -0.16175114 -0.04565067
0.00019773867 -0.11724804 0.058404606 -0.011183115 -0.1927592 0.08591895 -0.03812489 0.025837993
-0.044609565 -0.11229733 0.21121493 0.028770855 -0.08173889 -0.085725695 0.0983448 0.01953425
0.10810851 0.017552255 0.16700256 -0.19448334 -0.05833771 0.12439341 -0.10224388 0.0057987724
-0.08563416 0.1378853 -0.05446164 -0.04920852 0.030288199 0.11355643 0.09731564 0.11568327
0.03192379 0.057319716 -0.087409765 0.06726538 -0.0046204384 -0.21625108 0.124747984 0.07032809
-0.06948842 -0.11451764 0.04729497 -0.059641402 0.09188675 0.09227974 -0.13493691 0.036948647
0.011463218 -0.031105177 0.114307396 0.0065892995 -0.06185747 0.030426078 0.08650181 -0.03367874
-0.0658805 0.05807453 -0.043668047 -0.03637729 0.12685916 -0.029411707 -0.09505839 0.07326392
0.0939681 -0.1453451 -0.28084788 -0.039040323 0.22244109 0.034710303 0.26271617 -0.040098824
0.031077698 -0.078432105 -0.058790993 0.19253719 -0.15606949 -0.0699311 0.12813616 -0.14101022
-0.119009234 0.015316466 -0.21890044 0.10165421 -0.07966247 -0.11942407 0.034890577 -0.06832261
0.048186664 0.16744938 -0.009604597 -0.013064711 -0.01824629 -0.13781267 0.12421686 -0.062622905
0.27650204 0.02956435 -0.07963923 0.1102967 -0.09314424 -0.097690046 -0.06746876 -0.05749126
-0.0044033485 -0.13422011 0.012071812 0.2660869 0.063507706 -0.020521784 -0.08009523 -0.07636452
-0.17294152 -0.1400103 0.18620029 0.048861504 -0.012227084 -0.052358188 -0.05783 0.16160576
-0.01451326 -0.06889323 -0.021451747 -0.17480344 -0.012803666 -0.026732268 -0.016662654 -0.13177992
0.1749657 -0.101339005 -0.095122136 0.08950996 -0.09084464 -0.22687948 -0.035818957 -0.086177
-0.11731416 -0.005928468 0.18868354 0.022655236 0.05772724 0.024610022 -0.015021795 0.041020453
-0.02623316 -0.15860495 0.08711787 -0.0051641865 0.066829175 0.0048407656 -0.012328471 0.010619125
-0.13591804 0.028977446 -0.06423983 0.057487637 -0.15858859 0.17522673 -0.17050375 -0.078936666
0.079229414 0.086928464 0.059813544 -0.032783963 0.026126472 -0.026708817 0.16160244 0.005353293
0.077035636 -0.028459774 0.27545232 -0.03509308 -0.1334265 -0.152217 -0.071263514 0.14952317
0.10636213 0.09606532 -0.08289851 0.031883694 -0.01139815 0.015651671 -0.07707234 0.041967653
-0.2101413 -0.18189126 0.0764815 0.052215025 0.031022802 0.02306477 -0.10279248 0.12713453
0.0156056415 0.004121321 -0.13383542 -0.051380992 -0.0676358 -0.08488733 0.030069677 0.056284785
-0.015674002 -0.017840173 0.009265931 0.05384537 0.050092325 0.15625747 0.13517259 -0.12147577
-0.20709383 0.24493279 0.05784955 -0.014185736 -0.13020074 0.051972594 -0.08921832 0.15794261
0.027770707 0.14411017 -0.019901272 -0.09435291 -0.11747054 -0.08009197 -0.026518097 -0.17361216
0.0050453115 0.068255894 -0.011417433 -0.03908918 -0.042765107 0.055510797 0.008242314 0.034633186
-0.010098638 -0.081915885 -0.056569863 0.019360881 -0.097856425 -0.010452769 -0.15855187 -0.0025231505
-0.0665061 -0.26859385 -0.12045289 0.14034252 0.18331075 0.08969263 0.04355179 -0.045081325
00000000: e3fa 91bd 95ed f93d 4cd7 88bd a29a aebd
00000010: 79a6 c3bc 1c7b 5dbe 17a2 25be 32fc 3abd
00000020: 1258 4f39 be1f f0bd ab39 6f3d 6239 37bc
00000030: ab62 45be 46f6 af3d d828 1cbd 33aa d33c
00000040: 85b8 36bd 24fc e5bd ba48 583e dbb0 eb3c
00000050: b866 a7bd f490 afbd 0069 c93d 4b06 a03c
00000060: ff67 dd3d bfc9 8f3c b802 2b3e a426 47be
00000070: 86f3 6ebd f9c1 fe3d 3d65 d1bd a103 be3b
00000080: f660 afbd ce31 0d3e 2b13 5fbd e08e 49bd
00000090: f51e f83c 4690 e83d 6c4d c73d 5aeb ec3d
000000a0: 85c2 023d 14c8 6a3d e403 b3bd 6ec2 893d
000000b0: 0c67 97bb ec70 5dbe df7b ff3d 2c08 903d
000000c0: f24f 8ebd 3988 eabd 5fb8 413d 8b4a 74bd
000000d0: 1f2f bc3d 29fd bc3d e72c 0abe 7757 173d
000000e0: 39d0 3b3c 49d0 febc ff19 ea3d 0deb d73b
000000f0: 425e 7dbd 1c40 f93c dc27 b13d b8f2 09bd
00000100: 5bec 86bd 8fdf 6d3d 44dd 32bd 5a00 15bd
00000110: 5ee7 013e d2f0 f0bc f9ad c2bd 650b 963d
00000120: 5972 c03d 59d5 14be 4bcb 8fbe bfe8 1fbd
00000130: 99c7 633e 642c 0e3d bc82 863e aa3e 24bd
00000140: a896 fe3c 03a1 a0bd d3ce 70bd 7828 453e
00000150: aed0 1fbe 0938 8fbd 2036 033e fc64 10be
00000160: 1dbb f3bd eaf1 7a3c 7027 60be 1530 d03d
00000170: 1426 a3bd 9b94 f4bd 6ce9 0e3d b9ec 8bbd
00000180: 615f 453d da77 2b3e 9a5c 1dbc 5f0d 56bc
00000190: 3e79 95bc c41e 0dbe 6965 fe3d 7040 80bd
000001a0: ad91 8d3e f030 f23c e519 a3bd 3ce3 e13d
000001b0: 68c2 bebd b811 c8bd 102d 8abd f57b 6bbd
000001c0: f749 90bb ff70 09be d9c8 453c 8b3c 883e
000001d0: 5410 823d 4d1d a8bc f808 a4bd 0065 9cbd
000001e0: 9517 31be dc5e 0fbe 4aab 3e3e 0023 483d
000001f0: 1b54 48bc 8a75 56bd 26df 6cbd fb7b 253e
00000200: 06c9 6dbc e517 8dbd 93bb afbc acff 32be
00000210: 78c6 51bc a1fd dabc 1e80 88bc 51f1 06be
00000220: 352a 333e d38a cfbd 65cf c2bd ff50 b73d
00000230: c10c babd 1853 68be e6b6 12bd 917d b0bd
00000240: 6842 f0bd 9843 c2bb 4236 413e 7997 b93c
00000250: 6673 6c3d f59a c93c fa1d 76bc 1005 283d
00000260: ede6 d6bc 5669 22be db6a b23d 5638 a9bb
00000270: bcdd 883d 499f 9e3b 5bfd 49bc d7fb 2d3c
00000280: 192e 0bbe 1c62 ed3c 2c90 83bd 2878 6b3d
00000290: 0c65 22be a36e 333e 8998 2ebe 8ca9 a1bd
000002a0: 0843 a23d 8d07 b23d 0cff 743d 7a48 06bd
000002b0: 2f07 d63c 73cc dabc 1c7b 253e ad6a af3b
000002c0: dcc4 9d3d 7924 e9bc 1608 8d3e c3bd 0fbd
000002d0: f5a0 08be c6de 1bbe 9bf2 91bd 9a1c 193e
000002e0: 63d4 d93d e5bd c43d b2c6 a9bd 7a98 023d
000002f0: 4ebf 3abc ef37 803c 1ad8 9dbd 46e6 2b3d
00000300: 482f 57be b441 3abe 55a2 9c3d 6cdf 553d
00000310: 8823 fe3c 54f2 bc3c dd84 d2bd 8e2f 023e
00000320: ceae 7f3c 250c 873b 270c 09be e074 52bd
00000330: a384 8abd 69d9 adbd af54 f63c e08a 663d
00000340: c466 80bc 8e25 92bc 22d0 173c f68c 5c3d
00000350: 9c2d 4d3d f501 203e af6a 0a3e 4ac8 f8bd
00000360: 6810 54be a9cf 7a3e a6f3 6c3d 4a6b 68bc
00000370: 5853 05be 37e1 543d 18b8 b6bd b5bb 213e
00000380: 657f e33c 9e91 133e fe07 a3bc 193c c1bd
00000390: 6594 f0bd 4207 a4bd 7b3c d9bc 63c7 31be
000003a0: 2453 a53b bfc9 8b3d 2f10 3bbc fa1b 20bd
000003b0: 772a 2fbd 4a5f 633d c50a 073c 87db 0d3d
000003c0: c274 25bc 84c3 a7bd cdb5 67bd b69a 9e3c
000003d0: f368 c8bd 1742 2bbc 6c5b 22be 715b 25bb
000003e0: 5a34 88bd 2285 89be 01b0 f6bd f3b5 0f3e
000003f0: d0b5 3b3e c5b0 b73d 5d63 323d 32a7 38bd

network_body._body_endoder.seq_layers.2.bias f4 [128]
0.05751378 0.005832053 0.2140032 0.13393863 0.0819448 -0.08103793 0.1062755 0.035442304
-0.15197057 0.15197818 -0.09198219 0.13388102 -0.04081121 -0.15767084 0.082820855 0.23161298
-0.12697187 -0.123357035 -0.1345231 0.22479182 -0.054241017 0.20722738 0.091965646 -0.08989507
0.10363649 0.09532014 -0.13357176 -0.05967513 -0.06576965 -0.036182683 0.16434418 -0.14700061
-0.15536092 0.15039161 0.061908074 -0.12702277 -0.14953893 0.019955143 -0.13901532 0.049869962
-0.062070455 0.08566629 0.15615658 0.028697425 0.07440754 0.09105815 0.156793 -0.07900075
0.13926207 -0.057926018 -0.0039088684 -0.09925786 -0.146212 0.013193817 -0.09619174 0.14764382
-0.10195575 -0.014283056 0.14292924 -0.16308956 -0.14096406 -0.112836555 -0.040698715 0.24331987
0.071606636 -0.12184184 0.13883126 -0.15366234 0.03193714 -0.07440818 -0.10874236 0.034837894
0.058573566 -0.15932786 0.11084874 0.11527339 -0.11758121 -0.117491476 -0.17028314 0.035183735
-0.15339847 0.16065471 0.20298004 -0.1258331 -0.086990155 0.011577934 0.1275825 -0.082185306
-0.18119508 -0.11172275 0.21678255 -0.11499054 0.1267777 -0.10595857 -0.11936189 -0.09734092
0.22837432 -0.10600745 -0.04774592 0.12298604 0.08918843 -0.12393574 -0.15201747 -0.12158764
0.14440535 0.13645263 0.056108046 0.0982868 0.08971213 0.01773663 0.13469273 -0.1014924
0.13325815 0.1679264 0.13748175 -0.0914101 0.1807203 0.12577981 -0.120045446 0.1622955
0.17380913 -0.110518135 -0.08343274 0.11680369 0.134383 -0.16834712 0.032028027 0.02327605
00000000: 9293 6b3d ce1a bf3b a823 5b3e 3527 093e
00000010: add2 a73d 37f7 a5bd f8a6 d93d f32b 113d
00000020: 2c9e 1bbe 2ba0 1b3e 2961 bcbd 1b18 093e
00000030: a829 27bd 7774 21be fb9d a93d f42b 6d3e
00000040: ea04 02be 9da2 fcbd 6cc0 09be d42f 663e
00000050: d42b 5ebd 6a33 543e 7c58 bc3d e81a b8bd
00000060: 5e3f d43d 3537 c33d 09c7 08be e96d 74bd
00000070: 3db2 86bd 4b34 14bd d749 283e 5487 16be
00000080: ef16 1fbe 4200 1a3e 5293 7d3d 4212 02be
00000090: bc20 19be f878 a33c 085a 0ebe 7244 4c3d
000000a0: 973d 7ebd cf71 af3d 83e7 1f3e dd16 eb3c
000000b0: fb62 983d b27c ba3d 588e 203e 25cb a1bd
000000c0: b79a 0e3e d543 6dbd f715 80bb b447 cbbd
000000d0: 99b8 15be e12a 583c 2d00 c5bd f12f 173e
000000e0: 2dce d0bd 7b03 6abc 0b5c 123e f300 27be
000000f0: e258 10be da16 e7bd b2b3 26bd d828 793e
00000100: 80a6 923d 3788 f9bd c829 0e3e a959 1dbe
00000110: 85d0 023d 5163 98bd 50b4 debd 2eb2 0e3d
00000120: d6ea 6f3d d826 23be aa04 e33d 7514 ec3d
00000130: 6bce f0bd 5f9f f0bd b45e 2ebe d21c 103d
00000140: 7d14 1dbe ab82 243e 00da 4f3e 64da 00be
00000150: e527 b2bd 60b1 3d3c fda4 023e c550 a8bd
00000160: 348b 39be e6ce e4bd 3ffc 5d3e 2980 ebbd
00000170: 03d2 013e cf00 d9bd 0274 f4bd ad5a c7bd
00000180: f5da 693e 6f1a d9bd 3a91 43bd 1be0 fb3d
00000190: 6ca8 b63d 05d2 fdbd 78aa 1bbe f102 f9bd
000001a0: ffde 133e 3dba 0b3e 8dd1 653d 974a c93d
000001b0: feba b73d 694c 913c e4ec 093e 3fdb cfbd
000001c0: d374 083e e6f4 2b3e 04c8 0c3e 3835 bbbd
000001d0: be0e 393e 6ccc 003e 63da f5bd cb30 263e
000001e0: 05fb 313e 5557 e2bd c9de aabd c636 ef3d
000001f0: b29b 093e 3063 2cbe d22f 033d 6aad be3c

action_model._discrete_distribution.branches.0.weight f4 [3, 128]
0.021477537 -0.048603434 0.050221097 0.03613134 0.024980448 -0.019609043 0.010030595 -0.049867723
-0.07887165 0.035046447 -0.05760795 0.0010210597 -0.009741596 -0.037517022 0.048049316 0.060107246
-0.08042757 -0.06456091 -0.07702534 0.040428594 -0.044879194 0.08176365 0.04305712 -0.03653371
-0.0014380077 0.0071483003 -0.071507685 0.046447534 -0.022524174 -0.074837044 0.029051756 -0.077136576
-0.07418553 0.013611427 0.02920843 -0.030144991 -0.095244884 -0.0072645424 -0.08662978 -0.0028544394
0.013649007 -0.046695966 0.041225348 0.015818983 0.028788192 -0.01434062 0.009931696 0.0092063835
0.043214526 -0.06276484 0.029301303 -0.039400477 -0.087637894 0.012704744 -0.060478665 0.011072393
-0.061284848 0.03963733 0.018268328 -0.07738035 -0.081798 -0.039893936 0.0075587593 0.074523166
0.019366963 -0.07807876 0.06791488 -0.101946294 0.025297623 -0.047166273 -0.10930103 0.039155766
0.017190605 -0.10929508 0.048240576 0.01501693 -0.00232417 -0.088799946 -0.089834526 -0.062420234
-0.06855105 0.009093702 0.04028872 -0.06654631 -0.066465884 -0.054967 0.00086586806 -0.025540568
-0.102335885 -0.010852974 0.03693798 -0.051088817 0.026879463 -0.07897783 -0.07496045 -0.09235636
0.0479474 -0.054370917 -0.013499535 -0.0013328539 0.033098258 -0.083847865 -0.0671078 -0.07589295
0.06361557 0.016819265 0.014808964 0.01936182 0.048476133 0.015440779 0.038218345 -0.08442871
0.032357316 0.03870761 0.0057916483 -0.057541717 0.039375152 0.0061251163 -0.088773444 0.07334679
0.019375237 -0.019008758 -0.08843202 0.036412984 -0.017047372 -0.08944631 -0.017639926 0.023940915
-0.00604406 0.016240066 0.038345143 0.0042544464 0.008692275 0.0009976062 0.032975577 0.010332681
-0.04396473 0.048537016 -0.015224337 0.039252777 -0.0019270703 -0.021291789 0.005524363 0.0055988603
-0.025073335 0.015928073 -0.00071126525 0.03445432 0.001314227 0.015016179 -0.0004459203 -0.020961033
0.039633524 0.017082755 -0.015818 -0.07853891 -0.05020467 0.028353581 0.031006265 -0.03978923
-0.03340751 0.006316949 -0.00943571 -0.0035437888 -0.032135148 0.021614812 -0.022715116 0.014469699
-0.005583453 0.0568739 -0.0038501965 -0.008928435 -0.010981979 0.045647956 0.023070896 -0.025860999
0.007443622 -0.005030865 -0.027187977 -0.000656886 -0.029316537 -0.0040074172 0.03229833 0.054712094
-0.012681644 -0.018010514 0.037768688 -0.019195316 -0.0016201781 -0.0022391113 -0.016837932 0.023712164
0.0052195964 -0.010131214 -0.013987925 -0.020264227 -0.010177848 -0.03921375 0.008869735 -0.012162902
0.011690968 0.013734668 0.0010498895 0.019207088 -0.053066857 -0.040789977 -0.019437712 0.03664401
-0.0008647185 0.022783237 0.069080174 0.016447084 -0.03761596 0.012569351 0.01813962 0.014388295
0.0061517707 -0.00678469 0.0037759417 0.0028151355 0.040943734 -0.010907428 0.0025730636 -0.040867653
0.025243102 0.009948485 -5.5536875e-05 0.034492753 0.028302822 -0.019543463 0.013407755 -0.0010124049
0.007912351 0.035868548 -0.004190787 0.01544459 -0.010873616 -0.0016662148 0.01266735 -0.036531005
0.024416436 0.020991888 0.01725658 -0.026659323 0.018964414 0.031193273 -0.030187175 -0.006898971
0.087898284 -0.038908 -0.0013014054 -0.023907783 0.064641014 -0.02011609 0.026664788 -0.023998016
00000000: a9f1 af3c 6514 47bd a3b4 4d3d 75fe 133d
00000010: cca3 cc3c 25a3 a0bc 5d57 243c 1942 4cbd
00000020: 7687 a1bd dd8c 0f3d 50f6 6bbd 14d5 853a
00000030: 379b 1fbc 73ab 19bd 5ccf 443d 0433 763d
00000040: 36b7 a4bd 8338 84bd 76bf 9dbd 7498 253d
00000050: 3fd3 37bd b373 a73d aa5c 303d 5fa4 15bd
00000060: 887b bcba 4a3c ea3b 9f72 92bd c53f 3e3d
00000070: 9e84 b8bc 2a44 99bd f3fd ed3c c8f9 9dbd
00000080: 95ee 97bd 7602 5f3c 8446 ef3c a1f2 f6bc
00000090: c00f c3bd 660b eebb f46a b1bd 8c11 3bbb
000000a0: 16a0 5f3c 4544 3fbd e9db 283d d096 813c
000000b0: 37d5 eb3c ebf4 6abc 8db8 223c 5fd6 163c
000000c0: b701 313d da8a 80bd 4909 f03c 6562 21bd
000000d0: 7f7b b3bd 8f27 503c 7ab8 77bd fb68 353c
000000e0: d205 7bbd c15a 223d 76a7 953c 9779 9ebd
000000f0: b685 a7bd d367 23bd 78af f73b 9a9f 983d
00000100: 77a7 9e3c c2e7 9fbd f516 8b3d 38c9 d0bd
00000110: f63c cf3c 6c31 41bd 38d9 dfbd cc61 203d
00000120: 50d3 8c3c 19d6 dfbd e997 453d 9209 763c
00000130: 1a51 18bb bfdc b5bd 2afb b7bd 5cac 7fbd
00000140: 7e64 8cbd c0fd 143c c905 253d 6f49 88bd
00000150: 441f 88bd 1425 61bd 6cfb 623a 743a d1bc
00000160: 7a95 d1bd acd0 31bc 484c 173d 8242 51bd
00000170: 5232 dc3c 21bf a1bd dd84 99bd 5525 bdbd
00000180: 7e64 443d 0ab4 5ebd 272d 5dbc 28b3 aeba
00000190: 0a92 073d 6eb8 abbd d06f 89bd c36d 9bbd
000001a0: e148 823d 8ec8 893c 4ca1 723c ae9c 9e3c
000001b0: e98e 463d 52fb 7c3c d78a 1c3d f6e8 acbd
000001c0: 1b89 043d df8b 1e3d dec7 bd3b ddb0 6bbd
000001d0: d747 213d 33b5 c83b dace b5bd d836 963d
000001e0: d1b8 9e3c 41b8 9bbc d91b b5bd c825 153d
000001f0: eea6 8bbc a12f b7bd 9b81 90bc bd1f c43c
00000200: 400d c6bb e309 853c cc0f 1d3d e268 8b3b
00000210: 0b6a 0e3c 1cc2 823a 6611 073d 684a 293c
00000220: 5c14 34bd c0ce 463d 7f6f 79bc 85c7 203d
00000230: c095 fcba 1e6c aebc b705 b53b a576 b73b
00000240: 9866 cdbc 977b 823c 3474 3aba f91f 0d3d
00000250: 2442 ac3a 6b06 763c 69ca e9b9 79b6 abbc
00000260: c356 223d 22f1 8b3c c094 81bc 02d9 a0bd
00000270: 69a3 4dbd c545 e83c da00 fe3c 08fa 22bd
00000280: 50d6 08bd 69fe ce3b 3c98 1abc e93e 68bb
00000290: 25a0 03bd 8c11 b13c 0d15 babc 5112 6d3c
000002a0: 66f5 b6bb 9bf4 683d 9453 7cbb 9248 12bc
000002b0: c2ed 33bc 5af9 3a3d 2dff bc3c 72da d3bc
000002c0: a1e9 f33b f4d9 a4bb 52b9 debc e032 2cba
000002d0: 3c29 f0bc a750 83bb 414b 043d ca19 603d
000002e0: acc6 4fbc c98a 93bc 57b3 1a3d 7f3f 9dbc
000002f0: 285c d4ba 0ebe 12bb b4ef 89bc 0340 c23c
00000300: 2609 ab3b 64fd 25bc 9c2d 65bc 2a01 a6bc
00000310: fdc0 26bc 999e 20bd 5d52 113c e946 47bc
00000320: 798b 3f3c 5f07 613c 729c 893a 2f58 9d3c
00000330: a25c 59bd 6413 27bd d63b 9fbc 0818 163d
00000340: 47ae 62ba e9a3 ba3c e879 8d3d 09bc 863c
00000350: 3113 1abd aeef 4d3c 8a99 943c e2bc 6b3c
00000360: cb94 c93b 1b52 debb ca75 773b 237e 383b
00000370: 9eb4 273d 12b5 32bc d8a0 283b d764 27bd
00000380: 9fca ce3c f8fe 223c 44f0 68b8 4648 0d3d
00000390: 52db e73c 9d19 a0bc 33ac 5b3c acb2 84ba
000003a0: cea2 013c e6ea 123d df52 89bb 4e0b 7d3c
000003b0: 4027 32bc e464 daba b78a 4f3c 89a1 15bd
000003c0: fa04 c83c 2ef7 ab3c ac5d 8d3c a764 dabc
000003d0: 425b 9b3c 0989 ff3c 184b f7bc c310 e2bb
000003e0: 0404 b43d ff5d 1fbd eb93 aaba 41da c3bc
000003f0: 8262 843d 80ca a4bc 1d70 da3c 7d97 c4bc

action_model._discrete_distribution.branches.0.bias f4 [3]
0.09025435 0.043309238 -0.15778202
00000000: 46d7 b83d 0765 313d 9c91 21be

action_model._discrete_distribution.branches.1.weight f4 [3, 128]
0.0404654 0.056491606 -0.012502282 -0.04809741 0.0041939556 0.04314127 0.021271316 0.043393023
0.024400791 0.024725255 0.022231616 -0.019215336 -0.014018168 -0.00508496 -0.0025551429 -0.004700653
0.018103965 -0.0015061458 0.023706969 -0.020704 0.045003913 -0.012882382 -0.058682363 -0.020401867
-0.0061238804 0.018560862 0.029730028 0.057305533 0.0053115985 0.014697578 0.055974547 0.0041826563
0.040817637 -0.0056678676 -0.034200374 -0.006845359 0.016687186 0.060853645 0.0065516876 -0.010593009
0.0057421336 0.008116743 -0.00894167 0.017601378 -0.022108518 0.02441937 -0.012273759 -0.047025084
-0.023691466 0.05025855 -0.047783688 0.045319915 0.0070594596 -0.032126654 -0.008669865 0.038573842
0.042304177 -0.018562116 0.034365714 0.028437542 0.0044348775 -0.029414674 0.034970872 -0.04415583
0.0052691 0.05369768 -0.046644606 0.011424812 0.006379082 0.042953983 0.09753686 -0.03992166
-0.045208775 0.061276127 -0.03338138 -0.02454954 0.04007456 0.04060913 0.023039505 0.012345574
0.034134205 -0.014193439 -0.005632268 0.042040437 0.0024513782 0.014015019 0.016892362 0.0024659247
0.0006757612 -0.005029544 -0.038450025 0.028019166 -0.005765122 0.050781105 0.021170545 0.020333298
0.020385785 0.040001936 -0.02126189 0.021760179 -0.07551975 0.028420016 0.006913226 0.05701667
0.0067441496 0.011638951 -0.01113881 0.02704513 -0.050963093 -0.014842526 -0.025971837 -0.011910981
-0.0046181977 -0.013675129 0.012798488 0.020251922 0.014818189 0.029458053 0.020630125 -0.039952487
0.0014978518 0.041870087 0.056026366 0.020385362 0.03635948 0.034380697 0.005923891 -0.024598714
0.0289585 0.04431945 -0.0027810754 -0.03794114 -0.01604832 -0.0019681288 0.025338512 0.11900048
-0.0066413786 -0.009579483 0.018080827 -0.06528668 -0.07552348 0.026887834 -0.046133604 0.07726347
-0.041125637 0.023303036 0.0032829354 0.08042977 0.028787067 0.06750981 -0.011947293 -0.01843698
-0.06596076 -0.008090626 0.0081397295 -0.0058709453 -0.0841916 -0.03388688 0.019026926 -0.0007852412
0.0121916775 0.012579657 0.01917513 -0.024535183 0.0022065989 -0.012450103 -0.023172716 0.011545662
-0.011815177 -0.08476708 0.0043973005 0.003746879 0.0053457064 -0.024301853 0.0640809 -0.05910376
-0.02251502 0.03208127 -0.022948772 0.007607578 -0.0071379365 0.0072282576 -0.031848494 0.027855206
0.020708973 -0.09205092 0.048342414 0.010917241 -0.02939699 -0.057422772 0.015371604 0.06872806
0.03242663 -0.004350313 -0.023869107 0.010267313 0.08311289 0.059033222 -0.030360298 -0.051246677
-0.05910924 -0.024007518 -0.040103853 -0.058941815 -0.002000038 0.0074079875 0.021338755 0.029532602
0.003343061 0.01493438 -0.02680404 -0.012437699 0.055588517 0.11501484 0.14573078 -0.004252255
0.00167538 0.0074736536 -0.0045996793 -0.038041722 -0.021555299 -0.007300677 -0.020873481 -0.009493364
0.002660029 -0.022649882 -0.018457038 0.05702963 -0.022179121 0.015158124 0.025040032 -0.007263518
-0.018250195 -0.005920671 -0.0209908 0.035873856 0.0089390995 -0.0071017947 -0.011439173 -0.06871636
0.048661087 -0.0018745018 0.071338795 0.0112306345 0.033285987 0.04891171 -0.0017665477 0.002389162
-0.010292868 0.019767381 -0.00443631 0.12295581 0.08435251 -0.0021345273 -0.030839635 -0.02706466
00000000: 0cbf 253d be63 673d 5fd6 4cbc ca01 45bd
00000010: 736d 893b e6b4 303d 2f41 ae3c e2bc 313d
00000020: 2be4 c73c 9e8c ca3c 141f b63c 7b69 9dbc
00000030: 75ac 65bc bc9f a6bb 2f74 27bb ef07 9abb
00000040: c44e 943c de69 c5ba 1e35 c23c 6f9b a9bc
00000050: 0656 383d a010 53bc eb5c 70bd d121 a7bc
00000060: d5aa c8bb f30c 983c 638c f33c 35b9 6a3d
00000070: eb0c ae3b 1cce 703c 9145 653d aa0e 893b
00000080: 6530 273d 85b9 b9bb b115 0cbd 094f e0bb
00000090: 91b3 883c ac41 793d 8aaf d63b 4d8e 2dbc
000000a0: 8228 bc3b 16fc 043c 1580 12bc c430 903c
000000b0: ec1c b5bc 210b c83c e017 49bc 609d 40bd
000000c0: 9b14 c2bc e9db 4d3d d4b8 43bd 60a1 393d
000000d0: 0a53 e73b 3d97 03bd 0d0c 0ebc 9bff 1d3d
000000e0: 2547 2d3d 940f 98bc 10c3 0c3d d9f5 e83c
000000f0: 7352 913b 0bf7 f0bc 9e3d 0f3d bedc 34bd
00000100: 6aa8 ac3b 19f2 5b3d 6a0e 3fbd 222f 3b3c
00000110: 9e07 d13b 84f0 2f3d 68c1 c73d e584 23bd
00000120: d62c 39bd adfc 7a3d eaba 08bd 1e1c c9bc
00000130: 3925 243d c255 263d 58bd bc3c 1745 4a3c
00000140: 4fd0 0b3d 998b 68bc e38e b8bb 9832 2c3d
00000150: 4da7 203b 409f 653c da61 8a3c 5a9b 213b
00000160: 9125 313a dfce a4bb c67d 1dbd 7388 e53c
00000170: 59e9 bcbb d9ff 4f3d da6d ad3c 0492 a63c
00000180: 1700 a73c 12d9 233d 6a2d aebc 6742 b23c
00000190: 19aa 9abd 18d1 e83c 5888 e23b 508a 693d
000001a0: 07fe dc3b 4cb1 3e3c 8e7f 36bc c08d dd3c
000001b0: adbe 50bd 112e 73bc e4c2 d4bc 4626 43bc
000001c0: 4054 97bb a60d 60bc c0b0 513c 5ce7 a53c
000001d0: fdc7 723c 0452 f13c 8200 a93c 38a5 23bd
000001e0: 9153 c43a f87f 2b3d e77b 653d 34ff a63c
000001f0: aeed 143d c6d2 0c3d 331d c23b 3e83 c9bc
00000200: 603a ed3c 5088 353d b442 36bb 2b68 1bbd
00000210: c477 83bc b9fb 00bb b692 cf3c 86b6 f33d
00000220: ec9f d9bb 44f3 1cbc 3e1e 943c 06b5 85bd
00000230: 0eac 9abd e043 dc3c 97f6 3cbd 4f3c 9e3d
00000240: 5b73 28bd 02e6 be3c 8426 573b 5db8 a43d
00000250: dbd2 eb3c 9542 8a3d 94be 43bc 2609 97bc
00000260: 6f16 87bd 8c8e 04bc 805c 053c 0f61 c0bb
00000270: a56c acbd f8cc 0abd 5bde 9b3c a5d8 4dba
00000280: 9abf 473c e81a 4e3c 2a15 9d3c 02fe c8bc
00000290: 969c 103b 84fb 4bbc b5d4 bdbc 042a 3d3c
000002a0: 7294 41bc 5d9a adbd 3b17 903b 338e 753b
000002b0: 092b af3b ae14 c7bc d93c 833d c916 72bd
000002c0: 6b71 b8bc a667 033d 10ff bbbc fd48 f93b
000002d0: 5ae5 e9bb 05db ec3b 9173 02bd 9a30 e43c
000002e0: dda5 a93c 3185 bcbd b202 463d 3ade 323c
000002f0: f5d1 f0bc 2434 6bbd 2ed9 7b3c 4cc1 8c3d
00000300: c9d1 043d 128d 8ebb 2589 c3bc 3b38 283c
00000310: 1737 aa3d d2cc 713d 29b6 f8bc 09e8 51bd
00000320: 881c 72bd 6aab c4bc f043 24bd f96c 71bd
00000330: 1213 03bb b4be f23b 9dce ae3c 5bee f13c
00000340: 4217 5b3b 54af 743c 2594 dbbc 7ec7 4bbc
00000350: c9b0 633d e78c eb3d 733a 153e 8056 8bbb
00000360: 6d98 db3a 8de5 f43b e8b8 96bb a3d1 1bbd
00000370: bd94 b0bc 843a efbb ddfe aabc 0e8a 1bbc
00000380: e253 2e3b 3f8c b9bc 3733 97bc e797 693d
00000390: fdb0 b5bc c859 783c c120 cd3c ce02 eebb
000003a0: 6f81 95bc 3002 c2bb e6f4 abbc 77f0 123d
000003b0: 4d75 123c 2cb6 e8bb 5e6b 3bbc 2abb 8cbd
000003c0: d950 473d d8b1 f5ba 131a 923d b200 383c
000003d0: e356 083d a557 483d 818b e7ba 7d93 1c3b
000003e0: 6ba3 28bc 34ef a13c 775e 91bb 41d0 fb3d
000003f0: 02c1 ac3d 6de3 0bbb 67a3 fcbc b5b6 ddbc

action_model._discrete_distribution.branches.1.bias f4 [3]
-0.020899646 -0.005685052 0.02412659
00000000: bc35 abbc ac49 babb 20a5 c53c

exp_avg f4 [128, 22]
2.2461354e-06 -3.7334205e-05 4.0605573e-06 -2.3202723e-05 -3.859402e-05 -5.5722277e-05 -7.1367936e-06 0.0001484755
-6.162267e-06 4.6569454e-05 -2.4407695e-06 2.9865569e-05 -2.6612925e-06 0.00023850551 0.00015469006 -5.3860065e-05
-8.6062835e-05 9.882615e-05 6.0138933e-05 -0.000100239864 -0.00026820484 0.000103237166 -2.436403e-06 -6.2412473e-06
9.997657e-06 5.569138e-06 -2.8009183e-06 -6.893959e-06 -8.7498506e-07 -1.6947008e-05 -7.5550275e-07 -3.999294e-05
-2.992441e-07 0.00014293645 -3.262777e-07 -0.0001979844 -0.0003074004 2.2563543e-05 0.0001928888 -0.00026575013
-0.00039363749 0.00019583902 0.00019773994 -0.00019148787 -5.3008705e-05 -0.00021270283 -2.6251451e-05 -0.00018788702
-5.973073e-05 -0.00019084732 -6.902235e-06 -0.00016130142 -5.9597332e-06 -0.00029956194 -2.360553e-06 7.552693e-05
-2.5738282e-06 -3.941542e-05 3.1648582e-05 -7.263316e-05 -1.8023311e-06 6.11736e-05 -8.09923e-06 -3.6693273e-05
-2.3316534e-06 1.5271195e-05 -3.9058534e-05 -0.00022028305 -6.684326e-05 -0.0002242217 -5.675377e-05 -0.00019183292
-1.4226394e-05 -0.00013031265 -1.2283783e-05 -0.00022935029 -4.8654033e-06 5.5795543e-05 -5.304988e-06 -2.2313521e-05
0.00014475372 -0.00013698464 -3.1085496e-05 0.00013643624 0.00041395653 -6.794476e-05 -3.5621895e-05 0.00024281404
-9.862619e-05 -0.00020652392 3.711975e-05 -0.00010901466 -0.00015849403 -0.00020835345 -1.5254824e-05 -2.5526359e-05
-1.3171778e-05 -0.00012992902 -5.217124e-06 6.4399916e-05 -5.688488e-06 8.461997e-06 8.576781e-05 -9.820654e-05
-0.00045745095 0.00013651882 0.0002549594 -0.0004974031 -0.00027763768 0.00019563522 -9.597494e-06 9.370458e-06
-1.3689565e-05 1.2588251e-05 -7.758568e-06 4.9862865e-06 -4.231739e-06 0.00028081663 -3.6538995e-06 0.00012185809
-1.447248e-06 6.612559e-05 -1.5780083e-06 0.0002073274 0.00038793543 -5.0969593e-05 -0.0002656174 0.00026684994
0.0010424333 -0.0002737485 -0.00051266514 0.00017036217 0.00015017662 0.00040169235 7.3938514e-05 0.00029200542
0.00022164585 0.00041909184 6.033806e-06 -0.00012934743 5.209894e-06 0.00033223728 2.0635493e-06 -0.00014273151
2.2499912e-06 8.505424e-05 -0.000100853475 0.00013856542 -3.2588927e-05 -0.000100586934 -0.00040937797 3.311498e-05
0.0001600829 0.00026412454 -2.6445163e-05 -5.5118595e-05 -3.465734e-05 -5.441105e-05 -4.3513377e-05 -5.1138195e-05
-1.1558026e-05 -0.00023828528 -9.979778e-06 -6.915121e-05 -3.9528236e-06 -4.3432196e-05 -4.3099567e-06 -0.00018612947
-9.858498e-05 1.9530988e-05 0.00026131843 -7.839173e-05 -0.0007066757 0.0002662927 0.00041275955 -0.00022572694
-6.713158e-05 -0.00016237526 -8.5590254e-05 -0.00016242606 -8.47779e-05 -0.00014659864 -1.0623848e-05 -0.00012852275
-9.173165e-06 -0.00012702734 -3.633338e-06 8.185158e-06 -3.961606e-06 -0.00012989403 2.6625818e-05 -4.1447413e-05
0.00018752078 5.276015e-06 7.334532e-05 0.0001698196 0.00019345837 9.454998e-06 -9.378884e-05 -0.0005344144
-0.00014304003 -0.00049883476 -0.00013420255 -0.0005013089 -3.7978803e-05 -0.00013048411 -3.2792803e-05 -0.0005450405
-1.2988682e-05 0.00011041845 -1.4162209e-05 0.00010213809 0.00034461898 -0.00026081907 1.4053017e-05 0.00034130935
-9.251009e-06 -7.350548e-05 -0.00022588891 0.00020933492 -4.8578586e-06 -4.4674933e-05 -6.097797e-05 -7.036535e-05
-4.3018255e-05 -6.775356e-05 -3.6730753e-06 2.4931287e-06 -3.1715178e-06 -5.450793e-05 -1.2561835e-06 -3.2912634e-05
-1.3696798e-06 -9.556068e-05 0.00020172274 -1.643174e-05 -1.7775485e-05 0.00017317418 0.00016944 -2.2909324e-05
4.4844644e-05 -2.9334115e-07 1.2842211e-05 3.515375e-05 1.6219492e-05 3.2744327e-05 1.7985127e-05 3.3101824e-05
5.6397703e-06 -5.565318e-06 4.8696625e-06 2.2303575e-05 1.9287913e-06 -2.9086967e-05 2.1030583e-06 -6.229071e-05
00000000: 50bc 1636 4c97 1cb8 ec3f 8836 78a3 c2b7
00000010: 03e0 21b8 57b7 69b8 9778 efb6 17b0 1b39
00000020: 78c5 ceb6 9253 4338 1acc 23b6 d287 fa37
00000030: a898 32b6 5617 7a39 4c34 2239 cee7 61b8
00000040: a27c b4b8 e340 cf38 b03d 7c38 de37 d2b8
00000050: d89d 8cb9 0881 d838 1681 23b6 e86b d1b6
00000060: 9cbb 2737 88de ba36 69f7 3bb6 a852 e7b6
00000070: 84e0 6ab5 6c29 8eb7 c1cd 4ab5 18be 27b8
00000080: cca7 a0b4 36e1 1539 442b afb4 089a 4fb9
00000090: 952a a1b9 d746 bd37 3142 4a39 6154 8bb9
000000a0: 2161 ceb9 235a 4d39 6958 4f39 22ca 48b9
000000b0: aa55 5eb8 fb08 5fb9 9036 dcb7 8a03 45b9
000000c0: 6287 7ab8 301e 48b9 bf99 e7b6 0523 29b9
000000d0: b8f9 c7b6 860e 9db9 fe69 1eb6 3664 9e38
000000e0: 08ba 2cb6 fc51 25b8 68be 0438 a152 98b8
000000f0: a0e7 f1b5 544a 8038 eee1 07b7 1ae7 19b8
00000100: 8079 1cb6 a41a 8037 c8d2 23b8 c8fb 66b9
00000110: 342e 8cb8 0e1d 6bb9 e60a 6eb8 c226 49b9
00000120: e6ad 6eb7 89a4 08b9 7216 4eb7 c07d 70b9
00000130: 7f41 a3b6 0206 6a38 8001 b2b6 ec2d bbb7
00000140: 08c9 1739 89a3 0fb9 cc61 02b8 5310 0f39
00000150: 4e08 d939 917d 8eb8 b868 15b8 e69b 7e39
00000160: 88d5 ceb8 588e 58b9 07b1 1b38 cd9e e4b8
00000170: 6b31 26b9 7479 5ab9 f8ee 7fb7 7021 d6b7
00000180: 5bfc 5cb7 8e3d 08b9 c10e afb6 710e 8738
00000190: bddf beb6 00f8 0d37 3ede b338 3cf4 cdb8
000001a0: 07d6 efb9 7e26 0f39 12ac 8539 2864 02ba
000001b0: e68f 91b9 6e23 4d39 ec04 21b7 d035 1d37
000001c0: 3cac 65b7 2032 5337 cc2a 02b7 e04f a736
000001d0: 5cfe 8db6 923a 9339 8435 75b6 108e ff38
000001e0: 103f c2b5 e8ac 8a38 f4cb d3b5 0666 5939
000001f0: d063 cb39 2fc8 55b8 9042 8bb9 fee7 8b39
00000200: 42a2 883a e785 8fb9 6064 06ba 3fa3 3239
00000210: bb78 1d39 3c9a d239 700f 9b38 4e18 9939
00000220: 9b69 6839 8eb9 db39 0076 ca36 70a1 07b9
00000230: a6d0 ae36 2230 ae39 827b 0a36 33aa 15b9
00000240: 8efe 1636 265f b238 4c81 d3b8 df4b 1139
00000250: 18b0 08b8 33f2 d2b8 c8a1 d6b9 f0e4 0a38
00000260: eddb 2739 327a 8a39 8ed6 ddb7 242f 67b8
00000270: 095d 11b8 6c37 64b8 2282 36b8 387d 56b8
00000280: 58e9 41b7 38dc 79b9 d26e 27b7 4605 91b8
00000290: 7fa2 84b6 f72a 36b8 3f9e 90b6 c02b 43b9
000002a0: 68bf ceb8 7ad6 a337 9101 8939 3d66 a4b8
000002b0: 3440 39ba 349d 8b39 a667 d839 1db1 6cb9
000002c0: fec8 8cb8 4743 2ab9 eb7e b3b8 ea50 2ab9
000002d0: caca b1b8 46b8 19b9 143d 32b7 10c4 06b9
000002e0: 72e6 19b7 a432 05b9 46d4 73b6 fc52 0937
000002f0: f0ed 84b6 2a34 08b9 825a df37 d2d7 2db8
00000300: 3aa1 4439 a008 b136 f8d0 9938 9a11 3239
00000310: 16db 4a39 e8a0 1e37 80b0 c4b8 f117 0cba
00000320: 04fd 15b9 3cc4 02ba b9b8 0cb9 456a 03ba
00000330: 6e4b 1fb8 90d2 08b9 018b 09b8 0ce1 0eba
00000340: f7e9 59b7 7490 e738 399a 6db7 f832 d638
00000350: faad b439 8bbe 88b9 40c5 6b37 c4f1 b239
00000360: c834 1bb7 f426 9ab8 98dc 6cb9 ea80 5b39
00000370: b000 a3b6 5861 3bb8 99c2 7fb8 1c91 93b8
00000380: 806e 34b8 ea16 8eb8 f47e 76b6 a04f 2736
00000390: 43d6 54b6 729f 64b8 239a a8b5 ac0b 0ab8
000003a0: d7d5 b7b5 c067 c8b8 8985 5339 e5d6 89b7
000003b0: 901c 95b7 1796 3539 b4ab 3139 662d c0b7
000003c0: 9217 3c38 807c 9db4 e074 5737 0d72 1338
000003d0: 180f 8837 f456 0938 c4de 9637 d0d6 0a38
000003e0: 423d bd36 b8bd bab6 1566 a336 9018 bb37
000003f0: 6270 0136 c9ff f3b7 4422 0d36 12a2 82b8

exp_avg_sq f4 [128, 22]
4.2822585e-08 2.7061262e-07 5.5056915e-08 2.4768585e-07 1.4810787e-07 2.9393468e-07 2.9560785e-09 5.59776e-07
1.7572734e-09 5.6779885e-07 3.6921555e-10 5.770379e-07 3.2694963e-08 9.921825e-07 1.041207e-06 9.775881e-08
9.396967e-07 9.2223877e-07 1.7525498e-06 8.755042e-07 2.0939272e-06 1.3201541e-06 5.9001856e-08 8.978087e-07
1.1278542e-07 7.4794264e-07 9.965149e-08 8.8126336e-07 9.699821e-09 2.3365342e-06 7.0711152e-09 2.4860306e-06
3.6809018e-09 7.191792e-06 4.6510156e-08 4.4026965e-06 2.6535958e-05 1.8479354e-07 6.531214e-06 2.6537202e-05
4.111718e-06 5.4104084e-06 1.2951027e-06 2.2992193e-05 7.993461e-08 2.912024e-07 1.2264775e-07 2.5656274e-07
1.2948848e-07 2.676997e-07 2.9243359e-09 2.5457544e-07 2.2118256e-09 5.49923e-07 5.6654137e-10 3.229301e-07
6.789107e-10 5.2396535e-07 5.323375e-07 2.1958361e-07 7.573572e-07 3.7728827e-07 2.0039955e-07 7.58925e-07
1.8594963e-07 2.9766488e-07 1.11277764e-07 1.7186817e-06 2.30566e-07 1.5090901e-06 2.1308443e-07 1.5164911e-06
1.6061856e-08 3.5469016e-06 1.19903145e-08 3.292515e-06 1.5372537e-08 7.334278e-06 2.1857655e-08 3.79401e-06
1.2593159e-06 8.750081e-07 6.569024e-06 6.6851186e-07 4.6715806e-05 6.16527e-06 7.860315e-06 5.0164695e-06
2.1814537e-07 8.8448854e-07 4.1021946e-07 8.908499e-07 7.0397425e-07 1.0521595e-06 5.8315144e-09 1.2529053e-06
4.3202943e-09 1.3777449e-06 6.236288e-09 2.0267487e-06 9.134076e-09 1.8887068e-06 4.5927138e-07 2.468388e-07
2.218406e-06 1.11423624e-07 1.82525e-05 2.198453e-06 5.4137054e-06 1.7823455e-06 1.0375641e-07 1.3555284e-06
1.9920637e-07 1.1614017e-06 1.7979146e-07 1.2976296e-06 1.6300103e-08 3.4910784e-06 1.1957306e-08 3.4844377e-06
8.236141e-09 8.874302e-06 2.95273e-09 6.25089e-06 1.3093039e-05 3.9829024e-07 8.213626e-06 1.3693744e-05
2.0869506e-05 7.3791753e-06 5.690843e-06 1.759063e-05 6.168727e-07 1.3754595e-06 5.8327174e-07 1.0235166e-06
1.050243e-06 1.5346986e-06 1.7492143e-08 2.3488963e-06 1.1632944e-08 2.7420494e-06 1.1471622e-08 1.0619374e-05
3.7927617e-08 3.9433667e-06 1.8814261e-06 1.1075338e-06 5.976434e-06 2.471448e-06 2.8572362e-05 5.977581e-06
3.1182155e-06 6.4020014e-06 5.8337793e-08 9.844846e-07 9.7383634e-08 8.6459096e-07 1.0516565e-07 8.70931e-07
7.850193e-09 2.1108804e-06 5.7324367e-09 2.1543342e-06 1.0099148e-09 4.1273925e-06 1.4177797e-08 3.1613126e-06
5.1379043e-06 1.659048e-07 3.8981366e-06 4.8085008e-06 2.7259586e-05 3.4989926e-06 6.9045964e-06 7.73119e-06
7.2636404e-08 1.0396736e-06 1.3587292e-07 9.38464e-07 1.5229978e-07 9.094481e-07 7.279593e-09 2.363382e-06
5.4310814e-09 2.1063486e-06 1.9602722e-09 3.4220368e-06 5.042595e-08 3.1657985e-06 1.0783187e-06 1.4456104e-07
3.511568e-06 6.328072e-07 3.3704662e-05 3.2412659e-06 8.604396e-06 4.8028014e-06 1.4813705e-07 1.6899928e-06
2.7450892e-07 1.468324e-06 2.5569685e-07 1.4674583e-06 2.1327905e-08 2.7496767e-06 1.588093e-08 3.1678971e-06
6.077588e-09 2.833338e-06 7.7522195e-08 3.7062584e-06 2.4526157e-06 2.5660609e-06 6.472738e-06 1.7313238e-06
9.036062e-07 6.234046e-06 1.710521e-06 2.3376228e-06 1.13331105e-07 1.0656585e-06 1.7002422e-07 9.310358e-07
2.3808894e-07 1.0328858e-06 9.395423e-09 2.419573e-06 6.9880253e-09 2.7430856e-06 1.0920413e-09 6.776564e-06
3.340246e-08 4.9617483e-06 9.956613e-06 2.489601e-07 5.0161007e-06 9.84372e-06 2.2911569e-05 4.5211304e-06
7.550107e-06 1.2213355e-05 7.345737e-09 7.054583e-08 1.3885287e-08 6.412038e-08 1.27878925e-08 6.064129e-08
1.4296453e-09 1.5820514e-07 8.110048e-10 1.2998345e-07 1.4325341e-10 1.2876056e-07 1.7954623e-08 1.6683548e-07
00000000: eeeb 3733 b748 9134 b877 6c33 aff9 8434
00000010: 9507 1f34 13ce 9d34 e223 4b31 8443 1635
00000020: 9084 f130 d76a 1835 78fa ca2f bee5 1a35
00000030: 7e6c 0c33 222b 8535 9abf 8b35 79ef d133
00000040: 773f 7c35 c48f 7735 2739 eb35 3104 6b35
00000050: 6585 0c36 2630 b135 3a69 7d33 f200 7135
00000060: 7134 f233 3ac6 4835 fcff d533 f58f 6c35
00000070: 44a4 2632 5acd 1c36 30f6 f231 aed5 2636
00000080: 1cf3 7c31 0651 f136 75c2 4733 e0ba 9336
00000090: 8999 de37 a96b 4634 b326 db36 359c de37
000000a0: 64f7 8936 0e8b b536 64d3 ad35 5cdf c037
000000b0: 84a8 ab33 8e56 9c34 28b1 0334 b7bd 8934
000000c0: 8609 0b34 5eb8 8f34 76f5 4831 95ac 8834
000000d0: d9fe 1731 6c9e 1335 ceba 1b30 2d5f ad34
000000e0: 189e 3a30 a0a6 0c35 f4e5 0e35 afc6 6b34
000000f0: 314d 4b35 1b8e ca34 692d 5734 eeb8 4b35
00000100: 72a9 4734 c0ce 9f34 99f7 ee33 74ad e635
00000110: 8091 7734 f18b ca35 34cc 6434 3d8a cb35
00000120: 65f8 8932 4e07 6e36 f6fd 4d32 faf4 5c36
00000130: 910c 8432 f818 f636 7ec1 bb32 989c 7e36
00000140: c405 a935 19e2 6a35 7d6b dc36 c973 3335
00000150: b7f0 4338 44df ce36 ccdf 0337 2553 a836
00000160: 583b 6a34 976d 6d35 223c dc34 bd22 6f35
00000170: bef8 3c35 ed37 8d35 8b5e c831 8029 a835
00000180: b671 9431 f4ea b835 f846 d631 4703 0836
00000190: 17ec 1c32 797f fd35 c791 f634 4485 8434
000001a0: eddf 1436 c947 ef33 f21c 9937 2389 1336
000001b0: 60a7 b536 ed38 ef35 b1d0 de33 9aef b535
000001c0: 6ee5 5534 75e1 9b35 b30c 4134 372a ae35
000001d0: 4e04 8c32 4548 6a36 ca6c 4d32 2fd6 6936
000001e0: ee7e 0d32 d6e2 1437 fae8 4a31 bcbe d136
000001f0: 2daa 5b37 98d4 d534 41cd 0937 2fbe 6537
00000200: ec10 af37 a29a f736 f8f3 be36 978f 9337
00000210: 2b97 2535 6e9c b835 2192 1c35 c35f 8935
00000220: 13f6 8c35 d8fb cd35 a141 9632 bba1 1d36
00000230: 3bda 4732 0d04 3836 ba14 4532 dd29 3237
00000240: dbe5 2233 4351 8436 4f85 fc35 92a6 9435
00000250: 2d89 c836 27db 2536 aeae ef37 0893 c836
00000260: 8942 5136 c6d0 d636 158f 7a33 a222 8435
00000270: 3821 d133 3d16 6835 6dd7 e133 ecc9 6935
00000280: 84dd 0632 a6a8 0d36 0cf7 c431 2e93 1036
00000290: 38cd 8a30 087e 8a36 9c92 7332 f026 5436
000002a0: 4366 ac36 9023 3234 bdcc 8236 b558 a136
000002b0: 84ab e437 3cd0 6a36 08ae e736 35b5 0137
000002c0: 49fc 9b33 ea8a 8b35 77e4 1134 c1ea 7b35
000002d0: d887 2334 cc20 7435 fa1f fa31 989a 1e36
000002e0: 4c9c ba31 cb5a 0d36 79b5 0631 25a6 6536
000002f0: eb93 5833 0174 5436 c0ba 9035 a338 1b34
00000300: 47a8 6b36 2ede 2935 1b5e 0d38 8684 5936
00000310: 995b 1037 c027 a136 9a0f 1f34 b6d3 e235
00000320: 3860 9334 3a13 c535 b546 8934 7cf5 c435
00000330: 8f34 b732 1687 3836 896a 8832 0f98 5436
00000340: 08d3 d031 6024 3e36 477a a633 09b9 7836
00000350: 9e97 2436 9734 2c36 6530 d936 d55f e835
00000360: 588f 7235 0c2e d136 0e95 e535 0ee0 1c36
00000370: 6f60 f333 bf07 8f35 e78f 3634 4bec 7935
00000380: 64a5 7f34 b0a1 8a35 8269 2132 f35f 2236
00000390: 521b f031 da15 3836 ca16 9630 3e62 e336
000003a0: 6576 0f33 187d a636 540b 2737 d1a8 8534
000003b0: fa4f a836 7526 2537 3832 c037 37b4 9736
000003c0: ed56 fd36 f6e7 4c37 c965 fc31 fb7e 9733
000003d0: 238c 6e32 8db2 8933 bfb1 5b32 e739 8233
000003e0: 2c7d c430 19df 2934 64ed 5e30 9491 0b34
000003f0: 4082 1d2f 6f41 0a34 a23a 9a32 6323 3334
