results/Test4.1/CarAgent/CarAgent-26539.pt (torch, 490591 bytes, 36 tensors)

network_body._body_endoder.seq_layers.0.weight f4 [128, 22]
0.3045958 -0.016240954 -0.12717704 0.22003917 0.19395128 -0.06125054 -0.07833461 0.07163137
0.01753396 0.04673884 -0.043077603 -0.23095058 -0.08275652 0.105792776 -0.0037475869 -0.21831933
0.13590556 0.18515286 -0.21212035 -0.23291025 -0.014887778 0.3454044 0.3178381 0.266193
0.28202608 -0.18859649 -0.13980271 -0.13383329 -0.1356807 0.158978 0.39336634 -0.08873188
0.12858091 0.076197326 0.09958148 -0.02019669 -0.039035715 0.1152181 0.034511503 0.006800749
-0.3550935 0.2854706 0.14295961 -0.3170898 -0.13202548 -0.16894305 0.22127138 -0.18129554
-0.3364338 -0.08482989 0.11572859 0.10426983 -0.099415444 0.031905692 -0.11132879 -0.11466505
0.39080873 0.066309296 0.02178398 0.012137383 -0.11493569 -0.025377022 -0.115779564 -0.19381748
-0.30482674 -0.026067981 0.15921281 0.26768538 -0.10263566 -0.2698508 -0.040801544 -0.21858841
-0.13208014 -0.14508 -0.12541842 -0.21796422 -0.15693545 -0.10042161 0.0757766 0.39402673
-0.11025261 0.24308719 -0.1673986 -0.2233682 -0.22095974 0.3321172 -0.009045613 -0.36177185
0.18963355 -0.053253938 0.015711937 -0.07628551 -0.020075899 0.090697974 0.41241506 0.3492495
-0.38641053 0.7006199 -0.12087161 -0.06321305 0.028136265 -0.2875623 -0.003019919 -0.042252153
-0.09929271 -0.23429549 -0.13412976 0.27207574 -0.027483864 -0.29395545 0.20099857 -0.11239893
-0.11100493 0.045114685 0.112076685 -0.14916454 -0.0763339 0.016696932 -0.25771213 0.21247509
-0.1567741 -0.15040308 0.13648482 0.17352058 0.1263207 0.07594807 0.2006945 0.02265527
-0.1590609 -0.16586104 0.17123735 0.3157278 0.12046182 -0.21850683 0.12115511 -0.11444707
0.3478695 0.007637229 -0.04888512 -0.48030183 0.0665583 -0.09744892 -0.082225315 0.17202473
-0.4195544 -0.23528656 -0.21546745 -0.07193591 0.52566075 0.29567268 -0.20866057 -0.15755291
0.022327593 0.06371846 -0.10324584 0.11187061 -0.57578564 -0.03667851 -0.15294945 0.020087307
0.15426235 0.28802547 0.12446589 0.042173002 0.20273139 0.3350335 0.052308314 -0.108316176
-0.121229805 -0.25246036 -0.34849787 0.11923233 -0.12767607 -0.15859343 -0.0039285794 0.044609986
0.27389354 -0.095755264 0.12784983 0.23761986 -0.2173765 0.23409563 -0.48458353 -0.24473217
0.22777514 -0.12594864 0.09550918 0.06568169 0.10614357 0.38417783 0.041324485 -0.11892441
0.11546246 -0.2951226 -0.14440437 0.2609142 0.12938277 -0.13744512 -0.34324485 0.27899513
0.2302412 0.0068610655 0.02704891 -0.22005612 0.079520576 0.08311728 0.21416955 -0.20078246
-0.40006185 0.054655544 0.04857371 0.38876578 -0.03498425 -0.14787899 0.1837572 0.24374151
0.040905043 0.080145754 -0.0008947865 0.095641434 -0.62217027 -0.11588254 0.061970968 -0.254466
-0.044634156 -0.063101 0.011949573 -0.11083189 -0.10302133 -0.41411877 -0.22798264 0.067279935
0.0010481059 -0.08992095 0.0064952252 -0.09530909 0.2712814 -0.16833206 -0.096886754 -0.5890359
0.10090761 0.0021964768 -0.24704354 -0.10708683 0.041890405 0.051332626 0.18119071 -0.05176431
0.09557973 -0.17720193 0.2888454 -0.22056343 -0.25071275 0.010459999 0.13644852 -0.105964944
00000000: fbf3 9b3e c00b 85bc b33a 02be f351 613e
00000010: 2a9b 463e d9e1 7abd e56d a0bd 78b3 923d
00000020: 61a3 8f3c 3a71 3f3d 2472 30bd 4f7e 6cbe
00000030: 407c a9bd e2a9 d83d 139a 75bb 1a8f 5fbe
00000040: d42a 0b3e b698 3d3e 1436 59be 0680 6ebe
00000050: deeb 73bc d8d8 b03e adbb a23e 734a 883e
00000060: b965 903e 701f 41be 7128 0fbe 980b 09be
00000070: e2ef 0abe 21cb 223e 5067 c93e 0fb9 b5bd
00000080: b7aa 033e 580d 9c3d 60f1 cb3d 8773 a5bc
00000090: eae3 1fbd 78f7 eb3d ef5b 0d3d d1d8 de3b
000000a0: d1ce b5be 3429 923e 0164 123e 9859 a2be
000000b0: b031 07be 68ff 2cbe f794 623e 8aa5 39be
000000c0: 0d41 acbe 4bbb adbd 1c03 ed3d 6c8b d53d
000000d0: 539a cbbd 8baf 023d 5900 e4bd 82d5 eabd
000000e0: 1518 c83e 2bcd 873d 5174 b23c e0db 463c
000000f0: 6763 ebbd 79e3 cfbc d61d edbd 1778 46be
00000100: 4012 9cbe 858c d5bc af08 233e 0f0e 893e
00000110: a532 d2bd e229 8abe 851f 27bd a4d5 5fbe
00000120: 0440 07be da8f 14be b06d 00be 0332 5fbe
00000130: b0b3 20be d8a9 cdbd c330 9b3d dfbd c93e
00000140: 1fcc e1bd d9eb 783e 8a6a 2bbe a2ba 64be
00000150: 4543 62be 440b aa3e 0d34 14bc 293a b9be
00000160: 4c2f 423e cd20 5abd 52b6 803c 943b 9cbd
00000170: 3676 a4bc dcbf b93d 1128 d33e d5d0 b23e
00000180: 9ad7 c5be d35b 333f 898b f7bd d875 81bd
00000190: 067e e63c 5e3b 93be d5e9 45bb 9810 2dbd
000001a0: fa59 cbbd 28eb 6fbe 5059 09be 834d 8b3e
000001b0: d725 e1bc 5481 96be 92d2 4d3e 6931 e6bd
000001c0: 8e56 e3bd 2dca 383d 7688 e53d 97be 18be
000001d0: f354 9cbd 01c8 883c d8f2 83be 1293 593e
000001e0: 6489 20be 4403 1abe adc2 0b3e 61af 313e
000001f0: 375a 013e a98a 9b3d dc82 4d3e 8b97 b93c
00000200: dce0 22be 7ad7 29be d858 2f3e 13a7 a13e
00000210: b0b4 f63d 41c0 5fbe 2c20 f83d 3a63 eabd
00000220: f31b b23e b841 fa3b c33b 48bd 1fea f5be
00000230: b84f 883d 4d93 c7bd bf65 a8bd 4027 303e
00000240: d6cf d6be f6ee 70be 80a3 5cbe 2253 93bd
00000250: b491 063f 6962 973e 1eab 55be 8d55 21be
00000260: 5be8 b63c d37e 823d 8e72 d3bd 6b1c e53d
00000270: b066 13bf 353c 16bd c89e 1cbe 238e a43c
00000280: f3f6 1d3e 1378 933e f9e7 fe3d 99bd 2c3d
00000290: d198 4f3e 8389 ab3e 3e41 563d dfd4 ddbd
000002a0: 5547 f8bd 7c42 81be 506e b2be 1430 f43d
000002b0: 84bd 02be 5166 22be 50bb 80bb f6b8 363d
000002c0: c63b 8c3e 561b c4bd 11eb 023e 9f52 733e
000002d0: f297 5ebe c4b6 6f3e 551b f8be 129b 7abe
000002e0: e33d 693e aef8 00be 519a c33d 1f84 863d
000002f0: cd61 d93d f5b2 c43e dd43 293d a48e f3bd
00000300: 9577 ec3d 4f1a 97be bdde 13be 8c96 853e
00000310: eb7c 043e 6abe 0cbe cabd afbe 73d8 8e3e
00000320: 59c4 6b3e cad2 e03b ad95 dd3c 6456 61be
00000330: afdb a23d 6439 aa3d 434f 5b3e eb99 4dbe
00000340: e8d4 ccbe 7ede 5f3d 3af5 463d 4f0c c73e
00000350: a54b 0fbd 976d 17be d92a 3c3e 6097 793e
00000360: 0c8c 273d 7523 a43d 1b90 6aba a8df c33d
00000370: 8d46 1fbf d353 edbd 45d5 7d3d 5e49 82be
00000380: 4ed2 36bd 193b 81bd 24c8 433c d4fb e2bd
00000390: d9fc d2bd 6007 d4be 4874 69be 10ca 893d
000003a0: 9960 893a 7a28 b8bd e6d5 d43b 6a31 c3bd
000003b0: 65e5 8a3e 3d5f 2cbe 906c c6bd 0fcb 16bf
000003c0: a6a8 ce3d c4f2 0f3b fbf8 7cbe 5750 dbbd
000003d0: 4695 2b3d 2942 523d 0f8a 393e d006 54bd
000003e0: 4ebf c33d 6c74 35be 8be3 933e 61db 61be
000003f0: 6c5d 80be 6a60 2b3c 29b9 0b3e 2604 d9bd

network_body._body_endoder.seq_layers.0.bias f4 [128]
-0.00020402168 -0.00050772267 -0.0019790982 -0.00091071933 -0.0006436551 -0.0023201378 -0.0019768293 -0.0011174948
0.002924492 -0.002405945 -0.0031359508 0.00260395 -0.00053943275 0.00038490276 -0.0027233006 0.0018022717
-0.00420924 0.0015659219 -0.0034902294 -0.0011079843 -0.0019989917 0.0025233806 0.0030867404 -0.0031556983
0.0007437811 0.000490546 -0.0016731389 -0.0021153833 0.0005354196 0.00091340323 8.200821e-05 0.0012008358
0.0011006419 0.00376226 0.0043096542 -0.0008655635 0.00086872646 -0.0006781426 0.005247483 0.001313316
-0.0003943743 -0.0010727046 0.0021026684 -0.00015361083 0.0006045322 -0.0007306707 0.000646991 0.00037704225
-0.0008543916 -0.0002471613 0.0014767172 -0.0029333055 0.0009927133 -0.00014569555 0.0014043271 0.0009875277
0.0016893126 -0.001132032 -0.004039538 0.0038072227 -0.0028139509 -0.001065769 0.0051711965 -0.0016317128
-0.0010503732 -0.00016933061 -0.005403389 0.0018796342 -0.0044937767 -4.332888e-05 0.0005298909 -0.0038297307
-0.0031633838 0.0032901843 0.0026257453 0.0034167343 -0.0017984855 0.00049562677 -0.0022529962 -0.0012162252
0.0002662933 0.0006472994 0.0006749127 -0.008920396 0.002977073 0.0030212845 0.0014257679 0.000779945
0.00080750487 -0.0011443415 -0.0033471545 0.0008085352 0.006192291 0.00033222546 0.0011500872 -0.0014782781
-0.00044286248 0.00033677707 0.002101021 0.0022039681 -5.3510383e-05 -0.0014574534 0.0009435823 0.0022646836
-0.0021063546 0.002909159 0.00082571723 -0.000104245744 -0.00055691495 -0.0001465281 0.001008424 -0.005266242
-0.0007678288 -0.0002287596 0.0039867624 -0.0054169907 -0.0012518676 0.0006135924 0.0019920785 9.13687e-05
0.00017208415 -0.00048193513 0.00047011412 0.0017598072 -0.0009900376 0.00051274354 -0.0042696334 1.6473496e-05
00000000: a7ee 55b9 b118 05ba c2b3 01bb 57bd 6eba
00000010: f6ba 28ba 740d 18bb b18d 01bb e778 92ba
00000020: d5a8 3f3b 0fad 1dbb 8684 4dbb 08a7 2a3b
00000030: b868 0dba c6cc c939 6779 32bb 343a ec3a
00000040: aaed 89bb 9f3f cd3a 55bc 64bb c939 91ba
00000050: 8401 03bb 4d5f 253b e94a 4a3b d5cf 4ebb
00000060: 4efa 423a fc97 003a 3a4d dbba 3ea2 0abb
00000070: 675b 0c3a 7471 6f3a d3fb ab38 5d65 9d3a
00000080: 6a43 903a 4090 763b 0038 8d3b fce6 62ba
00000090: 3fbb 633a 61c5 31ba 14f3 ab3b 9323 ac3a
000000a0: 06c4 ceb9 fe99 8cba eccc 093b 9812 21b9
000000b0: 7879 1e3a 7b8a 3fba d59a 293a c1ad c539
000000c0: 40f9 5fba 6e95 81b9 688e c13a b33c 40bb
000000d0: ee1d 823a dac5 18b9 6611 b83a ee6f 813a
000000e0: ed6b dd3a b160 94ba 1a5e 84bb 9982 793b
000000f0: 436a 38bb 46b1 8bba 2473 a93b 32df d5ba
00000100: adac 89ba 578e 31b9 ea0e b1bb 0f5e f63a
00000110: 8840 93bb 08bc 35b8 60e8 0a3a 38fc 7abb
00000120: c650 4fbb 22a0 573b b214 2c3b 4aeb 5f3b
00000130: 29bb ebba f3ec 013a 01a7 13bb bf69 9fba
00000140: 489d 8b39 87af 293a a0ec 303a da26 12bc
00000150: ff1a 433b be00 463b d5e0 ba3a 3975 4c3a
00000160: bcae 533a bbfd 95ba ef5b 5bbb e1f3 533a
00000170: b4e8 ca3b 8c2e ae39 86be 963a c8c2 c1ba
00000180: ff2f e8b9 7491 b039 48b1 093b 7370 103b
00000190: 5670 60b8 0508 bfba bc5a 773a 166b 143b
000001a0: c40a 0abb 97a7 3e3b f274 583a 829e dab8
000001b0: eefd 11ba 56a5 19b9 182d 843a 7190 acbb
000001c0: 1e48 49ba 30df 6fb9 63a3 823b 0381 b1bb
000001d0: b515 a4ba 7dd9 203a 888d 023b 339d bf38
000001e0: 7d71 3439 3dac fcb9 a679 f639 55a9 e63a
000001f0: 26c4 81ba a369 063a 48e8 8bbb 9030 8a37

network_body._body_endoder.seq_layers.2.weight f4 [128, 128]
0.017759265 -0.07641214 -0.15924641 -0.022774467 0.018509448 0.009862137 0.21333626 0.15755853
0.06886369 0.07833619 -0.106771715 -0.0986334 0.040147666 -0.1474955 -0.0049259304 -0.042925473
0.07334721 0.16031134 -0.06280244 -0.080258615 0.072941795 0.047828462 0.020729579 -0.026644051
0.08747551 -0.13188885 -0.12648538 0.00073328824 -0.04197583 0.018591354 -0.004881628 -0.07243792
0.03301483 0.041167475 -0.16659722 0.074835934 0.057550434 0.030698884 0.0518347 -0.15918416
0.020638496 0.04816463 0.12732297 -0.14689253 0.088028654 0.0046321633 0.05664608 -0.13380551
0.0052268743 0.012860441 -0.088203326 -0.014340296 -0.1355867 -0.036558032 -0.100618064 -0.069621466
0.13153492 0.07046004 0.11830561 -0.11562948 -0.022714125 0.06294224 -0.058514196 -0.034613807
-0.15182583 0.122884765 -0.04050481 -0.0072689983 -0.058620516 0.025542645 0.10751429 0.17923126
0.1398647 -0.06876521 -0.10372285 -0.059760515 0.09421932 -0.084187336 0.16725814 -0.057455517
-0.040931903 -0.1342761 0.033576183 -0.033968285 0.027171943 -0.15518306 -0.027068293 0.08318773
-0.07911315 0.021744665 0.08951673 0.004810833 0.10042413 -0.15261933 -0.08304965 0.08320237
-0.017397478 0.0074334894 -0.1388945 0.006940669 0.04469014 -0.03361167 0.07545355 0.083760194
-0.03349785 0.07586398 0.07767654 -0.07600911 0.15144306 0.01920224 -0.05463935 0.072143376
0.06077817 -0.15507032 -0.02431592 0.06812311 0.14053835 0.1221197 0.07733779 0.22694919
-0.050285727 0.12774014 -0.020308372 0.06659346 0.04605209 0.039160207 0.023950946 0.14650998
0.10938086 -0.03883997 0.052054666 -0.043634903 -0.07185289 -0.03609729 0.054165643 0.107199535
-0.064492434 0.023466663 -0.011983751 0.057763454 0.054564156 0.034020767 -0.012763146 -0.03515964
-0.05222899 0.07085691 -0.03451064 0.08477247 -0.13381514 -0.050082177 -0.048194457 0.011854793
0.05548455 0.0062521836 -0.058931813 -0.03745785 0.05888351 0.09476477 -0.14520289 0.057865493
0.11491116 -0.19336249 -0.051781528 0.17779088 0.13340336 0.008087534 0.20191012 -0.0075694006
-0.041773047 0.18485056 -0.029003728 -0.089495085 -0.05209542 0.13828103 -0.047551032 -0.096448526
0.054325577 -0.055704206 0.13132459 0.047303148 0.023891611 0.027531035 0.13891858 0.12181603
-0.051276058 -0.004382595 -0.13743837 -0.0024645564 0.049144756 0.035114344 -0.036653396 0.14814487
0.07683716 0.007905766 0.09678971 -0.104083136 0.054298688 0.18715173 0.061054677 -0.0752634
-0.12203436 -0.10187591 0.033889927 -0.062385228 -0.043952193 -0.056209527 -0.043759365 -0.105244026
-0.018470012 0.12455313 -0.10695547 0.15032926 -0.16541106 -0.032632235 0.07382607 -0.111016236
-0.17076004 0.11361187 0.09136177 -0.012770244 0.016295973 -0.031851158 0.028197573 -0.1091309
0.21636203 -0.009114309 -0.02702413 -0.10026509 -0.10289823 0.10568159 -9.1898444e-05 0.057371944
-0.14440417 -0.0944359 -0.12380306 0.019074038 -0.10927124 -0.114112355 0.029979704 0.09993397
-0.04303544 -0.062275037 -0.0153303975 -0.02456065 0.002799402 0.005957099 -0.26237184 -0.01665731
-0.006570937 -0.06586672 0.13093898 -0.041086286 0.046038125 0.10329549 0.019359734 -0.1174808
00000000: e17b 913c f87d 9cbd 7e11 23be 8591 babc
00000010: 20a1 973c cd94 213c d274 5a3e 0657 213e
00000020: 6808 8d3d b96e a03d 21ab dabd 4f00 cabd
00000030: e171 243d 0f09 17be b369 a1bb 9fd2 2fbd
00000040: 1037 963d a828 243e 919e 80bd a15e a4bd
00000050: 8262 953d c7e7 433d 14d1 a93c a044 dabc
00000060: 5c26 b33d df0d 07be 6285 01be 243a 403a
00000070: d9ee 2bbd e54c 983c 10f6 9fbb 555a 94bd
00000080: 8f3a 073d 3a9f 283d 7698 2abe 9543 993d
00000090: 01ba 6b3d 3a7c fb3c 9f50 543d 2c01 23be
000000a0: 1012 a93c 4648 453d f460 023e ff6a 16be
000000b0: 5e48 b43d 67c9 973b b805 683d 5004 09be
000000c0: 3346 ab3b 99b4 523c f2a3 b4bd 90f3 6abc
000000d0: 3dd7 0abe e0bd 15bd d810 cebd b395 8ebd
000000e0: 17b1 063e 5a4d 903d 364a f23d 26cf ecbd
000000f0: f912 babc dce7 803d 95ac 6fbd 35c7 0dbd
00000100: 3b78 1bbe 02ab fb3d 5fe8 25bd c730 eebb
00000110: 111c 70bd cf3e d13c 7430 dc3d 6688 373e
00000120: b138 0f3e c6d4 8cbd a56c d4bd 71c7 74bd
00000130: 0ff6 c03d 696a acbd b845 2b3e 7a56 6bbd
00000140: 36a8 27bd ad7f 09be 2e87 093d 5422 0bbd
00000150: b297 de3c 4fe8 1ebe 53be ddbc 545e aa3d
00000160: 1306 a2bd de21 b23c 8c54 b73d 31a4 9d3b
00000170: 2bab cd3d 3e48 1cbe ef15 aabd 0166 aa3d
00000180: 2885 8ebc a194 f33b 5c3a 0ebe 8d6e e33b
00000190: 020d 373d 64ac 09bd 6487 9a3d 778a ab3d
000001a0: 0b35 09bd 935e 9b3d e114 9f3d aaaa 9bbd
000001b0: e413 1b3e 044e 9d3c 83cd 5fbd e8bf 933d
000001c0: 88f2 783d c1ca 1ebe 2e32 c7bc 2184 8b3d
000001d0: 49e9 0f3e e519 fa3d 4663 9e3d 5e65 683e
000001e0: 68f8 4dbd 50ce 023e be5d a6bc 2762 883d
000001f0: 1ea1 3c3d 7466 203d c634 c43c b606 163e
00000200: 1303 e03d a916 1fbd 4637 553d 83ba 32bd
00000210: 9c27 93bd c1da 13bd cbdc 5d3d 6e8b db3d
00000220: 9c14 84bd 293d c03c 7f57 44bc 5f99 6c3d
00000230: aa7e 5f3d 5c59 0b3d 841c 51bc 8e03 10bd
00000240: 11ee 55bd 6d1d 913d 075b 0dbd 309d ad3d
00000250: d606 09be f822 4dbd 8d67 45bd 9b3a 423c
00000260: c443 633d 1edf cc3b 7c62 71bd 676d 19bd
00000270: d62f 713d 0814 c23d 11b0 14be 5e04 6d3d
00000280: 8b56 eb3d d100 46be de18 54bd d00e 363e
00000290: e49a 083e 9481 043c 87c1 4e3e bc08 f8bb
000002a0: 371a 2bbd 7749 3d3e 3a99 edbc 3349 b7bd
000002b0: 0262 55bd 8b99 0d3e dfc4 42bd ce86 c5bd
000002c0: 7f84 5e3d 182a 64bd f479 063e f2c0 413d
000002d0: 57b8 c33c c488 e13c ac40 0e3e af7a f93d
000002e0: d806 52bd df9b 8fbb a5bc 0cbe 6584 21bb
000002f0: 034c 493d 0fd4 0f3d df21 16bd 4ab3 173e
00000300: cd5c 9d3d 3087 013c af39 c63d 8a29 d5bd
00000310: 4d68 5e3d b4a4 3f3e 7814 7a3d b323 9abd
00000320: 27ed f9bd 51a4 d0bd 2ad0 0a3d a787 7fbd
00000330: 3707 34bd f63b 66bd 053d 33bd 2e8a d7bd
00000340: 6c4e 97bc b615 ff3d 780b dbbd eaef 193e
00000350: 8461 29be 61a9 05bd 1f32 973d 7b5c e3bd
00000360: b8db 2ebe 57ad e83d e11b bb3d 493a 51bc
00000370: 227f 853c 5c76 02bd 99fe e63c 0580 dfbd
00000380: 028e 5d3e 2f54 15bc b561 ddbc c957 cdbd
00000390: 4fbc d2bd 976f d83d 9ab9 c0b8 d8fe 6a3d
000003a0: b0de 13be 9c67 c1bd 758c fdbd 2841 9c3c
000003b0: 9ac9 dfbd bdb3 e9bd ff97 f53c 2eaa cc3d
000003c0: ee45 30bd 1c14 7fbd 592c 7bbc 6b33 c9bc
000003d0: 2c76 373b c533 c33b 9a55 86be e974 88bc
000003e0: 0451 d7bb 22e5 86bd de14 063e 184a 28bd
000003f0: 7992 3c3d 968c d33d 4e98 9e3c c699 f0bd

network_body._body_endoder.seq_layers.2.bias f4 [128]
-8.63116e-05 -0.00072602916 -0.0034661102 0.00033248236 -0.0005320087 -0.00045135387 0.0008011775 0.0034536975
0.0020741983 -0.0007102243 -0.0019488458 -0.0007957807 0.00028429047 -0.0008936814 0.0010203123 0.00016756005
0.00089970266 -0.00097410864 -0.0012460889 -0.00081675214 -0.00071678706 0.0005521902 -0.0009917477 -2.9677374e-05
0.00036549245 2.4538629e-05 0.0016880968 2.32631e-05 0.00031717512 0.0007618244 -0.0017221641 4.4377484e-06
-0.0011688042 0.00011882838 -0.0012353999 0.0028131723 -0.0006988059 0.0006331989 0.0005137865 -0.0012747013
0.00029694493 -0.0024993455 -0.0013535355 -0.0019836866 -0.00068312325 -0.00035666724 0.0007929456 -0.0027516005
0.0039149937 -0.0038070783 -2.8778904e-05 0.0013775323 0.007161052 0.0028857624 0.0011335536 -0.00048677443
-0.00048531892 -0.0011096378 0.00029241122 0.0012377129 0.003852089 0.0018583032 -0.0029588754 -0.0015642415
0.001482635 0.0010434801 0.0002945128 -0.0018335588 0.0021157397 -7.387565e-05 -0.0010691691 -0.00062926835
0.0059038354 0.0042431313 3.1178053e-05 0.00036655983 -0.00022141097 0.0011491746 -0.0010848712 0.0028479188
-0.0011237778 -0.0007249047 -0.00033758034 0.00039041723 0.0007561473 0.00039166643 0.001167544 0.00058391306
0.0009942292 -0.00039716333 -0.00075893936 -0.00043531417 0.0017663904 0.00042788594 -0.0026683852 -0.0005797006
0.0012182937 -0.0017399662 6.2664796e-05 0.0004352596 0.0037930843 0.00074190996 0.00055807916 -0.001028341
-0.00070799683 -0.00045890285 0.0026663765 -0.00091253204 0.0013957731 0.001265638 0.0032005536 0.0006807618
-0.00043129025 0.0004993663 0.00010210178 -0.0011525832 -0.0012973578 0.00029059377 0.0043896893 0.00038063445
-0.00042048006 0.0005147995 0.003397699 -0.00080355484 0.0010854147 -0.0009081898 -0.00046897685 0.0013203289
00000000: 3002 b5b8 fe52 3eba ae27 63bb 0751 ae39
00000010: 8076 0bba b1a3 ecb9 1d06 523a 6e57 623b
00000020: 46ef 073b 592e 3aba 6a70 ffba f09b 50ba
00000030: d20c 9539 f245 6aba 00bc 853a 0fb3 2f39
00000040: 06da 6b3a 535b 7fba ce53 a3ba 4f1b 56ba
00000050: c4e6 3bba dbc0 103a 88fd 81ba adf3 f8b7
00000060: 919f bf39 4ed8 cd37 2143 dd3a 2025 c337
00000070: 864a a639 2cb5 473a 3dba e1ba f8e7 9436
00000080: 9032 99ba 8033 f938 24ed a1ba 335d 383b
00000090: 1230 37ba 42fd 253a a1af 063a e113 a7ba
000000a0: 46af 9b39 0fcc 23bb 1d69 b1ba bd00 02bb
000000b0: a013 33ba 11ff bab9 aedd 4f3a 3254 34bb
000000c0: 5949 803b 2d80 79bb 3a6a f1b7 508e b43a
000000d0: 42a7 ea3b 0f1f 3d3b bf93 943a c235 ffb9
000000e0: 6772 feb9 4471 91ba c54e 9939 c13a a23a
000000f0: 5473 7c3b 4f92 f33a b1e9 41bb 3c07 cdba
00000100: fa54 c23a 62c5 883a d768 9a39 0654 f0ba
00000110: 39a8 0a3b b0ed 9ab8 5d23 8cba 7cf5 24ba
00000120: f674 c13b f709 8b3b 2ec5 0238 d42e c039
00000130: 8e2a 68b9 e79f 963a 3d32 8eba 26a4 3a3b
00000140: ba4b 93ba 8807 3eba 44fd b0b9 eab0 cc39
00000150: 3038 463a 9458 cd39 4708 993a be11 193a
00000160: cc50 823a 5c3a d0b9 8ff3 46ba e13a e4b9
00000170: 3a86 e73a e155 e039 13e0 2ebb 0cf7 17ba
00000180: 27af 9f3a 940f e4ba e86a 8338 8e33 e439
00000190: 6595 783b bc7c 423a 0f4c 123a 66c9 86ba
000001a0: dd98 39ba e698 f0b9 60be 2e3b fd36 6fba
000001b0: 60f2 b63a c4e3 a53a 61c0 513b 2775 323a
000001c0: cc1e e2b9 e8e7 023a 7a1f d638 4612 97ba
000001d0: 1b0c aaba d65a 9839 62d7 8f3b e48f c739
000001e0: e173 dcb9 9cf3 063a eeab 5e3b a7a5 52ba
000001f0: 7944 8e3a 9613 6eba 02e1 f5b9 e30e ad3a

action_model._continuous_distribution.log_sigma f4 [1, 2]
-0.008432214 -0.010433798
00000000: 4527 0abc 85f2 2abc

action_model._continuous_distribution.mu.weight f4 [2, 128]
-0.030313652 -0.044686995 0.0023251753 0.013547541 0.002867144 0.008621786 0.018278785 -0.027322287
-0.008150815 -0.02308212 0.0018597025 -0.028103685 -0.041505463 0.017663257 0.03795966 -0.01803319
-0.023689633 -0.026079124 -0.021077046 0.0073398855 0.0072340155 0.019921131 -0.004490259 0.0071857264
0.020799434 -0.016215451 -0.017894827 -0.015538183 0.012172603 0.017193712 -0.005470069 -0.018820181
0.051059756 0.027605178 -0.012632213 -0.015659327 -0.0023879968 -0.034754325 0.01448385 0.008128141
0.0028873926 0.015070294 -0.016185593 0.0030819913 0.021648338 0.008392483 -0.01621404 -0.023885466
-0.0040145586 0.016118174 0.010267759 -0.0428907 -0.018915692 -0.004037716 0.013811323 0.020028738
0.016263751 0.00702931 -0.012342883 0.0019711533 -0.0061485725 -0.0347763 0.0098419925 -0.038000505
-0.009768964 0.014480766 0.028965127 0.0033776448 0.0006176988 0.0025039185 -0.018718416 -0.042961314
0.009461984 -0.006953926 -0.02314447 0.009382211 0.003008956 0.009337637 0.00995611 0.0018422357
-0.012701186 -0.020276284 -0.017925749 -0.0030873925 -0.021512525 0.027527535 0.009381039 0.020523595
0.021082772 -0.03149701 -0.0522283 0.010760839 0.0032758934 0.036448326 -0.023967072 0.013116059
0.035362553 -0.019494006 0.024314137 0.023162909 -0.009118901 0.025926959 0.0049845087 -0.02374259
-0.0070380885 -0.019125342 0.0013945777 0.013429974 -0.013119434 0.013767941 -0.011979742 -0.021033937
-0.026773699 0.026774524 -0.017767282 -0.0073517608 -0.0032781071 0.015760902 -0.0005096266 0.010226826
-0.020151317 0.01799652 -0.0050349077 -0.044182114 0.014060688 -0.026655214 -0.022771532 0.01129442
-0.040133983 -0.01154671 -0.014901666 0.031327445 0.0020533097 0.016150814 -0.0026433638 -0.0011852973
0.02168566 0.036687106 -0.0148093905 -0.017152974 -0.017845368 -0.03379013 0.0034448605 0.0050461455
-0.009739034 -0.010994183 0.026002947 0.009391399 0.019555507 -0.00058423897 -0.0026977712 0.0064631756
0.033024132 -0.009483679 0.006918556 -0.011577367 -0.008082308 0.003295548 -0.026387302 -0.005093687
-0.013240804 -0.0054095336 0.02382972 -0.0035874625 -0.0020125369 -0.0025002859 0.01071854 0.027764317
-0.04317552 -0.01414044 0.03811402 -0.046146777 -0.00022022877 0.008745194 0.009557795 0.01668686
0.0058030067 -0.0024683278 0.0047017327 0.008012945 0.019525003 0.009883736 -0.027706586 0.017853979
0.003844025 -0.0004187966 0.016022453 0.020905007 0.0282996 0.020261101 -0.006966048 -0.009649485
0.006489571 -0.023731386 0.02284613 0.011466118 0.009081179 0.0005933733 0.0037649581 0.01475089
0.011644302 0.014596924 -0.030980393 0.026283864 0.002431894 -0.02901467 0.024233894 0.034463283
0.0031644157 -0.0020300136 0.043762382 0.011031545 0.00032965367 0.021167634 -0.040601585 0.013779859
-0.019629467 0.013457475 -0.008232575 -0.004623287 0.012439892 0.013917752 -0.02558283 0.0067759706
0.013507498 -0.0074338936 -0.0029679956 0.0097533045 0.023267092 -0.002778095 -0.001928633 0.011138546
-0.031086816 -0.01358141 0.038495895 0.006964882 0.023975333 0.025592199 0.04350727 -0.024375763
-0.0036302414 0.01168103 -0.03300896 -0.0011686515 -0.00052031875 -0.010359843 0.0328401 0.01083575
-0.0009796405 0.009006347 0.006802126 -0.00021457237 -0.028038621 -0.024098365 -0.016379066 -0.007868236
00000000: 5654 f8bc b609 37bd f861 183b 81f6 5d3c
00000010: b2e6 3b3b 6442 0d3c 64bd 953c fdd2 dfbc
00000020: ff8a 05bc b716 bdbc 43c1 f33a b339 e6bc
00000030: a201 2abd 89b2 903c 977b 1b3d 57ba 93bc
00000040: c310 c2bc e3a3 d5bc c5a9 acbc 6c83 f03b
00000050: 520b ed3b a431 a33c 0623 93bb 3e76 eb3b
00000060: 9363 aa3c 44d6 84bc 2c98 92bc dd93 7ebc
00000070: 996f 473c d4d9 8c3c 443e b3bb c82c 9abc
00000080: 0924 513d 4124 e23c 57f7 4ebc fd47 80bc
00000090: f07f 1cbb 8d5a 0ebd ac4d 6d3c e52b 053c
000000a0: 693a 3d3b 65e9 763c a697 84bc 3cfb 493b
000000b0: db57 b13c a080 093c 4ed3 84bc 74ab c3bc
000000c0: 8f8c 83bb 430a 843c 1a3a 283c 29ae 2fbd
000000d0: 15f5 9abc d14e 84bb e348 623c 4f13 a43c
000000e0: 8f3b 853c 2056 e63b ce39 4abc 772e 013b
000000f0: f779 c9bb 9871 0ebd 4f40 213c 6ba6 1bbd
00000100: 010e 20bc bc40 6d3c 4648 ed3c 7a5b 5d3b
00000110: 11ed 213a c818 243b 5d57 99bc 34f8 2fbd
00000120: 7006 1b3c c2dd e3bb 7999 bdbc d8b7 193c
00000130: e831 453b e3fc 183c f41e 233c 2c77 f13a
00000140: a318 50bc 731a a6bc 05d9 92bc da55 4abb
00000150: 093b b0bc 6d81 e13c eeb2 193c 1921 a83c
00000160: c7b5 ac3c 0203 01bd 58ed 55bd 3b4e 303c
00000170: 5fb0 563b d74a 153d 9856 c4bc bde4 563c
00000180: 53d8 103d e5b1 9fbc 712e c73c 24c0 bd3c
00000190: 7167 15bc c664 d43c 1755 a33b d27f c2bc
000001a0: c49f e6bb c0ac 9cbc 43ca b63a 6509 5c3c
000001b0: e5f2 56bc ee92 613c ae46 44bc 5d4f acbc
000001c0: 8454 dbbc 3f56 db3c b18c 91bc 0ae7 f0bb
000001d0: 83d5 56bb 021d 813c 7698 05ba 6b8e 273c
000001e0: 6014 a5bc 706d 933c defb a4bb 4ef8 34bd
000001f0: cd5e 663c 095c dabc 5d8b babc 3b0c 393c
00000200: 8863 24bd 692e 3dbc 1e26 74bc 3551 003d
00000210: d290 063b b64e 843c 493c 2dbb fa5b 9bba
00000220: 20a6 b13c 3845 163d 16a3 72bc 6584 8cbc
00000230: 7330 92bc 8567 0abd 2bc3 613b 235a a53b
00000240: 7890 1fbc f220 34bc 2204 d53c 62de 193c
00000250: df32 a03c 9d27 19ba 17cd 30bb 0cc9 d33b
00000260: 5044 073d 6f61 1bbc 0eb5 e23b ffae 3dbc
00000270: a86b 04bc 1ffa 573b 2f2a d8bc f2e8 a6bb
00000280: f5ef 58bc 7542 b1bb 8c36 c33c a21b 6bbb
00000290: c4e4 03bb d6db 23bb d19c 2f3c fe71 e33c
000002a0: d0d8 30bd 4ead 67bc 721d 1c3d 6704 3dbd
000002b0: 36ed 66b9 0148 0f3c 4c98 1c3c e2b2 883c
000002c0: 2627 be3b abc3 21bb fe10 9a3b ba48 033c
000002d0: e6f2 9f3c 65ef 213c ecf8 e2bc 8242 923c
000002e0: 0aec 7b3b ee91 dbb9 8541 833c fa40 ab3c
000002f0: 90d4 e73c 9cfa a53c 7243 e4bb e018 1ebc
00000300: 78a6 d43b 5368 c2bc cf27 bb3c 62dc 3b3c
00000310: 3ac9 143c 9c8c 1b3a 84bd 763b b8ad 713c
00000320: bec7 3e3c f027 6f3c 98ca fdbc 4251 d73c
00000330: 6960 1f3b 2cb0 edbc 2986 c63c 5f29 0d3d
00000340: 1662 4f3b fa09 05bb 2f40 333d a7bd 343c
00000350: 5ed5 ac39 bf67 ad3c d94d 26bd ebc4 613c
00000360: facd a0bc be7c 5c3c ece1 06bc f17e 97bb
00000370: b0d0 4b3c 4807 643c 1593 d1bc f608 de3b
00000380: 8e4e 5d3c 0598 f3bb b482 42bb 53cc 1f3c
00000390: a19a be3c b310 36bb 2fca fcba 737e 363c
000003a0: c7a9 febc 9084 5ebc dfad 1d3d aa39 e43b
000003b0: eb67 c43c bba6 d13c ae34 323d aeaf c7bc
000003c0: 58e9 6dbb ca61 3f3c 6734 07bd 702d 99ba
000003d0: 0066 08ba 55bc 29bc 5783 063d 6e88 313c
000003e0: 4867 80ba 5b8f 133c 5ee4 de3b d5fe 60b9
000003f0: 40b1 e5bc ef69 c5bc 642d 86bc c6e9 00bc

action_model._continuous_distribution.mu.bias f4 [2]
0.000778492 -0.0012943287
00000000: b713 4c3a 77a6 a9ba

exp_avg f4 [128, 22]
1.5575906e-06 -7.526963e-06 1.9637673e-07 -9.062957e-06 -1.8327706e-05 -1.7381175e-05 -1.8905666e-08 -1.1216584e-05
8.7385504e-10 -9.508563e-06 -3.8406683e-06 -1.2369237e-05 0.0 -7.1395075e-06 3.3287663e-05 -1.3691539e-08
0.00064929057 0.0 -1.6878947e-05 0.00046592907 0.00019096058 -0.00021248318 5.194182e-06 4.5697775e-06
4.6441332e-06 4.2386923e-06 2.8118704e-06 3.2137277e-06 -2.2627299e-07 1.0136309e-06 8.6901805e-11 7.755699e-07
-5.3148433e-08 8.3528954e-07 0.0 5.7461557e-07 -3.0914707e-06 -1.031527e-09 -9.473526e-05 0.0
1.414359e-06 -3.90422e-05 5.84832e-06 -3.7451418e-06 2.6892308e-06 8.862863e-06 3.939049e-06 9.8795335e-06
2.9125438e-06 8.840559e-06 -4.3674942e-07 6.1167502e-06 4.6114262e-10 5.356045e-06 -1.1016499e-06 4.2308034e-06
0.0 4.116951e-06 -8.108592e-06 1.933891e-09 -0.00039818365 0.0 8.8711295e-06 -0.00024488015
-1.537662e-05 -0.00014956381 5.468395e-06 -1.809359e-05 -6.638438e-07 -2.3310775e-05 -3.1499148e-06 -1.8837738e-05
-2.469865e-06 -1.9981015e-05 5.925186e-10 -1.179215e-05 7.7517274e-07 -1.4128036e-05 0.0 -9.196831e-06
5.4550885e-05 1.864385e-09 0.0010467436 0.0 -2.3653309e-05 0.0006529296 0.0001110445 4.7233607e-05
1.0191345e-05 -9.768935e-06 -3.703687e-06 -1.8312521e-05 5.5064593e-06 -8.732119e-06 -5.7782154e-07 -1.4806405e-05
4.677629e-10 -7.412321e-06 1.6160413e-06 -9.937764e-06 0.0 -6.0706166e-06 4.5477325e-05 -5.818633e-09
0.00071541383 0.0 -1.695727e-05 0.00046809146 0.0002842439 1.7354869e-05 8.8558e-06 9.563242e-06
7.570671e-06 8.927127e-06 4.5185393e-06 6.915413e-06 4.859311e-07 3.8685334e-06 3.3123865e-10 3.1556979e-06
-3.5675734e-07 2.892384e-06 0.0 2.4307465e-06 -7.7742025e-06 -2.686535e-09 -0.00028171536 0.0
5.443538e-06 -0.00015026436 -3.8405717e-05 1.7650555e-05 3.7773373e-10 6.8181185e-09 -9.787454e-10 6.782142e-09
2.4204028e-09 8.373403e-09 -8.3476315e-10 1.0642353e-08 -1.7770312e-12 1.0395462e-08 8.3937063e-10 1.0254664e-08
0.0 8.372572e-09 -1.4838742e-08 1.814871e-12 -6.4889883e-07 0.0 1.7778413e-08 -4.907585e-07
3.1645847e-08 2.5560627e-07 0.00012360467 0.00011237615 0.00010404012 0.00010165725 4.7141184e-05 6.838369e-05
3.4490809e-06 2.8452432e-05 6.5876193e-09 1.2087572e-05 -6.815074e-06 1.40595785e-05 0.0 9.099236e-06
-8.567437e-05 -5.4461303e-08 -0.0021396887 0.0 2.6848726e-05 -0.00074113684 0.00034807765 -0.0003475938
1.2177607e-06 9.0795794e-07 1.1457593e-06 8.4230317e-07 6.4748787e-07 5.2377624e-07 4.6750888e-08 6.04174e-08
4.3060215e-11 -8.3669285e-08 -1.8793115e-08 -2.5615847e-09 0.0 -6.985121e-08 -7.737955e-07 -5.1320687e-10
-8.086429e-06 0.0 -5.8359877e-08 1.6109778e-06 2.4148742e-06 2.0733667e-06 -2.9636988e-07 -2.0661398e-07
-2.4503555e-07 -1.7845817e-07 -3.6759172e-07 -2.2791943e-07 6.846825e-08 -5.8623087e-08 4.9462608e-11 -7.0329136e-08
-4.1540876e-08 -1.24304e-07 0.0 -5.2959127e-08 5.5069256e-07 -3.0851185e-10 6.568317e-06 0.0
-1.5062676e-07 4.1579256e-06 3.0316053e-06 -9.395911e-06 2.7589908e-06 2.0190519e-05 7.0983147e-06 2.3718449e-05
-8.7574745e-06 1.5710682e-05 1.6292252e-06 1.6814949e-05 3.8410315e-09 1.1233173e-05 -2.0652615e-06 9.760785e-06
0.0 8.591487e-06 -2.0676876e-05 -7.3594038e-09 -0.00092043506 0.0 1.9190447e-05 -0.0005297361
6.21601e-05 -0.0004782344 8.9581937e-07 8.65091e-07 9.092201e-07 8.926021e-07 1.2686492e-06 1.0432047e-06
-2.5854632e-07 7.0593146e-08 1.6593076e-11 7.055348e-08 -8.644837e-09 1.3665559e-07 0.0 4.0129507e-08
00000000: 680e d135 1f90 fcb6 a0db 5234 1b0d 18b7
00000010: 73be 99b7 cacd 91b7 0066 a2b2 dd2e 3cb7
00000020: 1534 7030 f886 1fb7 17df 80b6 7885 4fb7
00000030: 0000 0000 e78f efb6 5b9e 0b38 0638 6bb2
00000040: 2735 2a3a 0000 0000 4397 8db7 f147 f439
00000050: 973c 4839 05ce 5eb9 af49 ae36 1756 9936
00000060: cdd4 9b36 173a 8e36 91b3 3c36 6cab 5736
00000070: 72f5 72b4 180c 8835 5e19 bf2e c230 5035
00000080: 5245 64b3 a938 6035 0000 0000 483f 1a35
00000090: 1077 4fb6 a1c5 8db0 9bac c6b8 0000 0000
000000a0: 01d5 bd35 3ec1 23b8 b03c c436 0c55 7bb6
000000b0: a278 3436 b5b1 1437 2c2c 8436 46c0 2537
000000c0: 1f75 4336 e951 1437 627a eab4 7c3e cd36
000000d0: 0e84 fd2f 14b8 b336 67dc 93b5 53f6 8d36
000000e0: 0000 0000 5724 8a36 230a 08b7 5fe5 0431
000000f0: 4ec3 d0b9 0000 0000 36d5 1437 4263 80b9
00000100: 0afd 80b7 3bd4 1cb9 287d b736 b0c7 97b7
00000110: 0033 32b5 828b c3b7 2063 53b6 bc05 9eb7
00000120: f5bf 25b6 e79c a7b7 cade 2230 e6d6 45b7
00000130: 7715 5035 7407 6db7 0000 0000 174c 1ab7
00000140: 91cd 6438 9c1e 0031 e332 893a 0000 0000
00000150: 186b c6b7 5d29 2b3a 90e0 e838 b31c 4638
00000160: 7efb 2a37 42e5 23b7 dc8c 78b6 d79d 99b7
00000170: 20c4 b836 2a80 12b7 981b 1bb5 0669 78b7
00000180: e393 0030 5ab7 f8b6 c2e6 d835 5fba 26b7
00000190: 0000 0000 33b2 cbb6 e8be 3e38 3ded c7b1
000001a0: 9c8a 3b3a 0000 0000 763f 8eb7 2c6a f539
000001b0: 9206 9539 4c95 9137 5f93 1437 d071 2037
000001c0: 9207 fe36 b8c5 1537 f59d 9736 f20a e836
000001d0: ee70 0235 73ce 8136 b219 b62f 7ac6 5336
000001e0: 5b88 bfb4 c71a 4236 0000 0000 e81f 2336
000001f0: f26d 02b7 069e 38b1 32b3 93b9 0000 0000
00000200: a3a7 b636 4890 1db9 d315 21b8 4710 9437
00000210: 4ca9 cf2f ce44 ea31 8b84 86b0 5a08 e931
00000220: 2d54 2631 9eda 0f32 3c75 65b0 90d5 3632
00000230: 4c18 faab ba97 3232 75b9 6630 7d2c 3032
00000240: 0000 0000 f6d6 0f32 7aed 7eb2 9e6b ff2b
00000250: fd2f 2eb5 0000 0000 25b7 9832 abbc 03b5
00000260: faea 0733 423a 8934 e09b 0139 7cab eb38
00000270: 1d30 da38 d230 d538 76b9 4538 3769 8f38
00000280: c276 6736 22ad ee37 5059 e231 bacb 4a37
00000290: 0aad e4b6 6ee1 6b37 0000 0000 eca8 1837
000002a0: 14ac b3b8 d6e8 69b3 053a 0cbb 0000 0000
000002b0: 3339 e137 da48 42ba 317e b639 403d b6b9
000002c0: f071 a335 65ba 7335 fdc7 9935 a21a 6235
000002d0: 07cf 2d35 a199 0c35 25cb 4833 d1be 8133
000002e0: 7e61 3d2e adad b3b3 7f6e a1b2 e007 30b1
000002f0: 0000 0000 1c01 96b3 d2b6 4fb5 b911 0db0
00000300: f3aa 07b7 0000 0000 5da7 7ab3 c738 d835
00000310: 390f 2236 2b24 0b36 c41c 9fb4 9ed9 5db4
00000320: 6e8d 83b4 359e 3fb4 6c59 c5b4 04ba 74b4
00000330: d208 9333 c4c8 7bb3 f289 592e da07 97b3
00000340: ad6a 32b3 6c78 05b4 0000 0000 2d75 63b3
00000350: 4ed3 1335 2f9b a9af 6a65 dc36 0000 0000
00000360: f8bb 21b4 4f84 8b36 9572 4b36 21a3 1db7
00000370: 1a27 3936 cf5e a937 0f2e ee36 fbf6 c637
00000380: 11ed 12b7 6fca 8337 c0ab da35 d40d 8d37
00000390: 12fa 8331 1c76 3c37 ec98 0ab6 41c2 2337
000003a0: 0000 0000 2824 1037 4173 adb7 00de fcb1
000003b0: 5a49 71ba 0000 0000 2cfb a037 fddd 0aba
000003c0: f35b 8238 89bb fab9 3d78 7035 9a38 6835
000003d0: 2111 7435 269b 6f35 7446 aa35 3e04 8c35
000003e0: 56ce 8ab4 fe98 9733 49f4 912d 3083 9733
000003f0: 6584 14b2 9abb 1234 0000 0000 dc5a 2c33

exp_avg_sq f4 [128, 22]
3.0702133e-10 6.6558875e-10 3.5488062e-10 7.705238e-10 1.5599129e-10 5.416064e-10 4.548164e-11 3.7899017e-10
1.4693443e-16 1.7793836e-10 3.3533757e-12 2.0601831e-10 0.0 1.04900054e-10 1.8569791e-09 2.0864783e-16
1.1563397e-06 0.0 5.69512e-10 4.3396247e-07 2.0382489e-08 2.2748743e-08 3.55645e-12 3.4724e-12
3.1790252e-12 3.316454e-12 2.2771778e-12 2.5886413e-12 7.487555e-14 7.4789355e-13 1.5131828e-18 3.7558666e-13
2.5064762e-15 4.0118565e-13 0.0 2.2108613e-13 4.216238e-12 6.6640643e-19 2.9100933e-09 0.0
1.1485037e-12 8.7514823e-10 4.5224487e-11 1.0010225e-10 2.0033142e-10 2.9989694e-10 2.0219386e-10 3.2006126e-10
1.4878915e-10 2.55091e-10 9.49634e-12 1.1763189e-10 3.8629556e-17 5.889354e-11 3.6307616e-13 6.438899e-11
0.0 3.4696617e-11 6.0670974e-10 4.236865e-17 4.0177517e-07 0.0 1.8361723e-10 1.3991449e-07
4.2092982e-09 1.2605279e-08 5.4219647e-09 5.7829417e-09 4.808734e-09 5.4697953e-09 3.5052639e-09 4.549682e-09
3.7078965e-11 8.7916596e-10 6.849331e-17 5.971611e-10 9.620935e-13 5.2641924e-10 0.0 3.4578937e-10
3.7012835e-09 5.788127e-16 4.5793154e-06 0.0 1.6374129e-09 1.2476921e-06 6.7449314e-08 1.7862348e-07
4.5688857e-09 4.8333275e-09 4.2830135e-09 4.682642e-09 3.18677e-09 3.9158787e-09 8.085288e-11 7.917316e-10
4.2860678e-17 5.181152e-10 1.5781091e-12 4.5600612e-10 0.0 2.9935915e-10 3.6101167e-09 7.2392354e-16
3.873499e-06 0.0 1.4093896e-09 1.073941e-06 7.0167545e-08 2.41374e-07 2.15936e-11 2.7290496e-11
2.0168247e-11 2.7979319e-11 1.919689e-11 2.4072728e-11 1.7253924e-12 1.1663661e-11 2.1659238e-17 6.2946415e-12
5.0327543e-14 6.3096104e-12 0.0 3.7467256e-12 7.021312e-11 2.0791888e-17 3.701208e-08 0.0
1.848726e-11 1.4087105e-08 1.667735e-09 3.316513e-09 8.691527e-18 1.606736e-16 1.7121558e-17 2.0333292e-16
9.892076e-18 1.7842111e-16 5.0782194e-18 2.328159e-16 6.38394e-22 1.4600786e-16 1.3056736e-18 1.5807539e-16
0.0 8.7479736e-17 1.1609625e-15 1.1566828e-22 7.2981036e-13 0.0 4.582242e-16 3.4916224e-13
1.3124016e-14 1.7695037e-14 3.2515564e-09 4.537374e-09 2.9201757e-09 4.641714e-09 2.040296e-09 3.756747e-09
2.605372e-10 1.70424e-09 8.673791e-15 8.511979e-10 1.3547358e-11 8.8189755e-10 0.0 4.981819e-10
7.661525e-09 9.509107e-16 5.711623e-06 0.0 2.5795954e-09 1.965627e-06 1.0036455e-07 9.1618645e-08
3.0354365e-13 3.5215353e-13 2.649639e-13 3.4288986e-13 2.59587e-13 3.3226015e-13 2.2019424e-15 1.2006048e-13
3.592593e-19 7.3460335e-14 2.9149345e-16 7.669887e-14 0.0 4.2940244e-14 7.283176e-13 1.1203873e-19
4.546425e-10 0.0 2.1984847e-13 1.675224e-10 1.4568569e-11 2.34109e-11 1.3098237e-13 6.415397e-13
2.2261945e-13 8.2674617e-13 8.383058e-14 5.917245e-13 4.5684004e-14 5.885017e-13 4.8765446e-19 2.6148723e-13
7.4616874e-16 3.2307813e-13 0.0 1.5506695e-13 3.2722041e-12 2.4969688e-19 1.6493023e-09 0.0
8.838133e-13 6.7345696e-10 1.7419363e-11 1.6244901e-11 5.5562577e-10 2.4161333e-09 1.0231368e-09 3.2062353e-09
5.431547e-10 2.3855415e-09 1.11703896e-10 1.999155e-09 2.8524156e-15 9.077333e-10 2.7415108e-12 1.1049405e-09
0.0 5.3676263e-10 1.1285807e-08 6.761356e-16 5.874182e-06 0.0 3.0445653e-09 2.3199277e-06
3.640746e-08 6.826513e-08 2.9138505e-13 5.6557314e-13 3.2001208e-13 6.4387807e-13 2.385824e-13 5.5496206e-13
7.512836e-14 3.940628e-13 5.210575e-20 1.8665379e-13 1.2895555e-15 2.300225e-13 0.0 1.10042414e-13
00000000: 69c9 a82f a5f4 3630 0219 c32f cbcc 5330
00000010: a583 2b2f 2ae0 1430 c607 482e 205a d02f
00000020: 6467 2925 32a5 432f 0cf9 6b2c 0085 622f
00000030: 0000 0000 7bad e62e a538 ff30 f88d 7025
00000040: 8833 9b35 0000 0000 d88b 1c30 59fb e834
00000050: 9115 af32 0469 c332 4f43 7a2c 3359 742c
00000060: 3ab4 5f2c ed5f 692c fd3d 202c d128 362c
00000070: d19a a829 6983 522b 6e4e df21 be6f d32a
00000080: 539c 3427 f2d8 e12a 0000 0000 bdeb 782a
00000090: 7f58 942c 3fb0 4421 e7fa 4731 0000 0000
000000a0: 35a3 a12b 158f 7030 3fe6 462e 8f20 dc2e
000000b0: 4844 5c2f bede a42f 8350 5e2f 9ef4 af2f
000000c0: 6c98 232f de3c 8c2f b70f 272d 6f56 012f
000000d0: bb25 3224 1e82 812e ca64 cc2a c797 8d2e
000000e0: 0000 0000 eb98 182e 67c5 2630 1364 4324
000000f0: 8fb3 d734 0000 0000 a8e3 492f 673b 1634
00000100: 61a1 9031 9a8e 5832 1b4c ba31 4bb3 c631
00000110: 123a a531 d4f0 bb31 41e1 7031 6d53 9c31
00000120: 3413 232e cea9 7130 50ef 9d24 7a25 2430
00000130: 1267 872b 76b3 1030 0000 0000 8719 be2f
00000140: ab59 7e31 d7d4 2626 05a8 9936 0000 0000
00000150: 580b e130 6076 a735 a7d8 9033 a6cb 3f34
00000160: 58fc 9c31 6612 a631 c929 9331 f4e4 a031
00000170: 40fe 5a31 6f8c 8631 20cc b12e 29a1 5930
00000180: f5a8 4524 1e6b 0e30 5f19 de2b 28b1 fa2f
00000190: 0000 0000 0e93 a42f d815 7831 21a8 5026
000001a0: 1af9 8136 0000 0000 7db4 c130 5524 9035
000001b0: 04af 9633 3196 8134 77f0 bd2d bc0c f02d
000001c0: db66 b12d d31b f62d 8edb a82d f7be d32d
000001d0: d0d3 f22b 7630 4d2d 6ec5 c723 1779 dd2c
000001e0: b5a7 6229 ebff dd2c 0000 0000 81d3 832c
000001f0: 7966 9a2e 75c5 bf23 36f7 1e33 0000 0000
00000200: 9c9d a22d be03 7232 3536 e530 b7e8 6331
00000210: 9354 2023 7a3e 3925 23eb 9d23 496d 6a25
00000220: 027a 3623 9eb4 4d25 6d5a bb22 9035 8625
00000230: 58f1 401c ea55 2825 f4ae c021 9f3f 3625
00000240: 0000 0000 ecb6 c924 f54f a726 99d5 0b1b
00000250: 616c 4d2b 0000 0000 fa12 0426 958f c42a
00000260: d76b 6c28 fa61 9f28 fc71 5f31 2ae7 9b31
00000270: 46ac 4831 f37c 9f31 4435 0c31 b214 8131
00000280: 5a3b 8f2f 9d3a ea30 cd40 1c28 baf9 6930
00000290: e053 6e2d 066a 7230 0000 0000 6ff0 0830
000002a0: be9f 0332 6a0a 8926 78a6 bf36 0000 0000
000002b0: b944 3131 37e9 0336 ff87 d733 e2bf c433
000002c0: 40e1 aa2a ac3e c62a 5329 952a a307 c12a
000002d0: 6e22 922a bc0b bb2a abaa 1e27 142d 072a
000002e0: bb11 d420 006b a529 d708 a825 e3b5 ac29
000002f0: 0000 0000 bb62 4129 d000 4d2b a145 0420
00000300: 3ef1 f92f 0000 0000 0287 772a 5d31 382f
00000310: 8025 802d a9ec cd2d 1979 132a cf93 342b
00000320: b0a5 7a2a 57b5 682b 0ac5 bc29 3e8e 262b
00000330: 12be 4d29 04a6 252b 21ee 0f21 4834 932a
00000340: 8911 5726 77e0 b52a 0000 0000 0197 2e2a
00000350: ca42 662c 2065 9320 aaad e230 0000 0000
00000360: 76c5 782b 521e 3930 eb38 992d 44e4 8e2d
00000370: b0ba 1830 1109 2631 6d9e 8c30 b054 5c31
00000380: 1d4d 1530 e4ee 2331 b4a3 f52e 8261 0931
00000390: c889 4d27 0d84 7930 abea 402c a3dc 9730
000003a0: 0000 0000 508b 1330 81e3 4132 00e2 4226
000003b0: d71a c536 0000 0000 8f38 5131 0eb0 1b36
000003c0: 6d5e 1c33 2799 9233 0309 a42a d731 1f2b
000003d0: 9a26 b42a 4e3c 352b 594f 862a 3b35 1c2b
000003e0: 8d2c a929 6fd6 dd2a fd0f 761f 4b27 522a
000003f0: 33d8 b926 bc7d 812a 0000 0000 22cb f729

exp_avg f4 [128]
-3.5164467e-05 2.9465812e-06 1.8481525e-05 -4.927771e-05 -3.5327655e-05 1.1340706e-05 3.7038376e-08 5.5934855e-05
-1.2158323e-07 -3.1380551e-07 3.9980063e-05 3.8415828e-07 3.6602714e-06 4.6559333e-05 1.5695448e-05 -7.4217154e-05
1.3459726e-06 5.380869e-05 2.42101e-05 -5.5626333e-05 -1.6650839e-07 -3.7101927e-05 -3.1676072e-07 -7.91701e-09
3.2694865e-05 1.4109051e-05 -7.759249e-05 2.0587187e-05 -5.7013247e-05 8.9551366e-05 0.00011052966 -4.416266e-05
-4.77586e-05 -3.4202032e-05 -1.650169e-05 -0.00012722728 -3.344054e-05 5.226291e-05 -1.9192705e-05 1.2231929e-05
4.7819467e-05 5.241433e-07 -1.9171316e-06 -3.434956e-05 6.34909e-05 -1.8522021e-05 9.903503e-07 -1.4241117e-07
-3.195265e-05 -7.886928e-05 -0.00012696398 1.5706447e-06 -2.5746463e-06 6.5148197e-06 4.4878407e-06 0.00010846168
-2.4280953e-05 -6.959551e-05 1.2270648e-05 -7.2195307e-06 -3.6443937e-05 -7.65376e-05 -1.7127162e-06 -1.5257097e-05
1.01318055e-05 3.049166e-06 1.8724373e-05 -3.8201597e-07 6.873573e-06 9.6452495e-05 -2.8545433e-06 5.2080173e-07
1.6745096e-07 -5.468537e-07 -2.2605147e-06 -2.560867e-06 3.0410902e-05 -1.1955976e-05 -1.4736572e-06 -9.750529e-07
7.18578e-05 -2.5073661e-05 2.7334207e-05 2.0924846e-07 -1.4698629e-08 -3.854824e-09 -5.9037848e-06 -4.0528837e-05
0.000110991095 -9.350362e-06 5.4117305e-07 -2.101966e-06 -4.4473978e-05 1.2719702e-06 8.418218e-06 4.41927e-05
5.0026516e-05 4.4668413e-05 -1.526085e-06 1.7772718e-05 3.186067e-05 2.2189613e-05 -2.2076068e-05 -1.4149023e-08
-1.7756547e-05 -4.1756554e-09 4.2146343e-08 3.6201106e-07 -1.2400009e-06 2.0792284e-05 2.5288533e-05 5.513482e-06
4.2364634e-05 -0.00016014291 -1.3164647e-05 6.170337e-08 -4.996632e-06 -2.8682707e-06 1.8936265e-05 3.261929e-05
-3.0974108e-05 7.796428e-06 -4.9567258e-05 2.9166466e-05 7.4874406e-05 -4.290592e-06 2.715579e-07 -3.5225415e-07
00000000: 8f7d 13b8 e1bd 4536 c608 9b37 8aaf 4eb8
00000010: c82c 14b8 f643 3e37 2014 1f33 989b 6a38
00000020: 8b8c 02b4 1a79 a8b4 44b0 2738 503e ce34
00000030: fca2 7536 b448 4338 b8a9 8337 08a5 9bb8
00000040: 44a7 b435 a4b0 6138 cb16 cb37 5250 69b8
00000050: 7ac9 32b4 e49d 1bb8 430f aab4 6103 08b2
00000060: d821 0938 eab5 6c37 27b9 a2b8 a6b2 ac37
00000070: 8221 6fb8 86cd bb38 29cc e738 4c3b 39b8
00000080: 6850 48b8 2774 0fb8 1c6d 8ab7 5068 05b9
00000090: 8242 0cb8 df34 5b38 0500 a1b7 bc37 4d37
000000a0: c391 4838 dab2 0c35 12a8 00b6 8f12 10b8
000000b0: 6b26 8538 bd5f 9bb7 2dec 8435 afe9 18b4
000000c0: e604 06b8 9f66 a5b8 a221 05b9 f1ce d235
000000d0: 16c8 2cb6 e099 da36 4296 9636 ec75 e338
000000e0: f3ae cbb7 cef3 91b8 08de 4d37 4c3f f2b6
000000f0: 61db 18b8 d082 a0b8 7be0 e5b5 bcf8 7fb7
00000100: c6fb 2937 46a0 4c36 4912 9d37 e017 cdb4
00000110: 8ba3 e636 8a46 ca38 ae90 3fb6 39cd 0b35
00000120: 92cc 3334 80cb 12b5 59b3 17b6 5cdb 2bb6
00000130: ea1a ff37 8796 48b7 7aca c5b5 90de 82b5
00000140: 5db2 9638 4755 d2b7 c34b e537 c7ad 6034
00000150: 4185 7cb2 6473 84b1 2019 c6b6 82fd 29b8
00000160: e4c3 e838 80df 1cb7 2145 1135 800f 0db6
00000170: 9289 3ab8 90b8 aa35 f93b 0d37 8d5b 3938
00000180: 90d3 5138 585a 3b38 e2d3 ccb5 9f16 9537
00000190: 22a2 0538 d523 ba37 ff2f b9b7 1014 73b2
000001a0: e5f3 94b7 7479 8fb1 6504 3533 6c5a c234
000001b0: 1b6e a6b5 176b ae37 b622 d437 7300 b936
000001c0: aeb0 3138 09ec 27b9 badd 5cb7 c981 8433
000001d0: bea8 a7b6 847c 40b6 52d9 9e37 b2d0 0838
000001e0: 32ea 01b8 67cd 0237 70e6 4fb8 82aa f437
000001f0: e405 9d38 e8f7 8fb6 a2ca 9134 711d bdb4

exp_avg_sq f4 [128]
2.47184e-09 4.984823e-12 7.9694973e-10 7.106828e-09 6.1171432e-09 8.023985e-11 1.9888202e-15 1.1196162e-08
9.542037e-13 3.8359945e-12 1.32142555e-08 2.691084e-12 7.0875554e-09 2.634624e-08 2.1168356e-09 3.8931613e-09
1.9796888e-12 1.3870465e-08 8.233919e-10 9.157096e-09 8.248012e-13 5.7583066e-10 4.6864296e-12 4.019752e-15
1.4335208e-08 1.1245612e-10 4.0484167e-09 7.268453e-10 1.4130577e-08 2.4502143e-08 1.2916586e-08 1.3815311e-09
1.6667364e-09 8.4816415e-10 2.5237987e-10 5.1936425e-08 1.2961675e-09 9.980341e-09 3.7093673e-10 2.464776e-10
4.0801136e-09 9.118264e-14 1.2509511e-10 3.1027227e-09 3.7501504e-09 3.886897e-08 4.844717e-13 9.098154e-14
4.4708496e-08 3.0964393e-09 7.4230124e-09 1.33999764e-11 8.224509e-11 1.8552658e-08 2.8721933e-10 1.4189257e-08
2.2468283e-09 8.638614e-09 3.3512598e-10 6.673499e-11 2.6798375e-09 2.3700904e-08 9.304532e-12 1.4979653e-08
4.9863806e-09 3.0863174e-09 1.45995e-10 9.1140455e-12 9.165369e-11 6.0605707e-09 1.4883043e-11 2.7555048e-12
1.7175589e-14 1.2732714e-12 2.4337422e-12 4.6381544e-12 2.5500766e-08 1.9228262e-10 2.648037e-11 3.5296755e-11
6.384019e-09 1.9232168e-08 1.0203013e-08 2.0285004e-14 4.3359519e-16 7.398322e-17 1.9821314e-10 3.40773e-09
2.764048e-08 1.8028024e-09 2.874061e-13 3.2216935e-12 6.556503e-10 1.5491823e-08 3.748173e-09 1.7607354e-08
7.6842595e-09 1.6834655e-08 1.1636954e-11 1.074558e-09 1.9699012e-08 1.0512211e-08 1.0349981e-08 7.228123e-15
3.0017806e-09 3.623854e-15 9.148077e-14 7.74011e-12 6.0818545e-11 1.9403677e-10 2.0617807e-09 1.272761e-11
6.6813937e-09 1.8883211e-08 1.1551939e-10 8.588657e-15 5.0870147e-10 3.3696157e-11 1.6183327e-08 2.0532736e-08
1.1091671e-09 1.8890365e-09 1.2351605e-08 8.025056e-09 1.3138336e-08 1.7540104e-08 3.922775e-13 3.736135e-14
00000000: 12dd 2931 4b63 af2c 5a10 5b30 5230 f431
00000010: f62e d231 0573 b02e 424f 0f27 3e59 4032
00000020: d04a 862b 91f7 862c e904 6332 425e 3d2c
00000030: cc86 f331 ff4f e232 c477 1131 9cc4 8531
00000040: e74e 0b2c f34a 6e32 0e55 6230 5651 1d32
00000050: 3129 682b 7b48 1e30 9be3 a42c abd3 9027
00000060: e946 7632 2b4b f72e 401a 8b31 31cb 4730
00000070: efc2 7232 c878 d232 bfe7 5d32 4ee0 bd30
00000080: 1313 e530 3f24 6930 4fbf 8a2f b410 5f33
00000090: d724 b230 0176 2b32 b4ec cb2f a380 872f
000000a0: 0f31 8c31 3753 cd29 258b 092f ad37 5531
000000b0: acda 8031 e2f0 2633 dd5d 082b 49df cc29
000000c0: 8305 4033 23c9 5431 820d ff31 21bc 6b2d
000000d0: dfdb b42e ba5d 9f32 87e6 9d2f 03c5 7332
000000e0: 9f66 1a31 0769 1432 ca3c b82f 76c0 922e
000000f0: 3328 3831 d796 cb32 e3af 232d 9bac 8032
00000100: ab54 ab31 1217 5431 f085 202f 0356 202d
00000110: 718c c92e 583d d031 a2e9 822d c3e6 412c
00000120: 36b4 9a28 7032 b32b 6742 2b2c c830 a32c
00000130: c70c db32 bf6a 532f 7eec e82d 9d3c 1b2e
00000140: 6d5a db31 fc33 a532 5349 2f32 09b6 b628
00000150: 5bf3 f925 fc97 aa24 0af0 592f 6c2d 6a31
00000160: 0f6e ed32 78c6 f730 96cb a12a dfb4 622c
00000170: 4a39 3430 e112 8532 47c9 8031 fb3e 9732
00000180: bb03 0432 cc9b 9032 2fb8 4c2d a6af 9330
00000190: 9636 a932 3199 3432 b3cf 3132 d535 0228
000001a0: e247 4e31 2790 8227 13ff cd29 5b2a 082d
000001b0: ccbd 852e 7f58 552f 3baf 0d31 0fe8 5f2d
000001c0: 2992 e531 9f34 a232 a307 fe2e 30b8 1a28
000001d0: afd4 0b30 8032 142e 8303 8b32 f75f b032
000001e0: 5971 9830 48d0 0131 ef32 5432 92de 0932
000001f0: 03b7 6132 19ab 9632 25d5 dc2a b442 2829
