results/Test4.5/CarAgent/CarAgent-76981.onnx (onnx, 83292 bytes, 7 tensors)

network_body._body_endoder.seq_layers.0.weight f4 [128, 22]
000000 72 64 21 bd dd ac 4c be 2c 95 65 3e 46 27 24 3e
       -0.039402433 -0.19987817 0.22420186 0.16030607
000010 ae b2 51 3e 96 81 2e bd fd 55 b5 3e d6 74 41 be
       0.20478317 -0.04260405 0.35417166 -0.18892226
000020 70 e9 32 3e 51 e1 f7 bc 4a 5f 1d 3e 3f 2a 8b 3c
       0.17471862 -0.030258806 0.15368381 0.016987918
000030 e6 1d ba 3d bd bb 5d 3e 07 ee 66 3e 91 63 8d 3d
       0.09087734 0.21653648 0.22551738 0.069037564
000040 1a cb 0e 3e ce b7 09 3f 82 52 ae be e7 f9 99 be
       0.13944665 0.5379609 -0.34047323 -0.30073473
000050 56 20 70 be e9 4d 2f bd 37 96 40 bc d7 52 d3 be
       -0.23449835 -0.04279891 -0.011754564 -0.4127414
000060 2f 1c 4e be 5b 93 09 3d 8a ba 00 bf fa e5 2a 3c
       -0.20127939 0.033587795 -0.50284636 0.010430807
000070 5d 12 6c 3e 72 ea 4e bb 4a 2e 3e bd bc 04 3c be
       0.2305388 -0.0031572846 -0.046430863 -0.18361181
000080 e7 e3 07 3e f2 f5 c2 3d 5d 65 fe 3d e7 f2 a2 3d
       0.13270532 0.095195666 0.12421677 0.07956486
000090 38 22 d3 3e 09 5e 68 3d b9 d7 37 bd c1 f3 4e be
       0.41237044 0.056730304 -0.044883464 -0.20210172
0000a0 d4 63 81 3c c3 b5 d0 3e 3b 6a 3b 3e ce 5a ad 3e
       0.015794672 0.40763673 0.18302242 0.3385834
0000b0 fc 86 33 be a7 aa 85 3d c1 91 51 3e 93 15 1c 3e
       -0.17531961 0.0652669 0.20465757 0.15242605
0000c0 e4 8d 64 3e 05 22 fc bb ae 1a e8 be 8d e2 f3 3d
       0.22319752 -0.007694485 -0.45332855 0.119084455
0000d0 8d 84 14 be 85 ad 5c 3d 9b e4 3c 3d 47 27 a4 be
       -0.14503689 0.05387642 0.046116453 -0.32061216
0000e0 3f 87 f1 3e be a0 ed 3d 65 37 af 3e 8f e8 ab be
       0.47173497 0.11602925 0.3422195 -0.33575866
0000f0 58 24 d5 3d ee a9 4e bd ef 4d ad 3e 63 f4 94 3e
       0.10407323 -0.050455026 0.3384852 0.29092702
000100 4a 2a ff bd c9 7f ca 3e 4b 3d 87 3e 3f 28 da 3d
       -0.12459238 0.39550617 0.2641395 0.106522076
000110 94 f0 52 bc d0 b1 44 be cf fa 7f 3e 59 aa 7b 3e
       -0.012874741 -0.19208455 0.2499802 0.24576701
000120 b8 0b f6 3e 3d 32 d7 3e 02 45 48 bd 15 41 13 3d
       0.48055816 0.42030516 -0.048893936 0.03595074
000130 be 4e 8d bd 27 d3 da 3d 27 95 dc 3e 97 d8 97 bd
       -0.068997845 0.10684805 0.43082544 -0.07414358
000140 73 36 5b be 68 ca cd be 90 f2 13 be 7d 17 87 bc
       -0.2140749 -0.40193486 -0.14447999 -0.016490692
000150 f5 94 31 bd 6b b2 7f be b2 7e 2c 3e a4 ca 8e be
       -0.043354947 -0.24970405 0.16845205 -0.27888978
000160 12 50 7e 3d e6 32 4c 3e 02 83 2c bd 40 ff 13 bd
       0.06208808 0.19941291 -0.042117126 -0.036132097
000170 94 2d 77 3e b6 4a 0a be 9e 70 64 be 8a af 8b 3e
       0.2413848 -0.13505062 -0.22308585 0.27282363
000180 1b 3f da 3e cd aa ef 3c 04 44 74 3d 7f 7d a7 bc
       0.4262627 0.029256249 0.059635177 -0.020445583
000190 2f d1 ab 3e 1d aa 76 3e 58 82 ca be 95 37 60 bd
       0.33558032 0.2408833 -0.3955257 -0.054740507
0001a0 68 01 8c 3e 1c c3 11 be 7f 86 bf 3e f2 0a a4 be
       0.27344823 -0.14234585 0.374073 -0.320396
0001b0 22 0c ca bd 78 8a 0f be 33 6d 6b 3e e2 98 39 be
       -0.098655954 -0.14017665 0.22990875 -0.18124726
0001c0 b9 17 93 3d 07 ce 0f 3f 66 14 c1 3e 12 5d 2f 3e
       0.07182259 0.5617375 0.37710875 0.17125347
0001d0 b0 41 e8 3c aa 11 62 be 60 0f 73 be 27 31 71 3e
       0.028351635 -0.22077051 -0.23736334 0.23553906
0001e0 06 64 13 be 3a bb e3 bd 6b a9 8d 3e c8 cd 44 be
       -0.14393625 -0.11119695 0.27668318 -0.19219124
0001f0 08 d0 46 be a7 08 59 be 2c 7c 7a 3e 5e 70 49 be
       -0.19415295 -0.21194707 0.2446143 -0.19671771
000200 c8 b8 a8 3e 08 5e 04 3d dd 95 9d be 63 ee 6b 3e
       0.32953477 0.032316238 -0.307784 0.23040156
000210 f9 df 57 be eb 95 15 3e 6e 4c 6d bd 05 f7 65 3e
       -0.21081533 0.1460797 -0.057934217 0.22457512
000220 ef 24 78 3e a7 c3 f5 bc c3 41 62 3e bd b0 41 3d
       0.24232839 -0.03000052 0.22095399 0.04728769
000230 1a 00 d3 3c 4c 1d b2 3e be 5b f9 3d de e1 2c 3e
       0.025756884 0.34787977 0.121757016 0.16883036
000240 55 d9 84 bd 8f 9b 95 3e 9d 80 bd 3d 8a 0c e1 3d
       -0.06486765 0.29220244 0.09253047 0.1098872
000250 a6 18 2b bc a7 44 a2 be 98 b4 45 3d 35 76 78 3d
       -0.010442888 -0.31693003 0.04826793 0.060659606
000260 b8 ee 66 be 48 cf 83 bd 5d 92 49 be 42 5e f1 3e
       -0.22552001 -0.0643602 -0.1968474 0.47142226
000270 6a 7d 9f 3e 29 73 13 bd bb 47 5a be af 5b 71 3e
       0.3115037 -0.035998497 -0.21316426 0.23570131
000280 ea f4 86 be 4c 23 46 3d 7d 9d 67 be 6f 24 03 be
       -0.2635873 0.048373505 -0.22618671 -0.12806867
000290 ef 7e 6b bd e0 c9 82 be 9c 4b a1 bd dc 0b 07 be
       -0.0574941 -0.25544643 -0.078757495 -0.13188118
0002a0 6f 1a 9c 3e 2d d5 e2 be 01 9f 7d 3e 52 6a 62 3e
       0.30488917 -0.44303265 0.24767686 0.2211087
0002b0 b8 f8 4d 3e 37 42 41 bc 27 35 06 be f4 d8 00 bd
       0.2011441 -0.011795572 -0.13106214 -0.031456903
0002c0 92 54 9a 3d 88 f9 79 bd c1 9b 26 3e 7a 28 77 be
       0.07535662 -0.061028987 0.16270353 -0.24136534
0002d0 70 d8 1b bd 63 eb 04 be 3c 87 a9 3d c5 e0 37 3e
       -0.038048208 -0.12980418 0.08277747 0.17956837
0002e0 e2 f2 89 3e 90 27 1a be af 36 b5 be b5 e4 13 bf
       0.26943117 -0.15054154 -0.35393283 -0.57770854
0002f0 b0 00 2e bd e1 c8 82 be 89 7f 65 3e f1 eb cf be
       -0.042481124 -0.25543883 0.22411932 -0.40609697
000300 58 a0 80 3e 43 38 05 bf cb 37 97 3e 8b 2b 1d be
       0.25122333 -0.52038974 0.29534754 -0.15348642
000310 20 df 8a 3c b7 4e 8c be 3a 18 da be 19 39 40 3d
       0.016952097 -0.27403805 -0.42596608 0.046929453
000320 52 ae 5e 3b 9a b3 85 3d 5a 4c c9 3e 1f d1 1d be
       0.0033978415 0.06528397 0.39316064 -0.15411805
000330 ed 73 34 bd 57 af 20 be 49 5a 88 be 61 26 75 bd
       -0.044055868 -0.15691887 -0.26631382 -0.059851054
000340 64 ff 8f 3e 0b 89 81 be 80 2c b9 3e 21 d8 01 3e
       0.28124535 -0.25299868 0.36166763 0.12680103
000350 79 9c fb 3e ca e0 91 3e 07 16 22 3e 5f 30 ae bd
       0.49142817 0.28491813 0.15828715 -0.0850532
000360 ec 82 55 3e e0 6b bc 3d 95 44 8c 3e b0 76 2b 3c
       0.20850724 0.09200263 0.27396074 0.010465309
000370 fd b1 82 3e 75 bd a9 3d 3a 69 f7 bd 09 20 2c 3e
       0.2552642 0.08288089 -0.12080617 0.16809095
000380 4e 0b ef bd 58 c9 be bd f7 8b c3 bd 72 d4 50 be
       -0.11672078 -0.09315747 -0.095481806 -0.20393541
000390 45 14 b1 be 4c 07 c1 3d 73 64 c1 3d ba c8 f9 3b
       -0.34585777 0.0942522 0.09442987 0.0076228054
0003a0 01 9d 14 be bd 1a 91 3e 09 d3 0c be ca f6 f4 bd
       -0.14513017 0.28340712 -0.13752379 -0.11961134
0003b0 f2 b0 9a 3e 72 7f f4 3d 55 58 eb bd ac 46 bc be
       0.30213124 0.11938371 -0.114914574 -0.36772668
0003c0 45 78 ff be 32 76 ac 3d c7 c0 0c 3e 1a 66 ea bc
       -0.49896446 0.084209815 0.13745414 -0.028613139
0003d0 a6 be c2 3e da 36 8f be 67 b7 39 3c 74 0a d5 be
       0.38036078 -0.27971536 0.01133523 -0.41609538
0003e0 61 bf 0c 3d 8d c0 2b bd 81 cc ad 3e 85 3d 0e 3e
       0.0343622 -0.041931678 0.33945087 0.13890655
0003f0 0d 7e 89 bd 01 3f d1 3d b1 ca 35 3e 6f 75 09 bd
       -0.067134954 0.10217095 0.17753102 -0.03355926

network_body._body_endoder.seq_layers.0.bias f4 [128]
000000 06 8d 6c bd 96 3b 9d bd 89 90 76 bd b8 fc 35 bd
       -0.057751678 -0.07677381 -0.060196433 -0.044430465
000010 97 b0 b2 3d 4e 8c 0a bd fa a6 5d bd 04 88 7b bd
       0.08725088 -0.03382521 -0.05411432 -0.06140901
000020 3c 6f fe bd b3 79 95 3d 4e 68 5e 3d d0 41 a5 3c
       -0.1242356 0.07298603 0.05429869 0.020172983
000030 c8 23 10 be f8 44 c1 bd 06 a0 0e be 7a 88 e9 3c
       -0.1407615 -0.09436983 -0.13928232 0.02850746
000040 23 ec 99 bd 7c b9 85 3c cf 39 04 be f7 bd c3 3c
       -0.07515743 0.016323797 -0.12912677 0.023894293
000050 9c 88 ec bd 85 a5 43 bd 8c d6 d2 bd e8 53 b7 bd
       -0.11549494 -0.047765274 -0.10294828 -0.08951551
000060 58 06 a7 3c 25 07 5a bd 14 a1 d0 bd 4b be 3d bc
       0.020388767 -0.05322947 -0.10186973 -0.011581014
000070 a3 2d ac bc 5b a7 5c 3b 1c b8 93 3b 8a 8c 0a be
       -0.021017855 0.0033669088 0.0045080315 -0.13530174
000080 ef 9b e0 bd 51 07 2a 3d de 04 02 be db 84 9f bd
       -0.10967242 0.041510884 -0.12697169 -0.07789012
000090 de be 41 3b b3 29 2c bb 13 19 13 bd 2f 20 32 bd
       0.0029563229 -0.0026269972 -0.035912585 -0.043487724
0000a0 91 46 25 bc e7 2d 95 3c 8c ff 7a bc 6e 10 46 bd
       -0.010087625 0.018210365 -0.015319716 -0.048355512
0000b0 6d 2d 4d bc 87 8e a4 bc 30 30 a6 bd 3e f2 fb 3b
       -0.012523037 -0.020087494 -0.0811466 0.0076887896
0000c0 6d 05 61 3d e7 ba 9e 3c c6 f8 bb bd bc b7 a3 bc
       0.054936815 0.019376231 -0.09178309 -0.019985072
0000d0 0c 8a e1 bd 85 10 58 bc e7 1f 95 bd 7c c9 a7 bd
       -0.110126585 -0.013187532 -0.072814755 -0.08192727
0000e0 1e 79 2b 3d 9e 6b 81 bc df d2 1d be 2a 95 08 be
       0.041863553 -0.015798386 -0.15412472 -0.13338152
0000f0 50 98 8e bd 0d 6b 82 3d f3 cc 99 3d 80 38 dd bd
       -0.06962645 0.063680746 0.07509794 -0.10801792
000100 88 6b 8d 3c d9 22 19 3c 59 4a 08 bd 52 dc 71 bd
       0.017263189 0.009346687 -0.03327403 -0.059048004
000110 7f 1b ff bc ed b7 e8 bc 3f e2 84 bd ba 71 15 be
       -0.03114104 -0.028408015 -0.064884655 -0.14594164
000120 71 d2 3d 3b b4 41 eb bc c3 af 7b bc e2 ee ad bc
       0.0028964544 -0.028717853 -0.015361729 -0.021232072
000130 18 e0 a3 bc c1 c9 ea bb 3a a0 08 be b1 db 8e bc
       -0.020004317 -0.007165164 -0.13342372 -0.017438741
000140 0b 99 b3 3c ba cb e5 bc cb ca 00 3d 56 82 2e bd
       0.021923563 -0.028051246 0.0314434 -0.042604767
000150 9e 74 1d bd 58 ad 62 3c b7 7e 9c bd 6e c8 46 bd
       -0.038441293 0.013835274 -0.076413564 -0.04853099
000160 9e 8e a1 bd 60 a8 5f bd 87 ea b9 3c 3b f2 7b 3d
       -0.0788853 -0.054603934 0.02269484 0.061510306
000170 fc 42 6c bd aa 6a 30 bc ce e1 a4 3d 71 73 72 bd
       -0.05768107 -0.010767618 0.08050881 -0.059192125
000180 21 fd 02 3d 91 c8 eb bd 1e 65 21 bc a7 69 76 3d
       0.031979684 -0.115128644 -0.009850768 0.06015935
000190 a6 c3 13 3c 51 2c d1 bb 53 ec 3b bc c3 2c 7b bd
       0.009018814 -0.0063834568 -0.011469918 -0.061321985
0001a0 86 21 31 be 04 22 ee 3c cf 95 52 bd 84 85 25 bd
       -0.17297944 0.029068954 -0.0514124 -0.040410534
0001b0 1f 57 0c 3d c4 75 94 bc da 2f 7e 3d d8 da a8 bd
       0.034262773 -0.018122561 0.062057354 -0.08244866
0001c0 1b d8 f6 bc 2a 62 88 3c 3d 38 32 bd fc d3 ae bd
       -0.030132344 0.01664837 -0.043510664 -0.085365266
0001d0 af 80 12 bd ea ba c1 bc 03 0d 08 bd 34 49 b1 3c
       -0.035767253 -0.023648698 -0.033215534 0.021641351
0001e0 b3 c9 81 bd 4c 1b 9b 3d 00 35 1c be 9a b9 b3 bd
       -0.06337299 0.07573566 -0.15254593 -0.08775635
0001f0 bc fb 8a bb 6f 85 51 3d 0f 49 ac 3c 28 ad cd bd
       -0.004241435 0.051152643 0.02103093 -0.100427926

network_body._body_endoder.seq_layers.2.weight f4 [128, 128]
000000 0a 86 1f 3d ed 88 fd 3b 96 e8 b5 bd dc a3 3e 3d
       0.03894619 0.00773727 -0.08882253 0.046542987
000010 99 69 87 3d 6d 9c 3c be 19 a9 23 3d ed 74 f5 bd
       0.06611938 -0.18419047 0.039956186 -0.119851924
000020 2c 2f 19 3e 4d e5 0c 3c ea a9 51 be 0f 92 d5 ba
       0.14959401 0.008599591 -0.20474973 -0.0016294139
000030 9e c6 a3 be 23 79 84 bd 0c 16 08 bd ae cf 68 be
       -0.3198747 -0.064684175 -0.03322415 -0.22735474
000040 19 88 d2 bd e9 65 15 3d f9 27 80 3d 38 fe 2c bc
       -0.10279865 0.036474142 0.06257624 -0.010558657
000050 20 bb b9 bd a3 a2 3d be 4f 0d c9 bd 35 03 6d bd
       -0.090688944 -0.18519072 -0.098169915 -0.057864387
000060 74 c1 a0 3d dd eb 8b bd b1 07 42 bd 4f 20 0d bd
       0.07849398 -0.06832097 -0.047370616 -0.03445464
000070 9f b9 20 bd 51 66 fc 3b e7 66 16 3e 15 53 d2 3c
       -0.039239522 0.0077026268 0.14687692 0.025674382
000080 1b d2 e9 3c 2e b9 5d bd d0 8b ba bd 33 64 56 be
       0.028542569 -0.05413168 -0.09108698 -0.2093666
000090 d7 bd 13 be a8 42 18 3e d7 8d 94 bd fc 38 ef bb
       -0.14427887 0.14869177 -0.07253616 -0.0073004942
0000a0 78 23 6a 3e 17 24 1b 3e 50 29 98 bd 8b 6c f0 bd
       0.22865093 0.15150486 -0.07429755 -0.11739453
0000b0 fe 38 f0 bd 60 87 b3 3d 44 11 f7 bc 12 a1 08 be
       -0.117296204 0.08766055 -0.0301596 -0.13342693
0000c0 1e 4d 98 bd 4f 34 63 bd eb 35 4a be 0c ce f1 3d
       -0.07436584 -0.055469807 -0.1974713 0.118068784
0000d0 6f 64 86 bd 8c 6c f6 bc eb 36 81 3d d9 d7 b2 bd
       -0.06562125 -0.030081056 0.06309303 -0.08732576
0000e0 fb c2 d4 3d b9 b3 c7 bd 9d d5 4d 3c 68 b6 12 bc
       0.10388752 -0.09751076 0.012563136 -0.008954622
0000f0 f3 b7 8c bc 2a a7 0f bd ec 50 95 3e 98 ae ba bd
       -0.017177558 -0.03507153 0.291633 -0.09115332
000100 1c 6b 16 be e9 d8 82 bc 57 27 a1 bd 44 a9 9d bc
       -0.14689296 -0.015972571 -0.078688316 -0.019245751
000110 29 16 77 bc db 95 d4 3c fd 6f 23 3c 2e c4 2b be
       -0.015080967 0.025950363 0.009975431 -0.16774055
000120 ea 8b 56 bd 4b b4 db 3d 07 9b 17 3d b9 4e 26 3e
       -0.052379526 0.107277475 0.03701308 0.16240968
000130 08 37 59 bc f5 7e 63 3e 83 d7 3f ba 0f f9 df bd
       -0.013257749 0.22216399 -0.00073181855 -0.10936176
000140 e9 cf d6 bd 97 c7 35 3d 35 aa 57 3e 19 f9 91 bd
       -0.104888745 0.044379797 0.21061023 -0.0712759
000150 c1 c6 9d bd 50 63 40 bc ee 8e 61 3e c1 1f 8f be
       -0.07703925 -0.011742428 0.2202718 -0.27953914
000160 b5 c0 f5 3b 80 03 1d be 67 75 c7 3d e0 b2 5f 3c
       0.007499779 -0.15333366 0.097391896 0.013653487
000170 5c 1a 93 3b 50 0b 51 3d 6d 06 85 ba 95 dd c8 bd
       0.0044892263 0.05103618 -0.001014901 -0.098078884
000180 9d ab 00 3d 82 fe 3b 3d 35 3d 78 3d 72 00 99 3d
       0.031413663 0.045897014 0.060605247 0.07470788
000190 31 e1 b1 bd af 51 fd bc 9b 23 48 3e 96 a1 93 bd
       -0.0868553 -0.030922739 0.19544832 -0.072085544
0001a0 3e 7a cc 3c f0 01 6c bc 46 d7 d7 bd 84 bf 9c bc
       0.024960633 -0.014404759 -0.10539107 -0.01913429
0001b0 ba 78 db 3b 04 94 1d be fc 58 59 3e 96 85 1f bd
       0.0066977413 -0.15388495 0.21225351 -0.038945757
0001c0 ff 54 90 3d c1 0c ed 3c 72 74 1e 3d 7f d9 b1 bd
       0.07047462 0.028936746 0.03868527 -0.08684062
0001d0 4e b8 9c 3d f6 b1 fe bd 2a 3c b2 3d cd 91 0a be
       0.07652341 -0.12436287 0.08702882 -0.13532181
0001e0 f1 e4 e0 bc 32 87 1b 3e 0d 80 a9 bc 02 e0 52 bd
       -0.027452918 0.15188292 -0.020690942 -0.05148316
0001f0 01 2e fc bd 1a e9 83 3c bd 64 81 3d 0b 02 07 bd
       -0.12313462 0.016102362 0.063180424 -0.032960933
000200 7b 5f 04 bd 5c 55 19 3e d7 88 04 be ac d5 a5 bd
       -0.03231762 0.14973968 -0.12942825 -0.08097395
000210 91 47 2e bc b0 f3 36 3d 93 17 93 bd a9 b5 4d 3d
       -0.01063718 0.044665992 -0.07182231 0.050222073
000220 e0 f9 c2 3c 22 1f 0d 3e 78 3a 81 3d 10 22 ee 3d
       0.02380079 0.13781407 0.0630998 0.11627591
000230 3f 2f 46 be d4 a2 41 be 38 eb 9c be 02 eb 85 be
       -0.1935396 -0.1890977 -0.30648208 -0.2615586
000240 46 b6 9b bd 0b 8b b1 3d 37 b0 9a 3d 50 32 d7 35
       -0.07603125 0.086690985 0.075531416 1.6033391e-06
000250 7d 96 d7 bb 93 b8 3d 3d fb 8f 86 3d d0 e0 f6 3d
       -0.006579219 0.0463186 0.06570431 0.12054598
000260 e8 2d e9 bd b6 29 be bb 7a fd 14 3d 86 eb 00 3e
       -0.11385709 -0.005803312 0.036374547 0.12589845
000270 69 e2 82 3d c5 f1 a9 bd 6c 4b c5 3c f0 ca 2e be
       0.063908406 -0.08298067 0.024083816 -0.17069602
000280 f7 fa 05 be 55 a9 79 bd 45 09 e4 bc ae f5 53 be
       -0.13084017 -0.060952503 -0.027836451 -0.20699188
000290 6b 03 21 be 7f 7f 3e 3e fd f9 a8 bd b9 90 1b bc
       -0.1572396 0.18603323 -0.082508065 -0.009494954
0002a0 50 b8 b1 3c 13 82 16 bd b4 bb 3e bd b8 1b ec bd
       0.021694332 -0.036745142 -0.046565726 -0.115287244
0002b0 78 b0 3e be 4b ce 94 bd 5b 97 01 be 4a 02 9b bc
       -0.18622005 -0.0726591 -0.12655394 -0.01892199
0002c0 14 0a 04 3e 55 b2 00 bd 4a 74 c7 bd 63 e5 80 3d
       0.1289447 -0.03142007 -0.09738977 0.06293752
0002d0 b2 48 a4 bd 35 c0 a0 bc f7 63 fc 3c 3d c7 92 bd
       -0.08021678 -0.019622901 0.030809386 -0.07166908
0002e0 97 f6 b5 bc d7 0b 3d bd 97 71 d9 bd 7f 22 78 bd
       -0.02221231 -0.04615387 -0.10617369 -0.060579773
0002f0 bc 6b 81 bc e8 e3 3e bc 04 90 a8 3d 3a b3 32 3d
       -0.015798442 -0.011651017 0.08230594 0.043627955
000300 79 db 2f be ce c9 eb 3d 82 b4 a2 bd ab bb 9b 3c
       -0.17173566 0.115131006 -0.079445854 0.019010385
000310 17 dd 3d bc 42 32 eb bc 62 a1 3d bd ff 3d af 3d
       -0.011588356 -0.028710488 -0.046296485 0.08556747
000320 88 37 f1 bc f9 e0 dd bc c2 ef 7d 3e f9 2b 95 bd
       -0.029445425 -0.027084814 0.24798492 -0.07283778
000330 8f d8 1b bc ee 6a c4 bd 29 8a 94 bd 23 78 8b bd
       -0.009512081 -0.09590708 -0.072529145 -0.06810024
000340 51 34 8b 3e 96 89 a6 3d 3d 7b 04 3d e2 9f 4a be
       0.27188352 0.08131711 0.03234409 -0.19787553
000350 d6 08 56 be 0a d2 bd bd 78 7d 37 3e 4d de 38 be
       -0.20901808 -0.092685774 0.17918956 -0.18053551
000360 b9 87 a4 bd 99 97 ca 3c 7f 8d 3f 3e 7d e0 56 ba
       -0.080336995 0.02473049 0.1870632 -0.00081969035
000370 31 49 67 bd 36 49 1f 3e 8d 00 0a bc 0e c1 66 be
       -0.056466285 0.15555272 -0.008422983 -0.22534582
000380 d4 70 a6 bc 6d 07 c9 bc d2 61 69 bd ca 47 53 3d
       -0.020317473 -0.024539674 -0.056978054 0.051582135
000390 d3 9a 5a 3e 7c a9 59 3c 8f 34 55 bd cc 1c c5 3c
       0.21348123 0.013285037 -0.052052077 0.024061583
0003a0 d1 51 00 bc 6d 30 18 3e 06 e0 97 bc 81 0c aa bd
       -0.007832007 0.14862223 -0.01853944 -0.08303166
0003b0 9e 37 4e 3e 6d ef a4 bb f8 47 a6 3e f8 d6 bc bd
       0.20138404 -0.0050334246 0.32476783 -0.092206895
0003c0 c2 f4 af 3d 72 fd 6b bc b9 45 f6 bc 02 40 ef bd
       0.08591606 -0.014403688 -0.030062543 -0.116821304
0003d0 c2 22 05 3d b4 73 8f bd fc e4 9d bd 4f cd b8 bc
       0.03250385 -0.070044905 -0.07709691 -0.022558836
0003e0 69 82 9a 3c e8 8d e8 3d 46 30 37 be ee 99 5c be
       0.018861013 0.113551915 -0.17889509 -0.21543095
0003f0 ad 87 19 be 45 24 5d 3d c8 51 cd bd b8 6e 6b be
       -0.14993162 0.053989667 -0.10025364 -0.22991455

network_body._body_endoder.seq_layers.2.bias f4 [128]
000000 bd ac ae 3b 8d f1 24 3c 56 08 e9 bc 14 1d bf bd
       0.0053306506 0.010067356 -0.028446358 -0.09331718
000010 df de 42 3d 71 b0 be bc 52 7f f5 bd d2 b5 06 3d
       0.047575828 -0.023277493 -0.11987175 0.03288824
000020 18 8a d5 bd 36 ce 0f bd ca 19 c1 bd bd 6e 93 bc
       -0.1042673 -0.035108767 -0.09428747 -0.01799714
000030 86 90 ce bc d8 73 78 bc 5d a7 8b bc 36 11 8c bd
       -0.025215399 -0.015164338 -0.017047578 -0.0683922
000040 22 3c 14 bd c9 4c 11 bd 1a ec 0c bd 5d 9c bd bd
       -0.03619016 -0.03547362 -0.03440485 -0.092583396
000050 47 35 d5 3c 9d e5 87 bc 15 7b c6 3c 6f d0 a0 bb
       0.026026381 -0.01658898 0.024228612 -0.0049076597
000060 33 da 89 bd e9 e2 bd 3c 56 42 03 be c4 97 14 3d
       -0.06731071 0.023179488 -0.12818274 0.036277547
000070 30 a1 51 3c 9a b0 ce bc b1 4c 86 bd 28 77 54 bd
       0.012794778 -0.025230695 -0.065575965 -0.05187145
000080 0a 4c be bd 48 58 ce bc c2 f1 b2 bd 27 1b 29 bd
       -0.09291847 -0.02518858 -0.08737518 -0.04128566
000090 be d1 f0 3c ea bd d2 bd 3f 99 f6 bd 02 4a e7 bd
       0.029396888 -0.102901295 -0.12040948 -0.11293413
0000a0 44 aa b7 bc 2d 13 95 3d 41 ce c0 3c 9c 0e 95 bd
       -0.022420056 0.07279048 0.02353585 -0.07278177
0000b0 d6 8c 98 bd f4 a8 ad 39 22 32 92 bd 14 8b ed bd
       -0.07448737 0.0003312301 -0.07138468 -0.11598793
0000c0 2a fb a5 bc c9 6e 0d 3d a3 13 09 bd 8d a2 a2 bd
       -0.020261366 0.03452948 -0.033465993 -0.0794116
0000d0 3c c1 fd bd 8b af 9d bd 54 b5 f2 3c 0d 4c 55 3c
       -0.12390372 -0.07699498 0.02962748 0.01301862
0000e0 ad cf 57 3d 0f 7f fa 3c 6c 76 2f 3d 7d 99 46 bd
       0.05268829 0.030578164 0.042837545 -0.04848622
0000f0 26 74 90 bd 84 82 07 be 38 65 26 3c 24 51 8d 3b
       -0.070534036 -0.13233382 0.010155968 0.004312651
000100 d2 cd 02 be 70 18 93 3d ca b0 67 bc 65 3c d0 bd
       -0.12773827 0.071823955 -0.014141271 -0.10167769
000110 98 7e 80 3d c6 57 99 bd 7a 28 dd bd 84 72 0c 3c
       0.06274146 -0.074874446 -0.10798736 0.0085722245
000120 4d 19 7a bd 2a 15 8c bd b3 37 54 bd a2 68 eb bd
       -0.061059285 -0.06839974 -0.05181093 -0.114945665
000130 7b 75 7b 3c c4 5c 15 bd 6d 4e c7 bc e8 f1 e8 bc
       0.015347834 -0.03646542 -0.024329389 -0.028435662
000140 3e ef e0 3c 79 11 36 bd be c0 81 3d 87 09 3f 3d
       0.02745783 -0.044450257 0.06335591 0.046639945
000150 cc 23 c6 bd ef b2 11 be 83 5a 8d bd 8e 52 72 3c
       -0.096747965 -0.14228414 -0.06902029 0.01479019
000160 72 59 42 3d e4 b2 ca bd cc 41 70 bb 5f fb a8 bd
       0.047448583 -0.09897402 -0.0036660312 -0.0825107
000170 08 bc 26 be 9f f2 78 bd fe 71 91 bd c1 69 38 bd
       -0.16282666 -0.060778257 -0.071018204 -0.04502273
000180 1e 80 b3 bd a8 63 a0 3c 13 f2 ee 3c d7 76 58 3d
       -0.08764671 0.01957877 0.029168164 0.05284771
000190 1b 94 03 be 3c 6b 8f bd b3 51 6a bd a0 76 33 bd
       -0.12849467 -0.07002875 -0.05720682 -0.0438143
0001a0 03 00 99 bd c4 bb f9 3c d7 7c c1 bd ad 82 a3 bd
       -0.07470705 0.030485041 -0.094476394 -0.07983909
0001b0 69 af c9 3b a6 fb d1 bd 5b 83 9b bd b5 ef 73 bd
       0.0061549437 -0.10253076 -0.075934134 -0.059554774
0001c0 77 6c 57 bb 34 f6 ba bd f9 4b 87 bd cb c3 a7 bd
       -0.0032871047 -0.09128991 -0.066062875 -0.081916414
0001d0 e4 5f e4 3c 6d 3d 1d bd a7 d7 11 bd 79 26 2e 3c
       0.027877755 -0.03838866 -0.035606053 0.01062929
0001e0 17 15 06 bd e1 69 95 3d 38 12 04 bd ec 7b 90 bd
       -0.032734957 0.072955854 -0.032243937 -0.07054886
0001f0 12 9b da bd b1 8c e3 bc 70 67 b8 bd 7c af 72 bd
       -0.106741086 -0.027777048 -0.09004104 -0.059249386

action_model._continuous_distribution.log_sigma f4 [1, 2]
000000 6c 5b d0 be 21 77 4f be
       -0.4069475 -0.20260288

action_model._continuous_distribution.mu.weight f4 [2, 128]
000000 6d 20 3d bd e1 f1 67 bc 17 69 27 bc 30 88 44 bc
       -0.0461735 -0.0141567895 -0.010217926 -0.01199536
000010 3a 01 cd bc d1 f6 a6 3b 63 ff 84 3c 39 36 a5 3a
       -0.025024999 0.005095341 0.01623506 0.0012604661
000020 60 57 50 3c a7 0e 70 3b b1 b9 4a bc 44 33 dc 3d
       0.012716144 0.0036629827 -0.012373374 0.10751966
000030 21 dd 74 3b 64 9e 67 3d fe db b7 bb e9 47 43 3d
       0.0037363248 0.056547537 -0.005610942 0.047676
000040 78 06 a9 3c 76 2c 1a bc 74 a4 7c bc 7e 6d 93 ba
       0.020632967 -0.009410014 -0.015420068 -0.0011247841
000050 e5 d7 17 bd 01 d5 15 bd c1 45 75 bc 00 3f c2 3c
       -0.037071127 -0.03658009 -0.014970244 0.023711681
000060 9b cd 5f bb 0c ef 1a bd 7c 5b 82 bc 14 6b 1d bd
       -0.003414965 -0.03782563 -0.015912764 -0.038432196
000070 3b 07 f5 3c b5 a4 07 3d f4 a7 89 bc 59 4d a1 3d
       0.029910674 0.03311606 -0.01680372 0.07876081
000080 4b c9 c2 3c c5 25 68 3c 9a ad 2c 3a 78 48 a5 bc
       0.023777625 0.014169161 0.0006587148 -0.020176157
000090 25 06 3f bd c3 be 86 39 92 a1 56 3c 3a b6 1d 3b
       -0.04663672 0.000257006 0.013100045 0.0024064914
0000a0 0f ac 0f bc cb 5c fe 3b a7 ef 59 3a f1 d3 9c bc
       -0.008769049 0.0077625266 0.0008313604 -0.01914403
0000b0 3a 8d d5 bc f1 45 3e 3b c2 ef b5 3b db 6e 3d 3c
       -0.026068319 0.0029033388 0.005552263 0.011562075
0000c0 c1 be ad 3a 5e 81 1f 3b 6b 78 99 3c 5c cb 91 bc
       0.0013255702 0.0024338583 0.018734178 -0.017797165
0000d0 26 a9 79 bc 24 be cd bb db 97 15 3c f1 8c f0 3d
       -0.015238082 -0.00627877 0.009130443 0.117456324
0000e0 64 e9 ae bd fe b3 64 bc 55 c3 3c 3d af 1c 75 3c
       -0.085406095 -0.013958929 0.04608472 0.014960452
0000f0 2c 0a c6 bc e8 1c 87 bc 8b 7e 2c 3c 51 c7 0c 3d
       -0.024174772 -0.016493276 0.010528217 0.03436977
000100 1a c8 64 3c 22 fe b5 3c 18 ca 8c 3d 77 6c 71 3a
       0.013963724 0.022215907 0.06874484 0.0009209583
000110 13 34 3a bd 44 b1 1a 3d 53 95 10 bc 40 8b 8d 3b
       -0.045459818 0.03776671 -0.008824664 0.0043195784
000120 58 2f 7d ba d0 26 bf bb 58 11 a2 bc f2 76 18 3b
       -0.0009658239 -0.005833484 -0.01978366 0.0023264256
000130 09 19 1e bd d4 48 12 bd 22 77 99 3d b6 fa 2b bd
       -0.038598094 -0.035713986 0.07493426 -0.041987143
000140 6e dc 45 3c 48 90 6a 3c 67 55 66 bd 06 3d 45 3b
       0.01207648 0.014316626 -0.05623379 0.0030096187
000150 78 97 86 3b 60 87 10 bb d2 2f 6a bc 03 8d fb bc
       0.004107412 -0.0022053346 -0.014293628 -0.030706888
000160 a0 f4 58 bc 5c d8 2f 3c 28 06 c3 3c fd 3c a8 bb
       -0.013241917 0.010732736 0.023806646 -0.0051342235
000170 b4 fb 98 bc 01 c4 21 bc 50 e7 a6 bc 90 a8 14 bd
       -0.018674709 -0.009873391 -0.02037397 -0.036293566
000180 88 6c c5 bc 50 07 6d bc 3f c5 c2 ba 22 ea bd 3d
       -0.024099603 -0.0144670755 -0.0014859809 0.09273173
000190 a3 d8 62 3c ff 2c 10 3d 8a 66 79 bc 6e 8a c6 3a
       0.0138455955 0.03519916 -0.015222201 0.0015147456
0001a0 a8 a3 ff 3b af fe 3e 3d cb 61 88 bc 81 96 7d 3d
       0.0078014918 0.046629604 -0.016648194 0.06191111
0001b0 a1 bc c7 3c e3 8c 01 bd e0 f8 22 3c e9 5b 0e bd
       0.024381937 -0.0316285 0.009947032 -0.03475562
0001c0 ca 0e 68 3d 31 e8 71 3c c5 97 3a 3c a8 59 f7 3c
       0.05665473 0.014764831 0.011388724 0.030194119
0001d0 22 66 23 3d 70 37 1e bd 4a 8e 9a 3b d0 eb f6 3b
       0.039892323 -0.038627088 0.004716669 0.0075354353
0001e0 ac 18 94 bb 21 a5 84 bc a3 f3 47 bc 97 6d 9f bc
       -0.0045195427 -0.01619202 -0.012204084 -0.019461436
0001f0 24 bf bd bc b6 84 8b 3b 43 92 3c bc 20 f9 8b 3c
       -0.023162432 0.0042577637 -0.011509481 0.017086565
000200 64 4e 6c bd 3d fa 8d bd 5a 4a 34 bc 38 00 f1 bc
       -0.057691947 -0.06932495 -0.011004055 -0.02941905
000210 80 a1 4f 3d 6d 03 92 bc 8e 52 0a bd c9 4c 8c bd
       0.050691128 -0.0178239 -0.033770137 -0.06850583
000220 15 78 7d bd 31 aa 77 3b cd 0f 8e bd ac 12 72 bd
       -0.061882097 0.003779065 -0.069366075 -0.05909984
000230 97 0a b7 bd d7 62 08 bd bb d4 a9 b9 3a c8 da bc
       -0.08937567 -0.033297386 -0.00032392688 -0.026706804
000240 d4 e0 0c bd 74 16 10 bd e2 1a 0f bc 08 9d 77 bd
       -0.0343941 -0.035177663 -0.008734437 -0.06045249
000250 ca 6e 17 3b 3f f6 2d 3b 93 b7 33 bd 12 00 90 bd
       0.0023106807 0.002654448 -0.043876242 -0.070312634
000260 d2 6f 3e bc d4 5b 6f bd 84 a5 48 bd 15 74 7a bc
       -0.01162334 -0.058437183 -0.048985973 -0.015286465
000270 ae ff 6a 3d a3 ec 82 3c f0 e6 58 bd dc 7c 21 3d
       0.05737274 0.015981978 -0.052954614 0.039425716
000280 65 df b5 bc a7 f8 9b 3c 1c 35 3f 3d 7c 17 77 bc
       -0.02220125 0.019039465 0.04668151 -0.015081283
000290 e6 65 6f 3c 45 a8 14 bd 56 b4 bc bc c9 39 10 bd
       0.014611697 -0.036293287 -0.02303521 -0.03521136
0002a0 bb b1 c0 bd 5e c2 5c 3d b3 0e 6d 3d 1a 3e 15 bd
       -0.094088994 0.0538963 0.057875346 -0.036436178
0002b0 0d b5 de bc b4 ed 4e 3d f8 75 47 bd c3 7d 29 bc
       -0.027185941 0.05051966 -0.04869649 -0.010344925
0002c0 79 7a a5 3c 73 9d 19 3d 68 58 2d bd 5b c8 43 bc
       0.020200001 0.03750367 -0.04232064 -0.011949624
0002d0 8f e8 b0 bc e7 e9 6e 3c 8b 95 30 3d d9 2c 0b bd
       -0.021595268 0.014582134 0.043111365 -0.033978317
0002e0 6f 82 00 bc db 3e 10 3a 23 1d 88 bd bf 70 36 3d
       -0.007843598 0.000550253 -0.066461824 0.044541117
0002f0 ad 57 03 bd 2d 34 df bc 90 ac 81 bd 7b e9 06 bd
       -0.032066036 -0.027246559 -0.06331742 -0.032937508
000300 7e 68 b4 bc 8b 81 58 3d c0 75 57 3c 0b e8 bf 39
       -0.022022482 0.052857917 0.013150632 0.00036603244
000310 db c5 70 bb d1 95 99 bd b0 99 9b bc e2 d1 ca 3c
       -0.0036739025 -0.07499278 -0.018994182 0.024758283
000320 c5 65 28 bd df 3b 79 bc 30 c6 d4 3c d4 9d 0c bc
       -0.04111268 -0.015212028 0.02597341 -0.008582551
000330 fb 69 2b bd 10 0f 50 bd 13 09 6f bd a2 c7 15 bd
       -0.041849118 -0.050795615 -0.058358263 -0.036567338
000340 a3 e2 cd bc b9 0f 5c bc 27 45 79 bd fb 9e 64 bd
       -0.025132483 -0.013431483 -0.060856964 -0.055815678
000350 47 5c 8e bc 7b 9a bb bc 88 b9 4a bc e2 55 29 bc
       -0.017377986 -0.02290081 -0.012373336 -0.010335417
000360 09 ab c8 bd 3d c0 61 3c 1c 4b 55 3d 45 dc 97 bb
       -0.09798247 0.013778743 0.052073583 -0.0046344125
000370 30 6c d8 b8 97 40 78 bc ce bc fe bc 06 99 98 bd
       -0.00010319834 -0.015152118 -0.031095888 -0.07451062
000380 3a 91 bc 3c 1d 8f a8 bd 1a a9 b9 bd a2 2d 86 bd
       0.023018468 -0.08230422 -0.09065457 -0.065516725
000390 26 29 19 bd 5f 59 a1 bc 3b 0b b3 bc 75 85 3c bc
       -0.037392758 -0.019695936 -0.021855941 -0.011506428
0003a0 a6 cd 79 bc bc 3d b1 3d bf 48 e8 bc 15 e2 a0 3a
       -0.015246784 0.08654353 -0.028355 0.0012274409
0003b0 cc fd 73 3d af 07 c1 bc 8a 2c 93 bc a2 b5 7a bd
       0.05956821 -0.023563234 -0.017965574 -0.061208375
0003c0 9d 3a 94 bc d7 e3 f7 bc d3 c1 e7 bc 07 4d b7 bc
       -0.018094355 -0.03026001 -0.028290665 -0.022375597
0003d0 e0 ef 20 3d 3f d1 17 bb 6a a1 ee bc 10 29 89 3c
       0.039291263 -0.0023165492 -0.029129703 0.016743213
0003e0 50 ce 20 bd 69 05 cb 3d 82 eb 2f bd cb 4a fa bc
       -0.039259255 0.09913141 -0.042949207 -0.030553242
0003f0 d9 1b 2b 3c 8f 5b ea 3c c4 b6 79 3b 72 71 5c bd
       0.010443651 0.028608112 0.0038103322 -0.053819127

action_model._continuous_distribution.mu.bias f4 [2]
000000 22 f1 b9 bb 58 d1 79 3d
       -0.005674497 0.06099066
