results/Test4.8/CarAgent/CarAgent-49685.onnx (onnx, 83292 bytes, 7 tensors)

network_body._body_endoder.seq_layers.0.weight f4 [128, 22]
-0.14829068 -0.091644056 0.42337403 0.025777392 -0.064179935 -0.46603087 0.06423788 -0.13544519
0.11121675 -0.41410503 0.11886523 -0.24941629 0.1315576 -0.13764599 0.037450265 0.15231447
0.19407915 0.12924214 0.27354547 0.14036927 0.1925127 -0.07407326 -0.09958908 0.06378927
0.1670899 -0.08168117 -0.038572397 -0.4463029 -0.3826246 0.10164545 -0.08151692 -0.4713584
-0.16112344 0.30524582 0.011910843 -0.26404878 -0.68999213 -0.6719509 -0.123849675 0.31332612
0.080919094 0.06820104 -0.12387566 -0.21522503 -0.37362117 -0.18631767 0.34239972 0.107126035
-0.061540723 -0.39777282 -0.2183318 -0.055665635 0.3373167 0.13094163 0.28746596 0.2296978
0.16194624 -0.35396108 0.0025640912 0.48083803 -0.16205883 0.099983856 -0.048011966 0.11907078
0.33887097 -0.36579898 0.27794343 -0.29776713 -0.027796086 0.077665046 -0.06512983 -0.33543277
0.26847208 0.082605675 -0.31506667 0.15018989 0.015979212 0.17156392 -0.33083978 0.105080515
-0.11613367 0.2645949 -0.014751012 0.11970033 -0.05225314 -0.11589414 0.13646606 0.130383
0.055244867 -0.19786301 -0.14648297 -0.06787212 0.39595684 -0.092949964 -0.29362428 -0.07437163
0.20863919 -0.2716938 0.20610338 -0.15373588 0.11971618 0.21850535 0.23165613 0.047300845
-0.07041801 -0.12649383 0.21826632 -0.19924462 0.3946819 0.039718088 0.14371258 -0.29171273
0.4839514 -0.11087719 0.0061901137 -0.1616785 -0.055746898 0.2613411 0.09842394 -0.050801214
-0.13819465 0.0036414347 -0.19334197 -0.36157984 -0.25348666 0.22115777 0.25148338 0.04591572
-0.108878076 0.27929395 0.07893291 -0.11256799 0.05101957 -0.14267524 0.18388586 -0.12897466
0.6193249 0.058351617 -0.38717327 0.34827012 0.29895014 -0.45699647 0.015056444 0.09944245
0.18005316 -0.09753628 -0.20709993 -0.2012248 0.277222 -0.43398115 -0.007565691 -0.046792746
0.026720151 -0.13128039 -0.13988136 0.12986793 -0.16291562 -0.048064634 -0.55062187 0.0265291
-0.115992956 -0.15954977 0.28025866 0.22175892 -0.056469902 0.18162501 0.15141162 0.22419214
0.091263525 0.09013693 0.113521226 0.10587713 -0.119656056 0.04082742 0.17520322 -0.42470244
0.036724858 -0.12570511 -0.060884934 0.052367236 -0.403487 -0.2622123 -0.28530192 -0.12933923
-0.0075553246 -0.28116158 0.17406422 -0.041008186 0.016594285 0.07058829 0.431146 0.025760563
-0.07242551 -0.34300932 -0.12547995 0.24304622 0.26969668 -0.34052855 0.2612455 -0.11446093
0.35035145 -0.04908295 -0.1724549 0.14580664 0.068068594 0.08493952 0.16111226 0.16786106
-0.5749176 -0.041380078 -0.072276704 -0.1990947 0.29688272 0.19210674 -0.09032697 -0.2130404
0.40634608 -0.26149705 0.2737482 -0.0040599983 -0.022424797 -0.02370089 -0.06312793 -0.29695624
0.30454126 0.32103625 0.32146037 -0.07716962 0.19371197 -0.21120456 0.37620816 0.38217273
0.002576736 0.09578509 0.30584463 0.034506466 -0.018691493 -0.41312942 0.03485249 0.30908075
0.1639837 -0.10556607 0.22593588 -0.11238918 -0.41291413 -0.3872468 -0.17507173 -0.1653136
-0.15554826 -0.18354288 -0.024494117 0.035769466 0.48290882 -0.5617012 0.18493128 0.0029947958
00000000: 83d9 17be e1af bbbd 7bc4 d83e 1c2b d33c
00000010: c570 83bd 999b eebe 268f 833d 25b2 0abe
00000020: 9cc5 e33d 9305 d4be 9d6f f33d fc66 7fbe
00000030: 09b7 063e 12f3 0cbe 7365 193d 53f8 1b3e
00000040: afbc 463e 0d58 043e 270e 8c3e f6bc 0f3e
00000050: 0d22 453e b9b3 97bd 5cf5 cbbd f3a3 823d
00000060: 9d19 2b3e 7548 a7bd 17fe 1dbd d081 e4be
00000070: 5fe7 c3be 7d2b d03d 58f2 a6bd e355 f1be
00000080: 8bfd 24be 2e49 9c3e b225 433c 6731 87be
00000090: 53a3 30bf f904 2cbf e6a4 fdbd 486c a03e
000000a0: e9b8 a53d fdac 8b3d 86b2 fdbd f363 5cbe
000000b0: 464b bfbe 0fca 3ebe 044f af3e e564 db3d
000000c0: 2012 7cbd e1a8 cbbe 5f92 5fbe a601 64bd
000000d0: c6b4 ac3e 9015 063e bd2e 933e e635 6b3e
000000e0: 3cd5 253e 633a b5be 500a 283b 6730 f63e
000000f0: c0f2 25be 56c4 cc3d 32a8 44bd 62db f33d
00000100: 7f80 ad3e 014a bbbe 9a4e 8e3e ef74 98be
00000110: 9eb4 e3bc da0e 9f3d ca62 85bd d8bd abbe
00000120: 2c75 893e 2a2d a93d 6b50 a1be 61cb 193e
00000130: d6e6 823c 74ae 2f3e d563 a9be 7434 d73d
00000140: 7dd7 edbd fc78 873e 3bae 71bc 7225 f53d
00000150: 6307 56bd e859 edbd c2bd 0b3e 1f83 053e
00000160: 7148 623d 9a9c 4abe a2ff 15be 8a00 8bbd
00000170: dbba ca3e 8d5c bebd ec55 96be 2750 98bd
00000180: 83a5 553e 731b 8bbe c40c 533e f06c 1dbe
00000190: c22d f53d debf 5f3e 4437 6d3e 88be 413d
000001a0: 5137 90bd 9987 01be 3581 5f3e c806 4cbe
000001b0: bf13 ca3e 6faf 223d 6429 133e 5f5b 95be
000001c0: 7ac8 f73e 9513 e3bd 70d6 ca3b 0c8f 25be
000001d0: dc56 64bd 80ce 853e 7e92 c93d ef14 50bd
000001e0: e682 0dbe 23a5 6e3b 70fb 45be fe20 b9be
000001f0: 01c9 81be 2f77 623e 6ec2 803e 1f12 3c3d
00000200: 78fb debd 9eff 8e3e 94a7 a13d 0c8a e6bd
00000210: e6f9 503d 7519 12be 934c 3c3e ef11 04be
00000220: 148c 1e3f 1b02 6f3d 933b c6be 7650 b23e
00000230: fe0f 993e 71fb e9be 4eaf 763c 7ca8 cb3d
00000240: db5f 383e 1ac1 c7bd 0112 54be e00d 4ebe
00000250: 0bf0 8d3e c732 debe 9ee9 f7bb c0a9 3fbd
00000260: 38e4 da3c 5e6e 06be 0f3d 0fbe 19fc 043e
00000270: 5ad3 26be 6cdf 44bd 8ef5 0cbf 8e53 d93c
00000280: b78d edbd 0461 23be 107e 8f3e c514 633e
00000290: fc4c 67bd e8fb 393e a60b 1b3e a092 653e
000002a0: 5fe8 ba3d b699 b83d d17d e83d 1cd6 d83d
000002b0: 3c0e f5bd a73a 273d 7968 333e 9972 d9be
000002c0: ce6c 163d d7b8 00be 7b62 79bd 077f 563d
000002d0: d995 cebe b140 86be 1813 92be 8171 04be
000002e0: a892 f7bb 69f4 8fbe e43d 323e 33f8 27bd
000002f0: bdf0 873c 9890 903d 2bbf dc3e d107 d33c
00000300: d353 94bd eb9e afbe d17d 00be 1ce1 783e
00000310: af15 8a3e c259 aebe f8c1 853e 7e6a eabd
00000320: 4461 b33e 340b 49bd 0498 30be 564e 153e
00000330: 8c67 8b3d c5f4 ad3d 9dfa 243e c5e3 2b3e
00000340: cd2d 13bf 287e 29bd cf05 94bd 7bdf 4bbe
00000350: 0301 983e a1b7 443e 59fd b8bd 4327 5abe
00000360: 980c d03e f1e2 85be b928 8c3e bc09 85bb
00000370: 35b4 b7bc 5e28 c2bc 3749 81bd a60a 98be
00000380: d5ec 9b3e dd5e a43e 7496 a43e 1b0b 9ebd
00000390: 6e5c 463e 0246 58be 5b9e c03e 25ac c33e
000003a0: 75de 283b f92a c43d ab97 9c3e a756 0d3d
000003b0: e71e 99bc b385 d3be 7cc1 0e3d d53f 9e3e
000003c0: 58eb 273e 0633 d8bd bc5b 673e 4c2c e6bd
000003d0: 7b69 d3be 3645 c6be 0146 33be f847 29be
000003e0: 0b48 1fbe aaf2 3bbe e3a7 c8bc 0183 123d
000003f0: d33f f73e a6cb 0fbf a05e 3d3e 5644 443b

network_body._body_endoder.seq_layers.0.bias f4 [128]
-0.12715116 -0.03246688 -0.051931985 0.01089086 -0.13391967 -0.14770438 -0.026507474 0.04870691
-0.015145246 -0.04658572 -0.10744114 -0.18105873 0.0020856268 -0.054131545 -0.03948879 -0.03135571
-0.056165505 0.016145833 -0.03698446 0.017233344 -0.015079355 -0.0505496 -0.09134412 0.024626257
-0.025430776 0.04320996 -0.096928656 -0.019682564 -0.043041375 -0.042125084 0.033830587 -0.02469934
-0.0142942285 0.059612576 -0.054430924 -0.00948987 -0.028261652 0.054409675 -0.034361746 -0.009070202
-0.100005426 0.060144663 -0.060367305 0.0003286586 -0.06672823 -0.08031917 -0.10278114 -0.010182942
-0.01340528 0.079912305 -0.029157393 -0.086718716 -0.053212848 -0.08231875 -0.03959462 0.0005958712
-0.019248188 -0.09257319 0.009159142 -0.042105265 0.0122528095 0.055411648 -0.027276313 0.011671866
0.008294059 0.02452885 -0.095469706 -0.18694699 0.005585426 -0.06198297 -2.6636884e-05 -0.027583687
-0.035711776 -0.005845205 0.010769573 0.01659704 0.07376547 -0.053209577 -0.09238453 0.023575498
-0.04469652 -0.041741706 0.0035161912 0.0062645394 -0.06114572 -0.012372983 0.016804673 0.026811505
-0.04191048 -0.019498527 -0.05827201 0.03664085 0.041112725 -0.023329413 -0.06281927 0.01305713
-0.0125975665 0.029899096 -0.06140923 0.019887194 -0.016374568 0.020748116 -0.09440565 0.021148328
-0.05634663 -0.020580664 0.02670187 0.063506514 -0.04608243 -0.06355052 -0.09206966 -0.038186412
-0.033346675 -0.16782291 -0.039563645 -0.05583309 0.059763256 -0.012056105 0.07383783 -0.026074475
0.023276705 -0.037666842 0.06198161 -0.00033938873 -0.09118839 -0.013686877 -0.06011068 -0.030835724
00000000: ea33 02be fefb 04bd a2b6 54bd 946f 323c
00000010: 3d22 09be d13f 17be 3426 d9bc e680 473d
00000020: c423 78bc abd0 3ebd 1a0a dcbd 7667 39be
00000030: 03af 083b 0ab9 5dbd ffbe 21bd d86e 00bd
00000040: cd0d 66bd 4444 843c 047d 17bd f12c 8d3c
00000050: 660f 77bc 190d 4fbd a012 bbbd 01bd c93c
00000060: 3454 d0bc edfc 303d 8882 c6bd 543d a1bc
00000070: 274c 30bd 5a8b 2cbd f191 0a3d 4556 cabc
00000080: 5732 6abc 512c 743d f6f2 5ebd 667b 1bbc
00000090: fb84 e7bc aedc 5e3d e7be 0cbd 2f9b 14bc
000000a0: a5cf ccbd 405a 763d b543 77bd d04f ac39
000000b0: cfa8 88bd 617e a4bd eb7e d2bd 5bd6 26bc
000000c0: d2a1 5bbc 10a9 a33d 7cdb eebc 9599 b1bd
000000d0: b7f5 59bd bc96 a8bd f82d 22bd 3d34 1c3a
000000e0: 60ae 9dbc 0397 bdbd 3a10 163c 9276 2cbd
000000f0: 02c0 483c 53f7 623d 9372 dfbc 5b3b 3f3c
00000100: cee3 073c baf0 c83c 9f85 c3bd 086f 3fbe
00000110: f305 b73b dbe1 7dbd 4672 dfb7 2ff7 e1bc
00000120: 8346 12bd 2289 bfbb dd72 303c 84f6 873c
00000130: 5a12 973d 49f2 59bd 1a34 bdbd 6721 c13c
00000140: b313 37bd 5af9 2abd e66f 663b c446 cd3b
00000150: ef73 7abd 0db8 4abc f4a9 893c cda3 db3c
00000160: 53aa 2bbd 60bb 9fbc a2ae 6ebd b714 163d
00000170: d165 283d 531d bfbc 64a7 80bd 93ed 553c
00000180: 0666 4ebc f3ee f43c 3f88 7bbd 78ea a23c
00000190: f523 86bc f4f7 a93c c057 c1bd 423f ad3c
000001a0: b9cb 66bd c898 a8bc e1bd da3c b40f 823d
000001b0: eec0 3cbd c626 82bd 058f bcbd 5b69 1cbd
000001c0: 8696 08bd c5d9 2bbe 7d0d 22bd 3db1 64bd
000001d0: 51ca 743d f886 45bc 4a38 973d 239a d5bc
000001e0: caae be3c 8c48 1abd 6ee0 7d3d fcef b1b9
000001f0: fbc0 babd ec3e 60bc 9e36 76bd 339b fcbc

network_body._body_endoder.seq_layers.2.weight f4 [128, 128]
0.09319299 -0.06609503 -0.03633438 -0.046834946 0.12385747 -0.07846451 0.003940293 0.22293513
0.15211351 0.0876688 0.015148523 -0.06981027 0.027237203 -0.117642626 0.026668085 0.09308728
0.044578128 0.012688681 0.08305226 -0.22237396 0.0013018195 0.02665264 0.12263026 -0.14442237
-0.0021808587 -0.34054062 0.02075556 -0.17962188 -0.017667523 -0.012628969 0.012319397 -0.11289672
-0.021400996 0.13102585 -0.0448641 0.022680413 0.109235235 -0.17671205 0.036317192 -0.078091264
0.10080578 0.061299097 -0.08223975 -0.17232482 0.026714282 0.03009558 -0.18587323 0.054580145
0.11630326 -0.27560976 0.048302688 -0.21758509 -0.066933006 -0.0059648342 -0.12166912 0.071356505
-0.014525303 -0.04526641 -0.16332869 -0.012500754 0.023332272 -0.19975106 -0.0364551 -0.26578647
0.075064376 -0.03210659 -0.14275509 -0.04833855 0.20219043 -0.06335527 -0.12589201 0.07729998
-0.3070626 -0.07232632 0.12540784 -0.00883901 0.11051659 -0.34255642 -0.060603224 -0.031180203
-0.21470031 0.049264688 -0.12820397 -0.047442045 0.012428581 -0.07475835 -0.09347134 -0.02167759
-0.12597184 -0.03979583 -0.18125717 0.16705641 0.036524367 -0.08034076 -0.014563576 0.07296775
-0.028975202 -0.298257 0.019787073 -0.074981816 0.06040937 -0.20183273 -0.068163246 -0.06571464
0.068106376 0.00010350111 -0.016066108 0.10873006 -0.16784121 -0.20475063 0.04373664 -0.1322306
0.22048026 0.20210765 -0.17698607 -0.10246128 -0.21605791 -0.012629952 -0.23062412 0.020305432
-0.10464723 -0.1971667 0.0146496175 -0.084871404 -0.07929917 -0.040849783 -0.11142429 0.013303589
-0.008537895 -0.026990768 -0.017947126 0.24801198 -0.12456221 0.09457368 0.0021034363 -0.0050518317
0.07978921 -0.023004599 0.17749432 -0.08333737 -0.009466442 -0.082977735 0.030451328 0.16873565
0.0952248 0.02385425 -0.06018424 0.07836156 -0.09674075 -0.079771064 -0.057761706 0.03881289
-0.03140391 -0.17996776 -0.17943668 0.13735433 0.04732514 -0.035222415 0.16731238 -0.0062758336
-0.042382136 -0.07050133 0.02246345 -0.12722749 -0.08439545 -0.083309814 -0.15480413 -0.08284872
0.104790114 -0.12378562 0.012323679 0.08212516 0.17163934 -0.07830002 -0.07165212 0.03872192
-0.10509462 0.21942149 0.14986353 0.07594681 -0.070688955 -0.07077133 0.1294973 -0.012483833
0.10638918 0.048091315 -0.025632115 0.039148353 -0.09780155 0.009917992 0.11757576 -0.10730229
0.10806799 -0.0043188147 0.09703359 -0.13052158 -0.02894528 -0.075192735 0.15684783 0.067623146
0.0045270207 -0.038331516 0.1507023 0.2233787 -0.011782227 0.094080254 -0.21078567 0.15322234
0.031750094 -0.078717686 0.043333318 0.27081332 0.017624611 0.032032225 -0.03591931 0.02174863
-0.08949233 -0.121860154 -0.08487521 -2.57189e-05 0.22149263 -0.052929625 -0.031605996 0.1435719
0.16998932 0.033236295 0.06966653 0.09088073 -0.061782986 0.052409258 0.031618025 0.05640155
-0.013027856 0.11218892 0.20536609 0.08953816 0.090801634 0.0045644823 0.060257446 0.10906531
0.054749098 0.08070766 0.071579516 -0.106145635 0.12617199 -0.06065186 -0.15368058 0.13221097
0.073467165 0.071641706 0.07333613 0.08616576 -0.09429812 -0.036361184 0.05576605 0.2122444
00000000: f7db be3d d55c 87bd 5cd3 14bd 00d6 3fbd
00000010: fca8 fd3d 00b2 a0bd 931d 813b 1b49 643e
00000020: a5c3 1b3e b38b b33d 8331 783c b0f8 8ebd
00000030: 8e20 df3c 9eee f0bd 0777 da3c 8ba4 be3d
00000040: 8e97 363d 2fe4 4f3c 4e17 aa3d 00b6 63be
00000050: d0a1 aa3a a356 da3c 9325 fb3d 75e3 13be
00000060: bdec 0ebb 575b aebe 9007 aa3c ccee 37be
00000070: 7bbb 90bc bce9 4ebc 4cd7 493c 6536 e7bd
00000080: 2451 afbc a42b 063e 6bc3 37bd 46cc b93c
00000090: b9b6 df3d 01f4 34be 56c1 143d 50ee 9fbd
000000a0: 4373 ce3d c314 7b3d 506d a8bd eb75 30be
000000b0: e9d7 da3c 018b f63c 8d55 3ebe 6e8f 5f3d
000000c0: 6730 ee3d b91c 8dbe 0ad9 453d a0ce 5ebe
000000d0: 2c14 89bd a874 c3bb a92d f9bd 5c23 923d
000000e0: 89fb 6dbc 4569 39bd a33f 27be f6cf 4cbc
000000f0: 5223 bf3c 8b8b 4cbe f151 15bd 2a15 88be
00000100: 5abb 993d 3382 03bd 642e 12be a5fe 45bd
00000110: 020b 4f3e 68c0 81bd d6e9 00be 744f 9e3d
00000120: 4f37 9dbe d21f 94bd ea6a 003e 7fd1 10bc
00000130: 8656 e23d 8e63 afbe 163b 78bd a06d ffbc
00000140: 66da 5bbe c5c9 493d e747 03be 9752 42bd
00000150: 3fa1 4b3c e81a 99bd e76d bfbd 3495 b1bc
00000160: c3fe 00be f400 23bd 7b9b 39be d610 2b3e
00000170: 939a 153d b289 a4bd 119c 6ebc 1e70 953d
00000180: 675d edbc 24b5 98be 8018 a23c 1190 99bd
00000190: d16f 773d 3dad 4ebe 2c99 8bbd 6695 86bd
000001a0: 5b7b 8b3d bc0e d938 129d 83bc dead de3d
000001b0: 91de 2bbe 26aa 51be 3125 333d 7567 07be
000001c0: 94c5 613e 4ff5 4e3e d63b 35be 38d7 d1bd
000001d0: 493e 5dbe dced 4ebc bb28 6cbe 9457 a63c
000001e0: 4951 d6bd 11e6 49be f304 703c 0fd1 adbd
000001f0: 9a67 a2bd 1a52 27bd 6b32 e4bd 4cf7 593c
00000200: 87e2 0bbc be1b ddbc da05 93bc daf6 7d3e
00000210: 791a ffbd d8af c13d ced9 093b d689 a5bb
00000220: 8668 a33d 2474 bcbc 12c1 353e c8ac aabd
00000230: 2319 1bbc 3bf0 a9bd 1075 f93c 0ac9 2c3e
00000240: 3805 c33d fd69 c33c c083 76bd 077c a03d
00000250: 0420 c6bd 035f a3bd 8a97 6cbd 44fa 1e3d
00000260: 63a1 00bd 7849 38be 40be 37be 9da6 0c3e
00000270: 02d8 413d 6145 10bd f053 2b3e 82a5 cdbb
00000280: e498 2dbd 0063 90bd 4505 b83c ec47 02be
00000290: 86d7 acbd 569e aabd f984 1ebe 97ac a9bd
000002a0: 339c d63d 5183 fdbd 42e9 493c 3c31 a83d
000002b0: 39c2 2f3e c35b a0bd 59be 92bd e09a 1e3d
000002c0: d93b d7bd 07b0 603e d375 193e 008a 9b3d
000002d0: 5fc5 90bd 8ff0 90bd f19a 043e fe88 4cbc
000002e0: 92e2 d93d 66fb 443d 71fa d1bc 065a 203d
000002f0: 2e4c c8bd 137f 223c 8fcb f03d 4ec1 dbbd
00000300: c052 dd3d d884 8dbb 8cb9 c63d 73a7 05be
00000310: a71e edbc a6fe 99bd b89c 203e 017e 8a3d
00000320: 6757 943b 8201 1dbd b451 1a3e 63bd 643e
00000330: 3e0a 41bc 26ad c03d 33d8 57be 51e6 1c3e
00000340: 630c 023d bd36 a1bd 477e 313d 0ba8 8a3e
00000350: 7d61 903c 3934 033d 2020 13bd 2f2a b23c
00000360: c147 b7bd d191 f9bd 0ed3 adbd ebbe d7b7
00000370: f7ce 623e bccc 58bd 4a75 01bd 8304 133e
00000380: ae11 2e3e c822 083d 53ad 8e3d ad1f ba3d
00000390: 2810 7dbd 17ab 563d e781 013d 5005 673d
000003a0: ca72 55bc 4ec3 e53d 7d4b 523e c85f b73d
000003b0: 35f6 b93d a791 953b 83d0 763d a25d df3d
000003c0: 9740 603d 0f4a a53d 4898 923d e262 d9bd
000003d0: 3b33 013e 166e 78bd 715e 1dbe 5062 073e
000003e0: f475 963d e3b8 923d 4131 963d ad77 b03d
000003f0: 5f1f c1bd 77ef 14bd f16a 643d 9956 593e

network_body._body_endoder.seq_layers.2.bias f4 [128]
-0.010648166 -0.038358036 -0.017272545 -0.042473085 -0.0393669 -0.08437383 -0.10842189 -0.11889008
-0.10651303 -0.03787216 -0.009519782 -0.03555032 -0.07963609 -0.10082483 -0.102447666 -0.08119551
-0.032959417 -0.07450206 -0.099784195 -0.10225792 -0.082237884 -0.081648946 -0.06744689 0.02107019
0.01286648 -0.06406346 -0.118471645 -0.035884727 -0.050993536 -0.0484743 0.013308002 -0.070452094
-0.006765475 -0.10508271 -0.03169809 -0.037618887 -0.05735461 0.0064273346 0.010440723 0.028819386
-0.036899474 -0.025061296 -0.033804324 -0.037584543 -0.0062398417 -0.0036620584 -0.044354666 -0.04423736
-0.0013986743 -0.03547684 -0.013511177 0.011300265 0.010853 -0.032116655 0.11046299 -0.0189609
0.0057138503 -0.014081491 -0.03392745 -0.018980099 -0.077976875 -0.09684302 0.007826117 -0.08595519
-0.13066453 -0.0035904597 -0.075523965 0.0079945475 0.045575507 -0.0057588383 -0.017250737 -0.018259225
0.06729308 -0.083441235 0.002602119 -0.06986402 -0.0970159 -0.08423944 -0.09227572 -0.06427167
0.06128084 -0.09956098 0.04959958 0.02569218 -0.07524939 -0.09803777 -0.13243668 -0.040539775
0.004503635 -0.03451631 -0.08882758 -0.03063685 -0.038525894 0.030082775 -0.04211343 0.023489123
-0.1017857 0.010978155 -0.015226352 -0.0689477 -0.028031442 -0.0953295 0.018083777 -0.10505537
-0.048475225 -0.084334716 -0.11328676 -0.060947433 -0.054787 0.025927136 -0.040162574 -0.11190354
-0.04984589 0.025739972 -0.050717577 -0.09104949 0.035976846 -0.06557567 -0.080505155 -0.09342098
-0.0046196077 -0.03311851 -0.0433612 -0.08564614 -0.05396089 0.005041242 -0.12055915 -0.07006007
00000000: a575 2ebc 511d 1dbd 277f 8dbc 42f8 2dbd
00000010: 303f 21bd 30cc acbd 4c0c debd a47c f3bd
00000020: 8123 dabd d71f 1bbd dcf8 1bbc 369d 11bd
00000030: 3f18 a3bd 407d cebd 15d0 d1bd d549 a6bd
00000040: 7400 07bd 8994 98bd a85b ccbd 9a6c d1bd
00000050: 566c a8bd 9037 a7bd 9821 8abd 649b ac3c
00000060: eecd 523c b433 83bd 43a1 f2bd ddfb 12bd
00000070: 99de 50bd fd8c 46bd ce09 5a3c 3049 90bd
00000080: ebb0 ddbb 9b35 d7bd dbd5 01bd 4316 1abd
00000090: abec 6abd 649c d23b 910f 2b3c a216 ec3c
000000a0: e723 17bd 594d cdbc 6776 0abd 40f2 19bd
000000b0: 9677 ccbb 25ff 6fbb 3dad 35bd 3c32 35bd
000000c0: b953 b7ba 2a50 11bd fc5d 5dbc bf24 393c
000000d0: c8d0 313c c18c 03bd 6c3a e23d e453 9bbc
000000e0: 403b bb3b 0eb6 66bc 83f7 0abd 277c 9bbc
000000f0: 57b2 9fbd a255 c6bd 1d39 003c 4609 b0bd
00000100: eccc 05be eb4d 6bbb 4fac 9abd 90fb 023c
00000110: 62ad 3a3d a3b4 bcbb 6b51 8dbc 5f94 95bc
00000120: f4d0 893d 3de3 aabd 5088 2a3b de14 8fbd
00000130: 46b0 c6bd ba85 acbd 0dfb bcbd dea0 83bd
00000140: 9e01 7b3d a1e6 cbbd ee28 4b3d 6878 d23c
00000150: 5a1c 9abd 07c8 c8bd 7b9d 07be 090d 26bd
00000160: 3b93 933b f960 0dbd 3ceb b5bd 22fa fabc
00000170: 54cd 1dbd 2770 f63c 227f 2cbd 436c c03c
00000180: 0575 d0bd b8dd 333c f377 79bc 7434 8dbd
00000190: 32a2 e5bc 1d3c c3bd 6e24 943c 4527 d7bd
000001a0: f58d 46bd aeb7 acbd e402 e8bd 04a4 79bd
000001b0: 5568 60bd 2565 d43c 8381 24bd af2d e5bd
000001c0: 342b 4cbd a2dc d23c 3cbd 4fbd 2878 babd
000001d0: 755c 133d 894c 86bd e3df a4bd 8053 bfbd
000001e0: 1460 97bb 46a7 07bd 839b 31bd 3e67 afbd
000001f0: 1806 5dbd 0131 a53b b7e7 f6bd a77b 8fbd

action_model._continuous_distribution.log_sigma f4 [1, 2]
-0.26940402 -0.4009196
00000000: 53ef 89be 5545 cdbe

action_model._continuous_distribution.mu.weight f4 [2, 128]
-0.06965842 -0.031316888 -0.0154099595 0.013623322 -0.023316795 0.04937504 0.055419836 0.00027323002
0.017219573 0.045564134 -0.014317836 0.007839831 0.007432228 0.03221551 0.024453487 0.03706886
-0.026641082 0.037493467 0.0027412917 0.036054403 0.026612993 0.043051276 -0.04802884 -0.047149744
-0.049490463 0.07027328 0.02862668 0.024104763 -0.013810392 0.05904372 -0.056672007 0.021960588
-0.10728681 0.0017999124 0.07378663 0.0637365 -0.05771366 -0.04570978 -0.0007310611 -0.059353232
0.05981578 0.05845761 -0.030274153 -0.052288286 -0.084489316 -0.10751321 0.05164454 -0.008066671
-0.05102697 -0.041700676 0.007960548 0.054994907 -0.07455104 -0.014990681 -0.0040855184 0.020718873
0.044371385 -0.049770698 -0.103022285 -0.024307035 0.09847048 0.019896973 -0.011396095 0.05708778
0.079891495 -0.022993289 -0.0065915855 0.008166974 -0.035228457 0.007727696 -0.009102852 -0.02465635
-0.023125798 0.029659878 -0.022906264 0.03614522 0.028059343 0.07236572 0.012358736 0.0036853957
0.028362937 0.052150954 -0.06332911 0.017012075 0.028112233 0.030076252 0.050218876 0.040346224
-0.03015043 -0.048103463 0.052583788 0.0016515262 0.05957064 -0.016529819 0.008524489 -0.04167556
0.053875193 -0.037163034 -0.09288405 0.0473427 -0.04795447 0.03007655 0.079096586 0.036545657
-0.014403224 0.036831047 -0.0040316596 0.039049808 0.03828939 0.00024693357 -0.07243686 0.028809419
0.04735171 -0.052314155 0.026482133 -0.023456035 -0.046603188 0.035942424 0.053131204 0.031744894
-0.027874645 -0.018045997 -0.06686052 0.037187446 -9.058372e-05 -0.06826965 0.012324959 0.05416974
0.042085025 -0.014400734 -0.00013699783 -0.07110865 0.025192782 0.117518716 0.06379167 -0.053910572
0.025178345 -0.003432577 -0.008263807 -0.015938794 0.010603319 0.012143258 -0.009157438 -0.0830415
0.012814557 -0.04410286 0.06950951 -0.00042583045 0.0037549087 -0.026860049 -0.0024561272 -0.045305878
0.020322317 -0.017147154 0.004674633 -0.03538723 -0.057425354 -0.07476085 -0.004153246 0.019842237
-0.013714818 0.0013096352 -0.04958667 -0.046453655 -0.012690626 -0.039138053 0.03850924 -0.058808237
-0.04918457 -0.026862297 -0.030212851 -0.007536581 -0.021347333 -0.065267794 0.07080834 -0.017818827
0.0011309873 -0.11121275 -0.027632782 -0.02232345 0.084722236 -0.0013916526 0.05717101 -0.005750494
0.1029064 0.018539216 -0.056799 -0.042700134 -0.042776145 -0.023789769 -0.05475631 -0.06227605
0.10201269 -0.021311736 -0.013783835 0.026409421 0.01416156 0.06776565 -0.036183033 -0.07111474
0.048309032 -0.050805304 -0.031998925 0.0029952365 -0.010618281 0.08176931 -0.0046392265 -0.0053166584
0.07253623 -0.009130515 -0.053914957 0.037344284 -0.009455 0.048335798 0.004980197 -0.07517217
-0.045696393 0.028718263 -0.052838206 0.008395287 -0.101605505 0.08885629 0.07253969 -0.035910826
0.033122614 -0.042907327 -0.016997008 -0.07206248 0.023830548 -0.0029378308 -0.04458598 -0.03252231
0.014843584 -0.07336085 0.014319117 0.008097178 -0.009560608 -0.017152475 0.0096430555 0.06633077
-0.050090794 -0.05186646 -0.04173855 -0.014746043 -0.05821977 -0.092577286 -0.014278855 0.0063687908
0.007973344 0.07064279 -0.008465146 0.054078437 -0.0695056 -0.020154621 -0.043463755 -0.009941309
00000000: 13a9 8ebd 2346 00bd 0e7a 7cbc 5b34 5f3c
00000010: dd02 bfbc 7b3d 4a3d e9ff 623d 5040 8f39
00000020: 1010 8d3c 75a1 3a3d 5b95 6abc a272 003c
00000030: 0c8a f33b 69f4 033d ae52 c83c 84d5 173d
00000040: 663e dabc c092 193d 3ea7 333b c8ad 133d
00000050: 7e03 da3c 8956 303d e4b9 44bd 1720 41bd
00000060: 83b6 4abd 70eb 8f3d 8082 ea3c 5a77 c53c
00000070: fb44 62bc d4d7 713d e820 68bd b1e6 b33c
00000080: 30b9 dbbd 0aeb eb3a 721d 973d 4888 823d
00000090: 2965 6cbd 2e3a 3bbd aea4 3fba 601c 73bd
000000a0: 6401 753d 3f71 6f3d 8001 f8bc 3e2c 56bd
000000b0: bc08 adbd e32f dcbd 3a89 533d 122a 04bc
000000c0: a801 51bd 54ce 2abd f56c 023c 5742 613d
000000d0: 37ae 98bd 799b 75bc d0df 85bb a0ba a93c
000000e0: c5be 353d 5cdc 4bbd 59fd d2bd 8c1f c7bc
000000f0: e4aa c93d fafe a23c b0b6 3abc e0d4 693d
00000100: 279e a33d 6c5c bcbc 3afe d7bb c6ce 053c
00000110: b74b 10bd 9d38 fd3b 2124 15bc 1dfc c9bc
00000120: 5072 bdbc 46f9 f23c eba5 bbbc 030d 143d
00000130: b5dc e53c 7b34 943d 4c7c 4a3c ae86 713b
00000140: 6459 e83c 3d9c 553d b1b2 81bd e85c 8b3c
00000150: a04b e63c 7962 f63c 4fb2 4d3d 1542 253d
00000160: 09fe f6bc 2308 45bd 1962 573d 0678 d83a
00000170: 5800 743d 8b69 87bc 4caa 0b3c feb3 2abd
00000180: 3cac 5c3d 4438 18bd fe39 bebd 6bea 413d
00000190: e86b 44bd 1963 f63c 64fd a13d e6b0 153d
000001a0: 80fb 6bbc 27dc 163d 031c 84bb b1f2 1f3d
000001b0: 56d5 1c3d dd76 8139 c759 94bd bb01 ec3c
000001c0: def3 413d 5e47 56bd 0ff1 d83c df26 c0bc
000001d0: fce2 3ebd 5d38 133d 1ba0 593d ef06 023d
000001e0: 5e59 e4bc 33d5 93bc 2bee 88bd dd51 183d
000001f0: c4f7 bdb8 f5d0 8bbd a0ee 493c 17e1 5d3d
00000200: 5961 2c3d 0ef1 6bbc 13a7 0fb9 69a1 91bd
00000210: 1861 ce3c a7ad f03d 35a5 823d 55d1 5cbd
00000220: d142 ce3c 16f5 60bb eb64 07bc 1392 82bc
00000230: 8bb9 2d3c 84f4 463c 1409 16bc a911 aabd
00000240: 26f4 513c 33a5 34bd 015b 8e3d ff41 dfb9
00000250: ea14 763b 9b09 dcbc faf6 20bb a892 39bd
00000260: fd7a a63c 3078 8cbc aa2d 993b 33f2 10bd
00000270: d936 6bbd 371c 99bd f417 88bb 308c a23c
00000280: 1eb4 60bc 11a8 ab3a 641b 4bbd 3046 3ebd
00000290: 58ec 4fbc 394f 20bd ddbb 1d3d e8e0 70bd
000002a0: c275 49bd 520e dcbc f180 f7bc 6cf5 f6bb
000002b0: 9ae0 aebc 1fab 85bd f703 913d caf8 91bc
000002c0: a33d 943a 83c3 e3bd 255e e2bc abdf b6bc
000002d0: da82 ad3d 1d68 b6ba 262c 6a3d a46e bcbb
000002e0: 97c0 d23d 8edf 973c 11a6 68bd 56e6 2ebd
000002f0: 0a36 2fbd c3e2 c2bc 2748 60bd 2c15 7fbd
00000300: 07ec d03d f395 aebc 98d5 61bc 9258 d83c
00000310: e305 683c b8c8 8a3d a934 14bd 9ba4 91bd
00000320: b1df 453d 3919 50bd 4e11 03bd bb4b 443b
00000330: 4cf8 2dbc ab76 a73d a704 98bb 5d37 aebb
00000340: e08d 943d 2898 15bc eed5 5cbd 52f6 183d
00000350: 25e9 1abc c2fb 453d ec30 a33b def3 99bd
00000360: 242c 3bbd 9042 eb3c e06c 58bd 638c 093c
00000370: 8c16 d0bd 49fa b53d b08f 943d 3b17 13bd
00000380: 94ab 073d 98bf 2fbd 4f3d 8bbc 7e95 93bd
00000390: 4838 c33c 9f88 40bb ca9f 36bd 1d36 05bd
000003a0: 8132 733c 373e 96bd bb9a 6a3c 07aa 043c
000003b0: 19a4 1cbc 5983 8cbc e8fd 1d3c 6dd8 873d
000003c0: 012c 4dbd ed71 54bd 0bf6 2abd 6399 71bc
000003d0: db77 6ebd 2999 bdbd dcf1 69bc 4ab1 d03b
000003e0: a1a2 023c 2bad 903d 65b1 0abc 5a81 5d3d
000003f0: f458 8ebd 4e1b a5bc 0d07 32bd dfe0 22bc

action_model._continuous_distribution.mu.bias f4 [2]
0.00607987 0.043742884
00000000: a539 c73b bd2b 333d
