results/RoadExt1.2/CarAgent/checkpoint.pt (torch, 503979 bytes, 56 tensors)

discrete_act_size_vector f4 [1, 2]
000000 00 00 40 40 00 00 40 40
       3.0 3.0

network_body.observation_encoder.processors.0.normalizer.running_mean f4 [14]
000000 2c 66 ee 3c e7 ee 7d 3e cc b5 5d 3d d3 0f 8e 3e
       0.029101454 0.24798165 0.054128453 0.27746448
000010 ce 82 4e 3d 3d 44 89 3e 67 8c 90 3b dd d1 85 3e
       0.050417714 0.26809874 0.0044112685 0.26136675
000020 9c 35 58 3b aa f8 7a 3e e8 3c 08 3a df 79 81 3e
       0.0032990938 0.2450892 0.0005197064 0.25288293
000030 ad 7d 1d 3a 57 00 66 3e
       0.0006007802 0.22461067

network_body.observation_encoder.processors.0.normalizer.running_variance f4 [14]
000000 71 62 54 46 5e 1a 56 46 39 6b c0 46 4b e6 99 46
       13592.61 13702.592 24629.611 19699.146
000010 72 ee b3 46 b8 1e 95 46 3e 1a 04 45 6c 45 7a 45
       23031.223 19087.36 2113.6401 4004.3389
000020 7f d8 c5 44 ec 13 68 45 c3 de 7a 43 ce c0 be 44
       1582.7655 3713.245 250.87016 1526.0251
000030 cb e9 90 43 f6 94 92 44
       289.8265 1172.655

network_body.observation_encoder.processors.1.normalizer.running_mean f4 [8]
000000 29 1d 30 bf 66 99 23 b8 92 e8 15 40 3b f7 4d bf
       -0.68794495 -3.9005092e-05 2.34232 -0.8045537
000010 1c 5f f5 3e a5 4c ed 40 5c 5e 54 41 0c 2d 96 be
       0.47924125 7.415606 13.273037 -0.29331243

network_body.observation_encoder.processors.1.normalizer.running_variance f4 [8]
000000 bd 7c c6 49 d5 d3 96 3f e7 f5 0c 4d d5 5e 48 4a
       1.6260076e+06 1.1783396 1.4780786e+08 3.2828692e+06
000010 36 fc a1 41 25 20 08 4d c8 5c 96 4c 4d 17 00 49
       20.24815 1.42738e+08 7.883322e+07 524660.8

network_body.processors.0.normalizer.running_mean f4 [14]
000000 2c 66 ee 3c e7 ee 7d 3e cc b5 5d 3d d3 0f 8e 3e
       0.029101454 0.24798165 0.054128453 0.27746448
000010 ce 82 4e 3d 3d 44 89 3e 67 8c 90 3b dd d1 85 3e
       0.050417714 0.26809874 0.0044112685 0.26136675
000020 9c 35 58 3b aa f8 7a 3e e8 3c 08 3a df 79 81 3e
       0.0032990938 0.2450892 0.0005197064 0.25288293
000030 ad 7d 1d 3a 57 00 66 3e
       0.0006007802 0.22461067

network_body.processors.0.normalizer.running_variance f4 [14]
000000 71 62 54 46 5e 1a 56 46 39 6b c0 46 4b e6 99 46
       13592.61 13702.592 24629.611 19699.146
000010 72 ee b3 46 b8 1e 95 46 3e 1a 04 45 6c 45 7a 45
       23031.223 19087.36 2113.6401 4004.3389
000020 7f d8 c5 44 ec 13 68 45 c3 de 7a 43 ce c0 be 44
       1582.7655 3713.245 250.87016 1526.0251
000030 cb e9 90 43 f6 94 92 44
       289.8265 1172.655

network_body.processors.1.normalizer.running_mean f4 [8]
000000 29 1d 30 bf 66 99 23 b8 92 e8 15 40 3b f7 4d bf
       -0.68794495 -3.9005092e-05 2.34232 -0.8045537
000010 1c 5f f5 3e a5 4c ed 40 5c 5e 54 41 0c 2d 96 be
       0.47924125 7.415606 13.273037 -0.29331243

network_body.processors.1.normalizer.running_variance f4 [8]
000000 bd 7c c6 49 d5 d3 96 3f e7 f5 0c 4d d5 5e 48 4a
       1.6260076e+06 1.1783396 1.4780786e+08 3.2828692e+06
000010 36 fc a1 41 25 20 08 4d c8 5c 96 4c 4d 17 00 49
       20.24815 1.42738e+08 7.883322e+07 524660.8

network_body._body_endoder.seq_layers.0.weight f4 [128, 22]
000000 40 13 cd 3e 5c 4e 58 be 89 60 87 bd 06 61 32 3e
       0.4005375 -0.21123642 -0.066102095 0.17419824
000010 2d ea c4 3d 91 62 d0 3d 93 fe 56 3e f8 a6 46 3d
       0.09614978 0.1017505 0.2099555 0.048499078
000020 e2 76 b4 3d 3f 79 6e bd 81 ac 96 3d a6 22 b9 be
       0.088117376 -0.058221098 0.07357121 -0.36159247
000030 9c 50 03 3d ed e2 13 bc 2a 7f 8a 3d 7c d9 13 bf
       0.032059297 -0.009026271 0.06762536 -0.5775373
000040 30 cb ee bc c3 92 4a be 32 53 77 3e e9 82 18 3e
       -0.029149622 -0.19782548 0.2415283 0.14893688
000050 0a 70 dc 3c 22 2c 37 bd 66 ed d5 3d 2b 05 f0 3d
       0.026908893 -0.044719823 0.10445671 0.11719736
000060 fa 44 9a bd 58 bd 19 3b e6 cb 96 bd da 40 00 bf
       -0.075326875 0.0023458805 -0.07363109 -0.50098956
000070 89 b3 06 bd 69 15 57 3e 8e 83 f3 3d 01 d7 4c be
       -0.03288606 0.21004261 0.118903264 -0.20003892
000080 8e c4 b4 3d d2 d4 c6 bd 7e f5 fa bd 6f 55 0c 3e
       0.08826552 -0.09708561 -0.12253855 0.13704465
000090 bd 7f 71 be 34 5f 69 be 79 05 51 3e 4f f6 50 bd
       -0.23583885 -0.22790223 0.20412244 -0.05101615
0000a0 14 a4 84 bc ef de 96 be eb 83 db be 2d 22 41 3d
       -0.01619152 -0.2946696 -0.42874083 0.047151733
0000b0 5e eb 51 3d 2e 4b fd 3d 30 9d 83 be 3a e1 ce 3e
       0.051249854 0.12367855 -0.25705862 0.4040621
0000c0 10 77 80 be 7d 3f 7e be a9 89 7e be 33 56 50 3d
       -0.25090837 -0.24828906 -0.248572 0.050863456
0000d0 a4 f6 bc 3d ec 5c 7e 3d 76 f5 a8 3d b2 9d 5d be
       0.092267305 0.062100336 0.08249943 -0.21642187
0000e0 d0 e1 02 be 85 e1 3c bd 42 c7 93 bd a6 2c 1b 3e
       -0.12781453 -0.04611351 -0.0721574 0.15153751
0000f0 e1 51 60 3b 55 4c 84 3d 60 71 9e 3e 64 f6 d3 3e
       0.003422849 0.06459872 0.30945873 0.4139892
000100 55 2b 38 bf e5 96 d0 3e cc db 8f be cc 9d 3e 3e
       -0.7194112 0.40740123 -0.2809738 0.18614882
000110 cd 60 b9 3d 29 b9 29 be 1e ac a1 3c 64 ca 06 be
       0.090516664 -0.16574539 0.019735392 -0.13163143
000120 35 35 92 be d2 35 c3 bc a3 f0 0c bd 14 10 f6 bd
       -0.2855622 -0.023829374 -0.034409177 -0.120147854
000130 03 19 9e 3e da db 4a 3e bc 42 08 be 88 84 94 3e
       0.30878457 0.19810429 -0.13306707 0.29007363
000140 74 72 4e 3e 03 f4 a6 3e 1d d1 65 3e 8a 5a 58 bd
       0.20160848 0.3260804 0.22443052 -0.05282072
000150 0f f6 99 bd 4f b4 0a 3e 5d c2 5b be 53 2e 72 3e
       -0.07517635 0.13545345 -0.21460862 0.23650484
000160 a1 ca 28 3e 66 af 91 be eb 29 77 3d f7 b5 9b 3e
       0.16483547 -0.2845413 0.06034271 0.30412266
000170 97 f6 5e 3e b3 1e c9 3d 30 f9 03 3c 44 50 ae 3d
       0.21773754 0.098203085 0.008055016 0.08511403
000180 b5 2d d7 3e 7e 9c 53 be 03 f3 4a 3e ef 9b 1d 3d
       0.4202706 -0.20665166 0.19819264 0.038478788
000190 96 00 81 3e cb 30 2c 3d b0 30 35 3d c3 d6 3b be
       0.2519576 0.04203872 0.044235885 -0.18343644
0001a0 8e a7 b3 be 90 05 31 bd a8 01 15 be 7e 76 b4 be
       -0.35088772 -0.043218195 -0.14551413 -0.35246652
0001b0 fc 00 48 3e 08 b9 14 3e ad c3 88 3e 8f dc e8 bd
       0.19531626 0.14523709 0.2671179 -0.11370193
0001c0 3b 38 b5 be 10 07 3f be b6 16 66 be 6a a7 cf bc
       -0.35394463 -0.18655038 -0.22469601 -0.025348384
0001d0 51 f5 c5 3e 6c 7f 70 be 9d 38 63 be 63 ef 63 3e
       0.38663724 -0.23486108 -0.22189565 0.22259288
0001e0 4c f9 b3 3d 94 8a ad 3e a0 f4 4b be 42 59 81 be
       0.08787784 0.3389479 -0.19917536 -0.2526341
0001f0 3c d4 87 be 33 97 85 bd 6f eb 0b 3f 9b 59 1a 3d
       -0.2652911 -0.065229796 0.5465612 0.03768311
000200 14 a4 2b be 4b 66 5e bd de 4f c8 3e f3 65 10 3d
       -0.1676181 -0.054296773 0.39123434 0.035253476
000210 3d 62 cc 3e 19 3a ba 3e 84 9b bd bc b4 72 57 3e
       0.399187 0.3637245 -0.023145445 0.2103985
000220 47 9b 96 bc b9 d1 b4 3d 54 05 07 be 56 91 2d 3e
       -0.018384589 0.08829064 -0.13185626 0.16949973
000230 77 3b 0a be 90 3f 56 3e 09 7b 32 be 43 61 9d 3e
       -0.13499247 0.20922685 -0.17429747 0.30738267
000240 3a a0 3c 3e 81 48 ca 3d d4 de 33 be e8 08 23 3e
       0.18420497 0.0987711 -0.17565471 0.15921366
000250 d5 e1 9a 3e bc 8b 10 3e e8 e6 24 be 3a 05 81 3c
       0.3025042 0.14115804 -0.16103709 0.015749563
000260 ed 00 cd be a6 21 98 3d dd 81 65 3e 8c c5 2a 3e
       -0.4003977 0.07428293 0.2241282 0.1667692
000270 26 d1 e9 be ff 7b 72 bd d0 fd 38 be 2b 18 39 be
       -0.4566738 -0.059200283 -0.18065572 -0.18075626
000280 19 8d 96 3e 91 af 87 3d d9 d2 d8 bd 2f e9 fd 3d
       0.29404524 0.066252835 -0.10587091 0.12397992
000290 17 7b 2e be 30 85 84 be 99 d3 4d bc 68 07 84 3e
       -0.17039143 -0.25882864 -0.012562656 0.257869
0002a0 87 01 68 be d9 ce ca bd 84 f8 06 3e 08 a7 e7 3d
       -0.22656833 -0.09902734 0.13180739 0.113111556
0002b0 a3 fa 7e be 7e 2b 30 3e fa f0 1c be 5a e0 a5 be
       -0.24900298 0.17204091 -0.153263 -0.3239773
0002c0 58 eb 5a be fd 0c 62 be 63 87 d3 3e c8 32 cd 3e
       -0.21378839 -0.22075267 0.4131423 0.40077806
0002d0 ca 46 67 bc 34 c0 18 3e 68 0e 4a be 60 3e 11 bf
       -0.0141159985 0.1491707 -0.19732058 -0.567358
0002e0 dd ce 04 3e 02 fc b3 bd 3b 89 b9 3e 91 a7 60 3e
       0.12969537 -0.08788301 0.3623751 0.21938922
0002f0 bb 8a df 3b 58 e3 f0 3d a8 48 9b 3e 01 b0 e5 bd
       0.006821958 0.117621124 0.3032887 -0.11215211
000300 89 32 43 3d 03 03 a4 3d fb e2 67 be 54 ed 6a 3e
       0.047655616 0.08008387 -0.2264518 0.22942096
000310 e5 2d db bd 77 56 87 be 6c 6c 8d 3d f8 96 31 3e
       -0.10702113 -0.26433155 0.069054455 0.17342746
000320 69 98 02 be d8 d7 b5 be fa 4d 30 be ab 2c 56 be
       -0.12753452 -0.35516238 -0.17217246 -0.20915477
000330 38 67 db 3d e7 a9 65 3e c4 88 e2 ba d1 ad 63 be
       0.10713047 0.22428094 -0.0017283191 -0.22234274
000340 5d 29 1b 3e 93 22 ae bd e6 56 f1 3e 98 5f 1a 3d
       0.15152498 -0.08502688 0.4713661 0.03768882
000350 19 d3 33 3d 7a 5c 1e 3f 7e f9 32 3d c6 0b d0 bd
       0.04390249 0.6185986 0.043694966 -0.101584956
000360 e2 af b7 3e 33 e3 6c 3e e7 3f 60 be 0d ce f8 3e
       0.35876375 0.23133545 -0.21899377 0.48594704
000370 87 c5 16 bd 2b 44 dc 3e 59 46 58 be a9 a8 5d 3e
       -0.03680947 0.43020758 -0.21120586 0.2164637
000380 eb 30 b6 3d 16 cd 02 3e a1 29 ff 3d 6b 1e c3 be
       0.08896049 0.12773547 0.12459112 -0.38109145
000390 6b 70 ae 3e 86 84 dd 3d b6 cd e8 be 06 6b 05 3d
       0.34070143 0.108162925 -0.45469445 0.03257277
0003a0 fe ea 5f be 08 bd 11 bd 4a f1 b5 bd 86 2a 07 be
       -0.21866986 -0.035580665 -0.08883913 -0.13199815
0003b0 95 cb ca bd 0e e0 a6 bd c3 f9 40 be 2f 9d a7 3e
       -0.099021114 -0.08148204 -0.18845277 0.3273711
0003c0 7c 25 77 bd fd 27 6e be af 00 85 3e 70 fc 62 be
       -0.060338482 -0.23257442 0.25977084 -0.2216661
0003d0 c4 52 6c be 4f 82 14 be 46 10 39 be 52 0f 59 be
       -0.23078448 -0.14502834 -0.18072614 -0.2119725
0003e0 34 ff b9 3c 1d b6 fe 3e 9b c9 84 3d a2 b4 3d 3d
       0.022704698 0.49748316 0.06483766 0.046314843
0003f0 c1 61 c9 bd 8c d0 1d be a2 00 55 3e d3 ef 0d 3e
       -0.09833098 -0.15411586 0.20801023 0.13861017

network_body._body_endoder.seq_layers.0.bias f4 [128]
000000 f2 0b 56 be 8e 5e 53 3e 31 0d 23 3e ed 9e ff 3d
       -0.20902994 0.20641539 0.15923001 0.124814846
000010 32 4d 8a bd 95 d1 91 3d a7 7e 72 3e 1c bf 31 3e
       -0.06753005 0.07120053 0.23681127 0.17358059
000020 9c c2 cc bd c2 04 b6 3d 94 1f 69 3c bb 3f 34 3e
       -0.09998056 0.08887626 0.01422872 0.17602436
000030 37 e5 50 3e 58 26 75 bc 56 0b 94 3e b3 70 99 3d
       0.20399939 -0.014962755 0.289149 0.07492199
000040 ee 8a b2 3d 80 e7 f1 bd 0b ef 43 be e5 93 7d bd
       0.08717905 -0.11811733 -0.19134156 -0.06190862
000050 f0 26 67 3e 7b c9 85 3e 8c 89 77 3e 7a 6d 3f bd
       0.22573447 0.2613028 0.24173564 -0.046735264
000060 39 0b 84 3c 53 dc 90 ba 36 93 26 be d9 54 e9 bd
       0.016118633 -0.001105199 -0.16267094 -0.113931365
000070 a1 25 b6 3d 14 a5 38 3e 64 19 05 3e 5d e5 f2 3d
       0.08893896 0.18031722 0.12997967 0.11860154
000080 4f 58 63 be 95 28 2b 3d f3 94 86 3e 06 bd 3f be
       -0.22201656 0.04178675 0.26285514 -0.1872445
000090 76 dc 6c bc ba dc 97 3e a0 10 2b 3e 67 80 08 be
       -0.014456859 0.29660589 0.1670556 -0.13330232
0000a0 6f 4c cd 3d 04 d5 07 3e 17 63 31 3e 38 0c 14 3e
       0.10024344 0.13264853 0.17322956 0.14457786
0000b0 ce db 15 3e cc 26 0f 3e 4c 4f a0 3d 40 c4 42 3e
       0.1463463 0.13979644 0.07827625 0.19020176
0000c0 76 b3 5f be a8 05 e4 bc 91 c8 09 3e 5b b5 60 3e
       -0.21845803 -0.027834728 0.13455416 0.21944182
0000d0 75 6b b8 3c c4 57 9d bd 7e 0a 97 3d fa 47 9a 3e
       0.022512177 -0.076827556 0.07375048 0.3013304
0000e0 d2 a0 51 3e b2 2a 10 3e 4f 78 21 be b8 ff 88 bd
       0.20471504 0.14078787 -0.1576855 -0.066893995
0000f0 da 08 0e 3e 7e d1 42 be cd 13 89 3e a5 bf 12 be
       0.13870564 -0.19025227 0.2677292 -0.14330919
000100 59 47 9c bc 4b a8 83 3d 2a bc ff bd 4b 1d a1 3e
       -0.01907699 0.06428584 -0.12487061 0.3146766
000110 f2 e0 7c 3e 03 f6 7d 3e a0 20 f9 bb 1b 63 5a 3e
       0.24695185 0.24800877 -0.007602766 0.21326868
000120 e7 69 75 3e 6a b3 85 be 78 dd 04 be 8f 50 91 bd
       0.2396618 -0.26113445 -0.12975109 -0.070954435
000130 60 e5 3b 3e c7 2a 11 3e bb 87 99 3e fa 4d 3f be
       0.18349218 0.14176475 0.29986367 -0.1868209
000140 79 d9 23 be e5 99 15 3e 17 50 fd bd 2d 16 58 3e
       -0.16000928 0.14609487 -0.123687916 0.2110221
000150 b5 e6 b6 bd 70 ee 16 3e 0d 06 69 3e 7b ed 4c 3e
       -0.089307226 0.14739394 0.22756214 0.20012467
000160 33 c9 31 3e 41 e0 83 3e e6 b8 4b be 7a d9 32 be
       0.17361908 0.2575703 -0.19894752 -0.17465773
000170 40 04 1d 3e fa 03 7f 3e a5 e3 0e bd 4f 7e 69 3e
       0.15333652 0.2490386 -0.034885067 0.22802089
000180 0e f1 a3 3d a5 e1 97 3e 3d 06 2b 3e 54 12 04 3e
       0.08004962 0.2966434 0.16701598 0.12897617
000190 50 29 b2 bd d4 7d 1c 3e 1a cb c3 3d ee 1d 00 3e
       -0.08699286 0.15282375 0.09560223 0.12511417
0001a0 05 73 6d 3e ca 03 06 3e 4a 15 06 3e f2 87 34 3e
       0.23188408 0.13087383 0.13094059 0.17629984
0001b0 bc b4 f7 3d a6 33 26 3e af 27 07 3e a9 70 4f 3e
       0.12095019 0.1623064 0.13198732 0.2025782
0001c0 8e ff 55 be eb a1 66 bc 71 b2 04 3e 23 b6 5a bd
       -0.20898268 -0.01407669 0.12958695 -0.053396355
0001d0 55 cf 1d be c9 47 8b bd ab fd ac bc f7 50 4d 3e
       -0.15411122 -0.06800801 -0.021117052 0.20050417
0001e0 b4 60 4f be 10 f4 30 3e 97 f8 6e 3e b9 05 0d be
       -0.20251733 0.17280602 0.23337017 -0.13771714
0001f0 f1 2c a8 3d de c9 a4 3d a1 b4 34 3e 3b f5 6b 3d
       0.08211697 0.080463156 0.1764703 0.057606917

network_body._body_endoder.seq_layers.2.weight f4 [128, 128]
000000 d6 ff 8c bd 88 b6 fd 3d a3 ff 8e bd 89 25 b2 bd
       -0.06884734 0.12388331 -0.069823526 -0.086985655
000010 ea 84 8a bc aa 2f 65 be 5a 69 1b be 88 56 2c bd
       -0.016909081 -0.22381464 -0.15176907 -0.04207471
000020 61 5f 80 bb 23 0a ee bd c3 40 79 3d 4b bd 12 bc
       -0.00391762 -0.11623027 0.060852777 -0.008956264
000030 08 ae 40 be cf 5d bb 3d 3b e3 2f bd 1a 88 c5 3c
       -0.18816388 0.09148752 -0.042941313 0.02411275
000040 3f 84 96 bc fa 9e b5 bd b6 37 60 3e 0b 49 f8 3c
       -0.018373607 -0.08868213 0.21896252 0.030308267
000050 85 1f 7e bd be 1b bd bd c5 7a d5 3d 7d 26 8f 3c
       -0.062041778 -0.09233807 0.10423807 0.017474407
000060 96 12 e1 3d ce ec f4 3c 69 dd 2b 3e 09 5d 3f be
       0.10989873 0.029898074 0.1678368 -0.18687834
000070 f4 76 4b bd d0 ca f8 3d c8 e8 da bd 09 a9 90 ba
       -0.04967399 0.121480584 -0.10688931 -0.0011036705
000080 5c 20 a5 bd f8 9c 11 3e cb a5 62 bd 9a ec 2d bd
       -0.08062813 0.14220035 -0.055333894 -0.04246197
000090 b6 30 b8 3c bb 09 c8 3d de 64 c1 3d aa 34 e9 3d
       0.022484165 0.09767481 0.09443067 0.11386998
0000a0 f0 39 15 3d 28 b8 5e 3d 81 b7 a8 bd 90 f1 96 3d
       0.036432207 0.054374844 -0.082381256 0.07370293
0000b0 03 bf f3 bb 76 d9 62 be 14 04 0c 3e 5f 62 77 3d
       -0.007438542 -0.22153267 0.1367343 0.06039655
0000c0 4c 54 76 bd 90 42 f1 bd 7a 69 0e 3d 94 3d 94 bd
       -0.060138986 -0.11780274 0.03476856 -0.072383076
0000d0 8a 94 be 3d 9d c9 a7 3d 8f 3f 14 be 32 01 d6 3c
       0.09305675 0.081927516 -0.1447737 0.026123617
0000e0 2b db df bb 4f 8c 0d bd d2 d0 ec 3d ea 73 c7 3b
       -0.006831547 -0.034557637 0.11563267 0.006086816
0000f0 bb aa 84 bd c4 d5 ff 3c f1 d3 af 3d af 3e e7 bc
       -0.06477877 0.031229861 0.085853465 -0.028228132
000100 ca 24 6e bd 0e 5f 8a 3d a7 c5 40 bd 09 9e 0a bd
       -0.058140554 0.067564115 -0.047063496 -0.03384212
000110 a1 b9 0f 3e 24 e3 06 bd 29 8b 92 bd 04 de 91 3d
       0.14035656 -0.032931462 -0.07155449 0.07122424
000120 52 9a de 3d 46 4b 0e be 34 b6 8d be 9a a8 37 bd
       0.10869278 -0.13895902 -0.27678072 -0.044838525
000130 83 fd 63 3e c0 e5 0f 3d 10 5c 85 3e 0a 9a 0c bd
       0.22264676 0.035131216 0.260468 -0.03432659
000140 31 9a 0f 3d bb fe ac bd 6f 86 41 bd 7a 7b 47 3e
       0.035059158 -0.084470235 -0.047247346 0.19480696
000150 58 23 16 be c2 bb 5f bd 4a 77 f6 3d c6 cd 0c be
       -0.1466192 -0.05462242 0.12034471 -0.13750371
000160 a2 17 f2 bd 8f e8 2d 3b e9 64 60 be 1a 52 d5 3d
       -0.11820914 0.002653632 -0.21913494 0.1041605
000170 7d 2d ac bd 0a 97 ed bd dd 22 3f 3d 67 d4 a7 bd
       -0.08407114 -0.11601074 0.046664108 -0.081948094
000180 2d 6c 64 3d 37 71 21 3e 30 8a 24 3c d1 a9 fa 3b
       0.055767227 0.15765844 0.010042712 0.007649638
000190 10 39 97 bc 27 1a 0f be b4 c4 f5 3d c6 7e 5d bd
       -0.018459827 -0.1397482 0.12000409 -0.05407598
0001a0 82 07 87 3e 4d 72 e1 3c bb 91 a6 bd 6f 94 ed 3d
       0.26372916 0.027520323 -0.08133265 0.11600577
0001b0 a1 35 b7 bd a3 b2 b7 bd db af 69 bd f6 96 65 bd
       -0.08945776 -0.08969619 -0.057052474 -0.05605217
0001c0 e6 e3 03 3c c5 1f 07 be 8d 4d 36 3c 2b 4f 89 3e
       0.008049941 -0.13195713 0.011126888 0.26818213
0001d0 bf 88 9e 3d b7 0a a7 bc e3 c0 7b bd b8 3f 88 bd
       0.07740926 -0.020390851 -0.061463248 -0.066527784
0001e0 49 65 15 be 3d 37 0d be e3 39 4d 3e 33 a7 58 3d
       -0.14589418 -0.13790603 0.20041613 0.05289383
0001f0 4c bf b7 bb e0 96 50 bd c1 02 5d bd cb d4 1a 3e
       -0.005607521 -0.050925136 -0.053957704 0.15120237
000200 52 d8 f0 bc 23 d0 92 bd 86 a9 d6 bc c7 86 28 be
       -0.029400025 -0.07168605 -0.026203882 -0.16457663
000210 3d 66 1c bc 87 dc 10 bd be 19 fe bb c6 f5 01 be
       -0.00954586 -0.03536656 -0.0077545336 -0.12691411
000220 63 4c 3b 3e 54 8f ce bd e7 5f c8 bd 63 24 da 3d
       0.18290858 -0.100859314 -0.09783917 0.106514715
000230 f2 da bd bd 04 6f 6f be 47 ab 5d bd 90 3b ba bd
       -0.09270276 -0.23382193 -0.05411842 -0.09093392
000240 f0 77 cb bd ef 49 04 bc 3b 0b 3b 3e 97 a2 00 3c
       -0.09934986 -0.008074268 0.18266003 0.007851264
000250 60 dd 74 3d ef fc ca 3c c4 5e 8a bc 97 47 01 3d
       0.059781432 0.024778811 -0.01689089 0.031562414
000260 96 84 ac bc 83 ba 15 be 76 d8 aa 3d 02 36 11 bc
       -0.021059316 -0.1462193 0.08342068 -0.008862974
000270 a2 62 b7 3d b5 54 6b 3b 5e 1d 72 bc 67 88 0f ba
       0.089543596 0.0035908644 -0.0147775095 -0.00054753426
000280 04 3e 27 be 78 bd aa 3c f7 1c 98 bd ee e3 94 3d
       -0.16332251 0.020842299 -0.074273996 0.07270037
000290 31 8b 28 be 6f f3 2e 3e 63 0e 46 be 52 c1 9f bd
       -0.16459347 0.1708505 -0.19341426 -0.07800545
0002a0 34 a4 ba 3d ec 74 b2 3d 5b 95 78 3d ea aa 38 bd
       0.091133505 0.08713707 0.06068931 -0.04508487
0002b0 d4 46 46 3c 76 78 0b bd 27 14 2c 3e 9e 44 c2 3a
       0.012101848 -0.034050427 0.16804563 0.0014821475
0002c0 b8 2e 9d 3d f6 c3 b5 bc a4 f7 8a 3e 17 33 3b bd
       0.076749265 -0.022188168 0.2714206 -0.04570302
0002d0 c6 ff 0d be 0e 02 1e be 17 56 a0 bd 72 94 06 3e
       -0.13867101 -0.15430471 -0.0782892 0.13142565
0002e0 24 ba c0 3d b2 af ae 3d 7d 65 d1 bd 7f a0 2e 3c
       0.094105035 0.08529605 -0.102244355 0.010658382
0002f0 6d 1c 01 bd dd 88 86 3c 92 2f ac bd ec 0c 2a 3d
       -0.03152125 0.016422683 -0.08407511 0.04151623
000300 d3 83 38 be 68 7a 36 be e1 7e 87 3d 10 0b 77 3d
       -0.18019037 -0.17820132 0.06615997 0.060313284
000310 4a cd f7 3c 6c da b0 3c ad 9f c7 bd d8 4a df 3d
       0.030249257 0.021588527 -0.097472526 0.10902947
000320 16 2d 9f 3c 75 a7 37 3c 5d 68 04 be d7 e1 5e bd
       0.019430678 0.011209358 -0.12930436 -0.054414596
000330 af 4e 7d bd 02 89 a8 bd f8 51 3d 3c 05 7e 4e 3d
       -0.061842617 -0.08229257 0.011555187 0.05041315
000340 35 5d a1 bc ef b9 8a 3b d9 4f f4 ba e4 0e 5a 3d
       -0.019697765 0.004233591 -0.0018639519 0.053236857
000350 92 13 71 3d 5c c6 18 3e c9 99 08 3e 3f c1 db bd
       0.058856554 0.14919418 0.13339914 -0.10730218
000360 f2 8a 44 be 98 c0 7d 3e e5 8c 2f 3d e8 28 b7 bc
       -0.19193628 0.247805 0.042858977 -0.022358373
000370 92 1a 12 be 1e 89 34 3d 1b 2b a2 bd d7 3c 16 3e
       -0.14267948 0.044076078 -0.07918378 0.14671646
000380 33 d7 d2 3c 3d cf 15 3e ea 01 77 bc 8f 54 9f bd
       0.02573738 0.14629836 -0.01507614 -0.077798
000390 6c a1 0a be 65 26 9b bd 74 a8 22 bd 75 88 1d be
       -0.1353814 -0.075756826 -0.03971143 -0.15384085
0003a0 58 c7 20 bc 98 6c 91 3d 62 3e b2 bc eb d5 54 bd
       -0.009813152 0.07100791 -0.021758262 -0.05196182
0003b0 d3 3f 6d bd 01 73 9c 3d a3 8c 5f 3b 81 3f dc 3c
       -0.057922196 0.07639123 0.0034110926 0.02688575
0003c0 29 6f 55 ba aa 8f 9f bd 68 d8 2b bd 5d 41 92 3c
       -0.00081418693 -0.077910736 -0.041954428 0.017853433
0003d0 a9 a0 e2 bd 3b 6b cb bc 8b df 1b be bd 92 21 bc
       -0.110658 -0.024831405 -0.15221994 -0.009861645
0003e0 d2 9c d3 bc d0 f4 7f be 29 ea dd bd 7d 55 09 3e
       -0.025831614 -0.24995732 -0.10835678 0.13411517
0003f0 15 1a 3d 3e 10 2d ac 3d 8c 5d 10 3d 87 eb 33 bd
       0.18466981 0.084070325 0.035245463 -0.04392579

network_body._body_endoder.seq_layers.2.bias f4 [128]
000000 a6 e9 64 3d 6e 9a 42 3b 38 33 47 3e 67 63 02 3e
       0.055886887 0.0029694098 0.19453132 0.12733231
000010 8b 8d 98 3d f2 1c 79 bd 60 a8 dc 3d a5 46 06 3d
       0.07448872 -0.06081862 0.107743025 0.032782216
000020 e2 ed 1d be 84 c0 19 3e 4b d6 bc bd 7b 9a fa 3d
       -0.15422776 0.15014845 -0.09220561 0.12236496
000030 d4 f5 3e bd 84 5f 17 be d5 1e 9c 3d ec 9d 66 3e
       -0.04662116 -0.1478253 0.07623068 0.2252118
000040 09 89 00 be 6f bd 04 be 6b 91 15 be f2 15 65 3e
       -0.12552275 -0.12962888 -0.14606254 0.22371653
000050 22 a5 78 bd 26 df 52 3e fa 73 ac 3d 9d d7 b5 bd
       -0.060704358 0.20592937 0.08420558 -0.088790156
000060 90 31 b6 3d e3 f3 cd 3d 48 10 0b be a4 14 7f bd
       0.08896172 0.10056283 -0.1358043 -0.062275544
000070 0d 42 89 bd 62 f0 01 bd 0f e0 21 3e 46 4f 16 be
       -0.06702051 -0.031723388 0.15808128 -0.14678678
000080 ff 83 2b be ed 42 1b 3e 35 ae 62 3d 06 f1 10 be
       -0.16749571 0.15162249 0.055341918 -0.14154443
000090 1c 56 1a be 05 ee c2 3c 9a 46 17 be b4 b6 3e 3d
       -0.1507191 0.023795137 -0.14773026 0.046560958
0000a0 b3 2b 88 bd c6 8a c2 3d e2 bf 19 3e eb 72 f1 3c
       -0.0664896 0.09499125 0.15014604 0.029473742
0000b0 d3 2d 97 3d 21 96 c8 3d 77 6c 1f 3e 02 88 af bd
       0.07381787 0.0979426 0.1556872 -0.08570863
0000c0 23 cb 0b 3e 96 c1 64 bd b4 f0 c9 bb 90 c4 c4 bd
       0.1365171 -0.05584868 -0.0061627273 -0.09607804
0000d0 9a 08 14 be 90 81 47 39 62 f2 d8 bd 5a 81 1a 3e
       -0.14456406 0.00019026385 -0.10593106 0.15088406
0000e0 3e 37 c4 bd ed 9f cc bc c1 11 13 3e 30 0b 2b be
       -0.09580849 -0.024978602 0.14362241 -0.16703486
0000f0 ce 7b 17 be 9b 5b ec bd de b8 42 bd ae 25 74 3e
       -0.14793321 -0.1154091 -0.047539584 0.23842499
000100 7d ba 92 3d 57 a5 0d be 86 ec 09 3e 7b da 1c be
       0.07164476 -0.13832603 0.13469133 -0.15317719
000110 26 d2 05 3d 93 2e 8c bd 3a a0 d6 bd 66 e0 f6 3c
       0.032671116 -0.06844821 -0.104797795 0.030136298
000120 4e 14 49 3d 1b 9c 1c be 67 fd d5 3d 68 c7 c5 3d
       0.04909163 -0.15293925 0.10448723 0.09657174
000130 57 aa 01 be 2b 7c f9 bd be 13 26 be 7f d2 f1 3c
       -0.12662636 -0.12181886 -0.16218469 0.029519318
000140 b9 1c 1d be 2d 32 20 3e 79 69 42 3e c7 54 f7 bd
       -0.15342988 0.1564414 0.18985547 -0.12076717
000150 38 37 af bd fb 2b 9d 3b be eb f6 3d 27 b3 a8 bd
       -0.08555454 0.0047965026 0.12056683 -0.082372956
000160 a4 92 3f be 01 c7 e8 bd 53 e0 52 3e a3 be ed bd
       -0.18708283 -0.11366082 0.20593385 -0.11608627
000170 24 c3 dc 3d 0b 7f d5 bd bb 8c f1 bd d6 d8 c1 bd
       0.107794076 -0.10424622 -0.1179442 -0.09465186
000180 42 a8 58 3e 78 c5 d2 bd a2 8a 51 bd ca c8 f3 3d
       0.21157935 -0.102915704 -0.0511576 0.11903532
000190 ed 85 ac 3d 67 fe fc bd 1f 62 20 be f9 14 ea bd
       0.08423982 -0.12353211 -0.1566243 -0.114297815
0001a0 7b 22 12 3e 61 d8 02 3e 0a 03 53 3d c3 5b c2 3d
       0.14270966 0.12777855 0.05151657 0.094901584
0001b0 6a 6f ad 3d 75 4e 93 3c a1 37 00 3e ab 8e c2 bd
       0.08468516 0.017981747 0.1252122 -0.09499868
0001c0 f2 2e 05 3e 3a 3d 22 3e 7d 09 06 3e c1 0b b9 bd
       0.1300619 0.15843669 0.13089557 -0.09035445
0001d0 e3 1d 36 3e 84 00 fc 3d 52 cf 05 be d3 92 21 3e
       0.17784838 0.12304786 -0.13067368 0.15778665
0001e0 a5 73 2b 3e 48 4d da bd 6f 7f b5 bd 73 0d ed 3d
       0.16743334 -0.106592715 -0.08862197 0.11574831
0001f0 74 a6 07 3e 8e f8 2c be cb a1 c0 3c 9e 05 8e 3c
       0.1324709 -0.16891691 0.023514649 0.017336663

action_model._discrete_distribution.branches.0.weight f4 [3, 128]
000000 f2 0f d3 3b eb df 4f bd 4c 04 0d 3d 3f 77 3d 3d
       0.00644111 -0.050750654 0.034427926 0.0462563
000010 91 35 b1 3c 0a c5 b3 bb f0 99 8c 3c bf 4e 39 bd
       0.021631988 -0.0054861354 0.017163247 -0.045241114
000020 bb db 99 bd a9 9f 00 3d 01 83 7b bd 20 5b 3e 3c
       -0.075126134 0.031402264 -0.061404232 0.011618406
000030 14 c7 64 bc 3c a7 11 bd 2c 77 4b 3d 72 63 53 3d
       -0.01396348 -0.035559878 0.049674198 0.05160851
000040 8c 56 a2 bd da 65 81 bd 24 73 98 bd f9 70 51 3d
       -0.07926664 -0.06318255 -0.07443836 0.05113313
000050 9b 51 15 bd 7a de a8 3d 9b d7 17 3d 45 7c fc bc
       -0.03645478 0.08245559 0.03707085 -0.030820975
000060 d5 4c 50 3b 58 41 18 3b 71 c0 6b bd 18 a4 1b 3d
       0.0031784077 0.0023232307 -0.057556573 0.03799829
000070 d9 1e 0d bd d2 c5 90 bd a8 c6 94 3c 33 8b 96 bd
       -0.034453247 -0.07068981 0.018161133 -0.07350769
000080 67 f0 8c bd 51 d4 92 3c 9e 65 92 3c fd de 82 bc
       -0.068817906 0.017923506 0.01787072 -0.01597547
000090 25 0c bf bd 6c ae 69 bc b7 48 a9 bd ed d9 02 3c
       -0.09328488 -0.014262777 -0.082658224 0.007986528
0000a0 06 21 2c 3c 98 62 5d bd 71 74 1a 3d 89 e0 52 3c
       0.01050592 -0.054049104 0.037708703 0.012870916
0000b0 45 d9 18 3d 13 51 42 bc 91 66 21 3c 65 70 93 3c
       0.03731658 -0.01186015 0.009851114 0.01799793
0000c0 b2 5a 34 3d 78 09 86 bd 41 49 27 3d 7e 80 34 bd
       0.044031806 -0.06544775 0.040841345 -0.044067852
0000d0 26 86 af bd ef 86 ad 3c 1e ec 29 bd 28 f1 e0 b7
       -0.08570509 0.021182505 -0.041484945 -2.6815178e-05
0000e0 d0 16 78 bd 8d 62 19 3d 43 c0 89 3c aa f4 9d bd
       -0.06056863 0.0374475 0.01681531 -0.077126816
0000f0 0e bb 9b bd ea 47 38 bd f0 f3 eb bb e6 12 9b 3d
       -0.07604037 -0.044990458 -0.0072007105 0.07571964
000100 1b 19 42 3c e3 8e a5 bd 6b ae 96 3d 1c d4 ce bd
       0.011846806 -0.08083894 0.07357486 -0.100990504
000110 ae 32 b1 3c 23 fc 3a bd b3 3a c2 bd f2 0f 27 3d
       0.021630611 -0.045650613 -0.09483852 0.04078669
000120 bb 58 b2 3c d4 09 c7 bd 78 7c 37 3d 19 ba 9b 3c
       0.021770826 -0.097186714 0.044796437 0.019009637
000130 9b 98 b7 bb 69 68 b1 bd 3d 39 b0 bd fc 74 80 bd
       -0.005602909 -0.08662493 -0.08604667 -0.06272313
000140 a0 26 8a bd 27 fc 04 3c c2 82 2c 3d e6 6a 43 bd
       -0.067456484 0.008116758 0.042116888 -0.04770937
000150 f1 20 89 bd 01 3e 5b bd 71 63 75 3a c2 13 cb bc
       -0.06695736 -0.05352593 0.0009360826 -0.024789695
000160 3f 45 ce bd 5e 7f 1a bc 7e 44 17 3d b9 59 05 bd
       -0.100718014 -0.009429781 0.036930554 -0.03255627
000170 06 d6 9a 3c e7 10 9d bd ef 7f 98 bd 8f 0a c0 bd
       0.018900882 -0.076692395 -0.074462764 -0.09377014
000180 21 37 26 3d 4f 01 55 bd b5 f9 a1 bc c3 85 d9 b9
       0.04057992 -0.0520032 -0.01977239 -0.00041489126
000190 52 68 07 3d 60 34 a6 bd 41 a3 73 bd 58 db 98 bd
       0.033058472 -0.081154585 -0.059481863 -0.074637115
0001a0 da 44 67 3d 50 af fe 3b 52 b2 94 3c 6b 34 4a 3c
       0.056462146 0.0077723637 0.018151436 0.012341599
0001b0 ca 0b 55 3d 67 82 dd 3b 42 8d 49 3d 65 bb 99 bd
       0.052013196 0.00675993 0.04920698 -0.07506446
0001c0 cb a3 f3 3c 5d 67 16 3d dc 52 1b 3c da 61 69 bd
       0.029741189 0.03671967 0.009480204 -0.056978084
0001d0 da 9d ec 3c 44 e5 1d b9 2f 3b ad bd 1e 2b ad 3d
       0.028883863 -0.00015058095 -0.08458554 0.084554896
0001e0 e3 01 a2 3c 3a 6a c6 bc 76 d3 8d bd 12 d8 17 3d
       0.01977629 -0.024220575 -0.069250986 0.037071295
0001f0 19 b9 09 bc 4b ba ae bd 41 f3 38 bc 2d dc 89 3c
       -0.008405947 -0.08531626 -0.011288465 0.01682862
000200 f9 c9 05 3c f2 1c e8 3c 3d 12 39 3d 90 51 f6 bb
       0.00816583 0.028334115 0.04518341 -0.007517047
000210 24 55 10 3c 8a 60 12 bc 87 97 da 3c 3e 4a bd 3b
       0.008809362 -0.0089341495 0.026683582 0.0057766726
000220 ea 83 45 bd 63 77 50 3d 0a 6b 19 bc 71 d1 ed 3c
       -0.048221506 0.050895106 -0.009363899 0.029030534
000230 b1 e8 94 3a 24 ae 9c bc f9 43 3b bb 31 b3 25 3c
       0.0011360851 -0.019126005 -0.002857445 0.010113523
000240 2b c1 c4 bc eb dd 65 3c 84 d7 84 38 0e 39 af 3c
       -0.02401789 0.01402996 6.3343934e-05 0.02138951
000250 fb 1b 81 3b 91 09 1b 3c 86 b1 cc 3b 97 f1 05 bd
       0.003940103 0.00946273 0.0062467484 -0.0327011
000260 70 bc dd 3c 81 e8 b1 3c 38 5c cc bc ce 17 89 bd
       0.027067393 0.021717312 -0.024946317 -0.066939935
000270 08 bf 27 bd 14 2c d1 3c 1e 83 28 3d 5a 0d 31 bd
       -0.040953666 0.025533713 0.041140668 -0.043225624
000280 1f 62 1d bd 3d ce cd 3a d7 f0 d4 bb 27 54 b7 bc
       -0.038423654 0.0015701723 -0.006498437 -0.022378994
000290 66 7b 02 bd 04 52 ea 3c 67 83 cc bc 4a df b7 3b
       -0.031855963 0.028603561 -0.024965001 0.005611335
0002a0 a1 8b 3c bb b3 e6 81 3d 15 a0 15 bb 4f 2b 01 bc
       -0.0028769749 0.063428305 -0.0022831012 -0.007883861
0002b0 87 5f ba bc d1 d6 2e 3d 80 f0 ad 3c 8f 95 2c bd
       -0.02275063 0.042685334 0.021232843 -0.042134818
0002c0 1d 0e f3 3b 6d aa 9f ba 2d 7d 27 bd 5b 96 58 3b
       0.007417454 -0.0012181528 -0.04089086 0.0033048603
0002d0 73 a5 eb bc 5d 72 a6 bc 20 ce 0c 3c 29 bf 85 3d
       -0.028765416 -0.020318205 0.008594066 0.065306015
0002e0 f7 06 56 bc 46 9d b6 bc 07 28 1b 3d 23 f3 9f bc
       -0.013063184 -0.02229179 0.03787997 -0.019525116
0002f0 0b a5 37 bc 83 4c 7e 3b 9d c4 74 ba c3 c1 85 3c
       -0.011208783 0.0038802929 -0.0009337159 0.016327744
000300 4e 5f 61 3c c9 26 85 bb 6c a5 b4 bc a5 21 a4 bc
       0.013755633 -0.0040634614 -0.022051536 -0.020035574
000310 16 62 25 bc 4a de 1e bd dd b6 2c 3b a0 2c 96 bc
       -0.010094186 -0.03878621 0.0026354112 -0.018331826
000320 61 b6 4c 3b cf af d0 3b f2 0a 4c 3b 2f 49 d8 3a
       0.0031236636 0.0063686143 0.0031134454 0.0016501303
000330 1f a1 38 bd 21 69 25 bd 1a ad ba bc ef c9 17 3d
       -0.045075532 -0.040383462 -0.02278762 0.037057813
000340 af a4 8b ba 94 f3 b2 3c f9 ec 85 3d a8 3c 93 3b
       -0.0010653938 0.021844663 0.065393396 0.004493315
000350 00 91 0d bd 14 ec 1d 3c 7e 71 a9 3c e7 24 35 3c
       -0.03456211 0.009638805 0.020684 0.0110561615
000360 8b ff d2 3b e3 a7 b1 bb a4 76 15 ba b2 7e 0b bc
       0.0064391545 -0.005421625 -0.0005701578 -0.008514093
000370 2f b8 3f 3d 12 e9 39 bc 14 d7 6e 3b 48 06 1a bd
       0.04680651 -0.011347072 0.0036444115 -0.037603647
000380 7d 51 f7 3c 5d b6 27 3c 84 41 ee 3a 7f 68 05 3d
       0.030190224 0.01023635 0.0018177484 0.03257036
000390 02 1f e8 3c 09 ca 9e bc 90 db e7 3b 14 d0 92 ba
       0.028335098 -0.019383447 0.0070757344 -0.0011200928
0003a0 ba 13 78 3c cc b3 30 3d 40 b6 36 bc 7d c4 b4 3c
       0.015141422 0.043140218 -0.01115185 0.02206635
0003b0 89 74 69 bc 11 96 fd bb 3d 42 b8 bb f7 18 44 bd
       -0.014248976 -0.0077388366 -0.0056231306 -0.04787537
0003c0 62 55 bd 3c 1a a2 95 3c ba eb 16 3c e2 90 c1 bc
       0.023112003 0.018265773 0.009211475 -0.023628656
0003d0 97 35 e2 3c 81 ca 13 3d b9 85 08 bd 42 88 b5 bc
       0.027613444 0.036081795 -0.033330653 -0.0221597
0003e0 af 17 b4 3d b9 5e 0b bd cf a5 48 bc 13 eb e1 bc
       0.0879358 -0.03402588 -0.012246563 -0.027577912
0003f0 cd c8 66 3d 05 d8 bd bc 85 e3 8f 3c 5f 1a 7c bc
       0.056343842 -0.023174295 0.017564544 -0.015387147

action_model._discrete_distribution.branches.0.bias f4 [3]
000000 c5 37 b8 3d 6e 8d 32 3d 2c 29 20 be
       0.08995012 0.04359191 -0.15640706

action_model._discrete_distribution.branches.1.weight f4 [3, 128]
000000 cf 45 28 3d 1b c6 44 3d 4d 72 9e bb d9 8c 51 bd
       0.0410822 0.04804049 -0.004835403 -0.051159713
000010 51 64 08 3a 67 39 4c 3d ba db 60 3c 3f 70 0f 3d
       0.00052029366 0.04985943 0.013724262 0.035019156
000020 dc 65 bb 3b 30 26 c3 3c 78 f2 8f 3c 9d 32 7f bc
       0.0057189297 0.02382192 0.017571673 -0.015576032
000030 60 25 14 bc 90 1e c8 bc fa 12 74 3c 68 0b 77 bc
       -0.009042114 -0.024428636 0.0148971025 -0.015078403
000040 71 cd 11 3c bb 0a 3a bb 2f eb 70 3c bb 78 49 bc
       0.008899079 -0.0028387744 0.01470451 -0.012296851
000050 ff 4e 0e 3d b7 66 86 bc b7 52 57 bd cd d2 b5 bc
       0.034743305 -0.0164064 -0.052569117 -0.022195244
000060 e3 f0 1d bc 3d d3 b1 3c c8 b5 08 3d 87 c8 77 3d
       -0.009639951 0.021707172 0.033376485 0.060493972
000070 a8 7e bb 3b 9e 44 50 3c 03 84 51 3d af 5e 92 bb
       0.0057218857 0.012711672 0.051151287 -0.0044668536
000080 b5 e9 0a 3d c8 87 c8 bb 67 78 aa bb 3f 2d 36 bc
       0.033914287 -0.006119702 -0.0052023414 -0.011119186
000090 ff 10 17 3c d0 04 7d 3d 3d c9 2c ba 80 f3 bc bb
       0.009220361 0.061772168 -0.0006591266 -0.005766332
0000a0 a9 5c d4 3b ed 00 fa 3b 5e df c9 bb 69 58 db ba
       0.0064807725 0.007629505 -0.0061606606 -0.0016734722
0000b0 3a 44 59 bc cc be ef 3c 50 fd d1 3a c8 b3 14 bd
       -0.013260895 0.029265784 0.0016020928 -0.036304265
0000c0 9f 28 d4 bc 36 38 3a 3d 28 45 0a bd bf 60 18 3d
       -0.025898276 0.045463763 -0.03375736 0.03720164
0000d0 2b dc 6d bb 29 b1 81 3b 45 72 f1 bb 6c b8 fd 3c
       -0.003629456 0.0039578867 -0.0073683583 0.030971728
0000e0 0f b4 07 3d 3c 90 2a bc 1a 0e 00 3d b1 4c 91 3c
       0.0331307 -0.010410365 0.03126345 0.017736765
0000f0 ae b2 b3 bb c1 f5 c5 bc 42 36 05 3d 17 0c f2 bc
       -0.0054839468 -0.024165036 0.032522447 -0.02954678
000100 e7 13 59 bc 76 62 45 3d 48 ee 25 bd f6 23 33 3b
       -0.013249374 0.048189603 -0.040510446 0.0027334667
000110 26 f0 2b bb 0d 44 34 3d fc 84 b9 3d a9 6d f2 bc
       -0.002623567 0.04401021 0.09058568 -0.029593306
000120 e1 1c 45 bd 61 58 88 3d 14 5c fd bc 39 fa c8 bc
       -0.048123244 0.06657482 -0.030927695 -0.024533378
000130 22 be 30 3d 3e 13 04 3d 92 df a3 3c eb c3 2e 3a
       0.043150075 0.032244913 0.020004068 0.00066667673
000140 9d c7 d0 3c d7 d0 c1 ba 9e 48 48 bc 14 81 6b 3d
       0.025485808 -0.001478697 -0.012224345 0.057496145
000150 eb 90 89 3b d5 59 2d b9 25 c9 cb 3b 87 f2 08 3c
       0.004198184 -0.0001653203 0.0062190467 0.008358604
000160 2f 62 b2 bb bb c2 08 bc 1c 08 c3 bc 58 f5 f1 3c
       -0.0054438333 -0.008347209 -0.023807578 0.029535934
000170 91 6c c8 bb 8a cd 34 3d dc 73 74 3c 9f 9f 0d 3c
       -0.0061164577 0.04414133 0.014920201 0.008644014
000180 a3 45 80 3c 52 29 e5 3c 3d 61 d1 bc dc f1 a7 3b
       0.015658205 0.027973805 -0.025559062 0.0051252674
000190 28 f0 9c bd aa 6d b6 3c 5e dc b2 3b 8f d6 4b 3d
       -0.07662994 0.022269089 0.0054583987 0.049765166
0001a0 e2 c1 16 3c cf 79 0c 3c 95 61 24 b9 04 24 ac 3c
       0.009201499 0.008573963 -0.00015676611 0.021013267
0001b0 fa 61 5c bd 4c 59 92 bb 24 c5 3e bc f7 76 60 bc
       -0.053804375 -0.0044662114 -0.011643682 -0.013700238
0001c0 40 a8 a1 bb 4c 34 09 bd ad 71 66 bb d2 cd 37 3c
       -0.004933387 -0.03349714 -0.003516297 0.011218505
0001d0 e7 1d c3 3b d9 58 80 3c 22 3c 51 3b f3 bd 1f bd
       0.0059544924 0.015667366 0.003192671 -0.03899951
0001e0 eb 3f e2 bb bd 94 06 3d ab c1 53 3d d9 92 fe 3a
       -0.0069045923 0.03285669 0.051698368 0.0019422426
0001f0 05 af 1b 3d e1 1c b8 3c 54 96 57 3c 42 87 81 bc
       0.03800871 0.022474708 0.0131584 -0.015811566
000200 e8 38 bb 3c 63 1b 0e 3d 90 92 7f ba be b7 f3 bc
       0.022854283 0.034694087 -0.00097493175 -0.029750701
000210 e4 51 d8 bb 98 64 f5 bb 6e 64 aa 3c 6d b7 da 3d
       -0.006601559 -0.0074887984 0.020799842 0.10679517
000220 d5 7c 1d bb c2 cf 47 bc aa de 50 3c 90 f1 81 bd
       -0.0024030705 -0.012195529 0.0127484 -0.063449025
000230 99 50 86 bd 6d ab 08 3d 15 27 12 bd b3 fd 96 3d
       -0.065583415 0.03336661 -0.035681803 0.07372608
000240 a2 e0 24 bd dd 31 ad 3c 6e 15 7e b9 2a 12 8e 3d
       -0.04025329 0.02114194 -0.00024231311 0.06937058
000250 09 35 03 3d f5 16 87 3d d1 7e 3a bb 7f 00 8b bc
       0.032033 0.065961756 -0.0028456936 -0.01696801
000260 e6 f8 16 bd 8d 8e 06 bc 4b 14 a9 3b e4 7a a4 bb
       -0.03685846 -0.008212698 0.00515989 -0.0050195325
000270 e3 f6 b9 bd a5 9b 1b bd 86 1c ae 3c 0e 36 d1 ba
       -0.09080293 -0.03799023 0.021253835 -0.0015961544
000280 8d 8a 3c 3c c6 ef 2b 3c 80 5d 99 3c b2 4e c7 b9
       0.011507642 0.010494178 0.018721342 -0.0003801487
000290 2d eb a2 3a 43 77 44 bc 62 2a d0 bc 74 bb 92 3a
       0.0012429707 -0.011991325 -0.025410835 0.0011194781
0002a0 86 f7 00 bb 1b e7 a8 bd ba 50 23 3c 29 b5 7f 3c
       -0.0019678785 -0.08247205 0.009967977 0.015607157
0002b0 1e 1f 9e 3b 8a e8 b2 bc 95 03 60 3d c0 6b 42 bd
       0.004825487 -0.021839399 0.054690916 -0.04746604
0002c0 a4 c8 94 bc a7 19 03 3d c5 97 dc bc 2e 60 e9 3b
       -0.01816208 0.032006886 -0.026927838 0.007122061
0002d0 d8 40 0f bc b7 0a 08 3c 43 62 69 bc 6f a1 f4 3c
       -0.008743487 0.008303336 -0.014244619 0.029862134
0002e0 bc 66 a5 3c 8a ac 8e bd ef c1 39 3d 14 8f 33 3c
       0.02019059 -0.06966503 0.045350965 0.010959405
0002f0 1e 86 5c bc f0 b8 67 bd a9 42 62 3c b0 5d 89 3d
       -0.01345971 -0.056572855 0.013809838 0.067073226
000300 1a b8 05 3d ef 70 2b bc 76 98 a4 bc c3 b7 06 3c
       0.032646276 -0.010463937 -0.02009223 0.008222523
000310 bd 1e ad 3d ab af 74 3d 70 12 99 bc 35 30 5d bd
       0.084531285 0.059737843 -0.01868555 -0.054001052
000320 94 25 0f bd 73 bc a1 bc 0e 2b 0b bd 9a c4 06 bd
       -0.034947947 -0.01974318 -0.033976607 -0.032902338
000330 c8 f9 6a bb a2 7f bc 3b f8 15 97 3c b0 da d0 3c
       -0.0035854448 0.0057525197 0.018443093 0.025494903
000340 e4 a7 a3 3a ec a3 4d 3b 36 40 ee bc 3a 65 83 bc
       0.0012485948 0.0031378223 -0.029083353 -0.01603948
000350 8e fd 75 3d 1e e8 c3 3d 60 f1 00 3e 9b f3 a7 ba
       0.06005626 0.09565757 0.12592077 -0.0012813689
000360 14 b2 06 bb bc 4f c6 3b a8 c5 53 bb 2b eb cc bc
       -0.002055292 0.0060519855 -0.0032313857 -0.02501448
000370 3d 9e 90 bc 27 dc 29 bc 32 f0 a0 bc 5e 08 26 bc
       -0.017653579 -0.01036743 -0.019645784 -0.010133831
000380 b8 75 57 3b 2c db 94 bc 76 28 c3 bc ad 96 59 3d
       0.0032876562 -0.018170916 -0.023823004 0.05312221
000390 d9 70 78 bc fa 97 47 3c ca 23 b9 3c eb cd 0f bc
       -0.015163624 0.01218223 0.022600073 -0.008777122
0003a0 a5 83 9b bc 0f 10 29 bc 6e 33 99 bc e8 ca 13 3d
       -0.018983671 -0.01031877 -0.018701281 0.03608218
0003b0 50 91 85 3c 47 3f cf bb 0c 44 44 bc bf 2d 85 bd
       0.016304642 -0.006324682 -0.011979114 -0.06502866
0003c0 07 de 1d 3d e0 f5 21 3c 2d 41 81 3d 88 79 f7 3b
       0.03854182 0.009885281 0.063112594 0.0075523295
0003d0 51 34 08 3d 48 77 36 3d 06 c9 04 3b 55 fd d1 3b
       0.033253018 0.04454735 0.002026142 0.0064083734
0003e0 6a 6c 6a bc 6d 0d 1f 3d ec e2 b8 3b 30 fa fb 3d
       -0.0143080745 0.038831163 0.0056422856 0.12303579
0003f0 8e 5b 95 3d 58 a0 0a bb 4f 4e 8c bc 32 05 ca bc
       0.07292853 -0.0021152701 -0.017127184 -0.02466068

action_model._discrete_distribution.branches.1.bias f4 [3]
000000 e3 9f 67 bc a3 ed 78 bb 69 b9 8e 3c
       -0.014137241 -0.003798344 0.017422395

exp_avg f4 [128, 22]
000000 00 c4 ad b9 ef 4f 89 b9 19 59 87 b9 0f d6 45 b9
       -0.00033143163 -0.0002619023 -0.0002581559 -0.00018867127
000010 92 3a ad b9 10 30 85 b9 e9 ff ab b6 02 66 6a 35
       -0.0003304077 -0.00025403546 -5.125989e-06 8.7320234e-07
000020 64 a6 94 b6 f0 a0 b9 b7 88 45 eb b5 91 3c 27 38
       -4.430114e-06 -2.2128661e-05 -1.7529101e-06 3.987231e-05
000030 3e 09 fd b5 01 e3 e1 38 c5 b2 57 b9 5c fd a0 b8
       -1.8852659e-06 0.00010771119 -0.00020570595 -7.6765864e-05
000040 66 ed 75 39 18 e9 8c b9 d2 03 2c 39 6b 84 62 39
       0.00023453459 -0.0002687655 0.00016404621 0.00021602369
000050 eb aa 91 b8 ce aa 36 b9 70 02 51 38 62 3d f0 38
       -6.945975e-05 -0.00017420502 4.9831753e-05 0.00011455525
000060 74 1f 1c 38 94 7b f3 38 79 72 22 38 e6 f1 c3 38
       3.722259e-05 0.00011610161 3.873042e-05 9.343382e-05
000070 cf 81 6e 37 7e 7b 49 39 f0 20 4e 37 8f 1a 2c 39
       1.4216129e-05 0.00019214858 1.2286226e-05 0.00016413092
000080 46 1f a3 36 c4 23 5d b8 5f 70 af 36 2b 56 72 b9
       4.8614193e-06 -5.2723815e-05 5.228488e-06 -0.00023111019
000090 b6 dc 8a 3a a3 e5 43 38 30 0e 41 ba 9e 06 8c 3a
       0.0010594341 4.670549e-05 -0.000736448 0.0010683124
0000a0 32 58 ce 39 58 aa 36 ba c9 8a a8 b9 78 7a 95 3a
       0.00039357092 -0.0006968132 -0.0003214686 0.0011404296
0000b0 71 22 8d 39 48 42 f8 39 0c 20 e5 38 10 35 aa 39
       0.00026919277 0.0004735163 0.0001092554 0.0003246446
0000c0 79 3d ab 39 2e 25 fa 39 6a d1 92 b7 e9 45 ef 38
       0.00032661462 0.00047711417 -1.7502072e-05 0.0001140943
0000d0 14 c6 7d b7 59 43 cb 39 a0 d3 c8 b6 a8 e8 e7 b8
       -1.5126094e-05 0.00038769355 -5.985101e-06 -0.00011058274
0000e0 87 fd d7 b6 bf 43 92 39 04 17 3b 39 bf 5d c6 38
       -6.437014e-06 0.00027897765 0.00017842284 9.458837e-05
0000f0 c3 72 22 39 f2 73 a3 38 5e b1 10 b9 6c 8b 68 39
       0.00015492276 7.794042e-05 -0.00013798985 0.00022177183
000100 2b 0a 3c b9 26 d2 a8 b6 fa 2d 89 37 ce 85 2d 39
       -0.00017932865 -5.0312547e-06 1.6353082e-05 0.00016548412
000110 e0 f7 20 36 3c 9a 09 39 a8 91 96 38 9c fd 54 39
       2.398614e-06 0.00013122795 7.179688e-05 0.00020312372
000120 0d 01 bb b7 6c c0 c4 b7 18 9e a1 b7 66 4f 96 39
       -2.2292626e-05 -2.3454624e-05 -1.9266314e-05 0.00028669386
000130 ab cb ff b6 35 57 ec b9 12 8e 09 b7 0d 43 ef 39
       -7.6233023e-06 -0.00045078402 -8.198915e-06 0.0004563559
000140 96 77 f7 38 59 7c 2f 39 a7 e7 84 39 fc 63 87 37
       0.000118001524 0.00016735624 0.00025349596 1.6139813e-05
000150 f0 88 b0 38 1a e2 93 39 20 0e 86 b9 3e 99 46 b9
       8.4178406e-05 0.00028206484 -0.00025568996 -0.00018939839
000160 d0 d2 5d b9 18 a9 dd b8 89 7f 48 39 dc 6e c9 38
       -0.00021154736 -0.00010569597 0.00019120997 9.605076e-05
000170 c4 92 28 b8 f0 60 a3 b7 49 a3 b3 b7 e9 80 3d b9
       -4.0191007e-05 -1.9476254e-05 -2.1414498e-05 -0.00018072467
000180 50 40 9b b7 3c c5 17 b9 3a b8 f5 b6 73 83 f1 39
       -1.8507388e-05 -0.00014473958 -7.323016e-06 0.0004606504
000190 f6 22 04 b7 99 a2 d4 b8 93 ac b6 38 2a f1 05 b9
       -7.875953e-06 -0.00010139234 8.710581e-05 -0.00012773709
0001a0 d4 f3 39 b7 1c 52 d5 38 0f 32 b1 b9 20 fa d6 35
       -1.108363e-05 0.000101719255 -0.00033797367 1.6017038e-06
0001b0 4c bc d7 38 6a 4a 05 39 91 c0 0a b9 ca ae 96 b9
       0.00010287072 0.0001271159 -0.00013232442 -0.00028740457
0001c0 e6 94 4a b9 e3 32 a5 b9 8e 9e 46 b9 40 3a 9a b9
       -0.0001931969 -0.00031509166 -0.00018941818 -0.0002941657
0001d0 82 38 4f b8 cc fe 8d b9 f4 16 33 b8 75 38 97 b9
       -4.9405273e-05 -0.00027083454 -4.2698302e-05 -0.00028843028
0001e0 7e b9 8d b7 e1 8f 42 3a f8 6c 98 b7 e0 24 12 b7
       -1.6894886e-05 0.00074219523 -1.8170555e-05 -8.710864e-06
0001f0 f1 19 79 ba c6 a7 64 b9 1c 79 9c 3a 99 ab 7e ba
       -0.0009502462 -0.00021806275 0.0011937949 -0.0009714901
000200 72 d4 9b ba cc 38 98 3a 04 be fe 39 9a 03 8b ba
       -0.0011888875 0.0011613606 0.00048588228 -0.0010605932
000210 5e fb d3 38 c2 a6 4c b9 c7 35 19 39 b6 3f f8 b8
       0.00010108085 -0.00019517078 0.0001461125 -0.000118374286
000220 5a 30 28 39 cd ce 2b b9 de c6 c8 38 22 fd 74 38
       0.00016039741 -0.0001638487 9.573785e-05 5.840988e-05
000230 45 85 ad 38 f5 66 16 ba 44 51 09 38 a7 1d 5b ba
       8.274106e-05 -0.00057373877 3.273903e-05 -0.00083586056
000240 8f af 13 38 60 60 54 b9 0a f2 e8 39 32 f2 2c 37
       3.5211033e-05 -0.00020253798 0.0004443082 1.0308389e-05
000250 f4 f6 c5 ba 26 ec 3a 3a 3c 94 be 3a 36 0b cf ba
       -0.0015103505 0.0007130526 0.0014540027 -0.0015796188
000260 e4 9b d9 b9 fe 0c 4d 3a ae 48 19 39 d1 26 3d 38
       -0.00041505613 0.00078220654 0.00014618292 4.5097262e-05
000270 d7 04 fa 38 2c 55 64 38 36 76 5a 39 b8 dd 84 38
       0.000119218304 5.443876e-05 0.00020834137 6.335549e-05
000280 3c 8e 03 38 10 d8 51 39 90 64 e3 37 16 8c 0d b9
       3.13653e-05 0.00020012283 2.7107337e-05 -0.00013498994
000290 22 f3 33 37 82 bf d6 b9 84 89 41 37 78 f3 84 b9
       1.072584e-05 -0.00040959945 1.1535714e-05 -0.000253584
0002a0 8f b8 0a 3a 4a f6 c8 38 bf f8 fa b9 f8 65 19 3a
       0.00052917836 9.582618e-05 -0.00047869046 0.00058516813
0002b0 5a 6a 89 39 99 ca fb b9 6c 5d 03 b9 7c c5 ff 39
       0.00026209914 -0.00048025398 -0.00012527936 0.00048784527
0002c0 48 a6 73 37 b0 1c 25 b7 39 65 90 38 c0 26 8a 37
       1.4522644e-05 -9.841446e-06 6.885309e-05 1.6468926e-05
0002d0 78 e0 09 39 60 4f 7d 38 1c 74 73 b7 29 35 d4 b8
       0.00013148959 6.0393824e-05 -1.45109625e-05 -0.000101188496
0002e0 62 67 52 b7 3c 74 e1 b8 5b 81 a6 b6 24 9a 7b b9
       -1.2541046e-05 -0.000107504864 -4.9622445e-06 -0.00023994647
0002f0 e0 13 b3 b6 56 b7 fa b8 18 d3 1e b8 45 97 8c 36
       -5.3369295e-06 -0.00011955078 -3.7866732e-05 4.189935e-06
000300 77 29 8e 39 8a 2e 50 b7 2a bb 2e ba 5b 7c 92 39
       0.00027115244 -1.2408602e-05 -0.0006665463 0.00027939942
000310 ad cc 95 39 9c c0 9b b9 1f 35 87 b8 ad bc 90 39
       0.0002857199 -0.0002970741 -6.447196e-05 0.00027606395
000320 7c 3b 47 b9 f4 d9 1c 39 3a 36 fd b8 8f 54 8d 39
       -0.00019000279 0.00014958513 -0.000120740806 0.00026956617
000330 48 70 3e b8 2d fc f8 38 f2 95 24 b8 f1 39 50 3a
       -4.54041e-05 0.00011872533 -3.9240294e-05 0.0007943204
000340 2a 3f 82 b7 b6 e8 86 b9 ca 14 8c b7 c7 7f 29 3a
       -1.552662e-05 -0.00025731855 -1.6698981e-05 0.00064658787
000350 18 e2 ab 39 ae 82 49 39 bc 03 f7 39 39 23 1e 39
       0.00032784115 0.00019217536 0.00047114294 0.00015081176
000360 02 b3 f9 38 3c 6b 0d 3a 47 bf 8b b9 57 74 8a 37
       0.00011906588 0.00053947023 -0.0002665466 1.6505057e-05
000370 08 61 37 39 d9 fa 9e 38 06 a1 30 b8 b6 be 5e b8
       0.00017488387 7.580751e-05 -4.2111635e-05 -5.3106538e-05
000380 57 c3 5d 39 56 00 0a 39 08 47 0f b6 0e 1e b6 b8
       0.00021148972 0.0001316083 -2.1350006e-06 -8.6840344e-05
000390 70 a7 f7 b5 5b a1 ac b8 c0 fb 43 b5 d8 a8 e0 b9
       -1.8451665e-06 -8.231654e-05 -7.3009505e-07 -0.00042850408
0003a0 20 c8 52 b5 cc 0a f2 37 de 52 13 39 88 6f ae 38
       -7.8522316e-07 2.8853676e-05 0.00014049883 8.317741e-05
0003b0 e2 02 32 39 a4 5b 1c 39 88 ae 69 b9 9a c6 31 39
       0.00016976477 0.00014911458 -0.0002228563 0.0001695402
0003c0 52 2e 28 39 81 10 18 b9 60 62 db b6 3e 66 01 b8
       0.00016038984 -0.00014501998 -6.538161e-06 -3.0851217e-05
0003d0 98 76 c8 b7 f7 89 28 b8 47 80 cf b7 c2 b2 2f b8
       -2.3897082e-05 -4.018281e-05 -2.4736057e-05 -4.1889733e-05
0003e0 28 3a 26 b5 9c d7 d9 b8 48 a9 0f b5 38 b3 b4 b8
       -6.192445e-07 -0.00010387527 -5.351799e-07 -8.616451e-05
0003f0 20 60 63 b4 b0 f3 12 b8 30 8b 74 b4 10 62 0a 37
       -2.1175993e-07 -3.5036064e-05 -2.2774907e-07 8.248273e-06
