results/RoadExt1.1/CarAgent/checkpoint.pt (torch, 503979 bytes, 56 tensors)

discrete_act_size_vector f4 [1, 2]
0	0x40400000	3.0
1	0x40400000	3.0

network_body.observation_encoder.processors.0.normalizer.running_mean f4 [14]
0	0x3ce2eb8e	0.027700212
1	0x3e7bac50	0.24577451
2	0x3d50c361	0.050967578
3	0x3e8cc652	0.27495056
4	0x3d4961b5	0.049165446
5	0x3e886957	0.26642868
6	0x3b82a9a3	0.0039875074
7	0x3e854d64	0.26035607
8	0x3b431202	0.0029765372
9	0x3e7bc81b	0.24588053
10	0x39f4549d	0.00046602348
11	0x3e8081a7	0.25098917
12	0x3a13c7ce	0.0005637378
13	0x3e68c34b	0.22730748

network_body.observation_encoder.processors.0.normalizer.running_variance f4 [14]
0	0x465ff6ab	14333.667
1	0x4665db12	14710.768
2	0x46c91b3e	25741.621
3	0x46a3697e	20916.746
4	0x46c25d4c	24878.648
5	0x46a208f1	20740.47
6	0x450428a4	2114.54
7	0x45833352	4198.415
8	0x44c5892d	1580.2867
9	0x457b019c	4016.1006
10	0x4378e26c	248.88446
11	0x44bfa3b0	1533.1152
12	0x43966a51	300.8306
13	0x449e024f	1264.0721

network_body.observation_encoder.processors.1.normalizer.running_mean f4 [8]
0	0xbf8dd4b7	-1.108054
1	0xb8214994	-3.8453916e-05
2	0x4070fe2e	3.765514
3	0xbfb588e2	-1.4182398
4	0x3ef582b4	0.4795128
5	0x410be4fa	8.7434025
6	0x414d8c3a	12.846735
7	0xbeb23284	-0.34804165

network_body.observation_encoder.processors.1.normalizer.running_variance f4 [8]
0	0x4a92edfd	4.8145905e+06
1	0x3f99de81	1.2021028
2	0x4d2bc1a0	1.8009958e+08
3	0x4b022122	8.528162e+06
4	0x416c8f15	14.784932
5	0x4d22c20c	1.7066413e+08
6	0x4c97c857	7.9577784e+07
7	0x491b8e13	637153.2

network_body.processors.0.normalizer.running_mean f4 [14]
0	0x3ce2eb8e	0.027700212
1	0x3e7bac50	0.24577451
2	0x3d50c361	0.050967578
3	0x3e8cc652	0.27495056
4	0x3d4961b5	0.049165446
5	0x3e886957	0.26642868
6	0x3b82a9a3	0.0039875074
7	0x3e854d64	0.26035607
8	0x3b431202	0.0029765372
9	0x3e7bc81b	0.24588053
10	0x39f4549d	0.00046602348
11	0x3e8081a7	0.25098917
12	0x3a13c7ce	0.0005637378
13	0x3e68c34b	0.22730748

network_body.processors.0.normalizer.running_variance f4 [14]
0	0x465ff6ab	14333.667
1	0x4665db12	14710.768
2	0x46c91b3e	25741.621
3	0x46a3697e	20916.746
4	0x46c25d4c	24878.648
5	0x46a208f1	20740.47
6	0x450428a4	2114.54
7	0x45833352	4198.415
8	0x44c5892d	1580.2867
9	0x457b019c	4016.1006
10	0x4378e26c	248.88446
11	0x44bfa3b0	1533.1152
12	0x43966a51	300.8306
13	0x449e024f	1264.0721

network_body.processors.1.normalizer.running_mean f4 [8]
0	0xbf8dd4b7	-1.108054
1	0xb8214994	-3.8453916e-05
2	0x4070fe2e	3.765514
3	0xbfb588e2	-1.4182398
4	0x3ef582b4	0.4795128
5	0x410be4fa	8.7434025
6	0x414d8c3a	12.846735
7	0xbeb23284	-0.34804165

network_body.processors.1.normalizer.running_variance f4 [8]
0	0x4a92edfd	4.8145905e+06
1	0x3f99de81	1.2021028
2	0x4d2bc1a0	1.8009958e+08
3	0x4b022122	8.528162e+06
4	0x416c8f15	14.784932
5	0x4d22c20c	1.7066413e+08
6	0x4c97c857	7.9577784e+07
7	0x491b8e13	637153.2

network_body._body_endoder.seq_layers.0.weight f4 [128, 22]
0	0x3ec4c854	0.38434088
1	0xbe67a7c9	-0.22622599
2	0xbdf29818	-0.11845416
3	0x3e1a755d	0.15083833
4	0x3db62a85	0.08894829
5	0x3dba1578	0.09086126
6	0x3e5bbd9a	0.21459046
7	0x3d3d7990	0.04625851
8	0x3daf0dc1	0.08547545
9	0xbdabb08a	-0.083832815
10	0x3d9a8299	0.07544441
11	0xbebb36db	-0.3656529
12	0x3bb9ccae	0.0056701517
13	0xbc8f54bb	-0.017496457
14	0x3da11fbf	0.07867383
15	0xbf0f2a94	-0.55924344
16	0xbd06989e	-0.03286039
17	0xbe3ea3d0	-0.18617177
18	0x3e564de9	0.20928158
19	0x3e133eda	0.14379445
20	0x3d228796	0.039680086
21	0xbd6965ee	-0.056981973
22	0x3ddc1359	0.10745878
23	0x3dfaa0fd	0.12237737
24	0xbd953213	-0.072849415
25	0x3b9cf7f9	0.004790303
26	0xbd8dffdf	-0.06933569
27	0xbefc51fc	-0.492813
28	0xbcf1b845	-0.029506812
29	0x3e4629fd	0.19351955
30	0x3df428dd	0.119218566
31	0xbe41b4ed	-0.18916674
32	0x3dbeac0a	0.093101576
33	0xbdbd4103	-0.092409156
34	0xbe00f06b	-0.12591712
35	0x3e04f564	0.12984234
36	0xbe6fbba5	-0.23411424
37	0xbe594fd4	-0.21221858
38	0x3e4f5a7a	0.20249358
39	0xbd497e56	-0.04919275
40	0x3d1ffbcb	0.039058488
41	0xbe97d78e	-0.29656643
42	0xbedc255d	-0.42997256
43	0x3d44205a	0.047882415
44	0x3d9452ae	0.072423324
45	0x3dfbc79d	0.122939326
46	0xbe76ae17	-0.24089848
47	0x3ecd4083	0.4008828
48	0xbe817312	-0.25283104
49	0xbe82d5cc	-0.2555374
50	0xbe80e0dd	-0.25171557
51	0x3d30a991	0.04313046
52	0x3dc7df74	0.09759417
53	0x3d9429c3	0.07234528
54	0x3da829d2	0.082111016
55	0xbe67c72f	-0.22634576
56	0xbe15de47	-0.14635573
57	0xbd268fa2	-0.040664323
58	0xbdb77781	-0.089583404
59	0x3e00721d	0.12543531
60	0x3c9d24fe	0.019182678
61	0x3d45be4f	0.048277196
62	0x3e9bd2c0	0.30434227
63	0x3edbeafc	0.42952716
64	0xbf34a7c9	-0.7056852
65	0x3ed2cf05	0.41173568
66	0xbe8ef974	-0.27924693
67	0x3e37b0ac	0.17938489
68	0x3db09118	0.086214244
69	0xbe3369f6	-0.1752089
70	0x3c0f3952	0.008741694
71	0xbe125bb9	-0.14292802
72	0xbe97107b	-0.2950476
73	0xbcbc1ad8	-0.022962019
74	0xbd350494	-0.04419382
75	0xbe0a00b4	-0.1347683
76	0x3e960580	0.2930107
77	0x3e5a51c9	0.21320261
78	0xbdeab99d	-0.11461184
79	0x3e972eae	0.295278
80	0x3e56d9fb	0.2098159
81	0x3eabd677	0.3356206
82	0x3e6d70e3	0.23187594
83	0xbd363fa0	-0.04449427
84	0xbdbce83c	-0.09223983
85	0x3e137f1c	0.14403957
86	0xbe4b41bf	-0.19849299
87	0x3e62871a	0.2212185
88	0x3e138a65	0.14408262
89	0xbe9adaf3	-0.3024517
90	0x3c9d7b4b	0.01922383
91	0x3e8ef81c	0.27923667
92	0x3e4a3e9e	0.19750449
93	0x3da8ff83	0.0825186
94	0x3b39f659	0.0028375594
95	0x3db33ab4	0.08751431
96	0x3ecdc41c	0.40188682
97	0xbe509b04	-0.20371634
98	0x3e4d9781	0.20077325
99	0xbbe5bc35	-0.0070109614
100	0x3e6a70ef	0.22894643
101	0x3d6c488f	0.057686385
102	0x3d635c05	0.05550768
103	0xbe21789e	-0.15768668
104	0xbead34a8	-0.33829236
105	0xbd0ac096	-0.03387507
106	0xbe250b40	-0.16117573
107	0xbeaee061	-0.34155563
108	0x3e4c0115	0.19922288
109	0x3e0fe427	0.14051877
110	0x3e8a2da7	0.26987955
111	0xbde51efc	-0.111875504
112	0xbeb4306d	-0.35193196
113	0xbe3b8a05	-0.18314369
114	0xbe6369bc	-0.22208303
115	0xbcdc494b	-0.026890418
116	0x3ec6d6c1	0.3883572
117	0xbe636d68	-0.22209704
118	0xbe616da2	-0.22014478
119	0x3e5c50b1	0.21515156
120	0x3daac7a2	0.08338858
121	0x3eab68f4	0.3347851
122	0xbe445f66	-0.19177017
123	0xbe799c69	-0.24376072
124	0xbe8398ff	-0.25702664
125	0xbda2ec84	-0.07955268
126	0x3f0ad954	0.54237866
127	0x3d36c72b	0.044623535
128	0xbe335f04	-0.17516714
129	0xbd6e40d5	-0.058167297
130	0x3ec9adb4	0.39390337
131	0x3d1df9bd	0.038568247
132	0x3ec78c58	0.3897426
133	0x3eaeb43d	0.34121886
134	0xbad2c726	-0.0016081079
135	0x3e4527ff	0.19253539
136	0xbcce79bd	-0.025204534
137	0x3d95b714	0.0731031
138	0xbe07144a	-0.13191333
139	0x3e0cc355	0.13746388
140	0xbe06c4f7	-0.13161074
141	0x3e57475b	0.21023314
142	0xbe34e766	-0.17666396
143	0x3ea30c71	0.3184543
144	0x3e380981	0.17972375
145	0x3da776d6	0.08176963
146	0xbe412935	-0.18863375
147	0x3e1de6b2	0.15420035
148	0x3e9c3ea0	0.3051653
149	0x3e0e414e	0.138921
150	0xbe1ebf7a	-0.1550273
151	0x3c96f5cd	0.018427754
152	0xbec8b219	-0.39198378
153	0x3d8ab15f	0.06772112
154	0x3e5f38a8	0.21798956
155	0x3e20e2ba	0.1571149
156	0xbee841f8	-0.4536283
157	0xbd938e96	-0.072049305
158	0xbe470d22	-0.19438604
159	0xbe3eabea	-0.18620268
160	0x3e9801ed	0.2968897
161	0x3d3105a5	0.043218274
162	0xbdcd85a1	-0.10035253
163	0x3e0444e0	0.12916899
164	0xbe313f3a	-0.17309275
165	0xbe7e3a33	-0.24826889
166	0xbca5a023	-0.02021796
167	0x3e7f4c7a	0.24931517
168	0xbe71c216	-0.23609194
169	0xbdcdf014	-0.10055557
170	0x3e095adf	0.13413571
171	0x3dd7e589	0.10541827
172	0xbe65417f	-0.22388266
173	0x3e31c7db	0.17361395
174	0xbe22dd8a	-0.15904823
175	0xbeaae07c	-0.33374393
176	0xbe541c53	-0.2071393
177	0xbe5ee00d	-0.21765156
178	0x3ed17ed9	0.4091709
179	0x3ecb8f4f	0.39757773
180	0xbca5fc39	-0.02026187
181	0x3e18e117	0.14929615
182	0xbe41b46f	-0.18916486
183	0xbf129e9c	-0.5727327
184	0x3e12be99	0.1433052
185	0xbdc42d8c	-0.09579
186	0x3eb70ae5	0.357505
187	0x3e671486	0.22566423
188	0x3d024198	0.031800836
189	0x3df66536	0.12031023
190	0x3ea0538e	0.31313747
191	0xbde0d5bc	-0.109782666
192	0x3d234ec8	0.039870054
193	0x3dbbde53	0.09173264
194	0xbe60c695	-0.21950753
195	0x3e6397db	0.22225897
196	0xbde5c81d	-0.11219809
197	0xbe8aba26	-0.27095145
198	0x3da029aa	0.07820447
199	0x3e3cb2ae	0.18427536
200	0xbdfa9ddb	-0.1223714
201	0xbeb077ad	-0.34466305
202	0xbe2dec10	-0.16984582
203	0xbe4e9d1f	-0.20177124
204	0x3de71dfd	0.11285017
205	0x3e76cc39	0.24101342
206	0x3bd2c0db	0.0064316816
207	0xbe62ca5c	-0.22147506
208	0x3e1df7b7	0.15426527
209	0xbdb51935	-0.088426985
210	0x3f01b06a	0.5065981
211	0x3d293a53	0.041315388
212	0x3d1ae898	0.037819475
213	0x3f1c1473	0.60968703
214	0x3d18ab8d	0.03727298
215	0xbdddde8a	-0.108334616
216	0x3ea9514a	0.3306983
217	0x3e675c19	0.22593726
218	0xbe486232	-0.19568709
219	0x3ef8e464	0.48611748
220	0xbc9a1890	-0.01881054
221	0x3eda9aad	0.42696133
222	0xbe463872	-0.1935747
223	0x3e570132	0.2099655
224	0x3dbd2329	0.09235222
225	0x3df8f270	0.12155616
226	0x3e01d289	0.12677969
227	0xbec6456c	-0.3872484
228	0x3eb50b02	0.3535996
229	0x3dd0ad84	0.101893455
230	0xbee82b7a	-0.4534567
231	0x3d091555	0.03346761
232	0xbe433ca2	-0.19066098
233	0xbcf64f14	-0.030067004
234	0xbdb939cc	-0.09044227
235	0xbe0f22db	-0.1397814
236	0xbdcd7ef0	-0.10033977
237	0xbda712e9	-0.08157904
238	0xbe3934f0	-0.180866
239	0x3ea6ea72	0.32600743
240	0xbd84f028	-0.06491119
241	0xbe6eb084	-0.23309523
242	0x3e79aa6e	0.2438142
243	0xbe6642ff	-0.22486494
244	0xbe6bfdf7	-0.23046099
245	0xbe15ccae	-0.1462886
246	0xbe38130b	-0.17976014
247	0xbe58fb05	-0.21189506
248	0x3cc07ad8	0.023496076
249	0x3efbe692	0.4919935
250	0x3d616df2	0.055036493
251	0x3d11bd9e	0.035581224
252	0xbdd1ce4c	-0.10244426
253	0xbe238d6e	-0.1597192
254	0x3e466b8f	0.19376968
255	0x3e1c9194	0.15289909

network_body._body_endoder.seq_layers.0.bias f4 [128]
0	0xbe5ca3c6	-0.2154685
1	0x3e4faf59	0.20281734
2	0x3e268204	0.16260535
3	0x3e09d1f1	0.13458993
4	0xbd7e1745	-0.06203391
5	0x3d8deba8	0.069297135
6	0x3e72ecbd	0.23723121
7	0x3e2e81d6	0.17041716
8	0xbdde26db	-0.10847255
9	0x3da97b11	0.08275426
10	0x3c41dee2	0.011832925
11	0x3e30d02d	0.17266913
12	0x3e612474	0.21986562
13	0xbca5a4cb	-0.020220181
14	0x3e913da6	0.28367347
15	0x3d9ab80b	0.07554635
16	0x3de95e9f	0.11395001
17	0xbdf2f3c4	-0.11862901
18	0xbe4cafae	-0.19988891
19	0xbd890f1f	-0.06692337
20	0x3e7282a8	0.23682654
21	0x3e8c6342	0.27419478
22	0x3e77ce3c	0.24199766
23	0xbd556cb3	-0.052105617
24	0x3cac3814	0.021022834
25	0x3c39ffd2	0.011352496
26	0xbe293f7e	-0.16528127
27	0xbe02b4bc	-0.12764257
28	0x3dbe1e4d	0.09283123
29	0x3e319b6d	0.17344446
30	0x3e056a51	0.13028838
31	0x3dfa4d59	0.12221784
32	0xbe5e3838	-0.21701133
33	0x3cdf097f	0.027226208
34	0x3e856dd1	0.26060346
35	0xbe3d7e0e	-0.18505117
36	0xbc5f2ac3	-0.013621035
37	0x3e989a99	0.2980545
38	0x3e378e3f	0.17925356
39	0xbe04119f	-0.12897347
40	0x3ddd26f9	0.10798449
41	0x3e015612	0.1263049
42	0x3e303cd9	0.17210712
43	0x3e0d0dbf	0.13774775
44	0x3e109663	0.14119868
45	0x3e0f84bc	0.14015478
46	0x3da3d925	0.080004014
47	0x3e44bdd0	0.19213033
48	0xbe66f35c	-0.22553772
49	0xbcd31aef	-0.025769679
50	0x3e05329b	0.13007586
51	0x3e7a9259	0.2446989
52	0x3cc81f91	0.024429115
53	0xbda2e6c6	-0.07954173
54	0x3d8b06cf	0.06788408
55	0x3e9a4ee7	0.30138323
56	0x3e5a97b5	0.21346934
57	0x3e1512ae	0.14557907
58	0xbe303157	-0.17206322
59	0xbd83d4ac	-0.06437048
60	0x3e0d9694	0.13826972
61	0xbe43d3f4	-0.19123822
62	0x3e871a7f	0.26387402
63	0xbe1c33e4	-0.1525417
64	0xbbcc5d2f	-0.0062366943
65	0x3da297e5	0.07939128
66	0xbe01e640	-0.1268549
67	0x3ea1e3ed	0.31619206
68	0x3e8651b4	0.2623421
69	0x3e7a01d9	0.24414767
70	0xbbbc3736	-0.0057438863
71	0x3e5a83ef	0.21339391
72	0x3e733508	0.23750699
73	0xbe840207	-0.25782797
74	0xbe01a18d	-0.12659283
75	0xbd9232d1	-0.07138599
76	0x3e37b590	0.17940354
77	0x3e1ad894	0.1512168
78	0x3e9fa04e	0.3117699
79	0xbe3a630b	-0.18201844
80	0xbe25e101	-0.16199113
81	0x3e13287b	0.14370911
82	0xbe03e623	-0.12880759
83	0x3e5ec7f0	0.21755958
84	0xbda93a04	-0.08263019
85	0x3e1b8adc	0.1518969
86	0x3e713f6a	0.23559347
87	0x3e4e5f91	0.20153643
88	0x3e3c9ef0	0.18420005
89	0x3e852535	0.2600495
90	0xbe50b65f	-0.20382069
91	0xbe34660b	-0.17617051
92	0x3e1d4726	0.15359172
93	0x3e808e02	0.25108343
94	0xbd0b54a4	-0.034016266
95	0x3e6d3255	0.23163731
96	0x3db0a75b	0.086256705
97	0x3e9e2470	0.30887175
98	0x3e2b4bfe	0.16728207
99	0x3e042440	0.12904453
100	0xbdb6306a	-0.08895953
101	0x3e240681	0.16018106
102	0x3dd30dbe	0.103053555
103	0x3dec13a6	0.11527185
104	0x3e77ccb5	0.24199183
105	0x3df87144	0.12130979
106	0x3e06fb5d	0.13181825
107	0x3e37d1a4	0.17951065
108	0x3df323c4	0.11872056
109	0x3e26ac93	0.1627677
110	0x3e08d217	0.13361393
111	0x3e4d0244	0.20020396
112	0xbe4af8e5	-0.19821508
113	0xbb8afd30	-0.004241608
114	0x3e0e0fe2	0.13873246
115	0xbd5a2992	-0.0532623
116	0xbe21bc55	-0.15794499
117	0xbd8e12bb	-0.06937166
118	0xbbfbe4d1	-0.007687189
119	0x3e674a3c	0.22586912
120	0xbe5cb2b3	-0.21552543
121	0x3e281d56	0.16417441
122	0x3e718957	0.23587547
123	0xbe0ea3ac	-0.13929623
124	0x3d9d247d	0.07672975
125	0x3da8ae81	0.08236409
126	0x3e308796	0.17239222
127	0x3d7ede67	0.06222382

network_body._body_endoder.seq_layers.2.weight f4 [128, 128]
0	0xbd8e12d7	-0.06937187
1	0x3de952b3	0.11392727
2	0xbd745421	-0.059650544
3	0xbde4958e	-0.11161338
4	0xbc7d613a	-0.015465075
5	0xbe5dd0d1	-0.21661688
6	0xbe2f95dc	-0.1714701
7	0xbd4ebe8a	-0.05047468
8	0xbc276b88	-0.010218509
9	0xbdcdd760	-0.10050845
10	0x3d81af27	0.06332236
11	0xbc5e9849	-0.013586112
12	0xbe448678	-0.19191921
13	0x3db21e74	0.08697215
14	0xbceec03a	-0.029144395
15	0x3caa6a95	0.020802775
16	0xbd3b8c5f	-0.045788165
17	0xbdae9b16	-0.08525674
18	0x3e4e9251	0.20173003
19	0x3d00adc6	0.031415723
20	0xbd86ef95	-0.065886654
21	0xbdd1d126	-0.1024497
22	0x3dcbe14b	0.099550806
23	0x3cc9ff82	0.024657968
24	0x3dd5ca81	0.10439015
25	0x3d012839	0.0315325
26	0x3e2e0f55	0.16998036
27	0xbe505a53	-0.20346956
28	0xbd4de120	-0.050263524
29	0x3dd4d305	0.10391811
30	0xbdfeff9b	-0.124510966
31	0x3b089f0a	0.0020846748
32	0xbda3f8ee	-0.08006464
33	0x3e17221f	0.1475911
34	0xbd5a8c50	-0.05335647
35	0xbd2c34f1	-0.042042676
36	0x3cae1863	0.021251863
37	0x3dca8dfa	0.09890361
38	0x3dcf365a	0.101177886
39	0x3e010b74	0.12602025
40	0x3d0d1c9a	0.034451105
41	0x3d2fcf47	0.042922284
42	0xbdc5d526	-0.096597955
43	0x3da70c2a	0.08156617
44	0xbb308c29	-0.002693901
45	0xbe5d035d	-0.21583314
46	0x3dd2031b	0.102544986
47	0x3d4f7c18	0.050655454
48	0xbd84937d	-0.06473444
49	0xbddf0d14	-0.10891166
50	0x3d1a246d	0.037632395
51	0xbd771ad8	-0.060328335
52	0x3da7e93b	0.08198782
53	0x3db80f6e	0.08987318
54	0xbe057a38	-0.13034904
55	0x3d035190	0.032060206
56	0x3bfb9928	0.0076781698
57	0xbcd56662	-0.026049796
58	0x3df5d9b2	0.12004413
59	0x3c19472b	0.009355347
60	0xbd7a5324	-0.061114445
61	0x3cfc986a	0.030834395
62	0x3db2919a	0.087191775
63	0xbd79f3bb	-0.061023455
64	0xbddfdff0	-0.109313846
65	0x3d29df69	0.041472826
66	0xbd3bd02f	-0.045852836
67	0xbd25fa80	-0.0405221
68	0x3e0e0e7f	0.13872717
69	0xbd2265d8	-0.039647907
70	0xbd969aaf	-0.07353722
71	0x3d98ecd9	0.0746705
72	0x3dcbb330	0.09946287
73	0xbe1b85c6	-0.1518775
74	0xbe8d2212	-0.27565056
75	0xbd5a0e33	-0.053236198
76	0x3e3d8fa2	0.18511823
77	0x3d143f29	0.036193047
78	0x3e861171	0.26185182
79	0xbd341475	-0.04396482
80	0x3ce2a246	0.027665269
81	0xbd86391b	-0.06553861
82	0xbd6b32de	-0.057421558
83	0x3e414b45	0.1887637
84	0xbe18faae	-0.14939377
85	0xbd70f366	-0.058825873
86	0x3df4cd11	0.11953176
87	0xbe12c870	-0.14334273
88	0xbdce5293	-0.100743435
89	0xbac91577	-0.001534148
90	0xbe6ba24d	-0.23011132
91	0x3dd36b41	0.103231914
92	0xbda152cc	-0.078771204
93	0xbdd7f188	-0.10544115
94	0x3d54fbc6	0.051997922
95	0xbd94960f	-0.07255184
96	0x3d25d25f	0.04048383
97	0x3e246498	0.16053998
98	0x3c0bbb09	0.008528479
99	0xbbaa8930	-0.0052043423
100	0xbc8fe57c	-0.017565481
101	0xbe11c032	-0.14233473
102	0x3e003924	0.12521797
103	0xbd74f021	-0.059799317
104	0x3e8aa152	0.27076203
105	0x3d0f2002	0.034942634
106	0xbda53266	-0.08066253
107	0x3ded8f75	0.11599628
108	0xbdb2cb22	-0.08730151
109	0xbdba3b2f	-0.090933196
110	0xbd9a1dfe	-0.07525252
111	0xbd800e13	-0.062526844
112	0x3c1d57a5	0.009603416
113	0xbdf7e9c6	-0.121051356
114	0x3c8c10de	0.017097887
115	0x3e878e2b	0.26475653
116	0x3d9a8e22	0.07546641
117	0xbca3b190	-0.01998213
118	0xbd948584	-0.072520286
119	0xbd681eab	-0.056669872
120	0xbe2eb227	-0.17060147
121	0xbe0644f4	-0.13112241
122	0x3e419ed9	0.18908252
123	0x3d34b7fb	0.04412077
124	0xbc6d22ed	-0.014473659
125	0xbd819e7f	-0.06329059
126	0xbd4e725a	-0.050402023
127	0x3e09881b	0.13430826
128	0xbd1a3aa0	-0.037653565
129	0xbda1f75a	-0.07908507
130	0xbbc52f6f	-0.0060176174
131	0xbe41a047	-0.18908797
132	0xbb93fab6	-0.004515971
133	0xbcf48491	-0.029848369
134	0xbcad90c8	-0.021187201
135	0xbe067d9d	-0.13133855
136	0x3e3793f6	0.17927536
137	0xbd9a190c	-0.075243086
138	0xbdbeb471	-0.0931176
139	0x3dc7c49a	0.09754296
140	0xbda9f16a	-0.08297999
141	0xbe6aa9cb	-0.22916333
142	0xbd101f89	-0.035186324
143	0xbdcfd5ca	-0.10148199
144	0xbdf752c1	-0.12076331
145	0x3c62e184	0.013847712
146	0x3e441650	0.19149137
147	0x3c8b7044	0.017021306
148	0x3d975334	0.073889166
149	0x3d01e555	0.03171285
150	0xbcceedd8	-0.025259897
151	0x3d1c7aed	0.03820317
152	0xbc6bdf68	-0.014396526
153	0xbe0924f2	-0.13393
154	0x3da07ddd	0.078365065
155	0xbb8f161b	-0.004366649
156	0x3dbb04d7	0.091317825
157	0x3b770b15	0.0037695814
158	0xbc579851	-0.013158874
159	0xbb80f9bd	-0.003936021
160	0xbe10d6ae	-0.14144394
161	0x3d1072c0	0.035265684
162	0xbda3dc0d	-0.08000956
163	0x3d79aae2	0.060953982
164	0xbe296c66	-0.16545257
165	0x3e1fd051	0.1560681
166	0xbe420835	-0.18948443
167	0xbd90d9c6	-0.07072787
168	0x3dba5438	0.09098095
169	0x3db245fa	0.08704753
170	0x3d595450	0.053058922
171	0xbd1dc2d2	-0.038515873
172	0x3c80fc38	0.015745267
173	0xbcf20ce4	-0.029547162
174	0x3e1c117e	0.15241048
175	0xbb83701c	-0.004011167
176	0x3dafad4a	0.08577974
177	0xbcbe77ab	-0.023250422
178	0x3e851189	0.2598994
179	0xbd365b6a	-0.044520773
180	0xbe0a8843	-0.13528542
181	0xbe1c79ba	-0.1528081
182	0xbd971188	-0.07376391
183	0x3df82f7f	0.12118434
184	0x3dc5c0b3	0.09655895
185	0x3dbc4ee7	0.09194737
186	0xbdb6f056	-0.08932559
187	0x3c8e18a7	0.01734574
188	0xbcc43b11	-0.023953946
189	0x3c4eaefa	0.01261496
190	0xbddc08a6	-0.10743837
191	0x3d2bb1ec	0.041917726
192	0xbe43e8bf	-0.19131754
193	0xbe4022e4	-0.1876331
194	0x3d90827d	0.07056139
195	0x3cd5b6c5	0.026088128
196	0x3cb9a593	0.02266196
197	0x3cbbfbeb	0.022947272
198	0xbdba44db	-0.090951644
199	0x3de6e334	0.11273804
200	0x3cc2862b	0.023745617
201	0x3c063070	0.008190259
202	0xbdfbda37	-0.122974806
203	0xbd4f2ed1	-0.050581757
204	0xbd833edf	-0.06408476
205	0xbdb769c9	-0.08955724
206	0x3c38791a	0.011259342
207	0x3d736203	0.059419643
208	0xbc9f2fb9	-0.019431936
209	0x3983b79f	0.00025123075
210	0x3c07c6f9	0.008287185
211	0x3d7e9227	0.0621511
212	0x3d63916b	0.055558603
213	0x3e20fecd	0.15722199
214	0x3e05b2d8	0.13056505
215	0xbdf022b3	-0.11725368
216	0xbe43ae73	-0.19109516
217	0x3e6a3185	0.22870453
218	0x3d56b75b	0.052420955
219	0xbcc26107	-0.023727907
220	0xbe0d298d	-0.13785382
221	0x3d0523d7	0.032504883
222	0xbdb1aaf4	-0.08675185
223	0x3e216685	0.15761764
224	0x3d0a50ad	0.033768345
225	0x3e0055ec	0.12532777
226	0xbcb5ba8e	-0.022183683
227	0xbdb5df8d	-0.088805296
228	0xbe014bf1	-0.12626626
229	0xbd8dd1ac	-0.06924757
230	0xbd0c6aff	-0.034281727
231	0xbe253ced	-0.16136523
232	0xbc9b9478	-0.018991694
233	0x3d89262c	0.06696734
234	0xbc84766c	-0.01616975
235	0xbd51c8d9	-0.051216934
236	0xbd170108	-0.036866218
237	0x3d86a088	0.06573588
238	0x3ad2c8c1	0.0016081558
239	0x3c4ae232	0.012383031
240	0x3b886d1e	0.0041633984
241	0xbd95ebee	-0.07320391
242	0xbd196d35	-0.037457664
243	0xba2ead8f	-0.00066634355
244	0xbdc2eec2	-0.09518196
245	0xbc965739	-0.018352138
246	0xbe195596	-0.14974055
247	0xbb0b58f2	-0.0021262732
248	0xbd1dafe5	-0.038497824
249	0xbe7b0f90	-0.24517655
250	0xbded4518	-0.11585444
251	0x3e1314e2	0.14363435
252	0x3e3efb39	0.18650521
253	0x3db73239	0.08945126
254	0x3d15aac3	0.036539804
255	0xbd8d2527	-0.06891852

network_body._body_endoder.seq_layers.2.bias f4 [128]
0	0x3d5007bb	0.050788622
1	0xbab10151	-0.0013504421
2	0x3e4f187d	0.20224185
3	0x3e05b4e7	0.1305729
4	0x3d9632bf	0.07333898
5	0xbd894331	-0.06702269
6	0x3ddc7ed2	0.107663766
7	0x3d005c37	0.031337943
8	0xbe1fbe6e	-0.15599987
9	0x3e155913	0.1458476
10	0xbdc698f5	-0.09697143
11	0x3e0cbde7	0.13744317
12	0xbd304289	-0.043032203
13	0xbe22a566	-0.15883407
14	0x3d97b0ca	0.07406767
15	0x3e6802b7	0.22657286
16	0xbe068341	-0.13136007
17	0xbdf73dbc	-0.12072322
18	0xbe073988	-0.1320554
19	0x3e6445f6	0.22292313
20	0xbd768a3d	-0.060190428
21	0x3e5445c1	0.20729734
22	0x3dae40c7	0.08508449
23	0xbdd82331	-0.10553587
24	0x3dd46b9f	0.103720896
25	0x3dbba6cc	0.09162673
26	0xbe071ed8	-0.1319536
27	0xbd7d3c27	-0.061824944
28	0xbd8ea37c	-0.06964776
29	0xbcc5ffe3	-0.024169868
30	0x3e2822b3	0.16419487
31	0xbe18cb0a	-0.14921203
32	0xbe231f8d	-0.15930004
33	0x3e119e45	0.14220531
34	0x3d5b894d	0.053597737
35	0xbe07a021	-0.13244678
36	0xbe0ee353	-0.13953905
37	0x3cb2fdff	0.02184963
38	0xbe0f225b	-0.1397795
39	0x3d4dae55	0.050215084
40	0xbd863a59	-0.06554098
41	0x3dd3ce39	0.10342068
42	0x3e1e1f5e	0.15441653
43	0x3d2cb13e	0.04216122
44	0x3d8d373b	0.068953
45	0x3dc48998	0.095965564
46	0x3e1d2242	0.153451
47	0xbdad3215	-0.08456818
48	0x3e0c2f07	0.13689815
49	0xbd5251db	-0.051347595
50	0xbbf5f21c	-0.0075056683
51	0xbdc9d625	-0.09855298
52	0xbe0fe76c	-0.14053124
53	0xbbbdedb9	-0.005796161
54	0xbdad3f9e	-0.084594
55	0x3e144adf	0.14481686
56	0xbdd50f48	-0.10403305
57	0xbcaaeeda	-0.020865846
58	0x3e128445	0.1430827
59	0xbe26bd49	-0.16283144
60	0xbe06d84e	-0.13168451
61	0xbdf3e786	-0.11909394
62	0xbcf21c53	-0.029554522
63	0x3e6fd558	0.23421228
64	0x3d9cd494	0.076577336
65	0xbe083b39	-0.13303842
66	0x3e0d0ae5	0.13773687
67	0xbe20e104	-0.15710837
68	0x3d10c608	0.035345107
69	0xbd980e50	-0.07424605
70	0xbddcc444	-0.10779622
71	0x3d0441eb	0.032289427
72	0x3d55f4b3	0.052235316
73	0xbe24c5ef	-0.1609113
74	0x3ddb9e3d	0.10723541
75	0x3ddf21bc	0.10895106
76	0xbdf7f160	-0.121065855
77	0xbdf070ea	-0.11740287
78	0xbe2a3635	-0.16622241
79	0x3d3a4b1d	0.04548179
80	0xbe16cb37	-0.14725958
81	0x3e1e1448	0.15437424
82	0x3e419f43	0.1890841
83	0xbe05404b	-0.13012807
84	0xbda45821	-0.08024622
85	0x3c36b205	0.011150842
86	0x3e024b7b	0.12724106
87	0xbd9080f1	-0.070558436
88	0xbe281fb6	-0.16418347
89	0xbdc759eb	-0.09733947
90	0x3e52a703	0.20571522
91	0xbdef28f6	-0.116777346
92	0x3e08b3ad	0.13349791
93	0xbdc8f07d	-0.098114945
94	0xbdeb6040	-0.114929676
95	0xbdc007d3	-0.09376492
96	0x3e561d2e	0.20909569
97	0xbdd50bcf	-0.10402643
98	0xbd407984	-0.046990886
99	0x3dfaf73f	0.1225419
100	0x3db0a5a4	0.086253434
101	0xbdee1461	-0.11624981
102	0xbe1d4536	-0.15358433
103	0xbddad177	-0.106844835
104	0x3e1344bc	0.14381689
105	0x3e08284f	0.13296627
106	0x3d5af57f	0.05345678
107	0x3dc7fd61	0.09765125
108	0x3db03d4b	0.08605441
109	0x3be4cd80	0.0069825053
110	0x3e0012bd	0.12507148
111	0xbdbc0044	-0.09179738
112	0x3dfbe646	0.122997805
113	0x3e1b9912	0.1519511
114	0x3e076698	0.1322273
115	0xbdbe438f	-0.092902295
116	0x3e3a6697	0.18203197
117	0x3df96a46	0.12178473
118	0xbe059174	-0.13043767
119	0x3e212d95	0.15740044
120	0x3e365640	0.1780634
121	0xbdcc66f5	-0.09980575
122	0xbdb63679	-0.088971086
123	0x3df99052	0.1218573
124	0x3e0a33b8	0.13496292
125	0xbe265aad	-0.16245528
126	0x3cdff5fc	0.027338974
127	0x3c962f8e	0.018333223

action_model._discrete_distribution.branches.0.weight f4 [3, 128]
0	0x3c5b5e0e	0.013389124
1	0xbd4f91be	-0.0506761
2	0x3d29bdb2	0.041440673
3	0x3d471d67	0.048612025
4	0x3cb89061	0.022529783
5	0xbc397a91	-0.011320726
6	0x3ca3aa02	0.019978527
7	0xbd35dacd	-0.044398118
8	0xbd953beb	-0.07286819
9	0x3d09080e	0.033454947
10	0xbd726dbe	-0.05918669
11	0xbb7d0020	-0.003860481
12	0xbc972a44	-0.018452771
13	0xbd099dba	-0.033597685
14	0x3ce90614	0.028445281
15	0x3d6de9e5	0.058084387
16	0xbd960222	-0.073246256
17	0xbd7c0bb2	-0.06153459
18	0xbd8f31ad	-0.06991897
19	0x3d3e604e	0.046478562
20	0xbd20dfad	-0.039275814
21	0x3db60622	0.088878885
22	0x3d088919	0.03333387
23	0xbcf4a41d	-0.029863412
24	0xbbebddec	-0.007198086
25	0x3c05aa57	0.008158288
26	0xbd753836	-0.05986806
27	0x3d3b8570	0.045781553
28	0xbd04bb21	-0.032405023
29	0xbd980bf1	-0.07424153
30	0x3d093b31	0.033503715
31	0xbd918dd8	-0.07107133
32	0xbd8d4a07	-0.06898885
33	0x3c6dd2ba	0.014515573
34	0x3b2224ff	0.002474129
35	0xbc533fbc	-0.012893613
36	0xbdba2fe3	-0.09091165
37	0xbb165822	-0.0022940715
38	0xbd9d0256	-0.07666461
39	0x3bd6a7c1	0.0065507595
40	0x3ca5ca93	0.020238196
41	0xbd7fa9a7	-0.062417652
42	0x3d41a8d8	0.047280163
43	0x3cc253b3	0.023721552
44	0x3cd6b319	0.026208447
45	0xbc398bdf	-0.011324852
46	0xb9924ef2	-0.0002790611
47	0x3b0419f4	0.002015707
48	0x3d4e1893	0.050316405
49	0xbd4bc4b7	-0.04974815
50	0x3d1f4934	0.03888817
51	0xbd2383eb	-0.03992073
52	0xbda246ab	-0.07923635
53	0xbb03acf4	-0.0020092102
54	0xbd85ae31	-0.06527365
55	0x3bfac00e	0.0076522892
56	0xbd70f382	-0.058825977
57	0x3cae327c	0.021264307
58	0x3cd84adb	0.026402881
59	0xbd96dd05	-0.07366375
60	0xbda3c7b3	-0.07997074
61	0xbd1cab76	-0.038249455
62	0x3c37c5c6	0.011216586
63	0x3d86e0f6	0.06585877
64	0x3d15a5d2	0.03653509
65	0xbd9d4b57	-0.076803856
66	0x3d9a4ac5	0.075337924
67	0xbdd406cf	-0.10352861
68	0x3d0b2159	0.03396735
69	0xbd3a08e0	-0.04541862
70	0xbdeac442	-0.114632145
71	0x3cd3cd86	0.025854837
72	0x3c8850ff	0.016640184
73	0xbdda5ff2	-0.10662831
74	0x3d2591b2	0.04042215
75	0x3b5d9768	0.003381217
76	0xbafa9dd5	-0.0019120524
77	0xbda952dc	-0.08267757
78	0xbda9445c	-0.08264992
79	0xbd894d76	-0.067042276
80	0xbd820d53	-0.06350198
81	0x3b70c481	0.003673822
82	0x3d1ab671	0.037771646
83	0xbd4e5a40	-0.050379038
84	0xbd89cbc8	-0.06728321
85	0xbd71bf9b	-0.05902062
86	0xbc0cc38c	-0.008591544
87	0xbd650d70	-0.055921018
88	0xbdcd5d5e	-0.10027574
89	0x3c9ba317	0.018998666
90	0x3cdb0076	0.026733618
91	0xbd62014b	-0.055177014
92	0x3c1645e0	0.009171933
93	0xbd8e6fa8	-0.069548905
94	0xbd912b14	-0.070882946
95	0xbdb2f7c5	-0.087386645
96	0x3d31ff7a	0.043456532
97	0xbd8707cf	-0.06593286
98	0xbcf94bc1	-0.03043163
99	0x3c206102	0.009788753
100	0x3d2da832	0.04239673
101	0xbd9df50e	-0.07712756
102	0xbd6f721b	-0.05845843
103	0xbd957467	-0.072975926
104	0x3d8280bd	0.06372211
105	0xba00fb91	-0.0004920299
106	0x3ca003d8	0.019533083
107	0x3ccddba6	0.02512915
108	0x3d4af6ba	0.049551703
109	0x3c50a8e1	0.012735576
110	0x3d31cd73	0.043408822
111	0xbda991b1	-0.082797416
112	0x3d047bc5	0.0323446
113	0x3d19be8d	0.03753524
114	0x3c1bfc56	0.009520611
115	0xbd4fcc1a	-0.050731756
116	0x3d310d74	0.04322572
117	0x3ae6d076	0.0017609734
118	0xbda84610	-0.08216488
119	0x3d9d2a65	0.07674102
120	0x3c51418f	0.012771978
121	0xbc01d827	-0.00792507
122	0xbd9db50e	-0.07700549
123	0x3d5a5004	0.053298965
124	0xb9bf75f4	-0.0003651824
125	0xbda9bf1c	-0.08288404
126	0xbceda46c	-0.029009067
127	0x3c024ba9	0.007952609
128	0xba4202b9	-0.00074009184
129	0x3d021018	0.03175363
130	0x3d252ec3	0.0403278
131	0xbc37840c	-0.011200916
132	0x3bdbc4ef	0.006706826
133	0xbbc4401d	-0.005989088
134	0x3cd28cde	0.025701936
135	0x3b817608	0.003950838
136	0xbd4d7cb1	-0.050167743
137	0x3d4c863b	0.0499327
138	0xbc5093ff	-0.0127305975
139	0x3d318592	0.043340273
140	0x3c30f202	0.010799887
141	0xbcb92af5	-0.022603491
142	0x3c90d9c3	0.017681962
143	0x3b98d98a	0.0046646046
144	0xbd067bf4	-0.032833055
145	0x3c2e59cf	0.010641529
146	0xbbbaf8ac	-0.0057059135
147	0x3cc6203f	0.024185298
148	0x3ba293b6	0.004961456
149	0x3bb5cbda	0.0055479826
150	0x3bb59468	0.005541373
151	0xbd01f9ee	-0.031732492
152	0x3d332b26	0.04374232
153	0x3c5897f0	0.0132198185
154	0xbce4caaf	-0.027928678
155	0xbd95c7ff	-0.07313537
156	0xbd2fd4e5	-0.04292764
157	0x3cf00a0c	0.029301666
158	0x3cc02d95	0.023459235
159	0xbd4130ec	-0.047165796
160	0xbd14ee3b	-0.036360007
161	0x3b7c259d	0.0038474568
162	0x3b88e994	0.0041782353
163	0xbce6c3d7	-0.028169556
164	0xbd14bf00	-0.036314964
165	0x3c67173c	0.014104661
166	0xbd02fd4d	-0.031979848
167	0x3bbeaa56	0.0058186455
168	0xbca9fa7c	-0.020749323
169	0x3d92d40d	0.07169352
170	0xbc44ba5a	-0.01200732
171	0xbc97dfec	-0.018539391
172	0xbc1f4e21	-0.009723217
173	0x3d252d6d	0.040326525
174	0x3cdbd1c3	0.02683342
175	0xbca43f37	-0.020049674
176	0xb98b6e71	-0.0002659443
177	0xbc8e335f	-0.01735848
178	0xbd1ec7a8	-0.038764626
179	0xbabb58d2	-0.0014293438
180	0xbd1a275a	-0.037635185
181	0xbb926167	-0.0044671777
182	0x3d185a8a	0.03719572
183	0x3d647f58	0.055785507
184	0xbc83002b	-0.015991291
185	0xbbced604	-0.0063121337
186	0x3cf0abb7	0.029378755
187	0xbcc3279c	-0.023822598
188	0xbc4a327a	-0.012341136
189	0xbbb594fd	-0.0055414424
190	0xbcd159be	-0.025555488
191	0x3ce1b8fe	0.027554031
192	0xbc4272c7	-0.011868185
193	0xbc2595ff	-0.010106563
194	0xbcb874ac	-0.022516571
195	0xbc95f8be	-0.018307086
196	0xbcb235c7	-0.021754159
197	0xbd2b56f5	-0.041830976
198	0x3d08aa1a	0.033365346
199	0xbaffdd41	-0.0019520895
200	0x3be8f28d	0.0071089924
201	0x3ce5781d	0.028011376
202	0x3bdcd9da	0.006739837
203	0x3cb7ddd2	0.02244464
204	0xbd58ed5a	-0.05296073
205	0xbd3eb13b	-0.04655574
206	0xbced8df2	-0.028998349
207	0x3d2d80b4	0.04235907
208	0xbbe68479	-0.007034835
209	0x3cbef0d9	0.023308204
210	0x3d8bb65c	0.06821892
211	0x3c9c8523	0.019106453
212	0xbd18dc3e	-0.037319414
213	0x3c672b48	0.01410944
214	0x3cebfacc	0.028806113
215	0x3d4a8147	0.049439695
216	0x3b7b9770	0.0038389824
217	0xbd2a28c0	-0.04154277
218	0x3c1c8777	0.009553782
219	0x3cc581a0	0.024109662
220	0x3d5dcc49	0.0541499
221	0xbcad84bd	-0.021181459
222	0xbb7b203e	-0.0038318778
223	0xbd4033b0	-0.046924293
224	0x3ceaa996	0.028645318
225	0x3d11814d	0.0355237
226	0x3c9172b1	0.017754884
227	0x3cc2ae01	0.023764612
228	0x3c943b77	0.018094761
229	0xbcd35015	-0.025795022
230	0x3b3cc1f8	0.0028802138
231	0xbbc6cbad	-0.0060667605
232	0x3bdc1f54	0.006717602
233	0x3d4f6e62	0.05064238
234	0xbc386997	-0.011255643
235	0x3c0fce9f	0.00877729
236	0xbc581396	-0.013188263
237	0xbb99c12c	-0.0046922173
238	0x3963bdfe	0.00021719185
239	0xbd1bac1e	-0.03800594
240	0x3c8e7105	0.017387876
241	0x3c879ab2	0.016553257
242	0x3c507c42	0.012724938
243	0xbd0aa617	-0.033849802
244	0x3c3b8f62	0.011447759
245	0x3d0ae275	0.033907373
246	0xbd0ebdc4	-0.034848943
247	0xbc7f8671	-0.015596018
248	0x3dc1998b	0.09453114
249	0xbd4732ea	-0.04863254
250	0xbb939b40	-0.004504591
251	0xbd2bcb31	-0.041941825
252	0x3d3466a5	0.044043202
253	0xbcd86bc5	-0.026418576
254	0x3d2e7053	0.04258759
255	0xbbaa039c	-0.0051884186

action_model._discrete_distribution.branches.0.bias f4 [3]
0	0x3db59e53	0.088680886
1	0x3d402d60	0.046918273
2	0xbe267a28	-0.16257536

action_model._discrete_distribution.branches.1.weight f4 [3, 128]
0	0x3d4a6b9a	0.049419023
1	0x3cfd41ce	0.030915167
2	0xbb549bab	-0.0032441418
3	0xbd34832d	-0.04407041
4	0x3c3874f4	0.011258353
5	0x3d69542f	0.05696505
6	0x3c7d9351	0.0154770175
7	0x3cc9290a	0.024555702
8	0x3cbf5bd6	0.02335922
9	0x3ca947b5	0.020664075
10	0x3cc6803c	0.024231069
11	0xbcb883cb	-0.022523781
12	0xbc91ddf6	-0.017806035
13	0xbb1360e8	-0.002248818
14	0x3c407a8c	0.011747967
15	0xbb7abef5	-0.0038260792
16	0x3ca55c0f	0.020185499
17	0x3b1a0457	0.0023501122
18	0x3cb825ba	0.022478927
19	0xbca2baaf	-0.019864408
20	0x3d033257	0.03203043
21	0xbb96247b	-0.0045819855
22	0xbd4bb5a9	-0.04973379
23	0xbb87bf95	-0.0041427114
24	0xbc515fb7	-0.012779168
25	0x3cc54eb0	0.024085373
26	0x3d3713a1	0.044696454
27	0x3d80f45e	0.06296609
28	0x3c41854e	0.0118115675
29	0x3c4946c0	0.0122849345
30	0x3d730f95	0.059341032
31	0x3b762d22	0.0037563522
32	0x3d253100	0.040329933
33	0xbc0bdae6	-0.008536076
34	0xbd10997b	-0.03530262
35	0xbbc4dbaf	-0.0060076336
36	0x3c8b9a3a	0.017041314
37	0x3d6dad87	0.058026817
38	0x3b9b70c7	0.0047436687
39	0xbb04495b	-0.0020185325
40	0x3c6ae6b9	0.014337235
41	0x3b34df07	0.0027598755
42	0xb9abbd49	-0.0003275669
43	0x3c73474e	0.014848543
44	0xbc4e02c4	-0.012573902
45	0x3d012486	0.031528972
46	0xbca67127	-0.020317627
47	0xbd4a2ffb	-0.049362164
48	0xbc91986f	-0.017772881
49	0x3d631fde	0.055450313
50	0xbd1f2c93	-0.03886087
51	0x3d343283	0.043993484
52	0x3b7d6eac	0.0038670702
53	0xbc993c1c	-0.01870542
54	0xbcaa6698	-0.020800874
55	0x3d092002	0.03347779
56	0x3d2539b7	0.040338244
57	0xbc67518b	-0.014118562
58	0x3d0a7dd5	0.03381141
59	0x3cd907bd	0.026492948
60	0x3a4d8364	0.0007839708
61	0xbca06565	-0.019579599
62	0x3d0ffb05	0.0351515
63	0xbce61a77	-0.028088791
64	0x3a6fbe8a	0.0009145519
65	0x3d512a7e	0.051065914
66	0xbd34a232	-0.044099994
67	0x3c1bff6d	0.0095213475
68	0x3bd20d86	0.0064103035
69	0x3d34afc2	0.04411293
70	0x3da7c8e6	0.08192615
71	0xbd39aa0f	-0.045328196
72	0xbd32fb31	-0.043696586
73	0x3d7b4a87	0.06135037
74	0xbd01658f	-0.031590994
75	0xbd27dedf	-0.04098403
76	0x3d26dc4c	0.040737435
77	0x3d26790d	0.040642787
78	0x3cd75722	0.026286665
79	0x3b3f922c	0.0029231412
80	0x3d07c35d	0.033145297
81	0xbc9f02eb	-0.019410571
82	0xbcad664e	-0.021166947
83	0x3d4f2ae7	0.050578024
84	0xbc146a1a	-0.0090585
85	0xba19674e	-0.00058518804
86	0xbadfa605	-0.0017063027
87	0xbc785612	-0.0151572395
88	0x39a70535	0.00031856602
89	0x3bef5d1a	0.0073047997
90	0xbcdac106	-0.026703369
91	0x3c98922a	0.018624384
92	0xbc94b7f6	-0.018154126
93	0x3d53ebf5	0.051738698
94	0x3cc727cb	0.024310967
95	0x3c927761	0.01787919
96	0x3caef0d9	0.02135508
97	0x3ce0371d	0.02737003
98	0xbcfe8266	-0.031068038
99	0x3bf1b7fd	0.0073766694
100	0xbd9331c2	-0.07187225
101	0x3cf19315	0.02948908
102	0x3c39233f	0.011299907
103	0x3d6fc403	0.05853654
104	0x3c3cd7b6	0.011526039
105	0x3b2012d8	0.0024425294
106	0xbc3a8fd3	-0.011386829
107	0x3cd7cd84	0.026343115
108	0xbd2dfdcc	-0.042478368
109	0xb9e59da6	-0.0004379574
110	0xbc260d99	-0.010135078
111	0xba4154ae	-0.0007374984
112	0xbbbc9c8d	-0.005755967
113	0xbce63b03	-0.02810431
114	0x3c5272ee	0.012844784
115	0x3ca386d9	0.019961761
116	0x3c66e97e	0.014093755
117	0x3cde5ac9	0.0271429
118	0x3c94da1d	0.01817041
119	0xbd107b74	-0.035273984
120	0xbc8293ac	-0.015939556
121	0x3d3d7eff	0.04626369
122	0x3d7e74ba	0.062123038
123	0x3cbb0e89	0.02283408
124	0x3d118405	0.035526294
125	0x3d0cd4df	0.034382697
126	0xbb8b6eae	-0.0042551374
127	0xbcd76d96	-0.026297372
128	0xbb1ca0e7	-0.0023899616
129	0x3d327ca6	0.043575905
130	0xbc369572	-0.011144029
131	0xbd16108c	-0.036636874
132	0xbc2c06e3	-0.010499689
133	0xbc7bb933	-0.015363979
134	0x3cedc556	0.029024761
135	0x3de63ea6	0.11242418
136	0xbc2b082f	-0.010438963
137	0xbbf59f5e	-0.0074958047
138	0x3bf9e78e	0.0076264804
139	0xbd81ebe7	-0.06343823
140	0xbd694f9b	-0.056960683
141	0x3cc1e274	0.023667552
142	0xbd62dea8	-0.055388123
143	0x3d92967d	0.071576096
144	0xbd2f76fe	-0.04283809
145	0x3c9784b8	0.018495902
146	0x3ab12893	0.001351612
147	0x3da4aa3e	0.080402836
148	0x3d0cd916	0.034386717
149	0x3d7d349c	0.06181775
150	0xbbddf5a0	-0.0067736655
151	0xbcf931f1	-0.030419322
152	0xbd75bef1	-0.05999655
153	0xbc2fec14	-0.010737438
154	0x3a4ee85a	0.00078928994
155	0xbc26139d	-0.010136512
156	0xbdae00e5	-0.08496264
157	0xbcfb38d8	-0.030666754
158	0x3c90887e	0.01764321
159	0xbbae8edb	-0.0053270883
160	0x3c51dca7	0.012808955
161	0x3c012794	0.007882971
162	0x3ca67472	0.020319197
163	0xbca02931	-0.019550892
164	0xbac9ce83	-0.0015396628
165	0xbba1cd92	-0.004937836
166	0xbcdf1deb	-0.027235946
167	0x3c1623f1	0.009163843
168	0x3aa81343	0.0012823123
169	0xbdaa91bc	-0.08328578
170	0x3bb3bc0b	0.005485063
171	0x3bedfe29	0.0072629643
172	0x3bd913d3	0.0066246777
173	0xbcbed92f	-0.02329692
174	0x3d7e0032	0.062011905
175	0xbd60f4a4	-0.054920807
176	0xbc8c1ef2	-0.0171046
177	0x3d1138f1	0.035454694
178	0xbcae7098	-0.021293923
179	0x3bbd5099	0.0057774303
180	0xbc760235	-0.015015175
181	0x3cf2dd85	0.029646644
182	0xbc4a023a	-0.012329632
183	0x3cc2b6d5	0.023768822
184	0x3c6c1be6	0.014410948
185	0xbdb89336	-0.09012453
186	0x3d2ec58c	0.042668864
187	0x3bf24617	0.0073936093
188	0xbc932bf7	-0.0179653
189	0xbd69d30f	-0.057086047
190	0x3cc46f62	0.023978893
191	0x3d7c1e63	0.061552417
192	0x3cbba523	0.022905892
193	0xbc372a6b	-0.011179547
194	0xbca66989	-0.020313995
195	0x3b865e5f	0.0041006054
196	0x3da9117c	0.08255288
197	0x3d402526	0.046910428
198	0x3904792a	0.00012633638
199	0xbd6107c2	-0.05493904
200	0xbd45ea32	-0.04831905
201	0xbad30af7	-0.001610129
202	0xbd359385	-0.04433014
203	0xbd12cdda	-0.035840847
204	0xbcb0ec76	-0.021597128
205	0x3b97bb90	0.0046305135
206	0x3c7e710c	0.015529882
207	0x3cec2ba9	0.028829413
208	0xbabd516f	-0.0014443825
209	0x3c0c9d90	0.008582488
210	0xbc66d4fc	-0.014088865
211	0xba084e03	-0.0005199613
212	0x3d7ae778	0.061255902
213	0x3dd4564a	0.10368021
214	0x3e100ebc	0.1406812
215	0xbc591d39	-0.013251596
216	0x3a1557ed	0.0005697001
217	0x3c5833ba	0.013195926
218	0xbb8edf4e	-0.004360116
219	0xbc8dac35	-0.017294029
220	0xbc60c33f	-0.013718425
221	0xbc69b613	-0.014264601
222	0xbcc0386e	-0.023464408
223	0xbc500f25	-0.012698923
224	0x3b1e42c8	0.0024148691
225	0xbcad5cb4	-0.021162368
226	0xbc31f75f	-0.0108622005
227	0x3d70875e	0.058722846
228	0xbc7e56d4	-0.015523631
229	0x3c14aeb6	0.009074857
230	0x3ca1e42c	0.019762121
231	0xbc235ed8	-0.009971343
232	0xbcc97d5a	-0.024595905
233	0xbac89ad7	-0.0015304935
234	0xbcb56269	-0.022141652
235	0x3d08cce0	0.03339851
236	0x3ca660cc	0.020309828
237	0x3b266a7a	0.0025393055
238	0xbc29baca	-0.010359475
239	0xbdab2cb9	-0.083581395
240	0x3cea56cc	0.028605841
241	0x3c520417	0.012818358
242	0x3d64714e	0.05577212
243	0x3c0bebbe	0.008540092
244	0x3d1ca98d	0.038247634
245	0x3d205c58	0.039150566
246	0xbb1bbe2b	-0.0023764472
247	0xbb022de8	-0.0019863788
248	0xba19f7f6	-0.0005873436
249	0x3cc4687a	0.0239756
250	0x3a5bab86	0.0008379746
251	0x3df920ad	0.121644355
252	0x3d99433a	0.074835256
253	0xbbb87c68	-0.0056300648
254	0xbc1e306c	-0.009655099
255	0xbce03a0a	-0.027371425

action_model._discrete_distribution.branches.1.bias f4 [3]
0	0xbcae4db5	-0.021277288
1	0xbae94951	-0.0017798339
2	0x3cabea65	0.020985791

exp_avg f4 [128, 22]
0	0x3785e88d	1.5963125e-05
1	0x3916b45f	0.00014372308
2	0x387c8846	6.0208396e-05
3	0x391c165a	0.00014885646
4	0x38d8dd5b	0.00010340913
5	0x393c1d52	0.0001794
6	0x36b70fcc	5.455664e-06
7	0x3901a0d3	0.0001236231
8	0x369e1187	4.7108074e-06
9	0x3997b7f8	0.00028938032
10	0x35f9709c	1.8584719e-06
11	0x3798a649	1.8197245e-05
12	0x36079c89	2.0207683e-06
13	0x38a9e7e7	8.101743e-05
14	0x38e1bbbf	0.000107638065
15	0x3726e222	9.947022e-06
16	0xb91b58d2	-0.0001481504
17	0x38dd2d66	0.00010546557
18	0x391658ca	0.00014338191
19	0xb900d72a	-0.00012287186
20	0xb92cbb3b	-0.00016472947
21	0x39abdd17	0.00032780386
22	0x36962dd4	4.4756835e-06
23	0xb914041f	-0.00014115915
24	0x36bae610	5.5700148e-06
25	0xb9067a16	-0.00012824716
26	0x37a99b69	2.0218738e-05
27	0xb8f59be9	-0.00011711551
28	0x35983d58	1.1342736e-06
29	0xb99a4f81	-0.00029432404
30	0x35837478	9.794157e-07
31	0xb9ac384f	-0.0003284835
32	0x34cf7190	3.8639382e-07
33	0x370b7558	8.312367e-06
34	0x34e18ed0	4.2013426e-07
35	0xb847f49e	-4.7673115e-05
36	0x388eb65c	6.805055e-05
37	0x388465d4	6.3132175e-05
38	0x393168ed	0.00016919123
39	0x38685af8	5.539783e-05
40	0x3940c785	0.00018384874
41	0x391501ed	0.00014210465
42	0x39396269	0.00017679635
43	0xb9dc2e21	-0.0004199604
44	0x38cbefb9	9.724446e-05
45	0xb6b21460	-5.3071853e-06
46	0x3772a7c0	1.4463381e-05
47	0xb81bf8a0	-3.718643e-05
48	0xb8865c39	-6.406796e-05
49	0xb8cdf46c	-9.820689e-05
50	0xb703ba54	-7.851591e-06
51	0x38c3231f	9.3048664e-05
52	0xb6e37c7d	-6.7796195e-06
53	0xb8a60ff3	-7.9184676e-05
54	0xb6337e08	-2.6746438e-06
55	0x387431de	5.8220576e-05
56	0xb6432ac2	-2.9082153e-06
57	0x374ae49e	1.2093367e-05
58	0x38a1c587	7.7138706e-05
59	0x38123038	3.485402e-05
60	0xb84425d5	-4.6765275e-05
61	0x38842f66	6.303079e-05
62	0xb994f0ad	-0.00028408077
63	0xb8743630	-5.82246e-05
64	0xb8a169f8	-7.6968165e-05
65	0xb8a9db28	-8.099369e-05
66	0xb5befb7f	-1.4229298e-06
67	0x3915294f	0.00014225136
68	0xb7763e6a	-1.46772745e-05
69	0x393cc8bd	0.00018003858
70	0xb89f200d	-7.587681e-05
71	0x38813bdc	6.162349e-05
72	0xb6b3ce91	-5.358663e-06
73	0x3a536b6f	0.000806502
74	0xb69b420c	-4.627049e-06
75	0x39c19a24	0.00036926672
76	0xb5f50133	-1.8254271e-06
77	0xba02da1a	-0.0004991606
78	0xb6053342	-1.984838e-06
79	0x399c92d1	0.00029864025
80	0x384931a0	4.796835e-05
81	0xb889463a	-6.54575e-05
82	0xb9399770	-0.0001769939
83	0xb6899880	-4.1006715e-06
84	0xb9ff8bbd	-0.00048741503
85	0xb9246215	-0.00015676797
86	0xb9e6f7de	-0.00044053694
87	0x3a352d1a	0.00069113227
88	0x38f1f08b	0.0001153658
89	0xb857b198	-5.142539e-05
90	0x37d1c340	2.5005662e-05
91	0xb909831e	-0.00013114183
92	0x387c62eb	6.0173606e-05
93	0xb8629fad	-5.403131e-05
94	0x367ec4c8	3.7963491e-06
95	0xb99c300f	-0.00029790445
96	0x365bfc60	3.2780445e-06
97	0xb8c93afb	-9.595413e-05
98	0x35ad92f0	1.2932269e-06
99	0x396983b6	0.00022269678
100	0x35bcbb53	1.406161e-06
101	0xb7e983d6	-2.7837155e-05
102	0x3713070d	8.763524e-06
103	0x38fd8ab4	0.000120898156
104	0xb88459ce	-6.310978e-05
105	0x38303565	4.2011397e-05
106	0x39b6c0ac	0.00034857297
107	0xb8ad3925	-8.259927e-05
108	0x38129ac8	3.4953264e-05
109	0xb9003704	-0.00012227526
110	0x374954af	1.20002505e-05
111	0x393660b1	0.00017392893
112	0x32631000	1.3216777e-08
113	0x39281419	0.00016029215
114	0x37c6fbb2	2.3720644e-05
115	0x392518eb	0.00015744909
116	0x35f3e25c	1.817079e-06
117	0x39eb83ed	0.00044920985
118	0x35d29674	1.5690007e-06
119	0x39c7dee1	0.00038122296
120	0x352628a8	6.189898e-07
121	0xb8711176	-5.747514e-05
122	0x3534ab4c	6.7304495e-07
123	0x395c3f23	0.00021004355
124	0xb81eaeb8	-3.7832855e-05
125	0xb88acbac	-6.6182896e-05
126	0xb92b89cd	-0.00016359166
127	0xb7a4f6d0	-1.9665255e-05
128	0xb9d9829f	-0.00041486786
129	0xb9084132	-0.00012994258
130	0xb9bef169	-0.0003641949
131	0x3a0f4815	0.0005465758
132	0xb91459d4	-0.00014147843
133	0xb88b260f	-6.6351255e-05
134	0xb85bdb4a	-5.2417898e-05
135	0x386c34fa	5.6316123e-05
136	0xb9e1d56d	-0.0004307436
137	0xb98766d1	-0.0002582581
138	0xb5a14a28	-1.2017017e-06
139	0x39ef355a	0.00045625382
140	0xb58b4474	-1.037623e-06
141	0xb9800668	-0.00024418836
142	0xb4dbc590	-4.0935674e-07
143	0xb9292d58	-0.00016133988
144	0xb4eef6b0	-4.4510443e-07
145	0x325d4800	1.2880264e-08
146	0x39fd1090	0.0004826826
147	0xb8fa6db6	-0.00011941364
148	0x37d15a00	2.4956651e-05
149	0x39dc5aa8	0.00042029214
150	0xba69f560	-0.00089248084
151	0x381eef9c	3.789329e-05
152	0xb912248d	-0.00013937261
153	0xb6a57800	-4.931353e-06
154	0xb83c6030	-4.4912274e-05
155	0xb4eefd00	-4.4515036e-07
156	0xb8368927	-4.3519914e-05
157	0x381207e9	3.481648e-05
158	0xb920873c	-0.00015309168
159	0xb8a5fce1	-7.9149155e-05
160	0xb7299ed9	-1.011017e-05
161	0x382a99b8	4.067432e-05
162	0xb7127659	-8.729833e-06
163	0xb9121558	-0.00013931596
164	0xb6671ff3	-3.444028e-06
165	0xb9d9604c	-0.00041461212
166	0xb67b4ee8	-3.7447844e-06
167	0x37994558	1.8271312e-05
168	0x37fa5e50	2.984624e-05
169	0xb869d04f	-5.574553e-05
170	0x3969f455	0.00022311632
171	0xb4818800	-2.4127075e-07
172	0xb99fd137	-0.0003048272
173	0x396e7c86	0.00022743837
174	0x3933fe20	0.00017165439
175	0xb939e911	-0.00017729799
176	0x37f53dfa	2.9235136e-05
177	0x399b9d6d	0.00029681195
178	0x3918a2f3	0.00014556553
179	0x39d0c99c	0.00039823062
180	0xb78e4ba8	-1.696295e-05
181	0x39542119	0.00020230225
182	0xb5b6e3d8	-1.3626368e-06
183	0x3a390fe2	0.00070595567
184	0xb59deba8	-1.1765997e-06
185	0x39eb9a7e	0.00044937799
186	0xb4f934e4	-4.6418347e-07
187	0xba169ec9	-0.0005745707
188	0xb5077bd4	-5.047161e-07
189	0x399c2522	0.00029782305
190	0x395352be	0.00020153352
191	0xb8be3d21	-9.071292e-05
192	0xb86bf072	-5.62523e-05
193	0x39328938	0.00017026521
194	0xba493bd8	-0.0007676459
195	0x3627b7e0	2.4991969e-06
196	0xb9953958	-0.0002846222
197	0x3a5d1eab	0.0008435051
198	0x37ea208d	2.7910131e-05
199	0x37b55622	2.161699e-05
200	0xb831ab20	-4.235946e-05
201	0xb70825b8	-8.115014e-06
202	0x3742e03c	1.161551e-05
203	0x378d8600	1.6870908e-05
204	0xb769bb1d	-1.3931448e-05
205	0x38d6f845	0.00010250559
206	0xb749d1df	-1.2029398e-05
207	0x39914004	0.0002770425
208	0xb69f3dac	-4.745749e-06
209	0xb90a5c5c	-0.00013195112
210	0xb6ad25a2	-5.160183e-06
211	0x399a67fa	0.00029450638
212	0xb96f7624	-0.00022836827
213	0x37d99e3b	2.5942098e-05
214	0xb8d70a93	-0.000102539685
215	0xb97650c7	-0.0002349048
216	0xb9233906	-0.00015566134
217	0xb8e66b3e	-0.0001098723
218	0xb8bea250	-9.090139e-05
219	0x393cd7df	0.00018009495
220	0xb8027e03	-3.1111773e-05
221	0x39855900	0.00025434047
222	0x38ce9cfb	9.852085e-05
223	0x39aa9d24	0.00032542006
224	0xb760bab0	-1.3394907e-05
225	0x3963b4f5	0.00021715819
226	0xb6be73a5	-5.675904e-06
227	0x39d71ac2	0.00041027932
228	0xb6a47310	-4.900976e-06
229	0x39ba0890	0.00035483064
230	0xb601c12d	-1.933494e-06
231	0xba040b15	-0.0005037052
232	0xb60d1600	-2.1023443e-06
233	0x395c3766	0.00021001472
234	0x3915415c	0.00014234096
235	0xb8867cd6	-6.4128704e-05
236	0xb8d80062	-0.00010299754
237	0x38e75c11	0.00011032087
238	0xb78c4650	-1.6722042e-05
239	0xb84dc0b6	-4.9055285e-05
240	0xb93f1df7	-0.00018226342
241	0x3a0b6c72	0.0005318589
242	0x37111312	8.647114e-06
243	0xb88c5c45	-6.692907e-05
244	0x376db233	1.4167791e-05
245	0xb85fd067	-5.3361433e-05
246	0x37cb36bf	2.4224979e-05
247	0xb8634049	-5.4180888e-05
248	0x35ebb2eb	1.7560936e-06
249	0xb7bd9774	-2.2601082e-05
250	0x35cb84e6	1.5163357e-06
251	0xb907c747	-0.0001294884
252	0x352094e5	5.9821315e-07
253	0x37e805cf	2.765926e-05
254	0x352e9ad4	6.5045356e-07
255	0xb8aec286	-8.3331994e-05
